results/Run4/PlayerRL/PlayerRL-1718.pt (torch, 145898 bytes, 10 tensors)

network_body._body_endoder.seq_layers.0.weight f4 [128, 3]
000000 4b c0 e0 3e 51 52 c0 be 3b c7 b6 3e b3 81 80 bf
       0.43896708 -0.37562802 0.35698876 -1.0039581
000010 29 a6 0b 3e 22 a5 a0 be e0 77 a6 3e 9b 30 0a be
       0.13637604 -0.31375986 0.32513332 -0.13495104
000020 85 de df be 6d 7c 21 bf ed 2a 6f 3e a2 72 e6 be
       -0.43724456 -0.63080484 0.23356219 -0.45009333
000030 6f 7a 22 3f 76 01 9f be ce 69 2e be 80 d2 36 3f
       0.6346807 -0.31055802 -0.17032549 0.7141495
000040 cd 1d 8c be ae 6a 05 bd 69 a3 54 3f 74 90 40 3f
       -0.27366486 -0.03257244 0.83061844 0.7522042
000050 ff f9 1d bf 40 c1 cf 3e f6 bc 2a 3d 12 74 87 3e
       -0.6170959 0.40577126 0.041684113 0.26455742
000060 78 52 24 3f 92 08 44 be dd ae 16 3f e4 ce 37 3f
       0.6418834 -0.19143894 0.5886057 0.71800065
000070 e2 8a 88 be a4 8c 8d 3e 4d e7 42 bc 60 31 8e be
       -0.2666846 0.27646363 -0.011895967 -0.27772045
000080 12 6b 38 bf fe df 40 bc f0 ba 25 bf da 78 c2 3e
       -0.72038376 -0.011772154 -0.6473837 0.37982827
000090 de 5a 68 3d 7e 54 c0 3e 22 fd 0a 3f 88 7c 28 bf
       0.056727283 0.37564462 0.542925 -0.6581502
0000a0 ab e8 29 be 04 a1 e8 bd 7d 8c d7 3e 96 31 78 3d
       -0.16592662 -0.11358836 0.42099372 0.060594164
0000b0 3d 40 0c bf 14 8d 83 3e 6b e5 94 3f ee 7c 9a 3e
       -0.5478552 0.25693572 1.1632513 0.3017344
0000c0 a4 cc f3 be 8d b1 80 be 7a f4 f9 3e a1 f0 26 bf
       -0.47617066 -0.2513546 0.48819333 -0.6521092
0000d0 4e 58 2e be f1 d5 a2 3d 37 41 da 3d 93 65 46 bf
       -0.17025873 0.07950962 0.1065697 -0.7749874
0000e0 c4 d5 1c 3f de 11 d6 be 01 03 26 3f a9 bf 23 bd
       0.6126368 -0.41810507 0.64848334 -0.039977703
0000f0 c6 cb ab 3e 52 21 69 bf be e5 60 3e f3 69 ee 3e
       0.33553904 -0.9106647 0.2196264 0.46565208
000100 07 7b 1f be c8 56 86 3f d0 f7 bb 3e 8c 17 b4 3c
       -0.15574275 1.0495234 0.36712503 0.021983884
000110 a9 a5 64 bf 5b b6 94 3f 7a 7e 2e 3f b7 b2 96 3e
       -0.8931528 1.161815 0.6816174 0.29433224
000120 b9 1b 4c 3f d8 09 0b 3e 95 3b e5 bd c4 37 35 3f
       0.797298 0.13577974 -0.11193005 0.70788217
000130 7c 77 4f bf 8f ff 9c bc fb 3f 3e 3f ad 63 c2 3c
       -0.81041694 -0.019164829 0.74316376 0.02372917
000140 6f 47 55 3f f0 18 3c 3d b9 3c ea bd e0 f9 41 bf
       0.83312124 0.04592222 -0.11437363 -0.75771904
000150 ef fc 30 3f 1e 3d 2c 3e a1 6a 15 3f 40 57 06 be
       0.69135946 0.1682019 0.5836583 -0.1311922
000160 06 c3 9b 3e 1e 36 dc 3d f1 da 17 bf d0 4d 2c bf
       0.3042223 0.107525095 -0.59318453 -0.6730623
000170 20 e1 74 3f da 01 d6 3e 02 db f5 be d9 20 83 3f
       0.95656013 0.41798288 -0.48018652 1.0244399
000180 a6 38 6c bd 78 de 8e 3e 47 a1 c9 be d5 27 83 3e
       -0.05767121 0.27904105 -0.39380857 0.25616327
000190 27 df 8b 3e 24 5d 78 3f 3b 15 2b bc 75 e4 40 3e
       0.2731869 0.9701712 -0.010442073 0.1883715
0001a0 77 6f ea 3e 38 6c 4f 3d 20 43 c1 3f 5c 89 22 be
       0.45788166 0.050640315 1.509861 -0.15872711
0001b0 92 dc 12 bf 16 d2 87 bc 9d 6f 76 3f bf c1 ad 3e
       -0.57367814 -0.016579669 0.9626406 0.3393688
0001c0 b1 59 21 bf e0 9e e6 be e7 89 89 bf 77 bc 95 3e
       -0.63027483 -0.45043087 -1.074521 0.2924535
0001d0 5e d1 3a 3e f9 e7 fb bd 9d c0 f7 bb 6e 6e 27 bf
       0.1824393 -0.12300105 -0.007560803 -0.6540288
0001e0 cd fb 41 be 3c be d5 be 9f b1 6b be df 07 83 be
       -0.1894371 -0.417467 -0.23016976 -0.25591943
0001f0 7c f2 6c 3f 27 54 85 be c4 7f bc 3d c9 c5 29 3d
       0.925575 -0.26040766 0.09204057 0.04144839
000200 66 2f e0 bd 95 e7 c5 bd 78 bc b5 3f 78 15 1e be
       -0.109465405 -0.096633114 1.4198141 -0.15437877
000210 c3 73 1c bf f0 b5 5f 3f 1f ed 25 bf 04 39 11 bf
       -0.6111414 0.8738699 -0.64814943 -0.56727624
000220 1d e5 8c 3e 28 7a 51 3f ba 4a 9f be 3f 65 bb be
       0.2751855 0.8182702 -0.311117 -0.36600682
000230 b8 96 f7 3e fb 39 b3 3e 82 f6 b8 bd 5d 0c 09 3f
       0.48357177 0.35005173 -0.09031393 0.5353449
000240 d5 3b 8b 3e cb be c4 3e e1 80 77 3c 3a 82 ef be
       0.27194086 0.38426813 0.015106411 -0.46779042
000250 e8 b4 a3 3e 21 87 64 be 5c 49 ab 3e 1e 7c 24 3f
       0.31973958 -0.22317173 0.33454406 0.6425189
000260 e1 24 dd 3d ce 14 b4 bd 33 05 33 3f ec 98 2e be
       0.1079805 -0.08793031 0.6992981 -0.17050523
000270 97 72 1e bf ed e9 61 3f 92 1c 07 3f ea 15 0f bf
       -0.618936 0.8824757 0.5277797 -0.55892813
000280 49 49 5b bf c9 5b a5 be 7d d0 bf bb 3f ab 1a be
       -0.856587 -0.3229659 -0.005853711 -0.15104388
000290 2d 4b 62 be 62 40 39 bf e4 7a 34 bf 4c fb 24 bf
       -0.2209899 -0.72363865 -0.70500016 -0.6444595
0002a0 65 49 75 be be c0 8c 3f fc cd 4d bf 30 db 26 3f
       -0.23953779 1.099632 -0.8039243 0.65178204
0002b0 30 df 14 3f f8 0f c4 be 96 8c 76 3e bb 1d 15 3e
       0.5815306 -0.38293433 0.24077067 0.14562123
0002c0 44 6e b2 bd 32 c2 cc be f5 f3 46 bf 03 15 5e 3f
       -0.08712438 -0.3999191 -0.77716 0.8675081
0002d0 8f 4b 41 3c 0d cf 1b bf 8d e6 cd be 38 d2 06 3f
       0.0117978 -0.6086281 -0.4021496 0.5266452
0002e0 0f c1 6a 3e 0f 96 0f 3d e1 22 97 3e 1a e2 60 3e
       0.22925209 0.035055216 0.29518798 0.21961251
0002f0 72 ec e0 bd f2 4f 8a bf b9 32 9f 3b 83 3b 09 bf
       -0.10982598 -1.0805647 0.0048583415 -0.5360643
000300 ee 67 cd 3e 5a 16 61 bd a3 52 9b bf 85 0b e9 be
       0.40118355 -0.054952957 -1.2134594 -0.455166
000310 18 bb 0f 3f 38 85 82 3f eb 02 cc 3e 6e 11 2e bd
       0.5614486 1.0196905 0.39845976 -0.04249709
000320 a2 0c 8c 3c 19 35 cf 3e 86 c8 24 bf b7 20 7d 3f
       0.017095868 0.40470198 -0.64368474 0.98878044
000330 2e 87 22 bd 2f 79 ea bc ee 48 29 3e a2 6d a6 3e
       -0.0396797 -0.028622238 0.16531727 0.32505518
000340 73 ec b2 be 4f bf ac 3e 60 5f c3 3e e5 7a d3 3d
       -0.3494602 0.33739707 0.38158703 0.10326175
000350 c4 2d 49 bf 8f a7 4c bf ae c9 b0 3d ab a3 b5 be
       -0.7858546 -0.79943174 0.08632217 -0.3547643
000360 fc e4 51 bf 04 45 2e bf b6 fb b9 3d bb cb 13 3f
       -0.8199003 -0.6807406 0.09081213 0.57732743
000370 3f 6f e2 3d 07 ba f0 be de bf 0f bf cd 0a 5c 3f
       0.11056375 -0.47016928 -0.5615214 0.8595398
000380 c7 a1 af bd a2 81 dc 3e 15 66 97 3e dc 57 f6 bd
       -0.085757785 0.43067652 0.2957007 -0.120284766
000390 77 ba c6 bd a4 4e 70 3e 19 b1 b9 be ac b0 0d be
       -0.09703534 0.23467499 -0.36267927 -0.13836926
0003a0 3f 91 af be bf ab da 3d d2 68 13 be c7 5a 9e bd
       -0.342905 0.10677289 -0.14395455 -0.07732158
0003b0 bb d6 01 be 65 21 a6 be 05 e8 47 bd 5d b7 fe bd
       -0.1267957 -0.32447353 -0.048805255 -0.124373175
0003c0 6a 78 a7 bf 61 16 eb 3d bc 4d 2e 3e 63 eb f5 be
       -1.3083622 0.11478878 0.17021841 -0.48031148
0003d0 dd c1 90 3d b0 a2 f7 3e 91 f2 55 bf 09 1f 59 be
       0.070682265 0.48366308 -0.8357325 -0.21203245
0003e0 9d 45 e1 3e ab 1c 82 3e 98 e7 e2 3e 14 c6 56 be
       0.43998423 0.25412497 0.44317317 -0.20973998
0003f0 01 4e 43 be 0c b8 01 bf 8d 7d dd 3e f1 60 39 bf
       -0.19072725 -0.5067146 0.4325985 -0.72413546

network_body._body_endoder.seq_layers.0.bias f4 [128]
000000 00 00 00 00 00 00 00 00 00 00 00 00 00 00 00 00
       0.0 0.0 0.0 0.0
000010 00 00 00 00 00 00 00 00 00 00 00 00 00 00 00 00
       0.0 0.0 0.0 0.0
000020 00 00 00 00 00 00 00 00 00 00 00 00 00 00 00 00
       0.0 0.0 0.0 0.0
000030 00 00 00 00 00 00 00 00 00 00 00 00 00 00 00 00
       0.0 0.0 0.0 0.0
000040 00 00 00 00 00 00 00 00 00 00 00 00 00 00 00 00
       0.0 0.0 0.0 0.0
000050 00 00 00 00 00 00 00 00 00 00 00 00 00 00 00 00
       0.0 0.0 0.0 0.0
000060 00 00 00 00 00 00 00 00 00 00 00 00 00 00 00 00
       0.0 0.0 0.0 0.0
000070 00 00 00 00 00 00 00 00 00 00 00 00 00 00 00 00
       0.0 0.0 0.0 0.0
000080 00 00 00 00 00 00 00 00 00 00 00 00 00 00 00 00
       0.0 0.0 0.0 0.0
000090 00 00 00 00 00 00 00 00 00 00 00 00 00 00 00 00
       0.0 0.0 0.0 0.0
0000a0 00 00 00 00 00 00 00 00 00 00 00 00 00 00 00 00
       0.0 0.0 0.0 0.0
0000b0 00 00 00 00 00 00 00 00 00 00 00 00 00 00 00 00
       0.0 0.0 0.0 0.0
0000c0 00 00 00 00 00 00 00 00 00 00 00 00 00 00 00 00
       0.0 0.0 0.0 0.0
0000d0 00 00 00 00 00 00 00 00 00 00 00 00 00 00 00 00
       0.0 0.0 0.0 0.0
0000e0 00 00 00 00 00 00 00 00 00 00 00 00 00 00 00 00
       0.0 0.0 0.0 0.0
0000f0 00 00 00 00 00 00 00 00 00 00 00 00 00 00 00 00
       0.0 0.0 0.0 0.0
000100 00 00 00 00 00 00 00 00 00 00 00 00 00 00 00 00
       0.0 0.0 0.0 0.0
000110 00 00 00 00 00 00 00 00 00 00 00 00 00 00 00 00
       0.0 0.0 0.0 0.0
000120 00 00 00 00 00 00 00 00 00 00 00 00 00 00 00 00
       0.0 0.0 0.0 0.0
000130 00 00 00 00 00 00 00 00 00 00 00 00 00 00 00 00
       0.0 0.0 0.0 0.0
000140 00 00 00 00 00 00 00 00 00 00 00 00 00 00 00 00
       0.0 0.0 0.0 0.0
000150 00 00 00 00 00 00 00 00 00 00 00 00 00 00 00 00
       0.0 0.0 0.0 0.0
000160 00 00 00 00 00 00 00 00 00 00 00 00 00 00 00 00
       0.0 0.0 0.0 0.0
000170 00 00 00 00 00 00 00 00 00 00 00 00 00 00 00 00
       0.0 0.0 0.0 0.0
000180 00 00 00 00 00 00 00 00 00 00 00 00 00 00 00 00
       0.0 0.0 0.0 0.0
000190 00 00 00 00 00 00 00 00 00 00 00 00 00 00 00 00
       0.0 0.0 0.0 0.0
0001a0 00 00 00 00 00 00 00 00 00 00 00 00 00 00 00 00
       0.0 0.0 0.0 0.0
0001b0 00 00 00 00 00 00 00 00 00 00 00 00 00 00 00 00
       0.0 0.0 0.0 0.0
0001c0 00 00 00 00 00 00 00 00 00 00 00 00 00 00 00 00
       0.0 0.0 0.0 0.0
0001d0 00 00 00 00 00 00 00 00 00 00 00 00 00 00 00 00
       0.0 0.0 0.0 0.0
0001e0 00 00 00 00 00 00 00 00 00 00 00 00 00 00 00 00
       0.0 0.0 0.0 0.0
0001f0 00 00 00 00 00 00 00 00 00 00 00 00 00 00 00 00
       0.0 0.0 0.0 0.0

network_body._body_endoder.seq_layers.2.weight f4 [128, 128]
000000 b2 08 80 bc bf 87 ad 3d 70 54 09 3c fb 9d 08 3e
       -0.015629146 0.08473157 0.008381948 0.13341515
000010 04 50 bf bb 95 50 ed 3c ac 7a cb 3d ad 46 8c bc
       -0.005838396 0.028969089 0.09935507 -0.017123545
000020 90 bb 15 3d 1e de 70 bd ca b3 7f 3d 86 48 7e bc
       0.036555827 -0.058805577 0.06242732 -0.015520221
000030 95 d2 1f 3d ea 20 04 3d 0e 17 51 3d 22 80 c6 bd
       0.039019186 0.03225795 0.051047377 -0.09692408
000040 b4 16 fd bd df 15 be bc e4 03 9f bd 99 60 b6 bc
       -0.12357846 -0.023203788 -0.07764414 -0.022262858
000050 4f 8e ee 3c 00 40 d4 3c 2e b3 93 bb 7a 4b e9 3d
       0.029120592 0.025909424 -0.004507444 0.11391349
000060 30 5f f6 bd fe 53 fe bb 3c 23 11 3d bc 31 09 3e
       -0.12029874 -0.0077614775 0.035433993 0.13397878
000070 03 d6 51 bc 54 52 74 be 1d ef 76 3d 2e bf 54 be
       -0.012807372 -0.2385953 0.06028663 -0.20776054
000080 4e 89 ae bd f3 25 33 3d 13 8d d0 bd ff cb d5 3c
       -0.085222825 0.043737363 -0.10183158 0.02609825
000090 57 fb c3 bd 89 49 23 3d 35 40 35 bd e8 24 55 bd
       -0.09569424 0.03986505 -0.044250686 -0.05203715
0000a0 22 78 40 bd e0 78 dc 3d 4d ca 41 3c ba ff f8 bd
       -0.046989568 0.107652426 0.011828017 -0.12158151
0000b0 ac 16 97 bc a1 5b 85 3e 05 0a c1 bd d9 6d 0b bc
       -0.018443428 0.2604647 -0.09425739 -0.008510076
0000c0 12 dc 87 bb 7a 10 00 3b b9 38 9c bd 52 00 75 bd
       -0.0041461075 0.001954107 -0.076280065 -0.05981476
0000d0 67 b8 af bd 68 25 8f 3d 5b 37 87 3d 68 9b 2e 3d
       -0.08580094 0.069895566 0.06602355 0.042628676
0000e0 f0 ba 37 3e fd 9f 5a bd d5 b5 fa bd 24 55 50 bd
       0.17942405 -0.053375233 -0.12241713 -0.050862446
0000f0 05 1e 5e bc e2 2e d3 3d f5 35 4c bd 14 65 fd ba
       -0.013556962 0.103116766 -0.049856145 -0.0019332492
000100 d7 78 f9 bb 14 53 4d 3d 42 ab ad 3d 6b d1 cb 3c
       -0.007613282 0.050128058 0.084799305 0.024880132
000110 09 58 e6 3d 8e ab 04 3e 7a 1f f7 bc 3d 5b 35 3d
       0.1124726 0.12956068 -0.030166376 0.044276465
000120 dd a4 41 bd f8 d3 13 be 66 9d a4 bd 7f 02 4f bc
       -0.047276367 -0.14436328 -0.08037834 -0.012634872
000130 c5 24 28 3e e7 3f 57 3d 65 16 06 3d 95 89 79 bd
       0.16420276 0.052551176 0.0327362 -0.060922224
000140 01 4d e3 bd 5d e1 30 be d4 34 a1 3d 8f 5f 89 3c
       -0.11098672 -0.1727347 0.07871404 0.016769199
000150 5c 48 c6 bd 17 a3 d0 bd d5 67 1e bd 99 a1 84 bd
       -0.0968177 -0.10187357 -0.03867324 -0.06476135
000160 01 9d b8 ba be 3c a9 3d 8b fc 1d bd fe 06 ec 3c
       -0.0014084877 0.08263539 -0.038570922 0.028811928
000170 dd e4 d2 3c 1b 15 02 bd 75 b6 a2 3d 57 3c 04 be
       0.025743896 -0.03175841 0.07944957 -0.12913643
000180 ee 41 db 3d 0a 53 30 bd 62 ed 03 bd 68 d0 6a bd
       0.107059345 -0.043047942 -0.032208808 -0.057327658
000190 74 a3 3e 3d 04 70 c8 3d 40 96 37 3e 87 b4 43 3d
       0.0465426 0.0978699 0.1792841 0.047779586
0001a0 2c df d5 bd 5e 53 81 bd 7e 72 3b 3d da 61 0e 3e
       -0.10442957 -0.06314729 0.045763485 0.13904515
0001b0 d6 ca 84 bd 07 f9 45 bd 9d e6 3e 3d 9c b2 9a bc
       -0.064840004 -0.048333194 0.04660665 -0.018883996
0001c0 2f cf ca bd 91 74 82 3c 63 b7 db bd bc 42 8c 3d
       -0.099027984 0.015924724 -0.107283376 0.06848666
0001d0 63 cc a8 3d 3d f9 b1 3d 22 0e 82 bd 93 ca 06 3e
       0.08242109 0.086901166 -0.06350352 0.13163213
0001e0 21 86 71 be 4e 0a b7 3d 9a 5b 80 bd 31 e7 03 3e
       -0.23586322 0.08937512 -0.062674716 0.12881161
0001f0 41 ec 68 3d 64 8e 46 bb 73 da 0a 3d 8d 2a c8 3d
       0.056865934 -0.0030297274 0.033899736 0.09773741
000200 8f d5 11 be 6b ed 6a bc 26 1e 41 3e 79 91 c1 3d
       -0.14241622 -0.014338831 0.18859157 0.09451575
000210 c1 07 59 3d 8d b4 e5 3d ed ca e7 bd 52 8d 89 bc
       0.05298591 0.11216078 -0.11318002 -0.01679102
000220 a8 92 16 be 99 e4 51 bd d4 de fe bd 30 f4 16 be
       -0.14704382 -0.0512434 -0.12444845 -0.14741588
000230 cb e4 70 3c 6b 69 42 3d ae 42 06 be 2e 6d 82 bd
       0.014702986 0.047463816 -0.13111374 -0.063684806
000240 ed c0 07 3d 45 f8 d9 bd 17 55 33 bd b7 16 60 bd
       0.033142973 -0.10643057 -0.04378232 -0.054709163
000250 ad 22 91 bd ff fb 22 be 9a c6 a1 bc d5 60 29 bd
       -0.07086692 -0.15916441 -0.01974802 -0.04135211
000260 19 b9 1c 3e 3c 4c 1d 3d f0 76 f8 bd 9f 78 9a bd
       0.15304984 0.03840278 -0.121320605 -0.07542538
000270 22 8c 7e be 32 f6 8a bd 62 ac 9a 3d b3 cb ee bd
       -0.24858144 -0.06785239 0.07552411 -0.11659946
000280 5d 0b 08 3d 1d af 44 bd 9a 6c 08 3d 6f 4f 8a 3d
       0.033213962 -0.048018564 0.033306696 0.06753432
000290 41 de 83 bd 38 0c f0 3d 23 cf 21 be c5 99 bb 3c
       -0.06438876 0.117210805 -0.15801673 0.022900471
0002a0 3e f8 94 3d 79 ba 7a bd 94 3e 9a bc 2c 01 e4 bc
       0.07273911 -0.06121299 -0.018828668 -0.02783259
0002b0 8e af 99 3d 2d a9 4e 3c 2b 03 3c 3c f4 3e c4 3d
       0.075041875 0.012613577 0.011475365 0.0958232
0002c0 d4 45 fa bd 09 c3 0e bd 1c 80 41 be af d6 b0 bc
       -0.1222035 -0.03485397 -0.18896526 -0.021586744
0002d0 2b 6a 25 3c 0f bb cc bc 6f 62 6b 3d ba 8b 60 bd
       0.010096113 -0.02499154 0.05746692 -0.054820754
0002e0 e9 31 0d bd 8a 98 6e 3d f9 04 3e bd 05 94 eb bd
       -0.034471426 0.05825094 -0.04639146 -0.11502842
0002f0 88 38 55 3d 13 08 47 bd 7b 15 b3 3d fa 4e f9 bd
       0.052055866 -0.048591685 0.087443314 -0.12173267
000300 4b 87 c2 bc 3e 93 eb 3d d8 00 35 bd 52 81 c4 3d
       -0.023746153 0.115026936 -0.044190258 0.095949784
000310 b8 b2 c0 bc 90 b6 8f 3c 4e 93 ce 3d a4 99 b7 bd
       -0.02352272 0.017543107 0.1008669 -0.089648515
000320 b4 ed 05 be 5c 6d 01 3e 28 61 35 3e 16 67 6d bd
       -0.13078958 0.12639374 0.17712843 -0.05795964
000330 cd d6 2e bc b8 64 81 bd 15 7f 58 bd 1d 1f 7c 3d
       -0.01067133 -0.06318039 -0.05285557 0.06155311
000340 49 70 db bb 30 22 03 be 4b d2 29 3c 93 eb d7 3d
       -0.006696735 -0.1280601 0.010365079 0.10542979
000350 8d d5 76 be 74 89 24 bd 54 13 84 bc 33 9a 32 be
       -0.241049 -0.040170148 -0.016122498 -0.17441635
000360 28 1f c2 3d 54 6d bf 3d ca e1 35 be 2f 4e f2 bd
       0.09478599 0.093470246 -0.17761913 -0.118313186
000370 56 d8 f7 3c a4 2f 0d 3b b2 7b 9f 3d 0f 78 0c 3e
       0.030254524 0.0021543289 0.07787265 0.13717674
000380 fc 73 6b 3d ed 60 ba bc a1 a6 13 3c d8 cf 0a 3e
       0.05748366 -0.022751296 0.009011895 0.13555849
000390 55 7e 27 3d 38 51 96 bb 3b 87 d5 3d 8e 48 9b bd
       0.040891964 -0.0045873187 0.10426184 -0.07582198
0003a0 4b e3 11 3e fb be aa bd ad b1 a5 bd 54 2b 39 bd
       0.14246862 -0.08337208 -0.080905296 -0.045207337
0003b0 3b 88 06 be 9a 8e 29 bd 9a 75 e4 3d cd 51 82 3d
       -0.13137905 -0.04139576 0.11155243 0.063632585
0003c0 4a 9c 8d 3c 22 88 aa bd 15 01 43 bc 51 b5 ac 3d
       0.017286438 -0.083267465 -0.011902113 0.08433021
0003d0 e8 59 89 bd cf b9 b8 bd fd 44 d4 bc 46 50 cf 3d
       -0.067066014 -0.09019815 -0.025911802 0.10122733
0003e0 65 a2 16 be a1 3f 0e 3c 9c 47 24 ba 9b e4 9c 3d
       -0.14710386 0.0086821625 -0.0006266774 0.076607905
0003f0 7f 72 70 bd e1 70 cf bd 74 1f 43 3e c8 8c 37 bc
       -0.058702942 -0.10128952 0.19054967 -0.011202998

network_body._body_endoder.seq_layers.2.bias f4 [128]
000000 00 00 00 00 00 00 00 00 00 00 00 00 00 00 00 00
       0.0 0.0 0.0 0.0
000010 00 00 00 00 00 00 00 00 00 00 00 00 00 00 00 00
       0.0 0.0 0.0 0.0
000020 00 00 00 00 00 00 00 00 00 00 00 00 00 00 00 00
       0.0 0.0 0.0 0.0
000030 00 00 00 00 00 00 00 00 00 00 00 00 00 00 00 00
       0.0 0.0 0.0 0.0
000040 00 00 00 00 00 00 00 00 00 00 00 00 00 00 00 00
       0.0 0.0 0.0 0.0
000050 00 00 00 00 00 00 00 00 00 00 00 00 00 00 00 00
       0.0 0.0 0.0 0.0
000060 00 00 00 00 00 00 00 00 00 00 00 00 00 00 00 00
       0.0 0.0 0.0 0.0
000070 00 00 00 00 00 00 00 00 00 00 00 00 00 00 00 00
       0.0 0.0 0.0 0.0
000080 00 00 00 00 00 00 00 00 00 00 00 00 00 00 00 00
       0.0 0.0 0.0 0.0
000090 00 00 00 00 00 00 00 00 00 00 00 00 00 00 00 00
       0.0 0.0 0.0 0.0
0000a0 00 00 00 00 00 00 00 00 00 00 00 00 00 00 00 00
       0.0 0.0 0.0 0.0
0000b0 00 00 00 00 00 00 00 00 00 00 00 00 00 00 00 00
       0.0 0.0 0.0 0.0
0000c0 00 00 00 00 00 00 00 00 00 00 00 00 00 00 00 00
       0.0 0.0 0.0 0.0
0000d0 00 00 00 00 00 00 00 00 00 00 00 00 00 00 00 00
       0.0 0.0 0.0 0.0
0000e0 00 00 00 00 00 00 00 00 00 00 00 00 00 00 00 00
       0.0 0.0 0.0 0.0
0000f0 00 00 00 00 00 00 00 00 00 00 00 00 00 00 00 00
       0.0 0.0 0.0 0.0
000100 00 00 00 00 00 00 00 00 00 00 00 00 00 00 00 00
       0.0 0.0 0.0 0.0
000110 00 00 00 00 00 00 00 00 00 00 00 00 00 00 00 00
       0.0 0.0 0.0 0.0
000120 00 00 00 00 00 00 00 00 00 00 00 00 00 00 00 00
       0.0 0.0 0.0 0.0
000130 00 00 00 00 00 00 00 00 00 00 00 00 00 00 00 00
       0.0 0.0 0.0 0.0
000140 00 00 00 00 00 00 00 00 00 00 00 00 00 00 00 00
       0.0 0.0 0.0 0.0
000150 00 00 00 00 00 00 00 00 00 00 00 00 00 00 00 00
       0.0 0.0 0.0 0.0
000160 00 00 00 00 00 00 00 00 00 00 00 00 00 00 00 00
       0.0 0.0 0.0 0.0
000170 00 00 00 00 00 00 00 00 00 00 00 00 00 00 00 00
       0.0 0.0 0.0 0.0
000180 00 00 00 00 00 00 00 00 00 00 00 00 00 00 00 00
       0.0 0.0 0.0 0.0
000190 00 00 00 00 00 00 00 00 00 00 00 00 00 00 00 00
       0.0 0.0 0.0 0.0
0001a0 00 00 00 00 00 00 00 00 00 00 00 00 00 00 00 00
       0.0 0.0 0.0 0.0
0001b0 00 00 00 00 00 00 00 00 00 00 00 00 00 00 00 00
       0.0 0.0 0.0 0.0
0001c0 00 00 00 00 00 00 00 00 00 00 00 00 00 00 00 00
       0.0 0.0 0.0 0.0
0001d0 00 00 00 00 00 00 00 00 00 00 00 00 00 00 00 00
       0.0 0.0 0.0 0.0
0001e0 00 00 00 00 00 00 00 00 00 00 00 00 00 00 00 00
       0.0 0.0 0.0 0.0
0001f0 00 00 00 00 00 00 00 00 00 00 00 00 00 00 00 00
       0.0 0.0 0.0 0.0

action_model._continuous_distribution.mu.weight f4 [1, 128]
000000 31 98 af bc ab 59 24 bd 98 60 ba 3c 33 e7 d8 ba
       -0.021434875 -0.040124577 0.022751138 -0.0016548395
000010 48 7e 3e 3c 51 bb 17 bc 8e 39 07 3d be 7d 4c bc
       0.0116267875 -0.009260968 0.033013873 -0.012481151
000020 d8 de c1 bc ab 47 73 bc 9f 89 71 3b 0a 7c d5 3c
       -0.02366583 -0.01484863 0.003685571 0.026060123
000030 9d 72 d5 bb b3 81 9b 3c a8 03 4f ba 2f ca ad 3c
       -0.006513907 0.018982744 -0.0007896968 0.021214573
000040 fb 50 ca 3c 4b 4f 0d 3c 8d 22 da bc b6 37 a3 bc
       0.024696818 0.008624862 -0.026627803 -0.019924026
000050 e9 ed 9a bb 36 a4 1c bc 35 9d 22 3b 92 91 50 3c
       -0.004728068 -0.009560635 0.002481294 0.012730019
000060 8e 5f 07 bb 7e 16 38 bc 5e b6 0b 3d 8f 2d f7 3a
       -0.002065632 -0.011235831 0.034109466 0.0018858182
000070 42 c4 79 bb 83 91 f6 3b 3d 96 27 3d 31 fa ad bb
       -0.0038111364 0.0075246706 0.040914763 -0.005309366
000080 cf 23 89 ba bd 5b f2 bb 97 7c 1a bd f2 10 26 3c
       -0.0010462942 -0.00739619 -0.037716474 0.010135876
000090 1a 6f b5 bc b4 91 83 3c 53 33 8b 3c 4f 11 03 bd
       -0.022147704 0.016060688 0.016992247 -0.03199893
0000a0 c7 e2 fe bc 9f 7a 3b 3d 47 2d d8 ba a2 9d 58 bc
       -0.031113995 0.045771237 -0.0016492986 -0.013221176
0000b0 25 7a 60 3b af bb 68 bb 7b 0d 77 3c d8 cc 9b 3c
       0.0034252491 -0.0035512259 0.015078898 0.019018576
0000c0 90 a3 a1 3b 44 7f ca bb 09 80 9f 3c ff 9c c0 3b
       0.0049328282 -0.006179722 0.019470232 0.0058780904
0000d0 0a 8d 77 bc e8 13 23 bd 18 a5 64 3c 6f 15 45 3c
       -0.01510931 -0.039813906 0.013955377 0.012029036
0000e0 a2 3c 92 bb 8b c1 9f bc 00 f5 be bc 3b e7 3b 3c
       -0.0044627944 -0.019501468 -0.023310184 0.011468704
0000f0 f2 ec f6 3b 2b d8 3e bc 39 e2 0c 3c b0 c5 ea bc
       0.0075355703 -0.011648218 0.008598858 -0.028658718
000100 94 d3 a6 3b a2 16 30 bc 30 61 46 3a 83 a3 68 3d
       0.00509114 -0.010747584 0.00075675827 0.056796562
000110 3f 29 bb bc 4d ea 20 bc fd a1 76 bc 12 e7 8f 3c
       -0.022846816 -0.009821487 -0.015053269 0.017566238
000120 20 80 a2 bc a6 29 aa bb 0a 4b 76 3c d2 8c 3d bc
       -0.019836485 -0.005192953 0.015032539 -0.011569219
000130 ff 23 86 3c 9a d6 e2 3c b6 a8 a7 bc 2f d3 72 bc
       0.016374586 0.02769022 -0.02046619 -0.014820858
000140 b5 52 48 3c 24 e3 a9 3a 4b 40 89 bc 0c 95 9d bb
       0.01222675 0.001296137 -0.01675429 -0.0048090275
000150 e3 89 9e 3b 61 d6 49 39 a2 72 45 bc 7e d3 bb bc
       0.0048382147 0.00019248716 -0.012051256 -0.022927996
000160 ba 5e 12 3d bd 16 7d 3c 59 ef 48 3c 53 20 47 3c
       0.03573487 0.015447316 0.012264096 0.012153703
000170 50 7d b4 3c f8 31 ab bc ca b8 02 3d 84 47 88 3c
       0.02203241 -0.02089785 0.03191451 0.016635664
000180 07 e3 ac ba 9d 6b 6f bc 58 7f 38 bc 7c eb 10 bc
       -0.0013190218 -0.014613059 -0.01126083 -0.008845206
000190 46 94 b3 bc d0 8d e3 3a 58 08 7c b9 88 c8 4e bd
       -0.021921288 0.0017360989 -0.00024035701 -0.05048421
0001a0 30 34 36 bb f4 77 a4 3c 00 31 df 3c ab bf 24 bc
       -0.0027802102 0.02007673 0.027245045 -0.010055463
0001b0 e7 3f b0 3a f5 39 13 bc eb 39 be ba 07 21 4e 3c
       0.0013446779 -0.008985986 -0.001451311 0.0125811165
0001c0 fd b2 6a ba 9a 96 16 bc f2 bf 0c bc ca 0b 3d bb
       -0.0008953063 -0.00919118 -0.008590685 -0.0028846138
0001d0 fb 27 93 3b 6f 50 92 3c 9d 2b 74 ba f9 80 36 bc
       0.00449085 0.01786062 -0.000931436 -0.011139148
0001e0 23 2a 8e bb 7c 1e 17 3c 98 27 30 bc 78 6f 54 3c
       -0.004338519 0.009223577 -0.010751627 0.012966029
0001f0 68 46 ee bc 3d d8 d4 3c 84 d0 0b bc 5d e5 6c bb
       -0.029086307 0.025982017 -0.008533601 -0.0036147453

network_body._body_endoder.seq_layers.0.weight f4 [128, 3]
000000 d4 52 c1 bd 31 47 45 be 6a bb 1a bf 8f 8a a3 3e
       -0.09439626 -0.19265439 -0.6044222 0.3194165
000010 86 b8 d4 3e 00 50 28 bf 33 aa c8 3e 7e af 58 bf
       0.4154703 -0.6574707 0.39192352 -0.8464278
000020 d5 16 cf be 9f dd 04 bf 06 a2 5b bf 7a e2 44 3e
       -0.40447107 -0.51900667 -0.85794103 0.19227019
000030 1d 3e c3 3e 18 ce 7b bf 3a 67 06 3f 2c 7c 0c bf
       0.38133326 -0.9836135 0.5250126 -0.5487697
000040 7b cc 19 3e e6 13 cd 3e 39 e0 44 be fe 9a 44 3e
       0.1501941 0.40054244 -0.19226159 0.1919975
000050 02 08 8e 3e e2 c0 0a 3e c1 3f 61 bf f6 8a 37 be
       0.27740484 0.13550141 -0.87987906 -0.17924103
000060 26 9e 82 be df 80 51 bd a2 1e ab 3e a4 0a 7d 3e
       -0.25511283 -0.05114829 0.33421808 0.2471109
000070 86 74 74 bf af 23 a9 be 09 ef b4 be 9d de d0 be
       -0.954903 -0.33035037 -0.3533862 -0.4079484
000080 d6 53 10 3f dc e9 8c 3f b4 d3 58 be ee 68 c9 3e
       0.56377923 1.1008868 -0.21174508 0.39337867
000090 fd 06 ba 3e 1b ef 2d bf 97 a7 1a be 09 c9 69 bf
       0.36333457 -0.6794297 -0.15102993 -0.9132238
0000a0 0b 82 a6 3e 80 c2 64 3f 15 11 4b bf 7a 72 b1 3e
       0.3252109 0.89359283 -0.7932294 0.3465765
0000b0 40 ce 05 bf 7c 91 91 be 4c ae 10 3f 12 eb 79 bf
       -0.5226784 -0.28431308 0.56515956 -0.97624314
0000c0 a6 1e e2 3e 34 a3 30 3f 0a 8c 64 3f ba 1f 0a 3f
       0.44164008 0.6899903 0.8927618 0.5395466
0000d0 98 b5 c5 bf 03 b6 1c be a7 a6 39 3e 4a 67 0b be
       -1.5446043 -0.15303807 0.18129979 -0.1361362
0000e0 ae 4f 7a 3e d0 32 95 3d 54 57 8c bf 0e 77 ab be
       0.24444458 0.07285082 -1.096415 -0.3348927
0000f0 d4 f1 52 bf bb f7 fa 3e 18 63 79 3e 13 2b 02 bf
       -0.8240025 0.49017128 0.24354208 -0.50846976
000100 8b 8d a2 3e 82 8c e7 3e c7 8e c6 3e f6 57 0e bf
       0.31748614 0.45224386 0.38780805 -0.5560297
000110 eb 37 39 3f 25 ec 15 3f 4d f4 9a be ea f2 a6 3e
       0.7235095 0.5856345 -0.30264512 0.32607204
000120 d3 47 3b 3f 2f 39 21 bf 9e 8e 0d bc 52 e1 69 bf
       0.7315647 -0.6297788 -0.00863996 -0.91359437
000130 eb fd 7c 3e 7c 3e 09 bf 4d 88 fc be c8 d6 2c bf
       0.24706237 -0.5361097 -0.4932274 -0.6751523
000140 ed 98 58 3e 61 a0 d3 bd 39 57 b6 3e 87 54 74 bd
       0.21152087 -0.10333324 0.3561342 -0.059650924
000150 15 d0 59 be 48 d3 a7 bf 4f 0c 6b 3f bc d1 53 3e
       -0.21270783 -1.3111353 0.91815656 0.20685476
000160 74 e3 92 3e 60 3d 98 3f c5 96 58 3e cf cb 82 bf
       0.28689158 1.189373 0.21151264 -1.0218447
000170 38 b6 cc 3e 55 a6 9b 3f cd f7 10 be 6f cf 95 be
       0.39982772 1.2160136 -0.14157028 -0.29259822
000180 50 93 e9 3e d7 6f e4 be c6 1d 9b 3d ff cd 60 3e
       0.45620203 -0.44616577 0.07574038 0.21953581
000190 35 ea 88 3e 61 76 05 3f 53 89 7a 3e 5d 98 fd be
       0.26741186 0.52133757 0.24466448 -0.49530306
0001a0 78 cb 11 3f ce 69 a3 bd 0f 4b cd 3e 64 dd 15 be
       0.56951094 -0.07979165 0.40096328 -0.14635235
0001b0 0c c6 87 3f 21 15 39 3f 71 5d 12 3e f9 a1 63 3e
       1.0607314 0.72297865 0.14293458 0.22229756
0001c0 6c e9 bb 3f 77 40 20 3e 5f 55 ca 3e 45 ad 32 be
       1.468061 0.15649591 0.39518258 -0.1744891
0001d0 3b e2 b8 be 53 40 6d 3d d3 cb 31 be 08 9f 05 bd
       -0.361101 0.057922672 -0.17362909 -0.032622367
0001e0 53 7c 35 3d 2a 7e 75 bf fa a4 4f 3e e1 8c 34 3f
       0.044308018 -0.95895636 0.20277777 0.70527464
0001f0 13 30 28 be 01 e7 18 3f 70 4e da 3d 17 20 1c be
       -0.16424589 0.59727484 0.10659492 -0.15246616
000200 cc a9 bb 3e d1 1d 9b bf e5 62 ae bd af 49 1d 3f
       0.36652982 -1.2118474 -0.085149564 0.6144056
000210 c7 69 90 3f d2 72 58 be 16 ca 5b bf 08 c9 1b bf
       1.1282281 -0.2113755 -0.85855234 -0.60853624
000220 e5 8e 0e 3e 85 c6 14 bf 2b 7a 4b bf 71 7c 76 3e
       0.13921697 -0.58115417 -0.7948329 0.24070908
000230 ca 9a 62 bf 37 e8 40 bf 1e da 59 be 0e c2 1a bf
       -0.8851744 -0.7535433 -0.21274611 -0.60452354
000240 ff 4e 2a bf 18 50 1e bf 39 d8 54 3f 6d c6 2f 3e
       -0.6652679 -0.61840963 0.8314243 0.17165537
000250 a7 34 2d 3f 30 37 9f 3f 49 7f a6 be 12 29 93 bf
       0.67658466 1.2438717 -0.32518986 -1.1496909
000260 7e 05 f6 3e b6 85 4d bd d1 6a 29 3f 40 16 74 3f
       0.48051065 -0.050176345 0.66178614 0.9534645
000270 b5 c6 e9 3e e8 c6 1d 3e 01 51 8c 3f f5 70 25 be
       0.45659414 0.15407908 1.096222 -0.16156371
000280 28 73 25 3e 67 4c a6 be 32 87 f2 3e 95 fa 2e bf
       0.1615721 -0.32480165 0.4736877 -0.6835111
000290 ba 77 87 3e f8 f9 c7 bf 4b ca cc 3d ef ce 01 bf
       0.26458532 -1.562316 0.09999522 -0.5070638
0002a0 9f fb 99 bf e6 68 b0 be e2 f9 51 bf b8 d3 e3 3e
       -1.2029914 -0.3445503 -0.82021916 0.44497466
0002b0 e5 7e 2e 3e 5f 13 cc be 21 6c 8c 3d 98 27 02 bf
       0.17040594 -0.3985853 0.068565615 -0.50841665
0002c0 38 6f de 3e 4c 7b 27 3f b2 27 8c 3e b2 f5 d2 bd
       0.43444228 0.6542251 0.27374035 -0.10300769
0002d0 4d aa 97 3e 82 33 64 be 3c 70 c6 3e a2 2a 89 bf
       0.29622117 -0.22285274 0.38757503 -1.0716136
0002e0 a1 9b ea 3e 32 a1 3f 3f 31 4b 59 bd eb 16 07 3f
       0.4582186 0.7485534 -0.053050224 0.52769345
0002f0 ac 7c 70 bf 4f 18 d9 3e 5c c5 5e 3f 93 4b 7c bd
       -0.93940234 0.42401358 0.87019897 -0.06159551
000300 ea ac 79 3e b2 6c b3 be 75 fc 13 bf 1a 1d e9 3e
       0.24382368 -0.35043865 -0.57807094 0.45530015
000310 92 ae ec be 58 1a 82 3f f8 d0 43 3f 75 a4 82 3f
       -0.46226937 1.016429 0.76490736 1.0206438
000320 46 b5 83 3e 61 22 e3 be ae f9 61 3f 64 7c c9 be
       0.25724238 -0.44362167 0.88271606 -0.39352715
000330 62 28 df be e6 33 b8 bf 2a a4 d4 3f 03 04 2d bf
       -0.43585497 -1.4390838 1.6612599 -0.67584246
000340 34 ae fd 3e bf c7 ba 3b 0b d1 33 bf 7b 55 90 3f
       0.4954697 0.005700081 -0.7024085 1.1276087
000350 e2 ed 8b 3f 72 cd f5 bd b4 f8 cc 3f 43 13 ee bd
       1.0931971 -0.12002076 1.6013398 -0.11624768
000360 e6 2e 4b 3d be 8b 1e be e2 53 55 bf dd d2 71 be
       0.049605273 -0.15482995 -0.8333112 -0.23615594
000370 64 e7 24 be c4 48 65 be 38 52 b7 be 8e 40 86 be
       -0.16103894 -0.22391039 -0.35804915 -0.26221126
000380 e5 57 a6 bc 84 55 e3 be 73 67 4f 3f 9c ce 11 bf
       -0.020305583 -0.4440118 0.81017226 -0.56955886
000390 b1 aa f6 be 50 9d 20 bf 04 b9 83 bf 17 f5 16 be
       -0.48177102 -0.6274004 -1.0290837 -0.14741932
0003a0 a4 b9 4f 3f 6b 1a 2a bf 34 97 f5 be 19 f6 93 3e
       0.8114264 -0.6644656 -0.4796692 0.28898695
0003b0 49 45 88 be d9 5d 8f be b6 8c 38 be 8d 1d 33 3e
       -0.2661536 -0.28001288 -0.18022427 0.17491741
0003c0 cd be 20 bf 15 6b 10 bf 98 8e 53 3f 46 ac 59 be
       -0.6279114 -0.56413394 0.82639456 -0.21257123
0003d0 f8 8e 47 be eb 8f 89 be c9 92 a0 3e 2a df a4 3e
       -0.19488132 -0.26867613 0.31361988 0.3220151
0003e0 06 0e d1 be c5 0e a9 3e 9a d8 ca be ea 1b 0e bf
       -0.40831012 0.3301908 -0.3961838 -0.55511343
0003f0 75 ea 81 be 62 5b cd 3e d0 d5 88 be d0 43 64 3e
       -0.2537419 0.40108782 -0.26725626 0.22291493

network_body._body_endoder.seq_layers.0.bias f4 [128]
000000 00 00 00 00 00 00 00 00 00 00 00 00 00 00 00 00
       0.0 0.0 0.0 0.0
000010 00 00 00 00 00 00 00 00 00 00 00 00 00 00 00 00
       0.0 0.0 0.0 0.0
000020 00 00 00 00 00 00 00 00 00 00 00 00 00 00 00 00
       0.0 0.0 0.0 0.0
000030 00 00 00 00 00 00 00 00 00 00 00 00 00 00 00 00
       0.0 0.0 0.0 0.0
000040 00 00 00 00 00 00 00 00 00 00 00 00 00 00 00 00
       0.0 0.0 0.0 0.0
000050 00 00 00 00 00 00 00 00 00 00 00 00 00 00 00 00
       0.0 0.0 0.0 0.0
000060 00 00 00 00 00 00 00 00 00 00 00 00 00 00 00 00
       0.0 0.0 0.0 0.0
000070 00 00 00 00 00 00 00 00 00 00 00 00 00 00 00 00
       0.0 0.0 0.0 0.0
000080 00 00 00 00 00 00 00 00 00 00 00 00 00 00 00 00
       0.0 0.0 0.0 0.0
000090 00 00 00 00 00 00 00 00 00 00 00 00 00 00 00 00
       0.0 0.0 0.0 0.0
0000a0 00 00 00 00 00 00 00 00 00 00 00 00 00 00 00 00
       0.0 0.0 0.0 0.0
0000b0 00 00 00 00 00 00 00 00 00 00 00 00 00 00 00 00
       0.0 0.0 0.0 0.0
0000c0 00 00 00 00 00 00 00 00 00 00 00 00 00 00 00 00
       0.0 0.0 0.0 0.0
0000d0 00 00 00 00 00 00 00 00 00 00 00 00 00 00 00 00
       0.0 0.0 0.0 0.0
0000e0 00 00 00 00 00 00 00 00 00 00 00 00 00 00 00 00
       0.0 0.0 0.0 0.0
0000f0 00 00 00 00 00 00 00 00 00 00 00 00 00 00 00 00
       0.0 0.0 0.0 0.0
000100 00 00 00 00 00 00 00 00 00 00 00 00 00 00 00 00
       0.0 0.0 0.0 0.0
000110 00 00 00 00 00 00 00 00 00 00 00 00 00 00 00 00
       0.0 0.0 0.0 0.0
000120 00 00 00 00 00 00 00 00 00 00 00 00 00 00 00 00
       0.0 0.0 0.0 0.0
000130 00 00 00 00 00 00 00 00 00 00 00 00 00 00 00 00
       0.0 0.0 0.0 0.0
000140 00 00 00 00 00 00 00 00 00 00 00 00 00 00 00 00
       0.0 0.0 0.0 0.0
000150 00 00 00 00 00 00 00 00 00 00 00 00 00 00 00 00
       0.0 0.0 0.0 0.0
000160 00 00 00 00 00 00 00 00 00 00 00 00 00 00 00 00
       0.0 0.0 0.0 0.0
000170 00 00 00 00 00 00 00 00 00 00 00 00 00 00 00 00
       0.0 0.0 0.0 0.0
000180 00 00 00 00 00 00 00 00 00 00 00 00 00 00 00 00
       0.0 0.0 0.0 0.0
000190 00 00 00 00 00 00 00 00 00 00 00 00 00 00 00 00
       0.0 0.0 0.0 0.0
0001a0 00 00 00 00 00 00 00 00 00 00 00 00 00 00 00 00
       0.0 0.0 0.0 0.0
0001b0 00 00 00 00 00 00 00 00 00 00 00 00 00 00 00 00
       0.0 0.0 0.0 0.0
0001c0 00 00 00 00 00 00 00 00 00 00 00 00 00 00 00 00
       0.0 0.0 0.0 0.0
0001d0 00 00 00 00 00 00 00 00 00 00 00 00 00 00 00 00
       0.0 0.0 0.0 0.0
0001e0 00 00 00 00 00 00 00 00 00 00 00 00 00 00 00 00
       0.0 0.0 0.0 0.0
0001f0 00 00 00 00 00 00 00 00 00 00 00 00 00 00 00 00
       0.0 0.0 0.0 0.0

network_body._body_endoder.seq_layers.2.weight f4 [128, 128]
000000 07 66 b2 bd 04 77 07 3d 77 bf ee 3c 20 ac 8c bd
       -0.087108664 0.033072487 0.029144032 -0.06868768
000010 00 cd 63 3e 8c 46 a3 bc 7a 49 d8 3a f8 bc 81 bc
       0.2224617 -0.0199311 0.001650139 -0.015837178
000020 b8 ff dd bd 97 98 d9 3d 33 e4 ae bb c5 00 2d 3d
       -0.1083979 0.10624807 -0.005337262 0.042237062
000030 b8 5c 11 3d 58 4e 92 bd 4e f7 f8 3d e4 41 d4 3d
       0.035488814 -0.07143849 0.121565446 0.1036413
000040 bb 2e 88 3d 1d 34 d4 3c 74 cd aa bb fa 4a 4e 3a
       0.06649538 0.025903756 -0.00521248 0.0007869449
000050 04 79 fc bd db 50 a7 bc 51 90 b2 3c 07 f5 05 bd
       -0.123277694 -0.020424297 0.021797331 -0.03270438
000060 bc 17 4e 3b 69 be d0 bd aa f8 4b 3e 9f e4 62 3d
       0.0031447252 -0.10192568 0.19919077 0.05539381
000070 76 3a c6 3d d4 54 9d bc d0 41 0e be d0 21 8f 3c
       0.09679119 -0.019205488 -0.13892293 0.017472178
000080 b4 33 85 bc 6b a4 10 be 42 97 f9 bd c2 59 47 3d
       -0.016260006 -0.1412522 -0.12187053 0.048669584
000090 f1 f2 29 3e ea 8a 25 3d 9a f9 8d 3d 85 6a 01 bc
       0.16596581 0.040415682 0.06932373 -0.007898931
0000a0 e6 0d a7 3b 01 9c 60 bb 1e 0e bf 3d fe 09 fd 3d
       0.0050980924 -0.0034272673 0.093288645 0.123554215
0000b0 ed af 70 3c 61 6b 6a bd ab 7f 2e 3e 3c f8 8e bb
       0.0146903815 -0.05723131 0.17040889 -0.004363088
0000c0 79 5a e1 bd 89 f8 b5 3d 99 d8 8b bd c7 fd 67 3d
       -0.110035844 0.08885295 -0.06828422 0.056638505
0000d0 e5 68 11 3d a4 08 4c bd 38 f9 53 bd 46 8b 22 3d
       0.035500426 -0.049812928 -0.051751345 0.039683603
0000e0 65 b3 f5 3c ec 89 e5 bd 89 3b ee bc 2e 53 8b bd
       0.029992769 -0.11207947 -0.029081123 -0.06802975
0000f0 1f 27 95 3d e4 97 0d 3e 01 89 f5 3c c9 67 de 3d
       0.072828524 0.13827473 0.029972555 0.10859639
000100 e9 d1 43 bd 3a 2b 63 3d 78 4e e8 bd 66 91 b7 3d
       -0.047807608 0.055461146 -0.11343092 0.089632794
000110 26 83 12 3e d6 bb 93 bd d6 c5 c8 3c 03 71 1e 3d
       0.14307842 -0.07213561 0.024508398 0.038681995
000120 44 42 d9 3d c2 5a ba bc 43 37 3e 3d a4 38 dc 3c
       0.10608342 -0.022748355 0.04643942 0.026882477
000130 7c 64 1a bd f9 b9 40 be 6f 92 b7 bd 22 3c 67 bd
       -0.037693486 -0.18820943 -0.08963477 -0.05645383
000140 c1 bc 4d bd 81 23 ca bc 39 2c 9c bc 92 09 41 bc
       -0.050228838 -0.024675133 -0.019064056 -0.011782067
000150 e0 f4 64 3d 9d 57 c2 3d a2 76 46 3d ed 38 2a bb
       0.055897593 0.09489367 0.04845298 -0.0025973872
000160 00 09 17 bb 41 a0 8b 3d 8c 90 0c be f4 41 85 bd
       -0.0023046136 0.068176754 -0.13727015 -0.0650672
000170 c1 2f c2 bb 9d 23 eb 3c 52 f0 12 be 0e 8d 57 3e
       -0.005926103 0.028703505 -0.14349487 0.21049902
000180 a2 8b cc 3d 69 04 11 bd 11 fb 9f bd cd 51 89 bc
       0.0998757 -0.035404596 -0.07811559 -0.016762638
000190 a7 62 5f bc 31 0d 70 bd 46 5a 8f bd 92 be e4 bc
       -0.01363436 -0.05860633 -0.0699964 -0.027922902
0001a0 91 b5 88 3d 84 6d b1 bc 34 2b da 3c 80 7c c8 bc
       0.06675256 -0.021658666 0.026631929 -0.024473429
0001b0 76 21 a2 3c b7 5e bd 3d c3 b6 8a 3d 56 76 21 3d
       0.019791346 0.09246581 0.0677314 0.039419495
0001c0 f0 cf ec 3c 64 35 57 3d dd 10 05 3d 6d 63 8b 3d
       0.028907746 0.05254115 0.032486785 0.06806073
0001d0 db cf a7 bd a8 3d 9e bc cd f7 45 bc 29 31 50 3d
       -0.08193942 -0.01931651 -0.012083006 0.050828133
0001e0 03 5c 9d bd 8a 2f 25 3d ee 57 aa 3d ca 71 92 3c
       -0.076835655 0.04032854 0.083175525 0.017876524
0001f0 e5 b3 5a 3b 16 8b 13 bd 74 97 5d 3d bb 36 39 3d
       0.0033371386 -0.036021315 0.054099515 0.04521821
000200 c7 bd e1 3d f1 27 dd bd f6 3b f4 3c 5a cb 2f bd
       0.11022525 -0.10798634 0.029813748 -0.04291854
000210 d0 ad bb 3a 96 ea d7 bc b2 a9 07 3d bf 89 c9 3d
       0.0014318768 -0.026356976 0.03312082 0.09840726
000220 a3 45 8d 3c af a5 f6 bc 63 fb 9e bc 15 3d 80 3d
       0.01724512 -0.030108301 -0.01940698 0.062616505
000230 48 0a 16 3e f8 aa b4 3d a7 94 81 3d f0 38 db 3d
       0.1465236 0.08821672 0.06327181 0.10704219
000240 ce cd c6 3d e2 bf 52 bc b3 f4 4a bd 05 aa ca bd
       0.09707223 -0.012863131 -0.04954977 -0.0989571
000250 e1 81 ff bd f9 69 2d 3d c3 9f 00 bd 10 a3 15 3e
       -0.12475944 0.04233739 -0.03140236 0.14612985
000260 19 60 16 3d 84 10 ca 3b 62 4f ee 3c eb 59 77 3b
       0.03671274 0.0061665196 0.029090587 0.0037742804
000270 a3 1a d7 3d 5f af d1 bd fc 06 4f be 07 e5 bf bd
       0.105031274 -0.102385275 -0.20217508 -0.093698554
000280 09 e3 2c 3e e1 80 7d bd d9 da 0e bd 52 55 2b 3d
       0.16883482 -0.061890487 -0.03487668 0.041829415
000290 bb 70 8f bd e3 2c a8 bd f4 a7 86 bd 78 b0 bd bd
       -0.070039235 -0.082116865 -0.06575003 -0.09262174
0002a0 0a ea 1e bd cf 26 14 3e 27 d5 5c bd 8b 3c da bc
       -0.038797416 0.1446793 -0.053914215 -0.026640197
0002b0 4d af 84 bd 60 b7 f6 3d e0 44 9d 3d 98 13 1e bc
       -0.064787485 0.12046695 0.076791525 -0.009648226
0002c0 0e d9 9e bb be 03 0c bd 20 b4 79 bd a0 0d 04 3d
       -0.0048476523 -0.034183256 -0.060962796 0.032239556
0002d0 25 6a ad 3e 0b 34 6d 3d 1f 7a 91 3d 8c e6 b0 bd
       0.33870044 0.05791096 0.07103371 -0.08637723
0002e0 53 07 af bc d7 ba 35 3e f9 15 80 3b 62 db 31 be
       -0.021365797 0.17747055 0.0039088693 -0.17368844
0002f0 1d 3b 69 bc 1c 04 88 bd 73 a7 ff 3d 43 5a 26 bd
       -0.014235285 -0.06641409 0.1248311 -0.040613424
000300 f1 55 9e 3d 6c 2a 02 bc 3d 78 14 3e 57 2c c1 bd
       0.07731236 -0.0079446845 0.14498992 -0.09432285
000310 c0 89 b1 3b 29 d0 26 bd 8f 6c 2d be 10 7e 15 3a
       0.0054180324 -0.04072586 -0.16935943 0.00057026837
000320 fe 7d d0 3a 8c 6b c8 3c b1 c7 f9 bc 47 0c ae bc
       0.0015906689 0.024465345 -0.030490728 -0.021246089
000330 65 53 b2 bd 33 bd 55 3e 63 4f 21 3e 4c f8 3c 3d
       -0.087073125 0.20872955 0.1575294 0.04613523
000340 d3 2c ca 3b b3 6d 6a bd 50 48 de 3c a6 df 90 bc
       0.0061698942 -0.057233524 0.02713409 -0.017684769
000350 28 b2 96 bd eb 9a bf 3d 2c 3e 0f bd dd e2 48 3d
       -0.07358199 0.0935572 -0.0349714 0.04904448
000360 2c 07 bc 3d dd 11 11 be fb eb a3 bd c2 f7 37 3d
       0.091810554 -0.1416697 -0.08003994 0.044914015
000370 19 9b 8c 3d 64 f8 87 3d 6a 55 d3 bd 00 fd dc 3c
       0.0686552 0.066391736 -0.10319026 0.026976109
000380 13 94 53 bd 22 72 9f 3d 46 f1 ad bd fc 32 3f bd
       -0.051654886 0.07785441 -0.08493285 -0.046679482
000390 bc 08 33 bd 99 83 ae bd fe da 6d 3d 8b 3d 1e be
       -0.0437095 -0.08521194 0.058070175 -0.15453164
0003a0 0d d7 86 bb ba 66 88 bb 18 b3 10 3e a8 ff 8e 3d
       -0.0041149915 -0.0041626366 0.14130819 0.06982356
0003b0 07 a0 67 bc 4f 8f 4a 3d 70 f7 14 3e 96 f5 6e bd
       -0.014137275 0.049453076 0.14547515 -0.058339678
0003c0 60 cb ed 3d ea 01 bf bb 88 c2 71 bc f5 0e 15 3d
       0.11611056 -0.0058290856 -0.0147558525 0.036391217
0003d0 1a 6a 4f 3e e8 a8 9a 3b 53 8e ba 3c 2e a9 ce 3c
       0.20255318 0.004719842 0.022772944 0.025227156
0003e0 3f 5d 2e 3d 91 a4 8f bb 8e 17 6b 3d 87 7b 00 3d
       0.042569395 -0.0043836315 0.05739551 0.031367805
0003f0 dd ed 07 bd 09 13 1c 3d fb a3 80 bd 70 20 48 3c
       -0.03318583 0.03810409 -0.06281277 0.012214765

network_body._body_endoder.seq_layers.2.bias f4 [128]
000000 00 00 00 00 00 00 00 00 00 00 00 00 00 00 00 00
       0.0 0.0 0.0 0.0
000010 00 00 00 00 00 00 00 00 00 00 00 00 00 00 00 00
       0.0 0.0 0.0 0.0
000020 00 00 00 00 00 00 00 00 00 00 00 00 00 00 00 00
       0.0 0.0 0.0 0.0
000030 00 00 00 00 00 00 00 00 00 00 00 00 00 00 00 00
       0.0 0.0 0.0 0.0
000040 00 00 00 00 00 00 00 00 00 00 00 00 00 00 00 00
       0.0 0.0 0.0 0.0
000050 00 00 00 00 00 00 00 00 00 00 00 00 00 00 00 00
       0.0 0.0 0.0 0.0
000060 00 00 00 00 00 00 00 00 00 00 00 00 00 00 00 00
       0.0 0.0 0.0 0.0
000070 00 00 00 00 00 00 00 00 00 00 00 00 00 00 00 00
       0.0 0.0 0.0 0.0
000080 00 00 00 00 00 00 00 00 00 00 00 00 00 00 00 00
       0.0 0.0 0.0 0.0
000090 00 00 00 00 00 00 00 00 00 00 00 00 00 00 00 00
       0.0 0.0 0.0 0.0
0000a0 00 00 00 00 00 00 00 00 00 00 00 00 00 00 00 00
       0.0 0.0 0.0 0.0
0000b0 00 00 00 00 00 00 00 00 00 00 00 00 00 00 00 00
       0.0 0.0 0.0 0.0
0000c0 00 00 00 00 00 00 00 00 00 00 00 00 00 00 00 00
       0.0 0.0 0.0 0.0
0000d0 00 00 00 00 00 00 00 00 00 00 00 00 00 00 00 00
       0.0 0.0 0.0 0.0
0000e0 00 00 00 00 00 00 00 00 00 00 00 00 00 00 00 00
       0.0 0.0 0.0 0.0
0000f0 00 00 00 00 00 00 00 00 00 00 00 00 00 00 00 00
       0.0 0.0 0.0 0.0
000100 00 00 00 00 00 00 00 00 00 00 00 00 00 00 00 00
       0.0 0.0 0.0 0.0
000110 00 00 00 00 00 00 00 00 00 00 00 00 00 00 00 00
       0.0 0.0 0.0 0.0
000120 00 00 00 00 00 00 00 00 00 00 00 00 00 00 00 00
       0.0 0.0 0.0 0.0
000130 00 00 00 00 00 00 00 00 00 00 00 00 00 00 00 00
       0.0 0.0 0.0 0.0
000140 00 00 00 00 00 00 00 00 00 00 00 00 00 00 00 00
       0.0 0.0 0.0 0.0
000150 00 00 00 00 00 00 00 00 00 00 00 00 00 00 00 00
       0.0 0.0 0.0 0.0
000160 00 00 00 00 00 00 00 00 00 00 00 00 00 00 00 00
       0.0 0.0 0.0 0.0
000170 00 00 00 00 00 00 00 00 00 00 00 00 00 00 00 00
       0.0 0.0 0.0 0.0
000180 00 00 00 00 00 00 00 00 00 00 00 00 00 00 00 00
       0.0 0.0 0.0 0.0
000190 00 00 00 00 00 00 00 00 00 00 00 00 00 00 00 00
       0.0 0.0 0.0 0.0
0001a0 00 00 00 00 00 00 00 00 00 00 00 00 00 00 00 00
       0.0 0.0 0.0 0.0
0001b0 00 00 00 00 00 00 00 00 00 00 00 00 00 00 00 00
       0.0 0.0 0.0 0.0
0001c0 00 00 00 00 00 00 00 00 00 00 00 00 00 00 00 00
       0.0 0.0 0.0 0.0
0001d0 00 00 00 00 00 00 00 00 00 00 00 00 00 00 00 00
       0.0 0.0 0.0 0.0
0001e0 00 00 00 00 00 00 00 00 00 00 00 00 00 00 00 00
       0.0 0.0 0.0 0.0
0001f0 00 00 00 00 00 00 00 00 00 00 00 00 00 00 00 00
       0.0 0.0 0.0 0.0

value_heads.value_heads.extrinsic.weight f4 [1, 128]
000000 82 cc 86 bd b6 94 3c 3e e3 46 f3 bd 18 ee 3a 3e
       -0.065819755 0.18416104 -0.11878755 0.18254888
000010 62 a8 09 be 04 bb e5 3d 47 14 fa bd 5c 43 e1 3d
       -0.13443139 0.11217311 -0.12210899 0.10999176
000020 d8 9d 05 3d ac a6 39 3e d4 2e e5 3d a1 ae dc bd
       0.032621235 0.18129987 0.111905724 -0.10775495
000030 00 79 41 3b 5c 46 4f be e9 ef 3a be 24 27 4e 3e
       0.0029521585 -0.20241684 -0.18255581 0.20132118
000040 18 71 bf bc 10 48 a5 3c aa 66 11 3e 48 a8 4a 3e
       -0.023369357 0.020175964 0.1419932 0.19790757
000050 14 85 ee bd 36 1e 34 be c0 87 a6 bc a0 94 3f 3d
       -0.116464764 -0.1758965 -0.020328403 0.0467726
000060 2a 90 09 be 97 bb 0c be 9a e7 19 3e 28 69 91 bc
       -0.134339 -0.13743435 0.15029755 -0.017750338
000070 f8 b1 e4 3c 50 c5 a3 bd d0 5c e1 bc c0 b5 32 3e
       0.027916893 -0.07996619 -0.027510077 0.17452145
000080 70 ee 3e 3c 46 9e 13 be be 2e 57 3e 6c 55 01 be
       0.011653528 -0.14415845 0.21013924 -0.12630242
000090 68 2b c2 3c 36 8b 04 3e 74 60 dd 3d 50 46 b4 3d
       0.023702338 0.1294373 0.108094126 0.088024735
0000a0 3a 1b 08 3e 8c 7c 4e bd 40 0d 05 3e 66 4f 9c bd
       0.13291636 -0.050411746 0.12993336 -0.076323316
0000b0 1e ce 15 be 36 94 a9 bd 68 71 ab bc 3e e1 29 3e
       -0.14629409 -0.08280222 -0.0209281 0.1658983
0000c0 a5 6f f1 bd 5f 14 fa bd 54 fb ff 3d 1d 77 d8 bd
       -0.11788873 -0.12210917 0.12499109 -0.10569594
0000d0 4a 8f 0a 3e 46 ae 17 be 74 7f 48 bd d4 1b 4b 3e
       0.13531223 -0.14812574 -0.048949674 0.19834834
0000e0 88 aa 6d 3d 18 02 85 3c a4 e2 ae 3d 40 3a aa 3d
       0.05802396 0.01623635 0.08539322 0.083118916
0000f0 40 ba 6b 3d 3e 3d 1e be 00 8f 7c 3d a1 25 08 be
       0.05755067 -0.1545305 0.061659813 -0.13295604
000100 82 78 32 3e 70 20 c6 bc a7 6b 59 be ce c1 16 3e
       0.17428783 -0.02418539 -0.21232472 0.14722368
000110 22 75 16 be 38 05 b9 bc 00 ec 10 b9 28 a2 32 3e
       -0.1469312 -0.022585496 -0.00013820827 0.1744467
000120 c0 7c a6 bb 94 66 fd bd c0 2c 82 3c 36 83 57 3e
       -0.0050807893 -0.12373081 0.01589048 0.21046147
000130 58 8c 8e 3d fa b0 9a bd b4 c3 e3 bd 60 85 5c 3c
       0.06960362 -0.07553287 -0.11121312 0.013459533
000140 e6 fa 17 3e 08 45 74 3d de 16 29 be 6c 34 aa 3d
       0.14841804 0.059636146 -0.1651263 0.0831078
000150 9e bf 0d be 45 e1 ff bd 1b 08 25 be 48 94 8c 3c
       -0.13842627 -0.12494139 -0.16116373 0.01716055
000160 fa 37 47 3e 4a 0c b0 bd be 16 3b be be e8 0a 3e
       0.19454947 -0.08596094 -0.18270394 0.13565347
000170 14 57 41 bd 58 76 c3 bc 56 3c 1b 3e 45 9d 55 be
       -0.047202185 -0.023860142 0.15159735 -0.20860775
000180 00 4a 57 bc f8 95 3f 3e d4 dd 86 bd e8 1b 1a 3d
       -0.013140202 0.18709552 -0.06585279 0.03762427
000190 90 89 42 bd 68 28 9e 3d 09 a2 01 be d0 d1 58 bd
       -0.04749447 0.07722551 -0.12659468 -0.052934468
0001a0 94 af 0f 3e 06 ce d1 bd 1a 68 b2 bd 50 06 da 3c
       0.14031821 -0.10244374 -0.08711262 0.026614338
0001b0 20 2e 21 be 96 6e c7 bd 8c 6f ec 3d c0 66 62 3b
       -0.15740252 -0.097378895 0.115447134 0.0034546107
0001c0 2a 0a 4b 3e 4e 2e 40 be 39 67 29 be c4 ad f8 3d
       0.19828096 -0.18767664 -0.16543283 0.12142518
0001d0 88 23 b3 3d c3 84 f7 bd 58 1f 3e bd da d0 88 bd
       0.087470114 -0.12085869 -0.04641661 -0.0668046
0001e0 01 b0 4c be 87 a9 08 be c2 cc 24 3e f8 40 d8 3c
       -0.19989015 -0.1334592 0.16093734 0.026398167
0001f0 c8 2a c9 3d 08 55 24 3e b0 87 2c 3e 90 14 49 be
       0.09822613 0.16048062 0.16848636 -0.1963675
