results/Run4/PlayerRL/PlayerRL-360.onnx (onnx, 72494 bytes, 5 tensors)

network_body._body_endoder.seq_layers.0.weight f4 [128, 2]
0.7214279 -1.1359861 0.21730904 0.5622605 0.65199256 -0.78238636 -0.49024174 0.55399483
-0.26068702 0.3361568 0.105475865 -1.743447 0.3035679 -0.49690816 0.5149984 -0.66335213
0.23070285 -0.53042364 1.4963771 -0.80233634 1.134433 -0.3840994 1.4613422 -1.0667775
1.4579734 0.6277458 0.28090864 0.06501158 1.1304351 0.41668013 -0.30881333 0.30060175
0.028589288 -0.060067408 -0.085425176 -0.3155787 -0.18243861 0.55847514 -1.3788269 -0.8447673
0.030894022 -0.9584319 -0.7862544 0.85703844 -0.2572157 -0.47964928 -0.34403834 -0.36705497
0.7866735 0.44003233 0.37731075 -0.9867392 1.1165556 -0.23574811 -0.44456273 1.4610173
-1.2070708 0.012087967 0.25467205 0.75632656 -0.091669075 -0.7528699 0.57746226 -1.2218841
-0.4423298 1.2212707 0.22204201 0.13816734 -0.32560074 0.17314017 -0.12668067 -0.011331005
0.15728457 -1.6538002 1.9029481 0.2657643 0.047119346 -1.6205628 -0.0010719338 1.371042
-0.41485557 0.27133584 0.5171651 -0.5077136 -0.42938614 0.2708014 -0.6730723 0.5082218
0.4443458 -1.5848128 -1.7750754 -0.80892444 -0.45402163 -0.83884853 -1.2233676 -1.2604917
0.6602959 -0.51311415 -0.58007264 0.62224466 0.87074476 -0.93597764 0.019576784 -0.15725863
-1.1881751 -0.55630404 -1.0207764 0.3637354 -0.30624336 -0.23248011 -1.6870464 -0.15179288
0.3873026 -0.9041551 -0.778938 0.28743902 -0.4571653 0.2815048 -0.40923354 -0.40486395
0.48890826 0.6251541 0.6353723 -1.0881131 -0.25744691 -0.35187063 0.34651136 0.4812282
0.40033987 0.8569942 0.66818386 -0.63556206 -0.33532038 0.9948954 0.98372877 -0.5088713
0.27080113 -0.12962803 -0.217783 0.1833881 -0.122090206 0.10097844 0.22258288 0.46370712
0.40181246 -0.91921425 -0.87638396 -0.64700055 0.34686816 -0.5079289 0.33732897 0.4286464
0.65748 0.23181151 0.16678515 -0.55060387 0.13678557 -0.35694227 0.18984276 0.49046147
-0.007280391 -0.24335267 -0.27402422 -0.98214185 0.5552346 0.021350002 -0.68260443 -0.46587822
-0.13044631 0.7168915 -0.2688242 -0.052243683 0.6166185 0.5576993 0.022055132 0.6629552
-0.92211574 0.6282882 0.2136865 -0.8107833 -0.26555264 -0.02753827 0.42015246 -0.44716886
-0.23969644 0.76477426 -0.2552766 -0.92484283 -0.47441727 -1.2658724 1.0638839 -0.2951609
-0.5696895 -0.29856205 0.20911382 0.15703782 1.4093546 -0.32173714 0.7753723 -0.0897053
-0.9814398 0.1847278 1.0380063 0.25092515 -0.9885333 0.3181683 -0.3289962 0.19029763
-0.21199784 0.5664067 0.9508458 -0.35659915 0.6796245 0.44082826 -1.0979178 -0.18619354
-1.0386313 -0.31699312 0.66095644 -0.35153112 -0.48120588 0.025427759 0.40906292 0.07256202
0.954031 -0.40013978 0.027339114 -0.72106844 -0.8164711 0.67049366 0.49315518 -0.42084637
0.47449994 -0.15367305 -0.30011967 1.1555741 -0.174099 -0.010869788 -0.7076982 -0.5383026
-0.81614596 -0.70633775 0.5246206 0.7038464 -1.0376849 -0.6461305 0.010082236 0.83904636
-0.46002513 0.76822096 -0.64723486 1.3836962 0.4780155 0.41948104 1.0381236 0.18337095
00000000: 80af 383f fe67 91bf 4386 5e3e 4ef0 0f3f
00000010: fce8 263f 794a 48bf f700 fbbe 9bd2 0d3f
00000020: c578 85be be1c ac3e bb03 d83d 4529 dfbf
00000030: 406d 9b3e bf6a febe efd6 033f 72d1 29bf
00000040: 5e3d 6c3e d8c9 07bf 4989 bf3f ea65 4dbf
00000050: 1a35 913f ada8 c4be 430d bb3f 2a8c 88bf
00000060: df9e ba3f f3b3 203f 42d3 8f3e cb24 853d
00000070: 19b2 903f 1957 d53e c81c 9ebe 79e8 993e
00000080: 1534 ea3c 3e09 76bd 65f3 aebd 8893 a1be
00000090: 30d1 3abe 3af8 0e3f 667d b0bf ab42 58bf
000000a0: 7615 fd3c cb5b 75bf f847 49bf df66 5b3f
000000b0: c7b1 83be 9794 f5be cb25 b0be a1ee bbbe
000000c0: 6f63 493f eb4b e13e e02e c13e f19a 7cbf
000000d0: 4beb 8e3f f467 71be ba9d e3be 9d02 bb3f
000000e0: 4c81 9abf 9c0c 463c 6064 823e 9e9e 413f
000000f0: ffbc bbbd 15bc 40bf 91d4 133f b366 9cbf
00000100: 0d79 e2be 9952 9c3f fb5e 633e bd7b 0d3e
00000110: 24b5 a6be a84b 313e 94b8 01be aea5 39bc
00000120: 350f 213e baaf d3bf ce93 f33f 4212 883e
00000130: 3700 413d 9a6e cfbf 2180 8cba 4e7e af3f
00000140: f367 d4be 88ec 8a3e ef64 043f 85f9 01bf
00000150: 80d8 dbbe 7ba6 8a3e 774e 2cbf d31a 023f
00000160: 4b81 e33e 25db cabf ac35 e3bf ac15 4fbf
00000170: 8675 e8be c7be 56bf 4f97 9cbf cb57 a1bf
00000180: 2709 293f 735b 03bf a47f 14bf 6d4b 1f3f
00000190: 21e9 5e3f 3b9c 6fbf 7e5f a03c 6808 21be
000001a0: 1f16 98bf f169 0ebf cda8 82bf 873b ba3e
000001b0: eecb 9cbe 440f 6ebe 23f1 d7bf 986f 1bbe
000001c0: 874c c63e b576 67bf 7b68 47bf 352b 933e
000001d0: 9211 eabe 6621 903e 0f87 d1be 544a cfbe
000001e0: 2f52 fa3e 190a 203f c2a7 223f 4a47 8bbf
000001f0: 15d0 83be 6328 b4be f069 b13e 8b63 f63e
00000200: 59f9 cc3e f963 5b3f 190e 2b3f 32b4 22bf
00000210: 1daf abbe 77b1 7e3f a6d5 7b3f 6445 02bf
00000220: 72a6 8a3e 36bd 04be 8202 5fbe 17ca 3b3e
00000230: 6e0a fabd c9cd ce3d c4ec 633e 056b ed3e
00000240: 5dba cd3e a051 6bbf b35a 60bf d4a1 25bf
00000250: b498 b13e a107 02bf 62b6 ac3e 8a77 db3e
00000260: 9c50 283f ff5f 6d3e bac9 2a3e 60f4 0cbf
00000270: 8411 0c3e 23c1 b6be 2466 423e c41d fb3e
00000280: 5990 eebb 7131 79be e74c 8cbe a66d 7bbf
00000290: db23 0e3f 33e6 ae3c 2abf 2ebf 9787 eebe
000002a0: b893 05be 3486 373f 53a3 89be 79fd 55bd
000002b0: b6da 1d3f 62c5 0e3f f7ac b43c 6fb7 293f
000002c0: c70f 6cbf 7fd7 203f a2d0 5a3e 7f8f 4fbf
000002d0: 84f6 87be f097 e1bc 391e d73e 51f3 e4be
000002e0: fc72 75be 3fc8 433f 9db3 82be 80c2 6cbf
000002f0: d2e6 f2be 1b08 a2bf 592d 883f 541f 97be
00000300: 2cd7 11bf 20dd 98be ef21 563e 86ce 203e
00000310: bb65 b43f bbba a4be cd7e 463f 6ab7 b7bd
00000320: a43f 7bbf 4929 3d3e 64dd 843f 4379 803e
00000330: 8510 7dbf f5e6 a23e 3172 a8be 62dd 423e
00000340: f615 59be 0800 113f a16a 733f 2a94 b6be
00000350: dffb 2d3f 3eb4 e13e 9288 8cbf 85a9 3ebe
00000360: dff1 84bf ec4c a2be 7134 293f e3fb b3be
00000370: 9e60 f6be e04d d03c b270 d13e 659b 943d
00000380: 603b 743f 1fdf ccbe 47f6 df3c f197 38bf
00000390: 4004 51bf 79a5 2b3f d67e fc3e 2d79 d7be
000003a0: a8f1 f23e 785c 1dbe 49a9 99be dae9 933f
000003b0: 0247 32be 3217 32bc b62b 35bf 33ce 09bf
000003c0: f1ee 50bf 8dd2 34bf 894d 063f 472f 343f
000003d0: dcd2 84bf cf68 25bf f62f 253c becb 563f
000003e0: 6a88 ebbe 21aa 443f 2fb1 25bf f51c b13f
000003f0: 73be f43e 38c6 d63e 3ce1 843f 98c5 3b3e

network_body._body_endoder.seq_layers.0.bias f4 [128]
-0.0012149529 0.00013720423 -0.00023891122 -0.0026479894 0.0023661957 1.8853381e-05 -0.0018538698 -0.0014306207
0.00017814583 -0.0016718988 0.0013949432 -0.001100408 -0.00062635064 0.00011199042 0.0010107654 0.002535282
-0.0022987735 -0.001055511 -0.0026130814 -0.0050405865 -0.0035570508 -4.8547365e-05 -0.00353395 -0.0013154584
-0.0013415797 0.003681525 -0.0020118272 -5.8063677e-05 -0.0018373955 -0.0010428395 -0.0033439237 0.0016542732
-0.0001920347 -0.0011108252 0.00023711153 -0.004165231 -0.006466836 0.0007277119 0.0028595221 0.00035545047
-0.00020029276 0.0011944384 -0.0014215192 0.0032374607 0.006727872 0.0051296186 -0.00097133993 0.004595254
-0.00268158 0.0009789752 0.0021797032 -0.004809523 0.0055446546 -0.0024052376 0.0034930832 0.0011514947
0.0011821829 -0.0023523415 -2.0321939e-05 0.003354679 -0.0021839696 0.00015637944 -0.0010481817 -0.0015781723
-0.000102512204 -0.0012825133 -0.0006479145 -0.0047720806 0.0017326558 -0.0021329636 0.00016974765 -0.00021654564
0.00015858283 -0.005231853 -0.0015510032 4.016295e-05 -0.000844413 0.0013036455 0.00065493997 -0.00090598245
-0.003392698 0.0004339381 0.0015650687 0.0050160745 -0.00056801236 -0.0046756663 0.0012945104 -0.002583011
-0.0019363294 0.00031977912 0.0036540958 -0.003037399 0.0014056663 -0.0017634107 -0.0017849822 0.0017280532
-0.0052069314 0.004954705 0.0009786773 0.0018118989 0.00069353776 0.0024067676 -0.0018586048 -0.0016638754
-0.00071161566 0.0007128204 -9.521165e-05 0.0012661554 -0.0050444733 -0.0003056993 -0.0037023432 0.001061184
-0.0025385132 0.0011578868 -0.0029047453 -0.004561058 0.0005214648 -0.00030380502 0.004315295 -0.0049985913
-0.005039388 -0.0015339679 -0.00022514528 -0.0015887676 -0.00040164992 0.00024317187 0.0045609786 0.00072460895
00000000: 0e3f 9fba 7bde 0f39 3e84 7ab9 e489 2dbb
00000010: 2d12 1b3b 5427 9e37 8cfd f2ba aa83 bbba
00000020: a8cc 3a39 9d23 dbba 87d6 b63a 913b 90ba
00000030: ae31 24ba 66dc ea38 a97b 843a f926 263b
00000040: 05a7 16bb 1259 8aba 3b40 2bbb 812b a5bb
00000050: 691d 69bb 569f 4bb8 d899 67bb 766b acba
00000060: f2d7 afba bd45 713b dcd8 03bb 6689 73b8
00000070: c3d4 f0ba e3af 88ba bb25 5bbb 33d4 d83a
00000080: ec5c 49b9 1c99 91ba 24a1 7839 7d7c 88bb
00000090: c1e7 d3bb ebc3 3e3a d266 3b3b c15b ba39
000000a0: ae05 52b9 b48e 9c3a 4552 baba 942b 543b
000000b0: 7b75 dc3b 5c16 a83b 85a1 7eba c993 963b
000000c0: 72bd 2fbb f550 803a 5ad9 0e3b 3499 9dbb
000000d0: efaf b53b 31a1 1dbb 36ec 643b c0ed 963a
000000e0: 7af3 9a3a be29 1abb 0879 aab7 2dda 5b3b
000000f0: ee20 0fbb c9f9 2339 2463 89ba adda ceba
00000100: d2fb d6b8 011a a8ba ced8 29ba 1d5f 9cbb
00000110: 481a e33a 31c9 0bbb 4afe 3139 8710 63b9
00000120: 4149 2639 f76f abbb 084b cbba a474 2838
00000130: 995b 5dba 16df aa3a 47b0 2b3a 747f 6dba
00000140: 0758 5ebb 3082 e339 fe22 cd3a e25d a43b
00000150: aae6 14ba 5536 99bb 90ac a93a bc47 29bb
00000160: 6fcc fdba 07a8 a739 8e79 6f3b 190f 47bb
00000170: 563e b83a 3f22 e7ba 10f6 e9ba d87f e23a
00000180: e89e aabb 145b a23b f646 803a 3d7d ed3a
00000190: 88ce 353a dcba 1d3b 6e9c f3ba 6516 daba
000001a0: b88b 3aba 91dc 3a3a 5eac c7b8 20f5 a53a
000001b0: 1c4c a5bb 4446 a0b9 03a3 72bb 6d17 8b3a
000001c0: 2f5d 26bb 3cc4 973a 8a5d 3ebb ed74 95bb
000001d0: e9b2 083a 0548 9fb9 5167 8d3b 39cb a3bb
000001e0: 7321 a5bb 6c0f c9ba fa14 6cb9 323e d0ba
000001f0: 8a94 d2b9 f4fb 7e39 4374 953b aff3 3d3a

network_body._body_endoder.seq_layers.2.weight f4 [128, 128]
0.028131956 0.030934859 -0.010519786 -0.0837233 -0.011214909 -0.03584951 0.1400987 0.058778416
0.0118156355 0.16165666 0.1532721 0.03651974 -0.14300442 -0.06909185 -0.029203057 -0.12677538
-0.025248677 0.030924639 -0.059199568 0.0097564 -0.04895102 -0.08708429 -0.1515287 -0.10001251
-0.02691605 -0.070687555 -0.07697836 -0.01596171 0.027456813 -0.067802586 0.0191926 -0.122912176
-0.11575439 0.10841541 -0.046581537 0.02437468 -0.04433238 -0.042652693 0.08158071 0.0027720975
-0.057942342 -0.14148809 -0.0066368994 -0.022540601 -0.09246531 -0.054853592 0.07759422 0.027914645
-0.03165485 0.14130202 0.054946538 0.057590093 -0.14692813 -0.12256623 0.0075165317 0.015096044
-0.19350861 -0.002381622 0.10087662 0.0836071 -0.036137726 -0.039291337 -0.058038097 -0.113169
0.12823768 -0.15900837 0.058271106 -0.0021131733 0.07288949 0.12951979 -0.086039595 0.051223513
0.10814341 0.08408296 -0.06509629 0.24230222 0.012954296 0.2326503 -0.0022602365 0.08451683
-0.06980911 0.08312714 0.083794765 0.12697588 0.10857305 0.056452878 -0.07042518 0.08884789
-0.09603434 -0.04105051 -0.09725127 -0.019150166 -0.11431089 0.006233491 0.11244699 0.02731496
0.08649924 0.05451322 -0.10096431 0.0010666839 -0.022714067 -0.0957592 0.050698146 0.094131894
0.027505225 -0.09321167 0.045986045 -0.06030944 -0.06283736 0.074392304 0.10923652 -0.15879224
-0.044371147 -0.012917919 -0.090331554 0.061746303 0.13239446 -0.081043 -0.0047766487 0.13406232
0.024159448 0.13565677 0.079120904 -0.08747446 0.08684905 0.09384523 0.11118251 0.108206764
-0.03168729 -0.017291838 -0.045849998 -0.00681186 0.13626012 0.048633695 0.095872276 0.007608612
-0.089734085 0.051838834 -0.020257903 0.07453224 -0.09999421 -0.08310387 -0.1895292 0.03677576
0.039002456 -0.046704393 0.086194314 0.19215529 -0.032458562 0.08979953 -0.07543329 0.04264277
-0.07054555 0.1470392 -0.08188674 -0.06281441 -0.0512486 -0.06517644 0.0429524 0.10498416
-0.09210092 0.10177826 -0.03895407 0.22522832 0.10292341 0.037310693 0.01779441 -0.22567593
0.022959126 0.03851301 -0.11273621 -0.039965898 -0.1744493 0.025132975 0.094626695 0.09779407
-0.027221257 0.0618045 -0.019352285 0.08261461 -0.057692606 0.009311863 -0.11388745 -0.02828649
-0.010745348 0.014646996 -0.089374274 -0.20067264 -0.041692987 0.1356154 0.13074684 0.075568594
-0.09040591 0.08891565 0.0958725 0.015320435 0.16870311 -0.06678323 -0.0873616 -0.032587487
-0.13879883 0.21024285 0.07576403 0.06453791 0.08006146 -0.037695263 0.008115039 -0.03565946
0.012498319 -0.053951684 0.080028065 -0.14022112 0.112096705 -0.06784561 -0.005607799 -0.06398153
-0.02791024 -0.014035565 0.053509757 -0.13001333 -0.046792712 -0.10252378 -0.006821684 -0.02596281
0.065750144 0.045468878 0.09249196 0.055657033 0.18938847 -0.2011275 -0.019685049 0.080306344
-0.061483223 -0.12097754 0.026843945 -0.0883573 -0.0919108 0.015699971 0.06416678 -0.013084536
0.023549274 0.012763489 -0.0042602206 -0.15912908 0.10629017 0.14044684 0.007272158 0.07234965
-0.013529438 -0.16616075 -0.020825563 0.16996428 0.0923642 -0.12404585 -0.10522843 0.0748595
00000000: fd74 e63c 1a6b fd3c 2e5b 2cbc 1f77 abbd
00000010: bdbe 37bc f0d6 12bd 0976 0f3e a3c1 703d
00000020: 5e96 413c 5389 253e 5df3 1c3e b995 153d
00000030: c06f 12be 0780 8dbd 403b efbc 68d1 01be
00000040: 50d6 cebc ab55 fd3c 3f7b 72bd 4fd9 1f3c
00000050: dd80 48bd 4059 b2bd 572a 1bbe 5cd3 ccbd
00000060: 0c7f dcbc a3c4 90bd d5a6 9dbd 22c2 82bc
00000070: 1ced e03c 15dc 8abd cd39 9d3c 61b9 fbbd
00000080: a310 edbd e608 de3d 48cc 3ebd 69ad c73c
00000090: df95 35bd 97b4 2ebd ca13 a73d 14ac 353b
000000a0: f354 6dbd 41e2 10be 597a d9bb 11a7 b8bc
000000b0: 745e bdbd 29ae 60bd b8e9 9e3d 41ad e43c
000000c0: 84a8 01bd 7ab1 103e 9f0f 613d 97e3 6b3d
000000d0: 5474 16be 0104 fbbd 3d4d f63b 6655 773c
000000e0: 1f27 46be fd14 1cbb 6798 ce3d 333a ab3d
000000f0: 2705 14bd f4ef 20bd 5bb9 6dbd 26c5 e7bd
00000100: bd50 033e 17d3 22be afad 6e3d 2a7d 0abb
00000110: 1647 953d d6a0 043e 8735 b0bd bfcf 513d
00000120: 4b7a dd3d b033 ac3d 3451 85bd 131e 783e
00000130: 413e 543c e13b 6e3e 7a20 14bb 2917 ad3d
00000140: 14f8 8ebd 903e aa3d 979c ab3d f705 023e
00000150: 8c5b de3d 223b 673d 143b 90bd e2f5 b53d
00000160: a7ad c4bd 9424 28bd ad2b c7bd cfe0 9cbc
00000170: d41b eabd 5042 cc3b 9c4a e63d 9fc3 df3c
00000180: 8326 b13d 4149 5f3d 60c6 cebd f9cf 8b3a
00000190: da12 babc 661d c4bd dca8 4f3d 39c8 c03d
000001a0: a352 e13c c3e5 bebd dd5b 3c3d 0807 77bd
000001b0: e0b0 80bd fe5a 983d 66b7 df3d 6f9a 22be
000001c0: 85be 35bd aea5 53bc c0ff b8bd b1e9 7c3d
000001d0: 6a92 073e dff9 a5bd 6f85 9cbb a247 093e
000001e0: 09ea c53c 9ce9 0a3e 240a a23d cf25 b3bd
000001f0: eadd b13d ee31 c03d a8b3 e33d 829b dd3d
00000200: 88ca 01bd 9da7 8dbc 35cd 3bbd 0636 dfbb
00000210: c687 0b3e 2034 473d af58 c43d aa51 f93b
00000220: 81c6 b7bd f554 543d e7f3 a5bc 5ca4 983d
00000230: c4c9 ccbd 5d32 aabd f113 42be 2ea2 163d
00000240: 0ac1 1f3d 1b4d 3fbd a586 b03d 5bc4 443e
00000250: 45f3 04bd d1e8 b73d c57c 9abd 2faa 2e3d
00000260: 2f7a 90bd 7291 163e 3cb4 a7bd d7a4 80bd
00000270: 0dea 51bd 3a7b 85bd dbee 2f3d ef01 d73d
00000280: 689f bcbd 1f71 d03d 4e8e 1fbd 41a2 663e
00000290: 82c9 d23d 19d3 183d 95c5 913c 9717 67be
000002a0: c714 bc3c d1bf 1d3d 3ee2 e6bd 48b3 23bd
000002b0: d6a2 32be abe3 cd3c a4cb c13d 4248 c83d
000002c0: 1dff debc b726 7d3d af88 9ebc d931 a93d
000002d0: 154f 6cbd c990 183c d33d e9bd 12b9 e7bc
000002e0: 420d 30bc f4f9 6f3c dc09 b7bd 217d 4dbe
000002f0: 44c6 2abd c3de 0a3e 80e2 053e b5c3 9a3d
00000300: bc26 b9bd 6919 b63d cd58 c43d 9002 7b3c
00000310: 82c0 2c3e a5c5 88bd a3ea b2bd 757a 05bd
00000320: 4821 0ebe e749 573e 2c2a 9b3d 742c 843d
00000330: 43f7 a33d 5966 1abd f1f4 043c a70f 12bd
00000340: c0c5 4c3c 71fc 5cbd c1e5 a33d 2096 0fbe
00000350: f592 e53d a4f2 8abd a1c1 b7bb c008 83bd
00000360: 04a4 e4bc 6df5 65bc 0c2d 5b3d 3722 05be
00000370: b7a9 3fbd fdf7 d1bd 6f88 dfbb f5af d4bc
00000380: 03a8 863d 933d 3a3d 6d6c bd3d a1f8 633d
00000390: 0def 413e 5ef4 4dbe 8a42 a1bc a777 a43d
000003a0: d5d5 7bbd 13c3 f7bd d5e7 db3c acf4 b4bd
000003b0: bb3b bcbd 3a9d 803c df69 833d 8660 56bc
000003c0: 68ea c03c f41d 513c 5299 8bbb bcf2 22be
000003d0: a9ae d93d 4cd1 0f3e 484b ee3b 0e2c 943d
000003e0: 93aa 5dbc 0b26 2abe 5f9a aabc 1e0b 2e3e
000003f0: 7129 bd3d c00b febd 0182 d7bd f04f 993d

network_body._body_endoder.seq_layers.2.bias f4 [128]
-0.0026139126 0.0038666513 0.002666695 -0.0038574953 0.0034929437 0.0047916207 -0.0009853727 0.0014369847
0.0011999103 -0.003953626 0.0022490348 -0.0012750913 -0.0013287996 -0.0014539437 -0.0040035658 -0.0021443027
-0.001774581 0.0004843882 -0.0022072727 0.0017837707 0.0015113166 0.00016680002 -0.0011558289 0.0021834516
-0.0020874294 0.0003776333 -0.00038000493 -0.0015213513 0.0019017817 0.0011289718 0.003146348 0.0004190208
-0.001453716 0.00132859 -0.0016640273 0.0014009392 0.0006531504 0.0047959047 -0.001650157 -0.001167286
-0.0035083587 0.00067786506 0.0015539433 0.0016079701 -0.0015821536 0.0015570336 0.0011225286 0.0029352887
-0.00012083258 -0.00042183694 -0.0034802293 -0.0021652402 0.001975348 0.0028336246 -0.0013369604 -0.0015830065
-0.00079900055 -0.0016177803 -0.0020470282 0.00055922946 -0.0016388363 -0.0017565407 -0.0014463393 0.0026868798
-0.0020114095 0.0003392045 -0.002167304 0.002143527 -0.0011752262 -0.0052073626 0.0012579429 0.00047044794
-0.001592566 0.00024532972 0.00083864166 -0.0014465634 -0.0044360827 -0.0014859271 0.002991545 0.0026141733
-0.0012632975 0.0008956877 -0.0006100512 0.0015411566 -0.00087376736 -0.00022211547 -0.0014798671 0.0013256504
-0.0005819473 0.0013208544 0.0023645002 3.1582218e-05 0.0012250441 0.001791534 -0.0018305026 0.0017346465
-0.0004981557 0.0012274457 -0.0014351268 0.0039049825 -0.0003615713 -0.0015954096 -0.0022517897 0.00080869766
0.0003375674 0.002625515 -0.000840436 -0.0034315127 0.0012833317 -0.0009673221 -0.0021765323 -0.0014383434
0.003678128 0.0016863982 0.0015262989 -0.002327718 -0.0013934559 0.003221179 -0.0016613338 0.004246622
-0.0036368496 0.0011880985 -0.000912654 -0.0012958245 0.00027661555 0.0019159584 -0.0033073125 -0.0042373445
00000000: 2d4e 2bbb a567 7d3b b8c3 2e3b 08ce 7cbb
00000010: dfe9 643b 0703 9d3b 9f27 81ba 3559 bc3a
00000020: 4f46 9d3a 6b8d 81bb 8b64 133b f720 a7ba
00000030: 1e2b aeba 4192 beba 5830 83bb 6e87 0cbb
00000040: 0f99 e8ba 7cf5 fd39 e4a7 10bb 6acd e93a
00000050: 5f17 c63a 0ae7 2e39 2f7f 97ba 3d18 0f3b
00000060: 41cd 08bb 15fd c539 663b c7b9 1468 c7ba
00000070: 3445 f93a 02fa 933a f632 4e3b 05b0 db39
00000080: 9d8a beba 1524 ae3a 7e1b daba b89f b73a
00000090: 2e38 2b3a f726 9d3b 154a d8ba 9eff 98ba
000000a0: 7eec 65bb c1b2 313a afad cb3a 86c2 d23a
000000b0: 4460 cfba 6115 cc3a cf21 933a f95d 403b
000000c0: 7f67 fdb8 ff29 ddb9 8f14 64bb b4e6 0dbb
000000d0: d774 013b 55b4 393b f23c afba e27c cfba
000000e0: 0574 51ba b30b d4ba 6f27 06bb 4199 123a
000000f0: 39ce d6ba ba3b e6ba 1893 bdba 5d16 303b
00000100: dad1 03bb 42d7 b139 5409 0ebb 6a7a 0c3b
00000110: 0c0a 9aba 86a2 aabb 8fe1 a43a 74a6 f639
00000120: a6bd d0ba 999f 8039 4ad8 5b3a 9d9a bdba
00000130: 8f5c 91bb 71c3 c2ba cc0d 443b 8d52 2b3b
00000140: 3b95 a5ba 96cc 6a3a d8eb 1fba a200 ca3a
00000150: 890d 65ba abe7 68b9 1af8 c1ba 72c1 ad3a
00000160: d28d 18ba 8520 ad3a bbf5 1a3b 2677 0438
00000170: a991 a03a e8d1 ea3a 7aed efba 145d e33a
00000180: aa96 02ba 3ee2 a03a dd1a bcba bcea 7f3b
00000190: 4791 bdb9 101d d1ba c392 13bb c8fe 533a
000001a0: 88fb b039 d510 2c3b b550 5cba 3be3 60bb
000001b0: 7735 a83a e393 7dba 27a4 0ebb cc86 bcba
000001c0: bf0c 713b 220a dd3a 180e c83a a18c 18bb
000001d0: 9fa4 b6ba 6a1a 533b 1dc1 d9ba 3f27 8b3b
000001e0: 3658 6ebb f8b9 9b3a 2c3f 6fba a8d8 a9ba
000001f0: b606 9139 e520 fb3a 7fbf 58bb 6cd9 8abb

action_model._continuous_distribution.mu.weight f4 [1, 128]
-5.83629e-05 -0.006050448 -0.004245956 0.02288182 -0.0074982867 -0.0026000023 0.034348257 0.018420486
-0.01225909 0.0028350349 -0.016529877 0.019343866 0.011146598 -0.01310507 0.0041810567 0.0038709776
0.010598804 -0.0006447599 0.0039315997 -0.012609135 -0.0069751665 -0.004895367 0.030767443 -0.011187757
0.025744721 0.003957715 -0.017551439 0.013708088 0.016979631 0.0054230583 -0.011988087 -0.002336202
-0.0014594543 0.016436718 0.01224937 -0.0031516629 0.0028900476 -0.00055292126 0.010907639 0.022064125
0.006339095 0.0024555132 0.012493439 -0.027695663 -0.017244702 -0.004020862 0.011940869 -0.013487352
0.028643746 -0.020288976 0.0037871173 0.030441973 0.023208639 -0.024586722 0.022628492 -0.014321223
-0.020599296 0.011190715 0.009986303 -0.016777296 0.014275433 0.015136449 0.013869117 0.0073239333
0.012850756 -0.0019613884 0.023589248 -0.005287246 -0.022977488 0.014853515 -0.014821729 -0.014158613
0.010760731 -0.0043912167 -0.0085329395 0.0063619656 0.013692989 -0.0044676075 -0.00407549 -0.0044941064
0.010816591 -0.003847885 0.014154977 -0.026048576 0.010610631 0.021795815 0.009845878 -0.040075406
-0.0059228376 -0.006754093 0.04652915 0.021350758 0.03736532 -0.017648136 0.00017357424 -0.053314954
-0.035698406 0.0034773825 0.018795975 -0.047561586 0.007640592 0.0020913878 0.019219859 0.035493214
-0.016596213 -0.019729873 0.028933754 0.0016388843 0.017674413 -0.00618911 0.009713719 0.0219166
-0.021588473 -0.015317643 -0.023044324 0.0035354656 0.012378326 -0.022272589 0.012317938 -0.014490004
0.012895623 -0.010581526 0.012549127 0.0107085025 -0.022735665 -0.017152967 0.0018126454 0.037844524
00000000: b0ca 74b8 d642 c6bb a921 8bbb a872 bb3c
00000010: 30b4 f5bb cd64 2abb c2b0 0c3d 8fe6 963c
00000020: 5ada 48bc fecb 393b aa69 87bc 0777 9e3c
00000030: 38a0 363c a6b6 56bc 3f01 893b 3ab0 7d3b
00000040: 9ba6 2d3c 1b05 29ba a6d4 803b 8c96 4ebc
00000050: f08f e4bb 5169 a0bb 010c fc3c db4c 37bc
00000060: 98e6 d23c b8af 813b 09c8 8fbc e397 603c
00000070: de18 8b3c e9b3 b13b ae69 44bc f71a 19bb
00000080: 294b bfba 4ca6 863c 95b1 483c 218c 4ebb
00000090: f466 3d3b ebf1 10ba f4b5 323c d3bf b43c
000000a0: 2fb8 cf3b adec 203b 48b1 4c3c 04e2 e2bc
000000b0: c344 8dbc 6fc1 83bb a2a3 433c 0efa 5cbc
000000c0: 4aa6 ea3c 1135 a6bc 4931 783b 7261 f93c
000000d0: 0b20 be3c 186a c9bc 635f b93c 90a3 6abc
000000e0: dbbf a8bc 4359 373c 979d 233c 8a70 89bc
000000f0: 81e3 693c defe 773c 4b3b 633c 9bfd ef3b
00000100: fa8b 523c a38a 00bb 3d3e c13c a240 adbb
00000110: 493b bcbc 285c 733c d6d6 72bc 87f9 67bc
00000120: c74d 303c 32e4 8fbb becd 0bbc 0978 d03b
00000130: 8f58 603c 0265 92bb b08b 85bb 4c43 93bb
00000140: 1238 313c cc2c 7cbb 47ea 673c d363 d5bc
00000150: 36d8 2d3c 238d b23c 9b50 213c 1c26 24bd
00000160: 5d14 c2bb 7051 ddbb 5a95 3e3d c9e7 ae3c
00000170: 610c 193d d392 90bc 7b01 3639 c860 5abd
00000180: 7e38 12bd cce4 633b 04fa 993c f0cf 42bd
00000190: ee5d fa3b aa0f 093b f772 9d3c 5561 113d
000001a0: c8f4 87bc 8ba0 a1bc 7b06 ed3c d5cf d63a
000001b0: eec9 903c 05ce cabb 4a26 1f3c 718a b33c
000001c0: 4fda b0bc daf6 7abc 73c7 bcbc 45b3 673b
000001d0: 76ce 4a3c 0175 b6bc 2dd1 493c 7b67 6dbc
000001e0: 2a48 533c 235e 2dbc db9a 4d3c b772 2f3c
000001f0: 2540 babc 6184 8cbc 4996 ed3a dc02 1b3d
