results/Run4/PlayerRL/PlayerRL-3964.onnx (onnx, 72585 bytes, 4 tensors)

network_body._body_endoder.seq_layers.0.weight f4 [128, 3]
0	0xbec98921	-0.39362434
1	0x3edf123e	0.43568605
2	0xbf060113	-0.5234539
3	0x3c1a4ef7	0.009418241
4	0x3f8ca37d	1.0987393
5	0xbdf62b46	-0.120199725
6	0x3e12741b	0.14302103
7	0xbf021841	-0.5081826
8	0x3ef4b3f3	0.4779354
9	0x3f41c17b	0.7568585
10	0x3f5e2b0f	0.8678445
11	0xbd5b352c	-0.053517506
12	0xbf2cfead	-0.67576104
13	0xbddbf6ac	-0.10740408
14	0x3fbf08d7	1.4924573
15	0xbde11a32	-0.109913245
16	0xbba99f31	-0.005176448
17	0xbe0be48b	-0.13661401
18	0x3f2bad93	0.6706173
19	0xbecc0595	-0.3984801
20	0x3eb5fe75	0.35545698
21	0xbe5ea050	-0.21740842
22	0xbf423371	-0.75859743
23	0x3db7f3bb	0.08982035
24	0x3ef87c42	0.485323
25	0xbf39217f	-0.72316736
26	0xbee5d4dc	-0.4488896
27	0xbf4b2431	-0.793521
28	0xbf3a09b3	-0.7267105
29	0xbaf04908	-0.0018332312
30	0xbea20d24	-0.3165065
31	0xbd5f4834	-0.054512218
32	0xbf24455e	-0.64168346
33	0xbf564d10	-0.8371134
34	0xbf170df6	-0.5900568
35	0x3e58ab4b	0.21159093
36	0x3cc57ed5	0.02410833
37	0x3f29a87b	0.66272706
38	0xbdf202bd	-0.118169285
39	0xbfaefbc1	-1.3670579
40	0xbf64ef33	-0.8942749
41	0xbf8228a6	-1.0168655
42	0x3dee266e	0.11628424
43	0xbe11b0f7	-0.14227663
44	0x3e5407f7	0.20706163
45	0x3f3ea26d	0.7446659
46	0xbd82b744	-0.063826114
47	0x3f74d493	0.9563686
48	0xbf251bd0	-0.64495564
49	0x3e67bdc5	0.22630985
50	0xbf452f6a	-0.77025473
51	0xbefcda37	-0.49385235
52	0xbeb1122a	-0.3458417
53	0xbf86d8d1	-1.0534917
54	0xbe9524be	-0.29129595
55	0x3f5332c7	0.82499355
56	0x3f38b604	0.72152734
57	0x3f59fcb0	0.85151196
58	0xbea2d3b3	-0.3180214
59	0xbf09dfab	-0.53856915
60	0x3e6af869	0.22946323
61	0xbd5a0f9c	-0.053237543
62	0xbf658a7c	-0.89664435
63	0x3f05207d	0.520027
64	0xbf69386e	-0.9110173
65	0x3f31cffa	0.6945797
66	0xbf2f7f92	-0.6855403
67	0x3e1dbdda	0.15404454
68	0xbf5b0a9e	-0.85563076
69	0x3f0d2d85	0.5514758
70	0xbf7ee6c5	-0.99570876
71	0x3ecf0fe5	0.40441814
72	0xbf4aa16a	-0.7915255
73	0xbf47eb6c	-0.780936
74	0xbf1ac88d	-0.60462266
75	0xbe040fcc	-0.12896651
76	0x3ed00d02	0.40634924
77	0x3e67aef7	0.22625338
78	0xbef6a717	-0.48174354
79	0xbe9c2670	-0.30498075
80	0x3ef57bd8	0.47946048
81	0x3f088ca9	0.5333963
82	0x3f1d3f1b	0.61424416
83	0x3dd2727c	0.102757424
84	0xbe1759bb	-0.14780323
85	0x3e77c26c	0.2419526
86	0xbda72c11	-0.08162702
87	0x3e9d300e	0.30700725
88	0xbf5642c7	-0.83695644
89	0x3f982878	1.188735
90	0xbf10079c	-0.5626161
91	0x3f3f23a5	0.74663764
92	0xbf140f8e	-0.57836235
93	0x3e272f67	0.16326676
94	0xbf5d8228	-0.8652673
95	0xbe560e07	-0.20903789
96	0xbf0a9d45	-0.54146224
97	0x3be4815c	0.0069734287
98	0x3e3359c2	0.17514709
99	0x3f31950d	0.6936806
100	0x3e4837e2	0.19552568
101	0xbecc671f	-0.39922425
102	0x3eeb09b3	0.45905837
103	0xbf592494	-0.8482144
104	0xbe78b71e	-0.24288604
105	0xbf08df81	-0.5346604
106	0x3dbe181b	0.092819415
107	0x3dc2095f	0.09474444
108	0x3d773216	0.0603505
109	0xbdd62f58	-0.10458249
110	0xbd1062ee	-0.035250597
111	0xbf1ed6b8	-0.62046385
112	0xbf088dcd	-0.5334137
113	0x3f2d3d83	0.67671984
114	0xbf00eb26	-0.5035881
115	0x3ec3821c	0.38185203
116	0x3e900354	0.2812754
117	0xbf512191	-0.81691843
118	0xbec8f6bc	-0.39250743
119	0x3f59ffc4	0.8515589
120	0x3eaa306a	0.33240062
121	0x3fa10f17	1.258273
122	0x3f1676b2	0.58774865
123	0x3f1010cb	0.56275624
124	0xbe37d097	-0.17950664
125	0xbf383beb	-0.7196643
126	0xbd079f27	-0.033110764
127	0x3f0cbc9d	0.549753
128	0x3d04f662	0.03246153
129	0x3e3f6125	0.18689401
130	0xbec178c6	-0.37787455
131	0x3f21a0ab	0.63135785
132	0x3da03569	0.07822687
133	0xbecec619	-0.40385512
134	0xbef4f4f2	-0.47843128
135	0xbf649e67	-0.893042
136	0x3d733a9e	0.059382074
137	0xbe914ecb	-0.28380427
138	0xbc169f42	-0.009193243
139	0x3d5f2939	0.054482672
140	0x3f9a250b	1.2042555
141	0xbf329937	-0.6976504
142	0x3ea26fa7	0.3172581
143	0xbf069dd7	-0.52584594
144	0x3e71085e	0.23538348
145	0xbd124495	-0.035709936
146	0x3f3219d2	0.6957065
147	0xbf8c7600	-1.0973511
148	0x3d818258	0.06323689
149	0xbfbe1ed3	-1.4853157
150	0x3f1a30c7	0.6023068
151	0xbf414c53	-0.75507087
152	0xbe9d302f	-0.30700824
153	0x3edf3041	0.43591502
154	0x3e3c6e3e	0.18401429
155	0xbf584e34	-0.8449433
156	0x3e79dfec	0.24401826
157	0x3edba454	0.4289881
158	0x3dd6648c	0.104683965
159	0xbe476daa	-0.19475427
160	0xbf830eff	-1.0238951
161	0xbe97fd86	-0.2968561
162	0xbb964ac1	-0.004586548
163	0x3f0e6776	0.5562662
164	0xbd354d2c	-0.04426305
165	0xbf38fbb3	-0.7225906
166	0x3d8d51a1	0.06900335
167	0xbf1279b1	-0.57216936
168	0x3f079121	0.52955824
169	0xbfbd22aa	-1.4776204
170	0xbef35f18	-0.47533488
171	0xbe65be9e	-0.22435996
172	0x3ee0f72b	0.43938574
173	0x3eacc165	0.33741298
174	0x3e9bf48f	0.3046002
175	0x3e3c2099	0.1837181
176	0x3d56774e	0.05235987
177	0xbf17cd7f	-0.5929794
178	0x3eac6807	0.33673117
179	0x3e4f5e45	0.20250805
180	0xbfcd619f	-1.6045417
181	0xbe143fee	-0.14477512
182	0xbe75a152	-0.2398732
183	0xbee28c91	-0.4424787
184	0xbee106af	-0.43950412
185	0x3e32f76b	0.17477195
186	0xbe351d1a	-0.17686883
187	0x3d31362a	0.043264546
188	0xbcc353e6	-0.023843717
189	0x3e7ece5c	0.24883407
190	0xbf3a5359	-0.7278343
191	0xbea40a76	-0.3203923
192	0xbea0238f	-0.3127713
193	0x3f104df8	0.5636897
194	0xbf80f39f	-1.0074347
195	0x3b33c128	0.0027428363
196	0xbf6381e6	-0.88870084
197	0x3d1eafee	0.038742
198	0xbef427b7	-0.4768655
199	0xbd2c3815	-0.04204567
200	0xbe416849	-0.18887438
201	0xbe10e073	-0.1414812
202	0x3e4c01be	0.1992254
203	0x3e86d04a	0.26330787
204	0xbde852a4	-0.113438874
205	0x3f79ecc6	0.9762691
206	0xbe236f7b	-0.15960495
207	0xbf05833e	-0.52153385
208	0x3f26ce7a	0.6515881
209	0xbedd7a0a	-0.4325717
210	0xbe4012a4	-0.18757111
211	0x3efd0f98	0.4942596
212	0xbee04e03	-0.43809518
213	0xbce8ec93	-0.02843312
214	0x3d49450a	0.049138106
215	0xbe4e3e53	-0.20140962
216	0xbeef6b39	-0.46761492
217	0x3f86d87a	1.0534813
218	0x3e80fdb6	0.25193566
219	0xbe0b336c	-0.13593835
220	0x3e9505f6	0.2910611
221	0xbe91fd93	-0.28513774
222	0xbfb830c9	-1.4389888
223	0x3f999c12	1.2000754
224	0x3d30eb19	0.043192957
225	0xbe5496f8	-0.20760715
226	0x3e740943	0.23831658
227	0x3f40a5c3	0.7525293
228	0xbdc110fc	-0.09427068
229	0x3dba3c66	0.09093551
230	0xbdb42cb7	-0.08797591
231	0xbefd55f2	-0.49479634
232	0xbf6bb259	-0.9206901
233	0xbdde6688	-0.108594
234	0xbec6ab24	-0.38802445
235	0xbe448000	-0.19189453
236	0x3e112fe6	0.14178428
237	0xbec2712f	-0.37976977
238	0x3f034ec1	0.51292044
239	0x3e9f0fa8	0.31066632
240	0x3e94cac3	0.29060945
241	0x3f10fa9e	0.5663241
242	0xbf5694b2	-0.8382064
243	0x3f7f3974	0.9969704
244	0xbf42e303	-0.7612764
245	0x3f03bdf6	0.5146173
246	0xbf8df2fa	-1.1089776
247	0x3d1fa7c5	0.038978357
248	0xbeec85d5	-0.46195856
249	0xbe92a613	-0.2864233
250	0x3e0eb5fa	0.13936606
251	0x3f40bf93	0.7529232
252	0xbf43617c	-0.76320624
253	0xbf1cb355	-0.6121114
254	0x3f93a976	1.153609
255	0xbead3b54	-0.33834326

network_body._body_endoder.seq_layers.0.bias f4 [128]
0	0x00000000	0.0
1	0x00000000	0.0
2	0x00000000	0.0
3	0x00000000	0.0
4	0x00000000	0.0
5	0x00000000	0.0
6	0x00000000	0.0
7	0x00000000	0.0
8	0x00000000	0.0
9	0x00000000	0.0
10	0x00000000	0.0
11	0x00000000	0.0
12	0x00000000	0.0
13	0x00000000	0.0
14	0x00000000	0.0
15	0x00000000	0.0
16	0x00000000	0.0
17	0x00000000	0.0
18	0x00000000	0.0
19	0x00000000	0.0
20	0x00000000	0.0
21	0x00000000	0.0
22	0x00000000	0.0
23	0x00000000	0.0
24	0x00000000	0.0
25	0x00000000	0.0
26	0x00000000	0.0
27	0x00000000	0.0
28	0x00000000	0.0
29	0x00000000	0.0
30	0x00000000	0.0
31	0x00000000	0.0
32	0x00000000	0.0
33	0x00000000	0.0
34	0x00000000	0.0
35	0x00000000	0.0
36	0x00000000	0.0
37	0x00000000	0.0
38	0x00000000	0.0
39	0x00000000	0.0
40	0x00000000	0.0
41	0x00000000	0.0
42	0x00000000	0.0
43	0x00000000	0.0
44	0x00000000	0.0
45	0x00000000	0.0
46	0x00000000	0.0
47	0x00000000	0.0
48	0x00000000	0.0
49	0x00000000	0.0
50	0x00000000	0.0
51	0x00000000	0.0
52	0x00000000	0.0
53	0x00000000	0.0
54	0x00000000	0.0
55	0x00000000	0.0
56	0x00000000	0.0
57	0x00000000	0.0
58	0x00000000	0.0
59	0x00000000	0.0
60	0x00000000	0.0
61	0x00000000	0.0
62	0x00000000	0.0
63	0x00000000	0.0
64	0x00000000	0.0
65	0x00000000	0.0
66	0x00000000	0.0
67	0x00000000	0.0
68	0x00000000	0.0
69	0x00000000	0.0
70	0x00000000	0.0
71	0x00000000	0.0
72	0x00000000	0.0
73	0x00000000	0.0
74	0x00000000	0.0
75	0x00000000	0.0
76	0x00000000	0.0
77	0x00000000	0.0
78	0x00000000	0.0
79	0x00000000	0.0
80	0x00000000	0.0
81	0x00000000	0.0
82	0x00000000	0.0
83	0x00000000	0.0
84	0x00000000	0.0
85	0x00000000	0.0
86	0x00000000	0.0
87	0x00000000	0.0
88	0x00000000	0.0
89	0x00000000	0.0
90	0x00000000	0.0
91	0x00000000	0.0
92	0x00000000	0.0
93	0x00000000	0.0
94	0x00000000	0.0
95	0x00000000	0.0
96	0x00000000	0.0
97	0x00000000	0.0
98	0x00000000	0.0
99	0x00000000	0.0
100	0x00000000	0.0
101	0x00000000	0.0
102	0x00000000	0.0
103	0x00000000	0.0
104	0x00000000	0.0
105	0x00000000	0.0
106	0x00000000	0.0
107	0x00000000	0.0
108	0x00000000	0.0
109	0x00000000	0.0
110	0x00000000	0.0
111	0x00000000	0.0
112	0x00000000	0.0
113	0x00000000	0.0
114	0x00000000	0.0
115	0x00000000	0.0
116	0x00000000	0.0
117	0x00000000	0.0
118	0x00000000	0.0
119	0x00000000	0.0
120	0x00000000	0.0
121	0x00000000	0.0
122	0x00000000	0.0
123	0x00000000	0.0
124	0x00000000	0.0
125	0x00000000	0.0
126	0x00000000	0.0
127	0x00000000	0.0

network_body._body_endoder.seq_layers.2.weight f4 [128, 128]
0	0xbc01d36a	-0.00792394
1	0xbdba2d47	-0.09090667
2	0x3e044063	0.12915187
3	0xbb4d73a0	-0.0031349435
4	0x3e08a4db	0.13344137
5	0x3d7988be	0.060921423
6	0x3d4c357b	0.04985569
7	0xbdc15be5	-0.094413556
8	0xbd9361c7	-0.07196384
9	0xbdc9b05b	-0.0984809
10	0xbd9e3557	-0.077250175
11	0x3d0f6aca	0.03501395
12	0xbd2b4c70	-0.041820943
13	0x3e491434	0.19636613
14	0xbd6d75c8	-0.057973653
15	0xbde1a497	-0.11017721
16	0xbded3fc1	-0.11584426
17	0x3d4a072d	0.04932325
18	0xbde57014	-0.11203018
19	0x3d8b7cc6	0.06810908
20	0x3dcf5561	0.101237066
21	0xbdab4474	-0.08362666
22	0xbcc9f325	-0.024652073
23	0xbd76f4e3	-0.060292136
24	0x3df0f790	0.11765969
25	0xbd178de6	-0.03700056
26	0x3d3ae5b6	0.045629226
27	0xbd97ef15	-0.07418648
28	0x3e112eb3	0.1417797
29	0x3d8799b0	0.066211104
30	0xbdb25c97	-0.08709066
31	0x3c36ae02	0.011149885
32	0xbd546269	-0.051851664
33	0x3d93ca44	0.072163135
34	0x3cb8eb68	0.022573188
35	0x3e04f2ac	0.12983197
36	0x3e30162a	0.17195955
37	0x3c9e3246	0.019311082
38	0x3e0e111a	0.13873711
39	0xbd434f88	-0.04768327
40	0xbd2ece2a	-0.042677082
41	0xbc8560af	-0.016281454
42	0xbdf22d8c	-0.118250936
43	0x3df393fa	0.11893459
44	0x3d85da87	0.065358214
45	0xbdc8b549	-0.098002024
46	0x3c881b56	0.016614597
47	0xbb653dcd	-0.0034979463
48	0xbd595f31	-0.053069297
49	0x3cf70bcd	0.030156994
50	0xbdeda570	-0.1160382
51	0x3d9e9604	0.07743457
52	0xbc8e80b6	-0.017395359
53	0x3c25e9c7	0.010126538
54	0xbe6d148e	-0.23152372
55	0x3d31039c	0.043216333
56	0x3d75d147	0.060014036
57	0x3cc95069	0.024574475
58	0x3e4c2c39	0.19938745
59	0xbe0ef3e4	-0.13960224
60	0x3e1dec15	0.1542209
61	0xbcaeb11a	-0.021324683
62	0x3b3506b9	0.0027622415
63	0x3e15bd46	0.14622983
64	0x3e1a5286	0.15070543
65	0xbc993a8d	-0.018704677
66	0xbdd4796c	-0.10374722
67	0xbd743342	-0.059619196
68	0x3df538c0	0.11973715
69	0x3cda7b14	0.026670016
70	0x3d2a92a3	0.04164375
71	0xbba58218	-0.005050909
72	0x3d4a8f55	0.0494531
73	0xbd6c2868	-0.057655722
74	0xbcb2683b	-0.021778217
75	0xbc9d2be9	-0.019185977
76	0xbc8b4198	-0.016999051
77	0xbe15b461	-0.1461959
78	0x3e06fd1a	0.13182488
79	0x3bdd9bb5	0.0067629465
80	0xbd5753fc	-0.052570328
81	0xbd975905	-0.07390026
82	0x3c9147b8	0.017734393
83	0x3c918633	0.017764186
84	0xbdd6124b	-0.10452708
85	0xbdd580ef	-0.10424983
86	0x3d8fbdc0	0.07018614
87	0xbcf195b5	-0.029490331
88	0x3cc2ab36	0.02376328
89	0xbd0ad3b2	-0.033893295
90	0x3dbcd7a1	0.092208154
91	0xbdd6203b	-0.10455366
92	0xbe28e646	-0.16494092
93	0xbdfc9a27	-0.1233409
94	0x3e771578	0.24129283
95	0x3c48d2e5	0.012257312
96	0x3d5a6c38	0.05332586
97	0xbdb9947b	-0.090615235
98	0xbcf84f3c	-0.03031122
99	0xbdc2e581	-0.09516431
100	0x3e086278	0.13318813
101	0xbd7c5225	-0.061601777
102	0xbb76b778	-0.0037645977
103	0xbe16d06d	-0.14727946
104	0x3c84b2e3	0.016198581
105	0xbc393970	-0.011305198
106	0x3e24405e	0.16040179
107	0xbc039f01	-0.008033515
108	0x3cf07be9	0.02935596
109	0xbdd4c84a	-0.103897646
110	0x3d0a3204	0.033739105
111	0x3da53f86	0.08068757
112	0x3c7ec391	0.015549556
113	0x3db7a1aa	0.08966382
114	0x3da21762	0.07914616
115	0xbccb7a9c	-0.024838738
116	0xbde80afb	-0.11330219
117	0x3cdfb3fa	0.0273075
118	0xbdeb8851	-0.1150061
119	0x3c2bc12e	0.010483069
120	0xbb2443ac	-0.002506475
121	0xbde19168	-0.11014062
122	0xbd0d5320	-0.034503102
123	0x3d8318bd	0.06401203
124	0x3dae78da	0.08519144
125	0xbc399d4a	-0.011329005
126	0xbe56cb1f	-0.20975922
127	0xbc1b041f	-0.009461432
128	0x3dee791e	0.11644195
129	0x3d9be7e2	0.076125875
130	0x3cb174e7	0.021662189
131	0x3dd677a0	0.104720354
132	0x3d1188e2	0.035530932
133	0x3dc20305	0.09473232
134	0x3cffffdf	0.031249939
135	0x3dac96a3	0.08427169
136	0xbe185072	-0.14874437
137	0x3d6aa1be	0.057283156
138	0xbc8f8153	-0.017517721
139	0xbd940178	-0.07226843
140	0x3d8d6c07	0.0690537
141	0xbdc23093	-0.09481921
142	0xbd5c32e5	-0.053759474
143	0xbd2b5e8a	-0.041838206
144	0xbe079112	-0.13238934
145	0x3d06ec2b	0.03294007
146	0xbc5af4e5	-0.0133640515
147	0xbc9e8af5	-0.01935337
148	0x3cee6fca	0.02910604
149	0xbd747926	-0.05968585
150	0xbdd44fed	-0.10366807
151	0xbe11f8a3	-0.14255004
152	0x3d89a24b	0.06720408
153	0x3dd40c78	0.10353941
154	0x3d2f66da	0.042822696
155	0x3ddd9bf6	0.10820763
156	0x3e1447a3	0.14480452
157	0xbd448337	-0.0479767
158	0xbc4403ee	-0.011963828
159	0xbd43c486	-0.04779484
160	0x3d3238ed	0.04351132
161	0x3d159738	0.036521167
162	0xbe00297c	-0.12515825
163	0xbd69e9ce	-0.05710774
164	0xbe20642e	-0.15663216
165	0x3bf662da	0.0075191082
166	0x3d42ae7d	0.047529686
167	0x3e15364d	0.14571495
168	0x3e312089	0.17297567
169	0x3d01c9ea	0.0316867
170	0x3d4c80e0	0.049927592
171	0xbbbff098	-0.0058575384
172	0x3d496c7e	0.04917573
173	0xbe6fa394	-0.23402244
174	0xba84b5c1	-0.0010124968
175	0x3e253a77	0.16135584
176	0xbd1559ab	-0.036462467
177	0xbd38007b	-0.044922333
178	0xbd45b974	-0.048272565
179	0x3d832c59	0.06404943
180	0x3db19561	0.0867107
181	0x3c096d1f	0.008387833
182	0xbde1bb99	-0.110221095
183	0x3b75eae0	0.003752403
184	0xbc3d2515	-0.011544486
185	0xbcce9aaa	-0.025220234
186	0x3d501491	0.050800864
187	0x3d3c2b72	0.04593987
188	0xbda74d81	-0.081690796
189	0xbd5f2458	-0.05447802
190	0x3cd5a1fe	0.02607822
191	0x3d1754e9	0.03694621
192	0xbdc34e69	-0.0953644
193	0xbd8bc70f	-0.06825077
194	0xbe00dde7	-0.12584649
195	0x3dbf8dec	0.09353241
196	0xbdb6f4d3	-0.08933415
197	0xbdd41689	-0.10355861
198	0xbae1cdeb	-0.0017227506
199	0x3d5bec3c	0.053692088
200	0x3d191b58	0.037379593
201	0x3d952fed	0.07284532
202	0xbb3d5cb6	-0.0028894371
203	0xbcb41b2d	-0.021985615
204	0x3e25946d	0.16169901
205	0x3ce3a47b	0.027788391
206	0xbd4ae575	-0.049535234
207	0xbe14643c	-0.14491361
208	0x3b7e75b7	0.0038827488
209	0xbe2b9648	-0.16756546
210	0x3c3e01ac	0.011597078
211	0xbdf5e08e	-0.12005721
212	0x3c9d5403	0.019205099
213	0xbbd06ea7	-0.006360847
214	0xbd1b46bf	-0.037909266
215	0x3d24723b	0.040148
216	0x3dbe40a6	0.092896745
217	0xbcc1daa9	-0.023663836
218	0x3e1425ef	0.14467596
219	0xbd12a429	-0.035801087
220	0xbd349205	-0.044084568
221	0xbca50aff	-0.020146845
222	0x3d94f4f6	0.07273285
223	0xbc265886	-0.010152942
224	0xbd64d0f2	-0.05586333
225	0x3d9414cf	0.072305314
226	0x3e0ae6b7	0.13564573
227	0x3e1182fa	0.1421012
228	0x3d0e1a83	0.034693252
229	0xbce0ca76	-0.02744029
230	0xbc8a2f75	-0.016868332
231	0xbd33105b	-0.04371677
232	0x3d50165e	0.05080258
233	0x3e6e0867	0.23245393
234	0xbe38d3e2	-0.18049577
235	0x3d5490bc	0.051895842
236	0x3c538b18	0.0129115805
237	0x3c64e483	0.013970497
238	0x3dd60c5a	0.104515746
239	0xbc59270b	-0.0132539375
240	0xbe159fd2	-0.14611748
241	0x3dbce78d	0.09223852
242	0xbe0a5dc5	-0.13512333
243	0xbd6845a8	-0.056707054
244	0x3d4f9057	0.050674763
245	0xbc718a8c	-0.014742505
246	0x3d81be60	0.06335139
247	0xbb89f414	-0.0042100046
248	0xbd3fb29b	-0.04680119
249	0xbc2edaf5	-0.010672321
250	0xbde38a99	-0.1111042
251	0x3cf9e6cb	0.030505558
252	0x3d0e5b37	0.034754958
253	0x3db4d7ef	0.088302486
254	0x3d8de9d4	0.06929365
255	0xbdf35cc2	-0.118829265

action_model._continuous_distribution.mu.weight f4 [1, 128]
0	0x3cda612a	0.02665766
1	0x3b067dd3	0.0020521774
2	0xbd20aadf	-0.039225455
3	0x3d0f72ce	0.035021596
4	0x3b2bc6ce	0.0026211026
5	0x3c01045f	0.007874577
6	0x3bd52f78	0.006505903
7	0xbc2f4e40	-0.010699809
8	0x3cabc966	0.020970058
9	0x3ca8440f	0.020540265
10	0xbc581660	-0.013188928
11	0xbce6e86a	-0.028186996
12	0xbba855d7	-0.005137186
13	0x39445c3f	0.00018726381
14	0xbc739fdf	-0.014869659
15	0xb78a1985	-1.6462765e-05
16	0x3ac94acb	0.0015357373
17	0xbc0f5e5b	-0.008750523
18	0x3c4e1cb8	0.012580089
19	0xbbd8ec47	-0.0066199633
20	0xbcb0b207	-0.021569265
21	0xbbd04ca2	-0.0063567916
22	0x3d2f7d35	0.042844016
23	0xbc88ecc7	-0.016714467
24	0x3cdad7f2	0.026714299
25	0x3b16aa78	0.002298979
26	0xbafda625	-0.0019351883
27	0xbca398da	-0.019970346
28	0x3c5e91e0	0.013584584
29	0xbc69b540	-0.014264405
30	0x3ce4aa88	0.027913347
31	0xbbbc9ae8	-0.005755771
32	0xbbbcb627	-0.005759019
33	0x3c8d09a5	0.017216513
34	0xbc2cc233	-0.010544348
35	0xbcc0171c	-0.02344852
36	0x3b99ed65	0.004697489
37	0x3a82fa2f	0.0009992773
38	0xbbbacf32	-0.005700969
39	0xbbc8dbf9	-0.0061297384
40	0x3c98253e	0.018572446
41	0xbd0a47ec	-0.033759996
42	0xbbcf9f3d	-0.0063361214
43	0x3c7f0380	0.015564799
44	0x3cc5a3a1	0.024125876
45	0xbcb65c4c	-0.022260807
46	0xbc622e4b	-0.013804982
47	0xbc8a1ead	-0.01686033
48	0xbc6acc75	-0.014330973
49	0x3bd41c87	0.0064731273
50	0xbc497790	-0.012296572
51	0x3ba9aac9	0.00517783
52	0x3c5f66e2	0.013635369
53	0x3d1574ed	0.036488462
54	0x3c62e9b7	0.013849667
55	0x3c9464b3	0.018114423
56	0xbb856438	-0.004070785
57	0x3cbc2d4a	0.022970814
58	0x3bd751b8	0.006571021
59	0xbc68c202	-0.014206411
60	0x39e9a273	0.00044562257
61	0x3a38c7e9	0.0007048832
62	0xbc803662	-0.015650932
63	0xbca903c3	-0.020631677
64	0x3b88c7b8	0.004174199
65	0x392d76b7	0.0001654279
66	0xbbecd9af	-0.0072280983
67	0x398abccb	0.00026462073
68	0x3b945d6f	0.0045277397
69	0x3cbd63c9	0.02311887
70	0x3beb8353	0.007187286
71	0x3c7676f8	0.015043013
72	0xbc685af7	-0.014181844
73	0xbccea505	-0.025225172
74	0xbccd44c2	-0.0250572
75	0xbba2771e	-0.0049580475
76	0xbc1d1c55	-0.009589274
77	0xbb2fcca7	-0.0026824863
78	0x3c0d5c77	0.008628002
79	0xbbb288bd	-0.0054484294
80	0xbc5febeb	-0.013667087
81	0x3cd78b02	0.026311401
82	0x3cfc33e0	0.030786455
83	0x3bbf5a23	0.0058396026
84	0x3ca4e07e	0.020126577
85	0x3d1c0188	0.038087398
86	0x3b5a0beb	0.0033271264
87	0xbc3855c5	-0.011250918
88	0x3cb965e5	0.022631595
89	0xbca0aa7f	-0.019612549
90	0xbcdd1a4d	-0.02699008
91	0x3b24ff17	0.002517646
92	0xbc0ba6d0	-0.008523658
93	0x3c5febf8	0.013667099
94	0x3c013bb3	0.007887769
95	0x3d306f71	0.04307503
96	0xbc90c854	-0.017673649
97	0x3c46cf24	0.012134347
98	0xbd16dbaf	-0.0368306
99	0x3a2bf0bd	0.0006559005
100	0x3cbca58e	0.023028161
101	0xba568b02	-0.0008184166
102	0xbbbc733c	-0.0057510417
103	0x3c229fe3	0.009925815
104	0x3c9b51d4	0.018959917
105	0xbad7071b	-0.0016405316
106	0xbb3a0ca6	-0.0028388887
107	0xbca5b5e2	-0.02022833
108	0xbc8e9168	-0.01740332
109	0x3b560728	0.0032658074
110	0xbc75a4b3	-0.014992881
111	0x3d13410f	0.035950717
112	0xb96c1c88	-0.00022517343
113	0x3c98433c	0.018586747
114	0xbd8b0d9f	-0.067897074
115	0xbc658b57	-0.014010272
116	0xbcf13532	-0.02944431
117	0x3c04240b	0.008065234
118	0xbd1f4b7b	-0.038890343
119	0xbcc5490b	-0.024082681
120	0x3c86f9bd	0.016476506
121	0xbb3b36c4	-0.0028566578
122	0xbc57cd2d	-0.013171476
123	0x3c4ace48	0.012378283
124	0x3b564273	0.0032693415
125	0x3cb9182c	0.022594534
126	0x3b8a2245	0.004215511
127	0x3c99fd1f	0.018797455
