results/Run4/PlayerRL/PlayerRL-127049.pt (torch, 427869 bytes, 30 tensors)

network_body._body_endoder.seq_layers.0.weight f4 [128, 2]
00000000: 95d5 a6be a8ea 3dbe 7d46 cebe e19c 643f
00000010: 9b51 5dbe a4e1 083f 64cd 6b3f 41f2 a8be
00000020: 1893 f53e 84d8 b13e 6dcc 4f3f 675f 57bf
00000030: 9be5 c03d 5519 443f 728c 363f a75b 2d3e
00000040: e537 abbd 907e f43e c4a1 39bf 51cd 42bf
00000050: 1719 f63e ebc2 b7bf af15 87be 7c57 823d
00000060: 231b 9dbe 02d7 b33e d178 cd3e 0dcb a9bd
00000070: 7bc8 b8bf 8f07 003e acc7 713f a11b 1e3f
00000080: 5131 d83e 2194 803f 348c c8be 4b2e dbbe
00000090: 88a4 22bf e6cb 9bbe 8ed9 8cbe 9b6e 9cbf
000000a0: d375 453f 354e b23e ae6b 87bd 1fee d13e
000000b0: fc4c 35bf 5d58 303f 1995 ea3e 272a f03f
000000c0: fbe9 3abf d71f 2b3e 8177 3dbc f1b3 3a3f
000000d0: e42a 913d 6270 003f 427c 9c3e 1051 05be
000000e0: 9875 8a3e 3594 e83e 8a43 6fbf b502 1ebf
000000f0: 3ff1 84be db63 a3bf a425 e13e c0da 0b3f
00000100: 6155 d0bf 1069 76bf 6e35 373f 32c8 0dbe
00000110: 2b1a 15bd 1b3a 4f3e 8c17 303f d7ed 4e3f
00000120: ecec d9be 8316 5c3f f5a4 b2bd 9df5 c23e
00000130: 01fd 06bf 8d88 8e3e 9307 093e bc88 a63c
00000140: a397 ee3e a9d7 62bf fc8d fb3e ad5f 203e
00000150: ed3b c5be 8ca2 823e da7f ce3e cac6 19bf
00000160: 7929 7b3e 52c2 613e bb87 6b3f 8474 09bf
00000170: 80c4 04bf 827d 643e 47a4 323f 0252 1dbf
00000180: 8db5 b3bf 6630 5ebf b141 31be f169 d0be
00000190: d609 ea3e 4861 f1be 0d6a efbe f984 a2bf
000001a0: 8714 76bf d83d eb3e d71c 00bf 5439 933c
000001b0: 21de 543f 65ac fc3e de45 8bbf 4c63 e4bf
000001c0: a538 a73e bf3e d63e 7a1c f93e 2e3e ec3f
000001d0: 1089 253f a84b 91be f152 083f 9a67 90be
000001e0: a32d a5be aba4 a8be 8ae0 74bf 2f2a 84be
000001f0: c133 9f3e 88e9 803f cf3c 2c3f 39d9 953e
00000200: 4b7a 45be c6a6 b9be e4cd 22be 2e56 27bf
00000210: 6f59 bb3f 83a0 2c3f ab2e 8fbe 6a5e 013f
00000220: 4d32 94bd 510d ccbe 82bd ae3d 5741 00bf
00000230: eaaf 06bf 2cdd 9b3e 51f2 92bf 7c67 afbe
00000240: d271 b4be c82a 47be cb81 633e dbeb c13e
00000250: 941f e5be c2ef 92bd 80bf 21bf 5e09 2c3d
00000260: b5a3 9dbf 017e f23d a6c0 3ebf 5b12 a53e
00000270: d7d9 9c3e b839 7c3e 8aa9 143e 5f2e 09bf
00000280: 60e8 4f3f cc9e e43f 785a 103e a736 1ebf
00000290: 1d14 7bbf 4203 c6be bf18 01bd 5161 f8be
000002a0: 31bd edbe bb96 f93c 730e 03be 52e9 28bd
000002b0: 5376 eb3d b923 503e 91e3 373f 3aa4 babf
000002c0: 176e d33f 744e b33f b781 30bd 25a2 d73f
000002d0: 3187 dcbe 3470 823e 8f33 bd3e b675 c1bd
000002e0: 5ddc 273f a3c1 913e b4b4 1e3f 7d70 923f
000002f0: da08 1dbf e4a8 0f3e 2843 d03d 31da 67bf
00000300: 6fd7 0a3e d171 d93e db23 99be f3b4 b0bd
00000310: b4e4 5ebf e8ba 843f e734 693f eee1 d3bf
00000320: c7fb 96be e8c8 23bf 6bd0 86bd d874 bb3e
00000330: 3038 c13d f574 84bd 6bac 91bf 85a4 7fbe
00000340: 1ae2 93be 52c3 643e 66cc 04bd 1840 2f3f
00000350: 26ec 893f 8fe1 073f 09a6 993f d7b3 edbe
00000360: 3e07 04bd f232 fcbe c22e 823d b361 81bf
00000370: 79d1 003f 9f52 543f 71dc c3be e44a 0cbb
00000380: eebf a33d ae01 493f 56f3 acbe 5a23 18bf
00000390: 5ec2 4fbf 7272 40bf 6b4d e8bd 0ba7 bd3e
000003a0: f457 e1bf 3999 ae3f 777c d83d 6bee bc3c
000003b0: d624 9d3c 052d 653f 9396 073f 6fa0 ec3e
000003c0: d35f a83f 80d7 5dbd 6578 173d a70d 373e
000003d0: 98f4 873f 8997 79bf 6dbc a5bf 0550 34be
000003e0: 4f4b 803f ad03 373e 74b7 b8bf 8939 913e
000003f0: 6278 82be 1758 ea3e e53b a9bd 5e8c cc3c
-0.32584825 -0.18546546 -0.40288153 0.8930188 -0.21613161 0.534693 0.92110276 -0.32997325
0.47963786 0.347355 0.81171304 -0.8412995 0.09418794 0.76601154 0.7130805 0.16929494
-0.083602704 0.4775281 -0.7251246 -0.7609454 0.48066017 -1.4356359 -0.2638373 0.063643426
-0.30684766 0.35124975 0.40131238 -0.08290682 -1.4436182 0.12502883 0.944453 0.6176091
0.42225125 1.0045205 -0.39169466 -0.42808756 -0.63532305 -0.30429 -0.2750973 -1.2221254
0.7713291 0.34825292 -0.06612335 0.41001984 -0.70820594 0.6888483 0.45816877 1.8762864
-0.73013276 0.16711365 -0.0115641365 0.7293082 0.07088259 0.5017148 0.3056355 -0.13019204
0.27042842 0.45425573 -0.9346243 -0.6172288 -0.25965306 -1.2764848 0.4397403 0.5463066
-1.6276056 -0.9625406 0.715659 -0.138459 -0.03640191 0.20237009 0.6878593 0.80831665
-0.4256357 0.8597185 -0.08722869 0.38078013 -0.52729803 0.27838555 0.13381796 0.020328872
0.46600065 -0.8861032 0.49131763 0.15661497 -0.38522282 0.25514638 0.40331918 -0.60068953
0.2452754 0.22046784 0.92003983 -0.53693414 -0.51862335 0.22313502 0.6978192 -0.6145326
-1.403978 -0.867926 -0.17310216 -0.40705827 0.4571063 -0.47144532 -0.46760598 -1.269683
-0.9612507 0.4594562 -0.50044006 0.017971672 0.8315144 0.49350277 -1.0880697 -1.7842803
0.32660404 0.41844746 0.48654538 1.8456476 0.64662266 -0.28378034 0.5325156 -0.28204042
-0.3226138 -0.32938132 -0.9565512 -0.25813434 0.31094173 1.0071268 0.67280287 0.2926729
-0.19284932 -0.3626005 -0.15898854 -0.65365875 1.4636668 0.6743242 -0.27965292 0.5053469
-0.072361566 -0.3985391 0.085322395 -0.500997 -0.52612174 0.30442178 -1.1480199 -0.3425864
-0.35243088 -0.19449914 0.22217481 0.37875256 -0.44750655 -0.071746364 -0.6318283 0.04200112
-1.2315584 0.118404396 -0.7451271 0.32240567 0.3063495 0.24631393 0.14517799 -0.5358638
0.8121395 1.7860961 0.14097011 -0.6180214 -0.98077565 -0.3867436 -0.03151774 -0.48511747
-0.46433404 0.030467382 -0.1279848 -0.041238137 0.11497178 0.20326127 0.71831614 -1.4581368
1.6517972 1.4008317 -0.043092456 1.6846358 -0.43071893 0.2547623 0.369534 -0.0944628
0.6557062 0.28468046 0.6199448 1.1440579 -0.6134163 0.1402927 0.10169059 -0.9056731
0.13558744 0.42469648 -0.29910168 -0.08628263 -0.87067723 1.0369539 0.9109635 -1.6553323
-0.29488966 -0.63978434 -0.06582721 0.36612582 0.09434545 -0.0646762 -1.1380743 -0.24965103
-0.2888344 0.22340134 -0.032421492 0.68457174 1.0775192 0.5307855 1.2003795 -0.4642627
-0.03223347 -0.49257618 0.063565746 -1.010794 0.5031963 0.8293857 -0.3825412 -0.0021406943
0.07995592 0.7851819 -0.337794 -0.5942894 -0.81155956 -0.7517463 -0.11342891 0.37041506
-1.7604966 1.364051 0.10570615 0.023062905 0.019182604 0.8952182 0.52964133 0.4621615
1.3154243 -0.054160595 0.03698005 0.17876302 1.0621519 -0.9749685 -1.2948128 -0.1760865
1.0022982 0.17872496 -1.4430985 0.28364208 -0.2548247 0.45770332 -0.08263377 0.024969276

network_body._body_endoder.seq_layers.0.bias f4 [128]
00000000: 785c 99bd 006c 643d 4267 4a3d 5c77 aebc
00000010: da8a 33bd 97ff 4bbd 17e9 1a3d b21c e9bc
00000020: 8b0b 15bb 4b14 333c 45a0 743c eba4 853c
00000030: be4d 9ebc 0376 26bd dfd0 643c 5490 5dbc
00000040: 16f8 25bd 46d4 e7bb 3cbe 4abd e3a8 1fbd
00000050: 5649 45bd dc3b d3bc 5071 763b 0eb0 1a3d
00000060: 3b66 adbd 1ae4 d4bc 4c86 0b3d 529e 94bc
00000070: c8a0 34bd 1289 de3c 8bce ea3c 4445 0bbd
00000080: c339 3c3c b3f3 1fbd 602f 77bc c884 2b3d
00000090: 694b 863d 37be ea3b 7dd4 d0bc 98fb 7dbd
000000a0: 4dc0 4cbd f35c 67bd 1ffd 453d 0113 83bd
000000b0: 1d64 b8bc 516c 88bd 514f 31bd 294f c6bc
000000c0: a75e 063b 23f6 10bd 9ca7 5d3c c011 f3bb
000000d0: 6fe3 833c 590c ee3b 0d9f 1d3b 94ee 963c
000000e0: b989 a0bd 47dc 063d 9c63 a9bc 3f6f 81bd
000000f0: dcc6 603c 142c 8ebd e749 f2bb 3a9e df3b
00000100: 460d 37bd e0d2 be3a 7f32 5cbd c858 1c3d
00000110: 04f9 72bd aaed 863b e19f b83c d69c cc3b
00000120: 4478 65bd 3c30 2cbd f6aa a8bc 6801 6abd
00000130: 4782 69bd 5ec6 b03c b358 14bc 9e8f 5b3b
00000140: 46c4 1abd eb47 75bd 9d92 6dbd 2b22 97bd
00000150: f9f9 9cbc 583e d3bc 26e0 a63c c1c5 53bd
00000160: c60e da3a df64 e23c 5f00 4dbd 8256 0fbc
00000170: b231 d9bc 65d0 72bd 3201 f03c c73d 123d
00000180: 7bbe f839 47b4 cfbb 7ce2 583c e84e e93c
00000190: 480b fabc 6522 fbbc 1c2b 12bd 0521 7fbd
000001a0: ef82 09bb ce6a 43bd 6c5d 52bd fb4a bebc
000001b0: 748e 88bc c04a b4bc 303c 183d 7379 b9bd
000001c0: e577 a43b f9c0 ba3c ec84 d43c 5b3d 063c
000001d0: 14a1 5f3d 73be 4dbc 3c7f 483d c430 f73c
000001e0: c971 2cbd cf8e 5dbd bab2 b1bb ec75 8fbd
000001f0: 78ca 2fbd 24ca 7f3d e6c2 2dbd 55de 3e3d
-0.0748834 0.05576706 0.04941488 -0.02129715 -0.04383359 -0.049804296 0.037819948 -0.028456066
-0.0022742476 0.010930131 0.014930789 0.01631399 -0.01932418 -0.04063989 0.013965814 -0.01352318
-0.040519796 -0.0070748655 -0.049497828 -0.038979422 -0.04816564 -0.02578538 0.003760416 0.037765555
-0.084667645 -0.025987674 0.034063622 -0.0181419 -0.044098645 0.02716497 0.02866294 -0.034001604
0.011488381 -0.03905077 -0.015086979 0.041874677 0.06557352 0.0071637887 -0.025491947 -0.062007517
-0.04998808 -0.056485128 0.0483371 -0.06400109 -0.022508675 -0.06661285 -0.043288533 -0.024207668
0.0020503195 -0.035390984 0.013528731 -0.0074178874 0.01609966 0.0072646555 0.00240511 0.01842431
-0.078387685 0.032924917 -0.02067738 -0.06320047 0.013719287 -0.06942001 -0.0073940638 0.006824282
-0.044690393 0.0014558695 -0.053759094 0.038170606 -0.05931951 0.004117687 0.022537174 0.0062442822
-0.056022897 -0.042038187 -0.020589333 -0.057130247 -0.057009008 0.021578964 -0.009054351 0.003350235
-0.037784837 -0.05988304 -0.05800115 -0.07379564 -0.019162165 -0.025786564 0.020370554 -0.051702265
0.0016636483 0.02763599 -0.050049182 -0.008748652 -0.026512954 -0.05928077 0.029297445 0.035703447
0.00047444165 -0.0063386294 0.013237592 0.028480008 -0.030522957 -0.030656049 -0.035685644 -0.06228735
-0.0020982584 -0.04770928 -0.051358625 -0.023229113 -0.01666949 -0.0220083 0.037166774 -0.09056368
0.0050191754 0.022797095 0.025942288 0.008193339 0.054596975 -0.012557614 0.048949465 0.03017462
-0.0421007 -0.05409127 -0.005422917 -0.07004914 -0.0429177 0.062448636 -0.042422198 0.04659875

network_body._body_endoder.seq_layers.2.weight f4 [128, 128]
00000000: b3e1 f3bc 30b1 80bd 049e c73d 2320 13be
00000010: 4682 01bd 0a18 75bd 23eb b5bb 2587 28be
00000020: 07fe 33bd b6e3 14be 09f3 233c 9262 31bb
00000030: 97a0 eb3d 0ffe 15bd 1660 093e 3380 453e
00000040: f1c1 edbb 3d09 733d 6cb4 02be 70a7 243d
00000050: 48fa 123d 814c a1bd a54e 51bd b5b8 6dbd
00000060: daea 433d 63e7 3d3e bd73 05bc c275 ba3c
00000070: 1881 7f3b e35c d43d 5a20 bd3d 7c12 3c3d
00000080: 6d66 8ebd 55a0 073e 45a1 1a3e 40b7 80bc
00000090: f6c0 2cbd 6d84 2a3d 6e72 113e 8615 063e
000000a0: 6e2f bbbd 57a7 85bd 5505 cbbd 1518 aa3d
000000b0: f51f 463d ce61 84bd 6ae7 c03d 9a3f b6bc
000000c0: 114e 26bd a087 57be 2eb6 a2bd 5a69 aa3c
000000d0: 2761 7c3d 1f98 403d 01ca 383d 7382 6abd
000000e0: edde 233d 7dd8 7ebb 7bf1 5dbc 720a e13d
000000f0: f3e3 8c3d d425 eabb c412 0bbe 1ac6 b83c
00000100: b188 22bc 4b77 9cbd dfb3 2f3c f014 b9bc
00000110: 0dde 51be 81b4 85bc e11c 24bd cda4 8a3c
00000120: 1109 b63c 0744 d1bb 5e0f b53d ae92 26be
00000130: cc53 a3bd ed6a 953d 7f5d c93d 73e7 4c3d
00000140: 166e a2bd a54c 563d 88fc f8bc 0660 363d
00000150: 4d11 223d 0311 e8bd 1c49 a7bd f758 023e
00000160: 80e1 2d3e c61c bf3d 5537 62bc c8ff aebd
00000170: 262f 3e3e b07a 5c3d 95b3 b43c 657a 30bd
00000180: c215 1dbe 657a 0a3e 4a2c fabd f414 353d
00000190: f8ec 593d c290 56bc f662 003c eaeb eb3b
000001a0: 4028 7dbd 42a6 98bb 39f2 05be d8fa 5ebe
000001b0: 9047 b0bb add1 ed3d a9d6 dcbd 916b 95bd
000001c0: fb36 0b3d 1773 14bd d245 8d3d fde7 1bbd
000001d0: 0e7d a4bd 06d8 69bd a10d b1bd a4a3 b03d
000001e0: 5720 e7bd 6f59 c6bd 0657 f33d 9ed2 233d
000001f0: 6d72 34bd 096d 09bd ffb2 b0ba 1e95 223e
00000200: dc9a e5bd 22f4 363e bba9 4a3b 3942 093d
00000210: c2e3 1b3d 5103 0dbc bc51 f33d bb8e 38bd
00000220: bf99 afbd 8ac7 d5bc 83bc 18be 9cb8 ea3d
00000230: 0419 df3d 35a8 36be d864 87bd 16cb 92bc
00000240: c63b b83d 7c54 7abe 7e92 c8bd 1591 f3bd
00000250: 451f 1e3d 6e5e 75be 51ab 103b e3c4 023e
00000260: 739d a8bd 0f1a fcbd b55f 013d 809f d73b
00000270: a7dc 893d 6050 dbbc bd41 703e ee68 743d
00000280: e70a 583b 9a80 22be 11a5 19bd 2ca2 073b
00000290: f762 a73d db3b 053e ab35 56bd 7d32 6ebd
000002a0: 8dea 03bd 4f8f e73d 5f0a 27be b92f 0d3e
000002b0: 3542 2cbe 22a9 063e b51f d1bd 3cad 8a3d
000002c0: e243 64bd a2f3 dbbd c82a 9cbd 4be3 0cbd
000002d0: 8a27 e1bb 608a 0c3c eaa6 0b3d 244a c9bd
000002e0: d613 303c c512 643d 0e04 28be f04d 25bd
000002f0: 0b4b e3bd 78d2 15be 4716 da3d e0fa c8bc
00000300: fcfc 80bd 470f 1dbe a714 d1bd 6266 d3bc
00000310: ab51 45bd f46d 18bc 5132 653d ac41 1dbd
00000320: ca71 3fbe 302a 0a3d 8b73 98bd 26f1 07bd
00000330: aef2 4bbd 46fd a53c 0cd8 1dbd f9de 99bd
00000340: 6fd1 6fbd a086 cf3d 627b 97bd aa5e b0bd
00000350: df4a dcbd 9e95 38bb 8924 bc3c cf37 79bc
00000360: 8fd1 6c3c e917 83bd 8af6 b63d 98bb 2d3d
00000370: 3605 2c3d 001c 003e aeef febd 9d93 8fbe
00000380: ce96 083d 7112 d0bc a71f d43d 0519 24be
00000390: e7a6 39be 0806 ac3c d602 913c 5306 e7bd
000003a0: b9c1 843d 3ec4 afbd 9050 07be 75ee 5d3d
000003b0: 1a6b fe3c 37de 6a3d f2ba 97bb 7d14 b1bd
000003c0: b83b 90bb 4a06 20be 167d f0bd b532 b33d
000003d0: 1d07 6a3a 68ef 663c 9066 6c3c 591d 843c
000003e0: 4442 5bbe a416 dfbd 84bd 9c3d 3901 52be
000003f0: e1bb aa3d 544e bfbd 47f4 01be 68f5 723d
-0.029770708 -0.06283796 0.09746936 -0.14367728 -0.03161838 -0.05983738 -0.005551712 -0.16457804
-0.04394343 -0.1453999 0.010006675 -0.002706681 0.115052395 -0.036619242 0.1341556 0.19287185
-0.0072557856 0.059334982 -0.12764138 0.040198743 0.035883218 -0.0787592 -0.051100392 -0.05803748
0.047831394 0.18545298 -0.00814527 0.02276123 0.0038986858 0.10369279 0.09234686 0.045916066
-0.0695313 0.13244756 0.15100582 -0.01571238 -0.04217621 0.041630197 0.14203808 0.13094148
-0.09139906 -0.06526058 -0.099131264 0.083053745 0.04837032 -0.06463967 0.09419139 -0.022247124
-0.040601794 -0.2104783 -0.07944904 0.020802189 0.06161609 0.047020074 0.04511452 -0.057253312
0.04000752 -0.0038886361 -0.013546343 0.109883204 0.06879415 -0.0071456227 -0.13581377 0.0225554
-0.009920285 -0.07639941 0.010724037 -0.022592992 -0.20494862 -0.016321423 -0.040066604 0.016924286
0.02222112 -0.0063862833 0.08840822 -0.16266891 -0.07974967 0.07295785 0.09832286 0.050025415
-0.079311535 0.052319188 -0.030393854 0.04452517 0.03956728 -0.1133137 -0.081682414 0.1272925
0.16980553 0.0933166 -0.0138071375 -0.0854488 0.18572673 0.05382794 0.022058288 -0.043085475
-0.15340331 0.13523252 -0.12215479 0.044209436 0.053204507 -0.013096036 0.007836094 0.007199754
-0.061805964 -0.0046584914 -0.13080682 -0.21775377 -0.0053796247 0.11612258 -0.10783131 -0.07295907
0.03398798 -0.03624257 0.06898083 -0.03806304 -0.08031665 -0.05709078 -0.08645178 0.08624962
-0.11285465 -0.09685027 0.11881833 0.039995782 -0.044054437 -0.03355125 -0.0013481079 0.15877196
-0.11211178 0.17866567 0.003092392 0.03351042 0.038059004 -0.008606748 0.11880824 -0.045057993
-0.085742466 -0.026096124 -0.14915662 0.11460993 0.10893443 -0.17837603 -0.06611031 -0.017919105
0.08995776 -0.2444629 -0.09793566 -0.118929066 0.03860404 -0.23961803 0.0022074769 0.12770419
-0.08233156 -0.12309658 0.031585414 0.006580293 0.06731539 -0.026771724 0.23462577 0.05967038
0.0032965483 -0.1586937 -0.037510935 0.0020696027 0.08173173 0.13011114 -0.052297276 -0.058153618
-0.032206107 0.11306631 -0.1631255 0.13787736 -0.16822131 0.13150457 -0.10211126 0.06771323
-0.0557288 -0.10739829 -0.076253474 -0.03439645 -0.0068711685 0.008577913 0.03409473 -0.09828594
0.010746917 0.055681963 -0.16407797 -0.04035753 -0.11098298 -0.14631069 0.1064878 -0.024533689
-0.06298253 -0.15337859 -0.10209017 -0.025805656 -0.048173588 -0.009303559 0.05595619 -0.038392708
-0.18695751 0.03373164 -0.07443913 -0.03318896 -0.049791984 0.020262372 -0.038536116 -0.07513232
-0.05854934 0.101330996 -0.0739658 -0.08611806 -0.10756468 -0.002816535 0.02296664 -0.01521106
0.01445426 -0.06401045 0.08933742 0.04241523 0.041997157 0.12510681 -0.12448059 -0.28042307
0.033346944 -0.025399419 0.103576 -0.16025169 -0.18130074 0.02099897 0.017701548 -0.11280503
0.06482262 -0.08582352 -0.13214326 0.05418249 0.03105693 0.057340827 -0.00463044 -0.08646486
-0.0044016503 -0.15627399 -0.11742608 0.08749906 0.00089274516 0.014095165 0.01442875 0.016127275
-0.21411997 -0.1089299 0.07653335 -0.20508279 0.08336616 -0.09341112 -0.1269084 0.05931607

network_body._body_endoder.seq_layers.2.bias f4 [128]
00000000: 3034 b4bc b5a0 683d 8284 fc3c 27be 31bc
00000010: bd4d 0fbc 617b 613d 9795 673d c066 fd3c
00000020: 07f6 3f3d 7804 493d fc3b b43c d57f 243d
00000030: 58c0 f7bc 065e e43b e802 b13c 9387 bbbc
00000040: c35f 88bc 00d3 243b 3e01 97bc f023 d5bc
00000050: d539 b63c ab53 fc3c 05cd 523b e69f e93c
00000060: 39fc 9c3b 71e4 423c cd9f 2b3d 5efd 4f3d
00000070: add2 3d3c 05a5 233d 84e3 343d 4ead 14bd
00000080: 2ee7 423d 6cb1 a33c 8a28 ea3c f0bf 7c3c
00000090: fc5d d4bc d88a 9bbc a103 24bd 3a3d 803a
000000a0: 5965 033d bd3e d6bc 7a38 b13c 5078 90bc
000000b0: 2f6c cc3c 9e58 633d 252c 163d d4a1 343c
000000c0: 2008 0abd fe38 063d 139c 743d 147e 7f3d
000000d0: 4c20 483c 5434 8abc 2e70 c83c ee14 2cbc
000000e0: 2e94 2dbd 2e61 363d fe6e 863d 74d7 33bd
000000f0: 9552 bd3b 84d9 2e3d f5b8 813d 8ceb 353d
00000100: 8ef2 e93c 29cd 793c 90af ea3c a845 27bc
00000110: 077a e1bb 9eef 413c 2cb0 58bc a139 c63c
00000120: 45a4 7a3d dcf8 2a3d 31fc 0cbc 3d97 30bd
00000130: 5aa3 8dbc ecf7 02bd a54f 253d ca80 fa3c
00000140: fdd8 98bc eba1 b1bc 6e49 983c 5cb2 b3bb
00000150: f24e 483c cf95 e43a 80e5 b6bb f39b 7d3d
00000160: b4e7 9c3c 7056 d9bc 4d68 873d 4fd8 df3c
00000170: 2e38 d9bc 0074 f23c b65c 0cbd 54f7 3f3c
00000180: c4b6 10bd d2ef 11bd f059 fdbc cf86 b0bc
00000190: 9348 c4bc 4357 113d e7b8 0a3c d247 12bd
000001a0: 9fe7 11bc 23eb 333d 5fdd 3abc b189 423c
000001b0: 52ae 5c3d 9299 813d 7a3f 213d 1cb1 eebc
000001c0: 0967 fc3c 9c6d 083d 7d6f 583c 7293 3a3d
000001d0: 1aae f33c a03a 023c 7f0c b73b 9020 9a3c
000001e0: 020b 7b3d bf91 043d 2360 5abd 90ca 6fbc
000001f0: fb8a 4e3c 03bf 4bba a842 773d 7081 23bd
-0.021997541 0.056793887 0.030824903 -0.0108485585 -0.008746562 0.055049304 0.056539144 0.030932784
0.04686549 0.049076527 0.022001259 0.040160973 -0.030243084 0.0069692163 0.021607831 -0.022891795
-0.016647225 0.002515018 -0.01843321 -0.026018113 0.022244373 0.030801615 0.0032165658 0.028518628
0.0047908095 0.011895285 0.041900445 0.05077874 0.011585874 0.039952297 0.04416229 -0.03629809
0.04758375 0.019982062 0.028583784 0.015426621 -0.025923721 -0.018987104 -0.040042523 0.0009783872
0.032079075 -0.026152963 0.021633375 -0.017635494 0.02495393 0.055504434 0.036663193 0.011024911
-0.033699155 0.032769196 0.059719156 0.062376097 0.012214731 -0.016870655 0.024467554 -0.010503037
-0.042377643 0.04452627 0.06564139 -0.043906644 0.005777667 0.042687908 0.06334106 0.044414088
0.028558042 0.015246668 0.028648168 -0.010209478 -0.006881002 0.011836914 -0.013225596 0.024197401
0.061191816 0.041741237 -0.008605049 -0.043112982 -0.017289806 -0.031974718 0.040359158 0.03057899
-0.018658156 -0.021683654 0.018589702 -0.0054839086 0.012225853 0.0017439666 -0.0055815578 0.061916303
0.019153453 -0.026530474 0.06611691 0.027324824 -0.026516046 0.029596329 -0.034268104 0.011716682
-0.03533055 -0.0356291 -0.030926675 -0.021548657 -0.023960387 0.03548361 0.008466936 -0.035713024
-0.00890532 0.043925416 -0.011405318 0.0118736485 0.053877182 0.06328119 0.039367177 -0.029137187
0.03081085 0.033307657 0.013210175 0.04555077 0.029746104 0.007948548 0.0055862064 0.018814355
0.061289795 0.032365557 -0.05331434 -0.014635697 0.012606378 -0.00077722984 0.060366303 -0.039918363

action_model._continuous_distribution.mu.weight f4 [1, 128]
00000000: a11c 7939 cc93 b93c e0c6 553d d166 e4bb
00000010: d611 723a 2edb 493c d69a f13b 9389 b4bd
00000020: aa40 1f3c dc03 4f3d 285d 0fbc 989c f23c
00000030: c16b d43a 7b75 2ebc 2273 14bd 826d 653a
00000040: 7ee2 18ba 8a91 50bc e148 3c39 44a6 af39
00000050: f52a 11bd cee3 06bd a5f9 903b 1be8 29bd
00000060: ec2f a93c 9a0b 34bd 6faa 4a3d 21ba 423d
00000070: c8d0 353c 261f aa3b 0516 d83c 15bf 2bbc
00000080: 043e 283d d461 09bd 8c4f 3ebd 4cbc 0b3c
00000090: 58e1 14bc 7fe6 57b9 a523 a8bc eb95 32bc
000000a0: 1253 1f3c 9309 46bc 7495 05bd 08c1 37b9
000000b0: ca83 0cbd 89a8 fc3c 8f24 633c e8b9 1439
000000c0: 5f60 7638 529c 20b7 cae6 5a3c 4a79 df3c
000000d0: bc89 d7bc c155 82ba 45b2 9ebc cb90 4db9
000000e0: 104f 5fbc 2840 fb3c e960 c43c e186 20bc
000000f0: c2d7 f9bb 5de4 5d3c 2efe b43c 3c96 b83c
00000100: 3752 f93c f1c9 a0bc 4bba 50bd 4054 053b
00000110: 199b c438 a943 edbc a169 c5b9 f497 853c
00000120: 5030 093d 9eaa 503c 1e93 71bc bc85 58ba
00000130: d21a b03a 862e 2ebb f9eb 983c 8471 883d
00000140: 1c91 2436 a65a d2b9 a2ca c53c ef53 51ba
00000150: 49e3 0abd 6d31 1a3c cfdc c1bc e809 0b3d
00000160: 2d1b 8bbc cf40 9bbc 5166 ce3c 1f77 0abd
00000170: 4bf8 24bc 232e b2bc ce1b 1f39 31fa ccbb
00000180: 8925 2bba 1874 51bb f8b1 4fb8 7d2a 31ba
00000190: c590 d9ba 4565 1dbd 7b23 09bd d62a 55bb
000001a0: e5ab 8abb 96d7 123d c002 84bb 04f9 7dbc
000001b0: 593c c63c 34ff 0a3d 381d f83c c389 8bbc
000001c0: 006e 753c 6630 f13b 7116 1a3c b62c a53c
000001d0: ed31 82bd 6b3a 9239 f45f 0c3c 5aef 213b
000001e0: 0232 a13c 524e ce3b c402 e4ba 00f7 83bb
000001f0: a5f1 8bbc 1edd 03bd 268b a13b 3faa 99bc
0.00023757156 0.022653483 0.052191615 -0.0069702645 0.0009234225 0.012320323 0.007373194 -0.08815303
0.009720007 0.05054079 -0.0087502375 0.029615685 0.001620643 -0.010648127 -0.03624261 0.00087519747
-0.000583209 -0.012730012 0.00017956227 0.0003350248 -0.035441358 -0.032932095 0.004424291 -0.04148112
0.020652734 -0.043956377 0.049478944 0.047540788 0.011097141 0.0051917015 0.026377687 -0.010482569
0.041074768 -0.03354056 -0.04646258 0.00852878 -0.009086929 -0.00020589864 -0.02052481 -0.010900001
0.009724395 -0.012087244 -0.032613233 -0.0001752415 -0.03430537 0.030842083 0.013863697 0.00014183635
5.8740723e-05 -9.573139e-06 0.013360688 0.027279515 -0.026310794 -0.000994377 -0.019372115 -0.00019604263
-0.01362969 0.03067024 0.023971992 -0.009797783 -0.0076245973 0.013543216 0.022093859 0.022532575
0.03043471 -0.019627543 -0.050958913 0.0020344406 9.3748975e-05 -0.028962927 -0.00037653468 0.016307808
0.03349334 0.012735991 -0.014744548 -0.0008259674 0.0013435727 -0.0026578023 0.018667208 0.066622764
2.452237e-06 -0.0004012186 0.024144474 -0.00079852244 -0.033908162 0.009411198 -0.02366486 0.033944994
-0.016980732 -0.018951802 0.025195273 -0.03380501 -0.010068963 -0.021750515 0.0001517378 -0.006255411
-0.00065287255 -0.0031960066 -4.9518392e-05 -0.00067583454 -0.0016598931 -0.038426656 -0.033481102 -0.0032526753
-0.004231917 0.03585013 -0.004028648 -0.0155012645 0.024198698 0.033934787 0.03028737 -0.017033463
0.014979839 0.007360506 0.0094047645 0.020162921 -0.06357179 0.00027890815 0.008567799 0.0024709315
0.019677166 0.0062959576 -0.0017395844 -0.0040272474 -0.017082999 -0.032193296 0.004929918 -0.018757937

exp_avg f4 [128, 2]
00000000: b8a9 103c 0378 133d a380 0ebc bc45 64bb
00000010: 665b f03b 8414 85bb b3bc 0f3e 00a4 8fbd
00000020: 0e87 843c 8ed6 923b 966e e43c 37cf cfbc
00000030: 58bd 03bb 40c5 a5ba 9f5e 553e 1e11 7ebd
00000040: 16cb 05bb 180b e13b b4bc 963b 6179 113d
00000050: 2e07 2b3e 864d 5f3c f314 f7ba c1e1 c03b
00000060: 8f7d 4c3c c07b 7a3b ca1f 65bd 25e5 763c
00000070: c6b0 c93b 225b e5bc 2cf1 99bc 167b 113d
00000080: 35f1 08bd acdb 2d3c c971 07bc 7282 503c
00000090: 601f 393b e2d5 d53c f29f e03d 0295 babc
000000a0: 0ca0 adbd c543 6a3d 90ed 3d3c 8297 093c
000000b0: 8136 623b 4cf9 d73a ddc5 c0bc 1b4e 05bc
000000c0: 9d8a 123c d216 d7bc 8a05 74bc 1e2f b43a
000000d0: 4aab 07bd 60df 013b 88b5 bfbb e610 cc3c
000000e0: ae68 953c 35c5 18bc 0af0 163b 5c0a 783d
000000f0: dc67 8f3e c812 2fbd 0042 90b9 1433 bd3c
00000100: a229 b1bb 7915 c53d cce9 e13b 9093 5cbb
00000110: e065 0fbb 1874 9c3c cad9 36be 8437 473d
00000120: 8c68 31bb 0a8a 8dbb 4ba8 983c 97da 263c
00000130: d5b6 be3b 9c4f 043b 70cb b93a f884 80bb
00000140: 28f3 29be a94f 123d ccc0 6fbe 5443 bc3d
00000150: 4ad6 39bb 287d c8bb 7ad5 02be 2a84 613c
00000160: b77b 3c3e ba8f 9dbd 2081 d4bc b30f 84bd
00000170: 59a0 1f3c 1235 dabb eaff 063e 78ad 33bd
00000180: aa7d cf3b c84a 9d3d 592a 573c fb3d aa3c
00000190: e586 cb3d c050 ac3c 4434 193d 99f7 a8bc
000001a0: 49b4 133c f683 a83b 624c 573b 402c 45bc
000001b0: b5eb 50bd a199 0a3d 0260 203d 6ad0 f03c
000001c0: 8c56 b23d 80e1 82bc 53f5 10bd e08b 373a
000001d0: 730c bf3c ff62 46bd 9016 3cbe 36c2 a6bc
000001e0: a011 8a39 1a03 173d 8045 8337 197d dcba
000001f0: b231 8cbd 5316 7a3c cc0d b3bd 945b 5a3d
00000200: c007 3a3b a4ee 20bc c0a3 ad3c b484 923c
00000210: 2201 8abd dc05 e53d 80a0 7b3a 9ca8 adbb
00000220: 1682 dc3d 2ded 88bd 8225 933d c05d 253a
00000230: 346b 473b 4c00 e8bb 3e10 1cbb a4e9 023d
00000240: 6028 a0bb f974 8cbc e643 1c3e 9a78 17bd
00000250: c6cd 173b e91f 263c 50a8 a339 f9f8 04bd
00000260: 5242 db3b 59ec d1bc 0873 3d3c c0ca a639
00000270: be34 36be 7ef5 673d 9457 533e c362 a4bd
00000280: 074a 7fbd 3649 1d3c 487a bebd 7cf7 8dbc
00000290: 63ad 02bb a5f9 ad3c 96b5 d9bd c867 9a3c
000002a0: 96a6 a3bb a973 03bd c72a 393c 14ee 0a3c
000002b0: 3987 5c3c 3454 41ba 7ce1 033d a008 01bd
000002c0: 984c 04be 3abd 303d 9a8b 113c 7031 6d3a
000002d0: 2cda 783b ecfc ab3a 7aa2 483e ae3e a8bd
000002e0: 7c78 85be 1fbd d13d 26d4 46bd 7edf fe3b
000002f0: 50e8 273b 9634 99bc 20a5 4e3e 8df4 22bd
00000300: 481f 673b 4897 7c3c 14a2 cdbb 6bc0 b63c
00000310: 723d 6b3b 9cc8 f23b b127 aa3e 22d7 b7bd
00000320: f858 0d3d 7404 42bc 6445 633c beea 7d3b
00000330: e47e 88bc 6069 c4bc 305f 0f3b 83f5 4fbd
00000340: 6cd5 d83b 84c5 0bbb 61cb bd3c ccae 9eba
00000350: 00b7 34bd 586e 523d 493b f3bd f421 04bd
00000360: 6943 0c3d bfbc 8dbc 66be 6cbe 2347 a73d
00000370: 3377 3cbe f3e3 7e3d c69a 28bb 14dc b3bc
00000380: 88a2 693a 63fc 30bc 06cf ee3c 1cc7 9c3b
00000390: d2f9 a63a ee40 933d b463 103d b8ed 6fba
000003a0: 2447 b5bc 7179 07bd e426 91be ac77 be3d
000003b0: 5047 be3b 490c 30bc c07d b1bd e1bb 1f3d
000003c0: 3111 2e3d b025 72bb dd2d 5f3c 892f 553c
000003d0: 9c7a 823e aba1 03be 4db5 133b 6d0b bcbc
000003e0: 5c69 583d d01d 0ebb 94da 723b 502f 3fb9
000003f0: 78d7 daba 4633 e13b acf4 64bb 8128 9e3c
0.008829527 0.036003124 -0.008697662 -0.0034831604 0.0073351143 -0.0040612835 0.14036827 -0.070137024
0.01617768 0.0044811433 0.027884763 -0.025367362 -0.0020101871 -0.0012647286 0.20836876 -0.062028043
-0.0020415238 0.0068677776 0.004600132 0.035516147 0.16701958 0.013629323 -0.0018850848 0.005886287
0.012481107 0.0038220733 -0.05593852 0.015069281 0.0061551062 -0.027997557 -0.018791758 0.035517775
-0.033433158 0.010611456 -0.008266875 0.012726413 0.002824746 0.026102964 0.10968007 -0.02277613
-0.08477792 0.057193536 0.011592284 0.008397939 0.003451735 0.0016477495 -0.023531849 -0.008136298
0.008944181 -0.026255999 -0.014893899 0.0013746952 -0.03312234 0.001981698 -0.0058504976 0.024910402
0.018238392 -0.009324362 0.0023031258 0.060556754 0.28008926 -0.04274252 -0.00027514994 0.023095645
-0.0054065743 0.09623236 0.006894326 -0.003365729 -0.002188079 0.019098327 -0.17856517 0.04863693
-0.0027070371 -0.004319434 0.018634936 0.010183952 0.005820135 0.0020189052 0.0014175009 -0.003922101
-0.16596663 0.0357205 -0.2341339 0.09192529 -0.0028356486 -0.0061184354 -0.12776747 0.0137644205
0.18406568 -0.07693429 -0.025940478 -0.06448307 0.00974282 -0.0066591585 0.13183561 -0.043866605
0.006332119 0.07680279 0.013132655 0.020781508 0.099378385 0.021034598 0.03740336 -0.020625876
0.009015151 0.005142684 0.0032851924 -0.012034476 -0.051006038 0.03383792 0.03915406 0.029396255
0.08707914 -0.015976667 -0.03539021 0.0007001739 0.023321366 -0.048434254 -0.18367982 -0.020356279
0.00026334543 0.036868192 1.564878e-05 -0.001682195 -0.06845416 0.015264112 -0.08742866 0.053309992
0.0028385967 -0.009822521 0.021196246 0.017885543 -0.06738497 0.11182758 0.00095988065 -0.005299641
0.107669994 -0.06685863 0.071848884 0.00063082203 0.0030428888 -0.0070801135 -0.0023813392 0.0319611
-0.0048876256 -0.01714562 0.15260276 -0.03698025 0.0023163422 0.010139444 0.00031215185 -0.032464
0.0066912556 -0.025625395 0.01156307 0.00031813048 -0.17793557 0.056630604 0.20638877 -0.0802665
-0.062326457 0.009599974 -0.09300667 -0.017329924 -0.0019939772 0.021237204 -0.10630338 0.018848315
-0.004994224 -0.032092724 0.011301703 0.008479614 0.013459974 -0.0007374913 0.03219746 -0.031502366
-0.12919843 0.04314921 0.008883381 0.0009048199 0.0037971837 0.0013121641 0.1959323 -0.0821508
-0.26068485 0.1024115 -0.048542164 0.007778107 0.0025620647 -0.018701833 0.20180178 -0.039784003
0.0035266448 0.015416928 -0.0062754247 0.022308549 0.0035894779 0.0074091684 0.33233407 -0.0897658
0.034508675 -0.011841882 0.0138715245 0.0038744654 -0.016662069 -0.023976028 0.0021876805 -0.050771248
0.0066172387 -0.0021327445 0.023168268 -0.0012106537 -0.044119835 0.051374763 -0.11876542 -0.032258943
0.034243975 -0.017301915 -0.23119506 0.08167865 -0.18404846 0.062229108 -0.0025727018 -0.021955527
0.00089124637 -0.010802361 0.02915145 0.004784478 0.0012739247 0.07190119 0.035251334 -0.00091525493
-0.022128649 -0.0330748 -0.28349984 0.09300169 0.005806841 -0.0107451165 -0.08666563 0.038997535
0.042496864 -0.0036948733 0.0136217745 0.013011822 0.2548417 -0.1285464 0.0022538484 -0.022954667
0.052834854 -0.002168525 0.0037056552 -0.00018232805 -0.0016696295 0.0068725673 -0.0034935875 0.019306423

exp_avg_sq f4 [128, 2]
00000000: 3327 9e3b 59e9 a43c f076 643e 8b21 c53e
00000010: 1d9f 803e ff87 253f fa47 d43f 7e8e 263f
00000020: eb38 a23e 720d e23e 00f1 443e e551 023e
00000030: ce4d da3e dee5 c63e 158b 1a40 5ce4 6d3f
00000040: 036b 5d3d adeb 853d 27b8 463b 4e91 3b3d
00000050: 58f3 2e3f 3875 df3e dfe3 c73a 112e ab3b
00000060: 65d7 c13c 1378 0e3d 4738 5a3e e7ef d13d
00000070: ef92 143a 205e 603c ddde 033e 33d7 a43d
00000080: a506 213d 343c c13c 73a4 4c3c 03e9 d63c
00000090: e9fa 973b 7095 043d 9f09 753d f528 643d
000000a0: 8b46 a73e 201c 6f3e 2354 ea3d 272e d93d
000000b0: 5b63 3c3b 8c18 b93c 6802 a03e 1a3b 1c3f
000000c0: e8c0 463c 375c 513e 0b46 1f3e bb65 af3c
000000d0: ad29 1e3f 1191 083f 1868 263f 043a 1b3f
000000e0: 5913 9f3e e174 8b3d da78 d83b 4c25 dc3d
000000f0: dad5 9b3f d4d1 893f 006b 143f 2c15 a23e
00000100: 862a c23b 60c8 ff3d fd74 0d3f fc83 6b3f
00000110: dbc7 553e 11be 033e 5050 c03f 1769 143f
00000120: c2c2 e83e ea1a 073f dfae 3f3e 53e4 b83d
00000130: d017 b03b 4901 eb3c 1d58 133d c438 f03c
00000140: 7587 863f 72c8 613f d658 8e3f b2bf 303f
00000150: e2b3 1b3c 6f3f cb3c 4b71 803f bae6 d23e
00000160: d385 1640 e013 623e 5eb3 903e 3534 ad3e
00000170: 4e82 8b3c 33f8 b83d c3c0 2b3f 39c9 543d
00000180: f9ad 883c 1a8c 6e3e ec51 e03c dc92 cf3d
00000190: df10 853f 1798 a23f 9a11 ca3d afe4 403e
000001a0: 6d65 fc3a f872 103d 9600 d63a 014a d73b
000001b0: b81b 883e 5ab8 033e aa61 b03d a161 b93e
000001c0: 87df ae3e 3a66 183f 313a 973f 9a2d 8b3f
000001d0: c33d fb3d 3903 8a3d 4e55 7f3f fdf3 9d3f
000001e0: 9ea9 9f3d 1e57 883e 3caa 423b d447 0f3d
000001f0: 000c c33e e115 823d aaa3 503f 9e60 013e
00000200: 54af b23c 79dd 073d 44a8 523d 54ff 383e
00000210: 2c27 8c3f a436 d33f 1ef3 0d3e a07f a73e
00000220: fa08 ab3d 9902 4f3d f00b fa3d 3409 943d
00000230: 11f2 be3b 075c f13c 33f8 b43a 59e8 f33c
00000240: 2ec5 8c3c 9b74 123d 86fa 673f 653c b03d
00000250: c9bd 7a3b 6435 c63c efbe e83b 9035 8d3d
00000260: a152 3d3b 60ef a93d 3349 f93b 794a 583d
00000270: 211c ad3e 4a9b 813d 0def c53f 9e3e 823e
00000280: 7010 8f3d efce 553c 959e 1f3f 101f 023f
00000290: 6564 2f3b 13a9 f63c 5a12 c83e f2c4 813e
000002a0: a01c 163c 5144 953d 2963 bc3b db24 0c3d
000002b0: 8c15 a13e d6e9 1c3e d00c 793e 9e49 db3d
000002c0: 2ab4 623f 7eea be3e 872e 263e 30fd 473e
000002d0: f86f 9d3c 46be a53d 2804 a63f 6be5 833e
000002e0: 50dd 0440 6109 863e 9380 dd3d f128 533e
000002f0: 7a7f 9a3b 56a2 923c 520d 3f3f 4263 013f
00000300: d693 903e 9ce0 bf3d b791 103c 9044 1d3c
00000310: ddad 843b 0e93 dd3c f4ab 4340 8046 b93f
00000320: 70a7 d73c fa31 133d 03da bf3d 41bc f13d
00000330: 09c0 103d 7b78 323d 6906 7b3b 063e ee3d
00000340: 2cd5 9b3c 7723 6d3c 55ff 233e fdf3 3e3e
00000350: 9d3a fa3e 874a e43e ad36 ba3f 0a99 a13f
00000360: 564f 303d 8cfd 1a3d 7a91 a63f c41e a83e
00000370: 8207 ea3f c802 c33f 91e6 9d3b 30a2 5a3d
00000380: 64d9 b93e b1ef c03d 481c 633e 3cae 5c3e
00000390: 4c91 983b 3ad4 c23d 0bd7 7f3d b961 7c3d
000003a0: eb4e 3d3d fe86 be3e 2120 7940 d908 023f
000003b0: ed24 f03e be68 b23e ce02 bf3e f8f9 993e
000003c0: 7cf3 ef3e fd76 473f 5802 f03d 3a70 623e
000003d0: cc7d 0f40 7152 073f c6f0 fc3a bcaf 1d3d
000003e0: 90bd 223f 9823 e03e de68 273b 530f 223e
000003f0: 7d4e 0d3e 3394 a93e 5f83 ce3c 8c1d d63d
0.0048264503 0.0201308 0.22310996 0.38502154 0.25121394 0.6466064 1.6584466 0.65061176
0.3168405 0.44150883 0.19232559 0.12726553 0.42637485 0.3884725 2.414739 0.92926574
0.054057132 0.06539092 0.0030322166 0.04579287 0.68340063 0.43644118 0.0015250406 0.0052239974
0.023662278 0.03478248 0.2131053 0.10250836 0.0005667647 0.013694316 0.12877984 0.080488585
0.039312977 0.023588277 0.01249038 0.026234156 0.004638065 0.032369077 0.05982363 0.055703122
0.32671008 0.23350573 0.11441829 0.10604506 0.0028745744 0.022594713 0.31251836 0.6102768
0.012130953 0.20445333 0.15554063 0.021410814 0.6178234 0.53346354 0.65002584 0.606354
0.3106945 0.06809402 0.0066062035 0.10749301 1.2174637 1.076716 0.5797577 0.31656778
0.0059254793 0.124893904 0.55256635 0.9199827 0.2087702 0.12865473 1.502451 0.57972854
0.45461088 0.5277544 0.18719052 0.090279244 0.0053739324 0.028687136 0.035972703 0.029323943
1.0510088 0.8819648 1.112086 0.69042504 0.009503337 0.024810521 1.0034574 0.41191655
2.351918 0.22077894 0.28261846 0.33828893 0.017029908 0.09031715 0.67091006 0.051949713
0.01668452 0.23295632 0.027382813 0.10135433 1.0395774 1.2702664 0.098666385 0.18837236
0.0019256301 0.035265893 0.0016327079 0.0065701012 0.26583648 0.12863293 0.08612378 0.36207297
0.34154913 0.59530985 1.1814634 1.0873291 0.122676395 0.06738896 0.9973954 1.2340084
0.07796024 0.26628965 0.0029703518 0.03498061 0.38095093 0.06351829 0.8149973 0.12634513
0.021812119 0.033170197 0.05143 0.1806615 1.0949454 1.650105 0.13862273 0.32714558
0.083513215 0.050539587 0.12209308 0.07228318 0.0058271964 0.029462827 0.0013806879 0.029773878
0.017183866 0.035755735 0.90616643 0.08605269 0.0038260093 0.02419538 0.007102839 0.06894982
0.0028888362 0.0829761 0.007607603 0.052805398 0.33810523 0.06328447 1.5463578 0.25438398
0.06985557 0.013049825 0.6235135 0.5082865 0.002676272 0.030109918 0.390765 0.2534557
0.009162098 0.07288421 0.0057491255 0.034214836 0.3146175 0.15323576 0.24321294 0.10707401
0.8855616 0.37288278 0.16228686 0.19530177 0.01921843 0.080929324 1.2970018 0.2576097
2.0760078 0.2617903 0.10815539 0.20621087 0.0047149034 0.017899673 0.746297 0.5054208
0.2823779 0.09369013 0.008823804 0.009598866 0.0040490464 0.02704766 3.0573702 1.447464
0.026324958 0.035936333 0.09367754 0.11803485 0.03533939 0.04357193 0.0038303381 0.11632924
0.019022547 0.0144737875 0.1601537 0.18647762 0.48872843 0.4458811 1.4547936 1.2624829
0.04304441 0.037839457 1.3013146 0.32835972 1.8283541 1.5235224 0.0048187454 0.05337733
0.36298668 0.094207175 0.22178757 0.2155084 0.0046559926 0.09513135 0.06246094 0.061616633
0.04621784 0.37212366 3.892586 0.5079475 0.46903172 0.34845537 0.37306827 0.30073524
0.4686545 0.77915937 0.11719197 0.22113124 2.242053 0.5286017 0.001929783 0.03849767
0.635705 0.43777156 0.0025544683 0.15826158 0.13799472 0.3312088 0.025209127 0.10454854

exp_avg f4 [128]
00000000: d8f6 68bd 8020 ab3c a107 903d b805 32bb
00000010: ee22 fcbc 62d1 82bc ce47 693c 6a4f 7dbc
00000020: fad0 7b3c 6496 b0bd 3c9f 1fbd 045c 903c
00000030: d338 363d 5538 be3a 4c25 873d 59cd 05bd
00000040: 4cbd f63a 13d1 68bd 7e8e 85bd 7281 0abd
00000050: 7cb1 97bc d999 003d e8e7 f23c 4055 833c
00000060: dbed c93b c608 b13b 4e96 653d ab40 22bd
00000070: 0514 d3bc 658f 70bd 26f6 1bbc 8e49 0ebd
00000080: 6455 66bd c535 953c 0a8b 71bb ece3 92bc
00000090: 3c47 693d 7287 223d 731b eb3c eaca 4d3b
000000a0: 4c83 f6bc 9de2 8bbd a4b2 4b3d 09a6 a5bc
000000b0: 38cd c9bb 56a2 0ebc 5949 533d f278 ca3c
000000c0: b4c8 7abd 9274 97bd fb90 e1bc 95aa 05bc
000000d0: 430c 633d 4665 203c 5847 f2ba 043e bfbc
000000e0: a079 a9bb f89b 173b b475 89bc 30eb a3bb
000000f0: c4a1 c9bd ea5d 5cbd 5b93 25bd d21f 9fbc
00000100: c6da 5dbd 66fd a7bd 1b3d 47bd acb3 fe3c
00000110: 9987 e1bc 1ed4 53bb a5da 553d 8d63 6fbd
00000120: 71a1 26bc b266 7a3c 35a0 47bd 22b7 8d3c
00000130: ba39 f2ba 1613 ab3d 207b 3bbd 4cf1 acbb
00000140: 1c6f 423a b1e3 43bd efa0 76bd 6d8c 51bd
00000150: d169 3a3d 6800 30bd 8bab afbb 76c4 533c
00000160: 7a34 a2bc d7b9 b9bc 7931 0a3d 60db 033a
00000170: caac 1ebd fce7 8ebc 555d 743d 1e87 70bc
00000180: 1cc8 6f3c e3f5 20bd 5461 a7bb 6a6a f43c
00000190: 6c03 fcbc 1359 f33c 9b04 89bc 32ec 09bd
000001a0: 6008 263d 7690 b5bb 0ffa 88bc ecb3 bb3b
000001b0: 596d 10bd 62c0 43bd 5760 91bc 007d 56b7
000001c0: aa73 25bb be28 66bd 169d abbd d287 4e3c
000001d0: 86da 893c 852c 3fbd 2218 093d 902d ae3c
000001e0: 21f0 b4bc 67e3 663b 7cb1 293c 248a 68bd
000001f0: 42b6 753c 3c95 c43d 098e c23c 57b3 a33b
-0.056876034 0.02088952 0.07032705 -0.0027164053 -0.030778375 -0.015968982 0.014238311 -0.015460828
0.015369648 -0.08622435 -0.038970217 0.017622001 0.044487786 0.0014512638 0.06598911 -0.032666538
0.0018824725 -0.056840014 -0.06521319 -0.033814855 -0.018517248 0.03139672 0.029651597 0.016031861
0.006162388 0.005402657 0.056051545 -0.039612453 -0.025766382 -0.0587305 -0.009519136 -0.034738116
-0.05623378 0.018214116 -0.0036856555 -0.017930947 0.0569527 0.039679952 0.028699612 0.0031401464
-0.030091904 -0.068303324 0.04973091 -0.020220773 -0.006158497 -0.008705696 0.05158362 0.024715874
-0.06122656 -0.07395281 -0.027534952 -0.008158346 0.055431616 0.0097897705 -0.0018484397 -0.023345001
-0.0051719695 0.0023133736 -0.016779758 -0.005002402 -0.098453075 -0.0538005 -0.040423732 -0.019424353
-0.054163717 -0.08202629 -0.04864226 0.031091534 -0.027530478 -0.0032322477 0.05221047 -0.05844455
-0.010170327 0.0152832735 -0.04873677 0.017299239 -0.0018480339 0.0835325 -0.045771718 -0.0052777883
0.0007417069 -0.047824565 -0.060212072 -0.05115931 0.04551107 -0.042969137 -0.0053610257 0.012925258
-0.019800413 -0.022671623 0.033738587 0.0005029943 -0.038739003 -0.017444603 0.05965932 -0.014680652
0.014635112 -0.039296996 -0.005108038 0.029835898 -0.03076335 0.02970556 -0.016725829 -0.03367252
0.04053533 -0.0055409027 -0.0167208 0.0057282355 -0.035260532 -0.047790892 -0.017746134 -1.2784498e-05
-0.0025245943 -0.0561912 -0.08379571 0.012605624 0.016827833 -0.046673317 0.03347028 0.02126196
-0.022087159 0.0035230757 0.010357257 -0.056772366 0.014997067 0.09598777 0.023749368 0.004995744

exp_avg_sq f4 [128]
00000000: 2643 073c 6d2c 963c 12e8 2a3d 4609 373d
00000010: 2a85 d23c f61a 003c fc90 9e3c 64a3 863d
00000020: 05c6 863b 4273 b33c 408e 103d 1d61 dc3a
00000030: 858e d63b e36f ab3b d8d7 2c3c 4259 c73b
00000040: 5698 cb3a a60e 333c 223f 463c 633a 0a3c
00000050: 99fb 483c 6c7f 103c e8cb 773b 406d e63c
00000060: acb3 193c 95f4 1f3b a3bd 163d a979 1e3d
00000070: 37bf 083c 0c18 463c 10fe 673d 4e3c b03c
00000080: 3bae 2a3c 3126 313d c651 ea3b 4c46 193d
00000090: b81c 063d 89f8 1d3c 678b 4e3b 13c7 d63a
000000a0: 4a5e 493d b438 2e3d 0988 f53b 3a1d f03c
000000b0: 47b9 f63c 481a 893c 1587 233c c1ad 0f3c
000000c0: 3a2b 9e3c 1aed a83c 5e56 933d 6d95 193c
000000d0: fa9f 1b3c b5a5 0e3a 3521 053c 839b 973c
000000e0: c314 ea3c d82d 573d dbd6 e13b f7d2 603d
000000f0: 149e 233d baca 203c 6576 0d3c 295a 4c3c
00000100: 1c21 3f3c 03b1 063d 5c3e 993d 19e0 8d3c
00000110: 50a3 153c 664b 8b3b 2ca9 003c f5bb 173c
00000120: facc 133b 4485 3d3c 19e0 013c cf8d 733b
00000130: d809 893b 5ef4 a03c a697 063c 8576 e53c
00000140: 8344 b83a eea6 073d 10ef 2b3c 4135 993c
00000150: 578f 0e3c 1322 f53b ff9b 0d3c 505a cc3b
00000160: 1671 cc3c 905e 393c 51ef d23b 5086 d03c
00000170: caf8 ea3c e2b1 243c 098a 233c a5a2 ef3c
00000180: c235 013c 2997 7e3b dae2 b73a 301a b63d
00000190: b83c c03b 9876 053c d8e5 763b 8ef4 2c3c
000001a0: 4e7c a43b 7673 1b3c 9317 c33c e548 8b3d
000001b0: 8aee e63b 5fce db3c 0189 9e3d a82f 2b3b
000001c0: d7eb da3b 83cb a73c 78e9 a43c 1ced 783b
000001d0: 4a7f 8d3c 6ad1 5e3d 1214 c03c 055c 8f3c
000001e0: ff5e 1c3d 67c1 163c 29d7 343d ad37 413c
000001f0: 2304 c53c 83f5 fa3c 7e59 843c 5eee a13b
0.0082557555 0.01833173 0.041725226 0.04468658 0.025698263 0.007818928 0.019356243 0.06574133
0.0041129612 0.021905545 0.03529191 0.001681361 0.0065477514 0.005231844 0.010549508 0.0060836384
0.001553307 0.010928785 0.012100013 0.008436772 0.012267017 0.008819442 0.0037810747 0.028128266
0.009381216 0.0024407257 0.036801945 0.038690243 0.00834637 0.012090694 0.056638777 0.02151313
0.010417516 0.043249313 0.0071508614 0.037420556 0.032742232 0.009641775 0.0031516196 0.0016386233
0.049162187 0.042534545 0.0074930233 0.029310811 0.030117644 0.016736165 0.009980937 0.0087694535
0.019307721 0.020620871 0.071942076 0.009374005 0.009498591 0.00054415624 0.008125593 0.018506771
0.028574353 0.052533954 0.006892068 0.05488869 0.039945677 0.009813959 0.0086341845 0.012472668
0.011665609 0.032883655 0.07482597 0.017318772 0.009133175 0.0042509316 0.007852834 0.009261121
0.0022552595 0.0115674175 0.007926964 0.0037163382 0.0041820817 0.019647773 0.008214867 0.028010616
0.0014058504 0.03311818 0.010494009 0.018702151 0.008701167 0.0074808686 0.008643149 0.006236352
0.024956267 0.011314049 0.00643722 0.02545467 0.028683085 0.010052176 0.009981641 0.02925236
0.007886352 0.0038847423 0.0014029399 0.088917136 0.0058666132 0.008145951 0.0037673619 0.010556353
0.005019701 0.009487977 0.023814952 0.06801013 0.007047479 0.026831804 0.07740975 0.0026120935
0.0066809463 0.020482784 0.020130858 0.0037983125 0.01727261 0.05439893 0.02344707 0.017499933
0.038176533 0.009201384 0.044150505 0.011793059 0.024049824 0.030634647 0.016155954 0.0049417457

exp_avg f4 [128, 128]
00000000: 6400 a238 207d a0b8 7d9f c3b7 909d 3ebb
00000010: fcb3 89ba 3ca3 44bb 4c7f b1b7 7e2a fcba
00000020: 551d 80b6 6605 7d39 f62c 24bb 4a86 5938
00000030: fe8e 13b7 9a14 9dba 4661 e6b5 747f 0dbb
00000040: 226e b6b9 0802 3739 ee9c a938 40be c1b8
00000050: ee66 fbba a325 0d37 482d 73b8 f2fb 4eb9
00000060: b05d e8b6 ced5 34b8 c05f 7735 3cc5 78ba
00000070: d188 a0b9 6f15 5b39 7816 31b9 3862 3bba
00000080: a4f2 b639 f929 0ebb 049f 3938 ab1d a2ba
00000090: 2240 8fb8 b0ec 9137 80c6 e4b4 ffde 94b9
000000a0: bff8 03bb 7085 a6ba ceec 8937 98d6 d2ba
000000b0: 3eb6 e9b9 3ca8 47bb a06c a335 7bf3 22bb
000000c0: 2c51 a139 8242 ed38 e096 dbba dae6 5039
000000d0: 5a78 4f36 ce1c e837 0748 00bb 0a03 073a
000000e0: 4566 00ba dc8e 6eb9 4ca0 07bb 17a7 e2ba
000000f0: 823e 2239 5483 7238 1d8f 27b9 8ad5 ddba
00000100: 3177 0f39 30c3 e6b6 ea05 6dbb f65b c7b7
00000110: cc67 56b8 540b 19ba 34db b836 0654 d038
00000120: bec1 a638 5bcd 7eb9 fd5c 1f38 40e5 f236
00000130: de16 4bb7 7cbb 0837 8521 20ba 7e0c 52ba
00000140: e738 61ba c283 5dba 2272 d838 8032 59b9
00000150: d823 be37 bd1c b338 d435 f6b8 a67f 50bb
00000160: 1267 63bb de7b 51b9 806a 2db6 cd6d 92ba
00000170: 6876 d7ba e545 3eba d70c a237 5be1 80ba
00000180: 2471 82b8 d887 9338 5f6a ddb8 9842 7fbb
00000190: c6d6 4d39 94b9 8737 410d 7bb9 01ac 6038
000001a0: 127c 9237 798d 37b8 3e6a 2cbb aec6 79bb
000001b0: 6892 63b9 21e0 76ba f62a 2aba b6d7 a337
000001c0: 80ba f9b7 40b4 6e39 5d6b 7c39 ead3 8037
000001d0: 2b81 b7b8 7cb5 59b9 2a56 52b8 209e 8fba
000001e0: 0f62 7ebb d411 b6b6 d007 7cbb 11c1 ed37
000001f0: b20b 35bb a00a a036 c53f f7b7 18f7 aa38
00000200: c014 d3ba 3840 7abb b217 46bb 78ce 42bb
00000210: 4a64 31bc 51b5 b8bb aa80 15bc ca7c 2abc
00000220: 184f 9fbb 0a61 ce3a a803 283c 3ad4 2f3a
00000230: 0b54 41bb 9ef0 40bb 1334 f539 d689 99bc
00000240: 4455 8cbc 5884 9839 e4f5 c3ba 940c 8d3b
00000250: 4228 65bc 77af 9ebb c2aa 02bc 009b d2bc
00000260: 656a d2ba 486c 0ebc 4a1f cebb 8486 87ba
00000270: 82d4 20bc 3460 173a f870 cc3b 346c 4bbc
00000280: d9f3 afb9 549b a3bb 71a0 1cbb 4493 87bc
00000290: c807 66bb c8a3 6cbb 23db 9cba 88ce 15bb
000002a0: e5c6 773b 15d0 0abc 08d3 9e38 f0e3 34b9
000002b0: da58 c3bb f058 2fbb 0e69 8dba 6e58 61bb
000002c0: 7f17 abb9 c0d0 3938 1050 e3b9 ea9f 953b
000002d0: a4a8 fb39 c03f 0739 dcdd 7ebc 52f2 c23b
000002e0: 4606 2fbc d0bb d3bc 381e fcba 0e64 19bb
000002f0: fa3d 063a f2e1 0bbb f61a 79bc a26b 36bc
00000300: dc02 c3b9 72aa 123b 305b d4bc a984 47bb
00000310: 30e9 24b9 2865 1a3b f584 0cba bcb9 1aba
00000320: ad89 a7ba 88c7 08bc aed0 23ba fc6b b3ba
00000330: 2e82 9cba 5014 ef39 22ae dfbb 1128 313b
00000340: 0057 f9bc 6230 033b 3a13 f3ba 6087 e638
00000350: b48b b8b9 405c 0bb8 fc36 53bb c744 163c
00000360: 4059 13bd f273 89bc 94be eeba 44a9 edba
00000370: 5490 3cbc 66b4 aebc 8201 4b3a 686e be3b
00000380: cab8 e5bb e00b 8238 ae3a 43bc 6820 3f3c
00000390: 76a9 8f3a bd82 92bb 0d30 32ba 4bb9 00bb
000003a0: de4e 75ba 05e3 09bc d84f a2bc 2880 42bb
000003b0: 8471 b33a 8c34 a23b 8c89 6fbc 1297 e6ba
000003c0: 9abc 20bc 2812 003b ad18 cc3a 544b 56bb
000003d0: aaf2 3ebc 2253 92ba 5244 15bc f2cd 37bc
000003e0: 2cb3 44bc cd78 68bb 7b18 febb 30a0 02bb
000003f0: ca4d 5dbc b1c1 003b da62 96bb e704 9e3a
7.724835e-05 -7.652701e-05 -2.3320079e-05 -0.0029085614 -0.001050591 -0.0030004522 -2.1159321e-05 -0.0019238738
-3.818112e-06 0.00024129971 -0.0025051213 5.1861898e-05 -8.795176e-06 -0.0011984289 -1.7164646e-06 -0.002159086
-0.000347958 0.00017452997 8.0877784e-05 -9.238394e-05 -0.0019180456 8.413018e-06 -5.7977886e-05 -0.00019739548
-6.9250455e-06 -4.3114465e-05 9.2154005e-07 -0.00094898394 -0.00030619514 0.00020893452 -0.00016888406 -0.00071481196
0.00034894526 -0.0021692498 4.4255532e-05 -0.0012368461 -6.830717e-05 1.7395563e-05 -4.2612737e-07 -0.00028394905
-0.0020137278 -0.0012704562 1.6441943e-05 -0.0016085682 -0.00044577004 -0.0030465266 1.217606e-06 -0.0024864364
0.0003076879 0.00011313429 -0.0016753338 0.00019922425 3.0915458e-06 2.7669968e-05 -0.0019574182 0.0005150294
-0.0004898052 -0.00022750668 -0.002069491 -0.0017292228 0.0001547281 5.7819605e-05 -0.00015979675 -0.0016924602
0.00013681945 -6.877257e-06 -0.0036166855 -2.3765471e-05 -5.1118244e-05 -0.0005838175 5.509146e-06 9.9338635e-05
7.951584e-05 -0.00024299829 3.7995156e-05 7.2388502e-06 -1.2105067e-05 8.149884e-06 -0.00061085104 -0.0008012726
-0.0008591548 -0.00084501144 0.000103209415 -0.00020713545 2.2666456e-05 8.540738e-05 -0.0001174022 -0.0031814366
-0.0034698886 -0.00019977937 -2.5841e-06 -0.0011171639 -0.0016438486 -0.000725834 1.9317884e-05 -0.0009832786
-6.219957e-05 7.034809e-05 -0.00010557914 -0.0038949605 0.00019630333 1.617967e-05 -0.00023942163 5.3565953e-05
1.7462331e-05 -4.3762357e-05 -0.0026308442 -0.0038112807 -0.00021702948 -0.0009417553 -0.0006491387 1.9531562e-05
-2.9769959e-05 0.00022764597 0.00024072589 1.535747e-05 -8.7501794e-05 -0.00020762341 -5.0148148e-05 -0.0010957159
-0.0038815772 -5.426098e-06 -0.0038456805 2.8342505e-05 -0.002762538 4.7696085e-06 -2.947439e-05 8.1522565e-05
-0.0016104206 -0.003818525 -0.0030226526 -0.0029725116 -0.010827133 -0.005636849 -0.009124914 -0.010405729
-0.0048617236 0.0015745473 0.010254778 0.00067073444 -0.0029499556 -0.0029440294 0.0004676884 -0.018742483
-0.017130502 0.00029090303 -0.00149506 0.004304478 -0.013986649 -0.0048426944 -0.007975282 -0.025708675
-0.0016053437 -0.008692808 -0.006290351 -0.0010339771 -0.009816291 0.0005774528 0.006239053 -0.012415934
-0.00033560282 -0.004992882 -0.0023899341 -0.016549714 -0.0035099853 -0.0036108363 -0.0011967163 -0.0022858698
0.003780776 -0.008472462 7.573335e-05 -0.00017251051 -0.0059615197 -0.0026755892 -0.0010788755 -0.0034384984
-0.00032633168 4.430185e-05 -0.00043356465 0.0045661824 0.00048000098 0.00012898352 -0.015555825 0.005949297
-0.010682648 -0.025846392 -0.001923508 -0.0023405585 0.00051209296 -0.002134439 -0.015204182 -0.01113406
-0.0003719543 0.0022379425 -0.025922388 -0.0030444062 -0.00015727128 0.002355883 -0.00053603883 -0.00059023104
-0.001278212 -0.008348353 -0.0006249052 -0.0013688798 -0.0011940652 0.00045600766 -0.006826178 0.0027031938
-0.030436993 0.0020017852 -0.0018545159 0.0001099247 -0.00035199302 -3.3226097e-05 -0.0032228818 0.009171671
-0.035973787 -0.01677892 -0.0018214756 -0.001813211 -0.01150902 -0.021326255 0.000774406 0.0058115013
-0.007010554 6.201095e-05 -0.011915846 0.011665441 0.0010960537 -0.0044711516 -0.0006797321 -0.0019641693
-0.00093577604 -0.008415942 -0.019813463 -0.0029678438 0.0013690447 0.0049501117 -0.014620196 -0.001759263
-0.009810591 0.0019542072 0.0015571319 -0.0032698708 -0.011654535 -0.0011163692 -0.009110527 -0.011218535
-0.0120056085 -0.0035472394 -0.007754383 -0.0019931905 -0.013507316 0.00196467 -0.0045894207 0.0012055904
