results/Run4/PlayerRL/PlayerRL-407.onnx (onnx, 72585 bytes, 4 tensors)

network_body._body_endoder.seq_layers.0.weight f4 [128, 3]
00000000: 83f5 e33e 4a52 413d 06b5 2ebf 5b8f 52be
00000010: a8ee 27bf 66a5 79bc f64c 4b3d 9131 9c3e
00000020: f38f 58bf f787 28be b572 d0bc 25d0 f3be
00000030: d1a6 f9ba 22c8 743f 64b7 c13e b271 d33e
00000040: 5819 f73e 9c83 e5be 6b4a d7be e88f 39bf
00000050: c354 cabe 9f00 0d3f be4c 62bf 58e6 11bf
00000060: e605 ae3f a7bb 703f 4ba7 5a3e abd1 a53e
00000070: 9cbe c7be 3857 493e 68f9 893a 3dea 8c3e
00000080: cbdd 333f f8aa 873d f3a8 4fbf 46ad f93e
00000090: 52f5 703e 0ce2 2d3f e142 d43c 9541 403e
000000a0: 0dcd 973e 3297 2cbd 383a 2b3f 021d 343f
000000b0: 5c4b 26be 8060 ca3f d970 94bd 5173 05bf
000000c0: ea01 013e 6579 d3be 5f90 12bd 4c4d 103f
000000d0: 3c14 ab3f 416e c73c 18f6 073f 3251 18bd
000000e0: cc7e 123f a942 533f 5803 c23e 39e7 3e3f
000000f0: 1668 29be 1880 713e 0628 ed3d a1fc 97bf
00000100: 439f b53f d814 663e 1a59 4b3f 4b1c a6be
00000110: 655e eebd 4e16 ecbe ab04 8bbf 2d02 313e
00000120: aeab 493e 9a55 3ebd 656c 3c3e 545c 25bf
00000130: 892c 86bf 0f02 02bf 8fe4 d83d e2b6 f53f
00000140: a5e3 22be ad43 a2bd 78e2 a4bf fe08 53be
00000150: 22a7 a3bd d853 a8be 5670 8e3e 646f 37bf
00000160: 41e9 513f a3f9 1ebf fc7a cfbe 51d3 923f
00000170: f110 2fbe eb57 83bf 8b41 14bf 57c7 b93e
00000180: dfa7 38be e48e 943f 146b d23e ede0 46be
00000190: 5da0 a0be d1a8 143f 6ac3 52bf 4dba 233f
000001a0: 8f31 6b3d 1641 00bf 15da 78bf 68d3 5d3f
000001b0: 6556 5ebb 4e65 683e 089a bebe 2886 f53e
000001c0: 1c85 01be 87e7 363f 58d4 9fbf 7470 8ebe
000001d0: 783a 1ebe 567f 27be 864e dabe 1da9 f8be
000001e0: 814e 69be af32 7abd ee05 1dbe f017 cabe
000001f0: 19e5 233e 04c5 8c3e 18dc 543e f737 263f
00000200: ce71 c23e 5c0f 2cbf b255 3f3f 973a 143f
00000210: 33b3 8f3e 5902 0d3f 3299 3bbe 0135 063e
00000220: 3d59 453f 5174 873e 7bdd c13e 3e7c c43c
00000230: e34c 04be 34ea 9d3d 1fee 563f 0ff4 79bd
00000240: 4a49 75bf 1803 f1be 1aef 163f 5572 853f
00000250: 0fd3 82bd 5ab0 96be 6d03 52bf 105c 1f3f
00000260: 88de 0abf 8feb 00bf 61a7 013f 915f 91bf
00000270: 7b62 8c3d 7362 013f 8f03 d03e dc9c de3e
00000280: efba 043f d2f3 28bd 13bf 2b3e 6e4a 1dbd
00000290: c00f fc3f 5151 20bf 6364 f13e ed11 0dbd
000002a0: e849 4bbe 7753 023e 1913 bdbe ed52 483e
000002b0: 7771 153e 6843 f6be 00fb ad3e e464 a43f
000002c0: 2a4b 7e3d 63d8 eb3e bb8e 21be b38b dcbe
000002d0: 5459 39be 5bac 113f 918c 6cbf d06c 83bf
000002e0: 9aca 773f c64c 96bf 7554 f93e 81ce d1be
000002f0: a258 bfbe aa83 503e 01fc 513d f06f a93d
00000300: c072 f2be d64c d7bc 25e7 a93e 4f1b f23e
00000310: fd45 3cbe 2a01 ccbd 4b2a b9bf be2d 1f3e
00000320: 91b2 6e3f 0d07 d23e 7bd6 d2bf 85b1 97bf
00000330: 0263 e73e d24b 9fbe 5c71 0bbf eaae 1cbf
00000340: 6159 45bd 755c 6cbe 62b0 a3be 91ce 57bf
00000350: cafe 3abe 29b6 fb3c 10c1 653f a9b2 273e
00000360: 2903 0b3f 966b 933f ecf8 a13e 3d4b b43e
00000370: 18a3 1b3f 6c28 143d 70cf 4e3e 30a0 3cbf
00000380: e51a 8b3d c2b8 06bf 778d 693f 8792 4dbe
00000390: 2a0d 7bbf 975b e6be 9036 20bf 7534 8a3e
000003a0: 8801 c1bd 2063 09bf cb09 b4be fe62 17bf
000003b0: 2a5f 5f3f 837a a0be 9c27 cf3d 6486 0f3f
000003c0: b6c7 f93d 1e87 ab3d 6a17 8abe 6373 1d3d
000003d0: 6acd 83be 4f68 3d3f d137 563f 612c f0be
000003e0: e169 d13e a1d4 a73e 7e00 efbd 35dc 00bf
000003f0: 3b37 9dbe 0cfc ea3e 4e19 a0bf f4b2 483f
0.44523248 0.047197618 -0.6824497 -0.20562498 -0.65598536 -0.015237188 0.049633943 0.30506566
-0.8459465 -0.16458116 -0.025445322 -0.4761974 -0.0019046908 0.9561788 0.37835228 0.4129768
0.48261523 -0.44826972 -0.42048964 -0.7248521 -0.39517793 0.5507907 -0.8839835 -0.569921
1.359555 0.94036335 0.2135288 0.32386526 -0.3901261 0.19662178 0.0010526599 0.2752246
0.70260304 0.066244066 -0.8111717 0.4876501 0.23531082 0.67923045 0.025910797 0.18775018
0.2964863 -0.04213638 0.6688571 0.7035676 -0.16239685 1.58107 -0.072480865 -0.52129084
0.12598386 -0.41303554 -0.035782214 0.56367946 1.336555 0.024344565 0.53109884 -0.03718681
0.57224727 0.8252359 0.37893176 0.7457157 -0.16543612 0.2358402 0.115798995 -1.1873971
1.4189228 0.22468889 0.79432833 -0.3244346 -0.11639098 -0.46110767 -1.08608 0.17285986
0.19694397 -0.046468355 0.18400724 -0.64594007 -1.0482341 -0.5078439 0.10590469 1.9196436
-0.15907152 -0.079230644 -1.2881613 -0.20608899 -0.079908624 -0.32876468 0.2782008 -0.71654344
0.8199654 -0.62099665 -0.40523517 1.1470739 -0.17096306 -1.0261205 -0.5791251 0.36284897
-0.18032788 1.1606107 0.4109732 -0.1942174 -0.31372347 0.58070093 -0.8232943 0.6395615
0.05742031 -0.50099313 -0.97207767 0.86650705 -0.0033926007 0.22694895 -0.37226892 0.47953916
-0.12648433 0.7144703 -1.2486677 -0.2782017 -0.15451992 -0.16357169 -0.42638034 -0.48566523
-0.22783853 -0.061083492 -0.15334293 -0.39471388 0.16005363 0.2749406 0.20787084 0.64929146
0.3797745 -0.67210937 0.74740136 0.579019 0.28066406 0.5508171 -0.18320158 0.13106157
0.7708929 0.2645593 0.3786429 0.023985025 -0.12919955 0.07710686 0.83957094 -0.061023768
-0.95814955 -0.47072673 0.5895859 1.0425516 -0.063879125 -0.2943142 -0.8203648 0.6224985
-0.54245806 -0.50359434 0.50646025 -1.135729 0.06854721 0.50540847 0.40627715 0.4347905
0.5184774 -0.04124815 0.16772108 -0.03840106 1.9692307 -0.6262408 0.471469 -0.034440923
-0.19852412 0.12727152 -0.36928633 0.19562884 0.14594065 -0.48098302 0.3398056 1.2843289
0.0620834 0.46063527 -0.15777104 -0.43075332 -0.18100482 0.5690362 -0.9240199 -1.0267582
0.9679352 -1.1742179 0.48697248 -0.40977862 -0.3737231 0.20362726 0.05126572 0.082733035
-0.47353172 -0.026281755 0.33184162 0.4728646 -0.18386073 -0.099611595 -1.4466032 0.15544793
0.9324122 0.41021004 -1.6471704 -1.185105 0.45192724 -0.31112534 -0.5446985 -0.612044
-0.04818094 -0.23082145 -0.31970507 -0.8429957 -0.18261257 0.03072651 0.89747715 0.16376747
0.54301697 1.1517208 0.31635225 0.35213652 0.60795736 0.03617136 0.20196319 -0.73681927
0.06792239 -0.5262567 0.91231483 -0.20075427 -0.9806696 -0.44991753 -0.62583256 0.26993147
-0.0942412 -0.5366688 -0.3516372 -0.59135425 0.87254584 -0.3134347 0.10114977 0.5606444
0.12196295 0.08375381 -0.2697099 0.03844012 -0.25742656 0.7398729 0.8367892 -0.46908858
0.40901092 0.3277941 -0.11670016 -0.5033601 -0.307062 0.45895422 -1.2507722 0.7839806

network_body._body_endoder.seq_layers.0.bias f4 [128]
00000000: 0000 0000 0000 0000 0000 0000 0000 0000
00000010: 0000 0000 0000 0000 0000 0000 0000 0000
00000020: 0000 0000 0000 0000 0000 0000 0000 0000
00000030: 0000 0000 0000 0000 0000 0000 0000 0000
00000040: 0000 0000 0000 0000 0000 0000 0000 0000
00000050: 0000 0000 0000 0000 0000 0000 0000 0000
00000060: 0000 0000 0000 0000 0000 0000 0000 0000
00000070: 0000 0000 0000 0000 0000 0000 0000 0000
00000080: 0000 0000 0000 0000 0000 0000 0000 0000
00000090: 0000 0000 0000 0000 0000 0000 0000 0000
000000a0: 0000 0000 0000 0000 0000 0000 0000 0000
000000b0: 0000 0000 0000 0000 0000 0000 0000 0000
000000c0: 0000 0000 0000 0000 0000 0000 0000 0000
000000d0: 0000 0000 0000 0000 0000 0000 0000 0000
000000e0: 0000 0000 0000 0000 0000 0000 0000 0000
000000f0: 0000 0000 0000 0000 0000 0000 0000 0000
00000100: 0000 0000 0000 0000 0000 0000 0000 0000
00000110: 0000 0000 0000 0000 0000 0000 0000 0000
00000120: 0000 0000 0000 0000 0000 0000 0000 0000
00000130: 0000 0000 0000 0000 0000 0000 0000 0000
00000140: 0000 0000 0000 0000 0000 0000 0000 0000
00000150: 0000 0000 0000 0000 0000 0000 0000 0000
00000160: 0000 0000 0000 0000 0000 0000 0000 0000
00000170: 0000 0000 0000 0000 0000 0000 0000 0000
00000180: 0000 0000 0000 0000 0000 0000 0000 0000
00000190: 0000 0000 0000 0000 0000 0000 0000 0000
000001a0: 0000 0000 0000 0000 0000 0000 0000 0000
000001b0: 0000 0000 0000 0000 0000 0000 0000 0000
000001c0: 0000 0000 0000 0000 0000 0000 0000 0000
000001d0: 0000 0000 0000 0000 0000 0000 0000 0000
000001e0: 0000 0000 0000 0000 0000 0000 0000 0000
000001f0: 0000 0000 0000 0000 0000 0000 0000 0000
0.0 0.0 0.0 0.0 0.0 0.0 0.0 0.0
0.0 0.0 0.0 0.0 0.0 0.0 0.0 0.0
0.0 0.0 0.0 0.0 0.0 0.0 0.0 0.0
0.0 0.0 0.0 0.0 0.0 0.0 0.0 0.0
0.0 0.0 0.0 0.0 0.0 0.0 0.0 0.0
0.0 0.0 0.0 0.0 0.0 0.0 0.0 0.0
0.0 0.0 0.0 0.0 0.0 0.0 0.0 0.0
0.0 0.0 0.0 0.0 0.0 0.0 0.0 0.0
0.0 0.0 0.0 0.0 0.0 0.0 0.0 0.0
0.0 0.0 0.0 0.0 0.0 0.0 0.0 0.0
0.0 0.0 0.0 0.0 0.0 0.0 0.0 0.0
0.0 0.0 0.0 0.0 0.0 0.0 0.0 0.0
0.0 0.0 0.0 0.0 0.0 0.0 0.0 0.0
0.0 0.0 0.0 0.0 0.0 0.0 0.0 0.0
0.0 0.0 0.0 0.0 0.0 0.0 0.0 0.0
0.0 0.0 0.0 0.0 0.0 0.0 0.0 0.0

network_body._body_endoder.seq_layers.2.weight f4 [128, 128]
00000000: feac 5f3d 4ec5 6f3d 4f85 94bd e30a 0fbd
00000010: c545 49bc 0fc2 04bd 6d77 1bbe b5fd b83a
00000020: a868 febc 3c85 bc3c fd43 803d 1d8a 60bd
00000030: 602d 003e 663a a3bd 40ee d6bc 69c4 dcbc
00000040: 1280 81bd f9e8 c2bd ae00 8d3c 35ed f43d
00000050: 8141 4f3c 9960 b6bd 3bf6 443a 3fa8 ad3d
00000060: 56f4 7fbd 50ff a8bd d2e0 5dbd bfee ca3d
00000070: 0fbd 383d e07b 743d 4257 02be c920 a2bc
00000080: bbe8 31bc 725e 3f3d 0707 4bbd fa97 c8bc
00000090: 9ff3 14be 4b01 b6bd a48e 8d3c 646e 5dbd
000000a0: 604b 06be 71f5 22bd b440 96bd c48f 90bd
000000b0: 65b7 07be a6c9 57bd 28b4 e1bd 7473 8a3d
000000c0: 09e8 5ebe 5b1d f1bc 7be6 92bd eeb7 84bd
000000d0: e7a3 54bd e5cd 1c3e 7e1d 143d 8359 20bd
000000e0: 4bf1 a83c 8c3c f83d ec88 31bd 3bf7 17be
000000f0: bd48 3e3d 56f5 1d3e 895b 9fbd 5121 30bd
00000100: d926 bd3d 7608 8dbd 8877 62bd c026 063d
00000110: 0ebd 84bb 9be8 2f3c ba93 b0bc 377d 6abc
00000120: 70d3 b1bd 344e d6bc 4496 babb 214d 9cbd
00000130: 993c a53d 0867 093d b98c 973c 6463 683d
00000140: c4ad 45be 7a2b 5f3b 7758 9a3d e927 be3d
00000150: 0650 d73d b9d4 99ba 5efa 0dbc 28b6 173d
00000160: 3b7a ac3d 9d17 0ebd 0d78 47bd 88ce 253d
00000170: 6974 14be c81a de3c 3662 7c3d 12d1 06be
00000180: 9006 9dbd f4ae c93c 2bc9 783d 74d6 fc3d
00000190: 6ffa f63c 9a4e 3fbe 732f 2cbe 0723 ad3d
000001a0: ed08 17bd 3684 f03c ba69 f9bd b329 633d
000001b0: d826 bd3c a544 f7bd 46fd fcbc b93f 27bd
000001c0: 46cc 0a3d 81b1 16be e193 8b3d bf49 78bc
000001d0: a185 e53c 9725 8f3b c823 813d f48d 14be
000001e0: 6aa7 d03d 154c 103b f9fa 9bbd c537 17bd
000001f0: 2e55 acbc c5e1 dd3d 4755 303d e44f 9a3d
00000200: 2bc6 913d d55f b4bd f6cd 3bbd 89d0 063e
00000210: 5934 36bd 1609 74bc 07f3 2abe 45d2 f2bd
00000220: a3d4 053c 03c6 1dbc 71e8 93bc e550 083e
00000230: 9bc7 4fbd 3b0c bb3d 9513 a23e 8fe6 523b
00000240: 8515 d2bd 024c debd 645b 2c3e 9a33 3b3d
00000250: 78c8 6c3d e99b 90bd 3a78 9a3c efc7 353e
00000260: 9bb9 4bbd 038a cabd 5b2d b7bd d815 133e
00000270: 6ec4 88bb e520 0c3d 42ae 75bc f5b3 c5bc
00000280: ffdb 6bbd 1616 c93d 37af 363c e5c6 05be
00000290: 6094 1f3d 3360 b6bc 34d0 c03d e648 06be
000002a0: 71ea 03be 278e 80bd b523 a9bc 93ab 8b3d
000002b0: 30ce 733d a15a 3e3d 52f2 fe3d 5bc9 cf3d
000002c0: 213c b1bd 1a51 36bd aae0 3b3c 9c17 f23b
000002d0: 8c2e cabc 8dc0 9a3d f914 d33c b708 5bbe
000002e0: b5f2 09bd d17d 0dbe c788 933d 5fb9 84bd
000002f0: e8da 33be 1cf2 a63c 08f7 bbbb 7283 40bc
00000300: e57a 733d ef80 3d3d e1f9 bbbc 413b 063d
00000310: 6411 dfbc 6c14 313c 8ddf d9bd 5b7f 6abd
00000320: b848 253c d5d0 8a3d 06ed 8f3d 42d7 12bc
00000330: 13e7 f8bc 6d9a fa3b 9228 013e 8245 64bd
00000340: 45dc b7bd 183e cf3d bee2 c6bd c73c 8bbd
00000350: c037 8b3d 9a1e c33c 0976 53bc 15d5 c53c
00000360: 6390 a2bd e3be f1bd 8833 abbd 8ad5 ab3d
00000370: 81e1 bdbd f346 53bc 8490 15bd e032 ae3c
00000380: c40f 883d a25d 2c3d 273c d6bd bb09 29bd
00000390: 1362 7f3d 575d a13d ffa0 193b 27c6 2bbc
000003a0: ad1e 793d c4f2 363d 0bbc 0dbe 37f7 073e
000003b0: b663 993d 5e1c bdbd 0b9b 0fbd b6a7 c4bb
000003c0: 5f84 c03b 7e2b e53d fad8 803c 3b75 5e3c
000003d0: 3f45 a8bd 92d7 18bd b9a6 22bd 177e e0bd
000003e0: 8fc3 813b 954d 92bd be6f abbd 6d31 613d
000003f0: 4798 653d e781 9a3d cbd3 143e 9d2a 0f3d
0.054608338 0.058537774 -0.07251989 -0.03492249 -0.012284701 -0.03241163 -0.15182276 0.0014113697
-0.031055763 0.02301275 0.06262968 -0.054819215 0.12517309 -0.07970123 -0.026236653 -0.026949124
-0.063232556 -0.09517092 0.017212238 0.11959306 0.012649895 -0.08905143 0.0007513498 0.08479356
-0.062488876 -0.08251822 -0.054169483 0.099088185 0.045102175 0.05968845 -0.12728599 -0.019791024
-0.01085871 0.04672093 -0.04956725 -0.02448653 -0.14546059 -0.08886965 0.01727993 -0.054060355
-0.13114691 -0.039784852 -0.0733656 -0.07058671 -0.13253553 -0.05268254 -0.1102069 0.06760302
-0.21768202 -0.029432943 -0.07172867 -0.06480394 -0.051914122 0.15312918 0.03616094 -0.039147865
0.02062287 0.121209234 -0.04334347 -0.14840405 0.046456087 0.1542562 -0.07781131 -0.043000523
0.09235925 -0.068863794 -0.055289775 0.0327518 -0.0040508574 0.01073661 -0.021554817 -0.01431208
-0.08682907 -0.026160337 -0.0056941826 -0.07631899 0.08068199 0.033545524 0.018499719 0.05673541
-0.19304568 0.0034053014 0.075364046 0.09284956 0.1051331 -0.001173637 -0.008665649 0.037038952
0.08421751 -0.034690488 -0.048698474 0.040480167 -0.14497532 0.02711238 0.0616171 -0.13165691
-0.07667267 0.024619557 0.060738724 0.12345591 0.030148713 -0.18682328 -0.16814975 0.084539466
-0.036873747 0.029359918 -0.12178369 0.05545969 0.023089811 -0.1207364 -0.030882489 -0.040832255
0.033886217 -0.1471615 0.06815315 -0.015154301 0.02801782 0.0043684947 0.06305653 -0.14507276
0.10188182 0.0022018005 -0.076162286 -0.03691842 -0.02103671 0.10834078 0.043050077 0.07534769
0.07117876 -0.08807341 -0.045850717 0.13165487 -0.044483516 -0.014894744 -0.1669427 -0.11856512
0.008168372 -0.009629729 -0.018055173 0.13312109 -0.050727468 0.09133192 0.31655565 0.003218088
-0.10258011 -0.10854341 0.16831738 0.045703508 0.05780837 -0.070609875 0.018856157 0.1775205
-0.049737554 -0.09889605 -0.08944198 0.14363801 -0.004173807 0.03421106 -0.01499516 -0.024133662
-0.05758285 0.09818666 0.011150173 -0.13064153 0.03895986 -0.022262668 0.094147116 -0.13113746
-0.12882401 -0.062771134 -0.02064691 0.068198346 0.059522808 0.04647315 0.12448563 0.101458274
-0.08654047 -0.04451094 0.011467138 0.0073880684 -0.024680398 0.075562574 0.025766836 -0.21390043
-0.03367873 -0.13817526 0.072038226 -0.06480669 -0.17563975 0.020379119 -0.0057362355 -0.011750089
0.059443373 0.04626554 -0.0229463 0.032771353 -0.027229972 0.010808092 -0.10638342 -0.057250362
0.010088138 0.06778113 0.070276305 -0.008962454 -0.030383622 0.0076478035 0.12613133 -0.05573035
-0.0897756 0.10119265 -0.097112164 -0.06798702 0.06797743 0.023818303 -0.01290656 0.024149457
-0.07937696 -0.11803987 -0.08359438 0.08390339 -0.09271527 -0.012895334 -0.036514774 0.021264493
0.06643632 0.042081483 -0.10460692 -0.041269045 0.06234939 0.07879131 0.0023441908 -0.010484255
0.06082027 0.044665113 -0.13841264 0.13277899 0.074897215 -0.09233926 -0.03505997 -0.006001438
0.005875155 0.11189936 0.015728462 0.013577755 -0.08216333 -0.03731496 -0.03970978 -0.1096155
0.00396008 -0.07143704 -0.083709225 0.054978777 0.056053426 0.07544308 0.14533918 0.03495275

action_model._continuous_distribution.mu.weight f4 [1, 128]
00000000: 98da 143c f225 27bc e430 b5bb c474 153c
00000010: 3d66 5dbc 8b1f 893c af55 953b 854a b5bb
00000020: 6e45 04bd 4fd8 d33b cbc1 e13b 4f3a b9bb
00000030: 2b7a 8e3c 6200 37bd 9716 a9bc 8d9a 4ebc
00000040: d1ee 973c 823a 5bbc 37a8 b03b 1829 ce3c
00000050: 1ce2 91bc 3836 bc3b afd7 533b cafc d53b
00000060: 322d 503c 6745 fabb e7ac 11bc b574 453b
00000070: 138f 16bd 1769 ea3a 1acd acbc 57ec 863c
00000080: 9ce4 0cbc 19d7 8c3b df9d cebb ac76 3ebc
00000090: 45b3 d3bb da9c 003c e3f4 8f3c f7e4 eabb
000000a0: 4f0a c5bc fad4 a13b 04ea 37bd a2fc 79bc
000000b0: b6ea a6bb a219 213c ca68 7e3c 7364 bebb
000000c0: 767e 9b3b 2f42 48bc 981d 753c 174c 923c
000000d0: f715 90bc ecb4 3e3c 0ca9 2abc 202b 733c
000000e0: d2bd 05bc 0b67 b43a 8dc9 04bb 271c 88bb
000000f0: 8880 4fbd d87d 583c 22ce 5fbc e802 01bd
00000100: 1cf0 87bc df0b 7a3c a0cd 2a3d 83da 0a3d
00000110: 2338 713b 4640 1d3c 9a07 d4bc 1364 a63c
00000120: 9be3 e03b e90a 283c b50e c7bc 72b9 02bc
00000130: bb7d 393c a342 413b ea9a c2bb 79da 23bc
00000140: c858 11bb 28ee 633b ad75 0abb 306a 123c
00000150: 7ad0 be3b e17c a2bb 5b88 39b9 0f5f 0cbd
00000160: eb81 bc3c 142b 1839 5db6 9bbc 8a47 00bc
00000170: d379 2abc cd91 9f3c 1fdb aabc 2504 f33b
00000180: 58ed cf3b c5dc b93c 75f9 d7bb 4133 82bb
00000190: 6f1a 563d f158 aabc 8dc2 723a 1972 25bc
000001a0: 4bbe cfbc 0b5f 59bc 087b b1bc 4971 11bc
000001b0: e2ec 00bb 63de ddbc adff ddbc 034a 9a3c
000001c0: 641c adbc 7ef9 c7bb 4a50 51bc 24ec 83ba
000001d0: 6142 91bb 1722 7f3c 1f96 aa3b b3d7 063c
000001e0: 7c49 3c3b cf48 ff3c a2b6 583c c240 dd3b
000001f0: 32a1 fa3a 6828 593c 9022 2dbd 4f35 ffbc
0.00908532 -0.010201918 -0.00552951 0.009122077 -0.013513145 0.016738674 0.0045573334 -0.005532565
-0.032292776 0.006464995 0.006889557 -0.005652703 0.017392239 -0.0446781 -0.020640654 -0.01261009
0.018546494 -0.013380649 0.0053911465 0.02516608 -0.017808013 0.005743768 0.0032324602 0.006530379
0.012706088 -0.007637668 -0.008891321 0.0030129377 -0.03675754 0.0017884102 -0.021093894 0.016470117
-0.008599427 0.0042981026 -0.006305441 -0.011624973 -0.0064605796 0.007849896 0.017572826 -0.007168408
-0.024052767 0.004938719 -0.04490091 -0.015257986 -0.0050938977 0.0098327715 0.015527913 -0.0058103143
0.0047453 -0.012222811 0.014960669 0.017858548 -0.017588599 0.011639815 -0.0104162805 0.014841825
-0.0081629325 0.0013763619 -0.0020261735 -0.0041537466 -0.050659686 0.013213597 -0.013659986 -0.031496912
-0.016593985 0.015261619 0.041700006 0.033899795 0.0036807142 0.0095978435 -0.025882531 0.020311391
0.00686307 0.010256507 -0.024299005 -0.007978784 0.01132148 0.0029489181 -0.0059388774 -0.010000818
-0.0022178162 0.0034779403 -0.002112727 0.00893645 0.005823192 -0.0049587344 -0.00017693771 -0.034270342
0.023011168 0.00014511897 -0.019007856 -0.007829556 -0.010405022 0.019478703 -0.020856438 0.0074162656
0.0063454323 0.022688279 -0.006591017 -0.003973395 0.052271303 -0.020794364 0.00092605577 -0.010098004
-0.025359293 -0.013267289 -0.021665111 -0.008877107 -0.0019672443 -0.027083581 -0.027099455 0.01883412
-0.021131702 -0.00610274 -0.01277549 -0.0010064882 -0.004432962 0.0155720925 0.005205884 0.008230138
0.0028730324 0.031162648 0.013227137 0.0067521045 0.0019121526 0.0132542625 -0.04226929 -0.03115335
