results/FireAndRock/PlayerRL/PlayerRL-2533.onnx (onnx, 80786 bytes, 9 tensors)

network_body._body_endoder.seq_layers.0.weight f4 [128, 10]
0	0x3c7f8367	0.015595294
1	0xbe5380c1	-0.20654584
2	0x3eb092b3	0.34486923
3	0x3e251409	0.16120924
4	0x3ea90415	0.33010927
5	0x3da0c769	0.078505345
6	0xbde6a9aa	-0.112628296
7	0xbf0a732c	-0.5408199
8	0x3ea368e4	0.31915963
9	0xbe9303de	-0.28713888
10	0xbde52363	-0.1118839
11	0xbe78724a	-0.24262348
12	0xbe319fca	-0.17346111
13	0xbdbcdd23	-0.09221866
14	0x3eb74b64	0.35799706
15	0xbe6a3366	-0.2287117
16	0xbf2d5674	-0.6771004
17	0xbe2a5c54	-0.16636783
18	0xbdf30f48	-0.11868149
19	0xbe293ecf	-0.16527866
20	0x3eabb0f2	0.33533436
21	0xbd63825b	-0.05554424
22	0x3ec5792f	0.38569018
23	0x3c9c1ab5	0.019055704
24	0xbea7df8f	-0.3278775
25	0xbdba0394	-0.09082714
26	0xbdd44298	-0.10364264
27	0xbedf4277	-0.43605396
28	0x3eefe8f2	0.4685741
29	0xbe7ca00c	-0.24670428
30	0x3d97019c	0.07373354
31	0xbe876d94	-0.2645079
32	0xbf09ce05	-0.53829986
33	0x3d7c03cc	0.06152706
34	0x3db1d215	0.08682648
35	0x3db6b509	0.089212485
36	0xbe573a39	-0.21018304
37	0x3d79d99b	0.06099854
38	0x3ee1b669	0.4408448
39	0x3e6b1bb5	0.22959788
40	0xbeedd55a	-0.46451837
41	0x3de807ed	0.11329637
42	0x3e01c7d6	0.12673888
43	0x3ecca82a	0.3997205
44	0x3e776ae7	0.24161874
45	0x3e2859fa	0.16440573
46	0x3eb6ee2b	0.35728583
47	0xbd73d88f	-0.0595327
48	0x3d029f63	0.031890284
49	0xbe0dae8f	-0.1383612
50	0x3d075c56	0.033047043
51	0x3eb5771c	0.35442436
52	0xbef618fc	-0.48065937
53	0xbeb99494	-0.3624617
54	0xbe5c4f70	-0.21514678
55	0xbd244913	-0.04010875
56	0xbd8e1bbc	-0.06938884
57	0x3eedc217	0.4643714
58	0xbdd702a3	-0.1049855
59	0x3e2d19a1	0.16904308
60	0x3f2b2616	0.6685499
61	0xbcf5cc8b	-0.03000476
62	0x3f20361f	0.6258258
63	0x3f281971	0.6566382
64	0x3edf8e28	0.43663144
65	0x3e52a723	0.2057157
66	0xbe4a725b	-0.19770186
67	0x3ed1167f	0.40837476
68	0x3d53b03d	0.051681746
69	0x3e3b74de	0.183063
70	0x3e6188d4	0.22024852
71	0xbf033389	-0.5125051
72	0x3eb7795d	0.3583478
73	0xbe8e6b2f	-0.2781615
74	0x3dec5187	0.115389876
75	0xbd508b4f	-0.050914105
76	0xbdfdfce9	-0.124017544
77	0x3ee66ef8	0.45006537
78	0x3cc698e9	0.024242835
79	0x3da86ee1	0.082242735
80	0xbdb3d320	-0.08780503
81	0x3ebe25cf	0.3713822
82	0xbdb6fc93	-0.089348935
83	0x3e1fc4ef	0.15602468
84	0xbe51ab95	-0.2047561
85	0xbe38ab37	-0.18034063
86	0xbdfe3979	-0.12413306
87	0xbdb887ed	-0.09010301
88	0xbe3ff5fe	-0.18746182
89	0x3e3e4a03	0.1858292
90	0xbeaf7297	-0.34267113
91	0x3e87f154	0.26551306
92	0x3e1fdc96	0.1561149
93	0xbea50527	-0.32230493
94	0xbea5e29a	-0.32399446
95	0x3eb04f26	0.34435385
96	0x3f0554e9	0.5208269
97	0x3d52801d	0.05139171
98	0x3d41f83b	0.04735587
99	0xbed4b5ed	-0.41545048
100	0x3d5fd7c8	0.054649144
101	0xbea860ac	-0.32886255
102	0xbe8b4d71	-0.2720752
103	0x3bfc281b	0.0076952106
104	0xbda80990	-0.08204949
105	0xbcd61376	-0.026132327
106	0xbe15687e	-0.14590642
107	0xbe25040d	-0.16114827
108	0xbf1fc224	-0.6240561
109	0x3d4a6062	0.049408324
110	0xbec8d273	-0.3922306
111	0xbf0626b0	-0.5240278
112	0xbf5475c2	-0.82992184
113	0x3bf3e20a	0.0074427174
114	0xbedf42e3	-0.43605718
115	0xbf1642fc	-0.5869596
116	0x3e8e2be4	0.2776786
117	0xbec4a922	-0.38410288
118	0xbea60ff5	-0.3243405
119	0x3e7c951a	0.24666253
120	0x3de7ac2a	0.113121346
121	0x3e675910	0.22592568
122	0x3dc3a550	0.09553015
123	0x3d9cfadd	0.07665036
124	0x3d4225da	0.04739938
125	0x3f07b0dd	0.53004247
126	0x3da0a223	0.07843425
127	0x3cb78122	0.022400443
128	0xbd949aff	-0.07256126
129	0x3edbabfe	0.42904657
130	0x3ec70b19	0.38875654
131	0x3de6cbdb	0.11269351
132	0xbd588c4e	-0.05286818
133	0x3d8a0ccd	0.06740723
134	0x3d47d15f	0.048783656
135	0x3d5b6373	0.05356164
136	0xbe17def0	-0.14831138
137	0x3e006955	0.12540181
138	0x3eaea718	0.34111857
139	0x3dd45b82	0.10369016
140	0xbeb90f9c	-0.36144722
141	0xbe01550a	-0.12630096
142	0xbda66fd4	-0.08126798
143	0xbc6d1eaf	-0.014472648
144	0x3af1f9c6	0.0018461279
145	0xbdc1d877	-0.094651155
146	0x3ec54385	0.38528076
147	0x3e5a797b	0.21335404
148	0xbeed99de	-0.46406454
149	0x3eb42120	0.35181522
150	0x3eb27123	0.3485194
151	0xbefb918f	-0.4913449
152	0xbf00f638	-0.503757
153	0xbe80a060	-0.25122356
154	0xbebb2d79	-0.3655813
155	0x3e8e7768	0.27825475
156	0xbbcba40a	-0.0062146233
157	0xbe14e24e	-0.14539453
158	0xbf6ee122	-0.93312275
159	0x3dad4d75	0.084620394
160	0x3e8d83f8	0.27639747
161	0x3d3b8815	0.045784075
162	0xbdd787a3	-0.105239175
163	0xbe8030d8	-0.25037265
164	0xbe5d94c6	-0.21638784
165	0xbc148a13	-0.009066123
166	0x3dd3c910	0.10341084
167	0xbc7d37b3	-0.015455174
168	0xbe73299c	-0.23746341
169	0xbe5ad2d3	-0.21369486
170	0x3e24a3bd	0.16078086
171	0x3e46833d	0.19386001
172	0xbebfa41e	-0.374299
173	0xbecb3d8a	-0.39695388
174	0xbc8705b2	-0.016482208
175	0xbe24b86e	-0.1608598
176	0x3d33d0a8	0.043900162
177	0xbed67b5c	-0.4189099
178	0x3ebbe1f0	0.36695814
179	0xbdb5f79a	-0.08885117
180	0xbd933ed8	-0.07189721
181	0x3ecc3b2c	0.39888895
182	0xbe1b3639	-0.15157403
183	0xbe2d5c31	-0.169297
184	0x3dd02c8d	0.101647474
185	0x3d86f969	0.0659054
186	0xbe0e916e	-0.13922665
187	0xbdcb291c	-0.0991995
188	0xbea02467	-0.31277773
189	0x3f26d304	0.65165734
190	0x3c827b1e	0.015927847
191	0x3d82ea3d	0.06392334
192	0xbe940db8	-0.28916717
193	0xbdfd2101	-0.123598106
194	0xbea370b7	-0.31921932
195	0x3d9dd26e	0.07706152
196	0x3da6abe1	0.08138252
197	0x3e518226	0.20459804
198	0xbeb854e3	-0.36002263
199	0x3f19fed1	0.60154444
200	0x3e00090c	0.12503451
201	0x3eb52fdc	0.35388076
202	0x3e8e35d3	0.2777544
203	0xbea6de45	-0.32591453
204	0x3e50853c	0.20363325
205	0xbf266f81	-0.6501389
206	0xbf26cfa2	-0.6516057
207	0x3ccd3d76	0.02505372
208	0xbe7456fb	-0.23861305
209	0x3ed91fbd	0.42407027
210	0x3e96f682	0.29484946
211	0xbe2fe6dc	-0.1717791
212	0x3e657745	0.22408779
213	0x3cd09cde	0.025465425
214	0x3d972d98	0.07381743
215	0x3c750ad9	0.0149562
216	0xbdb2e4dd	-0.087350585
217	0xbdb95692	-0.09049715
218	0x3edcb524	0.4310695
219	0x3ed5b913	0.41742763
220	0x3f07d07e	0.5305251
221	0x3e93b8db	0.2885197
222	0xbe248b03	-0.16068654
223	0xbe9f16b4	-0.3107201
224	0xbd09bdfd	-0.033628453
225	0x3f1c4bec	0.6105335
226	0x3dca811b	0.09887906
227	0xbe4376ed	-0.19088335
228	0x3e6906a0	0.22756433
229	0xbedd1cc3	-0.43186006
230	0xbda24cb1	-0.07924784
231	0x3e96a1c2	0.29420286
232	0xbe8a62a7	-0.2702839
233	0xbe738832	-0.23782423
234	0x3e821582	0.25407034
235	0xbeebf498	-0.46085048
236	0xbd8fd568	-0.07023126
237	0xbe87b3b0	-0.26504278
238	0x3f1222ac	0.57084155
239	0xbdf2090a	-0.1181813
240	0xbee96e52	-0.4559198
241	0x3dba96a6	0.09110765
242	0xbecfb904	-0.40570843
243	0xbec21de9	-0.37913445
244	0x3dd33d71	0.103144534
245	0x3dbe4c4d	0.09291897
246	0xbeebf66e	-0.46086448
247	0x3de8067c	0.11329362
248	0x3e60acd2	0.21940926
249	0x3ee89b63	0.4543105
250	0x3e602e15	0.21892579
251	0x3ed4ea5e	0.41585058
252	0x3cc5cb4d	0.024144793
253	0xbe4bfe8e	-0.19921324
254	0xbea04850	-0.3130517
255	0xbe24c949	-0.16092409

network_body._body_endoder.seq_layers.0.bias f4 [128]
0	0xba1972f3	-0.00058536156
1	0x3b014393	0.0019724115
2	0x3a89d04a	0.0010514345
3	0x3b0b5f07	0.0021266358
4	0x3ac398df	0.0014922878
5	0x3a1715be	0.0005763433
6	0xba6549ac	-0.00087466347
7	0xbad0c502	-0.0015927854
8	0xbb73de18	-0.0037211236
9	0x39382017	0.00017559562
10	0xb9138c58	-0.00014071295
11	0xbab985a9	-0.0014154214
12	0x39852b06	0.00025399792
13	0xba8a8e40	-0.0010570958
14	0xbb4f833d	-0.0031663917
15	0x3abdf786	0.0014493323
16	0xbaca0f32	-0.0015415906
17	0xba1921af	-0.0005841506
18	0x3b1efd62	0.0024259915
19	0xbac622f2	-0.0015116616
20	0xbbbc5db4	-0.005748475
21	0xbb073a1f	-0.0020634008
22	0xbb32581f	-0.0027213169
23	0xbab704e8	-0.0013963254
24	0x3b00bed4	0.0019644992
25	0x3b06044b	0.0020449336
26	0x3a02cdf7	0.00049897976
27	0x3a103354	0.00055008125
28	0x3b9179b2	0.004439556
29	0x3ba0ef1c	0.0049113166
30	0xbaa86333	-0.0012846946
31	0x39915465	0.00027719434
32	0x3a5de6af	0.00084648555
33	0xbab5b1a6	-0.0013862147
34	0xbbbf8dbd	-0.005845754
35	0xbb303b37	-0.0026890764
36	0xbbabcbcf	-0.0052428017
37	0x3b4aa7e9	0.0030922836
38	0x3b2e285a	0.0026574344
39	0xbb0f4b12	-0.0021864814
40	0xbb0adfce	-0.0021190527
41	0x3a1d1aa2	0.00059930433
42	0x39c1367e	0.00036852428
43	0x3b42ee3f	0.0029744057
44	0xba98d1cd	-0.0011659205
45	0x3a8a9fe8	0.001057622
46	0xbb86a6ad	-0.004109225
47	0x3a89a0c3	0.0010500181
48	0x3a9d0b66	0.0011981546
49	0xb99bb890	-0.00029701414
50	0xb991ae22	-0.00027786294
51	0xbb047868	-0.002021337
52	0x3af2b42a	0.0018516828
53	0xbac92ee1	-0.0015349054
54	0xbaca4b72	-0.0015433861
55	0x3a14d010	0.00056767557
56	0x3a65c35f	0.00087647693
57	0x3b3685b6	0.0027850694
58	0x3bd77a94	0.0065758917
59	0xbacbcd14	-0.0015548789
60	0xbb434f6c	-0.0029801978
61	0x3afea242	0.0019427019
62	0xbb8dc542	-0.0043264935
63	0xba63dc02	-0.00086921465
64	0x3bb0b15e	0.0053922376
65	0xb9b3dbc7	-0.00034305287
66	0xbb25dbdf	-0.0025308055
67	0x3b22d53c	0.0024846336
68	0xbb2a3c36	-0.002597583
69	0x3b8152ea	0.0039466517
70	0xb9c7c0ac	-0.0003809979
71	0xba51e6c8	-0.00080071064
72	0xba6ec9b8	-0.0009109038
73	0x3b5d72f7	0.0033790448
74	0xbabf841e	-0.0014611518
75	0xbabd0755	-0.0014421741
76	0xbb859777	-0.004076894
77	0x3a2c3d37	0.0006570401
78	0xbb7cce47	-0.00385751
79	0x3a87c61c	0.0010358724
80	0x3a7bda6e	0.00096074387
81	0xba9263b0	-0.0011168625
82	0xba353e73	-0.0006913908
83	0xba4de9f4	-0.0007854991
84	0x3aeafdb6	0.0017928395
85	0xbb784e64	-0.0037888521
86	0x3b2cdbb6	0.0026376075
87	0xba360196	-0.00069429853
88	0xbac9a4d5	-0.0015384207
89	0xbaa10cfd	-0.0012287196
90	0x3b7285eb	0.003700609
91	0xbb2a52b0	-0.0025989227
92	0xb9d01836	-0.0003969089
93	0x39a3547b	0.00031152726
94	0xb8e095dd	-0.000107090666
95	0xba82444f	-0.000993857
96	0x3adc1ee4	0.0016793874
97	0x3a521527	0.0008014016
98	0x3bb44bc6	0.005502197
99	0x3bc1e96a	0.0059177177
100	0x392a675c	0.00016250968
101	0xbc02ad55	-0.007975896
102	0xbac7a0b9	-0.0015230394
103	0xbac5e3aa	-0.0015097756
104	0xbb04b7fa	-0.002025126
105	0x3a6f33f0	0.0009124866
106	0x3af7477e	0.0018865911
107	0xb770db80	-1.4356221e-05
108	0xbb50b5e2	-0.0031846692
109	0x3abd11b5	0.0014424833
110	0xb8cc9a8e	-9.756266e-05
111	0xbb45547c	-0.003011017
112	0x375ae87c	1.3047942e-05
113	0x3a79c154	0.00095274043
114	0xbb735a3b	-0.003713264
115	0xbb8efba7	-0.0043634954
116	0x3a831cb3	0.001000306
117	0xbac9a0bb	-0.0015382984
118	0xbbb8e0f3	-0.0056420504
119	0xb9e3da6a	-0.00043459545
120	0x3a8f7c16	0.0010947015
121	0xbada5289	-0.0016656677
122	0x3b365524	0.0027821744
123	0xba5b07f0	-0.000835537
124	0xbb3fedaa	-0.0029285946
125	0xbaa2122a	-0.0012365032
126	0xb88ee50c	-6.813751e-05
127	0x3a0d1795	0.0005382237

network_body._body_endoder.seq_layers.2.weight f4 [128, 128]
0	0x3c02fb34	0.007994462
1	0xbdd41e7e	-0.103573784
2	0x3d66991c	0.05629836
3	0x3b7bafd3	0.003840436
4	0x3c5ad85d	0.013357249
5	0xbe46a571	-0.19399048
6	0xbce59501	-0.028025152
7	0x3dd5a30d	0.1043149
8	0xbdcc3183	-0.09970381
9	0xbc529e54	-0.012855131
10	0x3d88147c	0.06644532
11	0xbc8fbeaf	-0.01754698
12	0x3e24129f	0.16022728
13	0xbd8f09f9	-0.06984324
14	0xbd3fad53	-0.046796154
15	0xbdad30d8	-0.08456582
16	0xbaf9f0a9	-0.0019068915
17	0xbb625057	-0.003453275
18	0xbcdae095	-0.026718417
19	0x3c80979f	0.015697299
20	0x3dc4b72b	0.09605249
21	0x3b1ee7d8	0.0024247076
22	0x3e2569da	0.1615366
23	0xbd3f1919	-0.046654794
24	0xbd52e977	-0.05149218
25	0x3b38bcd5	0.0028188725
26	0x3d2114b0	0.03932637
27	0x3db174f8	0.08664888
28	0x3d189830	0.037254512
29	0xbd6941be	-0.056947462
30	0xbe1b9806	-0.15194711
31	0x3df3bea4	0.11901596
32	0x3e116fa3	0.14202742
33	0xbd2a9cf1	-0.041653577
34	0x3c86b622	0.01644427
35	0x3d37adb4	0.04484339
36	0xbd81f300	-0.06345177
37	0x3d5810f5	0.052750546
38	0x3c407f9e	0.011749176
39	0xbd3ec588	-0.0465751
40	0xbdaab579	-0.083353944
41	0x3c5361a6	0.012901699
42	0xbd264810	-0.040596068
43	0xbcca7a60	-0.024716556
44	0xbdd6168b	-0.104535185
45	0xbe798cd7	-0.24370132
46	0xbdd81621	-0.10551096
47	0xbdf188b1	-0.1179365
48	0xbd6b6152	-0.05746586
49	0xbbeb392d	-0.0071784467
50	0x3e88d42b	0.2672437
51	0x3d20f255	0.039293606
52	0xbd4dfd32	-0.050290294
53	0x3d4d256a	0.05008451
54	0x3c60c78f	0.0137194535
55	0x3cf3616f	0.029709546
56	0xbcad1fe1	-0.021133365
57	0x3e2e2f9a	0.17010346
58	0xbdc65c22	-0.09685542
59	0xbdb176dc	-0.08665249
60	0x3e48dc9a	0.19615403
61	0xbd0b82d8	-0.03406033
62	0x3d8cdcaa	0.06878026
63	0xbdc006c2	-0.09376289
64	0xbd968294	-0.073491246
65	0xbddcae40	-0.10775423
66	0x3e14ac16	0.1451877
67	0xbd9313d4	-0.07181516
68	0xbdcfce56	-0.10146777
69	0x3d8fb083	0.07016089
70	0x3dcd5afc	0.100271195
71	0x3d5b04cb	0.053471368
72	0xbdb6ae6c	-0.08919987
73	0xbe2dee61	-0.16985466
74	0xbd69a70a	-0.057044066
75	0x3e71d41f	0.23616074
76	0x3caa078d	0.020755554
77	0xbd90f348	-0.07077652
78	0x3c048119	0.00808742
79	0x3e80a682	0.25127035
80	0x3d6ddd5d	0.058072437
81	0xbcee9d95	-0.029127875
82	0x3d9585ba	0.07300897
83	0xbe094969	-0.1340691
84	0x3db31ca6	0.08745699
85	0xbdef093d	-0.11671684
86	0xbd9b36c2	-0.075788036
87	0xbd93a03d	-0.072082974
88	0x3dc328f2	0.09529294
89	0x3e3b94e7	0.1831852
90	0x3e1591c4	0.14606386
91	0xbe0fcbd2	-0.14042595
92	0x3bbfbf69	0.0058516753
93	0x3ca93aa5	0.020657847
94	0xbcfc71b7	-0.030815942
95	0xbd98c86b	-0.07460102
96	0xbbf690bf	-0.0075245793
97	0xbd85cce7	-0.06533223
98	0xbd344fab	-0.04402129
99	0xbe4a977c	-0.19784349
100	0xbda3df83	-0.08001616
101	0xbc6020a4	-0.013679657
102	0xbe36e05c	-0.17859024
103	0xbdd9ce49	-0.10635049
104	0x3e10345b	0.14082472
105	0xbe317b02	-0.1733208
106	0x3ca182dc	0.019715719
107	0x3d1723b1	0.036899272
108	0xbc0732f5	-0.008251895
109	0x3bd8c090	0.006614752
110	0xbd20969a	-0.039206125
111	0xbdb4dcd8	-0.08831185
112	0xbe0d2963	-0.13785319
113	0x3e574671	0.21022965
114	0x3b05f2c5	0.0020438891
115	0x3ce10b29	0.027471142
116	0x3d5e496e	0.054269247
117	0xbdec5f73	-0.11541643
118	0x3e32f978	0.17477977
119	0x3cecde55	0.02891461
120	0xbc44772e	-0.011991305
121	0x3e76a628	0.24086821
122	0x3d9d873a	0.07691808
123	0x3dedf6d6	0.11619346
124	0xbc3e2337	-0.011605076
125	0xbcef4288	-0.02920653
126	0xbc90c3d0	-0.017671496
127	0x3d1e36fc	0.038626656
128	0x3d8e40c8	0.0694595
129	0xbcd299bf	-0.025708077
130	0x3c7487cb	0.014924954
131	0x3e2dda14	0.16977721
132	0xbdb83358	-0.08994168
133	0xbd0c4af5	-0.034251172
134	0xbdec1d82	-0.11529066
135	0xbc85532e	-0.016275015
136	0x3e223f37	0.15844427
137	0xbdf24456	-0.1182944
138	0xbdaef88b	-0.085434996
139	0x3d9bef1f	0.07613968
140	0x3e0b56b4	0.13607293
141	0x3df1cdbc	0.11806819
142	0x3d085fb4	0.033294395
143	0x3dac9a81	0.08427907
144	0x3d08cbf6	0.033397637
145	0x3d83081f	0.06398033
146	0x3d47042f	0.048587974
147	0xbd9c7311	-0.07639135
148	0x3d61c879	0.055122826
149	0x3e1cd7f4	0.15316755
150	0xbe318ad4	-0.17338115
151	0xbe09daee	-0.13462421
152	0xbcd74b10	-0.02628091
153	0xbdf024d4	-0.117257744
154	0x3d542e99	0.05180225
155	0x3daec96c	0.08534512
156	0x3c90472d	0.017612064
157	0x3dcef372	0.10105027
158	0x3c998452	0.018739853
159	0x3cd9cfe3	0.026588386
160	0x3e74cd7b	0.2390651
161	0x3cdf0edb	0.027228763
162	0xbca87e56	-0.020568054
163	0x3db13fa6	0.08654718
164	0x3d3eee2c	0.046613857
165	0xbd923618	-0.07139224
166	0xbdeb135a	-0.114783004
167	0x3e184772	0.14871004
168	0xbc87ba73	-0.016568398
169	0xbcb636ae	-0.02224287
170	0xbe75898d	-0.23978253
171	0x3cd70ccc	0.02625122
172	0x3e23ec2e	0.16008064
173	0x3c7e7ce9	0.015532711
174	0x3bbaedc8	0.0057046153
175	0x3d624921	0.055245522
176	0xbce3362f	-0.027735798
177	0x3dba8cf0	0.09108913
178	0x3cb25dbc	0.021773212
179	0x3d0add16	0.03390225
180	0xbdf848e4	-0.12123278
181	0xbe23fc9b	-0.1601433
182	0xbe104902	-0.1409035
183	0x3d496871	0.04917187
184	0x3ce43796	0.027858537
185	0x3d1cb984	0.03826286
186	0x3d7fa73c	0.062415347
187	0x3d7c8150	0.06164676
188	0x3da0ffcb	0.07861289
189	0x3e508a8b	0.2036535
190	0x3d257057	0.04039034
191	0xbd632e49	-0.055464063
192	0x3e2e26d9	0.17007007
193	0x3dc8caa7	0.09804278
194	0x3bb473b8	0.005506959
195	0xbcb00b07	-0.021489633
196	0x3d4eb06a	0.05046121
197	0x3d86d38e	0.065833196
198	0xbd1bb318	-0.038012594
199	0x3dbe6aa0	0.09297681
200	0x3e07b303	0.13251881
201	0x3cd4f029	0.025993424
202	0x3cefc070	0.029266566
203	0xbe1464a2	-0.14491513
204	0xbd526999	-0.051370237
205	0xbda07d02	-0.07836343
206	0xbde6868f	-0.11256134
207	0xbd95adba	-0.07308526
208	0xbe51e107	-0.20495997
209	0xbc802183	-0.01564098
210	0x3dfdfc1f	0.12401604
211	0x3d055b8a	0.032558
212	0xbc08b429	-0.008343735
213	0xbc7fce63	-0.015613171
214	0xbe20dea7	-0.15709935
215	0xbcde5eb2	-0.027144764
216	0xbd7780d6	-0.060425602
217	0x3d98ac48	0.07454735
218	0xbcd0c856	-0.025486153
219	0xbbb7ae7a	-0.005605516
220	0x3c85f62b	0.016352734
221	0xbb18c71f	-0.0023312045
222	0x3db132e1	0.086522825
223	0xbda7a023	-0.081848405
224	0xbd88c26d	-0.06677709
225	0x3cc1f958	0.023678467
226	0x3dbd0226	0.092289254
227	0xbdc82e3d	-0.09774444
228	0xbd7b9135	-0.061417777
229	0xbd13c830	-0.036079586
230	0x3d13ad36	0.03605386
231	0x3e2ddb95	0.16978295
232	0x3bb80652	0.005615988
233	0x3d731c56	0.059353195
234	0xbd56dea7	-0.05245843
235	0xbe11dad5	-0.14243634
236	0x3d54ca5a	0.05195079
237	0x3de50c51	0.1118399
238	0x3e23544a	0.15950122
239	0xbc692f51	-0.0142324725
240	0xbd3034f6	-0.043019257
241	0xbe19fd00	-0.15037918
242	0x3a3796d8	0.00070033735
243	0x3d976859	0.073929496
244	0x3c227b43	0.009917083
245	0x3dbe4c3e	0.09291886
246	0xbdca86ec	-0.098890156
247	0xbc402e3c	-0.011729773
248	0xbd399a25	-0.04531302
249	0xbe0497ae	-0.12948486
250	0xbd3a9609	-0.04555324
251	0x3df34eb5	0.118802465
252	0x3d953fc8	0.07287556
253	0xbd215e71	-0.039396707
254	0xbce97f8e	-0.028503206
255	0x3cb4600c	0.022018455

network_body._body_endoder.seq_layers.2.bias f4 [128]
0	0x393cd4c9	0.00018008346
1	0xb9e8c418	-0.0004439659
2	0xbb76f61e	-0.0037683318
3	0x3bfc761e	0.0077045104
4	0xbba5da0a	-0.0050613927
5	0x3a1be974	0.0005947568
6	0xbb42ff94	-0.0029754387
7	0x3b60712d	0.0034247146
8	0x3c5e70ce	0.013576699
9	0x3b580bcd	0.0032966018
10	0xb9a1f24f	-0.00030888847
11	0x3af22d7e	0.0018476692
12	0xba242cb2	-0.00062627636
13	0xb8890ddc	-6.5352506e-05
14	0x3a5f0a0d	0.00085082726
15	0xbb390079	-0.0028229041
16	0xbaf831a6	-0.0018935695
17	0xbb1bf446	-0.0023796721
18	0xba60a466	-0.0008569419
19	0xba82f6d0	-0.0009991769
20	0xbb8667f5	-0.004101748
21	0xb9e930bb	-0.0004447753
22	0xbabe17ea	-0.0014502977
23	0xbab50824	-0.001381163
24	0x39b50463	0.0003452628
25	0xbb9b6119	-0.0047417996
26	0xba4b59ef	-0.00077572366
27	0x3a788af2	0.00094811537
28	0x3a9d19ee	0.0011985877
29	0x3a20189a	0.00061071815
30	0x3a7b05fa	0.0009575781
31	0x3ab44a13	0.0013754986
32	0x3a2f41ee	0.00066855445
33	0x3aefe24a	0.0018301692
34	0x3bd2eb25	0.006436723
35	0xbb21aad8	-0.0024668481
36	0x3b84d70e	0.004053957
37	0xbaf11ece	-0.0018396021
38	0x3b91fdda	0.0044553103
39	0xbaadb6b8	-0.0013253307
40	0x3b19173a	0.0023359791
41	0xbb39c29b	-0.0028344754
42	0xba62b378	-0.0008647959
43	0x3a714b21	0.00092046155
44	0xb9b97070	-0.00035369722
45	0xba0f275b	-0.00054608815
46	0x37988ad6	1.8184463e-05
47	0x3b06a12d	0.0020542846
48	0x3b405468	0.0029347185
49	0x3b759da7	0.0037478001
50	0xbae33a1e	-0.0017336046
51	0x3a2eaed6	0.0006663626
52	0xbb2adbd6	-0.0026070974
53	0xbb3cdc56	-0.0028817854
54	0xba8da71e	-0.0010807251
55	0xbbc338b6	-0.005957688
56	0xbab3307b	-0.0013671065
57	0xba1b16d5	-0.0005916183
58	0xba914904	-0.0011084382
59	0x39cc5f4b	0.0003898091
60	0xbaec169d	-0.001801211
61	0xbac62198	-0.0015116213
62	0x39cdc7ea	0.00039249595
63	0x39af50d7	0.0003343883
64	0xba4b2d8d	-0.0007750623
65	0x3990d762	0.00027626293
66	0x3a179740	0.0005782731
67	0xb981818c	-0.00024701317
68	0x39eb0dc2	0.00044832943
69	0xbaecc0a4	-0.0018062782
70	0x3b4a6cb3	0.0030887544
71	0xba85dd61	-0.0010213071
72	0x3994b2ec	0.00028362067
73	0xbb0a9473	-0.0021145612
74	0xba2a9afd	-0.00065080804
75	0xbac3bb49	-0.0014933135
76	0xbb95b257	-0.004568379
77	0x3b541a8a	0.0032364451
78	0xba8b164f	-0.0010611507
79	0xbac775aa	-0.0015217562
80	0x39ac727f	0.00032891703
81	0xbb7bb3b0	-0.0038406663
82	0x3b11bc15	0.002223735
83	0xbac6d870	-0.0015170705
84	0xba86ad5f	-0.0010275057
85	0x3adff486	0.0017086423
86	0xba713a5f	-0.00092021184
87	0xbac9ad67	-0.0015386761
88	0xb9c1d558	-0.00036970782
89	0xba861f4d	-0.0010232717
90	0x3b60e117	0.0034313852
91	0xbaa822d3	-0.0012827761
92	0x3834a514	4.3069085e-05
93	0xbadd3b80	-0.0016878694
94	0x38ccb81c	9.761771e-05
95	0xbb06d34b	-0.0020572718
96	0xbb773d4b	-0.0037725742
97	0xbae5751c	-0.0017506215
98	0x3b463ab0	0.0030247383
99	0xb918a716	-0.00014558094
100	0x3abf1df6	0.0014581073
101	0xba8c20ff	-0.0010690986
102	0xba12f1e2	-0.00056055014
103	0xba9a1965	-0.0011756836
104	0xbb2bc148	-0.0026207734
105	0x3b5fb187	0.0034132914
106	0xb9cb80fc	-0.00038815278
107	0xbad9b5ca	-0.0016609963
108	0x3a0dddee	0.0005411793
109	0xba8bbeca	-0.0010661718
110	0xbb19a958	-0.0023446884
111	0x3b26523f	0.0025378612
112	0xbb04e91c	-0.0020280546
113	0xba1b5588	-0.0005925526
114	0x3a948be9	0.00113332
115	0xbad89603	-0.0016524199
116	0xba8f878a	-0.0010950428
117	0xb9b72d50	-0.0003493824
118	0xb80b291a	-3.317846e-05
119	0x3b04f89e	0.002028979
120	0xb902fd9f	-0.00012492247
121	0x3b0e30d1	0.0021696577
122	0xb904773d	-0.0001263292
123	0xbb80ddc8	-0.0039326884
124	0xb8c5537a	-9.409241e-05
125	0x38ffb973	0.0001219389
126	0xbb71ee70	-0.0036915801
127	0xbb2bb90e	-0.002620283

action_model._continuous_distribution.log_sigma f4 [1, 2]
0	0x3952dea8	0.00020110107
1	0xbb8270cf	-0.003980733

action_model._continuous_distribution.mu.weight f4 [2, 128]
0	0xbc3a2b8c	-0.011362921
1	0x3c9d3c6c	0.01919385
2	0x3ca37267	0.019952012
3	0xbc052f85	-0.008129005
4	0x3b5fe90a	0.0034166002
5	0xbb5eeb33	-0.0034014701
6	0xbb2b982a	-0.0026183226
7	0x3a20c1d8	0.00061324006
8	0xba4fe223	-0.00079301203
9	0xbbb1c792	-0.005425402
10	0xbc3ae99c	-0.011408236
11	0x3cc3487e	0.023838278
12	0xbc88c212	-0.016694102
13	0xbc85f3a4	-0.016351528
14	0xbb9485bf	-0.0045325453
15	0xbd2c69c3	-0.04209305
16	0xbca56b04	-0.02019263
17	0xbb8479b3	-0.004042828
18	0x3bd13755	0.00638477
19	0xbd626fc4	-0.05528237
20	0x3c45a728	0.012063779
21	0xbc06a151	-0.008217172
22	0x39f636f6	0.00046961725
23	0xbcb30e68	-0.021857455
24	0xbcdad701	-0.02671385
25	0x3b7db3fe	0.003871202
26	0x3c8c8a1e	0.017155703
27	0x3cfdd17a	0.030983675
28	0x3c46d22c	0.01213507
29	0xbcc8a90c	-0.02449467
30	0x3b938182	0.0045015225
31	0xbcdda284	-0.027055033
32	0xbc7d5c04	-0.015463833
33	0x3d193bc5	0.037410516
34	0xbc23fa21	-0.010008366
35	0xbb5625d4	-0.0032676356
36	0x3cfbeacc	0.030751608
37	0xbc4718e6	-0.012151932
38	0xba2824c9	-0.0006414173
39	0x3bc681df	0.0060579623
40	0x3c98a582	0.018633608
41	0x3ca4a193	0.020096576
42	0x3b70dc14	0.003675227
43	0x3cc5c3ac	0.024141155
44	0x3c10b263	0.008831593
45	0xbb5d620e	-0.003378037
46	0xbd03f60c	-0.03221707
47	0x3c089cbe	0.0083381515
48	0xbc05340e	-0.008130087
49	0x3c1ea916	0.009683868
50	0x3bb39145	0.005479964
51	0xbd0aeace	-0.033915333
52	0xbc6b0152	-0.0143435765
53	0xbca7cf23	-0.020484513
54	0x3c79e303	0.015251878
55	0xbb8e493c	-0.0043422263
56	0xbccf2f4e	-0.025291111
57	0xbd0d17ae	-0.03444641
58	0x3c49a638	0.012307696
59	0x3aafd6d9	0.001341547
60	0x3c318d1e	0.010836868
61	0x3cd42738	0.025897607
62	0x3cede542	0.029039983
63	0xba592847	-0.0008283895
64	0xbcebda7e	-0.028790709
65	0xbbfb730b	-0.0076736263
66	0xbc525806	-0.012838369
67	0x3cca472f	0.024692146
68	0xbd218274	-0.03943105
69	0xbccb9e55	-0.024855772
70	0xbc866970	-0.016407698
71	0xbcea80ba	-0.028625835
72	0xbc7c0eb6	-0.015384367
73	0x3c345fbe	0.011009155
74	0xbd314dd9	-0.043287132
75	0xbc8fbe70	-0.017546862
76	0xbac66f48	-0.0015139366
77	0x3c159b85	0.009131317
78	0x3ce15df5	0.027510623
79	0x3c744caa	0.014910856
80	0xbb953e01	-0.0045545106
81	0xbc2e86ff	-0.010652303
82	0x3ba66a20	0.005078569
83	0xbcccdacb	-0.025006672
84	0xbc34bee2	-0.011031838
85	0x3afbf21b	0.0019221933
86	0xbc84dfe4	-0.01622004
87	0x3c9088d9	0.017643379
88	0xbbcaa7f4	-0.0061845724
89	0xbc34d1d1	-0.011036352
90	0x3cdc64aa	0.02690347
91	0x3c9f9330	0.019479364
92	0xbcaa7ff9	-0.020812975
93	0xb95b4c3c	-0.00020913867
94	0x3d428b3b	0.04749606
95	0xbc0ba417	-0.008523009
96	0x3c2a8ae9	0.010409095
97	0xbc5d7dfc	-0.013518807
98	0x3be7cc27	0.0070738974
99	0x3aa9b640	0.0012947991
100	0xbcc5ceeb	-0.024146518
101	0x3cb9c894	0.02267865
102	0x3c089f20	0.00833872
103	0x3c3c95c5	0.011510317
104	0xbb21fb27	-0.002471635
105	0x3cd6ea80	0.026234865
106	0x3d77fcca	0.060543813
107	0x3c1ae2b5	0.009453465
108	0xbaf6367a	-0.0018784546
109	0x3ca2581a	0.0198174
110	0xbbe0d3b7	-0.006861176
111	0x3c218719	0.00985887
112	0xbc4c8269	-0.012482264
113	0xbd206204	-0.039155975
114	0xbbf5dcad	-0.0075031132
115	0xbc85bde2	-0.016325895
116	0xbc11dbc0	-0.00890249
117	0xbcf88eb7	-0.03034149
118	0x3c9b1c0e	0.018934276
119	0x3c7a5647	0.015279359
120	0x3c8cb448	0.017175809
121	0xbcb95a2d	-0.022626007
122	0x3bb55341	0.0055336063
123	0x3c5d9e9c	0.013526585
124	0xbd231fb8	-0.03982517
125	0x3c8f9aa0	0.017529786
126	0x3c063d5b	0.008193339
127	0x3c28e94f	0.010309531
128	0xb98e1f31	-0.0002710759
129	0xbc8c205d	-0.017105276
130	0x3c879e06	0.016554844
131	0xb8dbf9d2	-0.000104892664
132	0xbb9d2c58	-0.004796546
133	0x3cbe2b37	0.023213966
134	0xbc9d8374	-0.01922772
135	0xbce14c3c	-0.027502172
136	0xbc93030e	-0.017945793
137	0x3c128068	0.008941747
138	0xbaedfe2b	-0.0018157413
139	0x3c303d20	0.010756761
140	0xbc4aa4ec	-0.012368422
141	0x3c96a29b	0.018388083
142	0x3b6a7d4e	0.0035780254
143	0xbbce2884	-0.006291451
144	0xbd0fc321	-0.0350982
145	0xb97f802b	-0.00024366441
146	0x3b608bac	0.0034262938
147	0xbba6cbf8	-0.005090233
148	0xbcb43418	-0.021997496
149	0xbacf810d	-0.0015831307
150	0x3bc12da5	0.005895334
151	0xbc397f88	-0.01132191
152	0x3b503a17	0.0031772905
153	0xbc8b0c93	-0.01697377
154	0xbcdafa65	-0.026730726
155	0xba133f91	-0.0005617077
156	0xbbc91673	-0.0061367094
157	0x3c60a306	0.013710743
158	0x3c33ac9d	0.010966447
159	0x3aa799ff	0.0012786983
160	0xbc378720	-0.01120165
161	0x3c7cd7c3	0.015432301
162	0xbb306876	-0.0026917732
163	0x3b491921	0.0030685144
164	0x3c147f4a	0.009063551
165	0xbc97c5c7	-0.018526925
166	0xbbe65433	-0.0070290803
167	0x3b93e156	0.004512946
168	0x3a5752c2	0.0008213931
169	0x3cad524b	0.021157404
170	0x3d03cc3a	0.032177188
171	0x3cca27c9	0.024677174
172	0xbc99bd30	-0.01876697
173	0x3c87a2b6	0.016557079
174	0x3bb99b57	0.00566427
175	0x3c86ce6a	0.016455848
176	0xbc478e55	-0.012179931
177	0x3c72d560	0.01482138
178	0x3c1b9c56	0.009497723
179	0x3c39589b	0.011312629
180	0xbbdd5327	-0.0067542973
181	0xbc7ba624	-0.015359435
182	0x3cf7a4a6	0.030229878
183	0x3bda3d14	0.006660113
184	0xbc71a074	-0.014747728
185	0x3cd8a149	0.026444094
186	0xbc252546	-0.010079687
187	0x3b5f2c55	0.0034053524
188	0xbccd366c	-0.025050364
189	0xbc90e409	-0.01768686
190	0x3c1ab2f1	0.009442077
191	0x3c2e4874	0.010637391
192	0xbcc4ca97	-0.024022384
193	0x3cb50eba	0.022101749
194	0xbce5a2e4	-0.028031774
195	0x3c762913	0.015024441
196	0x3cbce972	0.023060534
197	0xbbb32e38	-0.005468156
198	0xbd12874a	-0.035773553
199	0xbccd03f6	-0.025026303
200	0xbb925d56	-0.004466693
201	0x3b028be9	0.0019919819
202	0xbbe38a65	-0.006943988
203	0xbc182fea	-0.009288767
204	0x3b56b23f	0.0032760052
205	0xbbb3c7da	-0.0054864706
206	0xbc8b3870	-0.016994685
207	0xbbb4af2a	-0.0055140452
208	0x3bdb8a5f	0.0066998447
209	0x3b3f4fe1	0.0029191899
210	0xbb148548	-0.002266245
211	0xbcb175e0	-0.021662652
212	0x3b192abb	0.0023371417
213	0x3bcaaf97	0.0061854827
214	0x3cd9ac11	0.026571305
215	0xbc4a9557	-0.012364707
216	0x3ca788fe	0.020451065
217	0x3c1d67f0	0.0096073
218	0xbc074b98	-0.008257769
219	0x3cae43eb	0.02127262
220	0xbc6c63a8	-0.014428057
221	0x3cedcbd3	0.029027855
222	0xbb33fd36	-0.0027464158
223	0xbce21852	-0.027599487
224	0xbc9aa147	-0.018875731
225	0xbbae55d4	-0.00532029
226	0x3ced675a	0.028979946
227	0xbbae90d0	-0.0053273216
228	0x3cecb130	0.028893083
229	0x39407e35	0.00018357563
230	0xb9f84936	-0.00047356792
231	0xbcfd5c84	-0.030927904
232	0xbcf674f3	-0.030085063
233	0x3c59f52e	0.013303084
234	0xbcbdc4f8	-0.023165211
235	0xbc0001ac	-0.007812899
236	0x3a769b0a	0.0009407258
237	0xbd360d17	-0.044446077
238	0xbc957c77	-0.018247826
239	0xbbe1da54	-0.006892482
240	0x3cb55ebe	0.022139903
241	0xba99f060	-0.0011744611
242	0x3d0b1597	0.033956137
243	0xbc2a19a2	-0.010382088
244	0x3ab5024a	0.0013809886
245	0xbbbad6d8	-0.005701881
246	0x3b61454a	0.0034373575
247	0x3c8b4654	0.017001309
248	0xbc059122	-0.008152278
249	0x3b1bdebc	0.0023783883
250	0xbc6f0c9c	-0.014590409
251	0x3cb8fe51	0.022582205
252	0x3c909583	0.017649418
253	0x3bc951ce	0.006143785
254	0xbc0d4b58	-0.00862392
255	0xbc27f609	-0.01025153

action_model._continuous_distribution.mu.bias f4 [2]
0	0x39968028	0.00028705713
1	0x3b046df3	0.0020207136

action_model._discrete_distribution.branches.0.weight f4 [2, 128]
0	0x3cc35232	0.023842905
1	0xbc2d2f4b	-0.010570358
2	0x3c2e32e1	0.010632248
3	0x3bd9e515	0.006649623
4	0x3c46acc1	0.012126149
5	0x3b6e63c7	0.003637539
6	0xbbd19a30	-0.0063965544
7	0x3c1ed4d7	0.0096943
8	0x3c5f4cd2	0.013629155
9	0xbc0a91b5	-0.008457591
10	0xba69fb87	-0.0008925725
11	0x3b9c1f4f	0.0047644745
12	0x3bdced5e	0.0067421636
13	0x3c366844	0.011133257
14	0x3ceb9ad6	0.028760355
15	0xbbb8e656	-0.0056426926
16	0xba8cfade	-0.0010755917
17	0x3bb5c45a	0.0055470886
18	0xbbcbb7fc	-0.006217001
19	0x3a84ec31	0.0010141191
20	0xbb0f265c	-0.0021842932
21	0x3a9e6888	0.0012085596
22	0x3aeafa78	0.0017927429
23	0x3c042ff4	0.008068074
24	0xbbb5ce70	-0.005548291
25	0xbbd1d358	-0.006403368
26	0x3bcac55d	0.0061880783
27	0x3c248f50	0.010043934
28	0xbcb14284	-0.021638162
29	0x39c37641	0.00037281404
30	0xbbac4b9c	-0.005258037
31	0x3b14538b	0.0022632803
32	0xbc388042	-0.011261048
33	0xbb15c4fb	-0.0022853005
34	0x3c84d7cc	0.016216181
35	0x3b86cd6d	0.004113844
36	0xbb7fcfff	-0.0039033887
37	0x3cb3083a	0.021854509
38	0xbb6309e4	-0.0034643346
39	0xbc07572c	-0.0082605295
40	0x3c794d61	0.0152162025
41	0x3c396f1b	0.0113179935
42	0x3c26567d	0.010152456
43	0x3bf395e0	0.007433638
44	0xbc47b368	-0.01218877
45	0x3b8d16db	0.004305703
46	0x3b5bc270	0.0033532642
47	0xbad6ad3d	-0.0016378533
48	0x3bfe2343	0.0077556684
49	0x3b9fab98	0.0048727505
50	0xbb9f9007	-0.0048694643
51	0x3c084c5f	0.00831899
52	0xba25b038	-0.0006320509
53	0xbbbeb854	-0.0058203135
54	0x3c4ad282	0.012379291
55	0xbb91f99c	-0.0044548046
56	0x3c7be4c5	0.015374367
57	0xbc85a275	-0.016312817
58	0x3bad7ac1	0.0052941744
59	0x3b922c70	0.004460864
60	0xbba9b8a6	-0.0051794825
61	0xbc5cfedf	-0.0134885
62	0x3bed219a	0.0072366716
63	0xbba758ae	-0.005107007
64	0x3c0a155d	0.008427945
65	0x3c0a5e99	0.008445405
66	0x3c259ec6	0.010108655
67	0x3c545845	0.012960498
68	0xbc1852fa	-0.009297127
69	0x3b357cc0	0.0027692765
70	0x3bd408f3	0.0064707934
71	0x3ae45310	0.0017419774
72	0xbb826627	-0.0039794627
73	0x3c3327eb	0.01093481
74	0x3c9e6721	0.019336285
75	0xbc423269	-0.011852839
76	0xbb08ccc7	-0.002087401
77	0xbcef055c	-0.02917736
78	0xbc2d0711	-0.010560767
79	0x3b476749	0.0030426553
80	0xbbe9a0a7	-0.007129747
81	0xbc4bebb8	-0.012446336
82	0x3c4ea672	0.012612926
83	0x38dbe545	0.000104854385
84	0x3ba0c5a7	0.0049063745
85	0xbaba230e	-0.0014201121
86	0x3c1229bd	0.008921084
87	0xbb493edd	-0.0030707635
88	0x3b207871	0.0024485851
89	0x36b45060	5.373775e-06
90	0xbb96d7ee	-0.0046033775
91	0x3b57a391	0.003290389
92	0x3a91eccd	0.0011133194
93	0xbbf1e85b	-0.0073824353
94	0xbb41ffda	-0.0029601962
95	0x3bef2d63	0.0072991117
96	0xbc1a2666	-0.009408569
97	0x3be1472f	0.006874941
98	0xbb6cc494	-0.0036127912
99	0xbc2ac27a	-0.010422343
100	0xbc3f0a73	-0.011660206
101	0x3bb3abe0	0.0054831356
102	0xbb8befac	-0.0042705145
103	0xbc0fe6b4	-0.008783031
104	0xbb048366	-0.002021992
105	0x3b74566e	0.0037282961
106	0xbc2f3c9c	-0.010695603
107	0x3be54f88	0.0069980063
108	0x3bf67a33	0.0075218915
109	0xbc7ae3f0	-0.015313134
110	0xb9fd177e	-0.00048273423
111	0x3c7cdefd	0.015434024
112	0xbc311aef	-0.010809644
113	0x3c102049	0.00879676
114	0x3ab5e312	0.0013876876
115	0x3b44abe4	0.0030009681
116	0x3bcd7ac9	0.0062707406
117	0xbbdd2d42	-0.00674978
118	0x3aad00a5	0.0013199045
119	0xbc76c9c5	-0.015062754
120	0x3c263d34	0.010146428
121	0xbb91f1bf	-0.004453867
122	0x3c925b07	0.01786567
123	0xbb5ee70a	-0.0034012222
124	0x3c28f169	0.010311463
125	0xbb86132a	-0.00409164
126	0x3c0b185c	0.008489694
127	0xbb6886a4	-0.0035480643
128	0xbbe7bc8b	-0.0070720366
129	0x3a14595e	0.00056590687
130	0x3c935aca	0.017987628
131	0x3ba0f314	0.0049117897
132	0xbba34ac3	-0.0049832775
133	0xbc30005f	-0.010742276
134	0xbc8b74d7	-0.017023487
135	0xbb76658b	-0.0037597145
136	0xbbd2a871	-0.006428771
137	0xbae73157	-0.0017638606
138	0xbc13b6e5	-0.009015773
139	0xbc024284	-0.007950429
140	0x3ab6be9f	0.0013942308
141	0x3bc05ba4	0.0058702994
142	0xbb2207ba	-0.0024723844
143	0xbba76f7f	-0.005109727
144	0xbc4996c3	-0.012304011
145	0xbb905759	-0.004404944
146	0xbc857f43	-0.016296035
147	0xbc089d20	-0.008338243
148	0x3b1f5c0b	0.0024316336
149	0xb9fd9c1f	-0.0004837224
150	0x3c313ec2	0.010818185
151	0xbbd02166	-0.0063516377
152	0xbb355ab1	-0.0027672464
153	0xbb8acdbf	-0.0042359526
154	0xbb937f61	-0.0045012687
155	0xbc8b8a11	-0.017033609
156	0x3c1021ad	0.008797091
157	0x3b7aab63	0.0038249127
158	0x3b35f36f	0.0027763506
159	0xbac8fd12	-0.001533421
160	0xbbb1ec79	-0.005429801
161	0x3b72388c	0.0036959974
162	0xbc8987f3	-0.016788458
163	0x3b94a09d	0.004535748
164	0x3c427277	0.011868111
165	0x3c5a0582	0.013306977
166	0x3c96ebe8	0.018423036
167	0xbbd00d53	-0.0063492446
168	0xbcc10ac4	-0.023564704
169	0x3b29710c	0.0025854735
170	0x3c087648	0.008328982
171	0x3ba952ee	0.0051673567
172	0xbc0893bc	-0.008336004
173	0xbbbb1013	-0.0057087033
174	0xbc22ca4c	-0.009935927
175	0x3c28bbc6	0.010298675
176	0xbc297abe	-0.010344205
177	0xbc7059f9	-0.014669889
178	0xbcd2329c	-0.025658898
179	0x3b1a4638	0.0023540389
180	0xbb8aaf95	-0.004232357
181	0xbc68edb9	-0.014216834
182	0xbc91f5bb	-0.017817369
183	0xbc6d640c	-0.014489185
184	0xbbc1d53c	-0.005915312
185	0xbbe41cfa	-0.006961462
186	0xbb0d628b	-0.0021573629
187	0x3c8015fe	0.015635487
188	0x3b39877b	0.0028309512
189	0x3b1dad39	0.0024059548
190	0xbba63a8f	-0.0050728987
191	0xbcbb7224	-0.022881575
192	0xbbb71803	-0.005587579
193	0xbba67d83	-0.00508088
194	0xbc5480da	-0.012970174
195	0x3b5e989a	0.003396547
196	0xbb2799f1	-0.0025573934
197	0xbbcddbbd	-0.0062822984
198	0x3b4eaf7f	0.003153771
199	0x3c5c9c8b	0.013465057
200	0x380184da	3.0879724e-05
201	0xba0224b6	-0.0004964577
202	0x3ba32c82	0.004979671
203	0xbcb5ad88	-0.022177473
204	0x3b4fe81b	0.003172404
205	0x3bf2b602	0.007406951
206	0x3c1563ab	0.009118001
207	0xbc21a83d	-0.009866771
208	0xbb14f7f7	-0.0022730806
209	0x3b9f3e7c	0.0048597436
210	0xbc09b299	-0.008404397
211	0xbc2db4d8	-0.010602199
212	0xbb1f59c2	-0.0024314974
213	0x3b523890	0.003207717
214	0xbc3b3181	-0.011425377
215	0xbbd2caf7	-0.0064328867
216	0xbcaac285	-0.020844707
217	0x3b950f6d	0.004548958
218	0x3c8041c5	0.015656361
219	0x3b2f0696	0.0026706806
220	0x3a86d071	0.0010285509
221	0x3c2a456c	0.010392528
222	0x3b80198c	0.0039092954
223	0x3c6e425a	0.014542187
224	0xbbc1b893	-0.0059118955
225	0xbb85f4c4	-0.004088016
226	0x3c1f5a55	0.009726127
227	0xbb848377	-0.004043992
228	0x3b989440	0.0046563447
229	0xbc9f1544	-0.01941932
230	0x3b9c2c73	0.004766041
231	0x3c72e0c0	0.014824092
232	0xbb9fc7b0	-0.0048760995
233	0xbbb54be3	-0.005532728
234	0x3b5ee211	0.0034009258
235	0xbc8ddd8a	-0.017317552
236	0x3c92e7dd	0.017932827
237	0xbcd447be	-0.025913116
238	0x3aaa372e	0.0012986416
239	0xbc077ebf	-0.008269965
240	0xbc9dcb29	-0.019261913
241	0xbbbf3bcc	-0.0058359858
242	0xbae1d994	-0.0017230981
243	0x3c5e8a0f	0.01358272
244	0xbb6e78b4	-0.0036387863
245	0x3c9656c7	0.018351926
246	0x38c7ec44	9.533067e-05
247	0x3c113d91	0.008864776
248	0x3ace5525	0.0015741928
249	0x3c0ac313	0.008469361
250	0x3a35270c	0.00069104205
251	0x3c71e3fe	0.01476383
252	0x3bbb9643	0.0057246997
253	0xbb25d2a5	-0.0025302556
254	0xbc1a8baa	-0.009432713
255	0x3bf931fd	0.007604836

action_model._discrete_distribution.branches.0.bias f4 [2]
0	0xba21aa53	-0.0006167043
1	0x3a21aa62	0.00061670516
