results/Hierarchy3/PlayerRL/PlayerRL-4007.pt (torch, 468243 bytes, 33 tensors)

network_body._body_endoder.seq_layers.0.weight f4 [128, 15]
00000000: 26ae b13b ee49 003f 9d96 5b3e 12fc 753d
00000010: c9d8 e2bd fe1e 15be 498e 103e 6bff 593e
00000020: 6bcb a53d ea05 87bd b6d8 a73d 5c68 f93d
00000030: 0aac d43d 3945 40bd 2a65 6e3e 2fd7 91bc
00000040: c66f cabc d7f6 b63e 2276 e9be 16e4 96bd
00000050: f9d2 383b 8e5f 593c 491f 1b3e 2461 36be
00000060: bac2 a63e 06dc 0fbf 06d0 7fbd a638 bd3d
00000070: df85 023e 007a 293e 37fe 3b3e c5fe 4ebe
00000080: bcb6 e9be a160 ba3e 8b69 9f3c 1616 1e3c
00000090: ff1d 9b3e e2fb 633e d06a a43c aae6 503d
000000a0: 4d54 21bf e180 acbe baf8 3bbd 706e 54bd
000000b0: 2854 c8be 96a2 cd3d 5494 d23d dd09 98be
000000c0: 971a 623e dcd7 a13d b37c 223e 3302 a1be
000000d0: b4e2 153e 8963 c8bd c44a 993d 9d44 d43d
000000e0: 935c cd3e 113e d93d 117a e3bd baaa 18be
000000f0: c9e2 d7be e56c 913c 3034 dd3e d076 493c
00000100: 3727 203c 0bcc e63d 8f97 8e3e 8ca8 6abc
00000110: cfb2 a03e 7cf1 a73d 959e b03e 086d 0a3e
00000120: 874c acbe d31c 153e 9fb3 f9bc e532 443e
00000130: 73e8 07be b6b0 5cbd 4f8b 2e3c 7bae f73c
00000140: a770 823e 8771 8c3d 2091 863b 52f7 fdbd
00000150: 92d3 79be 96f1 cc3c 008e 87bb d279 433d
00000160: 6439 0c3f bc72 d5bd 27dc 0e3f 2216 d63e
00000170: 4c3c 01be 61d2 a63e fb4b c0be 2704 c73e
00000180: 2152 f03d 1f53 153e 158c 04be 7a65 c1bd
00000190: 238b 223e 3ff4 96bc 2e4b 703d 2b8d d9bd
000001a0: 96ed ba3e 518a 993d 776b 9d3d 3565 49be
000001b0: ee96 55bf 2d43 7cbc feda e3bd 8a66 553e
000001c0: 739e 153f d72f 8cbe 17b3 42be 3a77 203e
000001d0: dc9b 4abe 32cd 1abe 8173 0e3e f459 c03e
000001e0: 87f6 fbbd a42a c53e db6d aa3e 4727 c6be
000001f0: bfb9 6e3e 15f7 d0bd 6324 8fbc 5e85 163f
00000200: d2d8 66be 0f87 a93b 5e54 8f3d 58dc 49be
00000210: 08bb bcbd 5d50 333e a98d 063f e574 a33d
00000220: 83c6 9fbe 2d0c bdbc 4543 76bd 1dac c03d
00000230: fd03 0e3f 02a8 82bd 93f8 13bf cf3b 673e
00000240: e159 bfbe da81 90bd 38da 013e a4a3 f9bd
00000250: fbc3 913e f57c 563e 4ea5 d9bb 1984 c83d
00000260: c460 22be 4f6b dcbe f5f4 13be 6415 c63e
00000270: 786b 51bf b5b8 d43d e2a9 cabd 932f efbe
00000280: f4ee 2ebe 892d 253e c2df 9c3e 1c12 dcbd
00000290: 3bf8 b43b 20a5 2b3e e07e 993c ae52 2d3e
000002a0: 1cab d6bd b213 463e 3fce 7f3e a6c4 3b3e
000002b0: 3f29 04be f1c0 1a3d 924d acbe 8db9 753d
000002c0: a6ea 1c3e 3e6d f93e 2f0f 80bd f493 0bbe
000002d0: e093 acbd d660 0cbe 104e 293f e0b6 9dbd
000002e0: 8b46 d9bd 829c b0be d736 e4bc b67d 0e3c
000002f0: 497a 7abe ded4 20be f4e8 c03e f122 a83e
00000300: bdae 623e 7bc2 1b3f 8293 693d 2ea7 d7be
00000310: 7aaa 75be 562f 0a3e 7759 023f b740 0abd
00000320: c3a5 c0be e9b7 703e 6906 1f3e 80af cbbe
00000330: 3e0c 19be 29e3 05bf 88c0 bcbd 7c63 72bc
00000340: ac75 ac3c 5a97 b63e d3f1 00bf b60d ae3e
00000350: 14e3 97be 50b2 d7bd 5789 08bd 18c1 ca3e
00000360: ae89 3dbe e5a3 86bb 1750 013e 899c cdbd
00000370: 960c 4b3e f791 da3e 24cc 45be af2d 9f3d
00000380: b117 5dbe c9e6 af3e 5ede d0be c8b7 0c3e
00000390: 0f2d 8b3d c019 c53c 5e47 92bd f826 483e
000003a0: 26d4 27be cc3f a8be 960d 353e e38e ab3e
000003b0: c85a b83d 180e 983e 01b2 a9be a9c4 033d
000003c0: 2760 c9be 6b74 913e 4377 b9be 756c 3d3f
000003d0: 7e3f a7bc 046a a53d c688 1ebf 94eb 7dbe
000003e0: e2bc 0ebd 89c1 5ebd fcad 8dbe 76ee 24be
000003f0: 504e babc 5c86 c33b 347c 53be 11f5 d03d
0.0054223714 0.5011281 0.21444173 0.060054846 -0.11076505 -0.14562604 0.14116777 0.2128884
0.080954395 -0.06592925 0.08195631 0.12178108 0.10384376 -0.046941016 0.23280779 -0.017802803
-0.0247115 0.357352 -0.4559794 -0.07367723 0.0028201921 0.013267411 0.15148653 -0.17810494
0.3257044 -0.56195104 -0.062454246 0.092393205 0.1274638 0.16550446 0.18358694 -0.20214374
-0.45647228 0.36401847 0.019459506 0.00964882 0.30296323 0.22264054 0.020070463 0.05100123
-0.6301926 -0.33692077 -0.0458915 -0.051863134 -0.39126706 0.100407764 0.102821976 -0.29695025
0.22080456 0.079025 0.15867881 -0.3144699 0.14637262 -0.0978461 0.074849635 0.103646494
0.4010969 0.10607541 -0.11107267 -0.14908877 -0.4216521 0.01775212 0.43203878 0.0122963935
0.009774975 0.11269387 0.27850005 -0.014322411 0.3138642 0.08200356 0.34495988 0.13518155
-0.33652136 0.14561777 -0.030481158 0.1916004 -0.13272266 -0.053879462 0.010653331 0.030234566
0.25476572 0.06857591 0.0041066557 -0.12400688 -0.24397114 0.02501754 -0.0041368008 0.0477236
0.5477507 -0.104222745 0.55804676 0.4181376 -0.12620658 0.3258238 -0.37557968 0.38870355
0.11734415 0.1458249 -0.12944062 -0.09443183 0.15873389 -0.018427012 0.058665447 -0.10622629
0.3650939 0.07497085 0.07686513 -0.19667514 -0.83433425 -0.015396875 -0.11125754 0.20839897
0.584449 -0.2738025 -0.1901363 0.15670481 -0.19786018 -0.15117338 0.13911249 0.3756863
-0.12302881 0.38509095 0.33286938 -0.3870184 0.23313044 -0.10203377 -0.017473405 0.5879725
-0.22543648 0.005173571 0.06998514 -0.1971296 -0.09215361 0.17511125 0.52559906 0.0798128
-0.3120614 -0.023077095 -0.060122747 0.09407828 0.55474836 -0.06379701 -0.5780117 0.22581409
-0.3737326 -0.07056017 0.126809 -0.12189415 0.28469834 0.20946105 -0.0066420203 0.09790821
-0.15857226 -0.4305062 -0.14448912 0.38688195 -0.8180461 0.103867926 -0.09895684 -0.46715984
-0.17083341 0.16130652 0.30639464 -0.107456416 0.0055227554 0.16762209 0.018737257 0.16926071
-0.10481855 0.1934345 0.2498102 0.18336734 -0.12906359 0.03778166 -0.3365293 0.05999141
0.15323886 0.48716158 -0.06252896 -0.13630658 -0.084266424 -0.13708815 0.6613474 -0.07700896
-0.10609158 -0.34494406 -0.02785818 0.008696964 -0.2446071 -0.15706202 0.3767773 0.32839158
0.2213697 0.6084363 0.05702544 -0.42119735 -0.23990813 0.1349462 0.5091776 -0.033753123
-0.37626466 0.23507656 0.15529789 -0.39782333 -0.14946076 -0.52299744 -0.0921641 -0.014794227
0.021052204 0.35662347 -0.50368994 0.33994836 -0.29665434 -0.10532057 -0.033334102 0.39600444
-0.18509552 -0.004108893 0.12628208 -0.10039622 0.1982902 0.42689487 -0.19316155 0.07772385
-0.21591069 0.34355763 -0.40794653 0.13741982 0.067957036 0.02406013 -0.071425185 0.19546115
-0.16389522 -0.32861173 0.17680964 0.3350745 0.0900169 0.29698253 -0.3314362 0.03216997
-0.3933117 0.28409132 -0.36223802 0.7399362 -0.020416018 0.080768615 -0.6192745 -0.24796897
-0.0348481 -0.05438379 -0.27671802 -0.1610659 -0.02274242 0.0059669446 -0.20652848 0.10202993

network_body._body_endoder.seq_layers.0.bias f4 [128]
00000000: 35a9 f4bb 34fa 87bb eb16 91bb 55c6 1b3a
00000010: eb52 74bc abcb 983b dc15 d1bb 29b6 e939
00000020: dc86 bfba bb8b 10bc d858 6bb9 029b 543b
00000030: a188 d0bb 9b75 8dbb a025 383b dc26 fabb
00000040: 600a 88ba 6dc1 ce3a b7c6 56bc 9128 11bb
00000050: 0559 043c 4cd7 f5ba d872 423a 46b2 3e3b
00000060: 38ef bb3b c2b9 fdba 4625 f9ba 8021 ddbb
00000070: b369 f839 ae2b e2ba a4d8 0d3a 22ae 72ba
00000080: 542e b13b 1b90 cc3b 6d1d f83a 40dd 16bc
00000090: b85f 383b f01c 52b9 7bb8 0c3c 7f2b 18bb
000000a0: ec7c 223c e456 f23a 2302 2d3a c209 23bc
000000b0: 5ea3 6dba 4c16 f2b9 a1b8 6c3b 446d abbb
000000c0: a690 1c3a fd91 903b 4c2e 99bb 49ca cfba
000000d0: 4eb9 73ba 188c 8c3a 4ae7 363c d184 ceba
000000e0: 8afa 683a e4d1 22bc f1b8 0abb ca79 56bb
000000f0: 27c0 25bb ff65 cbbb 8184 ad3a cd1c 1f3b
00000100: aaf2 7abb ee20 96ba ea62 8bbb f8c0 bdba
00000110: 87e8 3dba 087d d0bb 37e1 d63a 4966 913a
00000120: 369b e0bb 8669 5739 0125 dbbb 6d6e 073b
00000130: be73 643b 0396 b8bb 92c7 50b9 a3a1 743b
00000140: 57f9 7ebb 9260 a8b9 1e6a f9bb 2389 a9bb
00000150: 67e3 9d3a 25a7 a23b b19f 76bb 5a12 e2ba
00000160: 4496 9f39 9ea4 683a 5107 8b3a 45cb 86bb
00000170: e77f 393a d32a 363b 30bf 27bb 6ae3 e9ba
00000180: 3bb6 7a3b 60ae fd3a 4bf8 40ba d63e 603b
00000190: 68fc 63bb 5f75 22ba 8d38 213b ee3b 723a
000001a0: 80b5 59b5 5a6f 70ba df25 d03a e8df 02bc
000001b0: d777 7a3a 76d8 b23b ca8b 9fbb bff7 8e3a
000001c0: 5470 713b 7b99 53b9 aa68 063a a22d 803b
000001d0: a5ed 653b 7ea4 11bb 3964 97bb 66a3 dfb9
000001e0: 5cfe 6fbb 0cdb b93b 552a c9ba e9a4 7fba
000001f0: 7a18 e13b 22d8 433a fd2d 88bb 7a0d b2bb
-0.00746646 -0.0041496996 -0.004427781 0.00059423345 -0.014912347 0.004662951 -0.0063807797 0.00044576943
-0.0014612335 -0.008822377 -0.00022444443 0.0032441025 -0.0063639437 -0.004316998 0.0028098598 -0.007634027
-0.0010379069 0.0015774198 -0.013108901 -0.0022149424 0.008077865 -0.001875618 0.0007417626 0.0029097958
0.005735304 -0.0019357728 -0.0019008301 -0.0067483783 0.00047380998 -0.0017255449 0.0005411005 -0.0009257515
0.005407134 0.0062427646 0.0018929668 -0.009208024 0.0028133225 -0.0002003794 0.008588905 -0.0023219285
0.009917479 0.001848903 0.00065997447 -0.009951057 -0.0009065176 -0.0004617445 0.003612079 -0.0052315313
0.0005972482 0.0044119344 -0.0046747085 -0.0015853132 -0.0009297327 0.0010722904 0.011163542 -0.0015756135
0.0008887431 -0.009937737 -0.0021167363 -0.00327264 -0.0025291534 -0.0062072272 0.0013238342 0.0024278641
-0.0038291612 -0.0011453906 -0.004253735 -0.0014477065 -0.0007244427 -0.006362561 0.0016394024 0.0011093105
-0.00685444 0.00020543308 -0.006687761 0.0020665184 0.0034859027 -0.005633117 -0.00019910772 0.0037327788
-0.0038905942 -0.00032115408 -0.007611527 -0.0051738187 0.0012045921 0.004963773 -0.0037631805 -0.0017247901
0.000304388 0.00088746275 0.0010607039 -0.004113587 0.0007076249 0.0027796521 -0.0025596134 -0.0017844264
0.003825559 0.0019354336 -0.0007361217 0.003421714 -0.0034787897 -0.0006197299 0.0024600357 0.00092404976
-8.1102917e-07 -0.0009171866 0.0015880427 -0.007987954 0.00095546007 0.005457933 -0.004868959 0.0010907574
0.0036840634 -0.00020179704 0.00051272905 0.00391169 0.0035084274 -0.002222329 -0.004620102 -0.00042655616
-0.0036620116 0.0056718644 -0.0015347699 -0.00097520516 0.006869373 0.0007470866 -0.004155873 -0.0054337354

network_body._body_endoder.seq_layers.2.weight f4 [128, 128]
00000000: 85a9 043e 2bbc 0a3e 2553 8c3d 75c8 353c
00000010: b2ac 093d bc2c 08be bdc4 533e 085c 81bd
00000020: 5137 4f3d 112f fc3d d9e4 103d 40d9 b93d
00000030: 3b5d ef3d 966d 53bd 62c6 09bd ded8 4f3e
00000040: 8c33 32bd 5cf7 9cbd ba88 893d 6ea7 4abd
00000050: 0bbb 2b3d c06c 66be eb5d c43c 213a 113c
00000060: 158e b03d 0e07 0b3c cd78 8fbc fdf8 063e
00000070: e636 083b 2278 9a3d 85c2 a6bd 52b5 e1bc
00000080: df88 65bd ee21 193e f96d 103d c1da edbc
00000090: 6534 a63c 3c12 893c fa6d c1bd b2fb 633d
000000a0: df9a 82bc 9286 c7bc 9f32 ed3c be0f 403c
000000b0: 617d f13b 6dc1 d6bc ec21 5ebe 8f4d 8d3d
000000c0: ce2b 24bc 79db 893d 1ba6 143c 7e74 003c
000000d0: 52b0 543d 24ca c43d 0c5a 563b f0c4 9c3b
000000e0: 0c06 80bd 0a09 b53c a289 a43c 606a 423d
000000f0: 99ba ab3d 5f8e 833d efab 9bbd 05c6 fb3d
00000100: 37df cb3d ca69 f0bb 05a4 b8bd 40db 6cbd
00000110: 33fd c5bc 82e0 853b de06 29bb 4d64 433d
00000120: e160 b93d 35f2 30bd 0fb7 43bd d94f b6bc
00000130: 8933 8a3d 9542 cf3d 60ae 2d3d c027 f8bd
00000140: 6989 a1bc ff3b 50bc fe1b 66bd c8f9 1f3d
00000150: 5087 c63c cc5e d7bd 4734 6dbd 06a9 09bd
00000160: 6515 82bd a159 6a3d 9a4c 2e3d 712e cdbc
00000170: 8658 4a3d bd6a cbbc 97ae 28be 9b8f ec3d
00000180: 02ac a73c 00e3 f9bd 9d03 173d 8dfd a53d
00000190: 97f1 39be a21d a8bb 64b2 8cbb 4c1a fcbd
000001a0: f196 b03c bf2b 453d 4960 773c 3299 0ebe
000001b0: ca03 5f3d c9d2 ff3d 1677 cbbc 4eba 6abd
000001c0: 64cf 4dbb e383 2d3e 9061 36bb c0c1 f03d
000001d0: ecb1 b9bd 2af2 f03d 88a5 60bd d3ae cebc
000001e0: 23f5 2c3d 3995 613d 38bc f7bc 1bc9 aa3d
000001f0: a6a3 893d ca63 9f3d b26b 0dbd 2235 d8bd
00000200: d830 2bbc 812f 873d 451c 3d3d 6f66 febd
00000210: 55c0 60bd d2dd 883d 00d3 463e e179 e33b
00000220: ea5a 1b3d c271 9f3d 8043 29ba 0f44 26bd
00000230: ccfa 2b3e fa52 553d deb4 39bd 052f 5e3c
00000240: c69e f8bb 9857 c3bc 0cc5 db3d 20d9 89bb
00000250: a82b c43c bf50 293d 96f8 09be 24c1 2fbe
00000260: 9bfa 103a 208a 933d 48c2 81bc 279d 583e
00000270: f271 42bc 1c59 e3bd 3dbd d43c 8b43 833a
00000280: 8e36 72bd 6253 693c 106f 633d 0f2f b5bc
00000290: 9f4c 8ebd 7a12 7cbd 542d 023e 71d8 35bc
000002a0: 6910 f83d 52dd 8f3d 9057 68bd 73df 5bbd
000002b0: ce85 bc3d 89c2 f83d c1a9 1fbe a017 18bd
000002c0: 7a49 253d e482 f73b 03b5 3dbd e608 92bd
000002d0: 623d 9bbc cf16 57bd ef4f caba 3fda c8bd
000002e0: 0b1d 393e 60a2 99bc 64f0 cf3c 4531 32bd
000002f0: 000e 94bd bdb3 543d 0159 ffbc 3c37 3a3d
00000300: edc4 e6bc 02b4 c0bd e02a 94bd b529 40bc
00000310: c4d4 bbbd 13c2 63be 5b13 ca3c 58de 3abd
00000320: b8c4 b33d b54f 5ebd 62cd c2bd 0750 a8bc
00000330: ffd2 803d e8dc 1dbe 1b3c 6f3e 7c9a 92bc
00000340: 59bd f5bc c8c4 88bd d7be a8bc 525f 303d
00000350: d194 143c 8839 2a3e a413 403e d211 e7bd
00000360: e029 7d3d 48b2 2b3e 761c 133e 990d f5bc
00000370: 07ae d6bc a4ef d9bd 752f 2ebd b490 3aba
00000380: 737a 58be dcfd 95bd 02e7 1eb9 86e7 86be
00000390: ab82 1f3d dde8 45bd 15c2 b3bd 038c dcbd
000003a0: 9f94 acbd 31b2 bf3b 70c7 46bd a2bf 883d
000003b0: 9b42 183d 01b7 f8bc d836 5a3d 83df 093e
000003c0: 7cfc a6bd 92f8 a2bd cad9 99bd eedf fe3c
000003d0: 2dbe 71bd 6688 41be 3ac6 44bd 246d 4cbc
000003e0: 706e 263c 9d2d 733c 8b15 a2bc fd6b 23bd
000003f0: 8a62 8ebd c8a1 05be bde1 8e3d 02f8 df3d
0.12955292 0.13548343 0.06851796 0.011095156 0.03361196 -0.13298315 0.20680518 -0.06316382
0.050589863 0.12313665 0.035374496 0.0907464 0.11687704 -0.05161818 -0.03363646 0.20297572
-0.04350619 -0.076643676 0.06715532 -0.04947608 0.041926425 -0.22502422 0.023970565 0.008863957
0.0862085 0.008485569 -0.017513657 0.13180919 0.0020784675 0.07542445 -0.081425704 -0.02755228
-0.056038734 0.1495435 0.035261128 -0.029034974 0.020288656 0.016732328 -0.094448045 0.055659957
-0.015942989 -0.02435616 0.028954802 0.011722503 0.0073696827 -0.02621528 -0.21692628 0.06899559
-0.0100202095 0.06731314 0.009072806 0.007840274 0.051925965 0.09608868 0.003270748 0.004784219
-0.06251153 0.022099037 0.02008516 0.04746473 0.083852 0.064236395 -0.07601153 0.122936286
0.09954684 -0.00733683 -0.09015659 -0.05782628 -0.024168586 0.0040856013 -0.0025791447 0.047703076
0.09051681 -0.043199737 -0.047782 -0.022254871 0.06748111 0.101201214 0.042402625 -0.12116957
-0.019718843 -0.012709617 -0.05617904 0.03905657 0.024234444 -0.10516128 -0.057911184 -0.03360846
-0.06351737 0.057214383 0.04255352 -0.025046559 0.04940083 -0.02483117 -0.1647285 0.11550828
0.020467762 -0.122015 0.03686868 0.081050016 -0.18158565 -0.0051304856 -0.0042937268 -0.12309703
0.02155635 0.048137423 0.01509864 -0.13925627 0.054446973 0.12491376 -0.024837058 -0.05730658
-0.0031404132 0.16944842 -0.0027829148 0.11755705 -0.09067139 0.11764939 -0.054845363 -0.025229847
0.042225968 0.05507395 -0.030241117 0.08339139 0.067206666 0.07782705 -0.034526534 -0.10557009
-0.010448657 0.066008575 0.046169538 -0.124218814 -0.054870922 0.06682934 0.19416428 0.0069420193
0.0379285 0.077853695 -0.00064568967 -0.04059225 0.1679489 0.052081086 -0.045338504 0.013561015
-0.0075872866 -0.023845479 0.10730943 -0.0042067915 0.023946598 0.04133677 -0.13473734 -0.17163521
0.0005530507 0.0720408 -0.01583971 0.21153699 -0.011867987 -0.11100981 0.025969142 0.0010014636
-0.05913406 0.014241071 0.05552584 -0.022117166 -0.06948208 -0.061541058 0.12712604 -0.011098967
0.12112505 0.070246354 -0.05672413 -0.053679895 0.09205209 0.1214648 -0.155921 -0.037131906
0.040353276 0.007553445 -0.046315204 -0.071306035 -0.018950168 -0.052511986 -0.0015435199 -0.09807252
0.18077485 -0.018754184 0.025383182 -0.04350402 -0.07229233 0.051929224 -0.03117037 0.04546283
-0.028170073 -0.09409334 -0.0723474 -0.011728694 -0.09171441 -0.22242002 0.024667433 -0.0456222
0.087777555 -0.054275233 -0.0951183 -0.020545973 0.06290244 -0.154163 0.23362772 -0.01789593
-0.029997515 -0.06678158 -0.020598812 0.043059655 0.009068684 0.16623509 0.18757492 -0.11282696
0.061807513 0.16767228 0.14366326 -0.02991371 -0.02620603 -0.10641411 -0.042525727 -0.00071168994
-0.2114046 -0.073238105 -0.00015154111 -0.26348513 0.038942974 -0.04831778 -0.087772526 -0.107688926
-0.08426785 0.0058500995 -0.048530042 0.06677176 0.037172895 -0.0303607 0.05327496 0.13464169
-0.08153626 -0.07957567 -0.07512243 0.031112637 -0.059019256 -0.18899688 -0.048040606 -0.012477193
0.010158166 0.014842418 -0.019785663 -0.039897908 -0.069523886 -0.13049996 0.0697665 0.109359756

network_body._body_endoder.seq_layers.2.bias f4 [128]
00000000: a04f 83bb 78bb 8fbb c100 9b3b 05a9 d039
00000010: 7ccd 3bbb 9e66 7a3a 315d 893b b710 f93a
00000020: 2b44 a7ba f200 f43b 0aa4 79bb 4012 5b3b
00000030: e7d1 46b9 60a8 32bb b7e8 393b f006 1fbc
00000040: 077c 803a eb6f cdb9 33b7 01bc 7200 01bb
00000050: 5c0d 993a 2912 69bb 85f8 83bb 4e3f 603b
00000060: 48f3 3abb 76d1 1d3c a839 7ebb 79ea b6ba
00000070: aa83 01bc f66b 813a b96f 993a 65d6 32bb
00000080: dc57 88bb dcd8 2ebb 821b 1ebb 2a56 64bb
00000090: 3557 d13b 4581 0fbb 2034 3abb 51e0 4fbb
000000a0: ea6f 3539 f5b8 0cbc 57c0 7abb 2c4e 363b
000000b0: 13d3 813b 3d0d 4abb d5ac 0e3c e0c5 b13a
000000c0: 27dc 173b 6d76 a6ba 004a c83a fe46 8e3b
000000d0: f63d 863a e2aa 263b 8773 b43a becd 0e3b
000000e0: 39d5 01ba 9a2e c239 f030 0e3a 90cd cabb
000000f0: 7bc6 debb cd10 9ebb db22 fdba 6e9b cf3a
00000100: 2610 07bb 91f0 fabb 0ff3 63bb 2320 05bb
00000110: 2495 a1bb 9e0e 5d3b c759 41ba bb0b c13a
00000120: a072 193b 8624 023c eb09 abb9 56b5 04bb
00000130: fa99 063b 5399 463b d0f5 82bb d0c7 7b3b
00000140: d4b0 f13a 634f aeba 988a 6bba d5ef a2bb
00000150: 585f 96ba 3fa9 c1ba 3c92 58bb b9f7 68bb
00000160: 09ec 283b cdd5 c239 b39c 36bb 9dd3 993b
00000170: 8a21 15ba d22b b8ba 31de 63bc 56e2 04bc
00000180: ebb7 53bb 5517 bf3a 86e9 f73a 8925 ffba
00000190: 0933 0e3b 7355 85bb efb4 003a 9f8f c3bb
000001a0: 52cf 333b 4457 f83a 9b70 723b 6a0d 99bb
000001b0: 4cf5 4bbb e7d5 54bb 3e7c e63a 6567 0abc
000001c0: adea b63b 6464 3f3a 3a76 083b 4064 15b8
000001d0: 5e9d b5ba 7273 9c3a cd8b 4abb eac8 0b3c
000001e0: 27b1 583b 75fc 1e3c 3d27 673a 2364 013b
000001f0: fa65 cd3a efe9 1b37 9fb1 cfba e6fc 063b
-0.004007295 -0.0043863617 0.0047303145 0.0003979878 -0.0028656414 0.00095520343 0.0041920175 0.0019002174
-0.0012761405 0.0074464018 -0.003809216 0.0033427626 -0.00018960946 -0.0027261004 0.0028367469 -0.009706244
0.0009802588 -0.00039184032 -0.007917213 -0.0019684103 0.0011676955 -0.0035563803 -0.0040274286 0.003421742
-0.0028526355 0.009632459 -0.003879169 -0.0013955376 -0.007904926 0.0009874094 0.001170627 -0.0027288434
-0.0041608643 -0.0026679551 -0.0024125283 -0.0034841397 0.0063885697 -0.002189712 -0.0028412417 -0.0031719396
0.00017303196 -0.008589019 -0.0038261616 0.002781759 0.0039619296 -0.0030830645 0.008708199 0.0013563
0.0023171993 -0.0012700089 0.0015280843 0.004341959 0.0010241854 0.0025431444 0.001376734 0.0021790112
-0.0004952732 0.00037037284 0.00054241624 -0.0061890557 -0.006798563 -0.00482378 -0.0019312756 0.0015839168
-0.002060899 -0.0076580723 -0.0034782325 -0.0020313344 -0.004931109 0.0033730636 -0.00073757436 0.0014728227
0.002341427 0.007943278 -0.0003262305 -0.0020249686 0.0020538555 0.003030379 -0.0039965883 0.0038418658
0.001843954 -0.0013298806 -0.00089851907 -0.004972438 -0.0011472506 -0.0014775171 -0.0033046147 -0.0035548045
0.0025775454 0.00037161857 -0.0027864396 0.0046944157 -0.00056888966 -0.0014051145 -0.013907955 -0.008110603
-0.0032305669 0.0014579097 0.00189142 -0.0019466142 0.00216979 -0.004069024 0.00049097737 -0.0059680487
0.0027436805 0.0018946906 0.0036993388 -0.0046707885 -0.003112155 -0.0032476129 0.0017584634 -0.008447503
0.0055821748 0.0007301031 0.0020822422 -3.5617733e-05 -0.0013856103 0.0011936261 -0.0030906082 0.008531788
0.0033064575 0.009703745 0.00088177976 0.0019743524 0.001567065 9.293187e-06 -0.0015845782 0.0020597517

action_model._discrete_distribution.branches.0.weight f4 [2, 128]
00000000: 4df8 7c3b 4038 15bc 6c36 a238 a4fe ebb9
00000010: 2665 c83a a894 fb3b a28d 663a 8217 013b
00000020: 1649 22bc cb23 06bd 17b1 8ebb 33ff 08bc
00000030: b9b1 7e3c 728a 0bbc 89a7 f73a d3fc 1cbc
00000040: 8511 c7bb d131 073b c8d7 19bb 6514 19b9
00000050: 22b8 28bb d246 95bb 1a64 8abb 90e3 13b7
00000060: 37a3 39ba 47cd 4ebc cd5b aebb 3bac 12bb
00000070: 3617 143a f290 f5bb 924d 483c ef7c 9dbb
00000080: 41ea 95ba 1f5d eebb 849e 4ebc 1067 aebb
00000090: 7ea5 2cbc d738 dfbb 91e9 a13b 3933 3ebc
000000a0: b44f 2abc 16cf 64bc f52e bf3b 5aa3 c73b
000000b0: 7cdb 4ebc c3ba 31bc 884a 94bc 57f7 b63b
000000c0: 3a66 17bc 9431 6ebb fb2d 0e3c 00a4 623b
000000d0: 1c28 47bb 0256 6c3b a098 273c 4236 afbc
000000e0: 2bf0 3f3c af02 9abb e200 c23b 35f2 8ebb
000000f0: 83d6 873a efa0 b539 05ae 033c 8b68 af3b
00000100: 2636 50bc 989f a73b d710 953b 067d 1cbc
00000110: a4f5 b3bb ce48 f2ba 350c 86bc c33b 9d3b
00000120: 71fc a1bc 3d87 f73b 1535 80bb fc33 18bc
00000130: b051 603c 6365 0f3c 26be b3bc 56c9 0f3c
00000140: afce 933c c7d1 42bc d86d 153c 8962 0eb9
00000150: 4984 2fbc 5cce 80ba 22a7 92bb 4781 aabb
00000160: 91aa 3d3c 3dba 89bb f0bd 8abb efa7 0239
00000170: 0822 933c 0f74 7c3b 69fd 4d3c d0dd 133b
00000180: 7d88 b1bb 487e c73a 58de d33b db60 b4bb
00000190: d306 3c3b 0a89 c1bb a9cc 653c fbf8 963b
000001a0: 03f4 85bc ba29 d83a d8d4 4c3c e14a 5abc
000001b0: b7b4 8dbc 147b 5fbc e35f 26bb 1a66 a83a
000001c0: d587 a93c 0a7f a5bb 2e81 453c d38d 39bb
000001d0: b008 87bb 33df 72bc 37b3 183c b603 af3c
000001e0: 925d 743a 7c03 bdbc a47b b4bb f36f 103c
000001f0: 1d60 95ba 0d60 89bc 1acc 89bb 04ec 9ebb
00000200: 61c9 f13b 597d 02bb e52c 26bc ff67 09bc
00000210: 0e3c 90bb 7cc4 a4ba 3722 833c 7acc 493c
00000220: 6afd 953b 8937 afbb 70be 2cbb 8dbe 013c
00000230: 79f0 113c 5b75 3ebb 1809 1ebc 0111 d83b
00000240: b3f7 323c 8ecf 0cbc 49bd 853b 8ce6 f83b
00000250: 9348 ecbb d6cf 9f3a 087e 3a3b 98d1 7fbc
00000260: 94f2 873c d1c3 4d3c 8a82 93ba c0bc d93b
00000270: 4f0c 2b3c cc6a 53bc 468f c0bb 13c5 263c
00000280: 8a30 a03b 496f 343b 1af1 803b cdaa 5eb9
00000290: a0e6 013c a2b4 fd3b d057 293c c7fa 9a3c
000002a0: 358f 623c 030f 62bc 3c60 73bb 7c34 a43a
000002b0: 4157 953c f768 50ba d9a3 6e3c da43 f1bb
000002c0: 3ee3 b8bc 4785 8bbb ca0a cfba 225d a63c
000002d0: d78b 10bc bbed 183c a46e e3ba c1c9 e73b
000002e0: f5ea c93b 2d79 1d3b 4984 1b3a e029 9dbb
000002f0: 2b1a 183b af10 27bb d770 013c 9d82 44ba
00000300: e041 f1ba b768 8b3c 0731 4c3c 687c 0abc
00000310: acc8 85bb 09e5 633c 19bf 98bc 8f89 e5bb
00000320: 68fe 423c d606 9f3b e8ab 633c 3988 403b
00000330: f0dd 6e3b 03f5 52bc 7a5a 87bc 70bf 14b8
00000340: b0d2 ef38 46ad d93b 06a3 79bc 2537 d7ba
00000350: 29ac f83b 4a0b 4e3c e239 7d3a aae7 663c
00000360: 5f44 7bbc 04f2 ba3b c888 243b 17a3 d93c
00000370: 306d 0ab9 831e 043c ca4c 4f3c fc70 9e3b
00000380: eec1 933b 7b18 18bc 1020 f3bb 7394 1a3b
00000390: ad34 51bc 9bce cd3b de17 a7bb e354 973b
000003a0: b430 923c 0f8d 64bc cfcf 0bbb c3ce 0abc
000003b0: 64bd 533b 6c36 1cbc 7f31 a2bc 8eee 1d3b
000003c0: 6afc 1abc 801f 43bc 6e69 ec3b 4d2f 383c
000003d0: 36f2 713b 5bdd d63a 579f 6dbb 733d 65bb
000003e0: 21b8 f8bc d4ce b63c 739f c83b 2b5c 74bb
000003f0: fc04 73bc c0cb 913c 02f6 c03a 0f88 5fbb
0.0038600147 -0.009107649 7.734899e-05 -0.00045012415 0.0015288934 0.0076776333 0.00087949086 0.001969785
-0.00990512 -0.03274898 -0.004354607 -0.0083616255 0.015545302 -0.008516895 0.0018894534 -0.009581762
-0.0060750865 0.0020629058 -0.0023474563 -0.00014598815 -0.0025744517 -0.0045555616 -0.004223359 -8.814866e-06
-0.0007081511 -0.012622184 -0.005321002 -0.002238049 0.00056492107 -0.0074940855 0.012225525 -0.004806153
-0.0011437611 -0.0072742845 -0.012611035 -0.0053223446 -0.010537503 -0.0068121958 0.0049411734 -0.011608892
-0.010394979 -0.013965389 0.005834455 0.006092471 -0.012625571 -0.01084775 -0.018101946 0.0055836844
-0.009240681 -0.0036345469 0.008677955 0.0034582615 -0.0030388897 0.0036062007 0.01022926 -0.021388177
0.011714975 -0.004700027 0.0059205154 -0.0043623694 0.0010363612 0.00034642915 0.008037095 0.0053530387
-0.0127082225 0.0051154606 0.0045491266 -0.009551292 -0.005491929 -0.0018484832 -0.016363243 0.004798384
-0.019773694 0.0075539635 -0.003912578 -0.009289738 0.013691351 0.0087522 -0.021941256 0.00877603
0.01804289 -0.011890835 0.009120427 -0.00013578882 -0.010712692 -0.0009827125 -0.00447549 -0.0052033993
0.011576311 -0.0042031095 -0.004234068 0.00012460326 0.017960563 0.0038521325 0.012572625 0.002256263
-0.005417882 0.001522013 0.0064657144 -0.00550471 0.002869059 -0.005906229 0.014025846 0.0046073175
-0.016351705 0.0016491928 0.012501918 -0.013323517 -0.017298086 -0.013640184 -0.0025386743 0.0012847811
0.020694653 -0.0050505446 0.012054725 -0.0028313294 -0.0041209087 -0.014823723 0.009320072 0.021364074
0.00093218044 -0.02307295 -0.005507903 0.008815753 -0.0011396442 -0.016769433 -0.004205239 -0.0048499126
0.0073787426 -0.0019911139 -0.01014254 -0.008386611 -0.0044016903 -0.0012570764 0.016007526 0.012316817
0.0045773285 -0.0053471965 -0.0026358627 0.007918966 0.008907431 -0.0029061649 -0.009645723 0.006593824
0.010923314 -0.008594407 0.0040814024 0.0075958427 -0.0072108 0.0012192677 0.0028456468 -0.015613936
0.016595162 0.012558893 -0.0011254114 0.006644815 0.010439946 -0.01290388 -0.0058764545 0.010178822
0.004888599 0.0027532151 0.0039349915 -0.00021235198 0.00792852 0.0077424804 0.010335878 0.018918408
0.0138280885 -0.013797524 -0.0037136218 0.0012527849 0.018230082 -0.00079502113 0.0145654315 -0.007362825
-0.022569295 -0.0042578313 -0.0015796062 0.020308081 -0.008822403 0.009334023 -0.0017351699 0.0070736115
0.0061620423 0.0024028525 0.0005932493 -0.0047962517 0.0023208957 -0.0025492122 0.007900438 -0.00074962695
-0.0018406473 0.017017705 0.012462861 -0.008452512 -0.00408276 0.013909587 -0.01864581 -0.0070049237
0.0119014755 0.00485311 0.013895966 0.002937807 0.0036448203 -0.012875798 -0.016522635 -3.546424e-05
0.00011435652 0.0066429703 -0.015236622 -0.0016419633 0.0075888825 0.012575934 0.00096598093 0.014093319
-0.015336125 0.00570512 0.0025105942 0.026567025 -0.00013201381 0.008063915 0.012652585 0.004835246
0.004509202 -0.00928318 -0.0074195936 0.0023587018 -0.012768907 0.006280733 -0.0050992807 0.0046182736
0.01784549 -0.013949647 -0.002133358 -0.008472147 0.003230893 -0.00953446 -0.019798992 0.0024098489
-0.009459594 -0.011909366 0.0072147166 0.011241746 0.003691805 0.0016392873 -0.0036258304 -0.0034979254
-0.030361237 0.02231542 0.0061225235 -0.0037286382 -0.014832731 0.01779735 0.0014721754 -0.0034108197

action_model._discrete_distribution.branches.0.bias f4 [2]
00000000: 69a0 153b 68a0 15bb
0.0022831208 -0.0022831205

exp_avg f4 [128, 15]
00000000: f25d a23a 02c8 083a 6cf0 7b39 46cf 083a
00000010: ed16 323a 887c 7437 bb6b ff38 5839 373a
00000020: c84e bf37 5e85 d539 9087 403a e332 8cb8
00000030: ec48 143a 92d7 9339 0000 0000 78e6 d639
00000040: be1e cd38 e962 e338 41e0 8f38 881b 3b39
00000050: a053 4cb8 9ea8 3f39 9af4 2439 2570 1cb9
00000060: 117a 9b39 a8ac 9239 8a60 e238 1ea8 f639
00000070: a6f9 a538 0000 0000 a2f1 2fba 1a45 b6b9
00000080: 7e44 a939 115f 20ba c692 d9b9 8c86 4e37
00000090: d7fb 74ba 105e 9db9 69ed cbb8 02bf 93ba
000000a0: 0f34 adb9 5abf 1bb9 11a6 7dba c710 27b9
000000b0: 0000 0000 2483 523a 9614 aa39 b598 bfb9
000000c0: cfd4 e839 6866 2939 b241 f038 3666 173a
000000d0: 0787 ce38 f832 5139 f32f ec39 b878 4eb8
000000e0: b030 3fb8 2c25 6039 8a96 9638 0000 0000
000000f0: 9f4b 2e3a e8bf 6539 7668 4b39 9ab0 073a
00000100: b529 9939 5a39 5439 e518 173a 8373 b439
00000110: a3e3 9939 3844 f839 0683 dd39 7657 6839
00000120: 7fd2 183a 7ca8 5139 0000 0000 5027 8f38
00000130: 99a8 6939 0ab1 b7b8 cd04 513a 16c1 2139
00000140: aab1 c6b9 24c6 df39 609b 1337 3542 0db9
00000150: d043 7fb8 602f f537 503e fdb8 606d 8bb8
00000160: 7c17 3038 0000 0000 276e 2ab9 020f 5eb9
00000170: 15da c1b7 f8fa 0fb8 8e78 48b8 d594 f238
00000180: d03d a939 0b0e 2139 2e46 5c39 b8ca 3839
00000190: a0ca 2239 60ee ebb7 4980 bb39 c9b1 f637
000001a0: 0000 0000 48db 1f3b e92c db39 c9db 0a3a
000001b0: 96d4 6f38 f174 1a3a 629d 773a 7c56 b839
000001c0: 985b 523a 4083 b1b7 92af 863a faac 923a
000001d0: 1e00 da39 d76d e93a 7411 d539 0000 0000
000001e0: e088 e839 68b1 8f36 512f 2638 707d 3eb9
000001f0: 4c0c fb38 59a2 9339 76d6 f9b8 45ff 8439
00000200: fdf2 4238 26f1 c839 06fc 8239 a66f 82b8
00000210: 9568 b439 32ba b038 0000 0000 9fe0 8139
00000220: 1403 0038 56ba 13b7 6100 dd38 028a bf38
00000230: 372c af38 b59b 7d38 97a5 bc38 fa34 a838
00000240: 4f46 7c38 9773 ba38 8754 af38 79da 6f38
00000250: 31a1 3038 0000 0000 4195 a4b8 e252 1eb7
00000260: cae6 e6b6 dd1d 66b7 7a4f a8b7 1832 e3b6
00000270: 3cbf 8835 408b 0935 9418 b4b6 7088 b235
00000280: f8fb 56b8 1cce 5237 f812 c1b8 9cb8 98b7
00000290: 0000 0000 806b e7b8 4a78 8e39 0a6c a5b9
000002a0: 3ec8 303a 8498 1439 3eb5 b4b9 1e5a 163a
000002b0: 7a36 0bb9 1475 97b8 af9d 6eb9 a4cf 20b9
000002c0: 2004 11b7 a0fe 46b8 a63d 97b8 0000 0000
000002d0: 455a f739 0e4a 8ab8 20e2 6ab6 7264 24b9
000002e0: 748b 3cb9 7e17 8538 2ad7 a8b9 a324 77b9
000002f0: 1977 9438 470c 09ba a702 cbb9 c0ab d2b7
00000300: 6be8 16ba fc93 28b8 0000 0000 1725 0d39
00000310: eab3 6237 e092 1bb5 a310 a338 9d64 0238
00000320: bc02 a9b7 9007 ee38 221e 0838 8c82 6cb7
00000330: 946f 2838 d437 8138 3408 fdb7 6874 0439
00000340: 28f5 0d38 0000 0000 ace0 5437 8f2e b038
00000350: 8c33 9eb7 360a 9038 72f2 b138 5ebf 3738
00000360: 58d4 ca38 e64f 9638 14a7 c1b7 6c1f 7839
00000370: 6a68 d738 a2f5 8b38 ee81 8238 5c35 0938
00000380: 0000 0000 e476 2939 4fe8 02b9 43de eeb8
00000390: 002d cbb7 6cce 17b9 707f 6fb9 8c34 2439
000003a0: c0b8 75b8 a15e 48b9 986c 6338 0058 aab4
000003b0: d689 82b9 003a 2738 c8ff 1738 0000 0000
000003c0: 5c0f 9ab9 bc90 83b9 eed9 4536 3ca7 f4b9
000003d0: 596e 84b9 aba4 5c38 4b96 06b9 0a5a 80b9
000003e0: 972e 7338 f84f cbb8 8a14 7ab9 e91d 7338
000003f0: dea2 e4b8 67a3 86b8 0000 0000 cab4 fbb9
0.0012387617 0.0005217792 0.0002402679 0.00052188744 0.00067935773 1.4572528e-05 0.00012179414 0.0006989441
2.280566e-05 0.00040725892 0.0007344419 -6.6851986e-05 0.0005656618 0.00028198637 0.0 0.00040988973
9.780888e-05 0.00010842627 6.860542e-05 0.00017843966 -4.8715272e-05 0.00018277994 0.0001573138 -0.00014919096
0.0002965485 0.0002797593 0.000107945016 0.00047046033 7.914314e-05 0.0 -0.00067117263 -0.0003476523
0.00032285223 -0.00061176816 -0.0004149882 1.23098835e-05 -0.00093453884 -0.00030015456 -9.7240154e-05 -0.0011272135
-0.00033035918 -0.00014853236 -0.000967593 -0.00015932611 0.0 0.0008030406 0.00032440264 -0.00036544134
0.00044409043 0.00016155245 0.000114563285 0.00057754235 9.847996e-05 0.0001995078 0.00045049153 -4.9226655e-05
-4.5583292e-05 0.00021376152 7.1805975e-05 0.0 0.00066488417 0.00021910632 0.00019398503 0.0005176157
0.00029213508 0.0002023926 0.00057639024 0.00034418338 0.00029352037 0.00047353073 0.00042250025 0.00022157826
0.0005829706 0.00019994559 0.0 6.826094e-05 0.00022283419 -8.759096e-05 0.00079734327 0.00015426087
-0.00037897873 0.000426815 8.798059e-06 -0.00013471472 -6.0859893e-05 2.9228337e-05 -0.00012075587 -6.648409e-05
4.198354e-05 0.0 -0.00016253498 -0.0002117716 -2.3108945e-05 -3.432759e-05 -4.779599e-05 0.00011567181
0.00032280246 0.00015359388 0.00021006979 0.00017623126 0.00015525008 -2.8125185e-05 0.00035763 2.9408273e-05
0.0 0.0024392176 0.00041804396 0.0005297033 5.7180026e-05 0.00058920594 0.0009445754 0.0003515965
0.0008024513 -2.1161162e-05 0.0010275713 0.0011190467 0.00041580288 0.0017809224 0.0004063953 0.0
0.00044352468 4.282385e-06 3.962155e-05 -0.00018166541 0.00011970903 0.00028158983 -0.00011913192 0.00025367193
4.6479505e-05 0.00038326642 0.00024983304 -6.219679e-05 0.00034410195 8.4270156e-05 0.0 0.00024772153
3.0520445e-05 -8.8052675e-06 0.00010538172 9.133296e-05 8.352886e-05 6.0464914e-05 8.995382e-05 8.020732e-05
6.0146962e-05 8.8907014e-05 8.360395e-05 5.718551e-05 4.211179e-05 0.0 -7.84793e-05 -9.4368315e-06
-6.8814015e-06 -1.3716021e-05 -2.006417e-05 -6.770959e-06 1.0188446e-06 5.123911e-07 -5.3672793e-06 1.3301742e-06
-5.125624e-05 1.2564964e-05 -9.20649e-05 -1.8205777e-05 0.0 -0.00011034962 0.00027173973 -0.00031551748
0.00067437056 0.00014171196 -0.0003446731 0.00057354744 -0.00013276367 -7.2220486e-05 -0.0002275619 -0.00015336141
-8.643634e-06 -4.7444017e-05 -7.211724e-05 0.0 0.00047178767 -6.5941465e-05 -3.500034e-06 -0.00015677678
-0.00017981027 6.34631e-05 -0.00032203767 -0.00023569404 7.0793736e-05 -0.0005227965 -0.00038721153 -2.5113928e-05
-0.0005756679 -4.0192142e-05 0.0 0.00013460625 1.3512539e-05 -5.795573e-07 7.7755445e-05 3.108812e-05
-2.0147643e-05 0.00011350133 3.245299e-05 -1.40970915e-05 4.0158237e-05 6.161598e-05 -3.016377e-05 0.00012631866
3.384534e-05 0.0 1.2688495e-05 8.401006e-05 -1.8859071e-05 6.868357e-05 8.485177e-05 4.3808825e-05
9.671663e-05 7.1674396e-05 -2.3085195e-05 0.00023662829 0.000102714475 6.673789e-05 6.223084e-05 3.271304e-05
0.0 0.00016161386 -0.00012484308 -0.00011390124 -2.422044e-05 -0.0001447738 -0.0002284029 0.00015659834
-5.8584614e-05 -0.00019108738 5.4222153e-05 -3.1728996e-07 -0.00024898228 3.986992e-05 3.623942e-05 0.0
-0.00029384613 -0.00025094103 2.948214e-06 -0.00046663906 -0.00025259217 5.2605446e-05 -0.00012835224 -0.00024481147
5.7979105e-05 -9.69469e-05 -0.0002384951 5.796357e-05 -0.000109022236 -6.420054e-05 0.0 -0.0004800915

exp_avg_sq f4 [128, 15]
00000000: 3680 0f36 bb9a 9634 16a8 c133 a05b 4935
00000010: 24f3 bf34 1086 f433 43b3 7035 ccdf e234
00000020: 5477 0a34 1280 8935 0fed 0135 4266 1434
00000030: 1ca8 5235 6fa1 9e33 0000 0000 2746 2e35
00000040: 072e a233 64be 8332 7273 6933 077d b633
00000050: e2c8 3133 2c42 bd34 9b49 e733 cacb 4f33
00000060: c58f 5535 ea0c fa33 66cd 5b33 2127 1135
00000070: 18c4 e432 0000 0000 a99b e636 8f9d b434
00000080: cc2e 3f34 4dd6 9036 18da 3b35 9709 5434
00000090: 3313 9436 eb4d 9035 9e95 9434 f293 8f36
000000a0: ce6c c135 70af 6d34 baa2 2036 b3a1 6a34
000000b0: 0000 0000 f25f 5636 ee3c 7934 2408 f833
000000c0: 5e3b 8235 a3c9 da34 5ce1 3634 210d ba35
000000d0: 0538 3b35 3ce1 6f34 9cb4 6e36 9808 8b35
000000e0: 2466 5734 37e1 5736 0b2c 3b34 0000 0000
000000f0: 8abc e734 a692 8b33 202d 2133 a622 d034
00000100: 7a26 2934 2cb7 2c33 1966 6335 2cc7 8334
00000110: 006b a133 35cc 0d35 4a45 e334 eb77 4f33
00000120: 0d41 a234 ebe7 6133 0000 0000 8cbc 3536
00000130: 21ea 4c34 412b b533 2286 5035 4c1a a834
00000140: 9299 c233 ae53 8635 485b c434 94c5 d033
00000150: 4d30 1735 203c 1435 3144 a533 5ba1 9b35
00000160: 7541 bb33 0000 0000 ceb0 9d36 be8d a234
00000170: 1f0d e433 ed8b 1a36 36a1 2f35 99af 0b34
00000180: 8c21 9336 9b82 7435 542c 5a34 2218 1136
00000190: e28a b135 d933 fc33 e0cc f735 c6d0 4934
000001a0: 0000 0000 84a5 2837 20be d834 ef8c 2734
000001b0: dc2c 5434 26b9 1735 20b9 ba34 26db fd35
000001c0: c789 4b35 8083 8e34 2f20 ab35 0d6e b635
000001d0: 69d7 6734 a32b 1136 f883 9934 0000 0000
000001e0: f622 ec35 ae6d 8e34 33a8 4c33 8708 8934
000001f0: d63c f434 6c7d fb33 3773 1836 e5c2 1535
00000200: b9a0 0934 ad57 ca35 9fd2 2835 17f3 0234
00000210: 3ac1 be35 c180 9c33 0000 0000 2900 5234
00000220: dcc7 6131 a1b8 9f31 de2b 2832 bba7 1132
00000230: 3b6a 0132 aba9 cc31 dbe5 1132 bf46 0232
00000240: de69 cf31 4c09 1432 82b7 0432 a4eb d431
00000250: f84a af31 0000 0000 56f1 3e32 0b8e 3a2f
00000260: ccc6 772e 6a1d 4f2f eb88 b12f ec79 192f
00000270: ad60 922e cfda 4530 d6a0 cc2f a9aa 9a30
00000280: 6bcf 5f31 7689 cd2f 2e1d 6132 e933 2730
00000290: 0000 0000 61a4 f236 3f73 d834 8aac 5534
000002a0: a594 e235 a573 3135 8f0e 9a34 2003 5436
000002b0: 5654 6d35 8ce9 a434 f76b 2336 fd94 c935
000002c0: b1a1 7d34 cccd 9936 d67e 8534 0000 0000
000002d0: f817 8136 3c7e ba34 3d80 3334 45d0 5535
000002e0: e8f8 f834 4e4d 5634 4fb0 fc35 0117 1235
000002f0: 22fa 5a34 b191 ae35 56e2 4e35 ca4c 5434
00000300: 5be9 b435 0aab 0734 0000 0000 bb8d 3034
00000310: 9ca6 6732 fbdd 3c32 34e9 3a35 79e5 8633
00000320: 6c9f f432 0372 b335 e530 e433 549a 0533
00000330: a672 2434 8039 7134 c002 7c32 d8f5 4734
00000340: 58d3 0e33 0000 0000 dd32 7931 e63a e132
00000350: 2b77 5c30 66c3 0732 2e6e c132 e1b8 1732
00000360: 2e1c 9f32 f588 0633 6712 b431 d59e 9234
00000370: 48d8 2033 871a 5d32 3959 9733 9d83 d531
00000380: 0000 0000 b420 4336 0f91 4634 cad3 6533
00000390: e6a9 c035 203a 8634 540f bf33 35d5 8b35
000003a0: 21fd f834 9f7e 0d34 fa5b 0536 c352 4a35
000003b0: fb67 0134 1e47 9535 ff38 da33 0000 0000
000003c0: 5ab6 9234 6968 f632 6072 1232 07aa c334
000003d0: 01c3 4333 3f95 dd31 439d a732 3f0c 9533
000003e0: d92b f231 b210 1634 9e92 aa33 39af 0832
000003f0: 2221 7b33 c811 1a32 0000 0000 9011 dc37
2.138329e-06 2.8052258e-07 9.0178375e-08 7.5011667e-07 3.575343e-07 1.1386521e-07 8.966783e-07 4.2258614e-07
1.2895663e-07 1.0244569e-06 4.840121e-07 1.3820775e-07 7.847573e-07 7.386813e-08 0.0 6.4922136e-07
7.552085e-08 1.5336987e-08 5.4354537e-08 8.497778e-08 4.1393726e-08 3.525214e-07 1.07701645e-07 4.838129e-08
7.9557896e-07 1.1643881e-07 5.117672e-08 5.407365e-07 2.6631866e-08 0.0 6.8726554e-06 3.3642252e-07
1.7805286e-07 4.3164823e-06 6.9980297e-07 1.9747527e-07 4.412979e-06 1.0751513e-06 2.767601e-07 4.278955e-06
1.4411287e-06 2.2136169e-07 2.3936577e-06 2.1851774e-07 0.0 3.1944332e-06 2.3212098e-07 1.1549881e-07
9.703033e-07 4.0752374e-07 1.7032056e-07 1.3861901e-06 6.974445e-07 2.234055e-07 3.5569892e-06 1.0358808e-06
2.0060594e-07 3.2168589e-06 1.7431755e-07 0.0 4.3164283e-07 6.499367e-08 3.7526775e-08 3.876823e-07
1.5753349e-07 4.0213465e-08 8.471266e-07 2.4545568e-07 7.51661e-08 5.2823754e-07 4.233246e-07 4.8305008e-08
3.0222182e-07 5.2597823e-08 0.0 2.708085e-06 1.9084156e-07 8.436337e-08 7.7681227e-07 3.1311572e-07
9.061763e-08 1.0008132e-06 3.657426e-07 9.721694e-08 5.632217e-07 5.522179e-07 7.695815e-08 1.159536e-06
8.7197726e-08 0.0 4.6995474e-06 3.0277982e-07 1.0619464e-07 2.3029236e-06 6.5427173e-07 1.3009266e-07
4.3848468e-06 9.108714e-07 2.0318959e-07 2.162073e-06 1.3227948e-06 1.17440955e-07 1.846256e-06 1.8795535e-07
0.0 1.0052117e-05 4.037147e-07 1.5604358e-07 1.9760358e-07 5.652131e-07 3.4779896e-07 1.891375e-06
7.5823885e-07 2.654524e-07 1.274986e-06 1.3592086e-06 2.1591917e-07 2.1632084e-06 2.859449e-07 0.0
1.7593545e-06 2.6529364e-07 4.7650428e-08 2.5524443e-07 4.5492806e-07 1.17109124e-07 2.271683e-06 5.5790434e-07
1.281759e-07 1.507569e-06 6.289137e-07 1.2195629e-07 1.421234e-06 7.287736e-08 0.0 1.9557832e-07
3.2855416e-09 4.648499e-09 9.788861e-09 8.478248e-09 7.532942e-09 5.9564704e-09 8.492374e-09 7.583082e-09
6.0365286e-09 8.616848e-09 7.725136e-09 6.1968013e-09 5.1016933e-09 0.0 1.1114329e-08 1.6967065e-10
5.6337865e-11 1.883699e-10 3.2293399e-10 1.3958584e-10 6.6564844e-11 7.197913e-10 3.7221665e-10 1.1253479e-09
3.2568674e-09 3.7386955e-10 1.3103358e-08 6.0828015e-10 0.0 7.2312982e-06 4.0316988e-07 1.989994e-07
1.6881573e-06 6.6105923e-07 2.8695328e-07 3.159228e-06 8.8412105e-07 3.0717308e-07 2.4351737e-06 1.5019028e-06
2.3621284e-07 4.5837132e-06 2.4865466e-07 0.0 3.84729e-06 3.4737047e-07 1.6717327e-07 7.9651755e-07
4.6374703e-07 1.9958426e-07 1.8826776e-06 5.4422713e-07 2.039383e-07 1.3006412e-06 7.707034e-07 1.9771974e-07
1.347896e-06 1.2635078e-07 0.0 1.6442839e-07 1.3483852e-08 1.0993513e-08 6.9629755e-07 6.281602e-08
2.8477835e-08 1.3369721e-06 1.0625971e-07 3.1106836e-08 1.5315399e-07 2.2465792e-07 1.4668956e-08 1.8622757e-07
3.3254167e-08 0.0 3.6263181e-09 2.6220231e-08 8.020488e-10 7.902463e-09 2.2518261e-08 8.831393e-09
1.852285e-08 3.1323868e-08 5.2407816e-09 2.7310185e-07 3.744961e-08 1.2869925e-08 7.047715e-08 6.2140786e-09
0.0 2.90763e-06 1.8492959e-07 5.351084e-08 1.4354562e-06 2.5001737e-07 8.896919e-08 1.0418358e-06
4.6377775e-07 1.3177713e-07 1.9872082e-06 7.53713e-07 1.2051889e-07 1.1122063e-06 1.01617836e-07 0.0
2.7327297e-07 2.868565e-08 8.524324e-09 3.6445292e-07 4.557933e-08 6.448914e-09 1.9512873e-08 6.940581e-08
7.048112e-09 1.3975912e-07 7.9429114e-08 7.956083e-09 5.8470626e-08 8.968023e-09 0.0 2.6234222e-05

exp_avg f4 [128]
00000000: 6c1f c538 e44c dd37 0cc1 5eb8 b8c8 c837
00000010: a7c5 8b38 c8c9 6a37 8676 2437 a00b 0e39
00000020: eea2 eb37 9381 6b37 d1a0 cbb6 92a7 c9b7
00000030: 4cc5 60b7 e946 3d37 c6f1 3637 50aa 4a37
00000040: 8884 b3b7 ad9c 3ab8 0bdd 5235 b712 12b8
00000050: 702c 39b8 bf01 2bb8 803a 19b6 882c 7637
00000060: 3ca5 adb8 c7d0 1e38 a4ba 22b8 4683 8538
00000070: 6ac4 e238 3617 44b7 8b1c 5838 ae8f 38b8
00000080: 2a17 8b36 00c5 8b35 eb50 e7b6 a8e2 0138
00000090: be2c 4cb7 aa1a f537 c655 7534 a8dd 7d38
000000a0: eec6 58b8 b174 c0b8 9bd4 fd37 09d6 8b37
000000b0: 2d9c 0338 1654 59b7 49d6 82b7 321d 4738
000000c0: f595 9736 490f 00b7 b697 7137 d042 a3b6
000000d0: 4aab 7f38 38b6 a5b7 6f91 2cb8 5646 e337
000000e0: c4f6 2438 24db 70b7 e454 ce37 9c54 6237
000000f0: 6422 3738 1e97 8438 40c0 2f36 d132 9bb7
00000100: f05c fe37 bb23 95b8 c8d7 0938 fc3d 53b7
00000110: 7207 beb7 b0ba 00b8 8911 b0b6 3cf6 a236
00000120: d635 3b38 46bb b1b8 005f f834 4cfe 8737
00000130: bdde cd37 8d10 6a35 c0c1 f5b4 f25e dc38
00000140: b435 b5b7 5ecb bab7 5b6b 8fb7 9c0d 2a37
00000150: b1fc 87b8 384a eeb7 1066 ff37 58cd bbb7
00000160: dc85 9bb8 4206 4b38 38a7 13b6 491b 30b8
00000170: 232f d9b4 2442 05b8 feaa c137 83b5 9e38
00000180: 41a4 fe36 3628 73b7 0122 a4b7 cc0e 19b7
00000190: d2fc 1ab6 6e2e 8238 f21e c7b4 66bc 6eb8
000001a0: f2e6 3237 8cd8 4eb5 63e4 8db7 fd78 4538
000001b0: a2ef bcb7 1e4b f4b7 b238 a435 3790 93b8
000001c0: 4cd3 9a37 88bf d8b7 108f 8eb8 8387 4d38
000001d0: 25aa 86b7 d4f2 de37 04aa 0236 0cea 3f38
000001e0: 0da2 9d38 6875 b9b6 06e2 0739 4a6e 9733
000001f0: caac 2d38 81ff b6b4 02e1 2e38 421c 1836
9.399545e-05 2.6381058e-05 -5.3108713e-05 2.3935325e-05 6.664852e-05 1.3994468e-05 9.802758e-06 0.00013546506
2.8090053e-05 1.403726e-05 -6.068593e-06 -2.4039098e-05 -1.3397377e-05 1.1281788e-05 1.0904338e-05 1.2079792e-05
-2.1400178e-05 -4.449177e-05 7.8552756e-07 -3.4826542e-05 -4.4148823e-05 -4.0771203e-05 -2.2832828e-06 1.4673111e-05
-8.28006e-05 3.7864575e-05 -3.8797632e-05 6.366386e-05 0.00010813105 -1.1687915e-05 5.1524996e-05 -4.400283e-05
4.1452195e-06 1.0413642e-06 -6.8937566e-06 3.0967087e-05 -1.2169765e-05 2.9218692e-05 2.2848607e-07 6.0526334e-05
-5.168368e-05 -9.177009e-05 3.0258952e-05 1.666976e-05 3.1378284e-05 -1.2953786e-05 -1.5596992e-05 4.7472487e-05
4.517608e-06 -7.632953e-06 1.4400042e-05 -4.8655565e-06 6.0956263e-05 -1.9754385e-05 -4.114344e-05 2.7093261e-05
3.9330465e-05 -1.4356137e-05 2.4596644e-05 1.3490349e-05 4.366263e-05 6.322398e-05 2.6188936e-06 -1.8501103e-05
3.0322437e-05 -7.111529e-05 3.2864307e-05 -1.2591012e-05 -2.2653232e-05 -3.0691444e-05 -5.24725e-06 4.8566417e-06
4.4634413e-05 -8.4749e-05 4.626272e-07 1.621167e-05 2.4541625e-05 8.719588e-07 -4.5775778e-07 0.000105081024
-2.1601889e-05 -2.2267628e-05 -1.709692e-05 1.0135958e-05 -6.484369e-05 -2.8406372e-05 3.0445895e-05 -2.2387758e-05
-7.415909e-05 4.84048e-05 -2.200204e-06 -4.198708e-05 -4.0453696e-07 -3.177127e-05 2.3087017e-05 7.567836e-05
7.5889116e-06 -1.4493291e-05 -1.9566158e-05 -9.122956e-06 -2.309495e-06 6.207531e-05 -3.7089154e-07 -5.691908e-05
1.0663398e-05 -7.70561e-07 -1.691486e-05 4.708114e-05 -2.2522934e-05 -2.9122046e-05 1.2235453e-06 -7.036368e-05
1.8456623e-05 -2.5838395e-05 -6.797735e-05 4.9002014e-05 -1.6053275e-05 2.6577538e-05 1.9470472e-06 4.575592e-05
7.516528e-05 -5.5270975e-06 0.00012958804 7.051547e-08 4.1407337e-05 -3.4086045e-07 4.1694388e-05 2.2666213e-06

exp_avg_sq f4 [128]
00000000: 4701 0d32 fc58 4b31 bf8f d032 0b60 a632
00000010: 2cce c831 1173 2632 3864 b332 5075 0833
00000020: 181d 0b32 d7d0 1b30 eb9f 942e 4353 ed32
00000030: 1430 7132 7ae9 7d31 56ca 3d30 c9f9 4132
00000040: 5cf3 8830 9c0d d533 600c d02d 57ff 6332
00000050: bdde 1931 6107 3c34 945f 5333 7c93 0332
00000060: a051 8931 daa3 d832 5a44 0933 2723 9131
00000070: e9e3 2e33 b0f4 c931 9265 b132 ea93 5633
00000080: d1a4 b32e ed05 f72b 1ce4 1032 2108 3731
00000090: f249 9030 57c8 8531 6385 0c2d e054 1734
000000a0: e5c5 1b31 f2b3 cf32 bb08 d631 73ac af30
000000b0: 30bc 4733 717f 9a32 3398 0930 5d6f 5232
000000c0: 8726 d932 5ad3 2a30 8988 1833 0db6 a232
000000d0: a5ba 6033 c090 1b33 0df2 c932 e053 9332
000000e0: 6d9c 4332 ab18 2231 c47e 2533 7c50 6333
000000f0: c316 8232 71fd fe33 30c1 8232 7b9d b532
00000100: 2937 4f33 a43f 2232 4447 0132 a33a 7532
00000110: 7661 aa31 cc68 1a32 8987 8232 3337 ce33
00000120: 4f19 bd32 ca8f 5932 df71 7031 96b2 5234
00000130: 46b3 2530 c85c 282c b574 5a32 44d2 0533
00000140: dce4 9e32 3121 6032 64c0 1c32 6445 882f
00000150: 1c05 3233 93a8 1333 12a4 4832 09ba 1533
00000160: b260 8332 5064 c232 f74e a333 0557 3c33
00000170: 3c77 542e 35af 8133 4fe9 5232 0d31 b432
00000180: 7d66 2b32 0541 9232 d9ea 4c30 4163 9f31
00000190: 4d9f b32f b3e5 9c32 ea1d c62f 4b3f 2d33
000001a0: 5dcf 5132 09d8 2634 bff0 8631 59df 8532
000001b0: af8c 7433 3321 0030 6ad7 362e 0d22 3633
000001c0: 4ed1 2233 2143 3332 d3e6 0234 801d 7e33
000001d0: 66d9 7433 6dd9 9932 c002 db2d c214 dd33
000001e0: 2dba f732 91f0 c832 87c6 da32 cb6e b629
000001f0: 76ac b531 ac10 992d e68c 7431 067b 1a2d
8.207571e-09 2.959097e-09 2.4279755e-08 1.9368619e-08 5.844205e-09 9.688635e-09 2.0883917e-08 3.1771663e-08
8.09748e-09 5.668545e-10 6.758668e-11 2.7628294e-08 1.4038978e-08 3.6949062e-09 6.9045336e-10 1.1290873e-08
9.964469e-10 9.921061e-08 2.3652358e-11 1.3271197e-08 2.2391042e-09 1.7511549e-07 4.9214194e-08 7.658738e-09
3.9965045e-09 2.522022e-08 3.1959964e-08 4.2240518e-09 4.0719815e-08 5.8776877e-09 2.06517e-08 4.9960285e-08
8.169255e-11 1.755205e-12 8.433769e-09 2.6634626e-09 1.0498395e-09 3.8935855e-09 7.9876964e-12 1.4093848e-07
2.2667959e-09 2.4179801e-08 6.2292123e-09 1.2781939e-09 4.6504454e-08 1.7985913e-08 5.00566e-10 1.224893e-08
2.5279645e-08 6.214599e-10 3.5514436e-08 1.894207e-08 5.2323816e-08 3.62204e-08 2.3509552e-08 1.7151194e-08
1.1386061e-08 2.3588125e-09 3.853235e-08 5.2925756e-08 1.5144343e-08 1.18738974e-07 1.5221843e-08 2.1142787e-08
4.824611e-08 9.444111e-09 7.524992e-09 1.4274209e-08 4.958731e-09 8.987808e-09 1.5195626e-08 9.602663e-08
2.2014005e-08 1.2663756e-08 3.4989325e-09 1.9622743e-07 6.0281413e-10 2.392574e-12 1.2715806e-08 3.115771e-08
1.8497694e-08 1.3046063e-08 9.12414e-09 2.478756e-10 4.14485e-08 3.4379422e-08 1.16788375e-08 3.4860964e-08
1.5294379e-08 2.263019e-08 7.6046426e-08 4.3851305e-08 4.830912e-11 6.0389006e-08 1.2276657e-08 2.0977064e-08
9.976813e-09 1.7026204e-08 7.4548506e-10 4.638793e-09 3.26731e-10 1.8265245e-08 3.6037245e-10 4.0337266e-08
1.221255e-08 1.5538548e-07 3.927283e-09 1.5584805e-08 5.6938628e-08 4.661331e-10 4.1573335e-11 4.2406146e-08
3.7908926e-08 1.0434435e-08 1.2191167e-07 5.9165814e-08 5.70084e-08 1.7910418e-08 2.4898639e-11 1.029489e-07
2.8839247e-08 2.3392461e-08 2.546882e-08 8.101643e-14 5.2874e-09 1.740149e-11 3.5586765e-09 8.781203e-12
