results/FireDivided/PlayerRL/checkpoint.pt (torch, 463842 bytes, 36 tensors)

network_body._body_endoder.seq_layers.0.weight f4 [128, 10]
000000 46 1e f4 3d e5 c0 29 bd 0f e8 f6 3d d2 aa 90 be
       0.11919837 -0.041443724 0.120559804 -0.28255326
000010 4b ca 83 3e b0 4e eb 3e df 9e c4 3c 51 48 d8 bd
       0.25740275 0.4595847 0.024001537 -0.10560668
000020 de 32 75 be e4 f9 a9 be a0 77 09 3c fc 07 95 be
       -0.23945186 -0.33198464 0.008390337 -0.29107654
000030 7a 92 f6 be c1 93 b3 3d b8 d3 f2 3e a7 3c 8f 3e
       -0.48158628 0.08768416 0.47427154 0.27975962
000040 3c 80 6d be 92 6b 96 be bd 5b cd 3c fe e4 9e 3e
       -0.23193449 -0.29378945 0.025068158 0.31034082
000050 dc 6e 17 bf 89 21 99 3e 71 6f d9 bc 69 ce 4d 3d
       -0.59153533 0.29908398 -0.026542397 0.050245676
000060 16 e3 53 bd 55 cf fd 3d 0a 3a 13 bf 05 4f e2 bd
       -0.051730238 0.12393061 -0.57510436 -0.11050228
000070 9c 1e 3f be a7 b8 83 3e 7b 84 b6 be 68 c3 c6 be
       -0.1866402 0.25726816 -0.3564795 -0.38820958
000080 7c 4f b4 be e9 ab 3a be 92 bd eb bd d4 bb 3b 3e
       -0.35216892 -0.18229641 -0.11510767 0.1833337
000090 4d d1 a0 3e ab c5 be be de e3 d6 3c d1 1d f4 bd
       0.31409684 -0.37260184 0.026231702 -0.119197495
0000a0 eb 2e b5 3e 47 1f 8f 3e 7c c6 2e be c0 23 8f be
       0.35387358 0.2795355 -0.17067903 -0.27956963
0000b0 4e 08 7f be d6 a1 89 3e 0b b1 1b be be c7 a3 be
       -0.24905512 0.26881284 -0.15204255 -0.3198833
0000c0 3d 56 46 3e c0 0c ea be 1a d3 50 be 6b 32 06 3f
       0.19368835 -0.45712852 -0.20393029 0.5242068
0000d0 da da de bd 7f ab 8e 3e 68 fe 5a ba 87 12 20 be
       -0.108815864 0.27865216 -0.00083539495 -0.15632068
0000e0 90 a3 e8 3c 68 92 56 3e 9c c4 16 bf 2f f1 0d 3e
       0.028398305 0.20954287 -0.5889375 0.13861535
0000f0 9f 54 9b be f3 9f 52 be d9 8c 9c 3d 1f e1 14 3f
       -0.30337998 -0.20568828 0.07644052 0.5815601
000100 37 86 7a be 80 c6 19 bf c0 c7 6a be 55 99 e0 be
       -0.24465261 -0.6006851 -0.22927761 -0.43866983
000110 1d b7 70 bf e0 5b 32 3e cf 08 ae be 7c b8 ac be
       -0.9402941 0.1741786 -0.33991095 -0.337345
000120 0e 99 ae 3d 6e 9c 5c 3e c5 ba f6 bd 75 35 20 be
       0.085252866 0.21544048 -0.12047342 -0.15645392
000130 2f 95 3c be 25 9e 68 be 3a be 62 bd 5e 12 40 3f
       -0.18416284 -0.22716577 -0.055357195 0.75028026
000140 0d 5e f9 3e 23 11 c7 be d1 cf e2 bd ed ac c0 3e
       0.48704568 -0.38880262 -0.11074794 0.37631932
000150 f9 9f d5 3e b7 d8 c1 3e 6b e7 50 be 54 54 37 bf
       0.41723612 0.37860653 -0.20400779 -0.7161305
000160 fe a1 79 be bd 0c a5 be 86 5e 9b 3c d0 86 ba be
       -0.24378201 -0.3223628 0.01896597 -0.3643098
000170 fa fb 02 bf 34 f9 0f 3e b0 e0 57 3e 48 39 08 bf
       -0.51165736 0.14059907 0.21081805 -0.53212404
000180 d8 7e fa be e0 43 d0 bd 66 d1 81 be 7a df ba bc
       -0.489249 -0.10169196 -0.2535507 -0.02281164
000190 2e cc 3e bd cf bb 54 be bd bf ac be 7a 41 cc be
       -0.04658144 -0.20774768 -0.33740035 -0.39893705
0001a0 f1 4b d1 be ff d1 d0 3e 01 79 7f 3d a7 b0 3b 3f
       -0.4087825 0.40785214 0.062371258 0.73316425
0001b0 48 93 ac be 79 96 1e bf a4 46 19 3b a1 f7 e8 3e
       -0.33706117 -0.61948353 0.0023388052 0.45501426
0001c0 9e 4f 9c 3e be 71 38 3c 76 81 c4 bd b1 97 95 3e
       0.30529493 0.011257587 -0.09595005 0.29217294
0001d0 f0 6e 95 3e 3b 89 be bd d5 de 13 3f b4 f3 1a bf
       0.291862 -0.093035184 0.5776189 -0.6052811
0001e0 d1 6d 04 be 62 a6 5f be 5b 5b a4 3d ce c7 1c 3d
       -0.12932517 -0.21840814 0.08025237 0.038276486
0001f0 0a 70 7d 3d 2c a2 c7 bd 75 ea 56 be dd db c1 be
       0.061874427 -0.09747729 -0.20987876 -0.37863055
000200 ce 89 16 3d 9d 75 e9 3d 92 9e 99 3e 80 37 d6 3c
       0.036752515 0.11399386 0.30003792 0.026149511
000210 5c 3f 02 be 9f 1c 63 3d 69 75 ec bd cd 44 69 be
       -0.12719482 0.055447217 -0.11545832 -0.22780152
000220 b5 d9 cd bd db 33 77 be d6 a1 05 be e9 8f c5 be
       -0.1005129 -0.24140875 -0.13050017 -0.38586357
000230 81 a1 21 be 33 f9 a4 3d ce ac e4 3e 94 bd c9 3e
       -0.15784265 0.080553435 0.4466309 0.3940245
000240 25 3d e4 bd 4b aa 8e 3e 18 c6 d1 bc 8f b3 fc be
       -0.11144475 0.27864298 -0.025607154 -0.49355742
000250 86 bf ec be 16 9d 3d bf 9b 44 0f 3f df 3f aa 3e
       -0.4623987 -0.7406782 0.5596406 0.33251855
000260 6c 6d 23 bd e7 b8 25 bf 01 e1 8d be 2d 6d 83 be
       -0.039899275 -0.64735264 -0.27710727 -0.25669232
000270 11 04 9d 3e 7e 2a 4b 3e c6 f2 ee be 2d 27 04 3e
       0.30667165 0.19840428 -0.46669596 0.1290557
000280 1b 6c f9 3c bb 4a 4a be 3e fb e7 3e 92 19 eb bd
       0.030447057 -0.1975507 0.4530887 -0.114794865
000290 6d a5 17 bf 76 9e 9f 3e 57 13 8f bc bb 61 7e 3c
       -0.59236795 0.31175584 -0.017465277 0.01552623
0002a0 97 e8 16 3d 06 04 76 be 00 dd a0 3d 89 c5 2f be
       0.03684291 -0.24024972 0.078546524 -0.17165197
0002b0 35 5e 9d be cd 4e 87 3e 59 4e b9 3d a8 96 28 be
       -0.30735937 0.26427308 0.09048147 -0.16463721
0002c0 2c 27 75 3d 97 60 18 bf 33 a7 0d 3f 96 81 1d bf
       0.05985181 -0.59522384 0.5533325 -0.6152586
0002d0 d9 29 b0 3e 7d ba 4a bd 9a 9e da 3e a1 14 93 be
       0.34406927 -0.049494255 0.42699128 -0.28726676
0002e0 ff 7c 95 bd 0a 9e e7 be 38 80 81 be fe e2 a8 be
       -0.07299232 -0.45237762 -0.25293136 -0.3298568
0002f0 49 5b 90 3e ab 85 be 3d 69 84 35 3f a5 7c f8 be
       0.28194645 0.09302839 0.70905167 -0.48532596
000300 cf 51 8a 3d 58 67 22 3e 9c 4f eb be bb e4 51 be
       0.06753885 0.15859735 -0.45959175 -0.2049741
000310 14 b2 33 be 4d 1a f1 3e 1f 57 52 3e 4e 10 66 bd
       -0.175484 0.47090378 0.20541047 -0.056167893
000320 11 3c 1b be e7 d9 44 3e 74 d8 f8 be bb 47 92 be
       -0.15159632 0.19223748 -0.4860264 -0.2857035
000330 1c a1 02 3f 3c a7 fd 3d b7 9a b8 be ae 2c 86 bd
       0.51027083 0.12385413 -0.36055538 -0.06551491
000340 79 13 80 3e 91 b6 0e bf 59 93 0e 3f 3e f2 1f 3f
       0.25014856 -0.55747324 0.55693585 0.6247901
000350 f7 74 94 be 7e 37 7e 3d f3 a0 13 be 7c 86 d0 bc
       -0.28995487 0.06206464 -0.14416866 -0.025454752
000360 4c 82 21 be 46 a7 3e be b3 ef 00 3f b9 85 bc bd
       -0.1577236 -0.18618497 0.5036575 -0.09205193
000370 07 00 8f bc f2 33 d6 3d 13 53 cb be 34 eb eb 3e
       -0.017456068 0.104591265 -0.39711818 0.46077883
000380 a2 a0 13 bf 51 f0 43 be 39 34 8d 3c 89 49 c0 bc
       -0.5766698 -0.19134642 0.017236816 -0.023472564
000390 60 db 1c bd 37 df 13 bf 57 c5 2d 3d ac 49 98 3e
       -0.03829515 -0.57762474 0.042424526 0.29743707
0003a0 96 3f cc bd 4b 5c 4b 3e 55 00 27 bd 1e e2 90 3d
       -0.099730656 0.19859426 -0.0407718 0.070743784
0003b0 fc 64 17 3f 8f 36 6f be 70 2b 14 bf 75 86 ca be
       0.59138465 -0.23360656 -0.5787878 -0.39555708
0003c0 c9 80 54 3e a1 d2 1e bf d5 df fc bd d5 bd 0b bf
       0.20752253 -0.62040144 -0.1234738 -0.54586536
0003d0 8d 50 5a be 91 e7 73 3e ee 1f 7a 3e c5 bc 8f 3d
       -0.2131979 0.23818804 0.24426243 0.07018427
0003e0 63 fc 25 3e 0e ba 61 3e a5 c4 63 3d 60 8a d8 3b
       0.16209559 0.2204363 0.055607457 0.0066082925
0003f0 32 bd 31 3f 43 9e 84 bd 74 cb b2 3e eb 2a 6a bd
       0.69429314 -0.064754985 0.34920847 -0.057169836

network_body._body_endoder.seq_layers.0.bias f4 [128]
000000 88 00 d0 3a 72 fd 9e 3d 1a 22 c6 bb 9b 76 8d 3d
       0.0015869299 0.077631846 -0.0060465457 0.06907388
000010 24 dd 11 3d 99 61 44 bc 84 c4 7c 3d b8 93 a8 3d
       0.035611287 -0.01198616 0.06171085 0.082313
000020 37 24 a6 bd 6b 53 08 3d 1c 91 52 3d d0 48 6f 3c
       -0.08112376 0.03328268 0.05140792 0.014604762
000030 27 43 cf bc 05 98 0f bd fb 53 4c bd 45 fe 93 bb
       -0.025300575 -0.035057086 -0.049884778 -0.0045163953
000040 13 a8 32 3d a5 67 9e 3d b2 4e fa bb 1a 6e 10 bd
       0.04361732 0.077346124 -0.0076387757 -0.03526125
000050 71 9f 0d 3e cd ca 00 bd 27 06 85 3d c5 54 0a bc
       0.13830353 -0.031443406 0.06495314 -0.008443062
000060 6e 9b 16 3d 45 bf 96 3c df 5f 92 bc ce aa 9d bc
       0.036769323 0.018401751 -0.01786798 -0.019246485
000070 07 81 31 3b ec c0 57 3d c1 82 f9 3c c6 d1 13 bc
       0.0027084963 0.05267422 0.030457856 -0.009022182
000080 e0 5b 75 bc d5 84 30 bd 63 ef 53 3d c1 35 46 bd
       -0.014975518 -0.04309543 0.05174197 -0.048391107
000090 ec 24 db 3c 21 b2 90 ba 28 45 83 ba 32 4e 77 3c
       0.026751004 -0.0011039415 -0.0010015117 0.015094327
0000a0 01 8b 8a 3d 15 3a 10 3d a9 a8 9f 3c dd 29 0f bd
       0.06764794 0.03521164 0.019489603 -0.034952033
0000b0 3d c2 57 3d ef 7e 1f bb cc ee 97 3c 20 ae 72 bc
       0.052675474 -0.0024337133 0.018546484 -0.014812022
0000c0 1d 5b f7 bc 7d c3 94 bc d4 ea 95 bc 8e f4 f8 3c
       -0.030194813 -0.018159622 -0.018300451 0.03039005
0000d0 27 99 4e bd 52 ae 22 3c 46 07 e3 bc fb 6c a8 3b
       -0.050439026 0.0099292565 -0.02771343 0.0051399446
0000e0 1f 21 cc 3c 73 29 51 3d 34 0e 07 3c 50 b0 05 3e
       0.024918137 0.05106492 0.008243132 0.13055539
0000f0 20 fe 29 3d ac 8d 4c bc bf 2f 81 3b eb 7b 49 3c
       0.041502118 -0.012484949 0.0039424594 0.012297611
000100 a6 72 5e bc 4f 4d e5 3c fe a9 a9 bc 81 12 83 bc
       -0.013577139 0.027990965 -0.020710941 -0.016000034
000110 c2 6b c6 3c af 5b fa bc e9 e4 06 3c a6 49 f5 3b
       0.024221305 -0.030561296 0.008233287 0.007485586
000120 b7 56 63 3d 76 c2 03 bd 2c 5b 80 bc e2 e9 23 bc
       0.05550262 -0.032167874 -0.015668474 -0.0100044925
000130 83 64 bb 3d 26 ee ad 3c 93 1f 00 bd 03 37 2e bd
       0.091500305 0.021231722 -0.03128011 -0.042532932
000140 11 e4 4a bc b3 ac 51 3c 9d b7 3f 3d 97 55 0b 3c
       -0.012383477 0.012797522 0.046805967 0.008504293
000150 7f 75 8c 3c 28 1d a5 3c 22 0e 3e 3d 0e 93 4c bc
       0.01714587 0.020155504 0.046400197 -0.012486232
000160 14 54 24 bc d8 e9 cc bb 1d c1 2f bd a8 9b e4 bb
       -0.010029811 -0.0062534623 -0.042908777 -0.0069765635
000170 79 21 a9 3c 72 a9 89 3b 99 e0 06 bd 20 2b c7 3c
       0.020645844 0.0042011077 -0.032929037 0.024312556
000180 e8 e1 4a bc 64 d2 c4 3d 13 8c cd 3b ac 53 b2 bb
       -0.012382962 0.09610441 0.0062728017 -0.0054421034
000190 fe 95 c0 bc ab 05 af bc e3 3a 84 3c e3 c1 70 bd
       -0.023509022 -0.021365007 0.01614136 -0.058778655
0001a0 86 7e 2b bb 99 1f be bc 2d 71 1b 39 44 f6 09 3d
       -0.0026167943 -0.023208426 0.00014824113 0.033682123
0001b0 f5 17 fa 3c f1 b5 c4 3b 33 22 f1 bc 67 10 ee bc
       0.030529002 0.0060031344 -0.029435253 -0.029060556
0001c0 5c 09 03 bd 43 38 e8 3b fd 0b 4c bd e5 c0 54 3d
       -0.031991348 0.007086785 -0.04981612 0.05194177
0001d0 22 40 8c 3c 92 19 3b 3d b6 ba fc bc a9 b8 29 ba
       0.017120425 0.045678683 -0.03085075 -0.0006474355
0001e0 c3 52 3a 3d f2 16 c3 bc 53 72 04 bd 67 11 cc 3c
       0.045489084 -0.023814652 -0.03233559 0.024910642
0001f0 61 21 76 bc 65 f4 05 3d 9d 8f c8 3d 23 c3 2f 3d
       -0.015022607 0.032703776 0.09793017 0.042910706

network_body._body_endoder.seq_layers.2.weight f4 [128, 128]
000000 b0 a4 84 bd 9e 8a 28 3d cf bb 6a bb ea 71 4e 3d
       -0.06476724 0.04114782 -0.003581751 0.050401606
000010 5e 88 f9 bd da bd c0 3c 39 88 4f bd 5e 94 05 be
       -0.12184213 0.023528028 -0.05066702 -0.13044879
000020 0a 39 9e bc 0e bd be bb 6e 80 4e 3d 25 6a 3e be
       -0.019314308 -0.005820877 0.05041545 -0.18595178
000030 33 6e ad bc 62 45 31 be eb 47 85 3d d4 ee 48 3d
       -0.021170711 -0.17311624 0.06507858 0.04905589
000040 1b 57 d0 3d c8 89 0b 3d 29 9f ae bc f4 73 d8 bc
       0.10172864 0.034066945 -0.021316128 -0.026422478
000050 4d 03 0a 3d 52 7b 0a be 0a 58 a7 bd 5a 3f bd bd
       0.033694554 -0.13523605 -0.08171089 -0.09240599
000060 d3 1e 18 be 7d f2 76 be c6 ff 95 bd db 20 c2 bc
       -0.14855509 -0.2411594 -0.073241755 -0.023697307
000070 b0 5d 86 3d d7 d9 2b 3c 8c 46 14 be d7 15 3f be
       0.06560838 0.010488949 -0.14480036 -0.18660675
000080 c5 08 9a bc af e7 82 3c 53 d7 af 3d dc 33 2a be
       -0.01880301 0.015979616 0.08585992 -0.16621345
000090 48 8b ab bd b7 19 b6 be 81 ea e3 bc 13 a5 5e bd
       -0.08376175 -0.35566494 -0.027821781 -0.054356646
0000a0 e7 1d 34 3c 6f c0 3c bb e2 fe ab 3d a7 20 2f 3e
       0.010993457 -0.0028801223 0.083982244 0.171023
0000b0 c8 69 62 b9 bb ce bb bd 80 bd 15 3e ba da 1c 3d
       -0.00021592446 -0.0917029 0.1462307 0.03829453
0000c0 91 a8 cc 3c 4c 23 2a bd ff f7 5c bc 1b 49 fd bc
       0.024982722 -0.041537568 -0.013486861 -0.030918648
0000d0 74 2e 07 3e 89 6d 43 3d bd f4 39 bd 54 30 a5 3b
       0.13201314 0.047711883 -0.045399416 0.0050411616
0000e0 6e f1 b5 bc 9a 24 8d 3d ad 0f 23 3d 18 2c 27 bd
       -0.02220985 0.06891747 0.03980987 -0.040813535
0000f0 a4 7b 87 3d e7 e6 47 3d d4 86 2e 3d df 3f be 3b
       0.066153795 0.04880419 0.04260905 0.005805954
000100 fe 12 1a 3d 97 da 21 3d 54 e4 fa bc 05 3c bc 3d
       0.03761577 0.039515104 -0.030626453 0.09191135
000110 fe f8 81 bc f2 b0 cb 3b e2 4c 0d 3d fc 29 7f 3e
       -0.015865799 0.006216162 0.03449715 0.2491836
000120 ea 19 59 be 9b e2 10 bd ad 1f bb 3d c5 78 c9 bd
       -0.21201292 -0.035372358 0.09136901 -0.09837488
000130 be 31 24 3d 88 ae 8e be c4 bc 20 be ef 24 14 3e
       0.0400865 -0.27867532 -0.15697008 0.14467214
000140 a6 a8 2e bd ca 8b 73 bd 74 72 a2 bd a3 f8 a6 3d
       -0.042641304 -0.059459485 -0.079319865 0.081528924
000150 28 87 12 3c 67 11 d7 bd c3 5a ea bd a9 12 24 3d
       0.008943357 -0.10501366 -0.11443093 0.04005686
000160 be d5 e5 3c 82 84 20 bd 9b 95 15 bd 67 ff b3 3c
       0.028056022 -0.03918887 -0.036519628 0.021972371
000170 73 63 9d bd f3 3f 8e 3d c4 8c ac 3d 0d f1 ad bd
       -0.07684984 0.06945791 0.084252864 -0.084932424
000180 b1 16 ae bd 3e 62 b7 3d 80 35 ab 3d 29 e9 43 3d
       -0.08500422 0.08954285 0.08359814 0.04782978
000190 95 6c c5 3d 50 8e 86 3b 6f c9 2c be e0 e6 f7 bc
       0.09639851 0.0041063204 -0.16873716 -0.030261457
0001a0 dd ac 29 bc 02 68 5b bd 57 71 af bc ea a0 fe bd
       -0.010356155 -0.053565986 -0.02141635 -0.12433036
0001b0 93 16 c4 bd f2 4d 24 be e9 6e 8d bd 44 16 14 be
       -0.09574618 -0.16045359 -0.0690592 -0.14461619
0001c0 5e 14 a8 bd a3 07 8b bd 30 15 c7 bc 43 02 9a bd
       -0.0820701 -0.06788566 -0.024302095 -0.07519963
0001d0 13 ee 7b 3c ce 17 9a be 27 6f 2b be 81 91 c6 bd
       0.015376586 -0.30096287 -0.1674162 -0.096957214
0001e0 5b 05 c7 3d 5d 14 3f bd 7c dd 33 3e 2c 90 fb bd
       0.09717818 -0.04665028 0.17564958 -0.12283358
0001f0 7c b5 1a be dc e1 01 bd 83 59 87 be 22 9b ea 3c
       -0.15108293 -0.031709537 -0.2643548 0.028638426
000200 cd 96 c0 3d bf 61 2a bc 82 09 f1 bd 9c ed d5 bd
       0.09403763 -0.010399281 -0.117693916 -0.10445711
000210 fe 73 09 3e d8 4a 07 3d 5a 60 cf bd ef 95 0f be
       0.13423154 0.03303036 -0.101257995 -0.14022039
000220 47 a4 fc bc 80 0e 3e 3d f2 75 81 3c bf 74 71 be
       -0.030840052 0.046400547 0.015803311 -0.23579691
000230 fb ec 0c be 29 e8 e0 bd ae fb 1e be 1b 86 88 3d
       -0.13762276 -0.10981781 -0.15525696 0.066662036
000240 0d 7a a8 3d 1e ed 24 3d 45 20 ea 3c e3 71 46 be
       0.08226404 0.040265195 0.02857984 -0.19379382
000250 7e ba 4a 3d 99 ac 8b bd 19 0e 54 3c 09 0a be 3d
       0.04949426 -0.0682003 0.012942814 0.09279258
000260 60 ef fd 3d ed 5f 14 bc ea f7 da 3d 6b 79 89 3d
       0.12399173 -0.009056074 0.10691817 0.06712612
000270 e7 f6 8a bd 87 f6 33 bc fb d6 26 bd fc 56 5a 3d
       -0.06785374 -0.01098407 -0.040732365 0.05330561
000280 5a 60 25 3e 57 d2 13 bd 2c c9 29 be bf a5 49 bc
       0.16150036 -0.036089268 -0.16580647 -0.012307583
000290 b5 41 52 3c 62 eb b5 3d ee 8c 0c be 49 b7 35 bc
       0.012833049 0.08882786 -0.13725635 -0.011091062
0002a0 32 a8 67 3d 1c 74 98 3a ef 7e 84 3c 37 ae 68 bd
       0.056556888 0.0011631283 0.016173808 -0.05680677
0002b0 45 d8 d8 3b 25 e6 b3 3d c4 04 11 3e 74 b8 58 3e
       0.006617578 0.08784131 0.14161974 0.21164113
0002c0 f5 16 9c be fa 33 c2 3d 57 23 37 3e 6e 95 32 3d
       -0.30486265 0.0948257 0.17884575 0.04359954
0002d0 6f cc 37 3d bb 6f c4 3d 18 9c d9 3d c9 87 20 3e
       0.044872697 0.095916234 0.10625476 0.15676798
0002e0 33 7a 15 3d 42 35 b4 bd e3 61 39 bd f4 28 c1 bd
       0.03649349 -0.087992206 -0.045259368 -0.09431639
0002f0 ef 6d 58 3c 96 70 89 bd ec 50 2b be 04 cf 0a 3e
       0.013209804 -0.06710927 -0.16730088 0.13555533
000300 86 a4 23 3a 3a 20 c6 bb de 4c 84 bd ca 50 53 3d
       0.00062424724 -0.006046322 -0.06459974 0.05159072
000310 df fb dc bc 18 13 c9 3d 63 22 26 3e 9e 72 73 be
       -0.02697557 0.09818095 0.16224055 -0.23774192
000320 4c 70 03 3e b6 1e 61 3c fa c5 9c 3d bd dd 99 bd
       0.12835807 0.013740232 0.076549485 -0.07512996
000330 43 03 e2 bd 65 c4 d8 bd 7c 60 ef bc 73 05 6d 3d
       -0.110357784 -0.10584334 -0.029220812 0.057866525
000340 ef 6d d3 bd f9 9e ce bd 5d ab e2 bd cb 32 de 3d
       -0.103237025 -0.100889154 -0.11067841 0.10849532
000350 3a 56 81 bd 18 f3 6d bc be a0 3e bd ec 9a c2 3d
       -0.063152745 -0.01452329 -0.046540014 0.09502205
000360 a1 02 6d bd 09 ce 9e bc d7 f7 90 bd 07 c9 f4 bd
       -0.057863835 -0.019385355 -0.07078522 -0.119524054
000370 68 4f c8 3d f9 93 33 3a 74 65 0c 3e 05 66 91 bd
       0.097807705 0.0006850358 0.13710576 -0.07099537
000380 68 f4 ee 3d ea ff 92 bd b2 55 8e 3e 24 14 00 3d
       0.116677105 -0.07177718 0.27799755 0.031269208
000390 2b c4 49 3d 94 78 82 bd 7e 2a bc 3d 81 a1 69 3d
       0.049259346 -0.06370655 0.09187792 0.057038788
0003a0 ee 16 8a 3d 22 1a 4c 3d b5 5d ee 3d 5b 26 11 bd
       0.06742655 0.04982961 0.11638967 -0.03543697
0003b0 93 7a 33 3c 1b 1f 70 3c 5c ae a7 3c 49 fb 10 be
       0.010954517 0.014655854 0.020468883 -0.14158358
0003c0 a9 b9 97 bb 2f ea 5e bd f4 90 b8 bd 08 56 f9 bd
       -0.0046302867 -0.054422554 -0.090120226 -0.12174612
0003d0 d0 f6 2a bc 5b 7a 16 bd a8 89 9b 3c c7 95 3d 3e
       -0.010434821 -0.03673778 0.018986538 0.18514167
0003e0 1d d7 dd 3b 5a cc a0 3d 1c 8d 2d 3d 2c a1 94 bc
       0.0067700283 0.07851477 0.0423709 -0.018143259
0003f0 fa 10 f5 3d 5d 03 dd bd ed 53 2f be 07 24 76 bc
       0.11966129 -0.10791657 -0.17121859 -0.015023238

network_body._body_endoder.seq_layers.2.bias f4 [128]
000000 92 b7 c6 bc 95 52 54 3d bd 01 a1 3c 30 80 28 bd
       -0.024257455 0.05183657 0.01965415 -0.041137874
000010 e6 c6 98 3b 5d f8 62 3c ca af ba bc 38 1f 62 3b
       0.0046623824 0.01385316 -0.0227889 0.003450347
000020 c5 8c 0c 3c 07 f0 13 bc 2b 77 4d bc e4 2b bc 3c
       0.008578484 -0.009029395 -0.012540619 0.022970147
000030 b2 05 ef 3b 84 9c cc 3c 27 78 c0 bc 67 74 89 bb
       0.00729438 0.024976976 -0.023494793 -0.0041947844
000040 93 7e 38 3c 52 a9 1a bb 51 40 ce 3c 1f 5e e4 3b
       0.011260646 -0.0023599458 0.025177153 0.006969228
000050 01 f1 7e bb 05 be 87 3c 52 e2 34 3b 2d 55 06 bc
       -0.0038900974 0.0165701 0.0027600718 -0.008199018
000060 5e 35 37 bc be 05 b7 3c 58 bd 28 3b b8 07 cf 3c
       -0.011182157 0.022341605 0.0025747623 0.025272235
000070 59 bb 0f ba 76 7a d0 bb 15 52 2a 3c 37 ad 5a bc
       -0.0005482934 -0.0063622547 0.010395546 -0.013346962
000080 81 92 b2 3b 1e ad 39 bc 4e d8 9f 3c 2c c1 a3 bb
       0.0054495935 -0.011332778 0.019512322 -0.004997393
000090 8c 2e 99 3c b6 0f 34 bc 60 1e f1 3b a6 e5 97 3b
       0.018698953 -0.010990074 0.0073583573 0.0046355305
0000a0 1e 56 03 bd f2 1f 70 3c 4e 61 23 3d 97 6e 43 3b
       -0.03206455 0.014656054 0.03988772 0.0029820555
0000b0 e2 ad 0e bc 51 5e 9f 3c a2 22 9d bc ab 3f 3c bb
       -0.008708449 0.019454153 -0.019181553 -0.0028724473
0000c0 08 27 03 3c 08 ce 04 3d 7e d3 44 3c 90 6f e9 ba
       0.008004911 0.03242305 0.012013314 -0.0017809737
0000d0 1f 1e ba 3c d9 33 83 3c 8a 9f ea 3c 4c 82 56 3b
       0.022719441 0.016015934 0.028640527 0.0032731472
0000e0 77 b3 9d 3c 0a c5 3a 3c 74 a5 40 3c 66 89 42 3c
       0.019250615 0.011399517 0.011758197 0.011873579
0000f0 e7 b3 bc 3b a7 c2 24 bc d8 d1 b4 3c 31 9d e7 3b
       0.0057587507 -0.010056174 0.022072718 0.007068299
000100 53 39 90 3b 25 57 3e 3c 31 29 94 3c 51 dd 1b 3b
       0.004401365 0.011617457 0.018086048 0.0023783038
000110 55 27 81 3c 81 b5 0b bc 3e c5 2a bc 44 3f 8b bc
       0.015765825 -0.008527161 -0.010423003 -0.01699794
000120 75 ad 1d bb 2a 87 10 3d 32 99 b3 3b e1 af 03 ba
       -0.0024059687 0.035285152 0.005480909 -0.00050234614
000130 48 1b 2f 3d 3a 0a bc bb 21 65 ac bb 53 16 a4 bc
       0.042750627 -0.005738524 -0.005261079 -0.020030176
000140 ab d1 9d 3c 5a d9 92 3c 75 71 f8 3a 70 0a 9d bc
       0.019265017 0.017925907 0.0018954711 -0.019170016
000150 96 f2 bb 3c c0 10 b5 bb 32 66 87 bc 79 d5 4d bc
       0.022942822 -0.0055256784 -0.016528223 -0.012563103
000160 62 bc a4 bc c0 f0 75 3c b8 ca 1c 3c a2 f2 be 3c
       -0.02010936 0.015011013 0.009569816 0.023309056
000170 17 f0 0c bc 79 7f 06 3d af 56 78 bc c0 55 20 3d
       -0.008602164 0.03283641 -0.015157386 0.039144278
000180 4c 17 60 bc a5 19 1a 3c 5c 8a 51 3d 27 37 20 3c
       -0.013677429 0.009405528 0.05115734 0.009778774
000190 2a dc 8b bc a3 d3 86 3c 79 9d 7d bb a6 8e 16 bc
       -0.017072756 0.016458338 -0.0038698597 -0.0091892835
0001a0 cb df 9e bc 0d a8 8e ba 03 07 4f 3b 3d 8a 8b 3c
       -0.019393822 -0.0010883823 0.0031589873 0.01703369
0001b0 e7 4d 47 3d 54 79 90 3c a3 fc 0f 3d fa 12 f7 bb
       0.048658278 0.017635979 0.035153043 -0.007540104
0001c0 6b 19 4a 3c 26 a0 71 3d 48 45 f3 bc d6 c6 c5 3b
       0.012335162 0.05899062 -0.029696122 0.006035666
0001d0 55 b6 80 bb 0d 04 fe 3b 22 79 f7 bc 7b dd 03 3c
       -0.0039279857 0.0077519477 -0.030209128 0.0080484105
0001e0 e4 7f 03 bd c0 b5 c3 3c 09 ce 13 3b 0e 6b a6 3c
       -0.032104388 0.023890376 0.0022553226 0.02031472
0001f0 a0 dc 04 bd 2e 46 57 3c 44 cd 16 3c 57 e6 46 bb
       -0.032436967 0.013139291 0.009204213 -0.0030349696

action_model._continuous_distribution.mu.weight f4 [1, 128]
000000 b3 9c b1 3b 03 5f 1f bc 32 92 6f bc f3 a5 8f bc
       0.0054202913 -0.009727242 -0.014622258 -0.017535185
000010 38 d1 ef bc 37 7e e1 bc 22 f8 20 3c f2 40 b6 bc
       -0.029274568 -0.027526004 0.0098247845 -0.022247765
000020 95 d9 48 bd 28 cc 14 bc b2 ad b9 bb ef 7b fc bc
       -0.049035627 -0.009081878 -0.005666458 -0.030820815
000030 f7 06 46 3c 9a 73 d6 3c 14 44 12 bc f1 19 0e 3c
       0.0120866215 0.02617817 -0.008927364 0.008673177
000040 09 dd 38 3d 61 57 89 3c 17 49 2e bc 82 21 eb bc
       0.04513267 0.016765298 -0.010637543 -0.028702501
000050 75 74 87 bb 28 0f 53 bc 9c 0b f1 bc 65 49 b1 bc
       -0.004133756 -0.0128820315 -0.029424481 -0.021641443
000060 f3 f5 ae bb c6 2e 1d ba 54 2b 49 bc 72 07 ae bc
       -0.005339378 -0.00059960445 -0.012278397 -0.021243785
000070 c4 65 fe bb c3 c0 a2 bc ff ad 05 bb c6 82 3b bb
       -0.0077635963 -0.019867307 -0.00203979 -0.0028611883
000080 d2 24 3f 3d 48 89 34 ba 4f 3f 65 3d bd 80 ef bc
       0.046665974 -0.00068869116 0.05596858 -0.029236192
000090 0f 21 41 3b 21 f1 27 bd 75 a0 61 3c 1c a5 b2 bc
       0.0029469167 -0.041001443 0.013771166 -0.021807246
0000a0 84 c9 ba bb ee 48 0f bd 39 a8 81 bc 0a 95 ee 3b
       -0.005700292 -0.03498166 -0.015827285 0.0072809504
0000b0 fc 13 17 bd 20 8d 4b 3d 14 f4 48 bd f0 b6 89 3d
       -0.036884293 0.049695134 -0.049060896 0.06724346
0000c0 72 6f 6b bc 2f 32 de 3c 1e c2 44 bd 89 16 c9 3c
       -0.014369832 0.027123539 -0.048036687 0.024546878
0000d0 fd 65 16 3e 46 1c 14 bc 5f eb 06 3d 07 f9 6e 3d
       0.14687343 -0.009039944 0.03293931 0.05834296
0000e0 52 0c c7 bc 7a 8b 2b 3d fc e2 00 bc bf 26 e4 3c
       -0.024297867 0.041881062 -0.007866617 0.027850507
0000f0 13 1d 8c bc c4 b4 cd ba 90 4e 64 bd 27 58 06 bb
       -0.017103707 -0.0015694131 -0.055738986 -0.002049932
000100 81 3a c6 bc a4 b1 2b bd e6 3a 3f 3b d3 6a 18 3d
       -0.024197819 -0.04191746 0.0029179393 0.03721125
000110 cb d9 a4 3c 46 38 e7 3b 1d 5f a4 3b 16 77 a8 3c
       0.020123383 0.007056269 0.005016221 0.020564597
000120 27 a5 e1 3c fa d0 21 bd 04 2b 07 3b fa 4a 05 3d
       0.027544571 -0.039505936 0.0020625005 0.032542206
000130 13 67 ad bc 2f 46 49 3b a1 1c fe bc c9 d4 65 3d
       -0.021167314 0.0030711999 -0.03101951 0.05611113
000140 c9 59 01 bd ba 5a b0 bc 96 12 5d 3d d9 3b d8 bc
       -0.031579766 -0.021527637 0.053972803 -0.026395725
000150 fa 22 e2 bc 94 0b 32 bd 61 89 12 ba fd 80 e2 bb
       -0.027604569 -0.043468073 -0.0005589929 -0.0069123493
000160 21 b8 3a bb 93 c5 a9 bc 79 72 e8 3c e5 27 57 3c
       -0.0028491097 -0.020724094 0.028374897 0.01313207
000170 b4 28 b7 3c 89 70 85 bc f9 7d 95 bb 3f 7b 9d bd
       0.022358276 -0.016289013 -0.0045621363 -0.07689523
000180 33 41 54 bc 1b 32 63 3b ce eb 52 3c a9 9c 20 bc
       -0.012954998 0.0034667316 0.012873603 -0.009802976
000190 60 5e c4 ba a5 ba 7a 3d 08 92 01 bc 1c 75 91 3c
       -0.0014981739 0.061213154 -0.007908352 0.017756037
0001a0 95 c4 46 bc 38 75 0d 3d 6e 79 78 bb 71 57 b1 bc
       -0.01213183 0.034535617 -0.0037914175 -0.02164814
0001b0 3d fb 8c 3a 5e 8e a8 3b ec ca c0 bb da 57 3e 3c
       0.0010756027 0.0051439246 -0.005883565 0.011617625
0001c0 a8 47 3d bc 62 15 e5 bd 8e 9a df 3b 75 d5 c3 bb
       -0.011552729 -0.11185719 0.0068238443 -0.005976374
0001d0 ac c1 f6 bc fc 3c ea 3c 44 1f 1e bb 15 0a 94 3b
       -0.030121647 0.028593533 -0.0024127522 0.0045178034
0001e0 db 53 60 3b 81 9a 8e bb bc 74 03 3d e4 56 15 3d
       0.003422967 -0.0043519144 0.03209375 0.03645982
0001f0 4e 46 fa b9 56 7f 6b 3d 45 6e 04 3c 04 dc e9 bc
       -0.00047736097 0.057494484 0.008082931 -0.028547294

action_model._discrete_distribution.branches.0.weight f4 [6, 128]
000000 1c 7f 2c 3c 2a 50 6f 3c e4 7e e2 bd cf f2 1e bc
       0.010528352 0.014606515 -0.11059359 -0.009701445
000010 8c fb 2f 3d 82 cb ac bd 92 c2 0e 3d 2d d5 19 bd
       0.042964503 -0.084372535 0.034853525 -0.037556816
000020 72 e2 c4 3c 02 fb 4e bd 6b ea cb 3c 6f e9 6b 3c
       0.024033759 -0.05053235 0.024892053 0.014398917
000030 13 ab 05 bd aa 02 85 bc 59 62 49 bc bf 8d c2 3c
       -0.032633852 -0.016236622 -0.012291514 0.02374923
000040 3f 07 4e 3d 04 15 f5 3c 66 56 14 bd 70 0f b4 3b
       0.05029988 0.029917248 -0.03621521 0.0054950044
000050 e1 21 58 bd 78 5c 81 3d 68 05 68 bd 6a 3c 1d 3c
       -0.052766684 0.06316465 -0.05664578 0.009596923
000060 c3 94 e4 3c 23 5c 21 ba 94 bd 6f 3d 88 16 5c 3d
       0.027902966 -0.0006155392 0.058530405 0.053732425
000070 a3 85 89 bc bc c4 f7 bc 6d 5f 69 3d 81 4e aa bd
       -0.016787356 -0.030245177 0.05697577 -0.08315755
000080 e2 6c 78 bd 24 75 68 bd d3 ab 91 3c a6 cd cf 3c
       -0.060650714 -0.05675234 0.017782127 0.025366616
000090 7f 85 89 bd 08 b6 4d bc 90 88 8a bd ee f5 61 bc
       -0.067149155 -0.012555607 -0.067643285 -0.013791544
0000a0 fc 6c 58 bc be 50 56 bd c0 13 41 bd 84 50 8c bd
       -0.013209578 -0.052323096 -0.047137976 -0.06851295
0000b0 0f f4 fe bb e6 d3 fa ba e3 ac 92 3d 6b 65 fe 3c
       -0.007780559 -0.0019136637 0.07161882 0.03105422
0000c0 bf 3a c7 bb 1f a5 f9 bb 2c 1e d1 3b 29 29 41 3d
       -0.006080001 -0.007618561 0.0063817706 0.047158394
0000d0 e2 45 62 3d d3 3a 4b bc e0 ca 1c 3d cc 59 85 3d
       0.055242427 -0.0124041615 0.038279414 0.06511268
0000e0 69 53 27 3b 3c 3f 39 3d 69 23 ac 3c 11 06 01 3d
       0.0025531894 0.04522632 0.021012979 0.031499926
0000f0 72 69 1f bc f7 2c 31 3c 53 dd 95 3d ac 08 07 bd
       -0.00972973 0.010813943 0.07317605 -0.032967255
000100 b0 2d 1e 3c 7e c3 10 3d 09 4d 1d bd d9 94 c3 bb
       0.009654447 0.035342686 -0.038403545 -0.0059686718
000110 52 62 51 bb 43 6a 6c 3d 73 fc 8d 3b 3e 5d c7 3b
       -0.0031949473 0.057718527 0.004333073 0.0060841134
000120 b0 d2 32 bc 1e ba 67 3d 8e 64 8d 3d 57 d4 2c bd
       -0.01091449 0.05657398 0.06903945 -0.04219469
000130 ba d2 88 bc 71 29 33 bd 29 ca d6 bc ae dd 8a 3d
       -0.016702045 -0.043740693 -0.026219444 0.06780563
000140 74 7c e5 bb 99 a4 69 bd 3a 67 06 bb 3f c1 3c bb
       -0.0070033614 -0.05704174 -0.0020508305 -0.0028801707
000150 52 c6 c4 3c fa a1 be ba ed 98 82 bd ca 34 54 bd
       0.024020348 -0.0014544122 -0.063768245 -0.051808156
000160 bb 4a b5 bc 74 e8 dc 3c d5 fa 37 3c b2 b9 06 3d
       -0.02213036 0.026966311 0.011229237 0.032891937
000170 30 17 05 3d 01 e0 99 bd 13 28 d1 bc 11 37 73 bc
       0.032492816 -0.075134285 -0.025531804 -0.014844672
000180 52 03 46 bd dc 1b 7d 3d 5c a3 bb bd a3 96 36 3c
       -0.04834301 0.061794147 -0.09162018 0.011144313
000190 b2 24 a5 3d 1e 52 f0 ba d1 af 8f bd a0 c8 17 bc
       0.0806364 -0.001833502 -0.07015956 -0.009264141
0001a0 55 6f f3 3b d7 94 ec bc c5 1c 8b 3c cc 5c 02 3d
       0.0074290433 -0.028879566 0.016981492 0.03182678
0001b0 20 66 d5 3d e3 26 95 3c 44 51 69 3d fd 36 f6 bc
       0.104198694 0.01820702 0.056962267 -0.030055517
0001c0 f4 b7 7a bd fc a0 71 3d b4 a1 66 3c f4 d8 0b bd
       -0.061210588 0.058991417 0.014076639 -0.03414245
0001d0 c7 8d a6 3c bd 69 35 bd b6 47 20 bc 78 44 7d bc
       0.020331277 -0.044290293 -0.009782722 -0.015458219
0001e0 2d 58 d7 bc c5 60 35 3d ba 1a 20 bd e7 b7 b2 bc
       -0.026287163 0.04428174 -0.03908799 -0.021816207
0001f0 3b f4 0d bd ee be 6d 3d e7 6b a5 bc 57 c2 18 bc
       -0.034656744 0.058043413 -0.020193053 -0.009323678
000200 dc 15 49 3b c3 70 89 3d 40 e5 7d bc 57 1e 7b 3c
       0.0030683195 0.06710961 -0.015496552 0.015327058
000210 4f 36 ca 3c ec 97 06 bd 72 a6 b9 bd 0d b7 0c 3d
       0.0246841 -0.032859728 -0.0906495 0.03435426
000220 dd ad c6 bb 6a c6 53 bb 1d ea 11 3d 5b f4 da 3c
       -0.0060632066 -0.003231431 0.03562366 0.026727846
000230 bd 3f 1f 3d eb 3a 24 bc 35 a4 12 bc a5 4e 62 3d
       0.038879145 -0.010023813 -0.008950283 0.055250783
000240 25 e6 48 3d 2f b9 55 bc 5b 2b b9 bb c8 8e 9a bd
       0.049047608 -0.0130446395 -0.0056509203 -0.075467646
000250 89 6a 84 bc d9 60 31 3d d5 d0 0f 3d ea 1d 74 3c
       -0.016164081 0.04330525 0.035111267 0.01489971
000260 00 36 c1 3b 9f 4d 53 3d fe ce b9 bd 9f 8e ba bd
       0.00589633 0.051587697 -0.09072684 -0.09109234
000270 73 04 12 3d b9 7c 41 bc ae f6 e8 3c 60 34 25 3c
       0.035648774 -0.011809521 0.028437939 0.010083288
000280 93 22 32 3d 8e ba 11 bd 8f 4c 86 bd 33 09 8f 3c
       0.043490004 -0.035578303 -0.06557571 0.017460441
000290 bb e4 48 3c df ff 80 ba 9b dd db 3c e8 2e b4 bd
       0.012261565 -0.000984188 0.026839068 -0.08798009
0002a0 18 5a 16 3c af 90 a1 bc 8b e8 d4 3c 1d a5 d6 bc
       0.009176753 -0.01972231 0.025989791 -0.026201779
0002b0 82 62 49 39 92 5e a9 bd a3 c1 90 bd 13 22 5a ba
       0.00019205551 -0.08269991 -0.07068183 -0.00083211175
0002c0 36 78 a8 bd 0b 93 44 bc 6c 60 d1 bb 88 59 32 bc
       -0.082260534 -0.011997948 -0.006389668 -0.010885604
0002d0 91 ed e2 bd 36 09 2c bd f8 81 35 3b 0e 7e b7 bc
       -0.110804684 -0.04200097 0.0027695876 -0.022398975
0002e0 11 4d 94 bc b2 f7 f3 bd 9e 45 fe 3c f6 e5 72 3c
       -0.018103154 -0.119124785 0.031039055 0.014825335
0002f0 36 e3 68 bd 9e 02 1c 3d a0 f2 e8 3c 5a 44 bd 3c
       -0.05685731 0.038088433 0.028436005 0.023103882
000300 fc 48 98 bb cd c8 6a 3c c8 99 6c 3b dc 78 62 bb
       -0.0046473723 0.014330101 0.0036102403 -0.00345569
000310 65 aa 6e 3c 08 58 12 bd 7a 09 a7 3c 7e 3a 44 3d
       0.014566992 -0.035728484 0.020390261 0.047907345
000320 af d0 0c 3d de eb 63 3d c7 72 62 3c 77 e5 b6 bb
       0.034378704 0.055644862 0.01382131 -0.0055815536
000330 19 47 19 bd f2 4b 6f bd 09 aa 3e 3b 93 d2 79 bd
       -0.03742132 -0.058422036 0.0029093048 -0.060991835
000340 4c e9 a4 bd d7 fb d0 bc f7 3e cd 3b 7c f1 f1 3b
       -0.0805231 -0.025510712 0.0062636095 0.0073835235
000350 4f f0 8d 3b b0 0c a9 3b 34 a6 87 3a d3 b0 86 3b
       0.0043316255 0.005158983 0.0010349215 0.0041104346
000360 ef 23 ba bb 1f 2a 91 3b ca f6 f6 bc d3 3e 38 3d
       -0.005680553 0.00443007 -0.030146975 0.04498179
000370 0b 8a 3d bd f0 ef b6 bc c6 3a ae 3b 66 36 6f 3c
       -0.046274226 -0.022331208 0.005317065 0.014600372
000380 11 35 08 bd 5a 3b c2 bc 44 34 bb 3d 0f f4 4c bd
       -0.033253733 -0.023709942 0.09140828 -0.05003744
000390 7a 99 a2 bd 2f 37 db bb b4 8e 25 bc 29 7c fc bb
       -0.079394296 -0.006689928 -0.010104824 -0.0077052307
0003a0 59 29 97 bd 61 6b 28 3d 1f 35 f9 3c 9a ef f6 bd
       -0.07380933 0.04111803 0.030420838 -0.12057419
0003b0 db b6 88 3d b6 2f 9d 3d 70 b7 40 bd 11 96 06 3d
       0.06675502 0.07675116 -0.04704994 0.03285796
0003c0 9e b1 d8 bc 9b 09 c7 bd f6 98 ed bc b6 40 27 bd
       -0.026451882 -0.09718629 -0.029003602 -0.040833198
0003d0 95 1d a0 bd c7 ac 2c bd 25 58 82 bd 7f 46 1b bd
       -0.07818142 -0.04215696 -0.063644685 -0.037909027
0003e0 0e 42 6f bc 1d bb 96 bd ce 16 42 3d c0 e9 08 bd
       -0.014603151 -0.07359908 0.04738503 -0.033426046
0003f0 dc 95 9e bc a9 f5 71 bd e9 4c 89 bd d0 bf c4 bb
       -0.019358568 -0.05907217 -0.067041226 -0.006004311

action_model._discrete_distribution.branches.0.bias f4 [6]
000000 14 55 31 bc c2 dc e7 3c 98 55 97 bb 02 6c d1 3c
       -0.010823507 0.028303508 -0.004618358 0.025564197
000010 ee 11 ea bb 68 d4 a7 bc
       -0.0071432507 -0.020487025

exp_avg f4 [128, 10]
000000 1a 77 53 bb c6 10 f2 bb 75 e7 88 bb 16 d2 4c bb
       -0.0032267035 -0.0073872535 -0.0041779825 -0.003125315
000010 e6 2a 2b bc e2 1c c9 ba 40 54 32 bb d6 03 2e bc
       -0.0104472395 -0.0015343691 -0.0027210861 -0.010621032
000020 67 8b ac ba 3a 78 3c bb 2d 88 53 3c a0 43 1a 39
       -0.0013164104 -0.0028758184 0.012910885 0.00014711777
000030 12 bc b1 bb 17 5e 98 3b 41 f1 6b ba f9 1b eb bb
       -0.005424031 0.0046498883 -0.0009000488 -0.0071749655
000040 0d ef 81 3b 0f 7a d4 b9 9f d2 f6 bb 47 1f 90 3b
       0.0039652647 -0.00040526732 -0.007532432 0.00439826
000050 f4 f9 b8 b6 2c eb f8 b6 aa 66 9a b7 e6 cb 4a b6
       -5.5127257e-06 -7.4183536e-06 -1.8406037e-05 -3.021903e-06
000060 c0 3b 81 b5 24 25 b4 b7 e2 ed 47 b6 b0 66 99 35
       -9.628639e-07 -2.1474967e-05 -2.9791777e-06 1.1429274e-06
000070 56 d6 c2 b7 20 f4 8f b5 d3 bf 64 3a 65 69 7e 37
       -2.322641e-05 -1.072538e-06 0.0008726094 1.5164119e-05
000080 b3 03 77 b9 b9 4b 26 39 cb f0 1d 37 ab 58 77 b9
       -0.00023557134 0.00015859203 9.413993e-06 -0.00023588787
000090 19 e1 25 39 d7 10 1f 37 ea 6e 77 b9 bf f0 25 39
       0.00015819482 9.481059e-06 -0.00023597074 0.00015825311
0000a0 f7 00 3e 3c 46 3b 58 bb 29 ba 0a bb ed c7 0e ba
       0.01159691 -0.0032994314 -0.002116809 -0.00054466614
0000b0 72 90 4e bb 7e 34 19 bb de 92 24 ba 69 6b 50 bb
       -0.0031519202 -0.0023377235 -0.00062779884 -0.0031802303
0000c0 23 9c 18 bb 80 1b 2b ba 96 37 93 3b 7b 0e 3c 3b
       -0.0023286424 -0.000652723 0.0044927103 0.0028695154
0000d0 18 1f 8b 3b 00 47 25 b8 b5 4f 8b 3b 64 7f d9 3b
       0.00424565 -3.940519e-05 0.004251445 0.0066375006
0000e0 d8 39 1d ba 75 55 b5 3b 37 b6 b5 3b b0 b0 ea 39
       -0.0005997694 0.005533869 0.0055454033 0.000447636
0000f0 75 f1 34 3c 5d 64 a2 3a be 02 03 ba ca 8d 51 3b
       0.011043896 0.001238953 -0.0004997662 0.0031975382
000100 66 e4 b7 3b 44 d1 a1 bb 01 ea 47 3b 99 ad b8 3b
       0.005611944 -0.0049382765 0.0030504467 0.005635929
000110 fd 63 a2 bb ab 40 49 3b 88 8b a4 3b 04 49 cf b7
       -0.004955767 0.003070871 0.0050215162 -2.4710323e-05
000120 2b 62 1c bb b0 86 14 3b 7c bc 62 39 a3 e3 28 bb
       -0.0023862224 0.0022663288 0.00021623255 -0.0025770448
000130 70 fb 13 3b 7e 2c 80 39 1f 85 2a bb d2 78 15 3b
       0.0022580288 0.00024447212 -0.0026019288 0.002280761
000140 5b 59 22 bb c0 1e 0f bb 72 6f 2b ba 09 06 c7 ba
       -0.0024772498 -0.0021838397 -0.0006539739 -0.0015184294
000150 84 11 63 bb d7 47 11 3a 62 86 a5 ba b2 0b 63 bb
       -0.0034647891 0.0005542016 -0.001262855 -0.0034644422
000160 f6 08 14 3a c1 a9 a4 ba 92 06 78 3c 2e ef 6c b9
       0.0005647087 -0.0012562798 0.015138285 -0.00022595815
000170 ae a6 6a b9 67 a7 86 3b 75 fe 35 3b 20 f6 a5 bb
       -0.00022378072 0.0041093114 0.0027770076 -0.005064741
000180 bf a3 57 3b 70 9f 32 3b 0b fe a4 bb 96 dd 53 3b
       0.0032903997 0.0027255677 -0.005035167 0.003232812
000190 03 9c 23 3a d0 8b f6 ba ba 6e a6 3a 74 e1 68 b8
       0.0006241204 -0.0018809978 0.0012697794 -5.552308e-05
0001a0 36 28 8d ba 94 69 8a 39 d3 ed d0 b9 30 4e f5 b9
       -0.001076943 0.00026400073 -0.00039850044 -0.00046788296
0001b0 5a e4 8d b8 a1 c1 3b 39 d4 41 4d 3b 89 e5 f1 3b
       -6.765938e-05 0.00017905842 0.0031319754 0.007382099
0001c0 e0 e2 ea b9 c5 d0 4e 3b 4e cc fe 3b 5e 41 d7 ba
       -0.00044800993 0.0031557542 0.00777582 -0.0016422679
0001d0 4f f9 3e 3b aa 02 ff 3b 2c e1 d6 ba 78 78 3f 3b
       0.0029140299 0.0077823 -0.0016394011 0.0029216092
0001e0 f6 8e d9 39 b8 bc a0 38 5f f4 8d 37 8f e2 ad 38
       0.0004149598 7.664546e-05 1.6922304e-05 8.291483e-05
0001f0 7c 00 67 39 84 ba ea b8 5a 72 93 38 d5 6b 70 39
       0.00022030057 -0.00011192731 7.030806e-05 0.00022928354
000200 6a 30 fc b8 93 8b a1 38 9e f8 8a 3b cf 9e 8b ba
       -0.00012025314 7.703076e-05 0.0042410633 -0.0010652187
000210 83 2c cd ba 7d f1 9a 3a 7c 03 e9 ba 1c 6a 8c ba
       -0.0015653524 0.0011821237 -0.0017777528 -0.0010712775
000220 f5 e9 71 3a 81 b9 ef ba 93 77 89 ba f7 57 66 3a
       0.0009228283 -0.0018289537 -0.0010487906 0.00087869115
000230 a6 25 67 3a 07 a5 34 38 39 b0 a1 b7 4d 89 6c 37
       0.0008817561 4.3069038e-05 -1.9274756e-05 1.4098664e-05
000240 86 26 81 b7 7e 2a 05 38 d8 62 fa 37 ab ef 7b b7
       -1.5395937e-05 3.1749245e-05 2.984835e-05 -1.5016568e-05
000250 66 9d 05 38 24 76 fd 37 94 e3 63 3c 57 17 cb 3b
       3.185626e-05 3.0214964e-05 0.013909239 0.0061978507
000260 b4 27 b9 3b ac bd e6 3a 2d 27 02 3c 15 24 ae 3b
       0.005650485 0.0017604134 0.007943911 0.00531436
000270 0e 62 da 3a b3 aa 0f 3c cf 30 96 3b 7c c8 16 3b
       0.0016661303 0.008768725 0.004583455 0.0023007682
000280 48 4c 6b 3a a4 70 0c 3a f8 46 39 39 40 03 08 ba
       0.00089759054 0.0005357361 0.00017669413 -0.00051884726
000290 9c e8 f6 39 a0 77 58 39 5e 0c 06 ba 3a ab f0 39
       0.00047094084 0.00020643929 -0.0005113537 0.0004590394
0002a0 1a 72 60 39 c9 e6 07 ba 6e 74 1e ba af 19 b0 b8
       0.00021404811 -0.0005184231 -0.0006044571 -8.397118e-05
0002b0 fc 0c ba 39 6d 9c fd b8 36 26 69 b9 32 cd ab 39
       0.0003548636 -0.00012093117 -0.00022234846 0.00032768544
0002c0 d6 b9 e8 b8 a0 53 69 b9 20 cb ab 39 52 4a e8 b8
       -0.00011097237 -0.00022251764 0.00032767002 -0.00011076465
0002d0 91 b7 7a 3c f6 ea 5b 3b 3f 21 26 3b f6 e9 21 3b
       0.015302555 0.0033556796 0.0025349406 0.0024706102
0002e0 43 d7 8f 3b a2 43 19 ba 32 d0 4c 3b 68 c5 87 3b
       0.004389675 -0.0005846565 0.0031252024 0.0041434057
0002f0 f6 e4 d9 b9 b2 55 3e 3b 60 0b 98 38 8c 9e 38 bc
       -0.00041560055 0.0029042778 7.2500436e-05 -0.011268269
000300 c2 ce 97 bb 56 f9 9d 3a 61 29 51 bc 6a 6f 03 bc
       -0.0046328017 0.0012052457 -0.012766213 -0.008022169
000310 66 e1 a5 3a a1 8f 5e bc 1c 65 ef bb 26 b4 12 3a
       0.0012655675 -0.0135840485 -0.0073057543 0.0005596302
000320 ba 99 3b bb 78 45 24 bb 7c bf 11 bb 02 72 be b8
       -0.0028625564 -0.002506582 -0.0022239378 -9.0811416e-05
000330 57 b8 08 bb 39 6d 18 bb 85 8d a8 b9 89 ca 08 bb
       -0.0020861828 -0.002325846 -0.00032148897 -0.0020872673
000340 12 59 18 bb 1d 1a a8 b9 48 43 8f bb 68 48 0c 39
       -0.002324645 -0.00032062913 -0.004372034 0.00013378414
000350 78 75 12 3b 3e 70 19 ba fa dd 2b 3b fc cc e8 3a
       0.002234785 -0.0005853212 0.0026224838 0.0017761285
000360 18 52 36 ba 04 11 40 3b 4f 8e bc 3a bc 67 fe b9
       -0.0006954982 0.0029307017 0.0014385673 -0.00048523943
000370 17 56 98 3c 11 b7 55 3a ca 79 f6 bb da b2 86 3b
       0.018595738 0.0008152584 -0.0075218426 0.0041106762
000380 8a 98 d6 3a e2 db ee bb 10 ef 70 3b f3 6a d7 3a
       0.0016372364 -0.0072893957 0.0036763586 0.0016435072
000390 5a 70 ee bb 0a 10 71 3b f2 dd 64 bc 8a 5e f8 bb
       -0.007276577 0.0036783242 -0.0139689315 -0.0075796293
0003a0 a2 7f 0f 3c 8e bd 7a bb 62 77 cb bb 2e f2 f9 3b
       0.008758457 -0.0038259956 -0.0062093 0.007627747
0003b0 fd f8 6a bb b4 1a cb bb 69 9c f8 3b 53 09 6b bb
       -0.0035853975 -0.0061982516 0.007587005 -0.0035863712
0003c0 74 a2 89 3c 9a 82 27 3a 5c f0 da ba 06 b7 94 3a
       0.016801096 0.00063900056 -0.0016703713 0.0011346049
0003d0 e7 69 e0 3a dc 60 1c bb a0 ee 74 3a 3c 64 30 3b
       0.0017121405 -0.0023861444 0.0009343419 0.0026915213
0003e0 86 6a 47 bb 66 48 e9 3a cd 5d 65 bc 70 f9 0d 3b
       -0.0030428483 0.0017798066 -0.013999415 0.002166357
0003f0 b2 eb 77 ba 28 35 e4 39 60 17 03 b9 d4 d7 c6 ba
       -0.00094574236 0.00043527153 -0.00012501841 -0.0015170523

exp_avg_sq f4 [128, 10]
000000 1d 7b 1e 3b cd 01 32 39 36 a5 d3 38 25 cb 78 38
       0.0024182268 0.00016976074 0.00010092037 5.9317e-05
000010 8b 39 ab 39 52 70 d5 38 b7 bf a9 38 1a 38 c9 39
       0.00032658534 0.00010177553 8.094258e-05 0.00038379506
000020 c5 8d cf 38 22 85 a4 38 5a bc 10 3b 9d b7 b9 39
       9.896936e-05 7.844927e-05 0.0022084923 0.00035422752
000030 6c 92 a9 39 7e cc 44 39 56 03 55 3a 0b a5 81 39
       0.00032343285 0.00018768196 0.0008125802 0.00024727764
000040 dc 55 57 39 9a 54 65 3a 97 ed 8b 39 3e e4 64 39
       0.00020535983 0.00087482634 0.00026689164 0.00021828801
000050 d8 b7 9f 34 3d c1 75 36 88 51 be 34 b6 29 bf 34
       2.9749822e-07 3.6620324e-06 3.544958e-07 3.560687e-07
000060 68 7f 7e 36 e0 98 6a 35 aa 3b d8 34 0a a7 87 36
       3.792311e-06 8.7394255e-07 4.0276547e-07 4.0427594e-06
000070 bb d8 37 35 b4 23 05 35 cc ee a3 35 f3 c6 0f 34
       6.8488197e-07 4.9598316e-07 1.2213945e-06 1.339029e-07
000080 88 72 c1 34 77 e3 28 34 1a 9f f0 33 db a6 fa 34
       3.6032384e-07 1.572897e-07 1.1204811e-07 4.6687532e-07
000090 26 63 a7 34 11 f9 01 34 e4 db fc 34 7b 66 aa 34
       3.1178314e-07 1.2104671e-07 4.709865e-07 3.1739532e-07
0000a0 cb 92 0f 3b f7 58 b7 38 84 d7 ab 38 f1 5d 29 38
       0.0021907564 8.742691e-05 8.194058e-05 4.038023e-05
0000b0 a2 db f8 38 74 76 e1 38 2c 32 8b 38 1a d9 25 39
       0.00011866471 0.000107509 6.637382e-05 0.00015816503
0000c0 79 4b de 38 c7 a5 66 38 e7 84 06 3b 1e cf 29 3a
       0.00010599843 5.4990665e-05 0.0020525993 0.0006477701
0000d0 65 4d 0d 39 b9 60 24 39 e3 47 74 3a 35 0c 17 39
       0.0001347564 0.00015676291 0.0009318573 0.0001440503
0000e0 bb 69 4c 39 45 81 85 3a 16 29 0a 39 d0 ec 4e 39
       0.00019494344 0.001018562 0.00013176011 0.0001973391
0000f0 78 93 5a 3a a4 b3 1f 39 33 f4 33 39 d8 91 ab 38
       0.00083380146 0.00015230343 0.00017161742 8.181081e-05
000100 09 5c 27 39 09 8e 4c 39 39 18 b6 38 af 57 28 39
       0.00015960647 0.00019507868 8.682948e-05 0.00016054393
000110 21 64 4c 39 d9 35 b7 38 fd 07 1e 38 36 42 70 36
       0.00019492257 8.73615e-05 3.7677575e-05 3.5801327e-06
000120 4a 40 7f 37 61 30 44 37 33 ba a2 36 fc 9e 87 37
       1.5214153e-05 1.16937745e-05 4.8496527e-06 1.6167287e-05
000130 af 63 51 37 cb 7d ae 36 c3 ff 8d 37 d6 97 5a 37
       1.248058e-05 5.2002483e-06 1.6927608e-05 1.3029165e-05
000140 35 89 68 3a 22 a3 9b 38 03 2a 38 38 76 0a 0d 38
       0.0008870543 7.421362e-05 4.3908145e-05 3.3626762e-05
000150 92 10 f4 38 5e 7f 47 38 5b b3 26 38 e9 29 05 39
       0.00011637913 4.7563917e-05 3.9744522e-05 0.00012699481
000160 f3 a8 48 38 eb 68 23 38 aa 4d 1e 3b 99 58 91 39
       4.7841062e-05 3.895994e-05 0.0024155178 0.00027722566
000170 ba 9f 9a 39 bc b2 1f 39 26 66 09 3a 6f 62 8d 39
       0.00029492175 0.00015230005 0.00052413566 0.00026966954
000180 07 80 19 39 23 85 0d 3a 53 43 91 39 0b e9 22 39
       0.00014638911 0.0005398562 0.00027706716 0.00015536339
000190 c0 c7 cc 39 a9 e7 6b 38 9d 9e 1c 38 b4 07 a8 37
       0.00039058737 5.6244116e-05 3.734102e-05 2.0030748e-05
0001a0 e7 10 20 39 24 b3 2f 38 b0 63 26 38 9e 2a 8a 39
       0.00015265086 4.189009e-05 3.9670325e-05 0.00026353163
0001b0 79 1f c7 37 a5 92 01 38 3c 50 88 3a 3c 45 fa 39
       2.3737304e-05 3.089257e-05 0.0010399888 0.000477353
0001c0 67 68 d9 37 92 64 b9 38 52 89 06 3a 16 ad 09 38
       2.5917032e-05 8.84022e-05 0.00051321567 3.2824544e-05
0001d0 fc 56 cb 38 97 50 09 3a 6d 2d 0d 38 89 f9 bf 38
       9.6959964e-05 0.0005238144 3.3659326e-05 9.154069e-05
0001e0 97 b9 bb 36 2d 6b 8e 34 36 05 2b 35 44 ce cf 34
       5.59464e-06 2.6527542e-07 6.3710047e-07 3.8706833e-07
0001f0 5c ef 1a 35 e6 1e 35 35 6c ef d5 34 35 60 18 35
       5.7717784e-07 6.747272e-07 3.9848544e-07 5.676441e-07
000200 18 e3 47 35 0e 9b e2 34 b8 7d 69 3a 48 af b7 38
       7.446374e-07 4.2208598e-07 0.0008906978 8.758769e-05
000210 6b df 2d 38 b4 3d fe 37 ef 90 e9 38 52 0d 6a 38
       4.145449e-05 3.0307892e-05 0.00011137302 5.5802353e-05
000220 0a 47 27 38 14 98 06 39 85 fe 71 38 68 81 19 38
       3.9882063e-05 0.0001283589 5.7695917e-05 3.659856e-05
000230 15 6b 81 36 68 bd 1e 34 9a bf e4 34 ef a2 63 34
       3.8569656e-06 1.4783802e-07 4.2607718e-07 2.1200297e-07
000240 29 7a a9 34 3f 68 ec 34 74 9e e9 33 91 f5 bf 34
       3.1567586e-07 4.4034275e-07 1.08787304e-07 3.5755195e-07
000250 eb 6d e8 34 a1 3e bd 33 44 14 0f 3b 2c 1c 1d 3a
       4.3293343e-07 8.8123905e-08 0.0021832148 0.00059932726
000260 c7 90 05 39 11 a9 16 39 3a 76 6d 3a 6c 2a 1e 39
       0.00012737802 0.00014368097 0.00090584497 0.00015083858
000270 28 e6 54 39 61 11 84 3a 69 57 24 39 76 78 51 39
       0.00020303635 0.001007598 0.00015672822 0.00019976668
000280 74 eb f8 39 c9 ae 8b 37 4c 42 a0 38 fe 95 19 38
       0.00047477672 1.6651482e-05 7.641743e-05 3.6617734e-05
000290 ee 4d 8a 37 5a 2c b4 38 24 71 38 38 c5 2c a4 37
       1.648717e-05 8.59133e-05 4.397439e-05 1.9571171e-05
0002a0 21 80 b2 38 38 00 34 38 71 c2 c1 39 f6 45 1b 36
       8.511567e-05 4.2915548e-05 0.000369567 2.3137522e-06
0002b0 4d f0 56 37 b5 d4 fe 36 d0 41 64 37 d8 15 37 37
       1.2811343e-05 7.5945522e-06 1.3605182e-05 1.0912736e-05
0002c0 b9 9e da 36 70 6f 69 37 13 31 5f 37 18 5e ac 36
       6.515384e-06 1.3913828e-05 1.3303262e-05 5.1369534e-06
0002d0 13 45 ae 3a bc c0 a4 38 48 a4 d9 38 1e 85 82 38
       0.0013295732 7.856029e-05 0.00010377966 6.223678e-05
0002e0 5e d8 44 39 11 fb d8 38 0f 90 9a 38 ad 96 59 39
       0.0001877262 0.000103464474 7.370125e-05 0.00020750864
0002f0 11 58 ef 38 ad 2f a5 38 e9 7f 6e 3b 62 35 fb 39
       0.00011412812 7.8766934e-05 0.0036392158 0.00047914224
000300 47 5b a8 39 ee 9b 61 39 c2 c7 81 3a c7 39 8f 39
       0.00032111464 0.0002151576 0.0009901451 0.00027318133
000310 f2 4a 82 39 fe 0a 99 3a 37 8e 96 39 92 71 8c 39
       0.0002485137 0.001167625 0.00028716188 0.00026787497
000320 de f6 40 3a 25 8b 42 3a 87 e3 e4 38 59 33 f9 38
       0.0007361005 0.0007421247 0.000109142675 0.000118828095
000330 35 60 74 3a cf 24 ca 38 0f a3 ec 38 7a 78 76 3a
       0.00093221973 9.638967e-05 0.00011283729 0.00094021077
000340 c4 09 dc 38 d4 bb ef 38 9d 05 96 3a 33 64 0a 39
       0.000104922365 0.00011431394 0.0011445765 0.00013198033
000350 40 bd c5 38 17 aa 93 38 b3 1d 93 39 6b 46 c6 38
       9.4289426e-05 7.041188e-05 0.00028060153 9.454492e-05
000360 9c 69 c7 38 3c 0c a2 39 a1 50 d1 38 7d cd ca 38
       9.508731e-05 0.00030908163 9.980915e-05 9.670386e-05
000370 68 5b 7f 3a 51 f4 8d 38 c5 be 27 39 1c 5c 98 38
       0.00097410986 6.7689114e-05 0.00015997428 7.2650815e-05
000380 09 0f 8b 38 9f 26 30 39 70 27 8c 38 c0 b3 8e 38
       6.630837e-05 0.00016799055 6.683066e-05 6.804569e-05
000390 1e b3 2c 39 2a ca 8c 38 04 74 9b 3a 15 77 04 3a
       0.00016469925 6.713376e-05 0.0011860137 0.0005053145
0003a0 7f da f5 38 17 8e e6 38 ee bb 20 3a 54 f5 0c 39
       0.000117232084 0.00010993721 0.00061315193 0.00013442832
0003b0 8b 6b 0a 39 0a 11 24 3a d7 cc 0d 39 e0 47 09 39
       0.00013200768 0.00062586425 0.00013523117 0.00013092114
0003c0 6e 89 29 3b 2f 1d b8 38 98 0e c7 38 c2 a4 71 38
       0.0025869268 8.7792396e-05 9.491778e-05 5.761232e-05
0003d0 9a c4 73 39 0f f7 1e 39 00 da 11 39 e3 8d c9 39
       0.00023247526 0.0001516009 0.00013909489 0.0003844342
0003e0 5e 36 25 39 ac 70 06 39 f7 24 68 3b ff d5 0c 3a
       0.0001575588 0.0001282121 0.0035422423 0.0005372464
0003f0 af 05 07 39 49 22 2b 39 80 49 4f 3a 2a d0 60 39
       0.0001287672 0.00016320603 0.00079073757 0.00021439852
