results/Run3/PlayerRL/checkpoint.pt (torch, 153506 bytes, 12 tensors)

network_body._body_endoder.seq_layers.0.weight f4 [128, 10]
0.18309425 0.20673181 0.4920893 -0.079303764 -0.124577224 -0.08792468 -0.31804386 -0.40432346
-0.23773396 0.16104428 -0.4649111 -0.24470168 -0.11086097 0.07315986 0.27536848 -0.04523698
-0.27435783 0.33229998 0.30540597 0.28243077 -0.23715088 -0.12208808 -0.37354657 -0.030126797
-0.054213244 0.02899989 -0.3242799 0.07539436 -0.44679007 -0.2851454 -0.34271973 0.74440855
0.34739122 -0.45799467 -0.2711854 -0.18527207 -0.3638199 0.35498706 0.21556215 0.08041421
0.084721476 -0.15186319 -0.731821 -0.014682414 -0.2209029 -0.06775982 0.9329357 0.43418798
-0.30151027 0.07210309 0.20591421 -0.2260823 0.42309603 0.3512676 -0.05076948 -0.61660004
-0.35316446 -0.004167971 0.40063202 0.7538651 -0.014355154 -0.2280077 -0.031621683 -0.4174961
-0.07474915 -0.06611043 -0.06055783 -0.13434315 -0.09445071 0.6217784 0.20219822 -0.44908434
0.1109921 -0.35694712 0.27260458 -0.28376403 -0.102087244 -0.004431855 -0.74327385 0.088710286
-0.21137077 0.24050663 -0.65045977 0.24974804 -0.16669989 -0.41969422 0.018047726 -0.5207206
-0.18409817 -0.23010933 0.12304032 0.19411428 -0.16132136 0.20624043 0.09348047 0.44991192
0.008065696 0.074555114 0.08620927 0.050667614 -0.2243475 0.18394698 -0.72575754 -0.09987016
0.050545238 -0.4821874 0.3565088 -0.3390777 0.45744592 0.7408321 -0.1492165 0.068418935
0.33193934 -0.434744 -0.1825955 -0.27525938 0.43010002 -0.33742598 -0.023431841 0.266874
-0.6956251 -0.13144168 -0.40346238 0.110638 -0.33688614 -0.15935053 -0.23029315 -0.09133057
0.010593657 -0.6273928 -0.65288895 -0.13197024 -0.7220536 0.05541677 -0.22004676 -0.011363356
-0.4532414 -0.04825944 0.124852255 0.55996555 0.14465256 -0.15867236 0.28633234 -0.0049120956
-0.0628842 0.3194728 -0.08016084 -0.0057352306 -0.069742225 -0.06600262 0.44894767 -0.25191605
-0.07847846 -0.3817322 -0.07145448 0.102466814 0.47499263 -0.009899905 0.35774857 0.30025396
0.33133763 -0.12996855 -0.521004 0.24339898 0.53539175 -0.2988858 0.19001949 -0.7814271
-0.28227478 -0.030814977 0.16256571 0.3326117 -0.043635886 -0.82214934 -0.12615678 -0.51947236
-0.69315654 0.4427086 0.24562562 -0.12285573 -0.19534895 -0.3002611 -0.042906392 -0.12253194
0.41097772 -0.13569018 -0.08924266 -0.10859033 0.31240308 0.0013656642 -0.086602725 -0.03332932
0.35039216 -0.09804972 0.21797863 0.3355963 -0.288642 0.7348635 -0.2763733 0.6241997
0.042772267 0.09729188 0.19433421 0.09953248 0.16737573 -0.20245609 0.3988036 0.562438
-0.46180493 -0.098565854 0.12138181 -0.13191018 0.3948299 -0.3056254 -0.78247386 -0.10013317
0.74327844 0.31791243 0.090031005 -0.026976734 0.022940643 0.13438733 -0.058170855 0.09075382
-0.19648725 -0.0011418668 -0.22014856 0.6079154 -0.40454644 0.29941052 -0.098335735 0.16131617
-0.105943 0.12936585 0.23753543 0.2787708 -0.5582144 -0.0066229887 0.19075717 -0.3374269
0.43901157 -0.5226678 -0.10801968 -0.17899497 -0.07656457 -0.08162891 0.6223565 -0.1053059
0.18711361 -0.23952724 -0.0281613 -0.27902436 -0.03809434 -0.11320085 0.29516768 0.23221128
00000000: 0f7d 3b3e 81b1 533e 21f3 fb3e 036a a2bd
00000010: 5822 ffbd db11 b4bd a5d6 a2be 7c03 cfbe
00000020: 8870 73be cbe8 243e d408 eebe 1493 7abe
00000030: 140b e3bd d6d4 953d 19fd 8c3e 694a 39bd
00000040: a178 8cbe 3923 aa3e 2c5e 9c3e c49a 903e
00000050: aed7 72be 5109 fabd 7f41 bfbe 79cc f6bc
00000060: b50e 5ebd 2d91 ed3c 0408 a6be 5c68 9a3d
00000070: abc1 e4be 94fe 91be f678 afbe 8f91 3e3f
00000080: 43dd b13e 477e eabe d0d8 8abe f6b7 3dbe
00000090: 9a46 babe ddc0 b53e 53bc 5c3e 35b0 a43d
000000a0: 7482 ad3d 0682 1bbe 9f58 3bbf 828e 70bc
000000b0: 5f34 62be a9c5 8abd e0d4 6e3f e34d de3e
000000c0: 8e5f 9abe c9aa 933d 2ddb 523e 1e82 67be
000000d0: 0ba0 d83e 59d9 b33e a9f3 4fbd 80d9 1dbf
000000e0: f9d1 b4be 7a93 88bb a41f cd3e 4efd 403f
000000f0: e131 6bbc da7a 69be bd85 01bd 0cc2 d5be
00000100: 1516 99bd e864 87bd 7d0b 78bd 4091 09be
00000110: 606f c1bd df2c 1f3f 0d0d 4f3e 62ee e5be
00000120: d34f e33d c6c1 b6be d492 8b3e 8549 91be
00000130: 1e13 d1bd 1839 91bb 3247 3ebf bdad b53d
00000140: 9471 58be 5f47 763e 8884 26bf f3bd 7f3e
00000150: 60b3 2abe 29e2 d6be d3d8 933c f24d 05bf
00000160: 3b84 3cbe c8a1 6bbe 90fc fb3d e5c5 463e
00000170: 6d31 25be b130 533e b072 bf3d db5a e63e
00000180: fb25 043c 5ab0 983d 7c8e b03d d888 4f3d
00000190: 5abb 65be 995c 3c3e 3fcb 39bf ba88 ccbd
000001a0: 8608 4f3d 44e1 f6be 5288 b63e 989b adbe
000001b0: 5a36 ea3e 2ca7 3d3f 36cc 18be 3a1f 8c3d
000001c0: f4f3 a93e c496 debe 51fa 3abe ccee 8cbe
000001d0: 1236 dc3e 19c3 acbe 22f4 bfbc b5a3 883e
000001e0: 7d14 32bf a698 06be 9f92 cebe 2d96 e23d
000001f0: 577c acbe c92c 23be f8d1 6bbe 860b bbbd
00000200: 0591 2d3c d19c 20bf bb23 27bf 3523 07be
00000210: 81d8 38bf b2fc 623d f053 61be 5f2d 3abc
00000220: 420f e8be b1ab 45bd 8ab2 ff3d e759 0f3f
00000230: cd1f 143e 027b 22be 279a 923e a5f5 a0bb
00000240: 6ec9 80bd f091 a33e 5e2b a4bd 9aee bbbb
00000250: 03d5 8ebd 622c 87bd 78dc e53e 24fb 80be
00000260: 51b9 a0bd 6772 c3be ba56 92bd 1fda d13d
00000270: 3c32 f33e 3633 22bc d22a b73e e3ba 993e
00000280: 16a5 a93e 7a16 05be 8560 05bf 953d 793e
00000290: 6f0f 093f 8f07 99be 7894 423e 9b0b 48bf
000002a0: 5286 90be b16f fcbc a077 263e 154c aa3e
000002b0: 8bbb 32bd 6178 52bf 3e2f 01be 24fc 04bf
000002c0: b572 31bf b4aa e23e 4885 7b3e c99b fbbd
000002d0: 8e09 48be d3bb 99be 9dbe 2fbd 07f2 fabd
000002e0: ac6b d23e 5ef2 0abe dbc4 b6bd 9b64 debd
000002f0: 4cf3 9f3e 1600 b33a c55c b1bd 5384 08bd
00000300: 9a66 b33e 4bce c8bd ca35 5f3e 47d3 ab3e
00000310: e2c8 93be 0420 3c3f cd80 8dbe 8dcb 1f3f
00000320: f931 2f3d f740 c73d 8cff 463e afd7 cb3d
00000330: 8b64 2b3e a650 4fbe fc2f cc3e f0fb 0f3f
00000340: b271 ecbe e5dc c9bd 0797 f83d 7613 07be
00000350: 2527 ca3e ef7a 9cbe 3550 48bf 9f12 cdbd
00000360: 7f47 3e3f 6bc5 a23e 2d62 b83d 50fe dcbc
00000370: 04ee bb3c d59c 093e 9044 6ebd 24dd b93d
00000380: f433 49be b1aa 95ba a06e 61be 58a0 1b3f
00000390: b620 cfbe 564c 993e 3f64 c9bd 1130 253e
000003a0: a5f8 d8bd 7b78 043e 7d3c 733e 0cbb 8e3e
000003b0: 24e7 0ebf a805 d9bb d955 433e 38c3 acbe
000003c0: 20c6 e03e 8fcd 05bf 6c39 ddbd 754a 37be
000003d0: e3cd 9cbd 0f2d a7bd c152 1f3f 9faa d7bd
000003e0: b69a 3f3e a146 75be 87b2 e6bc 48dc 8ebe
000003f0: d008 1cbd d9d5 e7bd 3820 973e cbc8 6d3e

network_body._body_endoder.seq_layers.0.bias f4 [128]
0.0 0.0 0.0 0.0 0.0 0.0 0.0 0.0
0.0 0.0 0.0 0.0 0.0 0.0 0.0 0.0
0.0 0.0 0.0 0.0 0.0 0.0 0.0 0.0
0.0 0.0 0.0 0.0 0.0 0.0 0.0 0.0
0.0 0.0 0.0 0.0 0.0 0.0 0.0 0.0
0.0 0.0 0.0 0.0 0.0 0.0 0.0 0.0
0.0 0.0 0.0 0.0 0.0 0.0 0.0 0.0
0.0 0.0 0.0 0.0 0.0 0.0 0.0 0.0
0.0 0.0 0.0 0.0 0.0 0.0 0.0 0.0
0.0 0.0 0.0 0.0 0.0 0.0 0.0 0.0
0.0 0.0 0.0 0.0 0.0 0.0 0.0 0.0
0.0 0.0 0.0 0.0 0.0 0.0 0.0 0.0
0.0 0.0 0.0 0.0 0.0 0.0 0.0 0.0
0.0 0.0 0.0 0.0 0.0 0.0 0.0 0.0
0.0 0.0 0.0 0.0 0.0 0.0 0.0 0.0
0.0 0.0 0.0 0.0 0.0 0.0 0.0 0.0
00000000: 0000 0000 0000 0000 0000 0000 0000 0000
00000010: 0000 0000 0000 0000 0000 0000 0000 0000
00000020: 0000 0000 0000 0000 0000 0000 0000 0000
00000030: 0000 0000 0000 0000 0000 0000 0000 0000
00000040: 0000 0000 0000 0000 0000 0000 0000 0000
00000050: 0000 0000 0000 0000 0000 0000 0000 0000
00000060: 0000 0000 0000 0000 0000 0000 0000 0000
00000070: 0000 0000 0000 0000 0000 0000 0000 0000
00000080: 0000 0000 0000 0000 0000 0000 0000 0000
00000090: 0000 0000 0000 0000 0000 0000 0000 0000
000000a0: 0000 0000 0000 0000 0000 0000 0000 0000
000000b0: 0000 0000 0000 0000 0000 0000 0000 0000
000000c0: 0000 0000 0000 0000 0000 0000 0000 0000
000000d0: 0000 0000 0000 0000 0000 0000 0000 0000
000000e0: 0000 0000 0000 0000 0000 0000 0000 0000
000000f0: 0000 0000 0000 0000 0000 0000 0000 0000
00000100: 0000 0000 0000 0000 0000 0000 0000 0000
00000110: 0000 0000 0000 0000 0000 0000 0000 0000
00000120: 0000 0000 0000 0000 0000 0000 0000 0000
00000130: 0000 0000 0000 0000 0000 0000 0000 0000
00000140: 0000 0000 0000 0000 0000 0000 0000 0000
00000150: 0000 0000 0000 0000 0000 0000 0000 0000
00000160: 0000 0000 0000 0000 0000 0000 0000 0000
00000170: 0000 0000 0000 0000 0000 0000 0000 0000
00000180: 0000 0000 0000 0000 0000 0000 0000 0000
00000190: 0000 0000 0000 0000 0000 0000 0000 0000
000001a0: 0000 0000 0000 0000 0000 0000 0000 0000
000001b0: 0000 0000 0000 0000 0000 0000 0000 0000
000001c0: 0000 0000 0000 0000 0000 0000 0000 0000
000001d0: 0000 0000 0000 0000 0000 0000 0000 0000
000001e0: 0000 0000 0000 0000 0000 0000 0000 0000
000001f0: 0000 0000 0000 0000 0000 0000 0000 0000

network_body._body_endoder.seq_layers.2.weight f4 [128, 128]
0.011320108 -0.032686196 0.071214125 -0.06499475 0.0066183805 -0.049392667 -0.009739177 0.06361919
0.011881032 0.01343729 0.03776191 -0.021948136 0.13431486 -0.083456434 0.091552086 -0.0325012
-0.057737473 -0.065074146 -0.23625788 0.017124515 -0.001766232 0.030199995 -0.017986085 -0.12397764
0.1023012 0.050517075 -0.09518638 -0.045187857 0.071268216 -0.0059743566 0.11336462 0.050412703
0.054527875 -0.082750894 0.032956418 0.17009422 0.07535778 -0.06411974 -0.03626506 0.059823498
0.01355752 -0.10629295 -0.024993876 0.14264676 -0.115555845 -0.033184327 0.09987098 -0.0007508635
-0.11358 -0.008135815 0.04826829 -0.025755301 -0.09218141 0.020429363 -0.054825857 0.016440412
-0.05242718 0.07737512 0.07757099 -0.16905893 -0.0053369063 -0.03603081 -0.06368347 0.026648048
-0.10995834 0.12555656 -0.07907033 -0.040997274 0.10734564 -0.021601725 -0.1641832 -0.10866953
0.07857556 -0.04956833 0.009536317 -0.14788486 0.0029730725 0.06864664 0.060792003 -0.0028577903
0.117787145 0.012782036 0.076865554 -0.06764297 -0.019015769 -0.0012089569 0.015230821 -0.13213147
0.015333093 0.07554621 -0.03041139 -0.05648176 0.07479294 -0.109372996 -0.13772416 -0.034142196
0.020599335 0.041616984 -0.047304794 -0.05129922 -0.07590868 0.056502674 0.09141794 0.12998025
0.032065507 0.018768877 -0.016766794 -0.059373982 -0.0526849 0.011208507 -0.04667046 -0.006219952
0.03349781 0.058444966 -0.0560069 0.00011048446 -0.20903191 0.035370395 0.076916054 0.045083225
-0.16238046 0.102022484 -0.15920468 0.030988976 -0.058731385 0.08855488 -0.005563571 0.2636085
-0.028506069 0.16523755 -0.12825641 -0.020656845 -0.01154496 -0.111437604 -0.029560624 0.0889508
0.028862912 0.06742317 -0.1949221 0.06809015 -0.008943628 -0.079081915 0.10123004 -0.008963555
-0.09580812 0.05618402 -0.1191792 0.017499546 -0.03000101 0.057037417 0.029758124 0.112844326
-0.09796075 0.071103215 -0.017027745 -0.15018314 -0.13724399 -0.021857247 0.006870805 -0.047911502
-0.11493322 0.0040356023 0.08377308 -0.15698455 0.05705481 0.025691802 -0.07139002 0.07257193
-0.1169418 0.10002534 0.008238859 0.102498226 0.11294055 -0.06826034 0.048111644 -0.01838872
-0.053880583 0.045228068 0.0659662 -0.03489928 -0.072572924 -0.14934331 0.057802957 -0.12521435
-0.075053945 0.035672978 -0.17995113 -0.16191073 0.019340677 0.016888028 -0.0480951 0.022949403
0.08158217 -0.06324561 -0.020368744 -0.13962573 0.06122633 0.109916285 -0.04880438 0.13067959
0.05426181 0.039438006 0.01293368 -0.026589861 -0.03999797 -0.00090667943 0.08931149 -0.10891011
0.051607378 -0.13587068 -0.09672416 -0.13930851 -0.031824686 0.12556686 -0.12040422 0.06984405
-0.068609275 -0.02021302 -0.086396046 0.080656365 -0.1371607 -0.019780118 0.15896535 0.039506342
0.16573939 0.014185222 0.038577896 0.055569384 0.17872839 -0.0049952627 0.024046855 0.11619473
-0.03777172 0.002635563 -0.0006197867 -0.059931263 0.0069557163 -0.045741174 0.042488478 0.00467851
-0.065585434 0.015886296 0.062048785 -0.20765953 -0.13735336 -0.12076885 0.11297027 -0.02170185
-0.18108006 0.11480715 0.03957846 0.04361612 -0.009894962 0.061511867 0.0313542 -0.14169987
00000000: f977 393c f6e1 05bd b6d8 913d f81b 85bd
00000010: 00df d83b f74f 4abd 1291 1fbc c74a 823d
00000020: a9a8 423c 1428 5c3c 3cac 1a3d 94cc b3bc
00000030: d689 093e 35eb aabd a97f bb3d fa1f 05bd
00000040: 217e 6cbd 9845 85bd 96ed 71be b648 8c3c
00000050: e980 e7ba fb65 f73c 8e57 93bc fde7 fdbd
00000060: 4b83 d13d feea 4e3d 14f1 c2bd e716 39bd
00000070: 12f5 913d 89c4 c3bb b62b e83d 8d7d 4e3d
00000080: 9f58 5f3d 4d79 a9bd 4ffd 063d 2e2d 2e3e
00000090: 2e55 9a3d 3651 83bd ac8a 14bd 7c09 753d
000000a0: 5c20 5e3c 1eb0 d9bd f5bf ccbc fe11 123e
000000b0: 8ba8 ecbd 4aec 07bd 2889 cc3d 99d5 44ba
000000c0: a29c e8bd 154c 05bc f8b4 453d c8fc d2bc
000000d0: 9bc9 bcbd 7b5b a73c 1491 60bd 0bae 863c
000000e0: e2bd 56bd d976 9e3d 8add 9e3d c91d 2dbe
000000f0: 37e1 aebb 0b95 13bd 7b6c 82bd 024d da3c
00000100: d731 e1bd e691 003e a0ef a1bd c2ec 27bd
00000110: 08d8 db3d 1af6 b0bc a41f 28be 218e debd
00000120: 39ec a03d 2908 4bbd 363e 1c3c 216f 17be
00000130: e1d7 423b 9c96 8c3d 0901 793d c449 3bbb
00000140: 633a f13d bf6b 513c b06b 9d3d 6688 8abd
00000150: f5c6 9bbc dd75 9eba b28a 793c 794d 07be
00000160: a737 7b3c f9b7 9a3d 4f21 f9bc 6b59 67bd
00000170: 0a2d 993d f3fe dfbd 9007 0dbe b0d8 0bbd
00000180: f0bf a83c 9276 2a3d acc2 41bd 221f 52bd
00000190: 0376 9bbd 596f 673d 5439 bb3d 8b19 053e
000001a0: 1f57 033d 30c1 993c 845a 89bc 2232 73bd
000001b0: 1fcc 57bd e3a3 373c 8629 3fbd bdd0 cbbb
000001c0: 0035 093d fd63 6f3d 7e67 65bd e5b3 e738
000001d0: 760c 56be 8ce0 103d 2a86 9d3d 30a9 383d
000001e0: 1047 26be 2af1 d03d 8d06 23be 98dc fd3c
000001f0: 5290 70bd 435c b53d 9e4e b6bb b1f7 863e
00000200: 8f85 e9bc 0834 293e a655 03be 8b38 a9bc
00000210: 1227 3dbc 6639 e4bd 1f29 f2bc d62b b63d
00000220: ea71 ec3c 2915 8a3d a999 47be d972 8b3d
00000230: 4b88 12bc b3f5 a1bd b251 cf3d e0db 12bc
00000240: 0c37 c4bd 3721 663d 3914 f4bd 355b 8f3c
00000250: aec4 f5bc 11a0 693d 4fc7 f33c ed1a e73d
00000260: a59f c8bd 909e 913d c57d 8bbc 9cc9 19be
00000270: b089 0cbe f80d b3bc 7d24 e13b da3e 44bd
00000280: 1c62 ebbd 163d 843b 3891 ab3d 8fc0 20be
00000290: 4eb2 693d 9d77 d23c ee34 92bd 98a0 943d
000002a0: 2f7f efbd 16da cc3d 47fc 063c 97ea d13d
000002b0: 604d e73d 14cc 8bbd b710 453d f1a3 96bc
000002c0: e3b1 5cbd 1141 393d 4919 873d 8cf2 0ebd
000002d0: 1da1 94bd 74ed 18be cbc2 6c3d 3138 00be
000002e0: e2b5 99bd d41d 123d 1c45 38be edcb 25be
000002f0: 5770 9e3c c358 8a3c 5eff 44bd 6300 bc3c
00000300: 8e14 a73d ea86 81bd 5adc a6bc 0cfa 0ebe
00000310: 76c8 7a3d ca1b e13d 1ae7 47bd dfd0 053e
00000320: a241 5e3d bf89 213d c9e7 533c fbd2 d9bc
00000330: e9d4 23bd 3aae 6dba f1e8 b63d 440c dfbd
00000340: 4262 533d af21 0bbe 5117 c6bd e4a6 0ebe
00000350: 9a5a 02bd 9994 003e 7d96 f6bd 660a 8f3d
00000360: 0583 8cbd c695 a5bc 69f0 b0bd 2a2f a53d
00000370: db73 0cbe ea09 a2bc d0c7 223e 67d1 213d
00000380: 96b7 293e 2269 683c db03 1e3d b99c 633d
00000390: 9304 373e 4daf a3bb e9fd c43c 81f7 ed3d
000003a0: 85b6 1abd 69b9 2c3b 2e79 22ba 7c7a 75bd
000003b0: c7ec e33b 195b 3bbd 6608 2e3d 304e 993b
000003c0: a851 86bd fa23 823c de26 7e3d b3a4 54be
000003d0: 5ca6 0cbe a955 f7bd f55c e73d 14c8 b1bc
000003e0: 0d6d 39be 0320 eb3d 061d 223d d1a6 323d
000003f0: 7b1e 22bc def3 7b3d 436d 003d c519 11be

network_body._body_endoder.seq_layers.2.bias f4 [128]
0.0 0.0 0.0 0.0 0.0 0.0 0.0 0.0
0.0 0.0 0.0 0.0 0.0 0.0 0.0 0.0
0.0 0.0 0.0 0.0 0.0 0.0 0.0 0.0
0.0 0.0 0.0 0.0 0.0 0.0 0.0 0.0
0.0 0.0 0.0 0.0 0.0 0.0 0.0 0.0
0.0 0.0 0.0 0.0 0.0 0.0 0.0 0.0
0.0 0.0 0.0 0.0 0.0 0.0 0.0 0.0
0.0 0.0 0.0 0.0 0.0 0.0 0.0 0.0
0.0 0.0 0.0 0.0 0.0 0.0 0.0 0.0
0.0 0.0 0.0 0.0 0.0 0.0 0.0 0.0
0.0 0.0 0.0 0.0 0.0 0.0 0.0 0.0
0.0 0.0 0.0 0.0 0.0 0.0 0.0 0.0
0.0 0.0 0.0 0.0 0.0 0.0 0.0 0.0
0.0 0.0 0.0 0.0 0.0 0.0 0.0 0.0
0.0 0.0 0.0 0.0 0.0 0.0 0.0 0.0
0.0 0.0 0.0 0.0 0.0 0.0 0.0 0.0
00000000: 0000 0000 0000 0000 0000 0000 0000 0000
00000010: 0000 0000 0000 0000 0000 0000 0000 0000
00000020: 0000 0000 0000 0000 0000 0000 0000 0000
00000030: 0000 0000 0000 0000 0000 0000 0000 0000
00000040: 0000 0000 0000 0000 0000 0000 0000 0000
00000050: 0000 0000 0000 0000 0000 0000 0000 0000
00000060: 0000 0000 0000 0000 0000 0000 0000 0000
00000070: 0000 0000 0000 0000 0000 0000 0000 0000
00000080: 0000 0000 0000 0000 0000 0000 0000 0000
00000090: 0000 0000 0000 0000 0000 0000 0000 0000
000000a0: 0000 0000 0000 0000 0000 0000 0000 0000
000000b0: 0000 0000 0000 0000 0000 0000 0000 0000
000000c0: 0000 0000 0000 0000 0000 0000 0000 0000
000000d0: 0000 0000 0000 0000 0000 0000 0000 0000
000000e0: 0000 0000 0000 0000 0000 0000 0000 0000
000000f0: 0000 0000 0000 0000 0000 0000 0000 0000
00000100: 0000 0000 0000 0000 0000 0000 0000 0000
00000110: 0000 0000 0000 0000 0000 0000 0000 0000
00000120: 0000 0000 0000 0000 0000 0000 0000 0000
00000130: 0000 0000 0000 0000 0000 0000 0000 0000
00000140: 0000 0000 0000 0000 0000 0000 0000 0000
00000150: 0000 0000 0000 0000 0000 0000 0000 0000
00000160: 0000 0000 0000 0000 0000 0000 0000 0000
00000170: 0000 0000 0000 0000 0000 0000 0000 0000
00000180: 0000 0000 0000 0000 0000 0000 0000 0000
00000190: 0000 0000 0000 0000 0000 0000 0000 0000
000001a0: 0000 0000 0000 0000 0000 0000 0000 0000
000001b0: 0000 0000 0000 0000 0000 0000 0000 0000
000001c0: 0000 0000 0000 0000 0000 0000 0000 0000
000001d0: 0000 0000 0000 0000 0000 0000 0000 0000
000001e0: 0000 0000 0000 0000 0000 0000 0000 0000
000001f0: 0000 0000 0000 0000 0000 0000 0000 0000

action_model._continuous_distribution.log_sigma f4 [1, 2]
0.0 0.0
00000000: 0000 0000 0000 0000

action_model._continuous_distribution.mu.weight f4 [2, 128]
0.016314277 0.009407193 0.006785056 -0.030331973 -0.034216315 0.013947456 0.02685529 0.0055862362
-0.023766084 -0.0059828814 -0.015310064 0.0072064693 0.021597741 -0.020996457 -0.0051911124 0.010414505
-0.008144857 0.00093231205 0.013258064 -0.0026286207 0.0034629477 -0.012729416 -0.013091325 0.029902766
0.0048193517 0.013712208 -0.010391776 0.003281815 0.0029435463 0.011530104 -0.00487291 -0.018893871
0.0056695314 -0.02243652 0.017971437 -0.003206075 -0.018809838 0.0020891267 0.01725605 0.014190412
0.02533393 0.03479388 -0.004217056 -0.019476615 -0.0014151596 -0.03729212 0.015244317 0.009786714
0.017601395 -0.01808931 0.020247307 0.002895267 -0.018315544 -0.03152993 0.0024889344 0.011674257
-0.015145528 -0.015563062 -0.0060740067 -0.006878856 0.003908321 0.0041883388 0.0083920425 0.0031228287
-0.0075708847 -0.01136171 0.0016158922 0.023324616 0.014744239 -0.017238839 0.013054415 -0.021943001
-0.0004424927 -0.028310148 0.015843341 -0.02503706 0.0037952922 0.0091849025 0.011732525 0.007730426
-0.0054527964 -0.019796766 -0.0039872485 0.007766531 0.013059218 -0.0064239847 -0.010182815 -0.0013282704
0.02999233 0.0012577033 -0.019507777 -0.011474127 0.011095546 0.02689202 0.01777264 -0.037421435
0.004101376 -0.018461615 -0.0025064573 -0.0037584312 -0.008665462 0.014439638 0.02971517 0.0011591896
0.0114783775 -0.0024038358 0.009452267 0.031980835 -0.0039124396 -0.010102991 -0.0016005737 -0.006410674
0.0013920156 0.054816395 0.009405723 -0.040586766 0.021686744 0.008469492 0.029307479 -0.02206399
-0.021713674 0.039480995 -0.018858623 -0.028235203 -0.00049868796 -0.0035628767 0.009880473 -0.014642443
0.014095624 0.011139409 0.020002438 -0.0064807013 -0.010591307 0.0029826944 0.010324836 0.011067416
-0.0049091983 -0.0031946183 -0.01924043 -0.02814108 -0.01250613 -0.0015201744 -0.0035588753 -0.0070285425
0.02985762 -0.015471836 -0.00328557 -0.006714811 -0.008182801 -0.003081445 0.01417529 -0.013507532
-0.02323575 0.022323618 -0.032042447 -0.002206928 -0.0031113613 -0.02184216 0.030627448 0.0038123378
0.0057321354 -0.01418992 0.0026151794 0.0357312 0.022346638 0.010481674 -0.020011706 -0.03799923
-0.014633754 -0.0036961683 -0.009722902 0.0074597234 0.015460781 0.017719021 0.011337954 0.012681705
-0.0062624747 0.030899523 -0.0039793877 0.020188773 -0.020681348 -0.0049270047 -0.007815451 0.019194454
-0.023135548 0.021491509 -0.0025033457 0.008059321 0.010897118 0.018698221 0.008717971 0.003089697
0.0054909647 0.002839673 -0.007339593 0.015996357 0.012165332 -0.012328646 -0.04191748 0.0052008983
-0.023696152 -0.01115289 -0.00010688129 -0.020824494 -0.011785127 -0.0035655235 -0.024015838 -0.01096579
0.001057328 -0.018838761 0.0137952585 -0.011300542 -0.016540436 -0.005258361 -0.016250677 0.004319782
-0.021247787 0.02916619 0.007053658 -0.0011741216 0.042162858 0.030388106 0.0010849256 0.0067618503
5.8337067e-05 -0.03022846 0.0110736545 0.030833587 0.020362591 0.020453712 0.027637852 0.00026781272
0.0010346746 0.0074580847 0.0005511436 -0.0022776902 -0.024597052 0.0028469816 -0.01498879 0.0060626776
-0.011302124 -0.00831718 -0.012683553 0.05332942 0.014615336 0.02441982 -0.013818969 -0.029966846
0.0011608221 -0.016176254 0.008180177 -0.011168609 -0.023673488 -0.0005705526 0.0002430672 0.0057035177
00000000: 85a5 853c a120 1a3c 2d55 de3b c27a f8bc
00000010: 6826 0cbd df83 643c a0ff db3c bf0c b73b
00000020: 17b1 c2bc 0c0c c4bb 10d7 7abc 3f24 ec3b
00000030: bfed b03c c300 acbc 351a aabb 9aa1 2a3c
00000040: 0272 05bc 6766 743a 5a38 593c f044 2cbb
00000050: 9ff2 623b 0a8f 50bc ff7c 56bc a5f6 f43c
00000060: a7eb 9d3b 2ba9 603c 4542 2abc b813 573b
00000070: 83e8 403b c3e8 3c3c efac 9fbb 52c7 9abc
00000080: 7ac7 b93b cbcc b7bc d638 933c 031d 52bb
00000090: 1717 9abc bbe9 083b 8f5c 8d3c e77e 683c
000000a0: 1a89 cf3c 0784 0e3d 3b2f 8abb 6c8d 9fbc
000000b0: e07c b9ba 9fbf 18bd 4dc3 793c 7458 203c
000000c0: cd30 903c 0830 94bc aedd a53c 85be 3d3b
000000d0: 7b0a 96bc 8725 01bd 641d 233b 6245 3f3c
000000e0: f324 78bc 37fc 7ebc 7608 c7bb 0768 e1bb
000000f0: 5f11 803b 553e 893b c77e 093c 5fa8 4c3b
00000100: 2f15 f8bb 7726 3abc 58cc d33a 4413 bf3c
00000110: d291 713c 7738 8dbc 2fe2 553c cfc1 b3bc
00000120: 5dfe e7b9 afea e7bc e5c9 813c 851a cdbc
00000130: 70ba 783b 467c 163c c739 403c 834f fd3b
00000140: 5fad b2bb d42c a2bc 77a7 82bb 627e fe3b
00000150: 55f6 553c 4a80 d2bb d2d5 26bc 5c19 aeba
00000160: 7ab2 f53c 85d9 a43a c6ce 9fbc fafd 3bbc
00000170: 18ca 353c a74c dc3c ed97 913c 3847 19bd
00000180: d664 863b d03c 97bc 6043 24bb 0350 76bb
00000190: 95f9 0dbc 3b94 6c3c 3a6d f33c f3ef 973a
000001a0: ce0f 3c3c ac89 1dbb aedd 1a3c 56fe 023d
000001b0: ec33 80bb 0487 25bc 57ca d1ba a210 d2bb
000001c0: 4b74 b63a 2887 603d 761a 1a3c 4f3e 26bd
000001d0: 66a8 b13c a0c3 0a3c 3d16 f03c 8abf b4bc
000001e0: e0e0 b1bc d3b6 213d 667d 9abc 834d e7bc
000001f0: 62ba 02ba 277f 69bb b5e1 213c dbe6 6fbc
00000200: 55f1 663c 1182 363c 27dc a33c 105c d4bb
00000210: 2987 2dbc 4f79 433b 8029 293c 1b54 353c
00000220: 57dd a0bb cd5c 51bb 1b9e 9dbc 1f88 e6bc
00000230: 83e6 4cbc 9740 c7ba 053c 69bb b04f e6bb
00000240: f897 f43c 957d 7dbc b852 57bb eb07 dcbb
00000250: 2811 06bc 11f2 49bb 7a3f 683c b24e 5dbc
00000260: e658 bebc 05e0 b63c f13e 03bd 1ca2 10bb
00000270: fbe7 4bbb 54ee b2bc 6ae6 fa3c 6ad8 793b
00000280: a3d4 bb3b d77c 68bc 6e63 2b3b e15a 123d
00000290: 4c10 b73c 54bb 2b3c 97ef a3bc 15a5 1bbd
000002a0: 6ac2 6fbc 6a3b 72bb cf4c 1fbc b270 f43b
000002b0: 374f 7d3c 7b27 913c d3c2 393c edc6 4f3c
000002c0: 7235 cdbb ff20 fd3c 8665 82bb ed62 a53c
000002d0: ee6b a9bc b672 a1bb 610c 00bc b03d 9d3c
000002e0: c386 bdbc f60e b03c 2c0f 24bb 3e0b 043c
000002f0: d389 323c 032d 993c d2d5 0e3c 847c 4a3b
00000300: 8ded b33b cf19 3a3b f880 f0bb cb0a 833c
00000310: 1a51 473c 17fe 49bc aab1 2bbd 4c6c aa3b
00000320: 6f1e c2bc 9cba 36bc 7525 e0b8 2198 aabc
00000330: 6816 41bc 8fab 69bb ddbc c4bc dba9 33bc
00000340: 0a96 8a3a bf53 9abc 8205 623c e925 39bc
00000350: cf7f 87bc 544e acbb 2420 85bc f58c 8d3b
00000360: d70f aebc efed ee3c 5f22 e73b fce4 99ba
00000370: f6b2 2c3d 7af0 f83c 1034 8e3a 8392 dd3b
00000380: f3ae 7438 ada1 f7bc 466e 353c b896 fc3c
00000390: 73cf a63c 8b8e a73c c768 e23c 3769 8c39
000003a0: eb9d 873a f362 f43b 9f7a 103a 4d45 15bb
000003b0: c27f c9bc 6d94 3a3b 8b93 75bc 6da9 c63b
000003c0: 8b2c 39bc c844 08bc adce 4fbc f36f 5a3d
000003d0: 2a75 6f3c 130c c83c f568 62bc 087d f5bc
000003e0: ba26 983a 1084 84bc 2606 063c 8bfc 36bc
000003f0: e7ee c1bc 2391 15ba dbdf 7e39 93e4 ba3b

action_model._continuous_distribution.mu.bias f4 [2]
0.0 0.0
00000000: 0000 0000 0000 0000

network_body._body_endoder.seq_layers.0.weight f4 [128, 10]
0.27692863 -0.10449352 -0.067308225 0.13833381 0.38675547 -0.24577966 -0.188774 -0.09953821
-0.2147688 0.16585365 0.08211835 0.61663574 0.30880564 0.23652717 0.042322747 -0.1340276
0.034124747 -0.19477336 0.1752858 -0.15098687 -0.21170588 -0.13862503 -0.08189946 0.31391093
0.31998664 0.23189889 0.3631617 -0.23563185 0.07408409 0.089228876 -0.13950998 -0.2609334
-0.50361764 0.24200599 0.40309855 -0.1039551 0.24628711 0.26241544 0.22715616 -0.09180054
0.0787861 0.13824852 0.5093968 0.26362726 -0.024367355 -0.09663903 -0.2840569 0.87312204
0.15695684 0.32796782 0.043846115 -0.4895599 -0.038149964 0.5265083 0.033011623 0.19361281
-0.062464673 -0.04811278 0.704319 0.031947147 0.3053742 0.20129448 0.33532837 0.022803264
0.66883683 0.99657154 0.4262787 0.014166135 0.016223522 0.35494038 -0.63677615 0.38355207
0.6743556 -0.45423472 -0.097177036 0.3072465 0.3065758 -0.20433398 -0.41415948 0.7587182
-0.42792094 -0.014796349 0.6119696 -0.0124556115 -0.2707928 0.23210782 0.057350148 -0.06658267
-0.07019432 -0.17763172 -0.13968262 0.19064383 0.22721007 -0.24872293 -0.21878192 -0.004646386
-0.16371019 0.021287942 -0.07791076 0.021399062 -0.35238624 0.44274223 0.33942103 0.16696109
-0.22867297 -0.65808177 -0.3945144 -0.45051965 0.01762672 -0.7293515 -0.06383728 -0.35405356
0.21876714 0.20794578 -0.13885826 -0.5188249 -0.036243003 -0.052269027 0.58192796 -0.10891894
0.04436358 0.41282356 -0.22107531 -0.37086678 0.61020696 0.084619634 -0.04589218 0.43534878
0.32247895 0.19558457 0.3091305 -0.21373497 -0.23185168 -0.40902385 0.29159304 -1.0228245
-0.13831049 -0.059863023 -0.14536315 -0.19659704 0.68305194 -0.30429718 -0.83040977 -0.0762313
-0.3053648 0.27887204 -0.027339226 0.5617658 -0.1183535 0.21231063 -0.47544062 -0.5060611
-0.0014383659 0.40241975 -0.58946323 0.072485335 -0.29098293 0.040067915 -0.16241722 0.3511168
0.13515446 -0.048898052 0.005708797 -0.04125727 0.09801591 -0.05083933 0.87023884 0.3976889
0.1014771 -0.23092453 0.34709853 -0.2950404 -0.3054546 -0.035920467 -0.2664917 0.08394571
-0.38626158 0.12962529 -0.42961785 -0.17670327 0.24628124 -0.11136342 -0.01922622 -0.010934895
-0.21989046 0.5422956 0.056755293 0.052147552 0.025259802 0.050713513 -0.024144689 0.010428841
0.3801049 0.51589626 0.3437418 -0.2560471 0.28623623 0.1922578 0.5694872 -0.11753801
0.15518223 -0.0718827 -0.0116261635 -0.4573838 -0.021363154 -0.26829427 0.6287728 0.11234046
0.20161825 -0.012296669 0.065486245 -0.049728017 -0.10927302 -0.22452329 0.14613302 -0.27069342
-0.5332755 0.5142617 0.2284688 -0.042635437 -0.4597532 0.019441929 0.42499945 0.004742481
0.37564474 -0.23158038 -0.109110676 -0.5584883 0.3699079 -0.36509413 0.6117745 -0.04501484
-0.15996523 0.04431847 0.101946056 -0.17215249 0.19250678 0.040500503 -0.078802906 -0.26100558
-0.024699613 -0.21310316 -0.23098311 0.20743285 0.0280519 0.44435394 -0.36787578 0.010147931
0.93584716 -0.42251173 0.4642467 -0.098683886 0.33538243 -0.5991904 0.19062936 -0.42464513
00000000: 97c9 8d3e b300 d6bd e5d8 89bd 61a7 0d3e
00000010: d004 c63e aaad 7bbe f94d 41be b0da cbbd
00000020: 5aec 5bbe 8ad5 293e aa2d a83d d7db 1d3f
00000030: c61b 9e3e 2e34 723e 9e5a 2d3d 883e 09be
00000040: 64c6 0b3d ab72 47be 1f7e 333e 4d9c 1abe
00000050: 6dc9 58be b8f3 0dbe e7ba a7bd efb8 a03e
00000060: 4ad5 a33e e776 6d3e 55f0 b93e 7a49 71be
00000070: 66b9 973d a1bd b63d b4db 0ebe 1099 85be
00000080: 16ed 00bf 6bd0 773e ef62 ce3e 69e6 d4bd
00000090: b032 7c3e 515b 863e a09b 683e ec01 bcbd
000000a0: 9b5a a13d 0591 0d3e d467 023f 27fa 863e
000000b0: 0c9e c7bc afea c5bd e86f 91be ed84 5f3f
000000c0: 4bb9 203e 66eb a73e fc97 333d 98a7 fabe
000000d0: 2343 1cbd 3fc9 063f 3237 073d 7042 463e
000000e0: f5da 7fbd e811 45bd 404e 343f 03db 023d
000000f0: 025a 9c3e 2420 4e3e 29b0 ab3e e9cd ba3c
00000100: e438 2b3f 501f 7f3f 3441 da3e 1419 683c
00000110: 31e7 843c bfba b53e c303 23bf f060 c43e
00000120: 92a2 2c3f 7491 e8be c104 c7bd 6a4f 9d3e
00000130: 81f7 9c3e ed3c 51be b60c d4be 5b3b 423f
00000140: 7418 dbbe 636c 72bc 0aaa 1c3f 9f12 4cbc
00000150: 5ba5 8abe acad 6d3e fde7 6a3d 7f5c 88bd
00000160: 0ac2 8fbd 17e5 35be f608 0fbe 2338 433e
00000170: c2a9 683e 39b1 7ebe 5e08 60be b640 98bb
00000180: a5a3 27be 0d64 ae3c ad8f 9fbd 164d af3c
00000190: f86b b4be 1caf e23e 98c8 ad3e d9f7 2a3e
000001a0: 3f29 6abe 0c78 28bf cbfd c9be 83aa e6be
000001b0: e965 903c c8b6 3abf 1fbd 82bd 8246 b5be
000001c0: 7e04 603e bdef 543e dc30 0ebe b5d1 04bf
000001d0: 8b73 14bd 0c18 56bd 3bf9 143f e510 dfbd
000001e0: 96b6 353d 9c5d d33e 9161 62be 40e2 bdbe
000001f0: 8636 1c3f 0f4d ad3d 70f9 3bbd 09e6 de3e
00000200: f61b a53e 5247 483e 5a46 9e3e 57dd 5abe
00000210: 876a 6dbe 936b d1be af4b 953e eaeb 82bf
00000220: 44a1 0dbe ee32 75bd 14da 14be bc50 49be
00000230: 7edc 2e3f d7cc 9bbe bc95 54bf 281f 9cbd
00000240: c658 9cbe 51c8 8e3e 83f6 dfbc e2cf 0f3f
00000250: 5263 f2bd f567 593e f46c f3be 388d 01bf
00000260: 8d87 bcba f609 ce3e 10e7 16bf 3173 943d
00000270: b7fb 94be 411e 243d b350 26be 95c5 b33e
00000280: ee65 0a3e 5349 48bd dc10 bb3b 62fd 28bd
00000290: 91bc c83d e73c 50bd f9c7 5e3f e19d cb3e
000002a0: 3ad3 cf3d 7b77 6cbe e6b6 b13e 890f 97be
000002b0: 8c64 9cbe 5721 13bd 9a71 88be baeb ab3d
000002c0: 14c4 c5be 7ebc 043e dff6 dbbe b4f1 34be
000002d0: 2631 7c3e 8112 e4bd 4e80 9dbc 4628 33bc
000002e0: f72a 61be e2d3 0a3f 3d78 683d ac98 553d
000002f0: a5ed ce3c f9b8 4f3d 15cb c5bc bbdd 2a3c
00000300: 1c9d c23e c711 043f edfe af3e 9b18 83be
00000310: 8e8d 923e 3bdf 443e eac9 113f c5b7 f0bd
00000320: 17e8 1e3e 3d37 93bd aa7b 3ebc 362e eabe
00000330: c801 afbc de5d 89be 41f7 203f c112 e63d
00000340: 0475 4e3e f877 49bc a71d 863d 9baf 4bbd
00000350: 88ca dfbd 6fe9 65be e5a3 153e 5498 8abe
00000360: be84 08bf a8a6 033f baf3 693e 7fa2 2ebd
00000370: c564 ebbe ae44 9f3c 8799 d93e d066 9b3b
00000380: 8254 c03e 6823 6dbe 6b75 dfbd 17f9 0ebf
00000390: 9164 bd3e 9eed babe 419d 1c3f 7b61 38bd
000003a0: edcd 23be 4987 353d 18c9 d03d be48 30be
000003b0: 7f20 453e dbe3 253d 6b63 a1bd 86a2 85be
000003c0: d856 cabc b737 5abe d686 6cbe 4769 543e
000003d0: 19cd e53c 5c82 e33e 375a bcbe 8243 263c
000003e0: ae93 6f3f 7553 d8be beb1 ed3e c71a cabd
000003f0: 3fb7 ab3e 8b64 19bf 5834 433e 166b d9be

network_body._body_endoder.seq_layers.0.bias f4 [128]
0.0 0.0 0.0 0.0 0.0 0.0 0.0 0.0
0.0 0.0 0.0 0.0 0.0 0.0 0.0 0.0
0.0 0.0 0.0 0.0 0.0 0.0 0.0 0.0
0.0 0.0 0.0 0.0 0.0 0.0 0.0 0.0
0.0 0.0 0.0 0.0 0.0 0.0 0.0 0.0
0.0 0.0 0.0 0.0 0.0 0.0 0.0 0.0
0.0 0.0 0.0 0.0 0.0 0.0 0.0 0.0
0.0 0.0 0.0 0.0 0.0 0.0 0.0 0.0
0.0 0.0 0.0 0.0 0.0 0.0 0.0 0.0
0.0 0.0 0.0 0.0 0.0 0.0 0.0 0.0
0.0 0.0 0.0 0.0 0.0 0.0 0.0 0.0
0.0 0.0 0.0 0.0 0.0 0.0 0.0 0.0
0.0 0.0 0.0 0.0 0.0 0.0 0.0 0.0
0.0 0.0 0.0 0.0 0.0 0.0 0.0 0.0
0.0 0.0 0.0 0.0 0.0 0.0 0.0 0.0
0.0 0.0 0.0 0.0 0.0 0.0 0.0 0.0
00000000: 0000 0000 0000 0000 0000 0000 0000 0000
00000010: 0000 0000 0000 0000 0000 0000 0000 0000
00000020: 0000 0000 0000 0000 0000 0000 0000 0000
00000030: 0000 0000 0000 0000 0000 0000 0000 0000
00000040: 0000 0000 0000 0000 0000 0000 0000 0000
00000050: 0000 0000 0000 0000 0000 0000 0000 0000
00000060: 0000 0000 0000 0000 0000 0000 0000 0000
00000070: 0000 0000 0000 0000 0000 0000 0000 0000
00000080: 0000 0000 0000 0000 0000 0000 0000 0000
00000090: 0000 0000 0000 0000 0000 0000 0000 0000
000000a0: 0000 0000 0000 0000 0000 0000 0000 0000
000000b0: 0000 0000 0000 0000 0000 0000 0000 0000
000000c0: 0000 0000 0000 0000 0000 0000 0000 0000
000000d0: 0000 0000 0000 0000 0000 0000 0000 0000
000000e0: 0000 0000 0000 0000 0000 0000 0000 0000
000000f0: 0000 0000 0000 0000 0000 0000 0000 0000
00000100: 0000 0000 0000 0000 0000 0000 0000 0000
00000110: 0000 0000 0000 0000 0000 0000 0000 0000
00000120: 0000 0000 0000 0000 0000 0000 0000 0000
00000130: 0000 0000 0000 0000 0000 0000 0000 0000
00000140: 0000 0000 0000 0000 0000 0000 0000 0000
00000150: 0000 0000 0000 0000 0000 0000 0000 0000
00000160: 0000 0000 0000 0000 0000 0000 0000 0000
00000170: 0000 0000 0000 0000 0000 0000 0000 0000
00000180: 0000 0000 0000 0000 0000 0000 0000 0000
00000190: 0000 0000 0000 0000 0000 0000 0000 0000
000001a0: 0000 0000 0000 0000 0000 0000 0000 0000
000001b0: 0000 0000 0000 0000 0000 0000 0000 0000
000001c0: 0000 0000 0000 0000 0000 0000 0000 0000
000001d0: 0000 0000 0000 0000 0000 0000 0000 0000
000001e0: 0000 0000 0000 0000 0000 0000 0000 0000
000001f0: 0000 0000 0000 0000 0000 0000 0000 0000

network_body._body_endoder.seq_layers.2.weight f4 [128, 128]
-0.0066127186 -0.06301884 -0.03960181 0.075850666 0.08973403 -0.12987995 -0.037517037 -0.03047411
-0.013376335 -0.09855256 -0.077698804 -0.019993063 -0.039801303 -0.005178592 -0.01148326 -0.14049385
0.07836748 0.04689373 -0.03705437 0.16183978 -0.026964534 -0.015999986 -0.039260503 -0.00472584
-0.10374792 0.02190747 0.0033380333 0.062025893 -0.08524773 -0.061249953 0.0022086888 0.05826754
-0.052379087 -0.12040354 -0.00011736677 -0.20998147 -0.014985512 -0.035105746 -0.03203368 -0.027939033
-0.011847742 0.0060522645 0.01161481 -0.033267375 0.1605073 -0.0059711114 -0.050859317 -0.09359794
-0.0055065225 -0.03520897 0.074631676 -0.0028251135 0.022097887 0.02784607 -0.012550315 -0.018458772
0.065279014 -0.020019943 0.18486229 -0.127444 0.24268776 -0.047618736 0.102446765 0.1867032
0.05499193 -0.05487925 0.08816245 -0.043545105 0.09988949 0.04329806 0.10826362 0.04199576
-0.19536096 0.07353129 0.032760605 0.036677003 0.001508159 -0.016016059 -0.04864438 -0.029409967
0.15118344 0.108554475 0.017199377 -0.04235403 -0.062358875 -0.1406136 0.0064626094 0.105885744
0.2419498 -0.16382608 0.1419147 -0.006978582 0.17820486 -0.087181434 -0.027570806 0.03343086
-0.009674768 -0.047404703 -0.081900366 0.14720507 -0.16955686 -0.04791108 -0.026523596 0.098085664
0.11175773 -0.024245149 -0.08412324 0.00021142112 0.16441192 -0.01326794 -0.015851961 -0.07366609
-0.007753561 -0.0051249247 -0.13038667 0.16369197 0.14702325 0.10740097 0.03806211 -0.041853905
0.080097854 0.062385127 0.07668199 0.027765855 0.13154164 0.02742045 0.05907084 0.058898676
-0.0654041 -0.16752039 -0.004461571 -0.015371281 0.036968987 0.09590107 0.031510957 0.123230815
-0.011399285 0.03766534 0.012937068 -0.102422565 -0.052128587 0.05036543 0.055524547 0.06469965
0.048769973 0.19984642 0.11845515 -0.025875188 -0.04793882 -0.08099995 0.0033257336 0.083139695
0.08525086 -0.009207222 -0.024536997 0.0018066476 -0.043649554 -0.114323676 0.14109689 0.057666272
-0.036719907 -0.029225446 0.11500329 -0.050928198 -0.07506276 -0.07302057 0.19290741 -0.03527868
0.06849645 0.017554672 -0.13957322 -0.098369986 0.027507933 0.08236607 -0.13819833 0.14164852
-0.044255048 0.018228855 -0.09909868 0.06553088 0.16549554 0.116062075 0.030630017 0.014521324
-0.05291973 -0.3007187 0.0626714 0.06385318 0.01503993 -0.023512557 0.020889541 0.078080006
0.11272072 -0.122129194 0.06725221 0.07149095 0.047775537 0.0115806125 0.0005702852 0.019684756
0.09354033 -0.14896151 -0.11586553 -0.01813506 -0.08619527 0.08403899 -0.034520674 -0.058983553
0.06874175 -0.08197619 -0.024748737 -0.009080697 0.12364026 0.112966046 0.0815757 -0.10603069
-0.055751592 0.09849149 0.1417103 0.039291777 -0.016632037 0.13319468 -0.038469408 -0.034333915
0.09392577 0.1190549 -0.08025158 0.024154566 -0.19511339 0.03258138 -0.09398904 -0.016453795
0.10991749 0.027613953 0.032892834 0.08042037 -0.009142964 0.08577849 0.061888684 0.11262715
0.070988774 0.06786566 0.05718008 0.05555263 -0.07435333 0.05785085 -0.019905383 0.09242425
0.07913591 -0.12046135 -0.101871364 0.033515997 0.09576014 -0.026111992 -0.05747854 0.046457276
00000000: 81af d8bb 0610 81bd 8235 22bd 9857 9b3d
00000010: 7ac6 b73d 40ff 04be 77ab 19bd d7a4 f9bc
00000020: 6a28 5bbc edd5 c9bd 8d20 9fbd 7ec8 a3bc
00000030: b106 23bd 2eb1 a9bb 4924 3cbc 9fdd 0fbe
00000040: 217f a03d a413 403d 53c6 17bd 54b9 253e
00000050: bae4 dcbc 6712 83bc 9fcf 20bd 38db 9abb
00000060: ca79 d4bd 4b77 b33c e8c2 5a3b dd0e 7e3d
00000070: 5d96 aebd 3be1 7abd a6bf 103b f2a9 6e3d
00000080: 748b 56bd 2296 f6bd ce22 f6b8 6205 57be
00000090: cb85 75bc 0bcb 0fbd bf35 03bd 66e0 e4bc
000000a0: 081d 42bc 1352 c63b 0b4c 3e3c 5f43 08bd
000000b0: 075c 243e 50a9 c3bb dc51 50bd 47b0 bfbd
000000c0: 0f70 b4bb 4837 10bd 7ed8 983d 8a25 39bb
000000d0: a106 b53c 711d e43c d69f 4dbc da36 97bc
000000e0: 01b1 853d dd00 a4bc 8a4c 3d3e ae80 02be
000000f0: 2483 783e dd0b 43bd 9ccf d13d 202f 3f3e
00000100: 383f 613d 10c9 60bd 848e b43d 5a5c 32bd
00000110: dc92 cc3d 4e59 313d 51b9 dd3d bf03 2c3d
00000120: b40c 48be 9397 963d fc2f 063d a03a 163d
00000130: 6bad c53a 1c34 83bc 543f 47bd 2ced f0bc
00000140: d5cf 1a3e cf51 de3d b5e5 8c3c 6b7b 2dbd
00000150: 056c 7fbd 03fd 0fbe 4cc4 d33b a0da d83d
00000160: b0c1 773e 06c2 27be 1652 113e 97ac e4bb
00000170: 567b 363e 2e8c b2bd 2cdc e1bc ccee 083d
00000180: eb82 1ebc 6f2b 42bd 61bb a7bd edbc 163e
00000190: 50a0 2dbe 693e 44bd 0348 d9bc 23e1 c83d
000001a0: 3de1 e43d c39d c6bc ce48 acbd edb0 5d39
000001b0: 995b 283e c661 59bc f9db 81bc 3fde 96bd
000001c0: 9511 febb fcee a7bb 1584 05be de9e 273e
000001d0: 438d 163e 0af5 db3d 04e7 1b3d 006f 2bbd
000001e0: 580a a43d 8c87 7f3d 720b 9d3d 3875 e33c
000001f0: dab2 063e daa0 e03c 44f4 713d bd3f 713d
00000200: 96f2 85bd 778a 2bbe 5f32 92bb d3d7 7bbc
00000210: cb6c 173d c867 c43d a211 013d 7060 fc3d
00000220: 11c4 3abc f946 1a3d fff5 533c ecc2 d1bd
00000230: c984 55bd fb4b 4e3d b56d 633d 4081 843d
00000240: 06c3 473d 8aa4 4c3e 9d98 f23d 34f8 d3bc
00000250: 7f5b 44bd 4de3 a5bd 8df4 593b 2545 aa3d
00000260: 0198 ae3d e3d9 16bc d001 c9bc 09cd ec3a
00000270: e0c9 32bd 8822 eabd b47b 103e 7833 6c3d
00000280: 9d67 16bd 346a efbc d886 eb3d 169a 50bd
00000290: 81ba 99bd cf8b 95bd 8589 453e 6180 10bd
000002a0: de47 8c3d d1ce 8f3c 48ec 0ebe 3476 c9bd
000002b0: 5158 e13c 8baf a83d dd83 0dbe 4f0c 113e
000002c0: c844 35bd ae54 953c 40f4 cabd 0e35 863d
000002d0: aa77 293e f4b1 ed3d cdeb fa3c d9ea 6d3c
000002e0: 5cc2 58bd cdf7 99be dd59 803d 75c5 823d
000002f0: 0a6a 763c 689d c0bc 8b20 ab3c 69e8 9f3d
00000300: 1fda e63d df1e fabd 87bb 893d d969 923d
00000310: 48b0 433d 9cbc 3d3c 317f 153a ed41 a13c
00000320: 1392 bf3d 5e89 18be e84a edbd fa8f 94bc
00000330: 2587 b0bd a21c ac3d 8d65 0dbd bd98 71bd
00000340: 7ac8 8c3d 22e3 a7bd ddbd cabc 34c7 14bc
00000350: 1b37 fd3d be5a e73d 2911 a73d 9e26 d9bd
00000360: c85b 64bd e8b5 c93d 811c 113e 6af0 203d
00000370: e93f 88bc 3064 083e 1992 1dbd b8a1 0cbd
00000380: 275c c03d 0ed3 f33d f15a a4bd ccdf c53c
00000390: cecb 47be 0e74 053d 537d c0bd 1cca 86bc
000003a0: 6c1c e13d a836 e23c a3ba 063d 6fb3 a43d
000003b0: 5fcc 15bc a2ac af3d fd7e 7d3d 10a9 e63d
000003c0: 9062 913d 27fd 8a3d a935 6a3d 288b 633d
000003d0: 8f46 98bd 03f5 6c3d 9d10 a3bc ed48 bd3d
000003e0: 0212 a23d 71b4 f6bd efa1 d0bd 1248 093d
000003f0: e41d c43d d1e8 d5bc 9e6e 6bbd fc49 3e3d

network_body._body_endoder.seq_layers.2.bias f4 [128]
0.0 0.0 0.0 0.0 0.0 0.0 0.0 0.0
0.0 0.0 0.0 0.0 0.0 0.0 0.0 0.0
0.0 0.0 0.0 0.0 0.0 0.0 0.0 0.0
0.0 0.0 0.0 0.0 0.0 0.0 0.0 0.0
0.0 0.0 0.0 0.0 0.0 0.0 0.0 0.0
0.0 0.0 0.0 0.0 0.0 0.0 0.0 0.0
0.0 0.0 0.0 0.0 0.0 0.0 0.0 0.0
0.0 0.0 0.0 0.0 0.0 0.0 0.0 0.0
0.0 0.0 0.0 0.0 0.0 0.0 0.0 0.0
0.0 0.0 0.0 0.0 0.0 0.0 0.0 0.0
0.0 0.0 0.0 0.0 0.0 0.0 0.0 0.0
0.0 0.0 0.0 0.0 0.0 0.0 0.0 0.0
0.0 0.0 0.0 0.0 0.0 0.0 0.0 0.0
0.0 0.0 0.0 0.0 0.0 0.0 0.0 0.0
0.0 0.0 0.0 0.0 0.0 0.0 0.0 0.0
0.0 0.0 0.0 0.0 0.0 0.0 0.0 0.0
00000000: 0000 0000 0000 0000 0000 0000 0000 0000
00000010: 0000 0000 0000 0000 0000 0000 0000 0000
00000020: 0000 0000 0000 0000 0000 0000 0000 0000
00000030: 0000 0000 0000 0000 0000 0000 0000 0000
00000040: 0000 0000 0000 0000 0000 0000 0000 0000
00000050: 0000 0000 0000 0000 0000 0000 0000 0000
00000060: 0000 0000 0000 0000 0000 0000 0000 0000
00000070: 0000 0000 0000 0000 0000 0000 0000 0000
00000080: 0000 0000 0000 0000 0000 0000 0000 0000
00000090: 0000 0000 0000 0000 0000 0000 0000 0000
000000a0: 0000 0000 0000 0000 0000 0000 0000 0000
000000b0: 0000 0000 0000 0000 0000 0000 0000 0000
000000c0: 0000 0000 0000 0000 0000 0000 0000 0000
000000d0: 0000 0000 0000 0000 0000 0000 0000 0000
000000e0: 0000 0000 0000 0000 0000 0000 0000 0000
000000f0: 0000 0000 0000 0000 0000 0000 0000 0000
00000100: 0000 0000 0000 0000 0000 0000 0000 0000
00000110: 0000 0000 0000 0000 0000 0000 0000 0000
00000120: 0000 0000 0000 0000 0000 0000 0000 0000
00000130: 0000 0000 0000 0000 0000 0000 0000 0000
00000140: 0000 0000 0000 0000 0000 0000 0000 0000
00000150: 0000 0000 0000 0000 0000 0000 0000 0000
00000160: 0000 0000 0000 0000 0000 0000 0000 0000
00000170: 0000 0000 0000 0000 0000 0000 0000 0000
00000180: 0000 0000 0000 0000 0000 0000 0000 0000
00000190: 0000 0000 0000 0000 0000 0000 0000 0000
000001a0: 0000 0000 0000 0000 0000 0000 0000 0000
000001b0: 0000 0000 0000 0000 0000 0000 0000 0000
000001c0: 0000 0000 0000 0000 0000 0000 0000 0000
000001d0: 0000 0000 0000 0000 0000 0000 0000 0000
000001e0: 0000 0000 0000 0000 0000 0000 0000 0000
000001f0: 0000 0000 0000 0000 0000 0000 0000 0000

value_heads.value_heads.extrinsic.weight f4 [1, 128]
-0.03624834 -0.091055736 0.078638405 0.12639287 0.0137529075 0.041938752 0.15616912 0.19642061
0.12827417 0.12934664 0.04715997 0.028804585 0.14657873 -0.15714866 0.06300017 -0.08685912
-0.15836684 0.1644718 0.0134649575 0.20394668 -0.014315367 -0.070786804 -0.17168957 0.13903314
0.06848779 0.091949046 -0.15652767 0.05315289 0.045948 -0.085920915 -0.06767328 -0.11861139
0.10778865 0.16963565 0.008973584 0.13902864 -0.0942067 -0.108308345 0.017936096 0.13803416
-0.16368927 -0.17415431 -0.11096214 0.06719664 0.02808477 -0.03943193 0.1516079 -0.05395004
0.14624721 -0.06636785 0.11295822 0.17051542 -0.010829747 0.18754062 -0.004987836 -0.15842937
-0.013762265 -0.04958868 0.010984719 -0.07221714 0.06533751 0.11377251 0.037030846 -0.14835742
0.08856553 0.11646396 -0.20832284 0.16847166 0.14621356 -0.07850966 -0.0017737597 -0.051959336
0.022179365 -0.16750991 0.04571423 -0.12469188 -0.16905162 -0.20886874 -0.18733853 -0.07638426
0.17503276 0.004616067 -0.17437664 -0.0763644 0.035128564 0.050182402 -0.2007048 -0.09679571
-0.17772391 -0.06770903 -0.1666335 0.16612008 0.14665806 -0.12855136 0.18570518 -0.19777142
-0.06831272 0.02152969 -0.18184713 -0.13248876 -0.14633307 0.1200524 0.095027864 -0.2105514
-0.14624068 0.20062214 -0.13903537 -0.21043488 0.16493753 -0.032408834 0.16971469 -0.12560505
0.17692608 0.015555456 0.1366513 0.062993646 -0.09203984 0.158063 0.1600064 -0.028516486
0.20511869 -0.022844851 0.124332756 0.074662805 -0.08922584 0.20663607 0.019227728 -0.12433447
00000000: 2479 14bd 6e7b babd 2c0d a13d 226d 013e
00000010: e053 613c f8c7 2b3d ccea 1f3e 7c22 493e
00000020: 4e5a 033e 7273 043e d02a 413d 98f7 eb3c
00000030: bc18 163e 94eb 20be 3c06 813d 32e3 b1bd
00000040: eb2a 22be 4c6b 283e 209c 5c3c 66d7 503e
00000050: 008b 6abc acf8 90bd 64cf 2fbe b45e 0e3e
00000060: 5443 8c3d c84f bc3d ca48 20be d8b6 593d
00000070: f833 3c3d 4ef7 afbd 4a98 8abd 87ea f2bd
00000080: 4cc0 dc3d f8b4 2d3e f005 133c 865d 0e3e
00000090: 71ef c0bd c4d0 ddbd b8ee 923c d458 0d3e
000000a0: 299e 27be 8255 32be 1e40 e3bd 649e 893d
000000b0: 0812 e63c 6083 21bd 1a3f 1b3e b8fa 5cbd
000000c0: d4c1 153e deeb 87bd a456 e73d 989b 2e3e
000000d0: 406f 31bc a60a 403e 0071 a3bb 4f3b 22be
000000e0: 207b 61bc 801d 4bbd 40f9 333c 94e6 93bd
000000f0: accf 853d 9001 e93d a8ad 173d 02eb 17be
00000100: d861 b53d a884 ee3d 9552 55be d683 2c3e
00000110: 02b9 153e acc9 a0bd 807d e8ba 50d3 54bd
00000120: 80b1 b53c b887 2bbe d83e 3b3d 755e ffbd
00000130: de1b 2dbe b0e1 55be acd5 3fbe 5a6f 9cbd
00000140: ca3b 333e 6042 973b ca8f 32be f064 9cbd
00000150: f8e2 0f3d 108c 4d3d 8f85 4dbe d43c c6bd
00000160: 42fd 35be 08ab 8abd f9a1 2abe 621b 2a3e
00000170: 882d 163e f8a2 03be 8029 3e3e 9784 4abe
00000180: 8ae7 8bbd 085f b03c 2236 3abe 22ab 07be
00000190: 56d8 15be 08de f53d f89d c23d c99a 57be
000001a0: 1ec0 15be e46f 4d3e 4a5f 0ebe 3e7c 57be
000001b0: 62e5 283e 20bf 04bd b0c9 2d3e 9c9e 00be
000001c0: 1c2c 353e 50dc 7e3c 52ee 0b3e d002 813d
000001d0: 627f bcbd 44db 213e b8d8 233e 689b e9bc
000001e0: a20a 523e 2025 bbbc 2ca2 fe3d d0e8 983d
000001f0: 0abc b6bd 6898 533e 7883 9d3c 12a3 febd
