results/Run3/PlayerRL/PlayerRL-690.onnx (onnx, 76078 bytes, 5 tensors)

network_body._body_endoder.seq_layers.0.weight f4 [128, 9]
000000 62 00 28 3f c1 24 58 3e 4e 1b 77 3e f9 9f 66 3e
       0.65625584 0.2110777 0.2413151 0.22521962
000010 40 dd 59 be 41 31 17 bf 16 78 20 3f fd 48 ff 3e
       -0.21275806 -0.5905953 0.62683237 0.49860373
000020 7c e1 e8 be b7 8d 25 3e d5 48 96 3e 44 f3 08 be
       -0.4548453 0.16167341 0.2935244 -0.13374048
000030 38 f9 69 be 9a d0 80 be 75 90 30 3e 8a ef d2 be
       -0.22848976 -0.2515915 0.17242606 -0.4119838
000040 87 09 a9 3c fd e2 31 3f d8 76 30 3e be 7e 14 bf
       0.020634426 0.6948698 0.17232835 -0.58005893
000050 f7 ad 27 3e ad 5e f5 be d2 ba ab bd 35 7e 48 be
       0.16374956 -0.47923794 -0.083852425 -0.19579394
000060 8b c6 aa bd 66 b8 23 3f 66 ad 12 3e a4 c2 69 be
       -0.0833865 0.63953245 0.14323959 -0.22828156
000070 83 00 dc bd d0 cb 3a 3e 06 d0 ac 3e 1c 83 70 3e
       -0.10742285 0.18241811 0.3375246 0.23487514
000080 5a 6d ae be a9 df b2 be e4 30 15 3e 62 04 0c 3e
       -0.34067804 -0.34936264 0.14569432 0.13673547
000090 c2 78 f6 bd 5a 75 24 bf db 73 65 be e0 2a cc be
       -0.120347515 -0.64241564 -0.22407477 -0.3987646
0000a0 6d 47 96 3e 88 c0 c9 be d4 ff 91 3e 26 54 f1 bd
       0.2935137 -0.39404702 0.28515494 -0.11783628
0000b0 32 3c 7e bd 38 6d a9 3e 7f 23 df 3e 56 84 5f be
       -0.062069125 0.3309114 0.4358177 -0.21827826
0000c0 ed e5 6b 3e dd 42 0c 3f 95 43 0d 3e 35 ad 67 be
       0.23036928 0.54789525 0.13795312 -0.22624667
0000d0 dc 71 be 3e be 37 29 3f bf f9 6a be 96 f7 43 3d
       0.37196243 0.6610068 -0.22946833 0.04784354
0000e0 8d d4 26 3e 78 1b 1f 3e 98 48 56 be 64 a7 06 3b
       0.16292019 0.15537822 -0.2092613 0.002054655
0000f0 9e d5 0c bf fe c3 1c 3f 9d 4f 02 be a8 a9 60 3c
       -0.55013454 0.6123656 -0.12725683 0.013712324
000100 46 e0 11 3c ec 15 9c bb 82 e5 17 3f 06 02 35 3f
       0.008903569 -0.0047633555 0.59334576 0.7070621
000110 d1 ef 0b 3e fb e9 3d bf b3 71 9b bd 89 74 c2 3e
       0.13665701 -0.7418515 -0.07590046 0.37979534
000120 f5 b4 23 3f 82 8a 86 be f1 2c 80 be a5 46 16 3e
       0.63947994 -0.26277548 -0.25034288 0.14675386
000130 f0 d3 01 bd 5b 5e 07 be c4 57 20 3f 8c db d3 bc
       -0.03169626 -0.13219588 0.6263392 -0.025861524
000140 e1 a0 64 bd f0 29 1c 3f f2 f6 25 be b9 45 fb 3e
       -0.05581749 0.6100149 -0.16207483 0.49076632
000150 1e 8b 3c bf 6d 57 4f 3f 96 33 d2 be 9f 44 21 be
       -0.73649776 0.80992776 -0.41054982 -0.15748833
000160 73 41 b7 be 3d 66 9d 3d 11 46 06 3f 1b f9 6d bf
       -0.3579212 0.07685516 0.5245066 -0.9295823
000170 1f 09 0e bf f1 7e 9e bc f4 49 08 3f 21 a8 12 3f
       -0.5548267 -0.01934764 0.53237844 0.57287794
000180 3f 84 4c 3e 06 48 d2 3b d8 9f a9 3e fe 5f 81 be
       0.19972323 0.0064172773 0.33129764 -0.2526855
000190 28 08 b7 be d0 d8 8a 3d 3d e4 97 3e 99 99 82 3e
       -0.3574841 0.06779635 0.2966632 0.2550781
0001a0 53 ff 89 3e 25 4c be be a8 23 2e bf 40 9e 8c be
       0.2695261 -0.3716747 -0.6802316 -0.27464485
0001b0 f2 b4 f5 3d c9 a6 1b be e4 8e 81 3e 52 31 35 bf
       0.11997403 -0.15200342 0.2530433 -0.7077838
0001c0 16 70 d9 be f5 3b 27 bf 68 ca 8b 3e d9 92 b3 be
       -0.42468327 -0.6532586 0.2730286 -0.35072973
0001d0 5e 6b 94 3e 31 e7 02 be af ca 06 bf 09 bf 6d 3d
       0.28988165 -0.12783505 -0.5265302 0.058043513
0001e0 5c 3f 12 bf 74 95 e3 3e ff 7e d0 be 6f ac a3 3e
       -0.5712793 0.4444996 -0.4072189 0.31967494
0001f0 21 2f 8b bd 49 ca 62 be 9e 3a d3 3e 5f 85 a9 3e
       -0.067960985 -0.22147478 0.4125566 0.33109567
000200 b3 1f 23 bf 3c 81 00 bd a3 12 98 3e ea 68 a5 be
       -0.63720244 -0.031373248 0.2970172 -0.32306606
000210 68 b2 b6 bd e7 5c 15 3d 2b 54 42 bf 42 6d 18 bf
       -0.08920747 0.03646555 -0.7590968 -0.59541714
000220 0c fc c1 3d 75 92 6d be ae 85 56 3e 5b 1e 8d be
       0.09471902 -0.232004 0.20949432 -0.27562222
000230 95 98 9d 3e 36 9a e6 bc 8f 98 23 3e a9 db 9e bd
       0.30780473 -0.028149705 0.15976165 -0.077567406
000240 b4 82 98 3e b4 09 83 be 6c 0e c1 be d9 e7 d1 3d
       0.2978722 -0.2559334 -0.37706316 0.102492996
000250 b3 49 af 3e bb 85 07 be f1 bd da be 27 6e f1 3e
       0.34235916 -0.13234608 -0.4272304 0.47154352
000260 5c e6 01 3d 81 01 29 bf 34 2a 87 be a2 70 46 3e
       0.03171383 -0.6601792 -0.26399386 0.19378904
000270 2d 80 d8 3e bc 83 e3 3e 13 c8 5f bc d6 f8 8e 3e
       0.4228529 0.44436443 -0.013658541 0.27924222
000280 7d 77 0c be 65 a2 74 3c 68 8a bd be 84 17 be bd
       -0.13717456 0.014931296 -0.37019658 -0.09281829
000290 0e 05 a0 3d d1 fc 41 bd 7b d6 aa 3e d7 02 3e bd
       0.07813464 -0.047360245 0.3336676 -0.046389427
0002a0 1d 8d 21 3e 7a 3e 87 bd 39 c5 f4 3e 24 4a 0f 3e
       0.15776487 -0.06603713 0.4780672 0.13993126
0002b0 ce e4 b3 3d 7f ec 37 be c0 f8 76 bd 57 e2 48 3e
       0.087838754 -0.1796131 -0.06029582 0.19617592
0002c0 08 52 6a be 6c 7e 22 bf eb e7 cd be 4e 39 a2 be
       -0.22882855 -0.63474154 -0.40216002 -0.31684345
0002d0 53 cd 4a bf 93 2d c8 3d 8d 80 89 3d 5e 89 92 be
       -0.7921955 0.097743176 0.06713972 -0.28620428
0002e0 da 05 8c 3d b3 8a 12 be 9a 0f 94 3c 1b 2e a8 bd
       0.068370536 -0.14310722 0.018073846 -0.08211919
0002f0 d9 99 81 be e1 b7 1d bf b6 c3 cf be 7d 53 3b 3e
       -0.2531269 -0.616087 -0.40579003 0.18293567
000300 76 37 19 be 83 7a 06 bf ca fe f5 3e e3 50 e2 3e
       -0.14962563 -0.5253069 0.4804595 0.44202337
000310 3b aa 90 be 89 56 e2 3d 45 08 7f 3d fc 70 af 3e
       -0.28254876 0.110516615 0.062263746 0.34265888
000320 0b 43 0d 3f 37 5d f3 3e 4d 5b f4 be f9 c0 3c 3f
       0.55180424 0.47532055 -0.47725907 0.7373195
000330 f4 e2 0f 3b 46 fd a9 be 5c 01 c7 3d cb 57 08 3e
       0.0021955343 -0.33201045 0.09717056 0.1331474
000340 03 55 1e be 81 06 44 bf b2 c0 1a 3e 5c 69 ac 3e
       -0.15462117 -0.76572424 0.1511257 0.33674133
000350 19 84 c4 3e 9a 2d 21 3d 9b 09 aa be 29 c4 1b be
       0.38382033 0.03935013 -0.33210453 -0.15211548
000360 25 07 0f bf 20 5f 93 bd b2 16 da 3e bc 6c c6 bd
       -0.55870277 -0.07195878 0.4259544 -0.09688708
000370 fd 66 6a be 52 28 99 3e bb d8 ee be 85 e8 af 3e
       -0.2289085 0.29913574 -0.46649727 0.34357086
000380 f7 87 a4 bd 71 f3 9b be ce 5f 77 3e ea 23 5b be
       -0.08033746 -0.3045917 0.2415764 -0.21400419
000390 10 96 80 bf c0 16 16 3e 8d 4b cc be c7 cf 40 bd
       -1.0045795 0.14657116 -0.3990139 -0.047073152
0003a0 c4 46 9e 3e b8 02 fb bd d6 b3 ab bd db e6 63 3e
       0.30913365 -0.12256378 -0.0838391 0.22256033
0003b0 91 f9 67 3e 4d bb fb bd 86 72 74 be 3f 7f d1 39
       0.22653796 -0.12291584 -0.23871812 0.00039958392
0003c0 ed 57 0f 3f 54 cf 1a 3e b9 55 01 3e 4a ae 78 3e
       0.5599354 0.15118152 0.12630357 0.24285236
0003d0 a8 15 30 3e 71 65 00 be cd 7b 8f be 3c 85 df be
       0.17195761 -0.12538697 -0.2802414 -0.43656337
0003e0 8c 3e 5c be 95 ee da be 0f b1 3a 3c ed d7 c3 3e
       -0.21508235 -0.4276015 0.011394753 0.38250676
0003f0 c2 b5 b1 3e 6f a9 b9 3d aa 48 c7 be 05 75 33 be
       0.34708983 0.0906552 -0.38922626 -0.17525108

network_body._body_endoder.seq_layers.0.bias f4 [128]
000000 27 ec 2e 3a 23 99 af ba 1b a3 40 ba b0 30 89 3b
       0.00066727627 -0.0013397079 -0.00073485234 0.004186712
000010 f9 8a cb 3b fd 38 47 ba 84 e9 b7 3a 4e 8e 7b ba
       0.006211635 -0.00075997395 0.0014031385 -0.0009596095
000020 b1 97 a5 39 86 65 1f bb ef ef 48 3b 7c 2a c1 ba
       0.0003158427 -0.0024321987 0.003066059 -0.0014737393
000030 89 cc 69 3b 7d 05 aa ba 38 81 f1 39 9b 43 0a bb
       0.003567489 -0.0012971606 0.00046063378 -0.0021097425
000040 25 9b 74 3a cd 27 a7 bb 66 ea f9 3a fc 35 61 39
       0.00093309797 -0.00510118 0.0019067049 0.00021477783
000050 b6 dd 66 3b b7 c4 7f bb 15 9a 97 ba eb e9 98 3a
       0.0035227365 -0.0039027163 -0.0011566306 0.0011666393
000060 f6 a6 94 b7 95 eb cf ba 8e fb ad 3b 57 11 f8 ba
       -1.7720722e-05 -0.0015863056 0.0053095287 -0.0018926066
000070 42 da b5 ba 0c 9d 2a bb 7a 60 cc ba b6 01 03 b9
       -0.001387425 -0.0026033549 -0.0015592717 -0.00012493771
000080 58 20 04 3c 01 cd f1 ba 1b 07 67 bb b4 29 f6 b7
       0.008064352 -0.0018447937 -0.0035252038 -2.9344905e-05
000090 88 0c 37 3a ab 96 55 bb 94 2a 8f 3a 0c d1 93 3a
       0.00069827633 -0.0032591026 0.0010922723 0.0011277511
0000a0 b8 a5 9a 39 06 1f 4a bb e2 a4 a8 bb a3 af 25 ba
       0.0002949664 -0.0030841245 -0.0051466087 -0.00063204224
0000b0 56 0e bf 3a 70 38 6e 3b 62 d3 2e 3b e0 46 34 3a
       0.0014576416 0.0036349557 0.0026676287 0.0006877016
0000c0 16 60 7e 3a 41 1b 26 ba 37 79 58 bb 09 26 41 ba
       0.0009703649 -0.00063364586 -0.0033031234 -0.00073680334
0000d0 55 be 33 bb 46 a1 19 ba 49 cf 36 bb 8b 55 7c bb
       -0.002742668 -0.00058605184 -0.0027894548 -0.0038503136
0000e0 5f f4 9e bb c3 25 f5 ba da 06 2b ba 56 bd 33 39
       -0.0048509086 -0.001870327 -0.0006524153 0.00017141303
0000f0 c3 3c 8e ba a6 22 c0 3a 08 54 8e 3a 14 16 9d 3a
       -0.0010851849 0.0014658764 0.0010858783 0.0011984729
000100 f5 d1 02 bb ca 85 84 3a 73 91 4c b9 ff 21 29 3b
       -0.001996157 0.0010110673 -0.0001950914 0.0025807617
000110 db 2e 0e bb b6 b2 be bb 4e 68 72 ba dd 72 2c 3a
       -0.0021695409 -0.005819644 -0.000924711 0.0006578395
000120 0c 90 33 ba e8 f7 ca 3a 35 aa 3a b9 1f dc e5 39
       -0.0006849773 0.0015485259 -0.0001780175 0.00043842287
000130 28 fb bf b9 f5 30 44 3a d9 d7 73 3b a3 68 f5 ba
       -0.00036617485 0.0007484102 0.0037207513 -0.0018723201
000140 55 64 7d bb 07 e4 c5 ba 70 48 94 bb fc f7 22 bb
       -0.003866454 -0.0015097865 -0.004525237 -0.0024867048
000150 0a ba d5 ba 03 c2 9d ba d0 c6 15 ba ac 6f 51 3b
       -0.0016306054 -0.0012035969 -0.00057135243 0.003195743
000160 ae ed 28 b9 64 25 cd ba a6 fa 65 3b 7c 65 6b 3b
       -0.00016110271 -0.0015651402 0.0035092025 0.0035918644
000170 b7 fd 1f 39 68 f1 12 ba 1f ee 5a 3b f4 af c4 ba
       0.00015257938 -0.00056054303 0.0033406091 -0.0015006051
000180 77 47 b7 ba 2e 73 0c ba 71 23 b5 ba 14 38 43 ba
       -0.001398309 -0.0005357739 -0.0013819766 -0.0007447016
000190 7f ad 43 bb 68 2c e4 ba bc c4 02 bc f9 88 9a ba
       -0.002985805 -0.0017408254 -0.007981475 -0.0011790089
0001a0 08 1b bd bb 9d 7d de 3a 6d 13 74 ba 45 ad 30 bb
       -0.0057710446 0.0016974692 -0.0009310756 -0.0026958745
0001b0 c2 94 bd ba 17 4f 74 ba f7 07 b6 3a 66 b8 8e ba
       -0.0014463889 -0.00093196466 0.0013887872 -0.0010888695
0001c0 6a 59 19 3b ad 6c 06 bc 8b 6f 92 ba 2b 3f be ba
       0.0023399242 -0.008204621 -0.0011172158 -0.0014514675
0001d0 9f 0f 60 3a 72 8f 04 3b 78 8b dc ba 28 86 c3 ba
       0.00085472496 0.0020227102 -0.0016826233 -0.0014917301
0001e0 76 c9 e8 ba 45 14 9e b9 cb 4d 2f bb d6 fc 7d 3a
       -0.0017760235 -0.0003015121 -0.002674925 0.00096888596
0001f0 9e c8 a8 3a b5 d6 64 3b e0 86 30 3b 83 33 87 39
       0.0012877171 0.0034918014 0.002693586 0.00025787586

network_body._body_endoder.seq_layers.2.weight f4 [128, 128]
000000 7d db d7 3d cb 91 a2 3d 0f 45 bf bd 5a 64 42 bd
       0.10539911 0.07937964 -0.09339344 -0.047458984
000010 5c 7e 38 3d e6 9b 7d 3d 9c a4 8a bd 9b a2 e4 3d
       0.04504238 0.061916254 -0.06769678 0.11163827
000020 0f a9 7f 3e 8e 41 1f 3e af 9e 8a bd 75 c5 e2 bc
       0.24966834 0.15552351 -0.06768548 -0.027682045
000030 8b 0f 07 3c 63 33 93 3d 0a 84 cf bc c0 99 bd 3b
       0.008243452 0.071875356 -0.025331516 0.0057861507
000040 21 dd 16 3e f5 ac fa 3d 50 7b 42 be a6 e0 bb bd
       0.14732791 0.1224002 -0.18992352 -0.09173708
000050 ae 7a f5 3d 2a d7 13 3e 8a 5b 2e be 54 39 02 3e
       0.1198629 0.14437547 -0.17027107 0.12717181
000060 8f 77 f2 bd fc 57 b6 bc cc f8 2d 3d aa 36 2d 3e
       -0.1183921 -0.022258751 0.0424736 0.16915384
000070 4d 98 ac 3d 3a c8 2f bc d7 0c 98 bd a7 59 6c 3c
       0.084274866 -0.01072889 -0.07424324 0.014425672
000080 f3 46 0a bc 21 c9 aa bd e5 4c ca 3d 70 28 bb 3d
       -0.008439767 -0.083391435 0.09877948 0.09138572
000090 87 31 1a 3d 8f f8 3d 3d 32 3d ed bd f2 82 45 3c
       0.03764489 0.046379622 -0.11583938 0.012055146
0000a0 5b 6d 0e bd 91 ab 2f bd c4 a1 8d bd 91 f1 50 3d
       -0.03477226 -0.042888228 -0.0691562 0.051011626
0000b0 46 93 1d 3d 6d aa 28 bc 8f 99 ac 3d 2e eb a2 bd
       0.03847053 -0.010294539 0.084277265 -0.07955013
0000c0 f1 c6 ce 3c 35 f7 98 bd a7 bf d1 3d b3 b0 ad bd
       0.025241347 -0.07469026 0.10241633 -0.08480968
0000d0 20 ef 31 3e 6c 4f 5e bd 55 09 25 3d f3 14 13 be
       0.17376375 -0.05427496 0.040292103 -0.1436346
0000e0 0a 94 1f 3d 30 8c 03 be a0 07 c0 3d 4d 8f 63 3c
       0.03895954 -0.12846446 0.09376454 0.013889146
0000f0 e8 73 bb 3d fe fd 42 bd e0 35 00 be f5 6d af 3d
       0.09152967 -0.047605507 -0.12520552 0.085658945
000100 25 ab 95 3d 56 8e fe bd b8 c3 9d bd 5c 87 9e bd
       0.07308034 -0.12429492 -0.07703346 -0.077406615
000110 e8 33 0f bd 07 b5 10 3e 81 bc 9e bd c7 36 21 bd
       -0.03496161 0.14131556 -0.07750798 -0.03935888
000120 23 5f 32 3d ec 21 50 be a0 88 45 3c dd 1b b8 bc
       0.04354776 -0.2032544 0.0120565 -0.022474224
000130 cb 6a ad bd 54 76 cb 3c 04 76 b4 bc 88 24 56 3d
       -0.08467635 0.024836697 -0.02202893 0.052280933
000140 b7 0c c2 3d 53 ed fa 3d e7 74 c7 bd 91 0d a9 3d
       0.094750814 0.12252297 -0.09739094 0.08254541
000150 26 8f d2 bc 83 47 a4 3d 75 93 84 bd d5 43 3d be
       -0.025703024 0.08021452 -0.06473438 -0.18482907
000160 35 d3 16 bd fd 36 ec bd 9b 78 ec 3c d3 75 62 3c
       -0.036822516 -0.11533926 0.028866103 0.013822037
000170 0a ea 6e bd bc ef 21 be 2a 0e 2c 3e f0 1e 14 bd
       -0.058328666 -0.15814108 0.16802278 -0.036162317
000180 1d fd 10 bd 9d 44 3b 3e 93 60 0a 3e 6e 8d 82 bc
       -0.035397638 0.18287893 0.13513403 -0.01593658
000190 7f 36 ca 3d 37 7c 0c be 5f 5a 80 bd 9c 21 34 3d
       0.098736756 -0.13719259 -0.06267237 0.043977365
0001a0 bb 82 8f bd 7a 5c 0d bd e9 83 9a 3d e2 bc f7 bd
       -0.07007357 -0.03451202 0.07544691 -0.120965734
0001b0 d7 96 27 bb 88 5f f2 3d 03 dd e5 bc c5 e4 07 3e
       -0.0025572085 0.118346274 -0.028059488 0.13270862
0001c0 af 19 8c 3d 9d 97 6b bd 6a 22 52 bd 3f 0b 26 bd
       0.06840836 -0.057517637 -0.05130235 -0.04053807
0001d0 7e bb 36 3e 03 64 bc bd fb b9 0a bd 3a 55 a9 3c
       0.1784496 -0.09198763 -0.03386877 0.020670522
0001e0 4f e7 e8 bb a1 95 a1 3b 1a d3 82 3d 6d 08 69 be
       -0.0071076523 0.0049311672 0.06387921 -0.2275712
0001f0 56 45 8a bd 53 d2 04 bd 0f 77 dd 3c 92 bc d4 bc
       -0.06751506 -0.032427143 0.02703431 -0.025968824
000200 c5 0c 91 3d ed 3e 63 bc c4 5d a3 bc 18 27 a5 3d
       0.07082514 -0.013869983 -0.019942172 0.08064097
000210 17 95 e7 bb 51 1b fa 3d cb 12 bf bc e7 9c 0d be
       -0.0070673334 0.122122414 -0.02332439 -0.13829385
000220 a6 36 b5 bc 68 32 9c 3d bb e6 a1 bd c2 07 3a bd
       -0.022120785 0.07626802 -0.079053365 -0.045417555
000230 e6 62 34 bb fa 76 c3 bd 6f 74 d8 3d cf c5 8f bd
       -0.0027524768 -0.09544177 0.10569083 -0.07020151
000240 4a 0d 9a 3d 3d d7 b6 bd 07 ee d4 bd 43 c0 2d 3e
       0.07522066 -0.08927772 -0.103969626 0.16967873
000250 96 9c 3a bd 7e 4a a5 bb e3 61 14 3e e1 51 a6 3c
       -0.04555949 -0.0050442806 0.14490466 0.020302715
000260 89 98 6d bd c3 95 5f be 71 69 2b 3d db 8f 15 be
       -0.058006797 -0.21834473 0.041848604 -0.14605658
000270 9c 02 c7 bc f1 02 b3 3d 49 8a 42 3e 3f 61 0d be
       -0.024293236 0.087407954 0.18998064 -0.13806628
000280 5b b6 2a bd c2 a6 18 3d 29 f0 ea 3c 21 f6 75 bd
       -0.041677814 0.037268408 0.02867897 -0.06004918
000290 de 3f f7 3d 33 81 a9 bc ae e5 87 ba 4c 8e 04 3d
       0.120727286 -0.02069149 -0.0010368132 0.032362267
0002a0 dd 8d 0c 3d dd d6 72 bd f1 44 1b bd d3 60 fc 3d
       0.03431498 -0.05928694 -0.037907545 0.12323155
0002b0 de 1b 86 bd e7 c3 1a be 91 17 8b bd 15 86 4e bd
       -0.06548284 -0.15113793 -0.06791604 -0.05042084
0002c0 9d 23 85 bd d1 47 f2 bd b9 10 30 be 5c a0 48 3e
       -0.06500933 -0.11830104 -0.17193879 0.19592422
0002d0 35 0a 5d 3d f5 be d3 3d cc ec e3 bc f7 76 2f bd
       0.053964812 0.103391565 -0.027822874 -0.042838063
0002e0 fd 1a e5 bb 07 b2 ef bd 37 f0 9f bd 4b ee 1e 3c
       -0.0069917426 -0.11703878 -0.07809489 0.009700368
0002f0 0e c3 5c 3d c0 7b d7 bd 68 9d 9d bc cf 12 49 3d
       0.053896956 -0.1052165 -0.019240096 0.049090203
000300 fc 0b c5 bd a2 d4 7c bd 87 f6 ad 3b bb e8 58 3d
       -0.096214265 -0.06172622 0.0053089294 0.052956324
000310 7f 75 f3 3d 3d 92 70 3d 40 6c 62 3c af f6 fb 3d
       0.11887645 0.058733214 0.013819754 0.123029105
000320 cf 5e 1a 3d e6 e9 fc bd 20 1f 15 3e 61 ac 43 bd
       0.037688073 -0.123493 0.14562654 -0.047771815
000330 92 37 3f bd d8 a8 9d bb ee 9a a6 bd 95 0c b7 3c
       -0.046683855 -0.0048113875 -0.08135019 0.022344867
000340 d6 a2 53 3e 2a fa fc 3d 41 24 76 3d f4 96 11 be
       0.20667586 0.123524025 0.06009317 -0.1421774
000350 7e cb f8 3c aa d1 16 3d f0 d0 89 bd e4 42 d9 3d
       0.03037047 0.036821045 -0.06729305 0.106084615
000360 33 a9 41 3d 30 c5 05 bd 2e 22 81 bd 77 c0 39 3b
       0.0472805 -0.032658756 -0.063053474 0.0028343478
000370 f6 20 57 3e 44 98 20 3e 3b b7 1d be 21 40 a7 bd
       0.21008667 0.15683085 -0.15401928 -0.081665285
000380 3f 48 8f 3b 53 ab 83 3d f7 b1 41 bd 02 7e 25 bd
       0.004372626 0.06429162 -0.04728886 -0.040403374
000390 05 54 2a 3e 1d 0f bb bc 31 af 9d bd 16 86 76 3d
       0.16633613 -0.022834355 -0.07699431 0.060186468
0003a0 93 93 be 3c f4 40 b5 3a 7b 81 d5 bd 15 40 89 bd
       0.023263728 0.0013828562 -0.10425087 -0.06701676
0003b0 42 62 9e 3c 86 2e c7 bd b6 9c c1 bd d8 46 c0 3c
       0.019333962 -0.097256705 -0.09453718 0.023471281
0003c0 06 51 22 be 96 31 4e bd a2 ba 6b bd 57 45 fa bd
       -0.1585122 -0.050340258 -0.057551034 -0.12220257
0003d0 98 43 e7 3c b1 ca 35 bd f6 2f 56 3c 67 10 a5 bc
       0.028230473 -0.044382755 0.013072958 -0.020149423
0003e0 45 f2 28 3c 8a 0b af 3d 82 29 9f 3d 82 ea 36 be
       0.010311668 0.08547123 0.07771589 -0.17862895
0003f0 f4 84 d2 bd d2 0b f4 3b d3 67 c3 bd 68 93 55 3d
       -0.10279265 0.007447698 -0.09541287 0.05214253

network_body._body_endoder.seq_layers.2.bias f4 [128]
000000 f2 b2 4d 3a c7 5d 10 bb 52 b9 99 ba 3d 4c 77 ba
       0.00078467943 -0.0022028552 -0.0011728203 -0.00094336626
000010 1d 7c 69 bb 43 14 16 ba e0 78 12 3b 60 6d 01 3b
       -0.0035626956 -0.0005725065 0.002234988 0.001974903
000020 b1 4e cc 3a b0 db 9e b9 5b d5 63 ba 8b b0 36 bb
       0.0015587417 -0.00030299788 -0.0008691155 -0.0027876224
000030 64 1a 67 ba 24 a8 68 3b 93 3e 85 ba 5a 5c 16 b9
       -0.0008815883 0.003550061 -0.0010165743 -0.00014339518
000040 0c ca 8d bb 95 d9 7d bb 0e 97 1c bb 21 6c e2 b9
       -0.0043270644 -0.0038734425 -0.0023893747 -0.0004318664
000050 5a 7b 1a ba 4f f0 82 ba e6 6d f7 bb ce a1 25 bb
       -0.00058930146 -0.000998983 -0.0075509427 -0.0025273445
000060 07 42 97 b9 35 f6 f5 3a 1a a3 03 3a 38 ae 0a bb
       -0.0002885016 0.0018765392 0.00050215574 -0.0021160971
000070 a7 2b 29 ba ca be 86 bb 55 af 01 bb 9b 56 6d ba
       -0.0006453343 -0.0041120993 -0.0019788344 -0.0009053738
000080 a1 50 12 bb 22 d2 8f 39 74 ee b9 b9 95 b5 e9 b9
       -0.002232589 0.00027431647 -0.0003546361 -0.00044576512
000090 1e bb 9c bb fc 48 ad 37 55 90 22 bb c7 4e c4 3b
       -0.0047830483 2.0657193e-05 -0.0024805267 0.0059908363
0000a0 7c a1 25 bb 5f cf 15 ba 5b 80 1b bb 81 dc b0 b8
       -0.0025273254 -0.00057147996 -0.002372763 -8.433406e-05
0000b0 2e ab 6e ba 89 50 23 bb c1 d9 bd ba 82 ec 0d ba
       -0.0009104487 -0.002491983 -0.0014484451 -0.00054139656
0000c0 fe 60 b5 38 e7 7e 5f b9 8a fe 36 bb 09 5b 33 39
       8.648819e-05 -0.00021314212 -0.0027922713 0.00017104684
0000d0 8f 06 46 38 48 00 8d b8 c8 01 43 b9 f2 bc 5b bb
       4.7212987e-05 -6.723456e-05 -0.00018597313 -0.0033529368
0000e0 93 a4 07 bc 08 b5 2c 39 72 57 9c 39 3f 4b 26 ba
       -0.008278984 0.00016470638 0.0002981979 -0.000634361
0000f0 09 2d cf 38 55 55 5c 3b 7b 94 ed ba a7 4e 1d 3b
       9.8789176e-05 0.0033620198 -0.0018125916 0.002400318
000100 af 8a 84 ba 5c 9c 47 bb 93 9e 60 bb 63 e7 32 3b
       -0.0010112132 -0.0030458188 -0.0034274205 0.0027298562
000110 b8 37 71 3a a1 de 90 ba f5 eb 42 bb d0 07 e0 bb
       0.0009201723 -0.0011052677 -0.0029742692 -0.006836869
000120 64 0b 52 ba f4 2b 09 3a c0 b8 1d bb 14 90 7b bb
       -0.00080125616 0.0005232685 -0.0024066418 -0.0038385438
000130 c8 2a 7a ba db fa c2 ba 57 19 dc bb 9d 1e 71 ba
       -0.0009543118 -0.0014875786 -0.006716888 -0.0009197982
000140 01 a6 b2 b9 c6 dd d2 3a 56 bd 07 b9 46 11 70 ba
       -0.00034074488 0.0016087822 -0.00012945136 -0.00091578474
000150 41 b0 44 39 fa 10 fd ba e9 ca f8 39 1c c8 90 bb
       0.00018757676 -0.0019307428 0.00047453426 -0.004418386
000160 52 af 43 38 b2 ff 17 bc db 24 0a ba a5 28 d0 39
       4.6654903e-05 -0.009277271 -0.0005269774 0.00039703134
000170 a4 79 c2 3b c1 b8 ba ba 39 44 0f 3b ee a1 1b 39
       0.005934911 -0.0014245735 0.0021860732 0.00014842275
000180 92 91 94 3a b0 2c 41 bb 68 5a cb ba 24 f7 95 39
       0.0011334887 -0.0029476099 -0.0015514614 0.0002860363
000190 5c 93 b2 b9 2d fc b3 bb f6 5d 02 bb ba b4 9d ba
       -0.00034060597 -0.005492708 -0.001989243 -0.001203201
0001a0 66 90 12 ba b4 57 8c 39 22 7c 46 ba bd 50 3c bb
       -0.0005590975 0.00026768225 -0.0007571598 -0.0028734647
0001b0 4f ee f7 b9 4d be 52 bb 86 39 86 ba c6 67 87 ba
       -0.00047289065 -0.0032156885 -0.0010240532 -0.001033061
0001c0 db 38 8c 3a 0b df d7 b9 23 c9 65 3a 57 b0 c9 38
       0.0010698097 -0.00041174176 0.00087656284 9.617273e-05
0001d0 5d 9a 51 bb eb 16 10 bb fb 50 b6 b9 4c e5 b3 bb
       -0.0031982877 -0.0021986316 -0.0003477408 -0.005489981
0001e0 bd 6a ed b9 91 57 27 3a 51 95 16 bb ec 8d c2 3a
       -0.0004528369 0.0006383593 -0.0022977183 0.0014843321
0001f0 e5 29 c8 ba b1 20 d5 ba ad e0 33 bb c8 a7 e4 ba
       -0.0015271275 -0.0016260353 -0.002744715 -0.0017445022

action_model._continuous_distribution.mu.weight f4 [1, 128]
000000 92 42 e3 3c 36 fc a4 bb 97 0b eb 3c c5 33 24 bc
       0.027741704 -0.0050349487 0.02869205 -0.010022108
000010 73 8e 8a 3b 81 af 9a bb e5 8e f0 3c 59 1c be 3b
       0.004228407 -0.0047206287 0.029365012 0.005801719
000020 df 3d 98 3c 0e 0c 51 bc 77 ad 1d 3c ae 42 da ba
       0.01858419 -0.012759222 0.009623877 -0.0016651952
000030 29 0a de 3b 21 fe 96 bc b7 90 2a bb f1 2b 3e 3c
       0.0067761135 -0.018431725 -0.0026026198 0.011607156
000040 9a 2a c0 bc 5a 6b 86 bc 27 89 d9 bb d5 ae 67 bc
       -0.023457814 -0.016408611 -0.0066386643 -0.014140804
000050 13 28 8c 3c 4b 61 06 3d f2 b1 d4 b4 4c f2 0b 3d
       0.017108953 0.03280763 -3.961755e-07 0.03416662
000060 81 6a bb bb 0f 85 c2 3c 32 31 94 bc 42 aa 1d 3c
       -0.0057194834 0.023745088 -0.018089864 0.009623112
000070 e5 bc fc 3b ba d1 0c 3b 2f 7d 27 bc d2 30 9a bc
       0.0077129477 0.0021487311 -0.010222717 -0.018822107
000080 88 32 2b bb 3d 9e d7 bc 83 87 08 bd d8 ce 88 bc
       -0.0026122648 -0.026320571 -0.03333236 -0.016700193
000090 94 da b5 3c bc 7e cf 3c 1b cc d6 ba 5a 74 3f bc
       0.022198953 0.025328986 -0.0016387732 -0.011685455
0000a0 d6 de 9d bc 93 23 bb bc e9 1a 78 bb 97 72 d0 3b
       -0.019271296 -0.022844112 -0.0037857837 0.0063613164
0000b0 b8 87 b0 3c 31 42 69 3a 5a ac 9c bb 39 70 30 bc
       0.02154909 0.0008898108 -0.004781288 -0.0107689435
0000c0 0e 66 49 3c fa 0a c3 bb 81 b7 b5 3a ee 21 8f 3b
       0.012292398 -0.0059522362 0.0013863893 0.0043680584
0000d0 cc d8 00 3d fb 2c 1b 3c 81 69 b1 bc e4 21 d1 3b
       0.031456754 0.009471173 -0.021656753 0.006382214
0000e0 2b 69 f1 b9 ef 21 9d 3c c7 2f 80 bc 44 b7 8c bb
       -0.00046045458 0.01918122 -0.015647782 -0.004294308
0000f0 b7 17 f1 bb 39 38 e6 bb 4e a8 90 bb 74 28 a9 3c
       -0.0073575634 -0.007025745 -0.0044145947 0.020649172
000100 04 7d ad bc c1 74 85 bc 4a b8 d1 b9 63 94 ba bc
       -0.021177776 -0.016291024 -0.00040000892 -0.022775834
000110 1f ce 06 3d 6c 42 a5 3a db 8c 66 3b 6a bd d2 3c
       0.032911416 0.0012608296 0.0035179171 0.025725085
000120 a6 34 93 bc f1 f0 c3 3b 4c 6e 98 3b f8 03 d2 3c
       -0.01796944 0.00597965 0.0046518203 0.025636658
000130 85 8e 9a bb 69 5c cf 3b c3 17 c7 3a 67 ae 25 bc
       -0.0047166967 0.006328155 0.0015189577 -0.010112382
000140 92 d6 75 bc 76 28 40 bc d1 c2 61 3c c0 75 12 bd
       -0.015004771 -0.011728397 0.013779358 -0.035756826
000150 18 42 d2 bb 46 48 b0 3c bd 22 2d 3c 90 38 10 bd
       -0.0064165704 0.021518838 0.010567364 -0.035210192
000160 ac af d2 3c ad 67 31 3b d2 fc ea bb d6 ff a4 3c
       0.025718533 0.0027069852 -0.007171252 0.020141523
000170 76 95 8c bc 88 2d 4b 3b 7c 1c a4 3c 84 01 38 3c
       -0.017161112 0.003100248 0.020033114 0.01123083
000180 7e 9e a2 bc 0a 0b f0 ba 31 87 90 ba 02 99 ca 3c
       -0.019850966 -0.0018313837 -0.0011026618 0.024731163
000190 4d fc ee 3b b0 68 13 ba 9e b3 1a bc 5b a5 82 3c
       0.00729326 -0.00056232046 -0.009442238 0.015947988
0001a0 77 bf 46 3c 73 71 06 3d 76 da 79 3c 6c 84 30 bb
       0.01213061 0.032823037 0.015249839 -0.0026934398
0001b0 9f bc ef bc 96 9b c8 39 86 8b 54 bc 9b 75 16 bb
       -0.029264746 0.00038262893 -0.012972718 -0.0022958282
0001c0 16 bd 90 bb c5 c5 23 3c dd de 95 bb 5e 2f 23 bc
       -0.004417072 0.009995882 -0.0045736865 -0.009960024
0001d0 fe 68 72 3a 9e fd 53 3b 9a 94 17 3d f8 88 9a ba
       0.00092472124 0.0032347213 0.037006952 -0.0011790087
0001e0 84 56 5b bc 28 4d 9c 3c ff 96 2f bc d5 83 12 bc
       -0.013387326 0.01907976 -0.010717153 -0.008942564
0001f0 1d 26 98 b9 d4 4c 5d bb 9d 5f 8c bb 2b f6 bf 3c
       -0.00029020096 -0.0033767717 -0.004283859 0.023432812
