results/Run3/PlayerRL/PlayerRL-9531.pt (torch, 50067 bytes, 33 tensors)

network_body._body_endoder.seq_layers.0.weight f4 [32, 2]
000000 a2 66 05 be 6a 27 0c 3f a2 f9 aa 3f d5 24 8b 3e
       -0.13027433 0.5474764 1.3357432 0.27176538
000010 fd 1f 21 bf d6 25 78 bd 30 0e 7d 3f 28 b0 cf 3d
       -0.62939435 -0.06058296 0.98849773 0.10141021
000020 d0 35 56 bf 1c 71 ac 3e 7f ef 0d 3f dc e9 a4 3f
       -0.8367586 0.33680046 0.5544357 1.2883868
000030 59 75 9c be 6c 7b 8c 3f 99 47 48 bf 3c 35 98 3f
       -0.3055828 1.0975165 -0.7823425 1.1891246
000040 6a 7f 11 3f 02 c4 02 3f b3 1f 1a 3f 84 a7 ec 3d
       0.56835043 0.51080334 0.6020462 0.115553886
000050 65 a2 dc be d1 59 1c 3d b7 08 04 be 39 4f 08 bf
       -0.43092647 0.038171593 -0.1289395 -0.53245884
000060 c6 e1 4b 3f 5b b2 93 be 61 ca 31 3e 1c 4c 05 bf
       0.7964138 -0.28847012 0.17362358 -0.5206926
000070 63 89 5a bf 5c 54 d7 3e 79 96 85 3d bf df c8 3e
       -0.85365885 0.4205655 0.06522841 0.39233205
000080 f5 ec b7 be 9f ca 66 3f 0c 30 4c 3f a5 83 fa be
       -0.3592297 0.90152925 0.79760814 -0.48928562
000090 e9 3e 07 bf e3 72 14 3f eb 83 e6 bf 7f e9 32 3f
       -0.5283037 0.57987803 -1.8009008 0.69887537
0000a0 8b c9 75 3f 74 63 76 bc 49 27 2c 3f d5 a8 d1 bf
       0.96010655 -0.01503836 0.67247444 -1.6379648
0000b0 79 15 66 3f df 7c 21 be 64 80 e7 bf 6a 68 66 be
       0.89876515 -0.15770291 -1.8086057 -0.22500768
0000c0 a0 09 b0 3f 90 44 01 be 4f f0 e3 bc 4d e0 06 3c
       1.3752937 -0.12623811 -0.027824549 0.008232188
0000d0 55 c3 7a 3d 96 36 51 be 24 74 a9 bd b0 e8 cd be
       0.06122144 -0.20430979 -0.08274105 -0.4021659
0000e0 71 2a 4f 3f 60 0c 15 bf 34 7e 8a bc f2 46 12 bf
       0.80924135 -0.5822201 -0.016905881 -0.57139504
0000f0 14 58 28 3d 12 9c e7 be 57 ac 2f be 5c 80 98 3e
       0.041099623 -0.4523626 -0.17155586 0.2978543

network_body._body_endoder.seq_layers.0.bias f4 [32]
000000 a5 c9 db bc fe 93 e5 bb 4d 0c 55 3c 2d 81 14 3c
       -0.02682955 -0.0070061674 0.013003421 0.009064001
000010 7a ac da 3c 46 f9 87 bb 10 c0 93 bc bc 46 bd 3c
       0.026693571 -0.0041495888 -0.018035918 0.023105018
000020 a1 e9 36 3c cb 79 80 3c 68 1b 12 bd 9f 8b ae bb
       0.0111641 0.015683075 -0.035670668 -0.0053267027
000030 a4 f9 cb bb 9b 69 0a bd 94 32 33 bb e5 c2 37 bc
       -0.006224828 -0.03379212 -0.002734338 -0.0112159
000040 08 39 1d bc 0d 22 95 3b 87 35 f7 bc 6a f8 82 3b
       -0.009596117 0.0045511783 -0.030176891 0.0039968984
000050 3c 5a 0c 3d be 20 28 3d 7a ed f0 bc 1c f1 1a 3d
       0.03426574 0.04104685 -0.029410113 0.037827596
000060 6b 9b 90 3c fb d6 c6 bc 05 c8 04 3d 17 a3 2b 3d
       0.017652234 -0.024272433 0.032417316 0.04190358
000070 49 1d b0 3c 2c d0 02 bd 96 b1 9f 3c d2 ec 2c 3c
       0.02149834 -0.03193681 0.01949386 0.010554509

network_body._body_endoder.seq_layers.2.weight f4 [32, 32]
000000 18 8e 45 bd 23 3b 32 be 97 ea b0 bd d9 3f f7 bd
       -0.048231214 -0.17405371 -0.086384945 -0.12072725
000010 1f c2 9d 3d 06 52 0d 3e f8 94 03 be 6b 53 3a bc
       0.07703041 0.1380082 -0.12849796 -0.011372427
000020 02 e3 12 be 6b bc d3 be 8a 0f 73 be 20 91 dd 3d
       -0.14344409 -0.4135469 -0.23736396 0.10818696
000030 09 7f 4f 3d 32 bb 92 3c 1a e5 ca 3d aa 8e a0 be
       0.05065826 0.017911527 0.09906979 -0.31358844
000040 27 ba fc 3d 2a d1 3a 3e ea bb 48 3e 5c 21 9d 3c
       0.12340193 0.18243852 0.19602934 0.019180946
000050 d5 18 36 bd 14 6d a3 3d e6 e7 42 bd fe 3f 03 be
       -0.044457275 0.079797894 -0.047584437 -0.1281738
000060 0a 2c 42 bd d8 b2 07 3e f5 3e a0 bd ba 75 ef 3d
       -0.04740528 0.13251817 -0.07824508 0.116923764
000070 98 4f 7a be fd a0 f5 bd 39 11 4e 3d af bf d4 3e
       -0.24444425 -0.11993597 0.050309394 0.41552493
000080 7e ca 63 3e b8 92 b6 bd 23 76 e4 3d 07 0c 18 be
       0.22245213 -0.08914703 0.11155345 -0.14848338
000090 b1 58 9e 3d 4c 1f ad be 61 f1 8c 3d 08 ab 62 be
       0.0773176 -0.3381294 0.06881977 -0.22135556
0000a0 56 df cb be 3d f6 d5 3d bc 5b 32 bd 14 33 38 be
       -0.3981883 0.10447357 -0.043544516 -0.17988235
0000b0 99 a2 56 3d 28 8c 8a bd d9 9b 91 bb 2c c0 8d 3d
       0.05240116 -0.06765014 -0.0044436273 0.069214195
0000c0 6c ce 1a 3e 41 17 9d 3e 38 df 84 bd ff 2c e5 3c
       0.15117806 0.30681804 -0.06487888 0.027975557
0000d0 8b cd 9c bd 71 05 2a 3e 41 8d 94 3e 0b 4b f3 3b
       -0.07656392 0.16603638 0.29014018 0.0074247173
0000e0 ea 8f 2e 3d 56 0b 49 be c3 ff 0d bd 70 05 2a 3e
       0.042617716 -0.1963323 -0.03466774 0.16603637
0000f0 58 ef 5d be 46 a2 14 3e db 40 2d 3e 48 e2 44 bd
       -0.21673334 0.14515027 0.16919272 -0.04806736
000100 45 41 0a be d1 60 bf bd dd c8 0e 3e 2a 65 f4 bc
       -0.13501461 -0.09344638 0.13943811 -0.029833395
000110 de 77 4b 3d ba 6f 0d 3d 5d b9 27 3e 4a 89 1f 3d
       0.04967486 0.03453038 0.16379304 0.03894929
000120 6d 72 46 bd 42 db b7 bd d3 83 1e 3e 91 3f 53 be
       -0.04844897 -0.08977367 0.15479974 -0.20629717
000130 48 8b b4 be 75 72 50 bd 35 77 e2 3d f2 02 8b 3d
       -0.35262513 -0.050890405 0.11057893 0.06787671
000140 8f c2 35 bd af bb 22 be 08 f5 54 3e 17 03 1b 3b
       -0.044375 -0.15891908 0.20796597 0.0023652965
000150 33 36 83 3d f1 78 f6 bd d9 3a 0b bf d1 4d d3 bc
       0.06406822 -0.120347865 -0.5438667 -0.025793942
000160 e3 35 82 bd 5b f5 23 3d 02 a8 90 be 4b 51 50 3e
       -0.06357934 0.04002891 -0.2825318 0.20343511
000170 5d ce 54 3d 80 6d ef 3d 27 ff 94 bd e6 ec 57 bc
       0.051954616 0.11690807 -0.07275229 -0.01317904
000180 d4 9d 48 be b3 c5 50 3e fb fd 83 3e ba ff 46 be
       -0.19591457 0.20387916 0.2577971 -0.1943349
000190 d9 0d a7 bc 29 23 80 3e e7 b0 c4 be 9a 25 30 be
       -0.020392345 0.25026825 -0.38416216 -0.17201844
0001a0 8f 2b 36 be cf 46 0e be 55 45 3d 3e ff d8 6b bc
       -0.17790054 -0.13894199 0.1848348 -0.014394998
0001b0 46 b2 ef bd e0 06 ba bc 96 06 0a 3d 90 6e 44 be
       -0.11703925 -0.022708356 0.033697687 -0.19182801
0001c0 5b a3 80 3d 4d e4 1f bc 38 bc 9a be 53 9a bf 3d
       0.062811576 -0.009759021 -0.30221725 0.09355607
0001d0 dc de 76 3c a7 3e 23 3e 31 f0 16 bd a8 1e f4 bd
       0.015067782 0.15941869 -0.036850158 -0.1191991
0001e0 bf ec ea bc 33 66 4a be 85 a7 6d 3d 4e f4 6e 3d
       -0.028677342 -0.19765548 0.058021087 0.058338456
0001f0 f6 f4 02 be 10 20 93 be d1 0d cd 3c 2d 6c 19 bd
       -0.12788758 -0.287354 0.025031002 -0.03745668
000200 8a ad a2 be d9 89 f3 3c 6b 93 1f 3d b3 69 b3 3d
       -0.31773025 0.029728817 0.038958948 0.08760395
000210 91 f2 16 3e b2 95 c3 3e 61 d8 42 3e cf 21 84 3e
       0.14740969 0.38200146 0.19027855 0.25807044
000220 62 45 20 3e b3 20 88 bd 5e d7 67 be 36 43 a9 3e
       0.15651467 -0.06646862 -0.2264075 0.3305909
000230 02 13 64 3e f7 08 23 be 17 fe 80 3e 30 e1 04 3e
       0.22272876 -0.15921389 0.25193855 0.12976527
000240 32 e7 54 3d 3d 77 f3 bd ab 17 2d 3d af 47 2b bd
       0.051978298 -0.11887977 0.0422589 -0.04181641
000250 47 5b 9b bd e4 2e 00 be 7f b2 a0 be af 94 38 3d
       -0.07585769 -0.12517887 -0.31386182 0.04506367
000260 75 23 fe bd dd da c4 3e 3f c7 39 3e 77 7a 71 3b
       -0.12409107 0.3844823 0.18142413 0.0036846676
000270 32 c9 55 3e aa 28 ee bd 55 56 8d be 4f 76 34 3e
       0.20877531 -0.1162885 -0.2760493 0.17623256
000280 0d 5c 2d be 14 41 8d 3d fb 67 76 be 4e db 07 3e
       -0.16929646 0.06897178 -0.24063103 0.13267252
000290 d4 8b 0e bd 13 2e 98 bd 3c cb ad 3d 76 85 2f 3e
       -0.03480132 -0.07430663 0.084860295 0.17140755
0002a0 93 10 9c 3d 02 b0 8c 3e 76 bf 48 3d d5 85 8a bc
       0.07620349 0.27478033 0.049010716 -0.01690952
0002b0 b6 72 f5 3d 4f dd 09 bd 64 6d fc bc 11 b8 3d 3d
       0.1198477 -0.033658322 -0.03081388 0.046318118
0002c0 b4 db 8e 3d ec cf f4 3c bb c0 b4 3e 63 e9 e7 3d
       0.06975499 0.029884301 0.35303292 0.11323812
0002d0 ad a8 f9 bc 1a 6a ab 3e d8 4d 7f be 57 1d 1d be
       -0.030475939 0.33479387 -0.24932039 -0.15343224
0002e0 cf 72 9b 3d 70 17 21 3e 1c 98 13 be 63 35 9d be
       0.075902574 0.15731597 -0.14413494 -0.30704793
0002f0 a9 53 c4 3d 22 65 e1 bd da 1e dc 3d 8f 81 66 bd
       0.095862694 -0.11005618 0.10748072 -0.0562759
000300 67 ca 4c 3e 35 65 aa 3d 8b f3 b7 bd 07 39 9f be
       0.19999085 0.08320085 -0.08981999 -0.31098196
000310 a4 03 b5 3e 65 21 cf 3e e3 cd 5e be fd 7d ed bb
       0.3535434 0.40455166 -0.21758227 -0.007247685
000320 38 8c 51 bd d5 c0 9f bd 7b 8d d9 bd 9c 6d f9 bd
       -0.051159114 -0.07800452 -0.106226884 -0.121791095
000330 20 6e a3 bb 44 ee 4c be 60 01 9b bc a9 f8 5e bd
       -0.004987493 -0.20012766 -0.018921554 -0.05443636
000340 89 46 74 bd 1e 67 dc 3d 13 04 6f 3d ab 6f 4e bd
       -0.05963758 0.107618555 0.058353495 -0.050399464
000350 22 75 3e 3e 26 97 96 3e 43 b4 4f be fa b4 67 3d
       0.1859937 0.29412192 -0.20283608 0.056569077
000360 1c ed bd bd 9f 10 b1 3d 1f 6d 0b bd a5 80 c3 bd
       -0.09273741 0.08645748 -0.034039613 -0.09546021
000370 7f 75 36 bd a0 01 25 3c 4f 57 85 bd 61 8f 1a 3e
       -0.044545647 0.010071188 -0.065107934 0.15093757
000380 d8 2c 37 be 61 ff bb 3d a9 f9 76 3e 2c e1 5e be
       -0.178882 0.09179569 0.24118675 -0.21765584
000390 80 66 3c 3d 04 70 b2 3d 48 8d 4e 3d 77 83 4f be
       0.04599619 0.087127715 0.050427705 -0.20264994
0003a0 48 3b 82 bc bb 2d 71 be 2c ed 33 3e 02 f7 ff bc
       -0.015897408 -0.23552601 0.17570943 -0.031245712
0003b0 6f b5 5a 3e 57 4a 33 be 49 eb 9b 3d 89 03 fb bd
       0.21358274 -0.17508827 0.076132365 -0.12256534
0003c0 cb 1f a4 bc 45 cd c8 3d 11 a2 b5 bd 79 0a 86 3e
       -0.020034691 0.09804777 -0.08868802 0.26179865
0003d0 8f f4 86 be a2 07 79 bd 60 c9 aa bd f8 cb ec 3e
       -0.26358458 -0.060798295 -0.083391905 0.46249366
0003e0 c3 83 00 3d 3e f0 64 be 67 ee c6 3d bc 29 06 be
       0.031375658 -0.2235727 0.097134404 -0.13101858
0003f0 40 14 13 be 0c 7d 42 bd 36 63 e4 3d 67 94 80 be
       -0.14363194 -0.047482535 0.111517355 -0.25113222

network_body._body_endoder.seq_layers.2.bias f4 [32]
000000 f4 6b 37 3d 89 93 54 3c be 49 8d 3c 7b 99 01 3d
       0.044780686 0.012974628 0.017247077 0.03164051
000010 e9 b9 b3 3c 27 77 17 ba fc f9 19 3d 4a 4b 40 bc
       0.021939235 -0.0005777948 0.03759192 -0.0117367
000020 ce c5 ea 3b 28 ac 13 3d 5c c0 4b bc 41 02 4d bc
       0.0071646934 0.036052853 -0.012435999 -0.012512744
000030 00 e8 c0 bb d8 f8 d0 3c 1c 31 b5 3c 44 21 05 bd
       -0.0058870316 0.025509283 0.022118144 -0.032502428
000040 c8 47 bb bc 77 16 19 3d 0e ba b2 bc 4f eb f8 3b
       -0.022861376 0.03737494 -0.021817233 0.0075964103
000050 06 0b 95 3b e3 ec 07 bc 4d 42 c8 3c 39 94 3b 3d
       0.0045484332 -0.008296224 0.024445677 0.045795653
000060 40 ba 11 bb bc d3 8e bc d8 2d 95 3c 76 e5 14 3d
       -0.0022236258 -0.017434947 0.018210337 0.036351644
000070 e2 fa f0 3c 41 46 94 3b 7a 40 18 3d 62 00 02 bd
       0.029416505 0.0045249765 0.037170865 -0.031738646

action_model._discrete_distribution.branches.0.weight f4 [10, 32]
000000 7f 28 c5 3c 69 22 25 3d e7 c7 06 3d bd 65 2d 3c
       0.024067162 0.04031602 0.032905485 0.010583338
000010 17 d0 8b bb 55 69 71 bc 10 93 7f bb d0 3c 06 3d
       -0.0042667496 -0.014734586 -0.0038997568 0.03277284
000020 73 04 0f 3d 56 b4 14 bd a3 6d c9 3b 57 4a 17 bd
       0.034916352 -0.036304794 0.006147103 -0.03693613
000030 6a 61 02 3c 71 c9 12 3d f6 77 9c 3c bd 81 d4 bc
       0.007957796 0.03583664 0.01910017 -0.02594077
000040 77 13 fd bb dd fc 58 bc b3 c5 54 bd 53 07 04 bc
       -0.0077232677 -0.013243881 -0.051946353 -0.008058387
000050 a9 a8 c2 bc 90 f0 a1 bb ac ee b8 3c e5 50 e0 bb
       -0.023762064 -0.0049420074 0.022574745 -0.006845581
000060 1a 02 2f bd 44 f6 38 bc 01 67 9a 3c f7 cf a8 3b
       -0.042726614 -0.011289183 0.018847944 0.0051517445
000070 1a a4 79 3b b5 17 e1 bb 8d 7f 20 3d 63 59 9a 3c
       0.0038092197 -0.006869281 0.039184142 0.018841451
000080 f9 17 11 bc bd 27 da bc ae c5 d2 bc 1b 24 59 bd
       -0.008855813 -0.026630277 -0.025729027 -0.05301295
000090 1b a5 bc 3c bc 1d a5 3c 24 5e 6e 3b 75 37 04 bd
       0.023027947 0.02015578 0.003637203 -0.03227945
0000a0 c9 ab 04 bd 6d a4 d0 3b 0d ab 34 3d 6d 42 b1 bb
       -0.03239039 0.0063672573 0.04410844 -0.00540953
0000b0 4f 74 75 bb a3 40 dc bc 0d fa fa 3b ee fc d0 bc
       -0.0037453359 -0.02688629 0.007659203 -0.025511231
0000c0 06 c8 bc 3c 94 43 27 bc 9f 2a 59 3c f0 54 6d 3c
       0.023044597 -0.010208983 0.013254791 0.014485583
0000d0 9d 32 d6 bc f6 07 b5 bc f8 08 1a 3b d0 8c 34 3d
       -0.026147181 -0.022098523 0.002350388 0.0440796
0000e0 ee df ec 3c 98 3a 2b bc 16 90 58 3c c4 0c 63 bb
       0.028915372 -0.010450982 0.0132179465 -0.003464506
0000f0 a4 97 28 bb a7 31 91 3c 36 d6 2a bc ca 92 2f bc
       -0.002572515 0.017723871 -0.010427048 -0.01071615
000100 d6 64 d5 3a 75 cb d7 bc 12 38 83 bc 92 89 02 bd
       0.0016280662 -0.026342133 -0.016017947 -0.03186948
000110 6c b5 5a 3d 20 f1 eb bc 30 6e 53 3d 5c c0 b4 3b
       0.053395674 -0.0288015 0.051618755 0.005516095
000120 d0 d7 a4 bc 65 5e 01 3c 92 43 b3 ba a8 25 29 3d
       -0.020122439 0.007896041 -0.0013676754 0.041295677
000130 4b f7 e2 3c 59 c9 d7 bb 3d 59 b4 3b 73 13 07 bd
       0.02770581 -0.006585282 0.005503802 -0.032977533
000140 bd 3d 35 bc 99 3c ad 3b 54 73 c9 3c ac 57 96 3c
       -0.011062083 0.005286765 0.024591126 0.018352352
000150 03 dd 4d 3c 41 ce 06 3d 6a e1 7f bc 70 cf c8 3b
       0.0125649 0.032911543 -0.015617708 0.006128244
000160 1b a0 b8 3c 48 a8 fa 3b c0 03 82 bc 7e c1 28 bb
       0.022537282 0.007649455 -0.015870929 -0.0025750096
000170 64 50 28 bc 28 c3 38 3d a8 30 0c bd 22 29 fa bb
       -0.010273073 0.04510799 -0.03422609 -0.007634298
000180 5c b8 17 3d 3c 6a 26 3c 79 d8 34 3c c7 e8 16 3c
       0.037041053 0.010157164 0.011037939 0.009210772
000190 97 f5 0d bb d4 f9 bb bc 94 38 7d 3b d0 1b f5 3c
       -0.0021661276 -0.022946276 0.003863846 0.029920489
0001a0 ce db 32 bc 8a 7f 22 bc 79 a4 65 bc 30 13 49 bc
       -0.010916663 -0.009918103 -0.014016264 -0.012272641
0001b0 24 86 e9 bc 30 2d 56 3c a7 d2 1f bd 0d 21 12 3c
       -0.028506346 0.013072297 -0.039019253 0.008919013
0001c0 ac 50 f7 3b b9 e1 d1 3c 9f 06 d3 3c 6a 69 18 3b
       0.0075474586 0.025620328 0.025759993 0.002325619
0001d0 bb 74 61 bd b6 88 6a 3c 5d 3e 34 3d 91 2e 50 bd
       -0.055042963 0.014314821 0.044004787 -0.05082566
0001e0 59 a3 12 bd 7d c3 79 3d 6b 75 42 3c f8 f6 be 3c
       -0.03580031 0.060977448 0.011868815 0.023311123
0001f0 ae 7c 9a bc 66 c0 b3 bc f6 01 9d 3c 9f a6 8a 3c
       -0.01885828 -0.021942329 0.019165974 0.016925154
000200 fc 5b e7 bc 89 49 df bc c4 8d af bc e3 60 b6 bc
       -0.028242104 -0.027256744 -0.021429904 -0.022262996
000210 89 d4 0e 3d 7e a6 0d bd b5 07 ef bc a9 5b 7e bb
       0.034870658 -0.034582607 -0.02917848 -0.0038811958
000220 71 c1 37 bc 17 e4 f3 bc 6e c7 43 3d bd 4b 24 3d
       -0.011215554 -0.029771848 0.047797613 0.040111292
000230 26 36 38 3d 13 47 25 bd 3a da 34 3d 38 ab 1b 3d
       0.044973515 -0.040350985 0.04415343 0.038005084
000240 4a ec b9 3c 3f 85 f9 bc 17 10 f5 3c 6c 4f 78 bc
       0.02269568 -0.030459045 0.029914899 -0.015155654
000250 e9 2d bb 3c b7 4b 1f 3d 79 51 e7 bc c1 6f 1d bd
       0.02284904 0.038890567 -0.028237091 -0.038436655
000260 94 0c 2d 3d 6a db 07 3d 1a 31 0e bd f3 1f 43 bd
       0.042248324 0.033168234 -0.034714796 -0.04763789
000270 70 cd e1 bc 8a 83 a0 bc 35 63 15 bd 7d b4 17 3c
       -0.02756378 -0.019593973 -0.036471564 0.00925934
000280 03 9c c6 bc 43 16 cd 3a 40 4a 41 bc ef f4 58 3c
       -0.024244314 0.0015646893 -0.011797488 0.0132419905
000290 cc cc 04 bd 95 8d 28 3d 1b af b2 bc b6 0c 2b bd
       -0.032421872 0.04115065 -0.021812012 -0.04176017
0002a0 5c d7 2a bd 00 14 83 3d ea 31 a3 3c 46 73 ed b8
       -0.04170929 0.06400299 0.019921262 -0.00011322512
0002b0 66 22 b2 bc 24 72 b4 3c 9f 3f 8c 3d bb d4 79 bd
       -0.021744918 0.022027083 0.06848072 -0.06099389
0002c0 d4 f8 b6 bc c2 f2 82 bd 8f 72 2a bd 6c 6a 06 3d
       -0.022335447 -0.06393959 -0.041613158 0.032816336
0002d0 b5 5f 21 3c 22 66 2d bd 84 5d e7 bc fb 9d 62 3d
       0.0098494785 -0.04233373 -0.028242834 0.055326443
0002e0 99 9c 84 bc 20 55 1f bd 36 13 da 3c 7a 1f 2d 3c
       -0.016187953 -0.03889954 0.026620489 0.010566587
0002f0 67 fd 53 3d f4 c3 b5 3c dc b6 5d bc fe 3c e3 bc
       0.051755335 0.022188164 -0.013532367 -0.027739044
000300 db 55 91 3c 3c 37 cb bb c5 8e 0b 3d b9 bb 1b bd
       0.017741134 -0.006201653 0.034071703 -0.038020823
000310 0b 7e 0d 3d f1 c1 03 bd 79 cd 09 bd 2a 8e f8 3c
       0.034544032 -0.03216738 -0.03364322 0.030341227
000320 d7 86 17 3d 86 61 5c bd f9 ea d2 bb 29 b0 37 3d
       0.036993828 -0.053803943 -0.0064367023 0.044845734
000330 4f cb ab 3c 1a eb d9 bc 9d 45 10 bc 31 1e 8c 3d
       0.020970969 -0.026601363 -0.00880566 0.06841696
000340 ca 1e 4d 3d c8 6e a5 3c 75 40 92 3c cb 7c c8 bc
       0.05007819 0.020194426 0.017853001 -0.024473568
000350 14 bd c1 bc 30 fe ff 3c ab 31 4e 3d 40 06 18 bd
       -0.02364973 0.031249136 0.050340336 -0.037115335
000360 99 ab e3 3a 14 57 4a 3d d3 25 13 bd d9 30 73 bd
       0.0017369866 0.04939945 -0.035924744 -0.059372757
000370 e3 94 33 bd 90 cf 5f bc 48 bf 20 bd d2 41 76 3d
       -0.04384316 -0.013660327 -0.03924492 0.060121365
000380 f3 36 4f 3c 45 da 08 bd 30 4e 8f 3c fa 0b b0 bc
       0.012647378 -0.033411283 0.017493337 -0.021490086
000390 5e 6c 4f bc 41 b8 f0 bc fc ef ba bc 81 e9 aa 3c
       -0.012660114 -0.029384734 -0.022819512 0.020863296
0003a0 6f 36 bb 3c 74 24 4a bd ed 43 a0 bb 22 8a 8d 3b
       0.022853104 -0.04935117 -0.00489091 0.004319445
0003b0 0e e4 ea bb b7 67 be 3b a2 f4 ea bc c2 e2 3c 3d
       -0.0071682995 0.0058107036 -0.028681103 0.04611469
0003c0 03 ca ec 3b 73 80 b4 3b c3 e4 f4 3c fc 34 01 bd
       0.00722623 0.0055084764 0.029894238 -0.03154467
0003d0 84 c7 e1 bc 6c 1a 1d 3d 0f bd 9e 3c ae d3 3e bd
       -0.027560957 0.038355276 0.01937726 -0.046588592
0003e0 74 bb a8 bc 3d 2b 07 3d 27 63 33 bd 40 45 25 bd
       -0.020597197 0.03300022 -0.04379573 -0.040349245
0003f0 aa ea 1b bd 45 3f 53 bc c5 aa 0d bd 79 41 8b 3c
       -0.03806559 -0.012893503 -0.034586687 0.016998993

action_model._discrete_distribution.branches.0.bias f4 [10]
000000 29 52 28 ba ad a3 84 3b 2b 97 bd 3c c0 af ed bb
       -0.0006420934 0.004047832 0.023143372 -0.007253617
000010 ba 5a b0 bc fc 57 3d 3c 84 64 01 bd 39 ab 0d bd
       -0.021527637 0.011556622 -0.03159 -0.03458712
000020 2d 42 e5 3c 88 f5 db 3c
       0.027985657 0.026850477

exp_avg f4 [32, 2]
000000 48 9b f0 3a 5c 5d 0e 3a 91 ce 30 bc 64 ff 28 bc
       0.0018356824 0.0005430782 -0.010791437 -0.010314796
000010 1f 45 89 bb b3 83 5a bb f0 d6 a5 39 00 b3 85 bb
       -0.004189148 -0.003334266 0.00031631393 -0.0040801764
000020 0e f3 5d 3b cc 2b 4a 3b 9e 6a 73 bc 7f d0 f9 bb
       0.0033866796 0.003084886 -0.0148569625 -0.0076237316
000030 b5 1d 4c bc c9 75 3c bc d1 28 20 bc 53 1a 01 bc
       -0.012458255 -0.011502692 -0.009775356 -0.007879811
000040 42 bb be bb 21 ac 0b bc 48 27 81 bb 76 bb f5 bb
       -0.0058206627 -0.008524925 -0.0039414503 -0.0074991537
000050 a0 01 9f b8 9a 1f e0 39 d5 86 fc 3a cd b0 8b 3a
       -7.5820135e-05 0.00042748154 0.0019266257 0.0010657549
000060 00 f6 1e 3a 58 54 39 3a ae 1c 34 3a 50 80 a5 b8
       0.00060638785 0.0007069758 0.00068707287 -7.891713e-05
000070 ac 6c 8d bb 26 53 57 bb 52 b8 9a bc 5a a7 6c bc
       -0.004315933 -0.0032855957 -0.018886719 -0.014444197
000080 bc 8c 10 3c e4 5b 05 3c a4 36 dd bb 9a 18 de bb
       0.008822616 0.008139584 -0.0067508984 -0.006777835
000090 06 2d 8e 3b 87 fd 6b 3b f8 dc 1b bb 70 fa 16 bb
       0.0043388633 0.0036009268 -0.002378283 -0.0023037456
0000a0 a0 0c 26 b9 78 e1 f6 ba 6f f8 36 3c 5c 05 22 3c
       -0.00015835697 -0.0018835505 0.01116763 0.009888973
0000b0 00 3b e3 39 f6 57 47 ba 49 3e df b9 9e e1 d3 b9
       0.00043340772 -0.0007604355 -0.0004258028 -0.00040413154
0000c0 7e e6 7e 3c 92 c1 49 3c de 90 68 bc 56 a0 5e bc
       0.015557883 0.012314217 -0.014194695 -0.013588032
0000d0 0d ee 6b 3b a2 be 2e 3b f1 6d 31 3c 24 ef 22 3c
       0.0036000044 0.002666392 0.010829435 0.009944711
0000e0 87 fd cc 3b b4 ae 4a 3b 01 d5 45 bb fe f9 1e bb
       0.0062558088 0.0030926885 -0.0030186775 -0.0024257894
0000f0 ef 58 34 3b 5b ca 02 3b 00 06 bb 36 2c 74 95 b9
       0.002751883 0.001995704 5.573733e-06 -0.0002850605

exp_avg_sq f4 [32, 2]
000000 15 ae 95 39 88 f0 88 39 27 8b dd 3a f1 03 41 3a
       0.00028549196 0.0002611915 0.0016902433 0.0007362953
000010 5e 22 46 38 10 f7 f3 38 86 a6 6d 3a 57 bd e5 39
       4.7238886e-05 0.00011633162 0.00090656464 0.00043819353
000020 f3 6f f9 37 f2 bb b6 38 36 f5 83 3a df be 3a 3a
       2.9735244e-05 8.713444e-05 0.0010067585 0.0007123779
000030 05 64 39 39 ba 62 b0 39 3c 8b 9a 38 f8 d0 54 39
       0.00017680235 0.00033642893 7.369227e-05 0.00020295742
000040 c1 5e 24 3a 0f 4f aa 39 c6 fd fe 3a 26 28 75 3a
       0.0006270223 0.0003248383 0.0019454292 0.0009351991
000050 9e 83 ac 39 36 bb fa 39 e1 64 90 38 90 96 b8 38
       0.0003290446 0.000478232 6.885245e-05 8.801848e-05
000060 87 bf b0 39 05 49 46 39 46 3d fb 38 f6 24 f1 38
       0.00033712035 0.00018909953 0.00011980026 0.0001149866
000070 9e 5a 8a 38 72 2d 84 39 93 77 db 39 3b 81 a2 39
       6.5972315e-05 0.0002521086 0.00041860025 0.00030995332
000080 85 71 9a 38 8d 8c 1e 39 bc eb 22 3a 35 f8 bd 39
       7.364437e-05 0.00015120413 0.0006214937 0.00036233818
000090 01 97 f0 38 cc 51 60 39 03 b2 41 38 fd ae 9e 39
       0.000114722185 0.00021392776 4.6180572e-05 0.00030266485
0000a0 88 83 05 3b 17 1a 84 3a 31 bd 5b 3b 52 2d 55 3b
       0.0020372588 0.0010078576 0.0033529515 0.0032528234
0000b0 da 4b 3a 39 88 b8 e0 38 50 75 84 36 5e 7c 5c 38
       0.00017766599 0.00010715524 3.9475635e-06 5.2567913e-05
0000c0 e8 3e f9 3a b4 da 9b 3a 30 c7 49 3a be 87 26 3a
       0.001901594 0.001189074 0.0007697223 0.00063526246
0000d0 24 b2 ee 39 d4 a5 af 39 c4 94 aa 39 9c 10 9e 39
       0.00045527623 0.00033502153 0.00032535766 0.00030148483
0000e0 08 9e 5f 3a 03 8e 37 3a d6 a9 4b 39 69 52 92 39
       0.00085303234 0.00070020574 0.00019422857 0.0002790869
0000f0 50 b8 86 3a 2a 36 77 3a 6f 1b a8 38 61 27 98 38
       0.0010278318 0.00094303733 8.015974e-05 7.25526e-05

exp_avg f4 [32]
000000 f0 e3 f6 3a 64 22 73 bc 1e d8 ae bb c0 0a 11 bb
       0.0018836241 -0.014839742 -0.005335822 -0.0022131652
000010 20 13 97 3b 47 21 88 bc 5c bb 8a bc 16 cd 4e bc
       0.004610434 -0.01661743 -0.016935043 -0.0126221385
000020 a9 9b 1f bc bb 1f fd bb f0 a7 a3 39 cb 40 0c 3b
       -0.009741702 -0.00772473 0.00031214906 0.0021400924
000030 e0 57 5d 3a 64 46 ff 39 50 97 b0 bb 3c 5a c3 bc
       0.00084435754 0.00048689835 -0.0053891316 -0.023846738
000040 14 38 44 3c 35 6e 19 bc e3 ac ba 3b 3d 98 52 bb
       0.011976261 -0.009364654 0.0056968792 -0.0032134198
000050 10 df b3 ba 2e ce 6d 3c 80 c3 c0 b8 b9 ab 26 ba
       -0.0013723094 0.014514489 -9.191688e-05 -0.0006357986
000060 33 9a a1 3c 26 eb 9e bc 48 dc 8c 3b 67 2f 6f 3c
       0.019726848 -0.019399237 0.0042987205 0.014598704
000070 5f 7b dc 3b 37 ba 71 bb 8c 84 5e 3b 10 f7 3c b9
       0.006728574 -0.0036884674 0.0033953516 -0.00018021115

exp_avg_sq f4 [32]
000000 32 3b 1a 3a 0d 23 25 3b 77 94 49 39 60 b7 b2 3a
       0.00058834546 0.0025197894 0.00019224161 0.0013634972
000010 7e d7 1c 39 94 d1 ed 3a 4b 4b 0f 3a 6d de a8 39
       0.00014957596 0.0018144124 0.00054662366 0.00032209177
000020 55 0c 82 3a 8d ff 42 3b d7 3f 77 3a 86 e4 35 39
       0.0009921888 0.002975437 0.0009431815 0.00017346637
000030 a1 a7 0f 3a b5 c7 82 39 72 8f dc 39 6e 14 46 3a
       0.0005479996 0.00024944326 0.00042068545 0.0007556145
000040 a3 d5 80 39 a2 a2 87 3a 1b c7 c9 39 4c 5b 0e 3a
       0.00024573234 0.0010348151 0.00038486053 0.00054304744
000050 d3 a4 4d 3b 5c df e0 3b fd 11 9d 39 08 e3 a7 38
       0.003137876 0.006862564 0.00029958776 8.0054684e-05
000060 0b 44 4f 3b d6 b5 c0 3a d8 de 57 3a 30 8c 2f 3a
       0.003162625 0.0014702629 0.00082348054 0.000669661
000070 39 4d d3 3a ec 61 04 3a 30 95 0e 3b b6 fe 30 39
       0.0016121037 0.0005049992 0.0021756403 0.00016879555

exp_avg f4 [32, 32]
000000 91 42 8a 3a 3a 93 b4 3b c4 8e 9a ba f9 70 60 3b
       0.0010548403 0.005510715 -0.0011791815 0.0034247024
000010 b7 18 66 ba a2 ed e2 3b e1 af 1c 3b 84 c1 a8 3a
       -0.00087774865 0.0069253007 0.0023908543 0.0012875055
000020 f1 00 66 3b f0 bf 0a 3b 1e 1c 60 ba df 0e 9b ba
       0.0035095776 0.0021171533 -0.00085491117 -0.0011829993
000030 5e 3e a4 3a f8 da 55 ba ec 36 5d ba 0f 9b 9e 3a
       0.0012530794 -0.0008157934 -0.0008438665 0.0012100654
000040 b6 64 ce 3a 8a 3c 33 3a 70 09 94 38 00 89 d9 ba
       0.0015746567 0.0006837329 7.058948e-05 -0.0016596615
000050 d7 94 43 3b fe a3 c2 ba 04 da f9 3a 7a fd ea ba
       0.0029843354 -0.0014849899 0.0019062166 -0.0017928325
000060 a0 33 84 3b 88 bb 03 b9 ab 3b 70 b9 b0 41 5b ba
       0.0040344745 -0.00012562994 -0.00022910412 -0.0008363975
000070 26 88 08 3a 7b 73 96 ba a3 da 4c ba d7 42 c4 39
       0.0005208276 -0.0011478508 -0.0007814562 0.00037433833
000080 12 51 87 39 ea ca a9 3a 36 5b 8e b9 7a d6 51 3a
       0.0002580961 0.001295415 -0.00027152308 0.0008004677
000090 b8 4e 5f b9 f8 1a e1 3a 5a ee 1e 3a b2 e3 af 39
       -0.00021296262 0.0017174175 0.0006062739 0.00033548247
0000a0 f0 10 5d 3a 8c 8d 02 3a a4 c3 55 b9 3c d8 87 b9
       0.0008433005 0.00049801986 -0.00020386145 -0.00025910314
0000b0 76 7b 92 39 84 16 40 b9 06 52 56 b9 c4 ec 9b 39
       0.00027939276 -0.00018318935 -0.00020439186 0.00029740308
0000c0 29 cd c9 39 b4 97 24 39 e0 62 70 37 7c 3c dc b9
       0.00038490564 0.00015696773 1.4328136e-05 -0.00042006734
0000d0 68 e8 36 3a a4 c8 8b b9 38 d0 e2 39 94 0b d3 b9
       0.000697738 -0.00026661635 0.00043261214 -0.00040253683
0000e0 2c 5f 72 3a ca 54 f5 b7 1e 61 54 b8 01 4c 41 b9
       0.0009245749 -2.9245759e-05 -5.0635186e-05 -0.00018434228
0000f0 d8 5e f5 38 bc b3 83 b9 9b 66 32 b9 63 22 ba 38
       0.000117001764 -0.0002512018 -0.00017013626 8.875576e-05
000100 e1 8e ec b9 f3 dd 71 bb 5a 73 4a 3a 29 7d 1a bb
       -0.0004511988 -0.0036905974 0.0007722877 -0.0023573136
000110 bd a7 2a 3a 66 56 71 bb 5d 2d 7f ba 87 5f 98 b9
       0.00065099803 -0.003682518 -0.00097342377 -0.00029062873
000120 30 53 08 bb 5c 25 b9 ba 96 ee 15 3a 80 4d 36 3a
       -0.0020801537 -0.0014125514 0.0005719451 0.00069542974
000130 54 5a 8d ba de 35 cf 39 04 5a 28 3a 9e 83 23 ba
       -0.0010784366 0.0003952225 0.0006422105 -0.0006237569
000140 17 d2 1b ba ca a6 47 ba 0e 96 23 39 76 e0 85 3a
       -0.00059440866 -0.0007616101 0.00015600791 0.0010213989
000150 05 f7 0a bb 62 f2 42 3a 77 8a c2 ba 3e f0 8f 3a
       -0.0021204364 0.00074366305 -0.0014842291 0.0010981632
000160 fc 44 44 bb 00 c5 ac 38 e3 2c bd 38 1a a3 f8 39
       -0.0029948344 8.238293e-05 9.020583e-05 0.00047423766
000170 1f ad 33 ba 61 08 2b 3a 3b cb d7 39 e8 2d 01 b9
       -0.0006854105 0.0006524381 0.00041159414 -0.000123195
000180 ac 32 52 3a 60 fe d9 b8 20 95 7b b8 00 5d 7d b9
       0.0008018415 -0.000103947474 -5.9981947e-05 -0.00024162605
000190 e6 28 91 39 11 a9 29 3b ca 05 f4 3a 4f e5 e8 3a
       0.00027687027 0.0025888125 0.0018617448 0.0017768535
0001a0 b0 16 46 3a 00 32 00 b7 a0 45 e3 37 e8 b0 e7 b9
       0.0007556481 -7.641036e-06 2.709293e-05 -0.0004419156
0001b0 de 95 49 ba 0a 3b 15 ba 18 82 b1 39 5d 84 17 3a
       -0.00076898735 -0.00056926964 0.00033856998 0.00057799165
0001c0 46 78 b8 3a 41 c2 83 ba 06 f0 36 3a 40 a3 6d b8
       0.001407393 -0.0010052399 0.00069785153 -5.665724e-05
0001d0 00 e8 db b9 be 64 b7 ba 0e a3 2b ba 5c 1a e3 b9
       -0.00041943789 -0.0013991816 -0.00065474294 -0.00043316453
0001e0 74 ec 78 ba 80 1a ec 35 de a7 79 b9 f2 18 c4 b9
       -0.00094956835 1.7591083e-06 -0.00023809026 -0.0003740262
0001f0 72 f2 93 ba 76 f3 03 ba 8c 46 ef b9 52 54 dc 39
       -0.0011287464 -0.0005033532 -0.00045638194 0.00042024493
000200 b6 48 fa ba 8b dd 92 bc 3a 90 72 3b d8 79 3c bc
       -0.0019095156 -0.017927906 0.0037012235 -0.011503659
000210 a4 1f 58 3b fa b4 8c bc 6c a5 87 bb d3 22 58 ba
       0.0032977844 -0.01717614 -0.004139593 -0.00082449353
000220 d2 53 21 bc 9c 5e e0 bb 02 1a 37 3b 24 39 4c 3b
       -0.0098466445 -0.006847216 0.0027939086 0.0031161988
000230 31 6a b3 bb ef ba d7 3a 23 b9 56 3b e4 48 3a bb
       -0.0054753055 0.0016458909 0.0032764159 -0.0028424794
000240 80 af 1b bb dc df 85 bb 94 14 89 3a a6 d6 a5 3b
       -0.002375573 -0.004085524 0.0010458403 0.0050609885
000250 16 ee 2a bc 40 29 31 3b ac 6b f2 bb 37 8d a6 3b
       -0.010432741 0.0027032644 -0.0073980894 0.005082752
000260 df 80 72 bc 9e 10 d1 39 e7 36 ad 39 fb c1 09 3b
       -0.014801233 0.00039875967 0.00033038037 0.0021020162
000270 e4 49 76 bb da bf 3c 3b fe 39 e6 3a f7 5c e1 b9
       -0.0037580663 0.0028800876 0.001756489 -0.00042984608
000280 fc e4 b8 3a 02 4e 99 3c 3a 91 79 bb bb ed 46 3c
       0.0014106329 0.018713955 -0.0038080947 0.01214164
000290 b4 f5 6c bb a2 8a 82 3c c7 ae 41 3b 57 26 d7 b9
       -0.0036157193 0.015935246 0.0029553638 -0.0004103656
0002a0 80 b7 1e 3c 9b a1 e9 3b 4a 83 3f bb 88 2f 41 bb
       0.0096873045 0.0071298606 -0.0029222541 -0.0029477794
0002b0 0f d8 cc 3b f8 a5 ac ba 84 05 6e bb 23 b4 26 3b
       0.006251342 -0.0013172021 -0.0036319206 0.002543696
0002c0 de 23 be 3a 7c 12 a3 3b 99 e2 ce ba c1 83 a9 bb
       0.0014506539 0.0049765687 -0.0015784084 -0.005173177
0002d0 c7 d0 36 3c 76 80 f8 ba 54 ea 05 3c a8 c2 a3 bb
       0.011158175 -0.0018959183 0.008173544 -0.00499757
0002e0 62 c5 83 3c 7a 6e d9 b9 94 b9 3b b9 c8 db fd ba
       0.01608533 -0.00041471777 -0.00017902843 -0.0019367868
0002f0 79 a7 9a 3b a1 20 2e bb 82 ac c6 ba 85 6a 19 39
       0.0047196713 -0.0026569741 -0.0015157613 0.00014630899
000300 50 44 d3 3a e0 2c dc 39 28 8b 81 b9 00 85 aa b8
       0.0016118381 0.00041995104 -0.00024708477 -8.131005e-05
000310 4c dd db 39 d2 18 b9 3b d0 b9 75 3b 1e cc 61 3b
       0.00041935814 0.0056487108 0.0037494786 0.0034453939
000320 a0 6e ed 3a 10 e0 5f 39 60 30 35 b8 ee 03 77 ba
       0.0018114634 0.00021350407 -4.3198816e-05 -0.0009422888
000330 c6 7e a9 ba d0 ca 96 ba ce 29 09 3a eb 02 9c 3a
       -0.0012931458 -0.0011504535 0.00052323646 0.0011902725
000340 61 dc 3a 3b 5c 45 f0 ba d2 37 ad 3a 68 85 a7 b9
       0.0028512704 -0.0018331218 0.0013215488 -0.00031952118
000350 30 3b fa b9 94 df 32 bb c2 ca 85 ba a8 6b 82 ba
       -0.00047727814 -0.0027293907 -0.0010207521 -0.0009950297
000360 40 68 ad ba 98 df 94 b7 23 4f f3 b9 be 2b 4a ba
       -0.0013229921 -1.7747094e-05 -0.00046407533 -0.00077122066
000370 e7 46 07 bb 5d 07 8b ba a1 db 74 ba 51 52 5a 3a
       -0.0020641626 -0.0010607053 -0.00093405886 0.0008328306
000380 24 09 d5 39 80 6b 83 38 a0 f0 4d b8 00 13 6c b8
       0.00040633336 6.26659e-05 -4.909991e-05 -5.628448e-05
000390 08 90 d6 38 c5 ec be 3a 1d 4f 7c 3a dc 29 64 3a
       0.00010231143 0.0014566412 0.0009624826 0.00087037473
0003a0 6e 89 e9 39 90 fb 0a 38 c0 04 88 b6 f6 cc 58 b9
       0.00044543616 3.313605e-05 -4.053669e-06 -0.00020675719
0003b0 56 b6 b7 b9 3e 48 8f b9 b2 89 04 39 14 62 9b 39
       -0.0003504033 -0.0002732891 0.00012639796 0.00029636978
0003c0 2c 2f 3e 3a b0 05 fd b9 34 5e ad 39 1c 95 e8 b8
       0.0007254954 -0.00048260158 0.00033067318 -0.00011090396
0003d0 b0 bb 25 b9 13 14 1e ba 86 53 97 b9 9a a0 62 b9
       -0.00015805545 -0.0006030213 -0.00028863194 -0.00021612868
0003e0 54 03 cd b9 a0 52 29 b6 7a 02 ed b8 8c 1e 37 b9
       -0.00039103127 -2.5231056e-06 -0.00011301502 -0.0001746362
0003f0 21 21 0d ba 3b 4f 79 b9 07 ee 63 b9 1e 69 5a 39
       -0.000538366 -0.00023776006 -0.00021737079 0.0002082926

exp_avg_sq f4 [32, 32]
000000 67 dd 8e 37 78 81 36 39 6b bb 23 37 af da 9c 38
       1.7030818e-05 0.00017405103 9.759194e-06 7.479393e-05
000010 2b 75 82 37 f9 78 3d 39 a2 c0 7e 38 32 f1 72 38
       1.5551768e-05 0.0001806951 6.0737722e-05 5.7921927e-05
000020 68 67 40 38 31 a4 c7 37 36 1a c5 36 8a 38 cb 37
       4.587267e-05 2.3799106e-05 5.874109e-06 2.4225814e-05
000030 1c 41 68 38 27 ba e0 37 0f ce 98 37 f3 7f 2e 37
       5.537375e-05 2.6789565e-05 1.8215766e-05 1.0400999e-05
000040 5b ed 30 38 c0 29 a5 38 bd 7d a9 37 47 53 ea 37
       4.2182724e-05 7.87559e-05 2.0204921e-05 2.7933753e-05
000050 6c bb 9d 38 3c 8a 05 3a 72 8d 81 38 4a 94 e0 37
       7.5212534e-05 0.0005094146 6.1775456e-05 2.6771933e-05
000060 3d 1c 40 39 97 21 47 34 10 ba 86 36 0c 38 76 37
       0.00018321066 1.8545539e-07 4.0151717e-06 1.4675792e-05
000070 0b b1 c9 38 94 fd ef 37 13 b9 a3 37 3b 39 cd 36
       9.617404e-05 2.8609102e-05 1.9517296e-05 6.1161386e-06
000080 d3 77 5f 38 0d 06 3a 3a 3d e8 39 38 05 af af 39
       5.3278938e-05 0.00070962386 4.4323726e-05 0.00033509
000090 f2 84 b2 38 63 04 74 39 1b e6 03 39 c1 94 11 39
       8.5124644e-05 0.00023271288 0.00012578855 0.00013883693
0000a0 58 0e c3 38 77 cb c4 38 62 49 fb 37 a6 7d a7 38
       9.300996e-05 9.3839066e-05 2.9955703e-05 7.9865844e-05
0000b0 ef e0 b7 39 da b9 02 39 c0 5d ca 38 4b d1 d6 37
       0.0003507207 0.00012467001 9.649573e-05 2.5608248e-05
0000c0 71 f4 e2 38 da 2e 04 3a 16 e1 ba 38 fe 3e f1 38
       0.000108220505 0.0005042382 8.911097e-05 0.00011503509
0000d0 ab 14 c7 39 0b cc 2c 3b b5 9a c0 39 73 e7 e0 38
       0.00037971637 0.0026366736 0.0003673636 0.00010724263
0000e0 ae 9c 83 3a a6 df 42 35 8e fd 92 37 f5 0a 57 38
       0.0010041201 7.2596083e-07 1.7522627e-05 5.12702e-05
0000f0 a3 28 1e 3a 72 23 e5 38 09 0d a7 38 f1 ff d9 37
       0.0006033277 0.00010926173 7.9656085e-05 2.5987598e-05
000100 8a 09 73 37 3d 83 af 38 99 5f 93 36 d1 a9 f8 37
       1.448615e-05 8.369095e-05 4.3920704e-06 2.964298e-05
000110 29 90 9f 36 48 62 69 39 26 0b 99 38 24 72 89 38
       4.7553517e-06 0.00022257224 7.297685e-05 6.5539294e-05
000120 c5 1d 2d 38 a8 14 40 37 94 8b 01 36 95 91 57 37
       4.127414e-05 1.1448901e-05 1.9303743e-06 1.2848895e-05
000130 a7 76 1f 37 a7 37 31 37 6c 2a c5 36 2c ac 1d 37
       9.504764e-06 1.056298e-05 5.875996e-06 9.398016e-06
000140 01 42 3b 38 7f 2c 59 37 a7 35 40 37 cb 7f 74 37
       4.4645745e-05 1.2944568e-05 1.1456584e-05 1.4573287e-05
000150 fb c2 c4 37 fc da 00 39 02 ea 66 37 4b 80 6e 37
       2.3455816e-05 0.0001228861 1.37635525e-05 1.4215776e-05
000160 c2 4c 4b 38 49 c9 c4 33 ce 91 dd 35 d2 ed ec 36
       4.8470458e-05 9.163575e-08 1.6508218e-06 7.061034e-06
000170 ba 2e 89 37 f6 f5 61 37 fb f0 0c 37 57 c2 6f 36
       1.6353431e-05 1.3468312e-05 8.400758e-06 3.5726896e-06
000180 78 55 91 38 78 8d ae 3a ed 82 95 38 90 ff 1c 3a
       6.9300586e-05 0.0013317307 7.1292605e-05 0.00059890095
000190 9c 19 ec 38 c7 7b 41 3a cf 2e 64 39 b5 a6 66 39
       0.00011258127 0.000738081 0.00021761212 0.00021996612
0001a0 1e 1b 78 39 0c 98 3d 39 4e b5 44 38 66 4b b9 38
       0.00023661225 0.00018081086 4.6898895e-05 8.8355315e-05
0001b0 a7 77 ef 39 c2 95 02 39 8b 3b 03 39 45 30 24 38
       0.0004567478 0.00012453555 0.00012515315 3.91456e-05
0001c0 25 6a 29 39 c5 e8 1c 3a 59 06 e4 38 8b 9d 27 39
       0.00016156638 0.0005985613 0.000108730696 0.0001598505
0001d0 a2 51 26 3a 7c 39 29 3b 0c 82 09 3a ff 7c 1a 39
       0.00063445617 0.0025821617 0.0005245514 0.00014733149
0001e0 18 61 cc 3a bd d3 bb 35 a5 04 a2 37 fa 6a 63 38
       0.0015592901 1.399421e-06 1.9314068e-05 5.4220647e-05
0001f0 08 85 39 3a a1 78 eb 38 52 a4 ab 38 c5 28 f8 37
       0.0007077013 0.00011228142 8.1845224e-05 2.9582889e-05
000200 93 93 4e 38 96 17 36 3a 96 07 0d 38 22 1f 8e 39
       4.9251666e-05 0.00069462636 3.3624085e-05 0.00027107546
000210 9d 37 14 38 8a 07 82 3a 5b d6 83 39 ce b4 66 39
       3.5337744e-05 0.000992046 0.00025145974 0.00022001864
000220 22 4e 69 39 f7 e0 c3 38 7e 96 92 37 65 16 31 38
       0.00022249718 9.3402276e-05 1.7474635e-05 4.2220945e-05
000230 ee 8a e7 38 89 7c 0e 38 3b 54 20 38 9e c1 15 38
       0.00011040816 3.397142e-05 3.822542e-05 3.570469e-05
000240 c2 a0 1f 39 4a 54 ed 38 a6 7d 32 38 e4 5a a7 38
       0.00015223309 0.00011316741 4.2555526e-05 7.98011e-05
000250 3b 79 7b 39 9b a8 c4 39 83 2c 28 39 c8 5e 9c 38
       0.00023982387 0.00037509654 0.0001603831 7.456314e-05
000260 3f 51 0c 3a d4 f7 0f 35 4a f7 aa 36 d8 fe b4 37
       0.0005352683 5.363229e-07 5.095183e-06 2.1576343e-05
000270 2f 71 03 39 f2 a3 31 38 20 ad d4 37 1e af 51 37
       0.00012535298 4.2352774e-05 2.5352987e-05 1.2498143e-05
000280 7d b8 87 38 e3 f6 9a 3a 76 fc 83 38 60 c8 08 3a
       6.471665e-05 0.0011822846 6.293591e-05 0.00052178465
000290 42 8e cc 38 14 d5 44 3a 3d 80 70 39 cc c0 76 39
       9.7539756e-05 0.0007508558 0.00022935956 0.0002353221
0002a0 cd 6d 68 39 86 35 25 39 ac 34 26 38 9f 5d 9c 38
       0.00022166148 0.00015755565 3.962654e-05 7.456098e-05
0002b0 81 5e cd 39 c9 fc da 38 b3 17 e2 38 09 06 1b 38
       0.00039171058 0.00010442135 0.00010780934 3.69605e-05
0002c0 53 24 2b 39 b9 b0 03 3a 93 05 ca 38 b3 b7 1c 39
       0.00016321363 0.0005023587 9.633149e-05 0.00014945753
0002d0 6d d9 0d 3a cd bb 06 3b de a5 ef 39 10 78 06 39
       0.0005411122 0.0020558715 0.00045709213 0.00012823963
0002e0 98 16 b0 3a c4 82 8d 35 fe cc 80 37 a0 87 39 38
       0.0013434468 1.0543376e-06 1.5354246e-05 4.4233748e-05
0002f0 8a 5b 19 3a c5 41 c4 38 13 11 8b 38 a8 a4 dd 37
       0.0005850127 9.358259e-05 6.631217e-05 2.6421927e-05
000300 40 2a ce 38 6e c6 e2 3a d9 1f bf 38 89 4d 45 3a
       9.830715e-05 0.0017301568 9.113522e-05 0.0007526507
000310 34 4f 08 39 11 0a b0 3a f8 b5 c5 39 29 06 bb 39
       0.00012999476 0.0013430734 0.00037710345 0.0003567201
000320 2f d4 c0 39 75 2d 75 39 0d a9 6b 38 02 84 ec 38
       0.00036779183 0.00023381955 5.6185807e-05 0.00011277945
000330 6a 6c 08 3a b8 a4 16 39 b2 9c 16 39 c1 f9 7c 38
       0.0005204143 0.00014366477 0.00014363488 6.0314083e-05
000340 26 2d 87 39 86 7b 2c 3a 61 51 0a 39 42 36 4f 39
       0.00025782845 0.0006579686 0.00013191022 0.00019761271
000350 7c f4 48 3a e9 61 31 3b cc 19 22 3a 5d 8f 4b 39
       0.00076658255 0.0027066416 0.00061836536 0.00019412996
000360 ca 22 f4 3a 1c 7a d5 35 33 b4 ae 37 41 6a 88 38
       0.0018626091 1.5905275e-06 2.0826328e-05 6.504777e-05
000370 34 f6 48 3a b8 a9 0e 39 89 40 c3 38 34 6b 1b 38
       0.00076660817 0.000136054 9.310345e-05 3.705472e-05
000380 3d 84 bc 37 86 f3 9d 39 89 38 87 37 ce e9 06 39
       2.2472925e-05 0.00030126813 1.611958e-05 0.00012866335
000390 a2 21 d4 37 07 07 76 39 c8 1e 9f 38 b7 98 a0 38
       2.528803e-05 0.00023463006 7.587444e-05 7.65784e-05
0003a0 e7 8a 8b 38 3d 37 26 38 ef 7f 20 37 3f 26 09 38
       6.653909e-05 3.962893e-05 9.56653e-06 3.2698965e-05
0003b0 8e f2 c5 38 40 b7 19 38 0c 74 f2 37 28 94 64 37
       9.438871e-05 3.6648707e-05 2.8902687e-05 1.3624354e-05
0003c0 40 c9 62 38 dd 60 03 39 73 fe f4 37 ab 1f 37 38
       5.4070028e-05 0.00012529218 2.9205554e-05 4.3660093e-05
0003d0 ee 52 07 39 0d 6b 39 3a 59 c4 e5 38 c0 37 25 38
       0.00012905497 0.0007073142 0.000109561435 3.9390987e-05
0003e0 99 62 a8 39 f1 d2 90 34 5e ea b8 36 6e 89 a6 37
       0.00032116918 2.697557e-07 5.5109113e-06 1.9852738e-05
0003f0 9b 18 1c 39 3f cf 20 38 1b 47 dd 37 9f db 0d 37
       0.00014886486 3.8339986e-05 2.6378364e-05 8.455389e-06

exp_avg f4 [32]
000000 b3 7a da 3b ca f8 dd 3a a8 fc 7f bb ce 4d 8c 3a
       0.006667459 0.0016935107 -0.0039060507 0.001070434
000010 3f 7a 9a bc 4e 48 99 3c 24 ec 3c 3b 66 1b 37 3a
       -0.01885712 0.018711235 0.0028827274 0.00069849787
000020 08 5e b5 bc 15 65 0c 3d 3a d4 0b bb ec 24 53 bc
       -0.022139564 0.034276087 -0.0021336214 -0.012887221
000030 b4 cc 06 bd a6 e3 7f 3b 16 5c 88 bc d6 de a1 bc
       -0.032910064 0.00390456 -0.016645472 -0.019759577
000040 68 19 b0 ba 78 f5 b7 3b ad ad 22 3c dc 9a c4 3c
       -0.0013435306 0.005613979 0.009929103 0.023999624
000050 97 30 25 bd 16 af a2 bc 7c 04 a5 3b 64 c7 f3 bb
       -0.040329542 -0.019858878 0.005035935 -0.0074395407
000060 28 50 08 bd 29 6b 1d 3c 20 3c bf 3c 6a ad db 3c
       -0.033279568 0.0096080685 0.0233441 0.026816089
000070 e6 b0 4e 3c 80 69 c9 b9 24 e4 19 3c 6c f6 82 bb
       0.012615418 -0.0003841631 0.009392772 -0.003996661

exp_avg_sq f4 [32]
000000 6b eb 0f 3a 06 bd 02 3b 99 e8 c0 39 3a ff 32 3b
       0.0005490097 0.0019949093 0.00036794393 0.0027312771
000010 90 e3 b7 3a 71 6c 14 3b 5d 66 61 3b 99 a6 4d 3a
       0.0014029611 0.0022647644 0.0034393289 0.00078449544
000020 03 eb 8b 3a 79 7c 99 3b f5 4e a6 3a 2e b1 04 3b
       0.0010674897 0.0046840278 0.0012688326 0.002024721
000030 b3 45 eb 3a de f1 a5 3a b8 c0 44 3b 2c 0a e8 3a
       0.0017949849 0.0012660583 0.0030022096 0.0017703227
000040 86 97 65 3a e5 5a 87 3a 1c 17 ef 3a 1c 2b b1 3a
       0.00087582355 0.0010326771 0.001824114 0.0013516876
000050 0f 58 1b 3b c1 c5 9d 3a c4 b1 25 3a da c5 01 3c
       0.002370361 0.0012037085 0.00063207396 0.007920707
000060 71 6c 3d 3b b8 00 85 3a 7a 27 4c 3b 3e 1a 0f 3b
       0.0028903747 0.0010147309 0.003115146 0.002183571
000070 56 82 37 3b 28 c2 30 3b 70 ad 3f 3b 86 f1 3a 3a
       0.002800127 0.0026971195 0.0029247664 0.0007131327

exp_avg f4 [10, 32]
000000 1e 2a ec 3c 71 d5 22 3d 77 7c fc 3c 17 6e 14 3c
       0.028828677 0.039754335 0.030821068 0.009059451
000010 09 26 50 bd d5 35 02 bd 7a 53 9a bc a4 a4 0a 3d
       -0.050817523 -0.03178962 -0.018838633 0.03384842
000020 e8 db bb 3c e5 22 26 bd 76 3f 58 bd 96 98 46 bc
       0.022932008 -0.04056062 -0.052794896 -0.01212134
000030 95 04 05 bd 48 dc c8 3c d1 5e 31 bc 0d b1 a6 3c
       -0.032475073 0.0245191 -0.010825829 0.020348096
000040 bc 98 9e 3a c5 7e 3c 3c b2 a0 c4 bc 8a 82 85 bc
       0.0012099962 0.011504834 -0.024002407 -0.016297597
000050 4e 03 6c bd b0 7c 5c bc f0 19 10 3d e5 82 a3 bd
       -0.05762034 -0.013457462 0.035180986 -0.079839505
000060 40 59 d4 bd be 64 ab 3c 57 6a 4b bc ac 35 67 3c
       -0.103685856 0.020922061 -0.01241549 0.0141119175
000070 12 67 ca bb b8 ca a3 bd 80 87 1c 3c 0a 8d d5 3c
       -0.0061768377 -0.0799765 0.00955379 0.02606823
000080 c0 19 57 bd ea e3 31 bd 92 c1 89 bd cf 8d e9 ba
       -0.05251479 -0.043430246 -0.06726374 -0.0017818752
000090 4c 09 48 3c 53 f4 47 3d ca f0 08 3c 63 d1 45 bd
       0.012209248 0.04881699 0.00835819 -0.04829539
0000a0 b0 ff 2f bd ef 7d f0 3d 6b c3 94 3d 16 4c 56 3c
       -0.042968452 0.1174277 0.072638355 0.013079664
0000b0 4e 99 b2 3c c4 58 c8 bc b4 fe 60 3d fc 36 5b bd
       0.021801617 -0.02445639 0.054930404 -0.053519234
0000c0 c9 3f da bc c5 7e 47 bd 0c 87 fe 3a 18 46 42 3d
       -0.026641743 -0.04870488 0.0019418909 0.047430128
0000d0 a9 2d cd 3d ec 31 16 bd c3 76 7f bd f4 ef 30 3e
       0.100184746 -0.036668703 -0.06236912 0.17279035
0000e0 9d 97 44 3e 4c ee 50 bd ce 8f 2f 3d 0c ce 98 ba
       0.19198461 -0.051008508 0.042861752 -0.0011658086
0000f0 5c 2b 27 3d be 76 ea 3d f4 a1 8b bc 29 d2 26 bd
       0.040812835 0.114484295 -0.017044999 -0.040727768
000100 78 ee d1 3c a0 d5 ec 3b ac 8e 19 3d f2 05 d9 bb
       0.025626406 0.0072276145 0.037489578 -0.006623023
000110 06 74 f9 3c ea 91 a2 bc ac 9e f7 3b cc 45 91 3c
       0.030450832 -0.019844968 0.007556757 0.017733477
000120 d2 fb a5 3c 34 15 9d bd 38 76 c6 bc b0 22 00 bb
       0.020261679 -0.0767006 -0.024226293 -0.0019551925
000130 a8 95 b7 3b c0 33 19 3b 86 02 32 bd 54 6a 07 3d
       0.005602557 0.0023376793 -0.043459438 0.033060387
000140 e8 bc c8 3c 60 d4 14 3d 81 d4 a3 3c 1b 04 f4 bc
       0.02450414 0.03633535 0.01999879 -0.029787114
000150 0e 6e 48 bd 57 51 3a 3d 9c 4d f2 3c bb 5f ca bd
       -0.04893308 0.045487728 0.029578023 -0.098815404
000160 84 26 c4 bd c9 5e 00 3d a5 e0 fc bc 97 fe 30 bc
       -0.09577659 0.031340394 -0.030868838 -0.010802886
000170 67 af 0c bd 5c d9 25 bd 6a 14 e4 3b 90 e9 8a 3c
       -0.034346964 -0.040490493 0.0069604414 0.016957074
000180 08 c4 29 be ce 87 6a be db 6a 35 be 82 34 55 bd
       -0.16578686 -0.22903368 -0.17716543 -0.05205203
000190 6e d8 96 3e 74 3a 37 3e aa 0a df 3d c7 20 46 be
       0.29461998 0.17893392 0.10890706 -0.19348441
0001a0 6a 4b 06 be f5 fc 67 3e bf b8 9b 3e dd 84 8d 3d
       -0.13114706 0.22655089 0.30414388 0.06910107
0001b0 2e c1 43 3e b6 98 10 be c7 50 71 3d 36 6d ec bd
       0.19116661 -0.14120755 0.058914926 -0.11544268
0001c0 a3 33 d6 bb 4c 18 89 bd 02 5e 0f 3e 7b 2a b8 3d
       -0.0065369173 -0.066940874 0.14000705 0.089924775
0001d0 f2 08 aa 3e b9 dc a2 3d 33 4f 50 be 94 fd e6 3e
       0.3320995 0.07952256 -0.20342712 0.4511534
0001e0 f6 a9 18 3f 09 3d f4 bd 8a 02 8e 3d a1 25 aa bd
       0.5963434 -0.11925704 0.06934078 -0.083079584
0001f0 09 5e fa 3c 52 31 ea 3e 01 c1 5f bd ae 01 18 be
       0.030562418 0.45740753 -0.054627422 -0.14844391
000200 34 5d fe 3c 58 34 44 3d 65 39 00 3d f1 cf 46 3c
       0.031050302 0.04790148 0.031304736 0.012134538
000210 f6 4d 8d bd 3e fd 0f bd d9 b0 cd bc 29 46 1e 3d
       -0.068996355 -0.03515362 -0.025108742 0.03864113
000220 ca 69 c6 3c 8e 0d 0f bd 20 63 79 bd 14 74 69 bc
       0.024220366 -0.034925036 -0.06088555 -0.014248867
000230 ce b9 2c bd dd cb f4 3c f2 dc 9d bb aa 6f 99 3c
       -0.042169385 0.029882366 -0.0048175985 0.018730003
000240 78 62 38 bb d4 27 fb 3b b4 74 08 bd 59 c1 5e bc
       -0.0028134864 0.00766466 -0.03331442 -0.013595902
000250 7a 6a 81 bd 46 8a d1 bc 3f 78 1d 3d ea 1a a4 bd
       -0.06319137 -0.02557863 0.038444754 -0.08012946
000260 74 fd e3 bd ca b1 a5 3c 27 4b 1f bc 19 a4 a1 3c
       -0.11132327 0.020226378 -0.009722508 0.019731568
000270 d0 89 31 ba c2 8a ba bd 4d ea 24 3c 79 3e ee 3c
       -0.000677255 -0.09108497 0.010065627 0.029082524
000280 fd 69 4a bd 25 06 71 bd 19 36 66 bd 5e aa 33 bc
       -0.049417485 -0.05884375 -0.056203935 -0.010965912
000290 a2 36 79 3d bc 29 50 3d 42 a7 be 3c 7a 5e 5a bd
       0.060843118 0.05082105 0.023273114 -0.053312756
0002a0 29 03 23 bd e5 af a9 3d c4 9e a9 3d 74 e3 94 3c
       -0.039797936 0.08285502 0.08282235 0.018174864
0002b0 6e 01 35 3d c0 31 11 bd 4b b2 f3 3c ac 21 24 bd
       0.044190817 -0.035447836 0.029748103 -0.040071175
0002c0 0c 1c 1d bc 92 34 ef bc dc 0a e3 3c 96 dc 08 3d
       -0.009589206 -0.029199872 0.02771514 0.033413492
0002d0 40 01 c7 3d de 77 34 3b e1 b2 74 bd 16 41 13 3e
       0.09717035 0.0027537267 -0.059740905 0.14380297
0002e0 f7 91 36 3e 96 09 23 bd e1 7f dc 3c b5 d4 89 bc
       0.17829119 -0.039804064 0.026916446 -0.01682506
0002f0 78 a6 9c 3c 3e 5e 01 3e 54 4b 89 bc 2c b4 2b bd
       0.019122347 0.12633607 -0.016759552 -0.041919872
000300 12 32 23 3d f3 c5 6d 3d e4 eb 29 3d ac f1 64 3c
       0.039842673 0.058050107 0.04148473 0.013973635
000310 32 0c 9f bd 5a 4d 32 bd 76 a5 e8 bc 02 3e 43 3d
       -0.07765998 -0.0435308 -0.02839921 0.047666557
000320 2f 96 00 3d 70 87 4d bd b1 fa 99 bd 43 72 8d bc
       0.031393226 -0.05017799 -0.07518519 -0.017266398
000330 bd 72 47 bd a7 cd 12 3d 87 09 32 bc e6 5c d6 3c
       -0.048693407 0.035840657 -0.010866529 0.026167344
000340 d8 c4 31 ba 2f 6e 5c 3c 4b 04 1b bd 0e 34 a3 bc
       -0.0006781346 0.013454004 -0.03784589 -0.019922283
000350 36 0a a3 bd b1 61 cb bc 1c f6 47 3d d7 07 d8 bd
       -0.07960932 -0.024826856 0.048818693 -0.1054837
000360 e0 6f 12 be 9a 50 e0 3c 79 cb 69 bc a0 ad b9 3c
       -0.1430049 0.027382184 -0.014269703 0.022665799
000370 bb f4 85 bb e3 b9 e6 bd 58 77 5d 3c 92 57 14 3d
       -0.004088012 -0.11265924 0.013517223 0.036216326
000380 d2 c9 60 3d e7 b7 93 3d 1c b3 73 3d b3 8f 80 3c
       0.05487997 0.07212811 0.059496984 0.015693521
000390 05 a9 b2 bd 02 97 6c bd 43 13 03 bd e9 66 7e 3d
       -0.08723644 -0.0577612 -0.03200079 0.06210986
0003a0 82 3a 31 3d d6 d4 a3 bd c4 79 c7 bd 33 45 b7 bc
       0.043268688 -0.079995796 -0.09740022 -0.022371864
0003b0 28 c0 70 bd e2 db 34 3d 20 00 c7 bc 21 70 23 3d
       -0.058777004 0.04415501 -0.024292052 0.039901856
0003c0 19 f7 98 3b cd ca d2 3c f0 b4 26 bd 18 6f 02 bd
       0.004668128 0.025731469 -0.0406999 -0.03184423
0003d0 2a 30 e0 bd 99 eb 95 bc 32 8b 88 3d 94 a1 1b be
       -0.109466866 -0.018300818 0.066671744 -0.15198356
0003e0 0d 24 4a be 88 c8 27 3d 11 d6 c8 bc 3d 96 cd 3c
       -0.19740315 0.040962726 -0.024516137 0.025096053
0003f0 b2 1f 5b bc ee 68 16 be d9 1f 98 3c 2a d4 43 3d
       -0.013374256 -0.14688465 0.018569874 0.047809757
