results/Run3/PlayerRL/PlayerRL-39997.onnx (onnx, 93600 bytes, 9 tensors)

network_body._body_endoder.seq_layers.0.weight f4 [128, 32]
0	0xbe9a6638	-0.30156112
1	0x3d1b6489	0.037937675
2	0x3d3bd87a	0.045860745
3	0xbd2014d0	-0.03908235
4	0xbd46984c	-0.048485085
5	0x3de70ebc	0.11282107
6	0xbd609c48	-0.05483654
7	0x3e803caa	0.25046283
8	0x3ef5f77c	0.48040378
9	0xbc4e284f	-0.0125828525
10	0xbe171219	-0.14752997
11	0x3d49d626	0.049276493
12	0xbde0e48e	-0.10981093
13	0x3e7bf7c9	0.24606241
14	0xbe13fc92	-0.14451817
15	0x3e65ae95	0.22429879
16	0xbe4f8d52	-0.20268753
17	0x3d54871c	0.051886663
18	0x3dcabb60	0.0989902
19	0xbdbfbe27	-0.093624406
20	0x3e495aa6	0.19663486
21	0x3ea45924	0.3209926
22	0xbcad13d1	-0.021127613
23	0x3c163128	0.009166993
24	0xbd9c7dca	-0.0764118
25	0xbe38ce95	-0.18047555
26	0xbe13f335	-0.14448245
27	0xbe2c52e6	-0.16828498
28	0xbdcd53f5	-0.10025779
29	0xbe30ff02	-0.17284778
30	0x3c2e1737	0.010625652
31	0xbdd084a8	-0.10181552
32	0x3e3d22fc	0.18470377
33	0xbe0dab60	-0.13834906
34	0x3e31effa	0.173767
35	0xbd45a883	-0.04825641
36	0xbe73fc53	-0.23826723
37	0xbe2ec5f2	-0.17067698
38	0xbd43b597	-0.0477806
39	0x3dbdf636	0.09275477
40	0xbcd1981e	-0.02558523
41	0xbe32dfbe	-0.17468163
42	0x3de6280a	0.112381056
43	0xbe7069e0	-0.23477888
44	0xbe4f5446	-0.20246992
45	0x3db6e9c4	0.08931306
46	0x3cfc6199	0.030808257
47	0xbd84d725	-0.06486348
48	0xbe75d9da	-0.24008885
49	0xbd620363	-0.05517901
50	0x3e14edb1	0.14543797
51	0xbdac34ee	-0.08408533
52	0x3d5fd46d	0.054645944
53	0x3ee34f50	0.44396448
54	0x3e5aaa12	0.21353939
55	0xbde1a6ce	-0.110181436
56	0x3e32fd3f	0.17479418
57	0x3d462e70	0.04838413
58	0x3e54d4c9	0.20784296
59	0xbe163e61	-0.14672233
60	0xbe86303a	-0.2620867
61	0x3b810ba7	0.0039381566
62	0xbe88a28b	-0.2668651
63	0xbe43dde1	-0.19127609
64	0xbe86e66a	-0.26347667
65	0x3e69b697	0.22823559
66	0xbd667450	-0.056263268
67	0x3e36d2c6	0.17853841
68	0xbc38bb83	-0.011275175
69	0xbd9d720c	-0.07687768
70	0x3caa55ae	0.020792808
71	0xbe7c7c0e	-0.24656698
72	0x3dd47a53	0.10374894
73	0x3df989fd	0.12184522
74	0xbd9b26dd	-0.07575772
75	0x3e5c02c2	0.21485427
76	0xbe031bd6	-0.12803587
77	0x3d7c404c	0.061584756
78	0x3d526afa	0.051371552
79	0x3dd96ff3	0.10617056
80	0xbe1b68f5	-0.15176757
81	0x3d544d40	0.051831484
82	0xbe9d8ff0	-0.30773878
83	0x3c0ec2f7	0.008713475
84	0x3e98cc3a	0.29843313
85	0x3e0e4126	0.1389204
86	0xbe466634	-0.19374925
87	0x3da89685	0.08231834
88	0xbdf1f141	-0.11813594
89	0xbdbe441b	-0.09290334
90	0xbe114964	-0.14188153
91	0xbeacf411	-0.33779958
92	0xbe24e0c3	-0.16101365
93	0x3d564633	0.05231304
94	0x3da1e462	0.07904889
95	0x3cef0bbd	0.029180402
96	0xbe7e7ab1	-0.2485149
97	0xbe0fc383	-0.14039426
98	0xbebfd736	-0.3746888
99	0x3e181c9d	0.14854665
100	0x3e84cfc2	0.25939757
101	0x3e948ce7	0.2901375
102	0xbeaa29a6	-0.332349
103	0x3e6d8355	0.2319463
104	0xbe990a07	-0.29890463
105	0xbea58a63	-0.32332143
106	0x3e076881	0.13223459
107	0x3d05e146	0.03268554
108	0xbd8bcb70	-0.06825912
109	0x3cbfba37	0.023404224
110	0xbe09029e	-0.13379905
111	0x3e67c963	0.22635417
112	0xbddc1e19	-0.10747928
113	0xbde4fbf9	-0.111808725
114	0x3e41a5ad	0.18910857
115	0xbe9f6a26	-0.31135672
116	0xbe3019a8	-0.17197287
117	0xbe4e8fd2	-0.2017205
118	0xbc4d4ea1	-0.012530954
119	0x3e87d461	0.2652922
120	0xbe1090ce	-0.14117739
121	0xbe39e097	-0.1815208
122	0xbc379bc9	-0.011206576
123	0x3d8f6a64	0.07002714
124	0x3e3ec475	0.1862963
125	0x3e89c649	0.26909092
126	0xbe0fd416	-0.14045748
127	0xbbf2f84a	-0.0074148523
128	0xbd0ee99f	-0.034890767
129	0xbecac90c	-0.39606512
130	0xbe8786a0	-0.26469898
131	0x3d84f6d3	0.064923905
132	0xbd126a1e	-0.035745732
133	0xbde2a3af	-0.110663764
134	0xbe0d7a2d	-0.13816138
135	0xbd4bac5a	-0.049724914
136	0x3e416b9e	0.18888709
137	0x3e13c73b	0.14431469
138	0xbdd756bf	-0.105145924
139	0xbc498793	-0.01230039
140	0x3df7ba59	0.1209609
141	0x3e98bb3d	0.2983035
142	0xbe6a8a8a	-0.22904411
143	0x3ce0b4fe	0.027430054
144	0x3d3f3119	0.046677683
145	0x3dedad88	0.11605364
146	0xbe1fc2a7	-0.15601598
147	0x3ddc80cd	0.10766754
148	0xbec75f01	-0.3893967
149	0x3d78cd02	0.060742386
150	0xbda4c157	-0.08044689
151	0x3e8ed0d3	0.27893695
152	0x3bd42007	0.0064735445
153	0x3d313f4a	0.043273248
154	0x3e30b233	0.17255478
155	0xbdafc2e3	-0.085820936
156	0x3e966912	0.29377037
157	0x3e95f34a	0.29287177
158	0x3ead3fd8	0.3383777
159	0xbe817f99	-0.25292662
160	0x3c466797	0.012109659
161	0x3dccf377	0.10007375
162	0xbc730451	-0.014832572
163	0xbc75fe06	-0.015014177
164	0xbe3c84c2	-0.18410018
165	0xbe117f95	-0.14208825
166	0xbde75a80	-0.112965584
167	0xbd8c2c63	-0.068444036
168	0xbe19289b	-0.14956896
169	0x3dd92f9f	0.10604786
170	0xbda94821	-0.082657106
171	0xbcaf493c	-0.021397226
172	0x3de7c4e7	0.11316853
173	0xbd7b115f	-0.061295863
174	0x3e363553	0.17793779
175	0x3e2cbf68	0.1686989
176	0x3e6d1675	0.23153098
177	0x3d8bd857	0.06828373
178	0xbe27f858	-0.1640333
179	0xbe079e04	-0.13243872
180	0xbcb5af5d	-0.022178346
181	0x3e326825	0.1742254
182	0xbeb897cf	-0.3605332
183	0xbe388b5e	-0.18021914
184	0xbe09cb13	-0.13456373
185	0xbd9c1d54	-0.076227814
186	0xbbf5416a	-0.0074846046
187	0x3dae5e7e	0.08514117
188	0x3eaddacf	0.33956
189	0xbe214a4c	-0.15750998
190	0xbe0ba309	-0.13636412
191	0x3e16e297	0.14734875
192	0x3eee523f	0.46547124
193	0x3cda6e5b	0.02666395
194	0x3d8225ef	0.063548915
195	0x3e3dd336	0.18537602
196	0xbd479062	-0.04872168
197	0x3e8f276a	0.27959758
198	0x3eeabacd	0.45845643
199	0x3dde7439	0.108620115
200	0xbd9a2cec	-0.075280994
201	0x3ce84ab5	0.028355936
202	0x3d4f18d2	0.05056078
203	0x3cbce3da	0.023057867
204	0xbe3aa910	-0.18228555
205	0x3e6094a1	0.21931697
206	0xbe5a7e58	-0.21337259
207	0xbbe174bf	-0.0068803723
208	0x3ea3b311	0.31972554
209	0x3e74659a	0.23866883
210	0xbe549923	-0.20761542
211	0x3eb9dc77	0.36301014
212	0x3d7ac5b9	0.06122372
213	0x3d8c65a3	0.06855323
214	0x3d3f3d68	0.04668942
215	0x3d78d19d	0.060746778
216	0x3cb27728	0.021785334
217	0xbdf0cf77	-0.11758321
218	0x3e9c5c63	0.30539235
219	0xbe8001d5	-0.25001398
220	0xbe035126	-0.12823924
221	0xbeafbecb	-0.3432525
222	0xbe2ea001	-0.17053224
223	0x3defeb16	0.11714761
224	0xbbfe3497	-0.007757734
225	0x3db11403	0.08646395
226	0x3e04c515	0.12965806
227	0xbd6d818b	-0.05798487
228	0x3e4224af	0.18959306
229	0xbd242470	-0.040073812
230	0x3d386ff8	0.045028657
231	0xbda1b7fa	-0.07896419
232	0x3e6c947a	0.23103514
233	0xbe5a224c	-0.21302146
234	0x3ceb7290	0.028741151
235	0xbe60b0db	-0.21942465
236	0x3cee4f0d	0.029090429
237	0xbd29af8b	-0.041427176
238	0x3e03e7c6	0.12881383
239	0x3e49c997	0.19705807
240	0xbeb6d752	-0.3571115
241	0x3c9d669a	0.019213963
242	0xbe977f38	-0.29589248
243	0xbc030200	-0.007996082
244	0x3d0a7f22	0.03381265
245	0x3e679ebe	0.22619149
246	0x3db48c01	0.08815766
247	0xbe522913	-0.20523481
248	0xbca07bf3	-0.019590354
249	0xbb1c5c3d	-0.002385869
250	0x3e018f24	0.1265226
251	0x3e88b4c2	0.26700407
252	0x3c3bb23f	0.011456071
253	0x3e084619	0.1330799
254	0x3e711b10	0.2354548
255	0x3e534418	0.20631444

network_body._body_endoder.seq_layers.0.bias f4 [128]
0	0xbbbca7f3	-0.005757326
1	0x3b37cf4b	0.002804714
2	0xbad4c623	-0.0016233366
3	0x3c2dc84e	0.010606838
4	0x3b85f4f7	0.00408804
5	0x3797a7bd	1.8078712e-05
6	0x3b1a3c73	0.0023534566
7	0x3b06c3e7	0.0020563544
8	0xbb8154d2	-0.003946879
9	0x3aaaaca0	0.0013021417
10	0xbb2b8004	-0.0026168833
11	0x3c164e6b	0.00917397
12	0x3b437b33	0.002982807
13	0xbb7b29ee	-0.0038324553
14	0x3b5504a6	0.0032503991
15	0xbbd06579	-0.0063597527
16	0x3b3bedc7	0.0028675662
17	0x3be5afd1	0.0070094843
18	0x3b10b179	0.0022078438
19	0x3a3ba7ae	0.000715847
20	0x3914f094	0.00014204002
21	0xbb045511	-0.0020192305
22	0xbb865c5f	-0.004100367
23	0xbb52de1a	-0.003217584
24	0xbad88bca	-0.0016521153
25	0xba5029fd	-0.0007940827
26	0xbb1ccbe3	-0.0023925237
27	0xbb0f8a32	-0.002190244
28	0x3a14c8c6	0.00056756695
29	0x3b4a069e	0.0030826698
30	0xbb559a5a	-0.0032593221
31	0x3b80630d	0.003918058
32	0x3bec5f37	0.007213499
33	0x3b8798bf	0.004138082
34	0xba467b1f	-0.0007571447
35	0x3b9a4172	0.0047075087
36	0x38e52840	0.00010927068
37	0xbb6ac99a	-0.003582573
38	0x3abf1788	0.0014579156
39	0x3b91f5de	0.0044543585
40	0xb79a9dc4	-1.8431696e-05
41	0x3b4482e6	0.0029985248
42	0x3bfd294d	0.0077258707
43	0x3b41e460	0.0029585585
44	0xbad84adb	-0.0016501801
45	0x3bf99502	0.00761664
46	0xba16ba03	-0.0005749764
47	0x3b0789fe	0.0020681615
48	0x3a2a56b3	0.00064979045
49	0x3ae212c3	0.0017248023
50	0x3b805295	0.0039160945
51	0xbbda0428	-0.0066533275
52	0x3ade719e	0.0016971116
53	0x3be0efc5	0.0068645203
54	0xbbaa3ec4	-0.0051954705
55	0x3b9aa3ea	0.004719247
56	0xbbd0f446	-0.006376776
57	0xbb3d97a9	-0.0028929508
58	0x3bf5e4e2	0.0075040916
59	0x3aaab0a5	0.0013022615
60	0xbbe8de5c	-0.0071065854
61	0x3b717d75	0.003684846
62	0xbaf9ffd0	-0.001907343
63	0x3996bd72	0.00028751377
64	0x39cd9090	0.00039208354
65	0x35010ba0	4.807316e-07
66	0xbacb66eb	-0.0015518343
67	0xbb53fda8	-0.0032347236
68	0x3b718549	0.0036853126
69	0xb97108ea	-0.00022986872
70	0x3b369ae0	0.0027863309
71	0xba4a8f50	-0.00077270437
72	0xba22e685	-0.00062141597
73	0xbbe8fc51	-0.0071101566
74	0xbba428dd	-0.005009754
75	0xbb1e198f	-0.002412412
76	0x3aebc07a	0.001798644
77	0x390f47bc	0.00013664266
78	0x3a78db44	0.00094931223
79	0x3a84f9b6	0.001014522
80	0xbae94f52	-0.0017800129
81	0xba9e54a6	-0.001207967
82	0xbb17459f	-0.002308227
83	0xbbac5dbb	-0.005260197
84	0x3a9930f2	0.001168756
85	0xba0c5b6c	-0.0005354199
86	0x3a227c99	0.0006198376
87	0x3a2db3d9	0.00066262257
88	0x3bb57037	0.0055370587
89	0xbbf61297	-0.0075095403
90	0xb982694d	-0.00024873987
91	0x3b470e36	0.003037346
92	0x3ae1989c	0.0017211619
93	0x3b871791	0.0041226824
94	0xbbbd14dd	-0.0057703094
95	0x3aca1405	0.0015417343
96	0x3ad1e74a	0.0016014364
97	0x3bbbdf30	0.005733393
98	0xbb3a3408	-0.002841236
99	0xbb36effb	-0.0027914036
100	0xbacfe2d6	-0.0015860449
101	0x3b84fee6	0.0040587066
102	0xb8fbff26	-0.00012016138
103	0xb9bc3d06	-0.0003590362
104	0x3bb25c75	0.0054431506
105	0xb9afa1d2	-0.00033499167
106	0xb9dca30a	-0.00042083143
107	0x39c81a76	0.00038166688
108	0xbb4d74d2	-0.0031350148
109	0xb9949045	-0.0002833625
110	0xba42c835	-0.0007430346
111	0x3afe247c	0.0019389535
112	0xbac7016e	-0.0015182921
113	0x3a7d2163	0.0009656159
114	0xbb629a91	-0.0034576992
115	0x3b793f4d	0.0038032115
116	0xba50b566	-0.0007961601
117	0xbb2dc273	-0.0026513606
118	0xb9a84a4a	-0.00032098807
119	0xbab47373	-0.0013767317
120	0xba144a37	-0.0005656811
121	0x3b3f989c	0.002923525
122	0xbab00d7d	-0.0013431754
123	0xba38e4e9	-0.0007053153
124	0x3a3db2ea	0.0007236438
125	0xbb6e84f5	-0.0036395167
126	0xbabff96e	-0.0014646479
127	0xb96c7acd	-0.0002255246

network_body._body_endoder.seq_layers.2.weight f4 [128, 128]
0	0xbcb7ce22	-0.022437159
1	0x3d9d1a78	0.07671064
2	0xbe2d9544	-0.16951472
3	0x3cbf86c0	0.023379683
4	0x3db8a991	0.09016717
5	0xbdc13ebe	-0.09435795
6	0x3c52328e	0.012829436
7	0xbdb458b6	-0.08805983
8	0xbe3175ba	-0.17330065
9	0x3caff662	0.02147979
10	0x3d2c9227	0.04213157
11	0xbc8e1e8e	-0.017348554
12	0xbc9ebc1f	-0.019376813
13	0x3d3ecfcf	0.0465849
14	0x3ca04ad9	0.01956694
15	0xbd9924a9	-0.074776955
16	0x3d780ec4	0.060560957
17	0x3db0df15	0.086362995
18	0xbd60b35b	-0.054858547
19	0xbd91d3e0	-0.0712049
20	0xbdba544f	-0.09098112
21	0x3d281320	0.041033864
22	0x3d30fc37	0.04320928
23	0xbe69e639	-0.22841729
24	0x3a914b09	0.0011084984
25	0xbdce4e3c	-0.10073516
26	0x3d82a6c9	0.06379468
27	0x3d949399	0.072547145
28	0xbd268646	-0.040655397
29	0x3db8a9f3	0.0901679
30	0x3c92c23d	0.017914886
31	0xbd340cd8	-0.04395756
32	0x3d0009db	0.0312594
33	0xbd689a0c	-0.056787536
34	0x3dc422c3	0.09576943
35	0xbd97d202	-0.07413103
36	0xbd0bf864	-0.03417243
37	0x3d7b2f1d	0.061324228
38	0xbbd07bc3	-0.00636241
39	0x3d219625	0.03944983
40	0x3b289774	0.0025725039
41	0xbdcbb30f	-0.09946262
42	0xbddc8068	-0.10766679
43	0xbd03cd32	-0.03217811
44	0xbd3b66e6	-0.04575243
45	0xbcd747df	-0.026279388
46	0xbd314f0e	-0.043288283
47	0xbdb19583	-0.08671095
48	0x3d4b2363	0.049594294
49	0xbc4dc56e	-0.012559278
50	0x3dea875e	0.114516005
51	0x3d4f175b	0.050559383
52	0x3de55f0e	0.11199771
53	0x3db6f251	0.08932937
54	0xbd31b5f4	-0.043386415
55	0x3d2efd36	0.04272195
56	0x3dad0b6a	0.08449443
57	0x3cb5928a	0.022164602
58	0x3d2fbf3c	0.042906985
59	0xbe128206	-0.14307413
60	0xbd9001d1	-0.070315965
61	0xbc593600	-0.0132575035
62	0x3cb2407d	0.021759266
63	0x3c813ae7	0.015775157
64	0xbc112284	-0.008858327
65	0x3e7d4846	0.24734601
66	0x3d316e1a	0.04331789
67	0x3cda6f59	0.026664423
68	0x3d56c934	0.052437976
69	0x3d11b480	0.03557253
70	0xbd3e8d4d	-0.046521474
71	0x3c2c9fa3	0.010536107
72	0x3d971dc7	0.073787265
73	0x3e2c8177	0.16846262
74	0xbdc89013	-0.09793105
75	0x3bfddf38	0.007747557
76	0x3d62bed9	0.055357788
77	0xbd8ee33e	-0.06976937
78	0xbbf8d796	-0.007594059
79	0xbdb3d572	-0.08780946
80	0x3dc5ba41	0.09654666
81	0xbe165ebf	-0.1468458
82	0xbe03201c	-0.12805218
83	0x3d496a8a	0.04917387
84	0xbe36f132	-0.17865446
85	0xbcfcec92	-0.030874524
86	0xbd346cd8	-0.044049114
87	0x3cf7d4ba	0.030252803
88	0xbcbc0678	-0.022952303
89	0x3dc62ace	0.09676133
90	0x3c625736	0.013814738
91	0xbe5cbcdd	-0.2155642
92	0x3da7c1d7	0.08191269
93	0x3cd7bdd5	0.026335636
94	0x3cff89ee	0.0311937
95	0x3dc962ba	0.09833284
96	0xbc42b437	-0.011883787
97	0xbe10c46b	-0.14137428
98	0x3bccaa82	0.006245912
99	0xbc3fa1c7	-0.011696286
100	0x3d5fb49a	0.054615594
101	0x3dafae08	0.08578116
102	0xbd2767bf	-0.040870424
103	0xbe465c4d	-0.19371147
104	0xbc0d445c	-0.008622255
105	0x3e09b755	0.13448842
106	0xbd71632f	-0.05893248
107	0xbe186a18	-0.14884222
108	0xbd17587c	-0.03694962
109	0xbc58a3d4	-0.013222653
110	0xbdb439b0	-0.088000655
111	0xbc8e335e	-0.017358478
112	0x3e8cd8d0	0.27509165
113	0xbbc54354	-0.006019989
114	0x3dbd75b6	0.09250967
115	0xbd47e679	-0.04880378
116	0x3e2826d1	0.16421057
117	0xbe19ee6c	-0.15032357
118	0x3e105156	0.14093527
119	0x3d0aab71	0.033854906
120	0x3d745aa1	0.059656743
121	0x3d891ed7	0.06695335
122	0xbc970cac	-0.01843866
123	0x3d63e46a	0.055637754
124	0xbd04c2d1	-0.032412354
125	0xbde61c06	-0.11235814
126	0xbc863022	-0.016380373
127	0xbd75b68f	-0.059988555
128	0xbe237ab0	-0.1596477
129	0x3ddcdf18	0.10784739
130	0x3d091299	0.033465
131	0x3e63ece9	0.22258343
132	0xbd982ed5	-0.074308075
133	0xbd74952b	-0.05971257
134	0x3c78d777	0.01518809
135	0xbb396501	-0.0028288963
136	0x3bf33954	0.0074226055
137	0xbdcd6425	-0.10028867
138	0xbe3700d5	-0.17871411
139	0xbad49fde	-0.001622196
140	0xbdb79f8a	-0.089659765
141	0xbbd79d33	-0.006580019
142	0xbd921ceb	-0.07134422
143	0xbcfc08fb	-0.030766001
144	0x3df2e9de	0.11861013
145	0xbd8c8a3c	-0.068623036
146	0xbd3c804e	-0.0460208
147	0x3d2bbfce	0.041930966
148	0x3dc6c8d0	0.09706271
149	0x3d5c4869	0.053779993
150	0x3de0c9c7	0.10975986
151	0x3d04a7dc	0.032386646
152	0xbda28746	-0.079359576
153	0xbcddde95	-0.027083674
154	0x3d952167	0.072817616
155	0xbde1ffbf	-0.11035108
156	0xbe25968a	-0.16170707
157	0x3cac00f8	0.020996556
158	0x3cf359e0	0.029705942
159	0x3d924fad	0.07144103
160	0x3d11f7a6	0.035636567
161	0x3cc66706	0.024219047
162	0x3d87c0c9	0.06628568
163	0xbb8a6c82	-0.004224361
164	0xbcaf45f5	-0.021395663
165	0x3d8f4d45	0.0699716
166	0xbc8fb4e1	-0.017542304
167	0x3d6bf660	0.05760801
168	0xbd38aad9	-0.045084808
169	0xbbfb3f1b	-0.007667435
170	0x3dfd4b9e	0.123679385
171	0xbd7b964b	-0.061422627
172	0x3d9a3b1e	0.07530807
173	0xbd1ff482	-0.03905154
174	0xbd2b2ce3	-0.041790854
175	0xbb928e71	-0.0044725467
176	0x3cb1a489	0.021684902
177	0xbcc2b51e	-0.023768004
178	0x3dbda3d3	0.092597626
179	0x3cd8d50a	0.026468772
180	0xbbb5cde2	-0.005548225
181	0xbd8a7a93	-0.067616604
182	0x3d7a0c3e	0.06104683
183	0xbde22e48	-0.11043984
184	0x3c9e3be5	0.01931567
185	0xbde66776	-0.11250202
186	0xbd89ac07	-0.06722265
187	0xbe3478a6	-0.17624149
188	0x3ce28c83	0.027654892
189	0x3b333686	0.002734573
190	0x3d321305	0.04347517
191	0xbd06ec08	-0.03293994
192	0xbda41063	-0.08010938
193	0xbdfbd8aa	-0.12297185
194	0xbe24bca7	-0.1608759
195	0xbdc1307c	-0.09433076
196	0xbb81bd87	-0.003959361
197	0x3deb3668	0.114849865
198	0xbd5e1ad2	-0.054224797
199	0xbc8ed2b9	-0.017434465
200	0xbc5041f3	-0.012711036
201	0x3de13354	0.10996118
202	0xbbf8d89c	-0.007594181
203	0x3ba22b24	0.0049489904
204	0xbdbda275	-0.09259502
205	0xbdd32287	-0.1030932
206	0x3e4f07c0	0.202178
207	0x3d8087e4	0.06275919
208	0x3b805684	0.0039165635
209	0x3a8e26a7	0.001084526
210	0x3e279daf	0.16368745
211	0xbd9e0b1d	-0.077169634
212	0x3d7c68f2	0.06162352
213	0xbcffc538	-0.03122197
214	0xbda239eb	-0.07921203
215	0x3d879a38	0.06621212
216	0xbd23d592	-0.0399986
217	0x3e6872ba	0.22700015
218	0xbe2eadc9	-0.17058481
219	0x3d84a318	0.0647642
220	0xbd5e6d18	-0.05430326
221	0xbcead187	-0.028664364
222	0x3cda0f29	0.026618557
223	0xbd1d44be	-0.038395636
224	0x3dad669d	0.084668376
225	0x3b8d34f7	0.0043092924
226	0x3dd94fa9	0.10610897
227	0xbc8c3210	-0.017113715
228	0xbdd9bc2a	-0.106315926
229	0xbddeebdb	-0.108848296
230	0x3e3a51c8	0.1819526
231	0x3dd37c46	0.10326438
232	0xbc2449f3	-0.0100273965
233	0x3cb69831	0.022289367
234	0xbc93558d	-0.01798513
235	0xbc86f6ec	-0.016475163
236	0xbd1f20ce	-0.038849644
237	0xbe1bce3c	-0.15215391
238	0x3d16dfb6	0.03683444
239	0xbc6a440c	-0.01429845
240	0xbe62c5f0	-0.2214582
241	0xbce6d894	-0.028179444
242	0xbcc83f2c	-0.024444185
243	0x3d40b42c	0.047046825
244	0xbbe2a677	-0.006916817
245	0xbcbf2775	-0.023334244
246	0xbcfbc8b7	-0.030735357
247	0x3c3eb83d	0.0116406055
248	0x3ddcbc34	0.107780844
249	0x3e8e32c8	0.27773118
250	0xbcad5c74	-0.02116225
251	0x3da27879	0.079331346
252	0xbdbc528c	-0.09195432
253	0xbd7b429e	-0.061342828
254	0x3d23c53d	0.039983023
255	0xbce4e67f	-0.02794194

network_body._body_endoder.seq_layers.2.bias f4 [128]
0	0xba8b6997	-0.0010636327
1	0xbb0095a1	-0.0019620436
2	0x3b8a8503	0.004227282
3	0x3b8d7571	0.0043169786
4	0x3ad0f426	0.0015941903
5	0xba4aa6f8	-0.0007730569
6	0xb7bc32a2	-2.2434924e-05
7	0xba36efb8	-0.000697847
8	0xbac4ab3c	-0.0015004645
9	0xbb164ce4	-0.0022934014
10	0x3af82a9b	0.0018933596
11	0xb9ff1091	-0.00048649733
12	0x3a0bbc1b	0.0005330459
13	0x3b9983f6	0.0046849204
14	0xba14a4de	-0.0005670319
15	0x3b8dbdd0	0.004325606
16	0x3889d17a	6.571687e-05
17	0xb9bae0af	-0.00035644087
18	0xbb9ffcd9	-0.0048824367
19	0xbaae12e6	-0.0013280779
20	0x3b998488	0.0046849884
21	0xbb636202	-0.0034695868
22	0xbbd4039c	-0.006470157
23	0xb920d693	-0.00015338724
24	0x3b4f388e	0.0031619403
25	0x3a93e0c3	0.0011282194
26	0x3b9f4710	0.004860766
27	0xbbde4013	-0.0067825406
28	0x3a8e8a95	0.0010875041
29	0x3ae6c38d	0.0017605886
30	0x39de57e6	0.0004240863
31	0xbba4cde6	-0.005029428
32	0xb9cdfa3e	-0.00039287092
33	0x3b8d529c	0.0043128263
34	0xbbab9b88	-0.0052370466
35	0xbb13d5a6	-0.0022557764
36	0xbac206fc	-0.0014803107
37	0xbb325cdd	-0.0027215995
38	0x3b994d79	0.004678425
39	0x39c323d9	0.00037220007
40	0x3aa5c25a	0.0012646422
41	0xba5887e0	-0.0008259993
42	0x3a1e7397	0.0006044446
43	0x394d9e84	0.00019609375
44	0xbb289967	-0.00257262
45	0xbad8cc91	-0.0016540458
46	0x3b671156	0.0035258136
47	0x3aa85edd	0.0012845654
48	0xbab3c275	-0.0013714569
49	0xba1e26d0	-0.0006033005
50	0x39bb083b	0.00035673552
51	0x3b3f1006	0.0029153838
52	0xbb1772cc	-0.0023109196
53	0xb847e001	-4.7653917e-05
54	0xbbaf6030	-0.0053520426
55	0x3ae0b812	0.0017144701
56	0x3b6bc309	0.0035974404
57	0x3b8a9edc	0.0042303633
58	0x3c08ed9a	0.00835743
59	0xbac535ec	-0.0015045977
60	0xba36aabe	-0.00069681916
61	0xbad5a7d0	-0.0016300622
62	0xbb40645e	-0.0029356699
63	0xba530dc9	-0.00080510654
64	0xbaaffde6	-0.0013427108
65	0x3a254c40	0.00063056126
66	0xb89005c3	-6.867528e-05
67	0x3b9a95f7	0.0047175842
68	0x3aafa932	0.0013401865
69	0xba93b04f	-0.0011267754
70	0x3b72a415	0.003702407
71	0x3af4c40d	0.001867415
72	0x3a346679	0.00068817247
73	0x3bd545fb	0.0065085865
74	0xbb452239	-0.0030080213
75	0x3b380efd	0.0028085106
76	0xbb50f26a	-0.0031882771
77	0x3b0e6ef0	0.0021733604
78	0x3af5ff23	0.0018768053
79	0xbb22ad6d	-0.0024822608
80	0x3b60cc25	0.0034301367
81	0xba547c39	-0.0008105669
82	0xba923f08	-0.0011157701
83	0xbb403e03	-0.0029333837
84	0x38d55b91	0.00010173687
85	0xbb02250d	-0.001985851
86	0x39781d03	0.00023661931
87	0xbb8a7fe0	-0.0042266697
88	0x3bc9b85c	0.0061560106
89	0xba93cf40	-0.0011276975
90	0xbb8f3f49	-0.004371558
91	0xbb1ba5e9	-0.0023750013
92	0x3aaf6ad5	0.0013383279
93	0xbacd9eaa	-0.0015687544
94	0xbb2888de	-0.0025716345
95	0x3b26a3af	0.0025427153
96	0x3822f94f	3.8855997e-05
97	0x3b49ed17	0.0030811483
98	0xba0aaf95	-0.0005290446
99	0xbb12c08a	-0.0022392594
100	0x3a5731a8	0.00082089985
101	0x3b884884	0.004159035
102	0x3a1faa35	0.00060907315
103	0xba6a6239	-0.0008941028
104	0xbb16d690	-0.0023016073
105	0xba39d414	-0.0007088792
106	0x3ab29a40	0.0013626292
107	0xba65eb65	-0.0008770733
108	0xba73cf67	-0.000930062
109	0x3b1387d7	0.0022511387
110	0x3bac1622	0.005251662
111	0x399060fc	0.0002753808
112	0x3b88f3f9	0.0041794744
113	0xbaf22dd7	-0.0018476796
114	0x3bea31ef	0.007147066
115	0xbc05507b	-0.008136864
116	0x3addce36	0.0016922418
117	0x3b129208	0.0022364873
118	0xba8ec91a	-0.0010893673
119	0x3a283b8c	0.00064175646
120	0xbb858e2d	-0.0040757866
121	0xbae4b314	-0.0017448389
122	0xba339130	-0.0006849943
123	0xb7808170	-1.5319063e-05
124	0x3ad9a552	0.0016605055
125	0x3ba75f8b	0.005107825
126	0xbb65d37a	-0.0035068677
127	0x38fb6901	0.00011988171

action_model._continuous_distribution.log_sigma f4 [1, 2]
0	0xbb65ca56	-0.0035063229
1	0x3ba50de3	0.005037056

action_model._continuous_distribution.mu.weight f4 [2, 128]
0	0x3c9bf85d	0.019039327
1	0xbb405161	-0.002934538
2	0x3b30c640	0.0026973635
3	0xbc32af7f	-0.010906099
4	0xba88a849	-0.001042613
5	0xbc509107	-0.01272989
6	0x3c677fc2	0.014129581
7	0xbc0d4b2c	-0.008623879
8	0xbc6b77b7	-0.014371804
9	0x3c90e558	0.017687485
10	0xbca0666f	-0.019580094
11	0x3c595cbe	0.01326674
12	0xbb34fbba	-0.002761586
13	0xbad0daa2	-0.0015934298
14	0xbcf44620	-0.029818594
15	0xbaf355ac	-0.0018564961
16	0xbc9560ab	-0.018234571
17	0x3b709d20	0.0036714748
18	0xbba388d4	-0.0049906764
19	0xbc8c9c0c	-0.017164253
20	0x3b8fa954	0.004384199
21	0xbbb230ad	-0.0054379315
22	0x3bbe6c13	0.0058112233
23	0x3c318551	0.010835008
24	0x3d3b66ee	0.04575246
25	0xbbeba760	-0.0071915835
26	0xbb22d19b	-0.0024844173
27	0x3aaddf42	0.0013265389
28	0xbaee616d	-0.0018186994
29	0xbb98befe	-0.00466144
30	0x3b178038	0.0023117196
31	0x39b1884e	0.00033861626
32	0x3b74a1dd	0.0037327923
33	0x3b95d707	0.0045727524
34	0x3c582c0c	0.013194095
35	0x3b484cd6	0.0030563376
36	0xbc341a0d	-0.010992539
37	0x3ceaf05b	0.028679064
38	0x3cede605	0.029040346
39	0xbc01ce9d	-0.007922796
40	0x3c484921	0.012224467
41	0x3c53b79b	0.012922193
42	0x3c38d5c8	0.011281438
43	0xbc3c9853	-0.011510926
44	0x3bf56392	0.0074886763
45	0x3cad1a19	0.021130608
46	0xbcc988b5	-0.02460132
47	0xbd3bc958	-0.045846313
48	0x3c054777	0.008134714
49	0x3bc6592a	0.0060531097
50	0xbc7e874c	-0.015535187
51	0xbc1e399d	-0.009657291
52	0x3bccb007	0.00624657
53	0xbc2ab6ef	-0.010419591
54	0x3c4d19c2	0.012518348
55	0x3b0e899c	0.0021749502
56	0x3b1b3c92	0.0023687226
57	0xbcc3befb	-0.023894778
58	0xbb8c7c30	-0.0042872652
59	0xbca6f68a	-0.02038123
60	0xbd25f009	-0.04051212
61	0x3c0a1675	0.008428206
62	0x3b369e69	0.0027865416
63	0x39890900	0.00026137382
64	0x3c2437b3	0.010023045
65	0xbc937828	-0.01800163
66	0x3d0b9503	0.034077656
67	0x3b32abeb	0.0027263116
68	0xbc5f22d8	-0.013619147
69	0x3ba9eb82	0.0051855454
70	0xbb9f510c	-0.0048619565
71	0xbb9b3540	-0.0047365725
72	0xbc77b5ec	-0.015119057
73	0xbc5d5355	-0.013508637
74	0x398e1118	0.00027097086
75	0x3be6f65a	0.0070484104
76	0x3b17fc64	0.0023191208
77	0xbad363c5	-0.0016127756
78	0xbc355152	-0.011066752
79	0x3c83cb13	0.016088044
80	0x3bbdbe12	0.0057904804
81	0xbc6d7fd2	-0.014495807
82	0xba9f743e	-0.001216538
83	0x3c29d8e7	0.010366655
84	0x3c89afdd	0.016807491
85	0x3b0d0c8c	0.002152237
86	0xbc67e557	-0.0141538
87	0x3cd521fc	0.026017182
88	0x3a632ae2	0.0008665753
89	0xbb2648cf	-0.0025372987
90	0xbc009317	-0.007847569
91	0xbc0ff975	-0.008787503
92	0xbc3bd2e0	-0.011463851
93	0xbb8a03a5	-0.0042118602
94	0xbbde6c6a	-0.0067878263
95	0x3cc456ae	0.023967113
96	0x3c1ccbdb	0.009570087
97	0xbae10982	-0.0017168971
98	0x3c7d2c3f	0.015452444
99	0x3ca01546	0.019541394
100	0x3b8ae64a	0.0042388784
101	0xbb4f5397	-0.0031635517
102	0x3b5b6d6e	0.0033481973
103	0x3b83e688	0.004025284
104	0x3ca3c7d5	0.019992748
105	0xbc333bc7	-0.010939545
106	0xbc8d450b	-0.017244836
107	0xbd0441c8	-0.032289296
108	0xbd3175d0	-0.043325245
109	0xbb586c5b	-0.003302357
110	0x3cf9b577	0.030482037
111	0xbc949c64	-0.01814098
112	0xbb9a7794	-0.004713962
113	0xbbc4d158	-0.006006401
114	0x3c82502c	0.01590737
115	0x3c937e9e	0.018004712
116	0x3b8b0100	0.0042420626
117	0x3ccc4860	0.024936855
118	0xbb7e0b53	-0.0038764074
119	0x3af0986c	0.0018355972
120	0xbc7d8611	-0.015473858
121	0x3ad1a9a8	0.0015995996
122	0x3c751f5c	0.01496109
123	0x3b232e32	0.002489936
124	0x3cae388a	0.021267194
125	0xbcb0e323	-0.021592682
126	0x3bd531fe	0.0065062037
127	0xbd12719b	-0.035752874
128	0xbc9818c0	-0.01856649
129	0xbcf4834b	-0.029847762
130	0xbc373b87	-0.011183626
131	0x3ca331f1	0.019921275
132	0xbbeabca5	-0.0071636015
133	0x3c265c4a	0.010153839
134	0x3d0c9f73	0.03433175
135	0xbd167769	-0.036734972
136	0xbc43658c	-0.011926066
137	0xbc1fcea8	-0.0097538605
138	0x3acfa323	0.0015841465
139	0xbbc230f7	-0.005926247
140	0x3c0bf68f	0.008542671
141	0xbcb98ceb	-0.022650203
142	0x3c2ed6b1	0.010671304
143	0xbac8e18f	-0.0015326011
144	0x3c87bd44	0.016569741
145	0xbc7a8ab9	-0.015291863
146	0x3b277a88	0.0025555212
147	0xbd3113f0	-0.043231905
148	0xbc463e8d	-0.012099874
149	0x3cafd610	0.021464378
150	0xbb667c3d	-0.0035169267
151	0xbc40d149	-0.0117686475
152	0x3d17b43e	0.037037127
153	0x3bac57b7	0.00525948
154	0xbc58a956	-0.013223967
155	0xbc43fe88	-0.01196254
156	0xbcd2d58d	-0.025736595
157	0x3905f408	0.00012774777
158	0xbc968600	-0.018374443
159	0x3beca925	0.007222312
160	0x3c1d1d14	0.009589452
161	0x3cab4811	0.020908387
162	0x3cb0bf29	0.021575527
163	0x3bf5bfbe	0.007499664
164	0xbc91c2d5	-0.017793098
165	0xbc855f29	-0.016280727
166	0x3a83eb01	0.0010064543
167	0x3d13e8ba	0.036110617
168	0x3cf1c699	0.029513644
169	0x3c3fc637	0.011704973
170	0xbd53a4b2	-0.051670738
171	0x3cec7125	0.028862545
172	0xbae306ed	-0.001732079
173	0x3ce14e43	0.027503138
174	0xbb96a289	-0.0045970124
175	0x3d2edfa2	0.04269374
176	0x3c8168d4	0.015797056
177	0x3c35ea16	0.011103174
178	0x3c960653	0.018313562
179	0xbc13afee	-0.009014113
180	0xbc9f088b	-0.019413253
181	0x3c82f143	0.015984183
182	0x3adbad90	0.00167601
183	0x3d171bb8	0.03689167
184	0x3c975d88	0.018477216
185	0x3cceb06d	0.02523061
186	0xbbd9d9c3	-0.0066482737
187	0x3d07fc95	0.033199865
188	0x3c8bbe98	0.017058656
189	0x3c089415	0.008336087
190	0xbcacac93	-0.021078384
191	0x3d20cdb5	0.039258678
192	0xba33d706	-0.0006860349
193	0x3c1914a4	0.0093433
194	0x3be2f1e8	0.00692581
195	0x3bcb4373	0.006203109
196	0xbc4cd7f0	-0.012502655
197	0xbbc7c5df	-0.006096586
198	0x3bc74609	0.006081347
199	0xbbfe2f8a	-0.007757132
200	0x3b16ac53	0.0022990897
201	0x3bc61ce4	0.0060459245
202	0x3b7b46fd	0.0038341873
203	0xbcd03fd3	-0.025421059
204	0xbc932dc8	-0.017966166
205	0xbc9576f0	-0.01824519
206	0x3cd28af6	0.025701027
207	0x3966b581	0.00022002125
208	0xbbfdb35b	-0.007742328
209	0x3d100dba	0.03516934
210	0x3bcef79f	0.00631614
211	0x3bdf35fe	0.0068118563
212	0xbc7a078f	-0.015260591
213	0xbc8870d9	-0.016655372
214	0xbcf06762	-0.029346172
215	0x3cb1a73f	0.021686194
216	0xbc33fce7	-0.01098559
217	0x3c8e925f	0.01740378
218	0x3c0b55c2	0.008504333
219	0xbcd73525	-0.026270458
220	0x3c0ea941	0.008707345
221	0x3c83aad8	0.016072676
222	0x3b5cff37	0.0033721456
223	0x3ccff811	0.025386842
224	0xbc3aced0	-0.011401847
225	0x3c06a801	0.008218766
226	0xbc8c05ce	-0.017092612
227	0xba0302c6	-0.00049976667
228	0x3c990ad5	0.018681923
229	0x3bd241ab	0.0064165196
230	0x3b14870d	0.0022663504
231	0x3d0b76d5	0.034048874
232	0xba4277e4	-0.0007418378
233	0xbc8e9f04	-0.017409809
234	0xbc9b2b14	-0.01894144
235	0xbc82f9f0	-0.01598832
236	0x3c85ba33	0.016324138
237	0xbc9efbfb	-0.019407263
238	0xbc1fb14f	-0.0097468635
239	0xbb410aa8	-0.0029455815
240	0xbc1afd4a	-0.009459803
241	0x3cb15f6b	0.021651944
242	0xbd123236	-0.035692416
243	0x3c0a4d80	0.008441329
244	0xbc33e62a	-0.010980168
245	0x3b378b12	0.0028006476
246	0x3bf5d40e	0.0075020855
247	0x3bdb3310	0.0066894367
248	0xbaf6a54c	-0.0018817573
249	0xbcd2e31b	-0.025743058
250	0x3c472fe0	0.01215741
251	0x3cb4e194	0.02208022
252	0xbbd275f0	-0.0064227507
253	0xbc19e8ca	-0.00939388
254	0xbc037c28	-0.008025207
255	0xbc96087b	-0.01831459

action_model._continuous_distribution.mu.bias f4 [2]
0	0xb9b1a408	-0.00033882284
1	0x3928e20a	0.00016105935

action_model._discrete_distribution.branches.0.weight f4 [5, 128]
0	0x3c89e163	0.016831106
1	0xbb75f41b	-0.0037529531
2	0x3bea2896	0.0071459515
3	0xbb2f5dec	-0.0026758863
4	0xbb441dbf	-0.0029924957
5	0x3b0a07c3	0.0021061755
6	0x3bf2d6f2	0.0074108774
7	0xbbeda4b1	-0.0072522988
8	0xbc4c64d6	-0.012475213
9	0x3b71ba1b	0.003688461
10	0xbc0fdfde	-0.008781401
11	0x3bb3829d	0.005478217
12	0x3abbf53d	0.0014340054
13	0xbc0c3f8f	-0.008560075
14	0xba729c6d	-0.00092548766
15	0xbb713fa7	-0.0036811621
16	0x3bfdf3e7	0.0077500227
17	0x3c2f6515	0.010705252
18	0x3a275b15	0.0006384117
19	0x3c9d39ef	0.019192664
20	0xbc8e7d6d	-0.017393792
21	0x3ad61766	0.0016333878
22	0x3c148def	0.009067043
23	0xbb556723	-0.0032562695
24	0x3ab655e7	0.0013911099
25	0xbc00a8d0	-0.007852748
26	0x3a041ac2	0.00050393876
27	0xbb55e896	-0.0032639853
28	0xbbb12547	-0.005406055
29	0xbb85adf5	-0.004079575
30	0xbb98b52d	-0.0046602697
31	0xb84b21f8	-4.8430607e-05
32	0x3a009c4d	0.0004906103
33	0xbbe8471e	-0.007088556
34	0x3a95bf91	0.0011424889
35	0x3c8a3189	0.016869323
36	0x3bcdd011	0.006280907
37	0x3bc05b41	0.0058702533
38	0x3a6da20c	0.00090649794
39	0x3b0be2a4	0.0021344805
40	0xbc514073	-0.012771714
41	0x3c07b0f1	0.008281932
42	0xbbd888cc	-0.0066081043
43	0xbbae56a2	-0.005320386
44	0x3bfd5be7	0.007731903
45	0xbb049a6c	-0.0020233644
46	0xbb55d406	-0.0032627597
47	0xba8fff53	-0.0010986127
48	0x39a6d3c8	0.00031819777
49	0x3c9a4dbe	0.018835898
50	0xbc84aeb4	-0.016196586
51	0xbc326872	-0.0108891595
52	0x3c2d0401	0.010560037
53	0xba4ad9e0	-0.00077381544
54	0x3b940c80	0.0045180917
55	0xb9aacbaf	-0.00032576683
56	0xbc8c9020	-0.017158568
57	0xbc54f521	-0.012997896
58	0xbc8109ee	-0.015751805
59	0x3c3819e9	0.011236646
60	0x3c94ee3b	0.018180003
61	0xbb7c435a	-0.0038492293
62	0x3b062fae	0.0020475197
63	0x3c933e1e	0.017973956
64	0xbbb10c88	-0.005403105
65	0x3b8adc79	0.004237708
66	0x3c2319b6	0.00995486
67	0x3a1a78e1	0.0005892646
68	0xbb371fce	-0.002794254
69	0x3c5d6117	0.013511918
70	0xbc2207b9	-0.009889537
71	0x39e0b7f3	0.00042861662
72	0x3c0ce939	0.0086005265
73	0xbbeb9627	-0.0071895304
74	0x3c2122e0	0.009834975
75	0x3aa1d6b3	0.001234731
76	0x38ddacfc	0.00010570322
77	0x3c0d4a4f	0.008623674
78	0x3c36154e	0.011113478
79	0x3b0f41d8	0.0021859314
80	0xbcc28f8b	-0.023750087
81	0x3b036497	0.002004897
82	0xbbbdfdfe	-0.0057981005
83	0x3a9d77e5	0.0012013881
84	0xb92d485d	-0.00016525523
85	0x3c80fcb9	0.015745508
86	0xbba5455b	-0.005043668
87	0xbac7b64a	-0.0015236821
88	0xbc782385	-0.015145187
89	0x3bce0a1f	0.0062878276
90	0x3acd18a2	0.00156476
91	0xbbcd34ac	-0.0062623825
92	0xbb84e9e9	-0.0040562046
93	0x3c42f7db	0.011899914
94	0x3b5faec7	0.0034131275
95	0x3bb85e40	0.00562647
96	0x3c28c17a	0.010300035
97	0x3c398091	0.0113221565
98	0xbb7c873f	-0.0038532761
99	0x3bd585d1	0.0065161963
100	0xbc51c166	-0.012802457
101	0xbb9691e6	-0.004595029
102	0xbc24bac6	-0.010054296
103	0x3c6124d8	0.013741694
104	0x3c78adb3	0.015178132
105	0x3b16ee2b	0.0023030143
106	0x3b5b619d	0.003347493
107	0xbb8021a3	-0.00391026
108	0xbb76c8ad	-0.0037656233
109	0x3a4491c8	0.000749853
110	0xbb9e489e	-0.004830434
111	0xbbdeb132	-0.0067960257
112	0xbc176c05	-0.009242062
113	0x3a3860f4	0.000703349
114	0xbaa443c4	-0.0012532403
115	0x3c2a549f	0.010396152
116	0xbbe43ec9	-0.0069654924
117	0xbbfcaf6c	-0.0077113416
118	0x3997bffe	0.0002894401
119	0x3c0b3296	0.008495947
120	0x3c62d594	0.013844866
121	0xbb66a80d	-0.003519538
122	0x3c0c66bf	0.008569418
123	0xbb7b5302	-0.0038349037
124	0x3bfc1750	0.0076932088
125	0x390b23fd	0.0001326948
126	0xbc81f260	-0.015862644
127	0x3b140d9a	0.0022591115
128	0x3bb45e35	0.0055043944
129	0x3bdd5c50	0.0067553893
130	0x3c80a190	0.015702039
131	0x3c2d6c12	0.010584848
132	0xbb40b670	-0.0029405616
133	0x39b12b45	0.0003379231
134	0xb9f1087f	-0.00045973432
135	0x3a89f511	0.0010525306
136	0xbb8d85b7	-0.0043189186
137	0x3b944026	0.0045242487
138	0xbc06c83c	-0.0082264505
139	0x3b20409f	0.002445258
140	0xbbb763d3	-0.005596617
141	0x3bed4d38	0.007241871
142	0x3c3e6ffc	0.011623379
143	0xbbd68391	-0.0065464457
144	0xbca2245f	-0.019792734
145	0xbc8f0019	-0.017456101
146	0xbb4f4082	-0.0031624143
147	0x3aaa6564	0.0013000187
148	0xbc34c966	-0.011034345
149	0x39f8e814	0.00047475158
150	0x3c5eed8a	0.013606438
151	0x3be3c9ab	0.006951531
152	0xbb03cf4d	-0.0020112575
153	0xbc2c6a1d	-0.010523346
154	0x3c0c1865	0.008550738
155	0x3c36dc7a	0.011160964
156	0x3acb0232	0.0015488325
157	0xbc91ce68	-0.017798617
158	0xb8dac893	-0.0001043241
159	0x3c0ae1cf	0.0084766885
160	0xbbeae6ac	-0.0071686115
161	0x3b4fc40d	0.0031702549
162	0xbbece11d	-0.007228984
163	0x3c2fc31f	0.010727673
164	0x39045c60	0.00012622913
165	0x3b8bc972	0.0042659575
166	0x3bc5c58c	0.0060355123
167	0xbc16f582	-0.009213807
168	0x3aa3e291	0.0012503435
169	0xbc4934a2	-0.012280615
170	0xba756c9b	-0.0009362192
171	0xbbeb8786	-0.0071877865
172	0x3c9fdd5a	0.019514728
173	0x3c174e5e	0.009234993
174	0xbbfe1044	-0.007753404
175	0xbc34fa01	-0.011045934
176	0x399ebef1	0.0003027837
177	0x3c73faac	0.014891308
178	0x3c6b4a3a	0.014360959
179	0x3b98a2a8	0.004658062
180	0xbba79429	-0.0051140976
181	0xba5bd87e	-0.0008386447
182	0x3c824946	0.01590408
183	0xbc742461	-0.0149012515
184	0x3a7c2127	0.0009617977
185	0x3bd1ce21	0.0064027463
186	0x3a77be92	0.00094506994
187	0xbb002c02	-0.001955748
188	0xbc5daef2	-0.01353048
189	0xba592154	-0.00082828593
190	0x3b3e4759	0.0029034226
191	0x3be5fb1e	0.007018461
192	0xbae31cd0	-0.0017327312
193	0x3b26f208	0.0025473852
194	0xbc093efb	-0.008376832
195	0xbbee03c4	-0.0072636325
196	0xbc876291	-0.016526492
197	0xbbafbae2	-0.0053628543
198	0xbb8b9c71	-0.0042605926
199	0x3a0c33c1	0.0005348288
200	0x3b82dd23	0.0039936467
201	0xbaff5dd7	-0.0019482923
202	0xbc1bd570	-0.009511337
203	0x3b34030a	0.0027467632
204	0x3b730d2b	0.0037086706
205	0xbb106066	-0.0022030114
206	0xbc16594c	-0.0091765635
207	0x3b0d441f	0.0021555496
208	0xbae2d5ad	-0.0017306112
209	0x3c00a18b	0.007851015
210	0x3c24900f	0.010044112
211	0x3b8b2513	0.004246363
212	0xbc82e76b	-0.01597949
213	0xbba6a021	-0.005085007
214	0x3c0b1414	0.008488674
215	0x3c02f2c1	0.007992447
216	0xbbca52f3	-0.006174439
217	0xbc2631e9	-0.010143735
218	0xba9d70b8	-0.0012011742
219	0x3c1214ba	0.008916074
220	0xbc01d8cb	-0.007925223
221	0x3c033858	0.008009039
222	0xbc1306d8	-0.0089738
223	0x3b96d66a	0.004603197
224	0x3ace2502	0.0015727582
225	0xbc2b3a36	-0.01045089
226	0x3c58f5c3	0.013242188
227	0x3c697733	0.014249611
228	0x3ab710dc	0.0013966816
229	0xbac2d916	-0.0014865722
230	0xbc06c1c8	-0.008224912
231	0xbb6a14c7	-0.003571795
232	0xbb865262	-0.0040991763
233	0xba0a227b	-0.000526942
234	0x3cb5374c	0.022121094
235	0x3c1d2bf7	0.009593002
236	0x38f5731e	0.000117039526
237	0xbba3ae8d	-0.0049951733
238	0x3aedef3d	0.0018152964
239	0x3ae659d5	0.001757438
240	0xbbfe1a1e	-0.0077545783
241	0x3c5ab3e6	0.013348555
242	0x3c2f627e	0.010704635
243	0x3a2786c4	0.0006390626
244	0x3b69d648	0.00356807
245	0x3c86e5ef	0.016467063
246	0xbc0a5758	-0.008443676
247	0xbb8e1e8c	-0.0043371376
248	0x3bf758fe	0.0075484505
249	0xba38e800	-0.00070536137
250	0xbc1287f0	-0.008943543
251	0x3b0ebbee	0.0021779495
252	0xb97d2b01	-0.0002414398
253	0x3b1834cb	0.0023224826
254	0x3beaa62e	0.0071609234
255	0x3c6c5301	0.014424087

action_model._discrete_distribution.branches.0.bias f4 [5]
0	0xbb991a98	-0.0046723597
1	0xbbc7eaee	-0.006101004
2	0x3b16a9c7	0.0022989379
3	0x3c0a7886	0.008451587
4	0x3a7ebbbf	0.00097173074
