results/Run3/PlayerRL/PlayerRL-4199.pt (torch, 163818 bytes, 12 tensors)

network_body._body_endoder.seq_layers.0.weight f4 [128, 20]
0.23589799 0.18854067 -0.1448906 0.1807083 -0.30387074 -0.052279305 0.2747457 -0.12372086
-0.1670409 -0.021386815 0.18022443 0.40070102 -0.03340293 0.119935 0.003889249 -0.533811
0.036576882 0.021056987 0.16779985 0.0469441 0.26705283 0.024386626 0.08041727 0.2102548
0.021259492 -0.10897487 -0.13368417 -0.045700386 0.12760669 -0.05280439 0.100397475 0.05025361
0.010146759 0.22055198 -0.39334974 -0.27914456 -0.006063569 0.28214648 -0.0910098 0.23333088
-0.13225283 0.17577142 -0.18817313 -0.019648349 0.14479813 -0.41904333 0.12924847 0.12754399
0.1265958 -0.2472109 -0.26052448 0.27108786 0.254859 0.49894768 -0.12944826 0.45386624
-0.1536833 -0.50526375 -0.18612994 0.13785413 -0.0085785715 -0.048589412 0.4323194 0.36977175
-0.08274539 0.1214608 -0.09426618 -0.09773514 0.16549306 -0.24908291 -0.034924556 -0.035706654
0.22320431 -0.077039875 0.09436958 0.094352156 0.0641979 -0.069448456 -0.13386995 -0.30070847
0.3820261 -0.104939036 -0.008234933 0.20929605 -0.15289968 0.085835904 -0.11160333 0.08342634
-0.39814267 -0.0016737499 0.20686077 -0.073958136 -0.30837145 0.33138928 -0.22297442 0.12478725
0.0036754897 -0.38961887 0.4569379 0.17644426 0.08734706 -0.018112255 0.15497679 0.24689761
-0.09029625 -0.33469924 0.25718 0.029783614 0.001801874 0.12002371 0.14193313 -0.07342048
-0.02421818 0.21425603 -0.2534401 0.25889477 -0.35300013 -0.048961375 0.1366764 -0.1406674
-0.39536273 -0.17308494 0.16976906 -0.124112956 0.12177168 -0.3937416 0.07171249 -0.276368
-0.085105576 0.015962284 -0.120298825 -0.07894276 0.15135266 -0.047173105 -0.32883424 0.14350948
-0.11858911 0.042586327 0.3616213 0.20853345 -0.80016965 0.02816034 -0.15515202 -0.20481665
0.42664605 -0.33866778 -0.09514087 0.28823447 0.24315517 -0.06315231 0.08726172 0.3992373
0.04883162 -0.09700602 -0.24236332 -0.3548986 0.019354891 0.010859017 -0.0736968 -0.18716623
-0.16491704 0.502547 0.250275 -0.19205695 0.19552967 -0.082132846 -0.11678338 0.15023208
0.30276766 -0.014385419 0.24067333 0.07042147 -0.1417472 -0.14934808 0.22133273 -0.21922849
0.6007386 -0.13968876 -0.14353184 -0.01468916 0.113458805 -0.13722265 0.24330746 -0.022956697
0.030963818 -0.32654217 0.013073107 -0.24121466 0.09289989 -0.3644545 -0.14761889 -0.07091727
0.48441467 -0.15258554 -0.029786019 0.022965077 -0.16301256 -0.39866412 -0.015593604 -0.07579844
0.18790343 0.25762612 -0.121356495 0.081289254 -0.36852264 0.30168936 0.2125605 -0.009554246
0.06672144 -0.23731819 -0.27018356 -0.09687975 -0.2319643 -0.36581913 -0.50768244 -0.16966356
0.2113845 -0.038210843 0.20159408 0.23471184 -0.18664819 0.029412331 0.010021751 0.15345453
-0.012900597 0.026397567 0.16653138 0.1446336 0.04016685 0.08490354 0.045637295 0.02942988
0.20077251 -0.14988066 0.14131948 -0.11345474 0.1886737 0.18972631 0.0014239948 0.12898736
0.036222503 0.28201166 -0.05415654 0.006384192 -0.17350915 -0.18613249 -0.001383941 -0.01850903
0.006591184 0.25883672 -0.3579734 0.30927172 -0.047470592 0.0931783 -0.22439337 0.01556813
00000000: 3e8f 713e ce10 413e 345e 14be 990b 393e
00000010: f294 9bbe d322 56bd 78ab 8c3e 5d61 fdbd
00000020: c50c 2bbe 6733 afbc c18c 383e af28 cd3e
00000030: 83d1 08bd 7ba0 f53d c5e2 7e3b d6a7 08bf
00000040: a4d1 153d b47f ac3c b9d3 2b3e 7548 403d
00000050: 26bb 883e 76c6 c73c cfb1 a43d 094d 573e
00000060: 6328 ae3c 372e dfbd 81e4 08be 5430 3bbd
00000070: 54ab 023e 6b49 58bd 319d cd3d bbd6 4d3d
00000080: 983e 263c 61d8 613e 2365 c9be 09ec 8ebe
00000090: e7b0 c6bb 8175 903e 5963 babd 4aee 6e3e
000000a0: 496d 07be 6cfd 333e 75b0 40be 93f5 a0bc
000000b0: f645 143e d98c d6be b659 043e e49a 023e
000000c0: 54a2 013e db24 7dbe 7763 85be 07cc 8a3e
000000d0: e17c 823e 1276 ff3e 168e 04be 2861 e83e
000000e0: 285f 1dbe f758 01bf d998 3ebe a229 0d3e
000000f0: 238d 0cbc b105 47bd f858 dd3e b952 bd3e
00000100: 6a76 a9bd 71c0 f83d a10e c1bd 5c29 c8bd
00000110: 0377 293e 970f 7fbe 0d0d 0fbd 2441 12bd
00000120: ac8f 643e 15c7 9dbd d744 c13d b43b c13d
00000130: 307a 833d fe3a 8ebd 3415 09be 76f6 99be
00000140: ed98 c33e 47ea d6bd d0eb 06bc b451 563e
00000150: bc91 1cbe bcca af3d 4990 e4bd 6edb aa3d
00000160: 5bd9 cbbe ba61 dbba 4fd3 533e 5d77 97bd
00000170: dde2 9dbe dbab a93e 6853 64be 7590 ff3d
00000180: 7ce0 703b 207c c7be c4f3 e93e cead 343e
00000190: 04e3 b23d 2760 94bc 3cb2 1e3e bad2 7c3e
000001a0: 3eed b8bd b35d abbe 19ad 833e c4fc f33c
000001b0: dc2c ec3a fece f53d eb56 113e 7a5d 96bd
000001c0: 3465 c6bc ef65 5b3e e7c2 81be db8d 843e
000001d0: 6fbc b4be b98b 48bd e6f4 0b3e 1d0b 10be
000001e0: fc6c cabe 2e3d 31be f1d7 2d3e ef2e febd
000001f0: 6e63 f93d 8098 c9be ffdd 923d 1b80 8dbe
00000200: d54b aebd 56c3 823c 3b5f f6bd beac a1bd
00000210: 31fc 1a3e 9638 41bd f65c a8be 26f4 123e
00000220: d9de f2bd 006f 2e3d 6d26 b93e cb89 553e
00000230: ebd7 4cbf 83b0 e63c 2ce0 1ebe 75bb 51be
00000240: 5a71 da3e dd65 adbe 37d9 c2bd 7893 933e
00000250: abfd 783e 0056 81bd 46b6 b23d d568 cc3e
00000260: aa03 483d 18ab c6bd 172e 78be 45b5 b5be
00000270: 268e 9e3c 05ea 313c 59ee 96bd 81a8 3fbe
00000280: 03e0 28be eca6 003f 0b24 803e 94aa 44be
00000290: ee38 483e 4435 a8bd 202c efbd 70d6 193e
000002a0: 5d04 9b3e d2b0 6bbc 1273 763e 2239 903d
000002b0: 2e26 11be b4ee 18be 0ca5 623e 6f7d 60be
000002c0: 01ca 193f 920a 0fbe 03fa 12be cdaa 70bc
000002d0: 175d e83d 1884 0cbe 9725 793e af0f bcbc
000002e0: d5a7 fd3c 8930 a7be 9630 563c fa00 77be
000002f0: 4c42 be3d c899 babe 6829 17be 133d 91bd
00000300: 3305 f83e 623f 1cbe cf01 f4bc 4221 bc3c
00000310: c4ec 26be b41d ccbe 517c 7fbc 363c 9bbd
00000320: c269 403e 92e7 833e c189 f8bd fb7a a63d
00000330: 00af bcbe 0777 9a3e 76a9 593e 6a89 1cbc
00000340: 40a5 883d 8a03 73be 8055 8abe e468 c6bd
00000350: 0d88 6dbe a54c bbbe 7af7 01bf 49bc 2dbe
00000360: 2e75 583e f982 1cbd ae6e 4e3e 4d58 703e
00000370: b420 3fbe 21f2 f03c 4532 243c 2f23 1d3e
00000380: 075d 53bc b63f d83c 3487 2a3e d51a 143e
00000390: ff85 243d e8e1 ad3d 2cee 3a3d ef16 f13c
000003a0: 4f97 4d3e 517a 19be 0eb6 103e f55a e8bd
000003b0: ae33 413e 9d47 423e 56a5 ba3a 4315 043e
000003c0: 0c5e 143d d563 903e 40d3 5dbd 7c32 d13b
000003d0: 62ac 31be 8499 3ebe 5b65 b5ba 40a0 97bc
000003e0: dcfa d73b 3f86 843e 4a48 b7be dd58 9e3e
000003f0: 8670 42bd 44d4 be3d 60c7 65be 7811 7f3c

network_body._body_endoder.seq_layers.0.bias f4 [128]
0.0 0.0 0.0 0.0 0.0 0.0 0.0 0.0
0.0 0.0 0.0 0.0 0.0 0.0 0.0 0.0
0.0 0.0 0.0 0.0 0.0 0.0 0.0 0.0
0.0 0.0 0.0 0.0 0.0 0.0 0.0 0.0
0.0 0.0 0.0 0.0 0.0 0.0 0.0 0.0
0.0 0.0 0.0 0.0 0.0 0.0 0.0 0.0
0.0 0.0 0.0 0.0 0.0 0.0 0.0 0.0
0.0 0.0 0.0 0.0 0.0 0.0 0.0 0.0
0.0 0.0 0.0 0.0 0.0 0.0 0.0 0.0
0.0 0.0 0.0 0.0 0.0 0.0 0.0 0.0
0.0 0.0 0.0 0.0 0.0 0.0 0.0 0.0
0.0 0.0 0.0 0.0 0.0 0.0 0.0 0.0
0.0 0.0 0.0 0.0 0.0 0.0 0.0 0.0
0.0 0.0 0.0 0.0 0.0 0.0 0.0 0.0
0.0 0.0 0.0 0.0 0.0 0.0 0.0 0.0
0.0 0.0 0.0 0.0 0.0 0.0 0.0 0.0
00000000: 0000 0000 0000 0000 0000 0000 0000 0000
00000010: 0000 0000 0000 0000 0000 0000 0000 0000
00000020: 0000 0000 0000 0000 0000 0000 0000 0000
00000030: 0000 0000 0000 0000 0000 0000 0000 0000
00000040: 0000 0000 0000 0000 0000 0000 0000 0000
00000050: 0000 0000 0000 0000 0000 0000 0000 0000
00000060: 0000 0000 0000 0000 0000 0000 0000 0000
00000070: 0000 0000 0000 0000 0000 0000 0000 0000
00000080: 0000 0000 0000 0000 0000 0000 0000 0000
00000090: 0000 0000 0000 0000 0000 0000 0000 0000
000000a0: 0000 0000 0000 0000 0000 0000 0000 0000
000000b0: 0000 0000 0000 0000 0000 0000 0000 0000
000000c0: 0000 0000 0000 0000 0000 0000 0000 0000
000000d0: 0000 0000 0000 0000 0000 0000 0000 0000
000000e0: 0000 0000 0000 0000 0000 0000 0000 0000
000000f0: 0000 0000 0000 0000 0000 0000 0000 0000
00000100: 0000 0000 0000 0000 0000 0000 0000 0000
00000110: 0000 0000 0000 0000 0000 0000 0000 0000
00000120: 0000 0000 0000 0000 0000 0000 0000 0000
00000130: 0000 0000 0000 0000 0000 0000 0000 0000
00000140: 0000 0000 0000 0000 0000 0000 0000 0000
00000150: 0000 0000 0000 0000 0000 0000 0000 0000
00000160: 0000 0000 0000 0000 0000 0000 0000 0000
00000170: 0000 0000 0000 0000 0000 0000 0000 0000
00000180: 0000 0000 0000 0000 0000 0000 0000 0000
00000190: 0000 0000 0000 0000 0000 0000 0000 0000
000001a0: 0000 0000 0000 0000 0000 0000 0000 0000
000001b0: 0000 0000 0000 0000 0000 0000 0000 0000
000001c0: 0000 0000 0000 0000 0000 0000 0000 0000
000001d0: 0000 0000 0000 0000 0000 0000 0000 0000
000001e0: 0000 0000 0000 0000 0000 0000 0000 0000
000001f0: 0000 0000 0000 0000 0000 0000 0000 0000

network_body._body_endoder.seq_layers.2.weight f4 [128, 128]
-0.0717889 0.060057115 0.020233138 0.13522631 -0.09093432 -0.004637989 0.031463023 0.20829515
0.15066855 0.103927985 0.08578218 -0.086749606 -0.036850013 0.08109165 0.040907487 -0.14463149
-0.027094616 0.0046768347 0.0488868 0.042275578 0.20624839 -0.10992243 -0.10201529 -0.05522204
0.13525754 0.2058096 -0.064318694 0.008088252 0.1619282 0.07917812 -0.103316106 -0.049888603
-9.135245e-05 -0.002804523 -0.08069258 -0.009121669 -0.060907852 0.01512786 -0.19835192 -0.029239006
0.21373542 0.028974967 0.15840551 -0.03037237 0.04117925 -0.12157691 0.12915562 -0.094585754
-0.11126005 -0.023613425 -0.05449229 0.13366118 -0.04366758 0.037199806 -0.1246946 -0.025523074
-0.029975751 0.10128931 -0.08414061 0.049899243 -0.0829923 0.050663777 0.16983543 0.01061597
0.04278598 0.049923636 0.011670669 0.011204986 -0.1506161 -0.15423109 -0.003357103 0.10871132
-0.06781477 -0.078489214 -0.019551562 0.19315085 0.04004062 0.088314824 -0.061751492 0.07344685
0.04464412 -0.06323191 -0.11112253 0.16300079 -0.015883261 -0.045573365 -0.030393612 0.0072386046
-0.084318124 0.06475313 -0.09006056 0.06993021 -0.02346281 0.04341819 -0.06867527 0.055833366
-0.037984002 -0.063398324 -0.026396412 -0.12902868 0.02456013 -0.13824487 0.07552841 0.067019045
0.14701037 0.050234407 -0.10426104 -0.0050145686 -0.0030406218 -0.09021439 0.05832434 0.028486514
0.056619253 0.051154584 -0.03363667 0.07348898 -0.08412582 0.16069359 0.0036971082 0.06256047
0.16302699 -0.16812605 0.021452077 0.047735363 -0.045650482 -0.14626746 -0.11302745 -0.0145340245
-0.06688015 0.029839592 -0.044580996 -0.15554461 -0.011919026 0.07318181 0.0491139 -0.058857776
-0.087232396 0.10227476 0.07163193 0.07385303 -0.08668796 0.04459847 0.060614496 0.06574541
-0.08721851 0.085502096 -0.12499451 0.046527587 0.0627308 0.055551164 0.04867912 0.120818734
0.009317198 -0.067577474 -0.019365871 -0.04992421 0.079494506 0.025446394 0.007655411 -0.11375313
0.059215687 0.015129531 0.053078428 -0.05803557 -0.02910575 -0.06159686 -0.075407535 -0.028896326
0.06511113 -0.23276949 -0.035167184 -0.13089725 -0.12726434 -0.09447227 0.118066214 0.11688871
-0.044238057 0.012118057 -0.008475161 0.11963936 -0.04584276 0.028341508 0.050757032 0.024959367
0.11104923 0.067024864 -0.056428414 0.020269433 0.08585691 0.012589719 -0.005904727 0.0024520543
0.07536153 -0.063197784 -0.10202941 0.037148256 -0.050047137 0.021307794 0.017218368 -0.09891578
-0.04983538 0.07934868 -0.051308945 0.060860977 0.028471244 0.15662915 0.07327395 -0.103211865
-0.102865964 -0.034514103 -0.19601387 -0.22985865 0.014017248 0.04839198 -0.045597836 -0.064930685
-0.08746996 -0.048223782 0.058466244 0.07127991 -0.06349598 0.035077743 0.09412303 -0.060140632
-0.05108499 0.058275763 0.0014980572 -0.009057127 -0.13067621 -0.0638849 0.094762586 -0.04274601
0.05275051 0.007185281 -0.1093098 0.063756004 -0.098421045 0.038502093 -0.18648377 0.035752688
0.06715653 0.048247453 -0.1154782 -0.042805642 -0.1239742 0.044703174 0.04820924 -0.053678382
-0.25709918 0.032452255 -0.07675587 -0.21083558 -0.06554071 -0.01085572 0.07183306 -0.08261907
00000000: 0f06 93bd 73fe 753d f7bf a53c c478 0a3e
00000010: c63b babd 46fa 97bb 5fdf 003d 534b 553e
00000020: db48 1a3e 32d8 d43d 91ae af3d c7a9 b1bd
00000030: 0af0 16bd 6113 a63d 9c8e 273d 471a 14be
00000040: 87f5 ddbc 2240 993b 863d 483d 2829 2d3d
00000050: c732 533e 031f e1bd 64ed d0bd 8130 62bd
00000060: f480 0a3e c0bf 523e 85b9 83bd 9684 043c
00000070: 82d0 253e 2328 a23d 6597 d3bd fe57 4cbd
00000080: 7994 bfb8 17cc 37bb 2742 a5bd 0e73 15bc
00000090: 837a 79bd d8da 773c c41c 4bbe a486 efbc
000000a0: 75dd 5a3e e95c ed3c 0e35 223e 7acf f8bc
000000b0: 93ab 283d 51fd f8bd 5f41 043e 2db6 c1bd
000000c0: 4fdc e3bd f170 c1bc 4f33 5fbd 7ade 083e
000000d0: c7dc 32bd d35e 183d e25f ffbd c415 d1bc
000000e0: b58f f5bc c570 cf3d ea51 acbd 2663 4c3d
000000f0: def7 a9bd d284 4f3d 57e9 2d3e 9bee 2d3c
00000100: 5a40 2f3d ba7c 4c3d 5536 3f3c 1e95 373c
00000110: 1b3b 1abe c1ee 1dbe d802 5cbb 0aa4 de3d
00000120: 78e2 8abd f4be a0bd 992a a0bc 56c9 453e
00000130: a201 243d 67de b43d 22ef 7cbd 4d6b 963d
00000140: c1dc 363d bb7f 81bd 3694 e3bd aee9 263e
00000150: 9d1d 82bc 23ab 3abd 06fc f8bc d131 ed3b
00000160: fbae acbd 4a9d 843d ac71 b8bd 9237 8f3d
00000170: 1435 c0bc 46d7 313d 9fa5 8cbd 87b1 643d
00000180: 1d95 1bbd fbd6 81bd 4a3d d8bc 1820 04be
00000190: 5332 c93c 1090 0dbe a4ae 9a3d 4841 893d
000001a0: e389 163e 98c2 4d3d d086 d5bd 4051 a4bb
000001b0: 2b45 47bb 52c2 b8bd 81e5 6e3d 8d5c e93c
000001c0: 97e9 673d 7887 513d 9bc6 09bd 6481 963d
000001d0: 284a acbd dc8c 243e 2f4b 723b b41f 803d
000001e0: 8cf0 263e 3c29 2cbe 44bc af3c 2886 433d
000001f0: 00fc 3abd 23c7 15be f07a e7bd 1e20 6ebc
00000200: 76f8 88bd 2972 f43c 909a 36bd 1647 1fbe
00000210: 0548 43bc 58e0 953d a82b 493d da14 71bd
00000220: e6a6 b2bd 6e75 d13d c3b3 923d 4240 973d
00000230: 7589 b1bd e3ac 363d e846 783d 88a5 863d
00000240: 9e9f b2bd b91b af3d 1ffd ffbd b693 3e3d
00000250: 0179 803d 9e89 633d c263 473d d06f f73d
00000260: 29a7 183c 0f66 8abd 2da5 9ebc 547d 4cbd
00000270: 04ce a23d f574 d03c 3eda fa3b 67f7 e8bd
00000280: 268c 723d dae1 773c c468 593d b5b6 6dbd
00000290: 2f6f eebc fd4c 7cbd 446f 9abd fdb7 ecbc
000002a0: fc58 853d 205b 6ebe 770b 10bd ee09 06be
000002b0: 9551 02be ad7a c1bd b3cc f13d 5963 ef3d
000002c0: f732 35bd d18a 463c 67db 0abc 7b05 f53d
000002d0: 9ec5 3bbd 732c e83c 9be6 4f3d 9677 cc3c
000002e0: c76d e33d 5544 893d 7b21 67bd 150c a63c
000002f0: bfd5 af3d 1c45 4e3c 717c c1bb a5b2 203b
00000300: 2557 9a3d d76d 81bd ccf4 d0bd c528 183d
00000310: 3afe 4cbd af8d ae3c 890d 8d3c 5b94 cabd
00000320: 2f20 4cbd 9081 a23d 5429 52bd 5c49 793d
00000330: 873c e93c 6463 203e a710 963d be60 d3bd
00000340: 64ab d2bd a95e 0dbd dcb7 48be 1160 6bbe
00000350: 99a8 653c ab36 463d ccc4 3abd 61fa 84bd
00000360: 7323 b3bd 4d86 45bd 4d7a 6f3d 34fb 913d
00000370: 2e0a 82bd aead 0f3d 93c3 c03d 0656 76bd
00000380: 7f3e 51bd 91b2 6e3d 755a c43a 5864 14bc
00000390: fccf 05be 16d6 82bd e312 c23d 7116 2fbd
000003a0: eb10 583d 8172 eb3b d1dd dfbd 8292 823d
000003b0: f990 c9bd 5fb4 1d3d 9af5 3ebe 6971 123d
000003c0: 5d89 893d 1f9f 453d d67f ecbd f854 2fbd
000003d0: 2fe6 fdbd ad1a 373d 0d77 453d dddd 5bbd
000003e0: 81a2 83be a8ec 043d 2e32 9dbd 48e5 57be
000003f0: 353a 86bd 31dc 31bc 361d 933d 3034 a9bd

network_body._body_endoder.seq_layers.2.bias f4 [128]
0.0 0.0 0.0 0.0 0.0 0.0 0.0 0.0
0.0 0.0 0.0 0.0 0.0 0.0 0.0 0.0
0.0 0.0 0.0 0.0 0.0 0.0 0.0 0.0
0.0 0.0 0.0 0.0 0.0 0.0 0.0 0.0
0.0 0.0 0.0 0.0 0.0 0.0 0.0 0.0
0.0 0.0 0.0 0.0 0.0 0.0 0.0 0.0
0.0 0.0 0.0 0.0 0.0 0.0 0.0 0.0
0.0 0.0 0.0 0.0 0.0 0.0 0.0 0.0
0.0 0.0 0.0 0.0 0.0 0.0 0.0 0.0
0.0 0.0 0.0 0.0 0.0 0.0 0.0 0.0
0.0 0.0 0.0 0.0 0.0 0.0 0.0 0.0
0.0 0.0 0.0 0.0 0.0 0.0 0.0 0.0
0.0 0.0 0.0 0.0 0.0 0.0 0.0 0.0
0.0 0.0 0.0 0.0 0.0 0.0 0.0 0.0
0.0 0.0 0.0 0.0 0.0 0.0 0.0 0.0
0.0 0.0 0.0 0.0 0.0 0.0 0.0 0.0
00000000: 0000 0000 0000 0000 0000 0000 0000 0000
00000010: 0000 0000 0000 0000 0000 0000 0000 0000
00000020: 0000 0000 0000 0000 0000 0000 0000 0000
00000030: 0000 0000 0000 0000 0000 0000 0000 0000
00000040: 0000 0000 0000 0000 0000 0000 0000 0000
00000050: 0000 0000 0000 0000 0000 0000 0000 0000
00000060: 0000 0000 0000 0000 0000 0000 0000 0000
00000070: 0000 0000 0000 0000 0000 0000 0000 0000
00000080: 0000 0000 0000 0000 0000 0000 0000 0000
00000090: 0000 0000 0000 0000 0000 0000 0000 0000
000000a0: 0000 0000 0000 0000 0000 0000 0000 0000
000000b0: 0000 0000 0000 0000 0000 0000 0000 0000
000000c0: 0000 0000 0000 0000 0000 0000 0000 0000
000000d0: 0000 0000 0000 0000 0000 0000 0000 0000
000000e0: 0000 0000 0000 0000 0000 0000 0000 0000
000000f0: 0000 0000 0000 0000 0000 0000 0000 0000
00000100: 0000 0000 0000 0000 0000 0000 0000 0000
00000110: 0000 0000 0000 0000 0000 0000 0000 0000
00000120: 0000 0000 0000 0000 0000 0000 0000 0000
00000130: 0000 0000 0000 0000 0000 0000 0000 0000
00000140: 0000 0000 0000 0000 0000 0000 0000 0000
00000150: 0000 0000 0000 0000 0000 0000 0000 0000
00000160: 0000 0000 0000 0000 0000 0000 0000 0000
00000170: 0000 0000 0000 0000 0000 0000 0000 0000
00000180: 0000 0000 0000 0000 0000 0000 0000 0000
00000190: 0000 0000 0000 0000 0000 0000 0000 0000
000001a0: 0000 0000 0000 0000 0000 0000 0000 0000
000001b0: 0000 0000 0000 0000 0000 0000 0000 0000
000001c0: 0000 0000 0000 0000 0000 0000 0000 0000
000001d0: 0000 0000 0000 0000 0000 0000 0000 0000
000001e0: 0000 0000 0000 0000 0000 0000 0000 0000
000001f0: 0000 0000 0000 0000 0000 0000 0000 0000

action_model._continuous_distribution.log_sigma f4 [1, 2]
0.0 0.0
00000000: 0000 0000 0000 0000

action_model._continuous_distribution.mu.weight f4 [2, 128]
0.008275789 0.023519354 -0.02200862 0.024781791 0.008552877 0.0042795506 -0.0008924803 -0.011135508
0.021199932 0.0040756697 -0.012678454 -0.020681303 0.02083074 -0.025195403 0.031827148 0.036569662
-0.0032682307 0.0054175816 0.01403221 -0.020158341 -0.011254243 -0.018557584 0.006609924 -0.001343656
-0.039452173 0.0028322814 -0.03139362 -0.00968689 0.013566422 -0.005628927 0.024390152 -0.018815683
-0.028501306 0.018766623 0.009754202 -0.0096734315 0.030273765 -0.00024183547 -0.028151706 -0.030686036
-0.017387997 -0.00784877 -0.026510073 0.022182006 -0.0004600945 0.027986122 -0.03590853 0.019408718
0.0029618845 0.005954204 0.033582017 0.0017089568 -0.0015400274 -0.016822983 -0.012442178 -0.0037618198
0.024721453 0.001401639 0.016680418 0.009871345 0.011395399 0.029239431 0.006002852 -0.027077392
0.00200583 0.012319903 0.014839068 0.04345489 -0.018798247 0.0024023585 0.0072396793 -0.0017855816
0.0051241736 -0.024178704 0.0036522641 0.01628168 0.026840216 0.02070318 -0.019071655 -0.0024050036
-0.00020510978 0.022802288 -0.009268583 0.01631138 -0.0061119646 -0.018560065 0.005966722 0.02118302
-0.004255035 -0.00034896974 -0.010984586 -0.02597848 0.011684875 -0.034809113 0.0035845637 -0.006685556
-0.006545692 0.0008584481 -0.009056565 0.013653763 0.0003522263 -0.011565623 0.012595059 0.017739087
0.015443652 -0.020424983 0.018067129 0.01560486 -0.0032156564 -0.0065106153 0.03385447 0.026494069
0.02690177 0.031911567 0.013135199 0.0045346944 -0.0055778357 -0.007956537 0.014125637 -0.00688378
-0.021441197 0.023671938 -0.028590877 0.0022260023 -0.004520457 -0.004305232 -0.014913718 0.0049623805
0.029054875 0.008703555 -0.007984778 0.008744678 -0.00075601344 0.019068979 -0.0061114854 0.018939903
0.0035607123 0.029679606 -0.0010973607 0.004165057 0.002459523 0.008331171 -0.025062338 -0.00939752
-0.007195921 0.008576208 0.010452419 0.020121222 -0.019081017 0.0010382308 -0.01421421 -0.0010088938
0.0008445752 -0.009428103 0.0026998217 -0.0016281037 -0.023157341 -0.009937049 -0.03228268 -0.0032458466
0.008255891 0.010390298 0.00072064274 0.019169508 -0.012761796 0.018093055 0.031666163 0.009411863
0.021582456 -0.006817203 0.01816654 0.0022058368 0.02672176 0.00092871656 0.0020698803 -0.019227425
-0.01937375 0.019423796 0.0028455213 -0.006239177 0.033646625 -0.023612285 -0.009749857 -0.006225055
0.031203551 -0.0047211233 0.009292672 0.0054908847 0.0027821288 0.025960688 0.00023381435 0.039886944
0.027210584 -0.029139036 -0.0068449415 0.006788408 0.017245738 0.01990795 -0.047709834 0.00032530655
0.04223576 0.0040508653 0.0026562002 -0.0035298609 0.018871393 0.0034958979 -0.03636466 -0.0013165477
-0.00426413 0.008427204 0.0047364025 0.014863327 -0.018024588 0.005228057 -0.022832217 0.010079079
0.008390879 -0.008260203 -0.02227563 0.012389841 0.003601363 -0.0032550234 0.011010866 -0.0018784559
0.028691173 -0.0077696764 0.016801437 0.011136221 0.0038947489 -0.0072271475 -0.010227372 -0.020601002
0.010058604 0.004807908 -0.0029750098 -0.025418311 -0.025470344 0.010525952 -0.009148124 -0.013123097
-0.037023116 -0.034677733 -0.0124203535 -0.002600311 0.03792489 -0.022795504 0.0033379525 0.029722407
-0.002923051 -0.013641211 -0.009156099 -0.003992709 -0.015082714 0.023186153 0.02279662 -0.013743571
00000000: 2d97 073c a9ab c03c 6c4b b4bc 2f03 cb3c
00000010: 5e21 0c3c 793b 8c3b 57f5 69ba b571 36bc
00000020: 7bab ad3c 328d 853b 4ab9 4fbc d66b a9bc
00000030: 3aa5 aa3c 9766 cebc 2f5d 023d 12ca 153d
00000040: d02f 56bb f885 b13b 5be7 653c 1b23 a5bc
00000050: b763 38bc 1306 98bc 1098 d83b 9d1d b0ba
00000060: 9a98 21bd cc9d 393b 9996 00bd c3b5 1ebc
00000070: b345 5e3c dd72 b8bb dbcd c73c 5923 9abc
00000080: 927b e9bc 76bc 993c 17d0 1f3c 507d 1ebc
00000090: b000 f83c 3795 7db9 689e e6bc 4861 fbbc
000000a0: 4671 8ebc 2198 00bc a72b d9bc 0ab7 b53c
000000b0: d738 f1b9 2743 e53c d314 13bd 08ff 9e3c
000000c0: 2d1c 423b 7c1b c33b 4c8d 093d 13ff df3a
000000d0: bfda c9ba 5ad0 89bc 47da 4bbc dd88 76bb
000000e0: a584 ca3c 33b7 b73a 5fa5 883c 6cbb 213c
000000f0: c5b3 3a3c 8887 ef3c 93b3 c43b 68d1 ddbc
00000100: 3e74 033b 6bd9 493c 901f 733c c1fd 313d
00000110: c8fe 99bc e370 1d3b d53a ed3b 2d0a eaba
00000120: afe8 a73b 6b12 c6bc d35a 6f3b 2861 853c
00000130: 03e0 db3c b799 a93c 293c 9cbc 449d 1dbb
00000140: bd12 57b9 ddcb ba3c 41db 17bc 719f 853c
00000150: e046 c8bb 470b 98bc 7e84 c33b 0388 ad3c
00000160: d26d 8bbb edf5 b6b9 b1f8 33bc d2d0 d4bc
00000170: eb71 3f3c 0094 0ebd 00eb 6a3b 8212 dbbb
00000180: 3f7d d6bb 7a09 613a fd61 14bc 08b4 5f3c
00000190: 04ab b839 bd7d 3dbc 825b 4e3c 9051 913c
000001a0: 5f07 7d3c 4b52 a7bc 8401 943c 87ab 7f3c
000001b0: c3bd 52bb 0057 d5bb fcaa 0a3d 170a d93c
000001c0: 1a61 dc3c b4b5 023d 0535 573c c697 943b
000001d0: 47c6 b6bb 235c 02bc 376f 673c 5591 e1bb
000001e0: 73a5 afbc a7eb c13c 6a37 eabc 1fe2 113b
000001f0: 5720 94bb e712 8dbb ab58 74bc 779b a23b
00000200: 7d04 ee3c 5b99 0e3c 96d2 02bc d745 0f3c
00000210: 342f 46ba 8c36 9c3c db42 c8bb db27 9b3c
00000220: d75a 693b a522 f33c 51d5 8fba 087b 883b
00000230: f32f 213b 777f 083c 884f cdbc 0ef8 19bc
00000240: c3cb ebbb 3983 0c3c 9f40 2b3c 43d5 a43c
00000250: cb4f 9cbc 3f15 883a b8e2 68bc dc3c 84ba
00000260: 7b66 5d3a 5578 1abc 7eef 303b 1866 d5ba
00000270: 77b4 bdbc 01cf 22bc d83a 04bd 45b8 54bb
00000280: b743 073c 123c 2a3c 84e9 3c3a 5f09 9d3c
00000290: da16 51bc e337 943c 61b4 013d 3734 1a3c
000002a0: b1cd b03c d862 dfbb ffd1 943c cd8f 103b
000002b0: 98e7 da3c 1d75 733a d4a6 073b d582 9dbc
000002c0: b3b5 9ebc a71e 9f3c ed7b 3a3b 0372 ccbb
000002d0: 0bd1 093d 8d6e c1bc ddbd 1fbc 8cfb cbbb
000002e0: 979e ff3c a7b3 9abb 4b40 183c e1ec b33b
000002f0: 6054 363b 82ab d43c 102c 7539 7e60 233d
00000300: bbe8 de3c fdb4 eebc 884b e0bb 4b71 de3b
00000310: ef46 8d3c ff15 a33c 636b 43bd e88d aa39
00000320: 67ff 2c3d 1fbd 843b a513 2e3b 3d55 67bb
00000330: 2e98 9a3c 6f1b 653b 1cf3 14bd 0390 acba
00000340: 1dba 8bbb 4112 0a3c d333 9b3b 5085 733c
00000350: 4da8 93bc 1f50 ab3b a10a bbbc b922 253c
00000360: e679 093c cd55 07bc 627b b6bc c2fe 4a3c
00000370: d804 6c3b 3b52 55bb eb66 343c 8536 f6ba
00000380: c009 eb3c c598 febb 2ba3 893c b274 363c
00000390: 0b3f 7f3b b5d1 ecbb b590 27bc 6fc3 a8bc
000003a0: d8cc 243c a88b 9d3b 62f8 42bb 103a d0bc
000003b0: 2fa7 d0bc 0b75 2c3c 03e2 15bc 4202 57bc
000003c0: 8da5 17bd 3d0a 0ebd bd7e 4bbc fb69 2abb
000003d0: 2157 1b3d a3bd babc 8dc1 5a3b 687c f33c
000003e0: a890 3fbb 637f 5fbc 7603 16bc 45d5 82bb
000003f0: 7d1d 77bc e3f0 bd3c fabf ba3c b72c 61bc

action_model._continuous_distribution.mu.bias f4 [2]
0.0 0.0
00000000: 0000 0000 0000 0000

network_body._body_endoder.seq_layers.0.weight f4 [128, 20]
-0.10751499 -0.17822944 -0.3296731 -0.11367694 -0.11653311 -0.034923736 -0.21371444 0.52257717
0.19376355 0.038010903 -0.3962638 0.41992447 -0.10821625 0.049522307 -0.29824314 0.07214683
-0.10645249 -0.06601284 0.077042036 0.30085427 -0.1110408 -0.06852488 0.0031346881 0.6655028
-0.05167609 -0.045692973 -0.068531945 -0.49241227 0.14251517 -0.18231635 0.3389192 -0.14512253
-0.05532107 -0.16514172 0.12803046 -0.032649215 0.3864049 -0.0009903468 -0.13322781 0.2443486
0.06906897 -0.40765426 -0.32093224 -0.17752206 0.1313249 0.14380707 -0.4417438 0.0043575405
0.4304669 0.03562994 0.15680893 -0.020038752 0.22159511 -0.6488147 -0.10566217 -0.20844308
0.26354542 -0.67605764 -0.027200123 0.024465283 0.3397501 0.14245477 -0.20922442 0.12868735
0.34385478 0.27280393 -0.10670963 -0.021483704 -0.16237427 -0.21790317 -0.015336309 -0.040755022
0.168784 -0.0108787045 -0.1598371 0.088643454 -0.2688739 -0.035663664 -0.18411933 0.17378613
-0.046199035 0.6438135 0.37435874 0.083980456 -0.19018434 -0.53740156 -0.028099673 -0.44273147
0.017733414 0.20456478 0.27419263 0.0058834995 0.55568117 -0.14875859 -0.23576763 0.046793383
0.07708889 -0.29423875 -0.1371581 -0.39149642 -0.04027102 0.03602528 0.11265915 -0.08567375
-0.34235582 0.32479978 0.46157745 -0.019887712 0.18808351 0.027298756 0.23203108 0.0035954192
0.02513685 -0.13929276 0.04480349 0.007741754 -0.052988876 0.03985596 -0.10257107 0.32339698
-0.017967554 0.07382276 -0.0052424925 -0.32822338 0.106030986 -0.13812044 -0.07644899 0.41973335
0.2554996 0.25323185 0.088652626 0.026236413 0.46066937 0.08736789 0.010314525 -0.33689573
-0.021404974 -0.3182433 0.2568777 0.018340956 0.29618555 0.18157935 -0.09625196 -0.63831353
-0.41085616 -0.0304505 0.14899918 0.3016666 0.28652886 -0.17928387 0.107607275 -0.33601794
-0.19612873 0.057976734 0.00978337 -0.20563294 -0.25068083 -0.29478943 0.17556906 -0.1700256
0.09124105 -0.017868772 -0.3070723 0.023823272 0.42906246 -0.23583041 -0.0037009805 -0.2108923
-0.05722872 -0.026757352 -0.038300443 0.37084323 -0.3941818 0.114000276 0.059872985 -0.06461798
0.4523372 -0.4030418 -0.112593815 -0.039948102 -0.1677181 -0.07377469 -0.019184161 -0.21630797
-0.17590573 0.07262627 0.116136424 0.11622938 0.17427443 -0.18336955 -0.087515466 0.02288335
-0.08771251 0.032879066 0.78816164 -0.11073793 0.54687804 -0.38649577 0.20412315 -0.041415863
-0.15826301 -0.03478401 -0.27709463 -0.15865734 -0.098867424 0.27975217 -0.25317112 0.033320714
0.037688997 -0.6648117 -0.048896372 0.053754006 0.17961423 0.17422171 0.075731106 0.30820975
-0.10773363 -0.08780621 0.040753186 -0.3068447 -0.31211898 0.23395154 -0.22844127 -0.20841429
-0.022315703 -0.12769762 0.012044883 -0.092803374 0.18632163 -0.32923883 0.054555055 -0.11882527
0.040992137 0.092516795 0.101793736 -0.08045997 -0.06589613 -0.18277921 -0.22586355 -0.042587206
0.20694877 -0.28028387 -0.1431981 0.12600589 0.2607449 -0.48855978 0.030838229 0.040929634
-0.2439452 -0.32610846 0.12151245 0.006971319 -0.020556439 -0.25940764 -0.25518966 0.057994887
00000000: d230 dcbd c781 36be eaca a8be 75cf e8bd
00000010: e9a8 eebd 310c 0fbd f5d7 5abe 9ec7 053f
00000020: f469 463e 52b1 1b3d 17e3 cabe 5700 d73e
00000030: 7ba0 ddbd e7d7 4a3d 53b3 98be b8c1 933d
00000040: c303 dabd bd31 87bd 37c8 9d3d 9209 9a3e
00000050: 5c69 e3bd c656 8cbd 576f 4d3b 645e 2a3f
00000060: 4faa 53bd 8e28 3bbd 7a5a 8cbd 761d fcbe
00000070: 7fef 113e 23b1 3abe d186 ad3e 009b 14be
00000080: 5998 62bd e91a 29be 6b1a 033e 2fbb 05bd
00000090: ddd6 c53e 86ce 81ba df6c 08be 8536 7a3e
000000a0: 0874 8d3d 0fb8 d0be 3b51 a4be 58c8 35be
000000b0: 097a 063e 2942 133e 3e2c e2be b3c9 8e3b
000000c0: 2866 dc3e b3f0 113d 8592 203e 4f28 a4bc
000000d0: d4e9 623e b818 26bf 6865 d8bd 1a72 55be
000000e0: 6def 863e 1d12 2dbf cbd2 debc 6b6b c83c
000000f0: baf3 ad3e aadf 113e ed3e 56be 9ec6 033e
00000100: bc0d b03e f5ac 8b3e 948a dabd 98fe afbc
00000110: 7145 26be 0222 5fbe 2445 7bbc bdee 26bd
00000120: b7d5 2c3e 983c 32bc 56ac 23be b38a b53d
00000130: d7a9 89be 1014 12bd c789 3cbe fef4 313e
00000140: 333b 3dbd f6d0 243f f3ab bf3e f2fd ab3d
00000150: afbf 42be 2693 09bf 4931 e6bc b3ad e2be
00000160: aa45 913c 6e79 513e fa62 8c3e 5fca c03b
00000170: 1f41 0e3f 2c54 18be 126d 71be 6baa 3f3d
00000180: c8e0 9d3d 76a6 96be 2c73 0cbe 3872 c8be
00000190: 3af3 24bd 3e8f 133d d7b9 e63d b875 afbd
000001a0: 4349 afbe 284c a63e e153 ec3e 8eeb a2bc
000001b0: f798 403e a4a1 df3c 8e99 6d3e 20a1 6b3b
000001c0: cceb cd3c c3a2 0ebe dd83 373d 8aae fd3b
000001d0: dd0a 59bd 0140 233d c810 d2bd 4a94 a53e
000001e0: b130 93bc 6330 973d 37c9 abbb e50c a8be
000001f0: c626 d93d 726f 0dbe 4a91 9cbd 4ae7 d63e
00000200: d8d0 823e 9ba7 813e 828f b53d bfed d63c
00000210: dbdc eb3e f0ed b23d 41fe 283c 997d acbe
00000220: 7c59 afbc c9f0 a2be 7985 833e c63f 963c
00000230: a2a5 973e f0ef 393e bf1f c5bd 8468 23bf
00000240: bd5b d2be 5473 f9bc 3e93 183e 0b74 9a3e
00000250: e9b3 923e 3196 37be 3461 dc3d 8b0a acbe
00000260: f8d5 48be 0379 6d3d 6e4a 203c 7191 52be
00000270: 3d59 80be a4ee 96be 60c8 333e 311b 2ebe
00000280: 96dc ba3d 8861 92bc 9538 9dbe 0629 c33c
00000290: 13ae db3e 877d 71be 268c 72bb 27f4 57be
000002a0: aa68 6abd 3c32 dbbc ede0 1cbd 2adf bd3e
000002b0: 32d2 c9be fa78 e93d 603d 753d 6e56 84bd
000002c0: be98 e73e 7f5b cebe 9697 e6bd 9fa0 23bd
000002d0: 4bbe 2bbe 2f17 97bd 1a28 9dbc d67f 5dbe
000002e0: a220 34be 15bd 943d efd8 ed3d ab09 ee3d
000002f0: ff74 323e 3ac5 3bbe 4f3b b3bd dd75 bb3c
00000300: 9ea2 b3bd 33ac 063d f6c4 493f 91ca e2bd
00000310: 3300 0c3f c6e2 c5be a905 513e aea3 29bd
00000320: b30f 22be ae79 0ebd 59df 8dbe 1277 22be
00000330: 017b cabd ad3b 8f3e a59f 81be 4d7b 083d
00000340: c75f 1a3d 1931 2abf 9047 48bd 292d 5c3d
00000350: cbec 373e 2d67 323e e918 9b3d abcd 9d3e
00000360: 73a3 dcbd bed3 b3bd d0ec 263d c01a 9dbe
00000370: 0fce 9fbe fe90 6f3e 82ec 69be 8e6a 55be
00000380: 6ccf b6bc 2ac3 02be e757 453c b20f bebd
00000390: 19cb 3e3e fe91 a8be 1f75 5f3d aa5a f3bd
000003a0: 5fe7 273d 7279 bd3d 3c79 d03d 32c8 a4bd
000003b0: 8df4 86bd 792a 3bbe c648 67be ec6f 2ebd
000003c0: 61ea 533e 5e81 8fbe 86a2 12be b007 013e
000003d0: 5b80 853e 8224 fabe 74a0 fc3c d5a5 273d
000003e0: c5cc 79be b0f7 a6be 85db f83d aa6f e43b
000003f0: fa65 a8bc 14d1 84be 38a8 82be 0c8c 6d3d

network_body._body_endoder.seq_layers.0.bias f4 [128]
0.0 0.0 0.0 0.0 0.0 0.0 0.0 0.0
0.0 0.0 0.0 0.0 0.0 0.0 0.0 0.0
0.0 0.0 0.0 0.0 0.0 0.0 0.0 0.0
0.0 0.0 0.0 0.0 0.0 0.0 0.0 0.0
0.0 0.0 0.0 0.0 0.0 0.0 0.0 0.0
0.0 0.0 0.0 0.0 0.0 0.0 0.0 0.0
0.0 0.0 0.0 0.0 0.0 0.0 0.0 0.0
0.0 0.0 0.0 0.0 0.0 0.0 0.0 0.0
0.0 0.0 0.0 0.0 0.0 0.0 0.0 0.0
0.0 0.0 0.0 0.0 0.0 0.0 0.0 0.0
0.0 0.0 0.0 0.0 0.0 0.0 0.0 0.0
0.0 0.0 0.0 0.0 0.0 0.0 0.0 0.0
0.0 0.0 0.0 0.0 0.0 0.0 0.0 0.0
0.0 0.0 0.0 0.0 0.0 0.0 0.0 0.0
0.0 0.0 0.0 0.0 0.0 0.0 0.0 0.0
0.0 0.0 0.0 0.0 0.0 0.0 0.0 0.0
00000000: 0000 0000 0000 0000 0000 0000 0000 0000
00000010: 0000 0000 0000 0000 0000 0000 0000 0000
00000020: 0000 0000 0000 0000 0000 0000 0000 0000
00000030: 0000 0000 0000 0000 0000 0000 0000 0000
00000040: 0000 0000 0000 0000 0000 0000 0000 0000
00000050: 0000 0000 0000 0000 0000 0000 0000 0000
00000060: 0000 0000 0000 0000 0000 0000 0000 0000
00000070: 0000 0000 0000 0000 0000 0000 0000 0000
00000080: 0000 0000 0000 0000 0000 0000 0000 0000
00000090: 0000 0000 0000 0000 0000 0000 0000 0000
000000a0: 0000 0000 0000 0000 0000 0000 0000 0000
000000b0: 0000 0000 0000 0000 0000 0000 0000 0000
000000c0: 0000 0000 0000 0000 0000 0000 0000 0000
000000d0: 0000 0000 0000 0000 0000 0000 0000 0000
000000e0: 0000 0000 0000 0000 0000 0000 0000 0000
000000f0: 0000 0000 0000 0000 0000 0000 0000 0000
00000100: 0000 0000 0000 0000 0000 0000 0000 0000
00000110: 0000 0000 0000 0000 0000 0000 0000 0000
00000120: 0000 0000 0000 0000 0000 0000 0000 0000
00000130: 0000 0000 0000 0000 0000 0000 0000 0000
00000140: 0000 0000 0000 0000 0000 0000 0000 0000
00000150: 0000 0000 0000 0000 0000 0000 0000 0000
00000160: 0000 0000 0000 0000 0000 0000 0000 0000
00000170: 0000 0000 0000 0000 0000 0000 0000 0000
00000180: 0000 0000 0000 0000 0000 0000 0000 0000
00000190: 0000 0000 0000 0000 0000 0000 0000 0000
000001a0: 0000 0000 0000 0000 0000 0000 0000 0000
000001b0: 0000 0000 0000 0000 0000 0000 0000 0000
000001c0: 0000 0000 0000 0000 0000 0000 0000 0000
000001d0: 0000 0000 0000 0000 0000 0000 0000 0000
000001e0: 0000 0000 0000 0000 0000 0000 0000 0000
000001f0: 0000 0000 0000 0000 0000 0000 0000 0000

network_body._body_endoder.seq_layers.2.weight f4 [128, 128]
0.025054812 0.12770054 0.12078822 0.064489916 0.12730743 -0.0555039 -0.15423188 -0.11271001
0.033090845 0.133611 -0.027784374 -0.04728349 0.09018248 0.080561064 0.021015856 0.02324658
0.012930258 -0.054953635 0.09940805 -0.11898819 -0.045367472 0.012033727 0.041421168 0.0780266
-0.038774554 0.044724807 -0.020490129 0.10432513 -0.025781691 0.015369533 0.05370781 0.010762888
0.100822374 -0.058376066 -0.1283176 -0.07948151 -0.13326778 -0.04218347 0.07754696 0.122529924
0.095213994 0.07143533 -0.08901523 -0.14577827 -0.026035456 -0.043790326 0.1117855 0.18206502
0.020791419 -0.04545088 0.043187402 0.118953295 -0.05965966 -0.017765604 0.11052075 0.04250023
-0.11176614 0.046710275 -0.035338227 -0.1546395 -0.1594016 0.10697555 0.005481816 0.0776039
-0.039200567 -0.011588415 0.02322885 0.19083966 0.08505734 0.2167803 0.015868967 -0.059028585
0.0583168 0.19288234 0.062318802 -0.21415265 -0.052957103 -0.05616993 0.17364614 -0.08358801
-0.23876885 0.032007966 0.07005387 -0.005216487 0.022134956 0.018888922 -0.08742006 0.06873941
-0.0923176 -0.004391363 0.13027647 0.08563603 0.03109646 0.06153268 0.0108281365 0.013871025
0.073410235 0.044356216 -0.08697507 -0.053985946 0.04050062 -0.005588959 0.08324623 0.099540584
-0.060795657 -0.013037312 -0.01371957 0.0022442443 -0.050359268 0.038819868 0.01267892 -0.154731
0.13660438 -0.08500295 0.13503896 0.08893241 0.059068464 -0.039276153 -0.10944075 0.016785244
0.04998999 -0.11158611 -0.06760032 -0.07661819 0.052006703 0.042229712 0.19043963 0.046405554
0.09296236 0.057042077 0.09661442 -0.008589974 -0.019864816 0.047418512 -0.05822226 -0.08850541
-0.07568453 0.12614986 -0.028557632 0.14705864 0.01610867 -0.04937752 0.0842489 0.002492592
-0.01909338 -0.061237574 -0.03984764 0.08437307 -0.022074627 0.0036466303 0.012337901 0.02865123
-0.05450335 -0.0051573953 0.0046188817 -0.04539816 0.07567099 -0.11092739 -0.2512261 0.10263422
0.081141636 0.034004353 0.067911334 0.13582687 -0.022124374 0.040637713 0.013982342 0.005919479
0.001446749 -0.08887411 0.053253237 -0.042174697 0.17290533 0.045324948 0.03612391 0.10348403
-0.09710708 0.24495606 -0.12819918 0.08942518 0.11807902 0.03315461 0.10128713 -0.01401927
-0.14498036 -0.09548105 0.18667713 -0.06900178 -0.12028058 0.02265006 -0.04975349 0.07287509
-0.09096455 0.030492915 -0.118064985 -0.2613545 0.06565236 0.0030607146 -0.02572584 0.016571876
-0.06286498 -0.04688685 0.08964152 -0.033313043 0.006342683 0.045749627 0.045764554 -0.031165328
-0.004130069 0.05782959 -0.00018263968 -0.06395931 0.10542815 0.09971538 -0.04615623 -0.021312147
0.008303833 0.05563147 -0.075532295 0.14935851 -0.12126738 0.08771382 -0.045858257 0.08273136
-0.11927207 -0.13487822 -0.009725713 -0.078833245 0.05835189 0.12649907 0.042427182 0.019163234
0.023912285 -0.0638817 -0.081250206 -0.0042983103 -0.03313834 -0.02800203 0.09404786 0.037019104
-0.107333325 -0.02087624 0.12754263 -0.1293956 -0.19410099 0.037959386 -0.07667828 0.06678519
-0.1373654 -0.14523855 -0.07758425 -0.06863597 -0.023870349 -0.03653819 -0.05485604 -0.04182542
00000000: c03f cd3c eec3 023e d05f f73d 4a13 843d
00000010: e15c 023e 0f58 63bd f6ee 1dbe 81d4 e6bd
00000020: 448a 073d 52d1 083e 0e9c e3bc 55ac 41bd
00000030: 98b1 b83d 33fd a43d 7229 ac3c 9d6f be3c
00000040: 6fd9 533c 1017 61bd 7396 cb3d 15b0 f3bd
00000050: 3ed3 39bd 1c29 453c 3ea9 293d 69cc 9f3d
00000060: 11d2 1ebd 5c31 373d eada a7bc 6aa8 d53d
00000070: 2034 d3bc 7ed0 7b3c b8fc 5b3d d356 303c
00000080: f67b ce3d be1b 6fbd b065 03be 34c7 a2bd
00000090: 5977 08be 93c8 2cbd f1d0 9e3d f8f0 fa3d
000000a0: 8eff c23d b04c 923d 9e4d b6bd e646 15be
000000b0: 4f48 d5bc 7c5d 33bd ccef e43d 416f 3a3e
000000c0: c452 aa3c b42a 3abd 46e5 303d c99d f33d
000000d0: b05d 74bd 2c89 91bc b458 e23d b914 2e3d
000000e0: a5e5 e4bd 4653 3f3d d1be 10bd d159 1ebe
000000f0: 2c3a 23be ff15 db3d cea0 b33b cbee 9e3d
00000100: c690 20bd 56dd 3dbc 6e4a be3c 796b 433e
00000110: 8b32 ae3d a8fb 5d3e a3ff 813c f5c7 71bd
00000120: 99dd 6e3d f382 453e 0042 7f3d d54a 5bbe
00000130: 8ce9 58bd 7112 66bd 4bd0 313e 3130 abbd
00000140: d27f 74be c91a 033d 6778 8f3d 11ef aabb
00000150: 5e54 b53c f1bc 9a3c 4a09 b3bd 3fc7 8c3d
00000160: 0311 bdbd 6ce5 8fbb 3267 053e f161 af3d
00000170: 01be fe3c b109 7c3d 7f68 313c 4c43 633c
00000180: 1b58 963d ddae 353d fc1f b2bd 5e20 5dbd
00000190: fae3 253d 9623 b7bb 007d aa3d efdb cb3d
000001a0: de04 79bd 739a 55bc 0cc8 60bc 2c14 133b
000001b0: 8545 4ebd 9501 1f3d 3fbb 4f3c ce71 1ebe
000001c0: 05e2 0b3e 0716 aebd a747 0a3e 3222 b63d
000001d0: c6f1 713d 08e0 20bd 7922 e0bd 3581 893c
000001e0: 4ec2 4c3d 4287 e4bd 0972 8abd ffe9 9cbd
000001f0: fb04 553d 10f9 2c3d 9b02 433e c013 3e3d
00000200: 0d63 be3d f4a4 693d c8dd c53d f6bc 0cbc
00000210: 8abb a2bc ea39 423d 777a 6ebd 5342 b5bd
00000220: 7e00 9bbd 6e2d 013e b2f1 e9bc 8a96 163e
00000230: 54f6 833c 1540 4abd b08a ac3d c15a 233b
00000240: b869 9cbc 40d4 7abd 4737 23bd cacb ac3d
00000250: d9d5 b4bc 4efc 6e3b e824 4a3c fcb5 ea3c
00000260: e83e 5fbd 5eff a8bb fd59 973b 6cf3 39bd
00000270: 64f9 9a3d e62d e3bd b5a0 80be e431 d23d
00000280: 962d a63d 2648 0b3d 1915 8b3d 3316 0b3e
00000290: 2d3e b5bc bb73 263d 3116 653c 30f8 c13b
000002a0: d7a0 bd3a a103 b6bd 1120 5a3d 60bf 2cbd
000002b0: 180e 313e a7a6 393d aaf6 133d 6fef d33d
000002c0: 14e0 c6bd c3d5 7a3e a546 03be 8c24 b73d
000002d0: 6ad3 f13d 21cd 073d a06f cf3d 15b1 65bc
000002e0: bb75 14be 928b c3bd 4a28 3f3e ce50 8dbd
000002f0: aa55 f6bd 9e8c b93c 51ca 4bbd 893f 953d
00000300: 9f4b babd 47cc f93c 0ecc f1bd 42d0 85be
00000310: bf74 863d 4596 483b ffbe d2bc bec1 873c
00000320: 5bbf 80bd 6d0c 40bd f995 b73d 4273 08bd
00000330: 48d6 cf3b f663 3b3d 9d73 3b3d 6e4e ffbc
00000340: 8855 87bb b8de 6c3d f782 3fb9 19fd 82bd
00000350: b7ea d73d 9437 cc3d 510e 3dbd d096 aebc
00000360: cd0c 083c d3dd 633d adb0 9abd 70f1 183e
00000370: 085b f8bd 4ea3 b33d ded5 3bbd 0f6f a93d
00000380: ea44 f4bd 841d 0abe 9958 1fbc 5373 a1bd
00000390: 6402 6f3d f988 013e 20c8 2d3d 37fc 9c3c
000003a0: b2e3 c33c 69d4 82bd 8266 a6bd d7d8 8cbb
000003b0: 11bc 07bd 8364 e5bc 2a9c c03d 58a1 173d
000003c0: 93d1 dbbd a604 abbc 899a 023e 4880 04be
000003d0: 69c2 46be 4d7b 1b3d 8109 9dbd acc6 883d
000003e0: 84a9 0cbe 6ab9 14be 7ee4 9ebd 0491 8cbd
000003f0: c08b c3bc 12a9 15bd bab0 60bd 2251 2bbd

network_body._body_endoder.seq_layers.2.bias f4 [128]
0.0 0.0 0.0 0.0 0.0 0.0 0.0 0.0
0.0 0.0 0.0 0.0 0.0 0.0 0.0 0.0
0.0 0.0 0.0 0.0 0.0 0.0 0.0 0.0
0.0 0.0 0.0 0.0 0.0 0.0 0.0 0.0
0.0 0.0 0.0 0.0 0.0 0.0 0.0 0.0
0.0 0.0 0.0 0.0 0.0 0.0 0.0 0.0
0.0 0.0 0.0 0.0 0.0 0.0 0.0 0.0
0.0 0.0 0.0 0.0 0.0 0.0 0.0 0.0
0.0 0.0 0.0 0.0 0.0 0.0 0.0 0.0
0.0 0.0 0.0 0.0 0.0 0.0 0.0 0.0
0.0 0.0 0.0 0.0 0.0 0.0 0.0 0.0
0.0 0.0 0.0 0.0 0.0 0.0 0.0 0.0
0.0 0.0 0.0 0.0 0.0 0.0 0.0 0.0
0.0 0.0 0.0 0.0 0.0 0.0 0.0 0.0
0.0 0.0 0.0 0.0 0.0 0.0 0.0 0.0
0.0 0.0 0.0 0.0 0.0 0.0 0.0 0.0
00000000: 0000 0000 0000 0000 0000 0000 0000 0000
00000010: 0000 0000 0000 0000 0000 0000 0000 0000
00000020: 0000 0000 0000 0000 0000 0000 0000 0000
00000030: 0000 0000 0000 0000 0000 0000 0000 0000
00000040: 0000 0000 0000 0000 0000 0000 0000 0000
00000050: 0000 0000 0000 0000 0000 0000 0000 0000
00000060: 0000 0000 0000 0000 0000 0000 0000 0000
00000070: 0000 0000 0000 0000 0000 0000 0000 0000
00000080: 0000 0000 0000 0000 0000 0000 0000 0000
00000090: 0000 0000 0000 0000 0000 0000 0000 0000
000000a0: 0000 0000 0000 0000 0000 0000 0000 0000
000000b0: 0000 0000 0000 0000 0000 0000 0000 0000
000000c0: 0000 0000 0000 0000 0000 0000 0000 0000
000000d0: 0000 0000 0000 0000 0000 0000 0000 0000
000000e0: 0000 0000 0000 0000 0000 0000 0000 0000
000000f0: 0000 0000 0000 0000 0000 0000 0000 0000
00000100: 0000 0000 0000 0000 0000 0000 0000 0000
00000110: 0000 0000 0000 0000 0000 0000 0000 0000
00000120: 0000 0000 0000 0000 0000 0000 0000 0000
00000130: 0000 0000 0000 0000 0000 0000 0000 0000
00000140: 0000 0000 0000 0000 0000 0000 0000 0000
00000150: 0000 0000 0000 0000 0000 0000 0000 0000
00000160: 0000 0000 0000 0000 0000 0000 0000 0000
00000170: 0000 0000 0000 0000 0000 0000 0000 0000
00000180: 0000 0000 0000 0000 0000 0000 0000 0000
00000190: 0000 0000 0000 0000 0000 0000 0000 0000
000001a0: 0000 0000 0000 0000 0000 0000 0000 0000
000001b0: 0000 0000 0000 0000 0000 0000 0000 0000
000001c0: 0000 0000 0000 0000 0000 0000 0000 0000
000001d0: 0000 0000 0000 0000 0000 0000 0000 0000
000001e0: 0000 0000 0000 0000 0000 0000 0000 0000
000001f0: 0000 0000 0000 0000 0000 0000 0000 0000

value_heads.value_heads.extrinsic.weight f4 [1, 128]
-0.14472573 -0.08967915 -0.070543006 -0.07362719 0.025646523 -0.12144147 0.04767084 0.12752622
0.015284643 -0.21357693 0.0013812333 -0.19850911 -0.023016155 0.014511406 0.08905679 0.19090384
-0.0046430826 0.11029124 0.06867057 -0.03223431 -0.15994236 -0.060623795 0.08944452 -0.019451812
0.034451097 -0.15411273 -0.05076748 -0.07082233 -0.024843112 -0.050391838 -0.20978235 0.12875345
0.10706186 0.020276085 -0.07284841 -0.031138152 0.13092381 -0.1699391 -0.21166505 -0.13614942
0.14607862 -0.0045855194 -0.20997787 -0.115106046 -0.0058877766 -0.00097438693 -0.054026395 -0.08897732
0.050130337 0.029787019 -0.17655593 -0.093177706 -0.14565232 0.0013791323 -0.09195646 0.07530898
0.10828456 0.19407424 0.045773506 -0.15481296 -0.06750989 -0.010092333 -0.12072123 0.20830277
-0.041940928 -0.10880006 0.21026692 0.15262097 0.01107499 -0.20564424 -0.15821159 0.038237542
0.19514793 0.024582371 -0.023434132 -0.0108307 -0.1364764 -0.029737726 -0.04589793 0.0024727285
-0.044738457 0.16867477 0.19320187 0.20177546 0.06956789 0.07924393 -0.017717749 0.05251652
0.049675286 -0.0049832463 0.029740795 -0.15416488 0.12256393 -0.0032380074 -0.16959542 -0.19939406
0.18855059 -0.08986117 0.07415551 -0.058368683 0.20302922 -0.05108337 0.14153144 -0.1799343
-0.1456658 -0.0025101602 0.1683689 0.120712996 -0.115010515 0.15135342 0.048050374 -0.06776683
0.072732836 0.117877394 -0.09258891 0.19555509 0.002942711 -0.05785069 0.051314116 0.1261383
0.026390791 -0.13851327 -0.05555278 0.038769156 0.1891633 -0.19240695 -0.14706178 -0.09248749
00000000: fb32 14be b4a9 b7bd da78 90bd dac9 96bd
00000010: a818 d23c 4eb6 f8bd 8042 433d 3c96 023e
00000020: 706c 7a3c e9b3 5abe 800a b53a f945 4bbe
00000030: 608c bcbc 40c1 6d3c 6863 b63d 4c7c 433e
00000040: 0025 98bb 60e0 e13d 28a3 8c3d 2008 04bd
00000050: eec7 23be a850 78bd b02e b73d 6859 9fbc
00000060: 981c 0d3d bacf 1dbe 90f1 4fbd 4c0b 91bd
00000070: c883 cbbc ac67 4ebd 2fd1 56be f2d7 033e
00000080: 4043 db3d 081a a63c 8c31 95bd 7015 ffbc
00000090: e410 063e 8404 2ebe b9be 58be c16a 0bbe
000000a0: a295 153e 2042 96bb 7004 57be b8bc ebbd
000000b0: 40ee c0bb 006e 7fba c84a 5dbd be39 b6bd
000000c0: 7855 4d3d e803 f43c 14cb 34be f4d3 bebd
000000d0: e225 15be 00c4 b43a ab53 bcbd 983b 9a3d
000000e0: 4cc4 dd3d 66bb 463e 007d 3b3d 4a87 1ebe
000000f0: a042 8abd 505a 25bc b13c f7bd 524d 553e
00000100: 40ca 2bbd 91d2 debd 3650 573e ac48 1c3e
00000110: e073 353c 6794 52be 3802 22be f89e 1c3d
00000120: dcd4 473e f860 c93c f0f8 bfbc 4073 31bc
00000130: 78c0 0bbe 889c f3bc 78ff 3bbd 800d 223b
00000140: ac3f 37bd 14b9 2c3e b6d6 453e 3a9e 4e3e
00000150: 9c79 8e3d a44a a23d d024 91bc 901b 573d
00000160: 5078 4b3d 804a a3bb f8a2 f33c 66dd 1dbe
00000170: cc02 fb3d c034 54bb 6caa 2dbe f52d 4cbe
00000180: 6813 413e 2209 b8bd d8de 973d 0014 6fbd
00000190: e4e6 4f3e cc3c 51bd 9eed 103e b240 38be
000001a0: 6a29 15be 8081 24bb e668 2c3e 6038 f73d
000001b0: a28a ebbd 64fc 1a3e 78d0 443d 56c9 8abd
000001c0: f4f4 943d b469 f13d 419f bdbd 983f 483e
000001d0: 80da 403b d8f4 6cbd c02e 523d 662a 013e
000001e0: 8031 d83c 6cd6 0dbe 508b 63bd 68cc 1e3d
000001f0: 06b4 413e 5406 45be 5d97 16be 156a bdbd
