results/Run3/PlayerRL/PlayerRL-150725.pt (torch, 516421 bytes, 42 tensors)

network_body._body_endoder.seq_layers.0.weight f4 [128, 27]
000000 88 13 b5 3c 8d a1 cf 3c a1 8a 58 bd 0d 44 48 3e
       0.02210404 0.025345588 -0.05286658 0.1955721
000010 f2 46 24 3e b8 62 5c be 0c 99 1f be 9b 92 c3 bd
       0.16042688 -0.21522033 -0.15585726 -0.09549447
000020 fd 1c 6d be 54 da 84 3d fb ff 57 3e 21 f9 27 bd
       -0.2315559 0.06486955 0.21093743 -0.041009072
000030 aa b5 68 3d c7 84 ce bd 54 52 ca 3e a9 10 0d 3c
       0.056813873 -0.10083919 0.39515936 0.008609929
000040 a8 99 78 3e 41 15 91 3e 3a be a0 3c c7 87 90 3d
       0.24277365 0.28336528 0.019621957 0.070571475
000050 31 43 f4 3d 3a 26 6b 3e 41 c2 c9 3e 4c 6a 17 3e
       0.11926878 0.22963801 0.39406016 0.14786643
000060 8f 22 b2 3e 0f d1 57 be 79 64 03 3e 11 b5 66 3e
       0.3479199 -0.21075843 0.12831296 0.22530009
000070 6b 5a 95 bd 3f a4 91 3c ce c1 a8 3e 3e 59 dc 3e
       -0.072926365 0.017778514 0.3296036 0.43036836
000080 db 8a 09 3e 4e 0c d3 3c 33 27 a6 bd 9e 25 1b 3e
       0.13431875 0.025762703 -0.081129454 0.15151069
000090 e1 43 18 3e db 76 f4 3d f2 92 be 3d 40 63 96 be
       0.14869644 0.119367324 0.09305371 -0.29372597
0000a0 60 8b 3c be 49 bd d2 3d cd 6b 3c be d6 9c bd bd
       -0.18412542 0.102900095 -0.18400498 -0.0925843
0000b0 ec 3b 83 be ce fd 5d be c3 ac 34 bd ad af 09 3d
       -0.25631654 -0.2167885 -0.04411007 0.033614803
0000c0 96 65 26 3e b4 50 89 3e 69 53 df 3d 42 85 06 be
       0.1624969 0.26819384 0.10904581 -0.13136771
0000d0 bb d0 38 3e f6 7a 84 3e 30 94 56 be 67 bc 9b bb
       0.18048374 0.25875062 -0.20954967 -0.004752684
0000e0 c9 ad 59 3e 62 75 89 3e 38 5c 0c be 9b 65 39 3e
       0.212577 0.26847368 -0.13707054 0.18105166
0000f0 e9 6d ae 3d 80 61 ad 3d 2b 8b 10 bd 5d f2 1a bd
       0.085170574 0.08465862 -0.03528897 -0.037828792
000100 5c 63 40 3e 40 91 f9 bd c0 65 75 bd e8 e4 73 bd
       0.18787903 -0.12185907 -0.05991149 -0.059544474
000110 a9 dc 98 3e 3d d5 88 be f0 80 ab 3d 3e 7e bd 3d
       0.2985585 -0.26725188 0.08374202 0.092525944
000120 70 5c 1c 3e 1e 22 29 3e 52 8b 3b be 43 eb 96 3d
       0.15269637 0.16516921 -0.18314865 0.07369091
000130 18 38 2d 3d c6 e4 00 3e a3 fa 3a 3e 98 05 c1 3c
       0.042289823 0.1258727 0.18259673 0.023562238
000140 ac 18 65 be 77 3f af bc 0b 40 a3 3e 34 19 8b bd
       -0.22372693 -0.021392567 0.31884798 -0.067919165
000150 2e ed bb be 29 b0 3b 3d 42 17 bb bd 13 8b ac bd
       -0.3670439 0.045822296 -0.091352955 -0.08424964
000160 b3 c0 c9 3e 03 6d 20 bd de 1e 19 3e 79 1a 3e be
       0.3940483 -0.03916646 0.14953181 -0.18564786
000170 94 89 13 3d 07 37 76 bd 28 c4 16 be 7f ca 55 bb
       0.036019877 -0.060111072 -0.14723265 -0.0032621918
000180 53 c2 74 be 6f 33 ac be 3c 87 38 3c 0e 61 d4 bd
       -0.23902254 -0.3363299 0.011262711 -0.10370074
000190 a4 5b 13 3c d3 1c d6 3d ff 05 05 bd 24 a9 fb bd
       0.008994017 0.104547165 -0.03247642 -0.122881204
0001a0 ff bf cf bd 80 c5 d8 3e 15 77 68 3d 30 63 3f 3d
       -0.10144042 0.4233818 0.05675419 0.046725452
0001b0 68 bd 30 3e c3 b1 9c 3d 71 7a 3f bd 3c 1a 93 3e
       0.17259753 0.07651093 -0.04674763 0.28730953
0001c0 38 27 b0 3c 56 b4 00 3e 5f 3c f3 bd fd 77 77 be
       0.021503076 0.12568793 -0.11876749 -0.24166866
0001d0 22 18 b8 3d 82 1f 2e bd a2 d3 6c 3d f7 a1 0e 3f
       0.08988978 -0.042510517 0.057819016 0.5571589
0001e0 74 87 26 be 4f 0b cb bd fd 4b 38 3d dc 74 32 be
       -0.16262609 -0.09914266 0.044994343 -0.17427391
0001f0 21 2e b6 bc fa 09 8d 3e 02 3a 40 3d a6 c4 9f be
       -0.022238793 0.27546674 0.04693032 -0.31204718
000200 7d 27 aa 3c 61 e3 27 bd 28 0d fc bd fb ea 23 be
       0.020770783 -0.04098833 -0.12307197 -0.16007607
000210 cd 95 13 3e 1f 1c 63 3e bf 16 44 3e fe 27 1b 3c
       0.14412613 0.22178696 0.19149302 0.009469984
000220 95 99 4e 3c a2 1b db bc 3a e7 30 be 87 8f 9f 3d
       0.012609859 -0.026746575 -0.17275706 0.077910475
000230 d8 15 29 3e 12 82 32 3e 33 4f 81 bd 9b c1 21 bd
       0.16512239 0.1743243 -0.06313934 -0.039491277
000240 65 c6 89 be 8d 98 4d 3d fe b6 6a bd 28 8a d3 3c
       -0.26909176 0.050194312 -0.05730342 0.025822714
000250 60 66 83 3d de dc 5a be 2c ee 12 be 4e db 35 be
       0.06416011 -0.21373317 -0.14348668 -0.1775944
000260 b2 57 f4 be bd 16 f3 3d c9 f7 31 3e 49 44 6f 3e
       -0.47723156 0.11869571 0.17379679 0.23365892
000270 cd fb 8f 3d 68 c5 18 bd 6a d4 9a be aa 30 7d 3e
       0.07030449 -0.037297636 -0.30240184 0.24725595
000280 d3 36 4e 3e bb be 96 bd 99 8c 20 3d 33 a1 a8 3e
       0.20138101 -0.07360598 0.039196584 0.32935485
000290 3b 6c 14 3e c0 31 31 3c 32 4a af 3e 19 06 8d be
       0.14494412 0.010815084 0.34236294 -0.27543715
0002a0 a4 c9 7b be d0 90 09 3e 44 c7 9c be cc 93 85 bd
       -0.24588639 0.13434148 -0.30620778 -0.06522331
0002b0 1b 77 83 bb 64 d9 83 3e de b2 96 3d 92 d9 0d 3e
       -0.004012001 0.25751793 0.07358335 0.13852528
0002c0 7d e5 c9 be e5 62 41 3e cd 8f 28 be be 53 2f bd
       -0.39432898 0.18885382 -0.16461106 -0.042804472
0002d0 d0 9c ab be 27 62 a6 bc 1c c2 4f bd d7 33 81 bd
       -0.33518076 -0.020310475 -0.050722227 -0.06308716
0002e0 0e 83 ff 3c 07 fb 56 3d 75 51 d9 bc ab 79 a2 be
       0.031190421 0.052485492 -0.0265281 -0.3173345
0002f0 5c 16 d3 3d 90 a8 2c be 38 8b 5a 3e 82 1e c9 3e
       0.10306999 -0.16861176 0.2134217 0.39281088
000300 f1 80 42 3e 7c ca 7f 3e 08 77 cb be d9 31 89 bd
       0.189945 0.24979585 -0.3973925 -0.06698961
000310 d8 c3 e1 3d 8f 38 99 bd 03 d5 2c bc f6 a8 54 bd
       0.11023682 -0.07481491 -0.010548833 -0.051918946
000320 74 31 5b be c0 b5 50 3d 98 2e 56 be d1 5d 99 be
       -0.21405584 0.05095458 -0.20916212 -0.2995439
000330 77 e8 a8 3c e0 c0 44 3e 73 34 a9 3d 00 07 89 ba
       0.02061866 0.19214201 0.08261957 -0.0010454357
000340 75 64 10 be 7d 56 a7 be 67 e0 86 3d db 42 9b 3e
       -0.14100821 -0.32683173 0.0658577 0.30324444
000350 79 ad 04 be a2 eb bd be e7 cf 26 be aa a1 b5 bc
       -0.129568 -0.37093836 -0.16290246 -0.022171814
000360 d5 a6 ab be 15 08 37 3e 58 bf bf be f8 47 cd 3e
       -0.3352572 0.17874177 -0.3745067 0.4009397
000370 f7 31 52 be b1 87 01 3d 4c e6 89 3d a7 05 87 3e
       -0.20526873 0.031623546 0.06733379 0.263715
000380 4d 52 da bd e8 5f 21 3e 59 c6 9c 3e 68 b3 ab be
       -0.10660229 0.15759242 0.30620077 -0.33535314
000390 e6 11 2a be e8 fd b3 3d 4d d0 6e be 05 9f 4c bd
       -0.1660839 0.08788663 -0.23321648 -0.04995634
0003a0 19 50 18 3e 8e 81 0d bf ec 0a 6e be 34 13 97 be
       0.14874305 -0.5527581 -0.23246354 -0.29506838
0003b0 9c a5 1e be 87 f0 32 3e ec bd 04 be 86 89 3b be
       -0.15492862 0.17474566 -0.12963074 -0.1831418
0003c0 c5 2a 05 3d 2e 31 50 be f9 a9 0f 3d b4 93 bf 3d
       0.03251149 -0.2033126 0.035074208 0.09354344
0003d0 58 f5 a4 bd a5 85 91 3e 36 53 32 be 8e f0 e4 3d
       -0.08054608 0.28422275 -0.17414555 0.11178695
0003e0 3d c3 74 be 2b 8d 50 be ad 1d 09 3e da 9c 6f 3d
       -0.23902602 -0.20366351 0.13390227 0.058499195
0003f0 aa 39 5c bd 0b 3e 50 bd 7f 0b bd be e0 0f 87 3d
       -0.05376593 -0.05084042 -0.36922833 0.06594825

network_body._body_endoder.seq_layers.0.bias f4 [128]
000000 58 48 20 b9 04 51 5d bb 84 ef 3f 3b 59 e3 36 39
       -0.00015285739 -0.0033770213 0.002928705 0.00017441566
000010 70 bb d6 ba 74 8f 6b 3c c2 a4 d8 3b 8f 4c 66 3c
       -0.0016382765 0.014377464 0.0066114375 0.014056339
000020 0f d0 73 3c ed a2 8d 3a 00 0b 56 ba c2 67 2c 3c
       0.014881148 0.0010806002 -0.0008165091 0.010522785
000030 a0 c1 95 3a 5f fe 38 bb 9e 52 ab bb be d4 d1 bb
       0.0011425503 -0.002822779 -0.0052283546 -0.0064035347
000040 50 cb 8d 3b c7 bb 83 3b e3 57 ab 3b a1 d1 dc 3b
       0.0043272153 0.0040201875 0.005228983 0.006738857
000050 cc 12 f4 3b 50 75 9f 3b 26 72 00 3a 09 dd ca 3b
       0.00744853 0.0048662797 0.0004899822 0.0061909
000060 8e cf 93 bb 43 1e 1f 3c ed 81 9c bb b0 ae cd 3b
       -0.0045108264 0.009711805 -0.0047762305 0.006276928
000070 6a e5 a8 b9 e0 d9 67 ba a1 df 17 bb 89 b9 10 3c
       -0.00032214384 -0.00088444166 -0.0023174065 0.0088332975
000080 b1 1b f4 bb fc ce 16 bb e9 3b 1f ba ce 7d 9a bb
       -0.00744959 -0.0023011556 -0.0006074296 -0.004714704
000090 90 59 d0 bb 9f 70 a3 3b 8a 4f 68 bb 14 8b 4e 3c
       -0.006358333 0.0049877907 -0.00354478 0.012606401
0000a0 7d f8 0a 3b ae 14 5c bc 55 d3 d8 bb 51 43 17 bb
       0.002120524 -0.013432665 -0.0066169896 -0.0023080895
0000b0 98 bb b7 b9 ec 30 0e ba 50 4e 4f bb 79 8d 19 3b
       -0.00035044248 -0.000542416 -0.0031632371 0.0023430272
0000c0 99 c0 32 3c 35 13 91 ba 0b de 07 bc 82 0d 66 3c
       0.010910177 -0.0011068346 -0.008292685 0.014041306
0000d0 f7 96 a8 ba c8 9f 7f bb a0 78 39 3b 24 43 d2 b9
       -0.0012862374 -0.003900515 0.0028300658 -0.00040104345
0000e0 b9 f6 07 3c d7 a5 28 bc 1a 90 9e 3b d0 dd a4 3a
       0.008298569 -0.010293446 0.0048389556 0.0012578312
0000f0 ae 3b 9b 3b c9 11 92 3b e3 12 26 3a 37 41 cb ba
       0.004737339 0.0044576866 0.0006335212 -0.0015507106
000100 af 96 1b bc 3a 72 85 3a 85 df 1f bb 83 ab 14 3b
       -0.009496375 0.0010181137 -0.0024394703 0.0022685237
000110 00 ea 75 3a e4 20 b4 ba 26 d6 d1 3a 52 57 63 bc
       0.0009380877 -0.0013742712 0.0016009256 -0.013875799
000120 09 89 32 ba 8a 1d 88 3a a8 d2 c9 bb 14 f0 9f bb
       -0.0006810581 0.001038478 -0.0061591454 -0.0048809145
000130 cf 15 77 ba fd 01 62 b8 64 d9 22 bc 3b 3d aa bb
       -0.0009425552 -5.388445e-05 -0.009939525 -0.0051952875
000140 91 0e 54 ba 50 82 0d 3c 31 7e 7d 3b 92 ce 03 b9
       -0.0008089329 0.008637026 0.0038679952 -0.00012570087
000150 3e f1 5f 3b 3d a8 97 3b 35 76 dd 3b 95 ed b5 3a
       0.003417089 0.00462821 0.006758476 0.0013880009
000160 3b af 72 ba 75 4a 90 3b c6 28 fb bb 80 c5 17 3c
       -0.0009257679 0.004403407 -0.0076647727 0.009263396
000170 fe a4 97 bb 9d cb 81 ba 8b d6 9a bb 60 78 33 bb
       -0.004627823 -0.00099026 -0.0047252825 -0.0027384982
000180 ff 68 51 bb 56 11 27 3c 5c 9a 84 bb 3e 8a 9d ba
       -0.0031953452 0.010197004 -0.0040467214 -0.0012019349
000190 9f 9d 19 ba 38 ad 50 bb ad 18 25 ba 8d 99 42 3b
       -0.0005859974 -0.0031841528 -0.00062979275 0.0029693574
0001a0 18 43 e2 3b ec 1f 1c 3b 36 56 0f 3c 61 4f 20 bb
       0.006904971 0.0023822738 0.008748582 -0.0024461376
0001b0 16 21 f9 3b bf 49 cd bb 7d 89 b1 3a fd b6 f6 3a
       0.007602821 -0.0062648947 0.0013545003 0.0018822845
0001c0 f8 f9 7f bb 61 db 64 bc 0d 74 01 3b 9a 15 94 bb
       -0.0039058905 -0.01396832 0.001975301 -0.0045191767
0001d0 52 92 35 3b d7 9c 45 3b 57 9d 2b bb 9a 71 1a 39
       0.0027705622 0.0030153298 -0.002618631 0.00014728904
0001e0 df 7e 59 bb f0 d1 de bb 00 44 5c 3b 07 b2 7b 3b
       -0.0033187193 -0.006799929 0.0033609867 0.0038405673
0001f0 75 c9 2e bb a1 d8 1a 3b ba fc 06 3b 51 99 6a bb
       -0.002667037 0.0023627656 0.0020597414 -0.003579695

network_body._body_endoder.seq_layers.2.weight f4 [128, 128]
000000 6c e4 8b bd f7 08 7c 3a 15 1d f4 3d 8d 2f d9 bb
       -0.068306774 0.0009614373 0.119196095 -0.006627983
000010 aa 2b 66 39 9a d8 9e 3c f8 05 24 bd a3 f3 35 3e
       0.00021950775 0.019390393 -0.040044755 0.17768721
000020 4a 38 50 3d 95 d8 59 3e 95 11 89 bc dd ce b1 bd
       0.05083493 0.21274026 -0.016732017 -0.08682034
000030 df 17 07 3d 1e 57 25 be 98 51 a7 bd 2a 1e 86 bd
       0.03298175 -0.16146514 -0.0816986 -0.06548722
000040 e5 e4 18 3d 49 62 04 be 98 a2 da 3c a3 2b c8 3d
       0.037327666 -0.12928118 0.026688859 0.09773948
000050 42 54 9c 3c 07 93 fe 3d 7a f5 81 3d f0 a8 ff bb
       0.019083146 0.12430387 0.06345649 -0.0078021213
000060 b3 24 68 3c 4e ec 26 3e 37 b1 07 3e 66 b8 91 bd
       0.014168906 0.1630108 0.13251196 -0.07115249
000070 36 6e 92 bd 53 27 89 3c 64 c6 41 be dc b4 e3 3c
       -0.07149927 0.016742384 -0.18923336 0.027796201
000080 51 a7 15 be 2a b5 b3 bd cf 01 6b bd 0a a6 85 bd
       -0.14614607 -0.08774789 -0.05737477 -0.0652581
000090 f3 04 7a bd e7 76 9f bd fc 0f 9e bd 33 fc 37 3d
       -0.061039876 -0.07786351 -0.077178925 0.04491825
0000a0 8f 34 dc 3d 44 f5 a9 bd 78 77 d0 bd 45 07 0d bd
       0.10752212 -0.08298734 -0.10179037 -0.03443076
0000b0 71 bf fb 3d 03 50 f7 3b b4 72 4a 3d be d0 1a 3e
       0.12292374 0.00754738 0.049425796 0.15118691
0000c0 c9 f2 01 be 3c 51 36 3e 27 e7 c1 3b 22 e0 1d 3d
       -0.12690271 0.17804426 0.005917448 0.038543828
0000d0 a5 9e 2b 3c d0 95 9d 3d 56 b5 c6 bc 6a 84 cd bd
       0.0104748355 0.0769459 -0.02425639 -0.100350216
0000e0 05 78 59 bd b1 3c 9f 3d e9 ef 74 bd 60 35 28 bb
       -0.053092975 0.07775248 -0.05979911 -0.002566658
0000f0 4e b8 44 bd 79 29 5e bd d5 ad 5a 3d 3f 14 af 3c
       -0.04802733 -0.05423877 0.053388435 0.021371959
000100 8f 65 54 3d 26 fd 5b bd f2 0f 06 3e 44 fe ae 3d
       0.051854666 -0.053708218 0.1309202 0.08544591
000110 95 db 04 be 91 23 0e be 89 b3 9a 3d 3c 9e 1d bd
       -0.12974389 -0.13880755 0.07553775 -0.038480982
000120 a0 39 b8 bc 2d 4f 07 3d 36 28 b7 bd 83 01 63 3d
       -0.022488415 0.033034492 -0.089432165 0.055421364
000130 3f 77 a1 bc 1c aa be 3d 4c dd 45 3d 6c 24 46 be
       -0.019710181 0.093097895 0.04830675 -0.19349831
000140 f5 2b e9 3d 8e f1 1f 3e 11 cb f2 3d 14 06 85 bd
       0.11385337 0.1561949 0.11855138 -0.064953
000150 b3 81 c2 bc 33 32 a2 3d 8b 9d 3a be fb d6 55 3e
       -0.023743486 0.07919731 -0.1822416 0.2088279
000160 63 24 10 3e f4 e2 8d bd ec 9f 53 3d 58 c7 8d bc
       0.1407638 -0.069280535 0.051666185 -0.017306969
000170 eb 1d c5 bd a6 03 fe bb e7 43 01 be 46 55 b8 3d
       -0.09624847 -0.0077519 -0.12623559 0.090006396
000180 46 4e ce 3d 63 4f e3 3d 74 e1 fc bd fb b2 f2 3c
       0.10073523 0.11099126 -0.12347689 0.02962636
000190 d2 db 2d be 69 8f 8f bd 0a 4b 80 bc 54 e3 a8 bd
       -0.16978386 -0.07009775 -0.015660781 -0.082464844
0001a0 9d 53 b0 3c 7f ea cf bc 37 bb 8a bd d2 7d 7c 3b
       0.021524245 -0.025380371 -0.0677399 0.0038527143
0001b0 97 fc a4 bd cb 6f 2a bd c7 fc 4d bd f6 ae 24 3e
       -0.0805599 -0.04161052 -0.050289895 0.16082367
0001c0 c3 b6 c3 bc 76 a5 55 bb 1c f1 a7 3d 5c ea a1 3d
       -0.023890859 -0.0032599843 0.08200285 0.07906029
0001d0 e9 a2 e3 bd dc 5f a5 bd 0d 23 56 3c e2 d3 84 bd
       -0.11115057 -0.08074924 0.01306988 -0.06485726
0001e0 36 11 b3 3d 98 d8 6b bb 96 44 b3 bc 6c 27 1f bd
       0.08743517 -0.0035987254 -0.02188329 -0.038855955
0001f0 d0 65 96 bd da bd 2f 3d cb c8 28 3d 1c 7b 74 3d
       -0.07343638 0.042905666 0.041207116 0.05968772
000200 8a 6d 4b bd 15 1b b5 3d be fd 6c bc d3 e3 10 be
       -0.04966501 0.08843056 -0.014464794 -0.14149408
000210 0b dc 86 3d 7e 5f 05 bd ab d6 7d bd 72 f7 49 bd
       0.065849386 -0.03256177 -0.0619723 -0.049308248
000220 44 b7 77 3d 69 32 a9 bd 9f b9 5f bc 29 39 b8 bd
       0.06047751 -0.08261568 -0.013655095 -0.089952774
000230 24 d2 3f be b4 20 8f bd 47 a1 2b 3e 20 88 19 bb
       -0.18732506 -0.069886595 0.16760741 -0.0023427084
000240 93 2b d8 bd db b0 d4 3c f5 8e 14 3e 2a b6 e4 bd
       -0.10555186 0.025963238 0.14507659 -0.111675575
000250 aa 17 0b bd 1d 0a 66 be 5b aa 9a bc 99 ac c8 3c
       -0.033958115 -0.22464795 -0.01888006 0.024496363
000260 8a 16 d4 bd 73 1d 8d 3c ec 43 c3 3d 6a bd 71 3d
       -0.103558615 0.017225957 0.095344394 0.05901853
000270 69 50 82 bd ff 10 da bd 1e 5a 11 3d 9b b0 2a 3d
       -0.06362993 -0.10647773 0.035486333 0.04167233
000280 4f 33 91 bd d9 36 18 3d f9 03 b3 bc 81 21 3e be
       -0.070898645 0.03716168 -0.02185248 -0.18567468
000290 7c d8 e2 3d 81 b9 2b 3c 34 f0 ac 3b a4 b7 50 bc
       0.11076447 0.010481239 0.005277658 -0.012739096
0002a0 b2 80 de 3c 55 dd f6 bd fb c3 bf bd 2a 27 50 3d
       0.027160976 -0.120539345 -0.09363552 0.0508186
0002b0 b6 61 26 3d 30 87 35 bc 8c ef 91 3d 8e a4 9d 3d
       0.04062053 -0.0110795945 0.07125768 0.07697402
0002c0 be 4b 34 be 03 17 45 bd f6 aa 23 bd ff 18 6e 3d
       -0.17607018 -0.04811765 -0.039957963 0.058129307
0002d0 a4 92 2f 3e 12 20 ed bd ac a2 06 be be 14 95 bd
       0.17145783 -0.115783826 -0.13147992 -0.07279347
0002e0 c6 19 b1 3d 47 15 06 3d 4e b2 94 bd f2 c8 0e be
       0.08647494 0.032735135 -0.072605714 -0.13943842
0002f0 5b d5 d7 bd 9b 86 c6 bd 07 36 a5 3b 01 62 8f bd
       -0.10538741 -0.09693643 0.005041841 -0.07001115
000300 1e a6 a5 bc 0f 16 d1 3c 20 14 76 3d eb 73 93 bd
       -0.020220812 0.025523214 0.060077786 -0.07199844
000310 c4 56 02 3e 3f ba a0 3d eb 16 91 3d 26 23 73 3d
       0.12728411 0.078480236 0.070844494 0.059359692
000320 bc ef 09 be 19 32 bb bd 08 0e 0e be d3 3a 5e bd
       -0.13470358 -0.09140415 -0.1387254 -0.054255318
000330 c7 51 10 bd c0 ee be bd 59 f1 f6 bd 97 90 50 bb
       -0.03523424 -0.09322882 -0.12057752 -0.0031824464
000340 58 c5 ef 3d d4 33 0b 3e b0 45 9f 3b 32 03 ce bd
       0.11707562 0.1359399 0.0048606023 -0.10059203
000350 03 ca a7 3d 64 35 f6 3d 94 59 84 bd df e7 d8 bc
       0.081928276 0.12021902 -0.06462398 -0.026477752
000360 25 4d c2 bd fd bc 5d 3e 75 4c d9 bd fc f4 d9 bd
       -0.094873704 0.21654125 -0.10610286 -0.1064243
000370 e0 dc 28 bb 7d 88 8f 3d 43 52 55 be f3 99 58 bc
       -0.0025766417 0.07008455 -0.20832162 -0.013220298
000380 ba 76 42 bd ac f7 00 3e 6b e2 39 3d 31 fb a9 3c
       -0.047476508 0.1259448 0.045381945 0.02074966
000390 e4 78 5d bd ef f4 3d bd c7 c8 9e bd 9e ca 95 39
       -0.05407037 -0.046376165 -0.07753139 0.00028570456
0003a0 c3 e1 34 bd 54 00 9f 3d 76 26 a6 bd 43 9c e1 3d
       -0.044160616 0.077637345 -0.081128046 0.11016133
0003b0 cc 30 d2 bc ea 27 55 be 24 fb 3f 3d 01 c1 83 bd
       -0.025658034 -0.20816007 0.046870366 -0.06433297
0003c0 0e d3 c4 3c 23 f1 dc bc 68 7f 48 3b 70 1c 59 bd
       0.02402642 -0.026970452 0.0030593518 -0.053005636
0003d0 7e 4b 71 bc 92 f3 64 bd 43 e4 ab bc fc 3f 1f bd
       -0.014727471 -0.05589635 -0.020982867 -0.03887938
0003e0 82 f2 d6 3d a6 70 ef bd 6f a2 65 3d 53 cb 0a be
       0.104954734 -0.11691408 0.056063112 -0.13554125
0003f0 e1 8e b3 bc d0 fa 11 3b 59 05 0d bd 8a 99 8e bc
       -0.021918716 0.002227474 -0.034428928 -0.017407198

network_body._body_endoder.seq_layers.2.bias f4 [128]
000000 fa 17 82 bb c4 27 66 3b c4 7d 6c 3b 74 7a 85 bb
       -0.0039701434 0.0035118917 0.0036085704 -0.0040734354
000010 8b 46 af 3b 4c 1b ba 3b 1b d4 9a bb 38 ba 20 bb
       0.0053489855 0.0056795236 -0.004724992 -0.0024525058
000020 5f bd 27 3a 7c c1 b6 bb 24 46 a1 3b 10 e4 fb bb
       0.0006398763 -0.0055772644 0.0049216915 -0.0076870993
000030 f2 2b 58 bb e3 c6 2e ba db 2a 06 3b ff 2f ce 39
       -0.0032985178 -0.00066672097 0.0020472321 0.00039327142
000040 d1 76 13 3b 0c d4 39 bb 48 f3 74 bb 9b 68 01 3c
       0.002250124 -0.002835515 -0.0037376452 0.007898475
000050 48 13 6c 3b b4 83 0e 3b f3 fa 2a bc 93 d9 0b bb
       0.0036022235 0.0021745982 -0.0104358075 -0.00213394
000060 f4 4c 89 3b 33 43 b3 b9 44 27 71 3c 03 d6 0a 3b
       0.0041900817 -0.00034191608 0.014718834 0.002118469
000070 12 8f 15 bc 8c 0e ca 3a b3 ab 07 bb 65 87 a6 3a
       -0.009128349 0.0015415712 -0.0020701706 0.0012705146
000080 18 95 f7 3a 61 80 d9 ba 4a b4 3b 3b 6a c6 a8 37
       0.0018889038 -0.0016594046 0.0028641396 2.0119554e-05
000090 ba 18 b5 bb c1 55 fc ba 54 11 2b bb 7b b8 94 b9
       -0.0055266293 -0.0019251631 -0.0026102858 -0.00028366208
0000a0 70 3e 28 bc 30 a3 c6 bb 9f f8 11 bb f9 9d 85 bb
       -0.0102687925 -0.006061934 -0.0022273434 -0.0040776697
0000b0 3b 64 11 3c 61 1e 2d 3c cd 85 74 bb e4 7b 2a bb
       0.008873994 0.010566325 -0.0037311197 -0.0026013786
0000c0 88 15 6c 3c a8 ce 92 bb fb 3b 03 39 66 44 80 bb
       0.01440943 -0.0044802018 0.00012515478 -0.0039144037
0000d0 5c d2 9c ba ca c7 38 3b 7d 78 da ba 7f ce 42 ba
       -0.0011964547 0.0028195255 -0.0016667988 -0.0007431283
0000e0 b4 23 2d 3b 77 26 41 bb e5 76 b5 bb c9 66 0a 3b
       0.0026418986 -0.002947239 -0.005537855 0.0021118394
0000f0 b6 37 e5 3b 9d 79 ec b9 88 df 2c bb 0a c3 0a bb
       0.0069951667 -0.00045104037 -0.0026378352 -0.0021173381
000100 dc a6 2a ba 77 33 85 39 fc 25 ae 3a 1e 8e ba bb
       -0.00065098493 0.0002540608 0.0013286467 -0.005693211
000110 50 09 0e 3a ec 8d 0e 3c 5f 03 54 bb a0 02 ef 3b
       0.0005418258 0.008700829 -0.0032350642 0.007294014
000120 fb 41 2b 3b c3 cb 00 3b f4 c1 28 bb 3b f8 50 bb
       0.0026131857 0.0019652701 -0.002575037 -0.0031886238
000130 b8 e9 07 3b b1 25 d8 bb 8d 06 aa bb 94 83 e6 3c
       0.0020738672 -0.00659629 -0.005188769 0.028138913
000140 fb d9 36 bb 4c 46 7a ba f8 ca 1b 3c 90 cb f5 ba
       -0.0027900923 -0.0009547218 0.009508841 -0.0018752683
000150 2d 4d 1a 3b e0 13 8a 3b 96 dd ec ba 9d 0e 15 3c
       0.0023544536 0.004213795 -0.0018071409 0.009097722
000160 5b 78 b5 b9 eb f5 47 bc 51 89 fb b9 a2 dd 39 bb
       -0.00034612682 -0.0122046275 -0.0004797676 -0.0028360863
000170 2d f6 e5 ba 05 9a 52 3b 03 fe 9f bb a8 1a 9f 3a
       -0.001754468 0.003213526 -0.0048825755 0.0012138681
000180 89 ab b8 3b 82 89 a3 ba 26 16 aa ba 95 14 07 bb
       0.005635683 -0.0012476894 -0.0012976571 -0.0020611633
000190 24 79 1a 3a 36 95 e0 3a 14 5a 86 39 09 d6 80 bb
       0.0005892685 0.0017134312 0.00025625585 -0.003931765
0001a0 13 a7 ed ba 70 6e 42 bb 8a f6 0a bb d1 19 0a 3c
       -0.0018131457 -0.0029667877 -0.0021204078 0.008429007
0001b0 c4 c2 83 3b 72 51 95 ba 36 42 02 bb 3e f6 c0 3b
       0.0040210206 -0.001139207 -0.001987589 0.0058887294
0001c0 75 94 9c bb dc ee a2 3a 65 79 9a ba ce a0 2e b9
       -0.0047784396 0.0012430805 -0.0011785446 -0.00016653838
0001d0 a2 0d 90 bb 95 75 36 3a b0 0d 18 3c 90 63 c3 3a
       -0.0043961564 0.000696027 0.009280607 0.0014906991
0001e0 ac 98 9b ba 08 74 3c 3c bc ab 43 bb d5 d6 d7 39
       -0.0011871061 0.011502273 -0.0029857 0.00041168058
0001f0 d1 f2 96 3b d6 80 b9 3b 46 60 5d 3c c2 18 12 bb
       0.0046065827 0.0056611104 0.013511723 -0.002229259

action_model._continuous_distribution.log_sigma f4 [1, 2]
000000 c3 74 f0 bc 8e 07 c0 bc
       -0.029352551 -0.023441102

action_model._continuous_distribution.mu.weight f4 [2, 128]
000000 27 3b 97 3c bd 21 d6 bc 6f c1 3f bc ec 61 c6 3c
       0.018460823 -0.026139135 -0.011703833 0.024216615
000010 bc 4e 83 bb 2e 8e cd 3b 99 a4 8f 3c 43 77 37 3c
       -0.0040071886 0.0062730527 0.017534541 0.011197868
000020 99 c3 1b 3d 7f 05 f9 3b c0 06 71 bb e2 4b 99 3b
       0.038028333 0.007599532 -0.0036777705 0.0046782354
000030 3b 8a 4a 3c e8 c9 7e ba 94 c1 0b 3c 3d 4c 05 bd
       0.012362058 -0.00097194174 0.008530039 -0.03254341
000040 d3 39 0c ba f0 bf 97 bc 8e 7c 86 3c b8 5a f0 bb
       -0.00053491927 -0.01852414 0.016416814 -0.0073350333
000050 33 ac 53 bb 36 13 8d bc 35 14 f8 39 d2 4d be ba
       -0.0032298684 -0.017221075 0.00047317302 -0.0014519042
000060 f0 55 9c bb a9 d0 40 bc e9 a3 07 3b 2c 3d 28 3d
       -0.0047709867 -0.011768498 0.0020697063 0.041073963
000070 71 e8 6f bb b6 21 67 bd d1 fd 60 3c 0c bd 4b bc
       -0.0036607052 -0.056428634 0.01373239 -0.012435209
000080 25 3b 8a 3c ba 00 5b bc 99 cc 13 bb 68 dd 4b 3d
       0.016873905 -0.013366872 -0.002255237 0.049771696
000090 4d 77 cd 3b ea cd 87 3c d6 b2 98 3c f4 c9 02 3c
       0.0062703253 0.01657768 0.018639963 0.00798272
0000a0 0a 31 a9 3c 9e 04 89 3c 48 4b 8b bc 29 f4 73 bc
       0.020653266 0.016725834 -0.01700367 -0.014889755
0000b0 0a c6 8b ba 55 88 e8 3a 27 45 27 3c 14 16 c5 bc
       -0.0010663879 0.0017740825 0.010209358 -0.02405838
0000c0 01 00 c6 b9 61 ff 7d 3b 88 25 a7 ba 01 bd cf 3c
       -0.00037765506 0.0038756954 -0.0012752274 0.025358679
0000d0 00 03 cd 3c da c5 21 3c a7 62 e4 3c 65 62 c8 3b
       0.025025845 0.009873832 0.027879072 0.006115245
0000e0 1f 64 88 bc 74 26 e4 bb d7 ea a2 3c 1c 5a 41 bc
       -0.016649304 -0.006962592 0.019887371 -0.011801269
0000f0 91 39 0f bc a2 6a dd 3c a7 a3 c9 3c 37 5b b3 3b
       -0.008741752 0.027028386 0.024614168 0.00547352
000100 eb 64 ea 3b a3 93 6a bc 79 f5 8d bc e9 dc b5 3c
       0.0071531436 -0.014317426 -0.017328965 0.022200065
000110 5f 95 78 bb 63 91 ad bc 1e ae 83 bc 58 1f 36 bc
       -0.003793083 -0.02118749 -0.016074236 -0.011115871
000120 4f f7 63 3c 76 52 79 3b c2 a1 27 3d 95 b8 5f 3c
       0.013913943 0.0038043535 0.04092575 0.013654848
000130 b7 78 59 ba 42 4a fb bc 86 9d 0a 3d 69 10 42 bc
       -0.0008295881 -0.030675057 0.033841632 -0.011844733
000140 27 d9 94 3c 3c ad 0c 3d 80 ba 60 bc f3 d9 0e 3b
       0.018169953 0.034344897 -0.01371634 0.0021797388
000150 78 0e f0 38 fe 88 ae bc 8d 4b a4 b9 bd bd 95 3c
       0.00011446787 -0.021305557 -0.00031336807 0.01827895
000160 ae 20 37 bb 67 b6 92 3c fb de 01 bc d3 bd 52 3c
       -0.0027943063 0.017909242 -0.007926698 0.01286264
000170 14 07 12 3d ee 0b 5b bc 42 8d 52 bc 63 93 b8 ba
       0.03565128 -0.0133695435 -0.012851061 -0.0014082011
000180 7b 5e 56 bc a8 92 12 3c 09 d8 9a 3c d3 14 b1 3c
       -0.013084049 0.008946098 0.018901842 0.021616375
000190 db df 9c bc 8c 55 90 bc 18 0a c6 3c c2 ed 8e 3b
       -0.019149711 -0.017618917 0.024174735 0.004361839
0001a0 08 2b 9e 3b bf 5c 6f bc c5 0a 2a bc 8c 59 b7 3b
       0.004826907 -0.014609515 -0.010378544 0.0055953916
0001b0 4d fb b7 3b 32 0e 71 3c 9e f7 dc 3c ba f4 02 3c
       0.005614674 0.014712857 0.026973542 0.007992918
0001c0 8f 58 14 ba e4 41 68 bc b7 ed ee 3b 73 2a 79 3c
       -0.0005658948 -0.014175866 0.0072915214 0.015207875
0001d0 22 76 21 3c 05 27 9b 3c ad 23 2a bd 74 3f 98 bc
       0.009854825 0.018939504 -0.04153793 -0.018584944
0001e0 36 0f cd 3c a5 a0 07 3d 03 7a d0 bb b7 3f 8e bc
       0.025031667 0.033112187 -0.006362201 -0.017364366
0001f0 59 dd d0 3b c5 f3 8f 3c 77 11 e1 3b 1e f0 cf 3c
       0.006374043 0.017572293 0.006868537 0.025383051
000200 23 2a 3c bb d9 ca c3 bb 65 f2 84 bc 71 42 ee bc
       -0.002871164 -0.005975109 -0.016228864 -0.029084416
000210 89 c3 44 bc 6b 86 9a 3c 76 88 6c bb 7b 27 24 bc
       -0.01200951 0.018862924 -0.003609208 -0.0100191785
000220 41 66 6c b9 09 88 e5 bc 9e bf fa 3b 2e 4a bf 39
       -0.00022544806 -0.028018968 0.007652237 0.00036485627
000230 c2 0d 2f 3d 6c da 2c 3c fd 59 c2 3b 80 fd 1f 3d
       0.04273773 0.010550123 0.0059311376 0.039060116
000240 dd 25 23 bc 54 1b aa 3c 4e b8 21 bc 82 f1 42 3c
       -0.009957758 0.020764984 -0.009870602 0.0118984
000250 86 e7 01 bd e6 cf 1c 3c bc cd 92 3c 62 a0 38 b8
       -0.03171494 0.009571051 0.017920367 -4.4018387e-05
000260 f8 f2 6b bc c8 1f a9 bc 6f 33 8f bc ec 35 c4 bb
       -0.01440119 -0.020645037 -0.01748058 -0.0059878733
000270 6a e7 6b 3c 21 dd d1 3c 22 89 71 3c f6 ee 8d bb
       0.014398435 0.025618138 0.014742168 -0.004331465
000280 e7 72 98 3c 3f 9b 3c bc 6e 9c 99 bc 43 a1 94 3c
       0.018609477 -0.011511623 -0.01875135 0.018143302
000290 7c 22 96 bc be 31 bc bc c1 93 9b bb 3b 4c 15 ba
       -0.01832699 -0.022972938 -0.0047478382 -0.0005695258
0002a0 37 64 a0 bb 72 6f 40 3c 53 b3 2c bd 75 4f 01 bd
       -0.004894759 0.011745321 -0.042163204 -0.031569917
0002b0 c7 07 b2 3b 2c 67 08 bd b8 38 84 ba f5 09 a4 3b
       0.005433056 -0.033301517 -0.0010087704 0.00500607
0002c0 41 73 73 bc 3e 25 91 bc 95 ae 73 3c cc bd 4a 3c
       -0.014859022 -0.017717954 0.014873167 0.012374353
0002d0 dd 8a a7 bc 17 39 a6 3c 1a f9 71 3c fb d8 9f 3c
       -0.020451957 0.020290894 0.014768863 0.019512644
0002e0 59 e7 1b 3c 81 1c 54 bc cf 6c 8c bc 85 de c0 bc
       0.009515607 -0.012946249 -0.017141728 -0.023543606
0002f0 5d 88 8e ba 3a ae 88 3c ac 8a 74 3b af a3 30 bc
       -0.001087438 0.01668464 0.00373141 -0.010781213
000300 c5 31 81 bc 45 b9 c1 3c 1d f0 fc bb 6c 8c f6 3b
       -0.015770802 0.023647914 -0.0077190534 0.007524064
000310 6b 5d 9b bc 0f c0 85 3c 36 f4 b5 bb 12 5b 65 bc
       -0.018965444 0.016326932 -0.005552794 -0.013998764
000320 a2 f2 d3 bc b7 9f 8f bb 5a 3b e0 3c c0 42 3c 3c
       -0.025872532 -0.004383053 0.027372051 0.011490524
000330 c8 66 5e bc 88 d5 a8 bc b8 82 0b 3d 12 92 0e 3c
       -0.01357431 -0.020609632 0.03406021 0.008701818
000340 60 7a 8b 39 8c 7b fe bb 27 93 0b 3c fd 4b c2 3c
       0.00026603322 -0.007766193 0.008518971 0.023717875
000350 12 54 44 3c ca 4a 4c b9 d5 e1 ff bb e5 54 1e b9
       0.011982935 -0.00019482817 -0.0078089037 -0.0001509968
000360 6e 50 1b 3c ef d0 45 bc 23 54 20 3d 48 87 2b 3d
       0.009479625 -0.012073739 0.03914274 0.04187706
000370 ee 3a 08 ba 14 64 85 bc 85 57 3e 3c ac 56 83 bc
       -0.00051967695 -0.016283073 0.011617546 -0.01603254
000380 2c ac c7 3b 5d 1c be 3b 33 5d af 3b 54 ea de bc
       0.0060935225 0.005801721 0.0053516864 -0.027211346
000390 31 10 67 3c ac 68 77 bc fd ce 3a bc c7 4d fa 3b
       0.014102981 -0.015100639 -0.011401889 0.0076386663
0003a0 30 ed 3c 3c 6c 6b 62 bc c3 e2 06 bc ef 3d 20 bd
       0.011531159 -0.013819557 -0.008232775 -0.039121564
0003b0 79 d6 0a bc 7a 51 94 3c ec d5 5b bc 83 96 6f bc
       -0.008473986 0.018105257 -0.013417702 -0.014623287
0003c0 5a 7b c4 3c b8 8f e3 3b 49 7b 58 bc 67 08 03 3c
       0.0239846 0.006944623 -0.013212987 0.007997609
0003d0 84 44 a2 3c f1 ff 10 bc 4b 41 81 3c 0e 44 7c bc
       0.019808061 -0.008850084 0.015778204 -0.015397085
0003e0 76 61 f4 bc ba 5e 27 bc 3f d7 5e 3c f9 96 4a 3a
       -0.02983163 -0.010215456 0.013601123 0.0007728185
0003f0 16 3f 4f bb b1 1d 1d bd 1b 62 23 bc 4a fd 41 3c
       -0.0031623296 -0.038358394 -0.009972121 0.011840174

action_model._continuous_distribution.mu.bias f4 [2]
000000 2d d7 fb ba 66 eb 17 3a
       -0.0019213908 0.000579527

action_model._discrete_distribution.branches.0.weight f4 [5, 128]
000000 94 b3 ae bb 18 31 04 bc c8 d0 6d bb 84 1e 13 bb
       -0.005331466 -0.0080683455 -0.0036287773 -0.0022448609
000010 61 6e 1c bc 0d 02 d5 bb 92 6b d7 3b cc 1f 4e 3c
       -0.009547801 -0.0065004886 0.0065741027 0.012580823
000020 44 54 3d bc 23 bc 81 3c 84 2d 9b bc 57 fe 07 bc
       -0.011555735 0.01583678 -0.018942602 -0.008300385
000030 5c 51 99 bc 66 a6 52 3b 70 9b 89 3a 68 41 23 bc
       -0.018715553 0.0032142638 0.0010498594 -0.0099643245
000040 07 45 43 3b 7e 4b 00 b9 11 73 ce 3b d3 1b 53 bc
       0.0029795782 -0.00012235154 0.006300338 -0.012885052
000050 dd 86 5a 3c a6 10 ab 3b 29 74 12 3b ca db 1e bc
       0.013337818 0.0052204905 0.002234707 -0.0096959565
000060 61 36 db bc d5 81 d7 bb 19 70 de 3c 31 2b 80 bc
       -0.026759328 -0.0065767565 0.027153062 -0.015645595
000070 17 48 ad bc 6c 67 59 3b fa f0 37 3c 88 d6 49 3c
       -0.02115254 0.0033173217 0.011226887 0.012319215
000080 b9 c4 95 bc b7 db af bc de 12 12 3c 5b 2a b8 3a
       -0.018282281 -0.021467073 0.008915631 0.0014050709
000090 14 0a f7 3a e8 c6 5e ba 32 08 b1 3b b9 b3 c6 3b
       0.0018847608 -0.0008498267 0.0054025883 0.006063905
0000a0 33 c4 ce 3b 3e 80 23 3b c5 cc 1e bc ef 82 d2 ba
       0.00631001 0.0024948264 -0.009692376 -0.001606075
0000b0 1e a3 11 bc 90 3b 23 3c 35 55 28 bc 3b c0 24 bc
       -0.008888988 0.009962931 -0.010274221 -0.010055597
0000c0 46 83 23 bc ce 3d 77 3c 88 d0 ad bb 68 7e 8b 3a
       -0.0099800285 0.015090419 -0.0053044 0.001064253
0000d0 b0 fe 85 3c 6c 42 b5 3c 1a d3 d0 3a 47 50 aa bb
       0.016356796 0.022126399 0.0015932054 -0.005197558
0000e0 48 72 d6 bb cd ff bc bb 44 22 b4 3a 12 bb 0b 3b
       -0.006544385 -0.0057677985 0.0013743122 0.002132122
0000f0 53 ec 85 3c b6 fb 98 ba 00 00 94 3c 9c 61 bc 3c
       0.01634804 -0.0011671695 0.018066406 0.022995763
000100 37 14 86 3b 6a 61 4e bb 6d 80 8b 3b ca f6 1e 3c
       0.0040917653 -0.0031491169 0.004257253 0.009702394
000110 18 55 8e bc dd 29 62 3c ad d1 b0 bb 27 62 87 bc
       -0.01737456 0.013803926 -0.005396089 -0.016526295
000120 19 9b 89 39 6a 08 36 3c cd 5b 42 ba d5 75 59 3b
       0.00026246233 0.0111104045 -0.0007414192 0.0033181806
000130 7b d5 43 bb c0 95 43 3c 05 55 3c 3c 2d 54 57 bb
       -0.0029881883 0.011937559 0.01149488 -0.003285657
000140 7f 9d 77 3a 52 60 f9 bb eb 98 74 bb 9e b2 64 3a
       0.0009445771 -0.007610359 -0.0037322592 0.0008724126
000150 b2 3b 44 bc 3b 1a 6a 3c fc 14 5e bc 96 37 03 bc
       -0.011977123 0.01428848 -0.013554808 -0.008008858
000160 80 e5 04 3c 2d 99 49 3c ce 05 00 bc 98 64 84 38
       0.008111358 0.012304586 -0.007813884 6.3129875e-05
000170 f4 86 e0 3c ad 47 25 3c fa 2c 7b 3a 53 83 50 bc
       0.0274081 0.01008789 0.0009581592 -0.012726623
000180 16 69 79 ba 19 ac 5b bc 2c 79 dc 3b 9e 43 61 bc
       -0.0009514255 -0.0134077305 0.006728312 -0.013749031
000190 4a e6 12 3b ad 41 6c 3b 02 76 de bb c8 dd c0 bb
       0.0022415095 0.0036049888 -0.00678897 -0.0058858134
0001a0 6f 17 9f bb bc 44 27 3c 12 54 d3 bc 24 89 f8 3c
       -0.0048550884 0.010209259 -0.025796924 0.030338831
0001b0 28 01 10 bc 1a ac 3a 3c f7 39 61 bc 77 93 b4 3b
       -0.008789338 0.011393571 -0.01374673 0.0055107432
0001c0 88 66 49 3c 40 60 cf bb 5f b1 4a bc 6f 5f 96 bb
       0.012292512 -0.0063286126 -0.01237139 -0.0045890133
0001d0 82 c9 3f 3a 5e 03 cc 3b cf 56 51 3b 2c 81 fb bb
       0.0007316099 0.0062259873 0.003194261 -0.0076753106
0001e0 de 6f 12 bc fb ce a3 3c 53 f2 b2 3c dd 76 08 3b
       -0.008937804 0.019996157 0.021844065 0.00208228
0001f0 b9 68 9d 3b ce 4e b9 3c 8d 86 46 bc b2 f9 ad bc
       0.0048037437 0.022620585 -0.01211704 -0.021237228
000200 ce ba 83 3b 7e 08 1c 3c 06 29 44 bc 4e 72 57 bb
       0.0040200716 0.009523509 -0.011972671 -0.0032874527
000210 04 9e 1c 3c 94 3c 43 bc be 17 e6 38 0d 66 1a bc
       0.009559158 -0.011916298 0.00010971677 -0.009423745
000220 57 a3 3d bc 8e 77 04 bb 33 3e 88 3b 5e 11 32 3b
       -0.011574588 -0.0020212862 0.0041578053 0.0027170996
000230 6a a5 26 3c f2 41 12 3c 01 bf 91 ba 40 e6 70 3b
       0.010171274 0.008926855 -0.0011119546 0.0036758333
000240 a6 b4 f8 bb 71 74 fe bb d6 a6 80 ba 6a fc 4d bc
       -0.0075898943 -0.0077653457 -0.0009815346 -0.012572387
000250 63 bc 8f bc 6f 82 d2 3b 0c bd 7c bc 6b 19 c5 3b
       -0.017545884 0.0064242403 -0.015425932 0.006014993
000260 43 26 01 bc 30 63 c8 bb 39 1e e5 3b c9 a9 8b 3b
       -0.007882657 -0.0061153397 0.006992128 0.0042621833
000270 76 d8 91 3c 17 26 ae 39 a8 19 ef ba a0 8f b5 3c
       0.017803412 0.00033216245 -0.0018241899 0.022163212
000280 fe b3 34 ba a1 34 ac 3a 2c 97 ad b9 af e2 24 bb
       -0.0006893276 0.0013138243 -0.00033109763 -0.0025159528
000290 a3 a2 c4 bb eb 2b 8e 3c 22 53 b8 3b ad 18 19 3c
       -0.006000833 0.017354926 0.0056251446 0.009344262
0002a0 e5 d8 43 bb 5a 23 68 3b 35 8a a0 3b eb 10 bb ba
       -0.0029883918 0.0035421462 0.004899288 -0.001427201
0002b0 68 8c 94 bb 16 36 ae ba 25 38 65 bc da c7 ed bb
       -0.0045333393 -0.0013291265 -0.013990437 -0.00725649
0002c0 55 f3 4d 3c 69 a1 8c 3c d3 d2 d3 bb ba 76 81 ba
       0.012570222 0.01716681 -0.006464341 -0.0009877302
0002d0 f6 8c 1d b8 c8 35 05 3d eb 95 94 3a 6f 86 0d bb
       -3.7562997e-05 0.032521993 0.0011336183 -0.0021595021
0002e0 4d 6b 48 bc af 4e 6a bc 0f 00 38 bc 1f 3b c9 bb
       -0.012232614 -0.014300986 -0.011230483 -0.006141081
0002f0 5c 1e 74 3c 3a ce 19 3a 5d 9a 58 3c 35 77 3f bc
       0.014899816 0.0005867217 0.013220397 -0.011686136
000300 7b 05 df bb 9c 7d 08 3c 39 7f 1e 3b 04 2a c7 3c
       -0.0068060732 0.008330729 0.0024184717 0.024312027
000310 f8 db 88 bb f8 1f 5f bc 38 8d 86 3c b3 49 6f bc
       -0.004176613 -0.013618462 0.01642476 -0.014604974
000320 0a ed 7e bb 80 33 58 bc cb 14 b2 3b 29 8e 31 bc
       -0.003889861 -0.013195872 0.0054346076 -0.010837116
000330 a7 d2 aa bb 28 6a 46 3c 69 fb 33 3a 34 b5 72 bb
       -0.0052131 0.012110271 0.0006865771 -0.0037034275
000340 95 ab 6a bb c2 9d 92 bc 54 81 2f bc ec 7a 3d 3b
       -0.0035807837 -0.01789749 -0.010711987 0.0028912378
000350 7a 7b bb 3b ab f0 27 3a c2 3c 15 bc 1e 5b fa 3b
       0.0057215067 0.0006406407 -0.009108724 0.0076402565
000360 1e cf 3f 3c 16 9f 68 3c 84 05 5c bb 37 1c a3 bb
       0.011707095 0.014198085 -0.0033572624 -0.0049777287
000370 25 be 96 3b 6b 36 c9 bb fc cf c1 bb 49 f3 8b 3b
       0.0046003037 -0.0061405203 -0.0059146862 0.004270945
000380 d6 ce 6d 3b b1 d5 96 3c 1f 89 67 ba df 1f ff 3b
       0.0036286614 0.018412443 -0.00088323833 0.0077857818
000390 33 63 5a bc 5a 4c a7 3c b2 3a ea bb 92 f4 18 bb
       -0.013329315 0.02042215 -0.0071481103 -0.0023339135
0003a0 6d 36 3a bc 9b b9 e9 3b 4d c6 a0 3b e3 08 90 3c
       -0.011365515 0.0071327216 0.004906452 0.017582363
0003b0 71 03 66 3c ef a9 ca bb bc f9 0a bc 90 35 34 bc
       0.014038906 -0.0061848084 -0.008482393 -0.010999098
0003c0 8f 23 20 3c 0c 0e 4e bc 62 22 05 3c cd 8a 08 3c
       0.009774103 -0.012576591 0.008125873 0.008333874
0003d0 21 e7 ae 3b 6e 58 3e 3c 20 79 95 bc 1d e8 f7 bb
       0.0053376113 0.011617763 -0.018246233 -0.007565512
0003e0 ec 32 85 3c ed 95 36 bc 72 58 26 3c 05 a3 3a bc
       0.016259633 -0.0111441435 0.010152923 -0.011391406
0003f0 7a be 8d bb a4 2a f8 bb 4f bf c9 bc 3b 1e a9 bb
       -0.004325685 -0.0075734425 -0.024627356 -0.0051610745

action_model._discrete_distribution.branches.0.bias f4 [5]
000000 d7 2b e7 bb 7d 05 88 bb 4c d4 40 bb 9f 45 63 3c
       -0.0070547867 -0.004151045 -0.0029423414 0.013871579
000010 44 fb bc bb
       -0.005767258

exp_avg f4 [128, 27]
000000 24 4e e8 b7 30 ef 89 b8 6d f7 6f b7 64 fa 46 b8
       -2.7692942e-05 -6.577221e-05 -1.4303118e-05 -4.7440073e-05
000010 d8 39 79 b8 a1 bc 40 b9 24 39 42 b8 2e c2 32 b9
       -5.9420097e-05 -0.00018380817 -4.630642e-05 -0.0001704774
000020 32 bd 25 b9 fc 03 ba 38 dd 25 5d b9 1a f2 82 b9
       -0.00015806107 8.869913e-05 -0.00021090308 -0.00024975912
000030 be 05 fb 38 34 1f 53 b9 fa 49 8d b9 68 81 2c 38
       0.00011969682 -0.00020134152 -0.00026948733 4.1128515e-05
000040 e8 42 77 b9 bd d8 91 b9 20 f7 8d 38 35 aa 6a b9
       -0.0002358068 -0.00027818038 6.7694345e-05 -0.00022379386
000050 89 93 90 b9 f4 70 8a 38 73 11 6c b9 89 93 90 b9
       -0.00027575743 6.601392e-05 -0.00022513214 -0.00027575743
000060 eb 70 8a 38 71 11 6c b9 d1 2f 73 38 ac 24 bd 39
       6.6013854e-05 -0.00022513211 5.7980247e-05 0.00036076212
000070 60 a5 7d b7 80 3b 3a b8 9e 29 08 b9 04 22 79 38
       -1.51184795e-05 -4.440127e-05 -0.00012985474 5.9397906e-05
000080 5f 31 0b b9 70 08 94 b7 9c 2e b1 37 16 85 d7 38
       -0.00013274465 -1.7646904e-05 2.1121748e-05 0.00010276788
000090 00 b2 53 34 9b ce 0a 38 02 59 35 39 2c 9f 22 39
       1.9715662e-07 3.309418e-05 0.00017294663 0.0001550882
0000a0 8c f6 c2 38 55 c5 d1 38 07 03 74 39 55 14 69 38
       9.296564e-05 0.000100026526 0.00023270781 5.5570465e-05
0000b0 5e 92 09 39 32 12 60 39 83 4d 4e 38 42 31 06 39
       0.00013119864 0.00021369083 4.9186416e-05 0.00012797586
0000c0 9b ee 63 39 af 88 59 38 42 31 06 39 9c ee 63 39
       0.00021737294 5.186413e-05 0.00012797586 0.00021737296
0000d0 ba 88 59 38 3d 95 32 b9 1e 11 37 38 62 cf 62 b7
       5.186417e-05 -0.00017030998 4.364654e-05 -1.3518935e-05
0000e0 ad ee 40 b8 b8 9a 6f b6 20 0d 81 36 6a 24 1a 39
       -4.599865e-05 -3.5703833e-06 3.8460275e-06 0.0001470015
0000f0 50 a5 3a b8 8d 35 ec b8 de 92 7d 38 f8 36 f6 b8
       -4.4499815e-05 -0.000112633315 6.045668e-05 -0.00011740433
000100 cd 02 89 b8 24 d8 b5 b8 71 98 b8 38 38 82 24 b8
       -6.533191e-05 -8.671012e-05 8.802198e-05 -3.9221923e-05
000110 33 cc 29 b9 8c d5 80 b8 09 9f d9 b8 58 58 1a b9
       -0.00016193166 -6.143292e-05 -0.00010376989 -0.00014719495
000120 18 ce a8 b6 ae fa a5 b8 67 1a 18 b9 81 b1 bd b7
       -5.0307826e-06 -7.914506e-05 -0.00014505685 -2.2613212e-05
000130 6a 74 ba b8 67 1a 18 b9 be b1 bd b7 70 74 ba b8
       -8.890855e-05 -0.00014505685 -2.2613323e-05 -8.890859e-05
000140 fc c8 73 b9 68 d9 a9 b6 cc e4 da b5 a0 05 c6 b4
       -0.00023249158 -5.061902e-06 -1.6308854e-06 -3.6884467e-07
000150 2a e9 d1 37 57 0d 29 b7 f0 fb 70 b7 dc 64 53 b7
       2.5023317e-05 -1.0076291e-05 -1.43637735e-05 -1.2600063e-05
000160 66 8c f4 b7 00 7c 81 b8 38 77 ef b6 7b 15 a6 b7
       -2.9152445e-05 -6.174296e-05 -7.136634e-06 -1.9798745e-05
000170 b6 cf 25 b8 d6 46 70 b8 b4 7b b0 b7 9c d8 6c b7
       -3.953251e-05 -5.728643e-05 -2.1038439e-05 -1.41171295e-05
000180 c8 4f b0 b7 60 e5 58 b6 7c 8b a4 b7 a8 ce 5a b8
       -2.1017986e-05 -3.2320022e-06 -1.9615276e-05 -5.2167714e-05
000190 0a 13 84 b7 a2 3c 99 b7 37 83 38 b8 b6 ca 42 b7
       -1.5744492e-05 -1.8267256e-05 -4.3991222e-05 -1.1610498e-05
0001a0 a2 3c 99 b7 34 83 38 b8 cc ca 42 b7 93 cc 9a b7
       -1.8267256e-05 -4.399121e-05 -1.1610518e-05 -1.8453493e-05
0001b0 54 54 d4 39 78 d5 e4 38 68 4a 81 38 af 26 64 38
       0.0004049862 0.00010911649 6.1650586e-05 5.4395463e-05
0001c0 e9 cd d4 38 15 e2 ad 37 43 4b 03 b9 b6 9e 06 39
       0.000101473015 2.0728485e-05 -0.0001252117 0.0001283836
0001d0 0b cd 50 39 90 96 b2 b6 96 29 6e 39 6a ee 56 39
       0.0001991281 -5.322341e-06 0.0002271294 0.00020497447
0001e0 ab 36 57 b9 ff 86 d3 38 b5 f2 a5 39 8b d9 6c b9
       -0.00020524363 0.00010086409 0.00031652083 -0.00022587755
0001f0 9a bc 08 39 8c 7c a1 39 38 42 2d b9 27 0a 0e 39
       0.0001304023 0.00030801108 -0.00016523234 0.00013545957
000200 8c 62 a2 39 cb 9f 31 b9 5a 46 0b 39 8c 62 a2 39
       0.0003097247 -0.00016939563 0.00013282281 0.0003097247
000210 c1 9f 31 b9 58 46 0b 39 d4 2c af 39 94 b4 0a b7
       -0.00016939548 0.00013282278 0.00033412 -8.267485e-06
000220 a4 c0 ec b6 a4 f4 a0 b6 df 8a f3 37 0d bd 3d 36
       -7.0557744e-06 -4.7968515e-06 2.9032524e-05 2.8273237e-06
000230 9e 7c f1 b7 80 48 f1 b4 17 e5 2b b7 ae f3 04 b8
       -2.8787468e-05 -4.49425e-07 -1.0245733e-05 -3.1698197e-05
000240 8a 3a 98 37 ef 8e c3 b7 35 e4 3b b8 58 a1 6a b6
       1.8147071e-05 -2.331237e-05 -4.479681e-05 -3.4962632e-06
000250 82 55 a9 b7 a1 2e 1d b8 54 b3 c4 b6 64 44 01 b8
       -2.0186188e-05 -3.7475143e-05 -5.8621317e-06 -3.081969e-05
000260 8b f2 20 b8 e2 94 f9 b6 dc 96 06 b8 de f1 1e b8
       -3.837286e-05 -7.4381105e-06 -3.208859e-05 -3.7895392e-05
000270 aa bb 05 b7 be 15 08 b8 de f1 1e b8 b5 bb 05 b7
       -7.971112e-06 -3.2445176e-05 -3.7895392e-05 -7.971122e-06
000280 bb 15 08 b8 ac c9 89 b7 72 87 98 39 30 db eb 37
       -3.2445165e-05 -1.6425583e-05 0.00029092614 2.811625e-05
000290 45 0b 2b 38 1e 6d 83 37 48 4e ad 38 a5 e5 9b 37
       4.0780073e-05 1.5667229e-05 8.263864e-05 1.8584376e-05
0002a0 fa 36 52 b8 93 35 d0 38 60 39 23 38 c2 a7 b7 37
       -5.0119103e-05 9.928192e-05 3.8915663e-05 2.1893418e-05
0002b0 78 5d 8b 38 30 86 95 38 e5 d2 94 b7 e5 7e 44 38
       6.6454464e-05 7.129868e-05 -1.774118e-05 4.684822e-05
0002c0 72 7b 90 38 42 0c 07 38 9d d2 79 38 3a 45 58 38
       6.8894486e-05 3.2197924e-05 5.9562375e-05 5.1562885e-05
0002d0 03 89 b0 37 53 26 77 38 a5 bb 3e 38 32 9e b0 37
       2.1044636e-05 5.892508e-05 4.5474288e-05 2.10545e-05
0002e0 06 66 7b 38 a5 bb 3e 38 25 9e b0 37 17 66 7b 38
       5.993808e-05 4.5474288e-05 2.1054477e-05 5.9938142e-05
0002f0 52 c9 19 38 48 db b8 b6 c4 b7 dd b4 86 61 06 b5
       3.6665537e-05 -5.509155e-06 -4.1298165e-07 -5.0060805e-07
000300 28 53 69 b6 18 fa 34 35 51 cf 30 35 ac d3 28 b5
       -3.476811e-06 6.741916e-07 6.5866794e-07 -6.28929e-07
000310 54 57 76 b5 6d fe c9 b5 d3 ec 4f b5 12 18 b9 b5
       -9.176922e-07 -1.5049715e-06 -7.7458134e-07 -1.379058e-06
000320 b5 83 23 b6 bd b3 41 b6 38 5e 86 b5 e0 1e 16 b6
       -2.4365556e-06 -2.8863863e-06 -1.0011199e-06 -2.2369713e-06
000330 04 99 6e b6 64 8f 81 b5 05 70 11 b6 c3 a8 6f b6
       -3.555383e-06 -9.652981e-07 -2.1671888e-06 -3.5712008e-06
000340 5c 40 6a b5 14 92 07 b6 81 a2 80 b6 56 8d 8b b5
       -8.726545e-07 -2.0201596e-06 -3.833615e-06 -1.0397441e-06
000350 14 92 07 b6 87 a2 80 b6 36 8d 8b b5 b8 44 d3 b5
       -2.0201596e-06 -3.833618e-06 -1.0397405e-06 -1.5740725e-06
000360 38 08 47 b5 c9 98 b2 b4 0c d3 fd b4 3e bf 91 35
       -7.4145237e-07 -3.326625e-07 -4.727848e-07 1.0859001e-06
000370 2a c4 a9 b5 e8 3e 7f b5 50 3b bf b5 17 eb 1d b6
       -1.2648572e-06 -9.5086443e-07 -1.4247871e-06 -2.3531663e-06
000380 44 6f 21 b5 e6 ed 53 35 34 08 0a b6 a6 87 46 b5
       -6.0139087e-07 7.8949813e-07 -2.0568377e-06 -7.395814e-07
000390 88 4a 8f 35 27 1a 14 b6 a1 56 15 b5 00 1e db 35
       1.0676022e-06 -2.2068941e-06 -5.5632887e-07 1.6325503e-06
0003a0 ca c4 1a b6 6c a2 1f b5 ed 09 d3 35 48 b2 1a b6
       -2.3062335e-06 -5.946847e-07 1.5723614e-06 -2.3051562e-06
0003b0 b7 13 1e b5 f8 04 d0 35 ba 8e 1b b6 b7 13 1e b5
       -5.8888276e-07 1.5498654e-06 -2.3179878e-06 -5.8888276e-07
0003c0 ff 04 d0 35 bd 8e 1b b6 49 2d d6 35 33 11 0e b7
       1.5498662e-06 -2.3179884e-06 1.5957422e-06 -8.467864e-06
0003d0 00 78 04 b6 5a 0b 04 37 32 bb 9f b6 5a 72 52 37
       -1.9739382e-06 7.870456e-06 -4.7603617e-06 1.25436e-05
0003e0 30 27 99 b5 30 ae 4f b6 62 94 b0 36 b0 e9 f4 36
       -1.1410793e-06 -3.0946794e-06 5.262483e-06 7.2989715e-06
0003f0 60 e9 6d 35 7a c0 10 37 5e 34 a4 36 44 29 ee b6
       8.8628985e-07 8.627883e-06 4.893677e-06 -7.0977567e-06
