results/Run3/PlayerRL/PlayerRL-94988.onnx (onnx, 73006 bytes, 5 tensors)

network_body._body_endoder.seq_layers.0.weight f4 [128, 3]
0	0x3ed4af24	0.41539872
1	0x3f3b1e23	0.7309286
2	0x3ebace36	0.3648545
3	0x3ed970b6	0.42468804
4	0xbe63e9db	-0.22257178
5	0x3ddd3a7b	0.1080217
6	0xbeb0c26b	-0.3452333
7	0x3eb67eb5	0.35643545
8	0xbf40cfa5	-0.7531684
9	0x3c6f8226	0.014618432
10	0xbe7e3536	-0.24824986
11	0x3ef3334f	0.47500083
12	0xbf04c60c	-0.51864696
13	0x3f3fc8bf	0.7491569
14	0x3f027aa9	0.50968415
15	0x3e95153e	0.2911777
16	0x3ef7084f	0.48248526
17	0xbf1bf196	-0.60915506
18	0xbf17fcb5	-0.59369975
19	0x3d8d7a43	0.06908085
20	0xbee35b78	-0.44405723
21	0xbf162aca	-0.5865904
22	0xbfa21b8d	-1.2664658
23	0xbdf10eef	-0.117704265
24	0x3d7d7e52	0.061888047
25	0xbee050fc	-0.43811786
26	0xbef4d2d0	-0.47817087
27	0xbeadc2be	-0.3393764
28	0xbe884a9d	-0.26619425
29	0x3da69109	0.08133132
30	0x3e1677a7	0.14694081
31	0xbf00e61f	-0.50351137
32	0xbe55c5fa	-0.20876303
33	0xbea62107	-0.32447073
34	0x3f620f72	0.8830482
35	0xbf2bf192	-0.6716548
36	0x3f25603a	0.64599955
37	0x3d8c9851	0.068649895
38	0x3f784425	0.9697898
39	0x3ed76a50	0.42073298
40	0xbf4b97cb	-0.7952849
41	0x3f495d76	0.78658235
42	0x3efcfd62	0.49412066
43	0xbf17dd4c	-0.5932205
44	0x3f136b3c	0.575855
45	0xbcb479ec	-0.022030793
46	0xbf4eb05b	-0.8073785
47	0x3ed978d9	0.42475012
48	0xbedceebc	-0.4315089
49	0xbde83f56	-0.11340205
50	0xbd8e5a50	-0.069508195
51	0xbf1d1214	-0.6135571
52	0xbdcf6e51	-0.10128463
53	0xbe143c39	-0.14476098
54	0xbf291d21	-0.6606007
55	0xbecbbae0	-0.39791012
56	0xbe8bce18	-0.27305675
57	0xbe13500c	-0.14386004
58	0xbdc2ea67	-0.09517365
59	0x3e84dd11	0.2594991
60	0x3ede4465	0.43411556
61	0x3e8a1f87	0.26977178
62	0x3dd2355e	0.10264085
63	0xbde2d1b9	-0.11075158
64	0x3f1f3fbe	0.6220664
65	0xbeaf9c60	-0.34298992
66	0xbe3a6920	-0.18204165
67	0x3ed36993	0.41291484
68	0x3c8b3b23	0.016995972
69	0xbd1e4ddd	-0.038648475
70	0x3f75a308	0.9595189
71	0x3d21513d	0.039384115
72	0xbe803bb5	-0.25045553
73	0xbf5235ce	-0.8211335
74	0xbe2d69e5	-0.16934927
75	0xbf8c4896	-1.0959651
76	0x3f06d084	0.5266192
77	0x3dfd3210	0.12363064
78	0xbe50a3ad	-0.20374937
79	0x3dd4ab42	0.10384227
80	0xbf4c271a	-0.79747164
81	0x3fd2d8d7	1.6472424
82	0x3e3a74ec	0.18208665
83	0x3eac5274	0.33656657
84	0x3ecc638f	0.39919707
85	0x3f823bc1	1.0174485
86	0xbd10337b	-0.035205346
87	0x3cd80b29	0.02637251
88	0x3d4a5371	0.049395982
89	0x3f0085a7	0.5020394
90	0x3f4186db	0.755964
91	0xbe33175d	-0.17489381
92	0x3f8d6b77	1.1048421
93	0xbd8ef54d	-0.06980381
94	0x3e5cc20a	0.21558395
95	0xbf1aa2dd	-0.6040476
96	0xbec20381	-0.37893298
97	0x3e6aec99	0.22941817
98	0x3e9fe998	0.31232905
99	0x3ecddcac	0.40207422
100	0xbf1e7166	-0.6189178
101	0xbe3ff1e0	-0.18744612
102	0xbea19cbf	-0.315649
103	0xbf5b220a	-0.85598814
104	0xbe3db871	-0.1852739
105	0xbd6cfed0	-0.057860196
106	0x3e1a7112	0.15082195
107	0xbd8a5d90	-0.06756127
108	0x3fcc7c72	1.5975478
109	0x3e4e2b04	0.20133597
110	0xbe0cfc4f	-0.13768123
111	0xbef22d31	-0.47300103
112	0xbdc98d59	-0.09841413
113	0xbda1a0c8	-0.07891995
114	0x3ea33304	0.3187486
115	0xbe04ed61	-0.12981178
116	0x3f450798	0.7696471
117	0xbebbf6a9	-0.36711624
118	0xbfe4d7f9	-1.787841
119	0xbdb761e8	-0.08954221
120	0x3f0051bb	0.5012471
121	0x3ead21be	0.33814806
122	0x3fa14d84	1.2601781
123	0xbf1f5c47	-0.6225018
124	0x3f5c6d6b	0.8610446
125	0xbde368ef	-0.11103999
126	0xbea45dfb	-0.3210295
127	0x3ee7262b	0.45146307
128	0x3ecb2b89	0.39681652
129	0xbec1e851	-0.37872556
130	0xbee38708	-0.44438958
131	0x3eabe610	0.3357396
132	0xbf1e889b	-0.61927193
133	0xbf115f29	-0.5678583
134	0x3f76c941	0.9640084
135	0xbe5464b1	-0.20741536
136	0x3f14b619	0.5809036
137	0x3ce6d59b	0.028178027
138	0x3da5317a	0.080660775
139	0x3e4cced9	0.20000781
140	0xbf87aa2e	-1.059881
141	0xbf093271	-0.5359259
142	0xbf551c1e	-0.8324603
143	0xbe6ccdca	-0.23125377
144	0x3e7b0379	0.24513043
145	0xbeb62c1f	-0.35580537
146	0xbe4eac6f	-0.20182966
147	0x3da543f4	0.08069602
148	0xbf9e798c	-1.2380843
149	0x3fba94b4	1.457663
150	0x3e1e49ad	0.15457793
151	0x3e981faa	0.29711658
152	0x3f515eaf	0.817851
153	0xbf803f12	-1.0019248
154	0x3e2df9bb	0.16989796
155	0x3f461e4f	0.7739
156	0x3ed19834	0.40936434
157	0x3e9e3edb	0.3090733
158	0xbf1405bf	-0.5782127
159	0xbef184c7	-0.47171614
160	0x3f634db7	0.8879046
161	0xbe4ecad1	-0.20194556
162	0x3e11787e	0.1420612
163	0x3f3da934	0.7408631
164	0xbc06fdac	-0.008239191
165	0xbd75fc04	-0.060054794
166	0x3f04cd5c	0.51875854
167	0xbf37b399	-0.7175842
168	0xbdc236d4	-0.09483114
169	0xbf54dfc2	-0.8315393
170	0x3f8418ea	1.0320103
171	0xbed95106	-0.42444628
172	0x3d9e1b97	0.07720106
173	0xbf12140c	-0.5706184
174	0xbf57bfb0	-0.84276867
175	0xbeee4860	-0.46539593
176	0xbfbe0d2f	-1.4847773
177	0x3eca6f6a	0.39538127
178	0xbed262a6	-0.41090888
179	0x3ea14f9a	0.31506044
180	0xbd32aeb0	-0.043623626
181	0xbee0a838	-0.4387834
182	0xbf37578a	-0.7161795
183	0xbd90f827	-0.07078581
184	0xbf1c7258	-0.61111975
185	0xbf8f6afe	-1.1204526
186	0xbee67e6b	-0.45018324
187	0xbd204417	-0.039127436
188	0x3e57f72e	0.21090385
189	0xbd6dc404	-0.058048263
190	0x3e47c01d	0.19506879
191	0x3f1a0e79	0.60178334
192	0xbeb531b2	-0.35389477
193	0x3e042aa8	0.12906897
194	0x3e1a63ea	0.15077177
195	0x3df2df51	0.118590005
196	0xbf0fd13f	-0.5617866
197	0xbf5337cd	-0.8250702
198	0xbf7a4226	-0.97757185
199	0x3e9837e9	0.29730156
200	0x3f3cc843	0.73743075
201	0xbddc23dd	-0.10749028
202	0x3ed4d7bf	0.4157085
203	0x3d434ddf	0.047681686
204	0xbda65409	-0.08121497
205	0xbfb726ba	-1.4308693
206	0xbd034ce4	-0.03205575
207	0xbe58333c	-0.21113294
208	0xbe137782	-0.14401057
209	0xbc6ffae2	-0.0146472175
210	0x3d6efa5d	0.058344234
211	0x3d8ff02a	0.070282295
212	0x3eb28184	0.34864438
213	0xbf822c6d	-1.0169808
214	0xbe85065a	-0.25981408
215	0xbf26c0a2	-0.65137684
216	0x3f1c1b0e	0.6097878
217	0xbeee54cf	-0.4654908
218	0xbf233c1c	-0.63763595
219	0x3f7d31ae	0.9890393
220	0x3f878a82	1.0589144
221	0xbf679058	-0.90454626
222	0xbeada374	-0.33913767
223	0xbfcab019	-1.5834991
224	0x3e46f8a9	0.19430794
225	0x3f651447	0.89484066
226	0x3e95125d	0.29115573
227	0xbf9102f6	-1.1329029
228	0x3ec16b43	0.37777147
229	0xbbe0c3a9	-0.006859262
230	0x3f53e989	0.8277822
231	0xbe31ec8b	-0.1737539
232	0x3e3169f1	0.1732557
233	0xbf119563	-0.5686857
234	0x3f1a3358	0.60234594
235	0x3f2a2456	0.66461694
236	0xbf249bd8	-0.643003
237	0x3d53d28e	0.051714472
238	0x3f53d39c	0.82744765
239	0xbe4b22e8	-0.19837534
240	0xbedb12cf	-0.42787787
241	0xbf2c0910	-0.6720133
242	0xbeea23d2	-0.45730454
243	0x3f50b695	0.815286
244	0x3f2c50c3	0.6731073
245	0xbef8b20c	-0.4857334
246	0x3d3f3d78	0.04668948
247	0xbf663593	-0.899255
248	0x3f59d396	0.8508848
249	0x3f71361c	0.9422319
250	0xbee0bbb0	-0.43893194
251	0x3e897fad	0.2685522
252	0x3f2447a8	0.6417184
253	0x3e9a6f0b	0.30162844
254	0x3e97e997	0.29670402
255	0xbf5a25ed	-0.8521412

network_body._body_endoder.seq_layers.0.bias f4 [128]
0	0xbd1271e3	-0.035753142
1	0xbc51e14b	-0.012810062
2	0xbcf13f9d	-0.029449278
3	0x3c910f14	0.017707385
4	0xbd2095b4	-0.039205268
5	0xba0dd28a	-0.0005410096
6	0x3c37ca0a	0.011217603
7	0x3c5e09d3	0.013552147
8	0x3cd69025	0.02619178
9	0xbd624cf4	-0.05524917
10	0xbc6ce4aa	-0.014458815
11	0xbbf78acf	-0.007554389
12	0xbc20ee2b	-0.009822409
13	0xbbfb840a	-0.0076756524
14	0xbc0a2a3c	-0.008432921
15	0x3c887e2e	0.01666173
16	0xbd88e2d6	-0.066838905
17	0xbc1b291f	-0.009470253
18	0xbd4c33e8	-0.04985419
19	0x3cdbd098	0.026832864
20	0xbd973ebd	-0.07385013
21	0xbd3670eb	-0.04454128
22	0xbd395d16	-0.04525479
23	0x3cc17d9b	0.023619464
24	0xbd746c99	-0.05967388
25	0xbc4b97ea	-0.012426356
26	0x3c260d0a	0.010134945
27	0xbd9da7f4	-0.0769805
28	0xbd91dfb4	-0.07122746
29	0xbb547c91	-0.003242288
30	0xbaf706b4	-0.0018846602
31	0xbc82f6e3	-0.015986865
32	0xbcdc4fb9	-0.026893483
33	0xbc81c663	-0.015841668
34	0xbc7a6562	-0.015282961
35	0xbd04231c	-0.032260045
36	0xbd9e946d	-0.07743154
37	0xbd8bc7cb	-0.06825217
38	0xbc5d4d10	-0.013507143
39	0xbc2379fd	-0.009977815
40	0x3c998f0a	0.018744964
41	0xbd87980a	-0.06620796
42	0xbd50c507	-0.05096915
43	0xbcc86cfa	-0.024466027
44	0x3c8f11d1	0.01746455
45	0xbca204c1	-0.019777657
46	0x3c79a591	0.015237228
47	0xbd6efc2d	-0.058345962
48	0xbd0a4535	-0.033757407
49	0xbc1a09b9	-0.009401732
50	0x3c67dbce	0.014151527
51	0xbd622b4e	-0.05521708
52	0xbd5104e5	-0.05103006
53	0xbd0ab2c7	-0.0338619
54	0xbbbe3dfc	-0.005805729
55	0xbc662c9a	-0.01404872
56	0xbcbf05e6	-0.023318242
57	0x3d2957c9	0.041343484
58	0x3d4fd21d	0.05073749
59	0xbbad3c8c	-0.0052867588
60	0xbcf9da27	-0.030499531
61	0xbd82b515	-0.06382195
62	0xbd290a44	-0.041269556
63	0x3cfc12c5	0.030770669
64	0xbcc4cc6c	-0.024023257
65	0xbcfe6e47	-0.031058444
66	0xbd726875	-0.05918165
67	0x3ced47e4	0.028964944
68	0xbd9d107f	-0.07669162
69	0xbdf619be	-0.12016629
70	0x3bea3b37	0.0071481722
71	0xbd894f5d	-0.067045905
72	0xbd5331b2	-0.051561065
73	0xbd39ecce	-0.04539185
74	0x3b8d7514	0.0043169353
75	0xba8cb3e8	-0.0010734769
76	0xbb9891ca	-0.0046560513
77	0x3c522c98	0.012828015
78	0x3b5ac68a	0.0033382499
79	0xbd121376	-0.03566309
80	0xbd8f2bb2	-0.06990756
81	0xbda72214	-0.08160797
82	0x3b4467f4	0.0029969187
83	0xbd0abc77	-0.03387114
84	0x3bba6151	0.0056878706
85	0x3c2bb683	0.010480526
86	0x3db69f2e	0.0891708
87	0xbca17e9c	-0.019713692
88	0x3cb4182e	0.021984186
89	0xbd0d39cb	-0.034478944
90	0xbc2070bf	-0.009792506
91	0xbcecd623	-0.028910702
92	0xbcdbfc2d	-0.026853645
93	0xbcc4c27b	-0.024018517
94	0xbaa487b2	-0.0012552647
95	0x3c0d7387	0.008633501
96	0x3c1114dd	0.008855072
97	0xbd15b1b2	-0.036546417
98	0xbcbe6540	-0.02324164
99	0x3cae9f95	0.021316329
100	0xbcf6bd0a	-0.030119438
101	0xbb4c98cc	-0.0031219004
102	0xbcf04c8b	-0.029333374
103	0x3c101f1a	0.008796478
104	0x3c69e652	0.014276104
105	0xbca9135b	-0.020639112
106	0x3c09bc93	0.008406776
107	0xbd2c45ce	-0.04205876
108	0xbd0bf18c	-0.034165904
109	0x3cfe12ef	0.031014888
110	0xbd07548d	-0.03303962
111	0xbd4744d4	-0.048649624
112	0x3cfa0dfd	0.030524248
113	0xbdc006ec	-0.0937632
114	0xbc0d6366	-0.008629655
115	0xbc28772f	-0.010282322
116	0xbc420bf7	-0.011843673
117	0xbc4c9a71	-0.012487994
118	0xbcbe9745	-0.02326549
119	0x3b29baa3	0.0025898598
120	0x3d952f61	0.072844274
121	0xbd185aae	-0.037195854
122	0xbc7d8f81	-0.0154761085
123	0xbcdce205	-0.026963243
124	0xbc077dc6	-0.008269733
125	0xbcbcadb5	-0.023032049
126	0x3d262e5b	0.04057155
127	0xbd444f30	-0.04792708

network_body._body_endoder.seq_layers.2.weight f4 [128, 128]
0	0xbda02aec	-0.07820687
1	0x3d149a90	0.036280215
2	0xbcb1feea	-0.021727998
3	0x3c4d77db	0.012540783
4	0xbdb0626b	-0.08612522
5	0x3cf91382	0.03040481
6	0x3dfcddd0	0.12346995
7	0xbe1ce39c	-0.15321201
8	0x3df20321	0.11817003
9	0xbb5cb903	-0.0033679612
10	0x3d3375d0	0.043813527
11	0xbd33486a	-0.04377023
12	0x3dee5ab4	0.11638394
13	0x3c963496	0.018335622
14	0x3d2754b1	0.040852252
15	0xbe2f7691	-0.17135073
16	0xbdad4863	-0.08461072
17	0xbe4c7d20	-0.19969606
18	0xbd36200e	-0.044464163
19	0xbe075b2c	-0.13218373
20	0xbd5df471	-0.054188196
21	0xbdf0aab9	-0.11751313
22	0x3df0e2f6	0.11762039
23	0x3e38ab14	0.18034011
24	0xbd03581e	-0.032066457
25	0xbd29076b	-0.04126684
26	0x3d04397d	0.032281388
27	0xbca38e0a	-0.01996519
28	0xbd30640b	-0.04306416
29	0xbd04fed8	-0.0324696
30	0x3dc9f845	0.09861807
31	0x3e3efd28	0.18651259
32	0x3d1ffd49	0.03905991
33	0x3dc0a2ca	0.094060495
34	0xbcbe918a	-0.023262758
35	0xbc0c12a4	-0.008549366
36	0xbdba2dfa	-0.090908006
37	0x3c4423f9	0.011971467
38	0x3cc9b91e	0.024624404
39	0x3d8e1026	0.06936674
40	0xbd808b8f	-0.06276619
41	0xbe146e6a	-0.14495245
42	0xbbb7e50b	-0.005612021
43	0x3e296b05	0.16544731
44	0xbce88789	-0.02838494
45	0xbbfa6451	-0.007641353
46	0x3e7881f8	0.24268329
47	0x3c834a5b	0.016026666
48	0x3d671d7d	0.056424607
49	0x3cabe1e2	0.020981733
50	0xbd5ef060	-0.05442846
51	0x3a259ee4	0.0006317927
52	0x3c1bae5a	0.009502018
53	0xbca56e03	-0.02019406
54	0x3d115a1e	0.035486333
55	0x3e31bab9	0.17356385
56	0xbd4f8367	-0.050662424
57	0xbde791b6	-0.11307089
58	0x3ca2ff72	0.019897196
59	0x3d21eb4a	0.03953103
60	0x3dbc512d	0.091951706
61	0x3e620f71	0.22076203
62	0xbe3d4163	-0.18481974
63	0xb8d35821	-0.00010077679
64	0x3c3cd80d	0.01152612
65	0x3e25ba48	0.16184342
66	0xbe44c34b	-0.19215123
67	0xbe3f2fd3	-0.18670587
68	0xbd8ff22d	-0.07028613
69	0x3df89eb9	0.12139649
70	0xbe13920a	-0.14411178
71	0x3db90ab0	0.090352416
72	0xbcc696e2	-0.024241868
73	0xbda39f59	-0.079893775
74	0xbd5dadbd	-0.054120768
75	0xbd176ff4	-0.036972
76	0xbdb384c1	-0.08765555
77	0xbd717517	-0.058949556
78	0x3c28527b	0.010273571
79	0xbd616cda	-0.05503545
80	0x3df6000e	0.12011729
81	0xbcb3c53d	-0.021944636
82	0xbdba06ac	-0.09083304
83	0xbd01f23b	-0.03172515
84	0x3d8324aa	0.064034775
85	0x3ade82aa	0.0016976197
86	0xbe1f6dce	-0.15569231
87	0xbd375bdc	-0.04476534
88	0x3c1a8e70	0.009433374
89	0xbd8a23af	-0.06745087
90	0xbdc4d437	-0.09610789
91	0x3dd779ad	0.10521255
92	0xbd0c7129	-0.034287605
93	0xbd887e9b	-0.06664773
94	0xbe1d5fe1	-0.15368606
95	0xbd2b7673	-0.04186101
96	0xbdb8907b	-0.090119325
97	0xbc6260cb	-0.013817023
98	0x3c96a12e	0.018387403
99	0x3d35618f	0.044282492
100	0x3d1e4ac1	0.03864551
101	0xbd9aa300	-0.07550621
102	0x3c0c6818	0.00856974
103	0xbdb6b82d	-0.089218475
104	0xbdfaa698	-0.122388065
105	0x3dd609bc	0.104510754
106	0xbcbc9b31	-0.02302322
107	0x3c9816be	0.018565532
108	0xbd203fe8	-0.039123446
109	0xbdf8c91d	-0.12147734
110	0x3cc640bc	0.02420079
111	0xbd145e37	-0.036222663
112	0xbde11966	-0.109911725
113	0xbda64541	-0.08118678
114	0xbcbd1188	-0.023079649
115	0xbe71c983	-0.23612027
116	0x3d84e184	0.06488326
117	0x3caddfe8	0.02122493
118	0x3e21af4d	0.15789528
119	0x3e1ec403	0.1550446
120	0xbe4317ce	-0.1905205
121	0x3c58793f	0.013212501
122	0xbaf6f41f	-0.0018841064
123	0xbc6e33b4	-0.014538694
124	0x3e017c9d	0.12645192
125	0xbd3dcfc3	-0.046340715
126	0xbd957f2e	-0.07299648
127	0x3dd21f75	0.10259906
128	0x3e14f9dd	0.1454844
129	0x3c4ff963	0.012693736
130	0xbd1ae4ec	-0.037815973
131	0x3d02894a	0.03186921
132	0xbdc3426a	-0.09534152
133	0x3d92501b	0.07144185
134	0xbc5a31c5	-0.01331753
135	0x3cafbe38	0.021453008
136	0xbcf556a7	-0.029948546
137	0xbe648008	-0.22314465
138	0xbe44caa9	-0.19217934
139	0xbd2fd078	-0.04292342
140	0xbde83a9a	-0.11339302
141	0x3d812b5a	0.06307097
142	0xbd70b57f	-0.05876684
143	0x3dda8a21	0.10670877
144	0x3d54503e	0.051834337
145	0xbc828aa5	-0.015935251
146	0x3d807910	0.06273091
147	0x3d3a7a6a	0.0455269
148	0xbe1871be	-0.14887139
149	0xbdaafb1f	-0.08348679
150	0x3db1a8e9	0.08674795
151	0xbda49f13	-0.080381535
152	0xbdc5c9ca	-0.09657629
153	0xbe59d06a	-0.2127091
154	0xbd8f2688	-0.06989771
155	0xbd863739	-0.06553502
156	0xbbe8438e	-0.0070881313
157	0x3dc51683	0.096234344
158	0xbd43f12f	-0.047837432
159	0x3d50d0f8	0.050980538
160	0xbdbc86a8	-0.09205371
161	0x3dfb1f97	0.12261885
162	0x3d0fe8c8	0.035134107
163	0xbd524b98	-0.051341623
164	0xbd6957d8	-0.05696854
165	0xbadf37d0	-0.0017030183
166	0xbc4a4957	-0.012346587
167	0xbddbc27f	-0.107304566
168	0x3da14000	0.07873535
169	0xbdb20485	-0.08692268
170	0xbdc311b1	-0.09524859
171	0xbda30339	-0.07959599
172	0xbdfcf03b	-0.12350508
173	0x3d8a3f1d	0.06750319
174	0xbe2a7c7d	-0.16649051
175	0xbd49c416	-0.049259268
176	0xbd89c098	-0.067261875
177	0x3db07465	0.086159505
178	0x3d127c33	0.035762977
179	0xbcf7e4d1	-0.030260475
180	0xbe24f7de	-0.16110179
181	0xbddcf74b	-0.10789355
182	0x3d6056d6	0.054770313
183	0xbe54ad81	-0.20769311
184	0xbe04c0b6	-0.12964138
185	0x3d31de02	0.043424614
186	0xbd6edc06	-0.0583153
187	0x3e36b70c	0.17843264
188	0xbcb965ec	-0.022631608
189	0xbd2892c0	-0.041155577
190	0xbd6b16e0	-0.057394862
191	0xbe0908e3	-0.13382296
192	0xbd83ffa4	-0.06445244
193	0xbd8c853e	-0.068613514
194	0xbc962407	-0.018327726
195	0xbe005c24	-0.12535149
196	0xbcc82bd6	-0.024434965
197	0x3decc877	0.11561673
198	0xbe0e9703	-0.13924794
199	0xbdcfd91c	-0.10148832
200	0xbd670733	-0.05640335
201	0x3aeedf22	0.0018224458
202	0xbe38da65	-0.18052061
203	0x3c21a253	0.009865361
204	0x3d2cebb3	0.042216968
205	0xbdcee3ce	-0.10102044
206	0xbe44c4cd	-0.19215699
207	0x3ddf4449	0.10901696
208	0xbda725cf	-0.08161508
209	0x3d4a000e	0.04931646
210	0x3cd4e66d	0.025988782
211	0x3d605959	0.05477271
212	0xbd2d30fb	-0.04228304
213	0x3aa539a9	0.0012605685
214	0xbc5e6b01	-0.013575316
215	0x3b4ce7fa	0.0031266198
216	0xbd72dcfd	-0.059292782
217	0xbe1478eb	-0.14499252
218	0x3d13a2f2	0.03604407
219	0xbbecb4fb	-0.007223723
220	0xbda1b760	-0.07896304
221	0x3d87a332	0.06622924
222	0xbac9eb5c	-0.0015405226
223	0x3d522c93	0.05131204
224	0x3cf63e26	0.030058932
225	0x3d8766e8	0.06611425
226	0x3da06c16	0.07833116
227	0xbd2c20fd	-0.042023648
228	0xbd4dda11	-0.050256792
229	0x3e05c1bc	0.13062185
230	0xbd298437	-0.041385856
231	0xbd1a07ab	-0.03760497
232	0xbdd93714	-0.106062084
233	0x3d06f7c1	0.03295112
234	0x3d8a9893	0.067673825
235	0x3e7b2260	0.24524832
236	0xbda95400	-0.08267975
237	0xbd9f9028	-0.077911675
238	0x3b53467b	0.0032238055
239	0x3cc3d888	0.023906961
240	0x3d2c88e8	0.04212275
241	0xbded398c	-0.11583242
242	0xbd755e1a	-0.059904195
243	0xbca1bebb	-0.019744268
244	0x3ce0cf21	0.027442517
245	0x3de6bead	0.11266837
246	0xbe275b69	-0.16343464
247	0xbe037634	-0.1283806
248	0xbe1ddbba	-0.1541585
249	0xbd9897f0	-0.07450855
250	0x3d89df6c	0.067320675
251	0xbdad1521	-0.08451296
252	0x3c392e32	0.011302518
253	0x3c68eab0	0.01421611
254	0xbe2887df	-0.1645808
255	0xbbff8d3e	-0.00779882

network_body._body_endoder.seq_layers.2.bias f4 [128]
0	0x3cf5735c	0.029962234
1	0x3cf31e9a	0.029677678
2	0xbc4d04c2	-0.012513341
3	0x3d8a0d33	0.06740799
4	0x3a7c96e2	0.00096355204
5	0xbd0b0dc6	-0.033948682
6	0x3ce994c0	0.028513312
7	0x3d613c99	0.05498943
8	0xbcd2d029	-0.025734024
9	0xbc698740	-0.0142534375
10	0xbcf3c713	-0.029758012
11	0xbbf5c474	-0.0075002257
12	0xbc67ac65	-0.014140223
13	0x3d1ec0d3	0.03875811
14	0xbd0e235d	-0.034701694
15	0xbc9e67c1	-0.019336583
16	0xbc5fdc11	-0.013663308
17	0xbc26fb65	-0.010191773
18	0xbc8219f3	-0.015881514
19	0xbc597d8c	-0.013274562
20	0xbcf14fe2	-0.029457036
21	0x3d08f553	0.033437084
22	0x3d26a98d	0.04068904
23	0xbd2df142	-0.04246641
24	0x3c41ad46	0.011821097
25	0xba38825f	-0.000703847
26	0xbc6bd116	-0.014393112
27	0x3bf6c6a5	0.0075310045
28	0xbd4e0859	-0.05030093
29	0xbd83b3a4	-0.06430748
30	0x3cef8b4a	0.029241223
31	0x3d3c1ddc	0.045926914
32	0xbcc3be77	-0.023894532
33	0xbd2c14aa	-0.042011894
34	0xbd084075	-0.033264596
35	0xbb8b5ad2	-0.00425277
36	0xbc545fae	-0.012962265
37	0xbcbe561e	-0.023234423
38	0x3d37a2d3	0.044833016
39	0xbcb643be	-0.022249099
40	0x3db59a4a	0.08867319
41	0xbb188516	-0.0023272685
42	0x3c188d75	0.00931107
43	0x3d0e970d	0.034812022
44	0xbc871c9d	-0.016493136
45	0xbc895e11	-0.016768487
46	0xbc6d0413	-0.014466303
47	0x3b58539e	0.0033008824
48	0x3d0257b5	0.031821925
49	0x3cde8eb8	0.027167663
50	0xbd16b9de	-0.03679835
51	0xbc52671c	-0.012841966
52	0xbd093c8c	-0.033505008
53	0xbd36010f	-0.044434603
54	0xbd0b717d	-0.034043778
55	0x3d13fdb5	0.036130626
56	0xbd028443	-0.031864416
57	0xbc60a771	-0.013711796
58	0x3d1b3f3f	0.037902113
59	0x3d4e4abc	0.05036424
60	0xbcbfdded	-0.023421252
61	0x3d853259	0.06503744
62	0xbc6c726d	-0.014431578
63	0xbd204421	-0.039127473
64	0xbbc2398a	-0.0059272693
65	0x3c5b8de1	0.013400526
66	0x3d7cb276	0.06169363
67	0xbb892cfa	-0.00418627
68	0xbd20ac51	-0.039226834
69	0x3d8bf36f	0.06833541
70	0xbc355c32	-0.011069344
71	0x3d35b5c4	0.0443628
72	0x3bcc9ae3	0.00624405
73	0xba70c22c	-0.00091842073
74	0xbc5d2ed8	-0.013499938
75	0x3d442241	0.04788423
76	0xbc7136b2	-0.014722513
77	0x3d035108	0.0320597
78	0xbd319109	-0.043351207
79	0xbc5c2ebf	-0.0134388795
80	0xbc93d45e	-0.0180456
81	0x3d1e8ff9	0.03871152
82	0xbcb76fde	-0.02239221
83	0x3d0c255c	0.034215316
84	0x3d427082	0.047470577
85	0xbc48dd24	-0.012259755
86	0x3c79fe5b	0.015258397
87	0xbcad7685	-0.021174679
88	0xbc2ce7ce	-0.010553313
89	0x3d3a6937	0.045510497
90	0x3d8775cb	0.06614264
91	0x3cfce7ec	0.030872308
92	0x3cde4262	0.027131263
93	0xbcb0365c	-0.021510296
94	0xbc9a73f3	-0.018854117
95	0xbc1e5e44	-0.009666029
96	0x3aa84e4a	0.0012840715
97	0x3d3582d5	0.044314224
98	0xbce2dfc4	-0.02769459
99	0xbc90b393	-0.017663753
100	0x3d8560e5	0.06512622
101	0xbc251a64	-0.010077093
102	0xbcead41c	-0.028665595
103	0x3d48a0be	0.04898142
104	0x3d784ec1	0.06062198
105	0xbbbeba81	-0.005820573
106	0x3d8b22a7	0.06793719
107	0x3db16140	0.08661127
108	0x3d14b159	0.036301944
109	0x3b86ee8a	0.0041177915
110	0x3d34327c	0.04399346
111	0xbce5acd8	-0.02803652
112	0x3d0bc783	0.034125816
113	0x3d39488a	0.045235194
114	0x3d0f3e58	0.034971565
115	0x3c38078f	0.011232271
116	0xbaad08cb	-0.0013201473
117	0x3d6400e0	0.055664897
118	0x3ccc9ce6	0.024977159
119	0x3cda6bcd	0.026662732
120	0xbcdbf2f6	-0.026849251
121	0x3d27e73d	0.04099201
122	0x3d0daabc	0.034586653
123	0xbcc59d87	-0.024122966
124	0xba94895c	-0.001133244
125	0xbba06577	-0.004894908
126	0x3d3c6ad2	0.04600031
127	0xbcbe8988	-0.02325894

action_model._continuous_distribution.mu.weight f4 [1, 128]
0	0xbcbfb1f7	-0.02340029
1	0xbbbf58db	-0.00583945
2	0x3c45f7a3	0.012082967
3	0xbd133cdb	-0.03594671
4	0xbc343f60	-0.011001438
5	0x3a881b51	0.0010384117
6	0xbc9bc896	-0.019016545
7	0xbcaa07c3	-0.020755654
8	0xba8c9c17	-0.0010727671
9	0xbcbfb6c9	-0.023402588
10	0x3abbce15	0.0014328385
11	0xbcea950b	-0.028635522
12	0x3ca91b5e	0.020642933
13	0xbd08cb09	-0.033396754
14	0xbcb2fa84	-0.02184797
15	0xbc855cff	-0.016279696
16	0xbc3b0ef8	-0.011417143
17	0xbc4500a9	-0.012024083
18	0xbc43cf6e	-0.011951311
19	0xbc42a02e	-0.01187901
20	0xbc4b455f	-0.012406676
21	0xbc65ceb3	-0.014026332
22	0x3d3bff60	0.04589784
23	0xbb294891	-0.0025830606
24	0xbc068779	-0.00821101
25	0x3ca5b298	0.020226762
26	0x3a44b680	0.0007504001
27	0xba2b5f67	-0.00065373484
28	0xbc01b434	-0.007916499
29	0x3a24f58a	0.00062926917
30	0xbc484329	-0.0122230435
31	0x3d6304dc	0.055424556
32	0xbb5976b7	-0.0033182332
33	0xbc9f938a	-0.019479532
34	0xbc3e1aa5	-0.011603032
35	0xbbf93802	-0.0076055536
36	0x3ba7ba6f	0.00511866
37	0xbd9b5133	-0.07583847
38	0xbcc69d31	-0.024244877
39	0x3b8c8521	0.004288331
40	0x3d1bea04	0.03806497
41	0xbc940dd5	-0.018073002
42	0xbcd1cbd1	-0.025609883
43	0xbb6a5728	-0.0035757516
44	0x3a88de91	0.0010442307
45	0xbba226a9	-0.0049484563
46	0x39496d8b	0.00019209662
47	0x3c5dbeee	0.013534291
48	0xbd2466c8	-0.040137082
49	0xbcac7cd9	-0.021055626
50	0xbadc56da	-0.0016810552
51	0x3aa40451	0.0012513493
52	0x3c8bcf8d	0.017066741
53	0x3a69a33a	0.0008912567
54	0xb9f327b8	-0.00046378165
55	0xbc968c14	-0.018377341
56	0x3acc5f67	0.0015592397
57	0x3b8f508e	0.0043736165
58	0x3d1a9b6f	0.03774589
59	0xbc0755f7	-0.008260242
60	0x3bccbe6b	0.0062482855
61	0x3d12e73c	0.035865054
62	0x3bb659b0	0.005564891
63	0xbb949152	-0.004533925
64	0x3c10965a	0.008824909
65	0x3c700a06	0.014650827
66	0xbd021d02	-0.031765945
67	0x3c2160ad	0.009849709
68	0x3bda993b	0.0066710985
69	0x3d2671fa	0.04063604
70	0x3c0c4504	0.0085613765
71	0xbd214a11	-0.039377276
72	0xbbebbd38	-0.0071941875
73	0x3c86c056	0.016449135
74	0xba8748ae	-0.0010321343
75	0xbc832bdb	-0.016012123
76	0xbcbb43df	-0.022859512
77	0x3d0b736c	0.03404562
78	0xbc47e58d	-0.012200725
79	0x3bf367a7	0.007428128
80	0xbc39d787	-0.01134289
81	0x3c80bfe2	0.015716497
82	0xbc3115df	-0.010808437
83	0xbb2d6689	-0.002645882
84	0x3cf619ce	0.030041602
85	0xbb38f9c2	-0.002822504
86	0x3c7370b3	0.014858413
87	0xbb373b52	-0.0027958942
88	0xbc0c5019	-0.008564019
89	0x3d315de5	0.043302435
90	0x3cdba71a	0.026813079
91	0xbc1071ac	-0.008816164
92	0x3c6586c2	0.01400918
93	0x3c3023a4	0.010750685
94	0xbb0facc1	-0.0021923038
95	0xbb5190cb	-0.0031977172
96	0x3c95a56f	0.018267361
97	0xbcc85427	-0.02445419
98	0x3c058be0	0.008151025
99	0xbc0b9a74	-0.008520711
100	0xbd61b3f4	-0.055103257
101	0xbb5b50e1	-0.0033464956
102	0xbc58b385	-0.013226395
103	0xbd06e257	-0.0329307
104	0x3d2c8339	0.04211733
105	0x3c24c98b	0.010057817
106	0x3b3c6b79	0.0028750582
107	0x3cf85148	0.030312195
108	0xbd4e1128	-0.05030933
109	0x3a390424	0.0007057807
110	0xbaf08bea	-0.0018352245
111	0xbc36a529	-0.011147776
112	0xbb3db021	-0.0028944092
113	0x3d240adb	0.040049415
114	0xbcb94792	-0.022617135
115	0xbc9fa794	-0.019489087
116	0xbc80f092	-0.015739713
117	0xbcab3ec7	-0.020903958
118	0x3c32447c	0.010880586
119	0xbc3c61de	-0.011497943
120	0x3ba80255	0.005127231
121	0xbccc7cc1	-0.024961831
122	0xbc60abcb	-0.013712834
123	0xbc87a70c	-0.016559146
124	0xbcb17971	-0.021664353
125	0x3b577aac	0.0032879515
126	0xbc92811c	-0.01788383
127	0x3ace87e9	0.0015757057
