results/Run3/PlayerRL/PlayerRL-7758.pt (torch, 144874 bytes, 10 tensors)

network_body._body_endoder.seq_layers.0.weight f4 [128, 2]
0.057372876 -0.7982362 -0.51702607 0.8293023 0.8883266 -0.43013665 0.14748648 0.4100887
-0.34356928 -1.3609593 0.7514059 -1.0231352 -0.33068427 -0.75425315 -0.44446832 0.6487716
-0.245445 -0.42879283 -0.059272133 0.734518 -0.5925619 0.07630766 -0.031895187 0.34671682
1.2027038 -1.0111655 0.27704057 0.75758225 -0.61179477 0.6078252 0.7392123 0.09710039
0.617228 -0.47196066 1.0207409 0.9558997 -1.33917 -0.054828543 -1.0165052 0.39147192
-0.06942529 0.2793476 0.080513984 -0.32582897 -0.99615675 -0.32230854 -0.25951132 0.96723
0.19319968 0.6274518 -0.5643511 -1.366811 0.05539018 -0.022080643 -0.68535507 -0.29157573
0.15140896 -0.49442977 -0.16139366 0.6977425 -0.19887894 0.046637 -0.3039535 -0.33440003
0.2639463 -0.322738 0.8223222 -0.7060959 -0.14434642 -0.06834818 -0.5253382 0.17130396
-1.0028325 -0.83498234 1.0984731 0.89691234 -0.18649529 -0.25559953 -0.48508283 0.37352112
0.6268776 1.046929 -0.22332214 -0.13058858 1.0945067 -0.15979855 0.03243718 0.07780171
0.14470436 -0.35760134 0.30194184 -0.23643547 0.35730895 -0.674539 0.14875074 0.24676163
-0.4202102 -0.11554724 -0.33785245 -0.38128716 0.0039179595 0.6480066 -0.98312724 -0.44786388
0.40301874 0.094483465 0.17908157 0.36729404 0.20139334 -0.33515894 -0.595773 -0.30241543
-0.23282598 -0.2874846 -0.89379865 1.050334 0.69277817 -0.7492067 -0.022991857 0.20920698
-1.0524795 -0.110935174 1.0390908 -0.7860473 -0.3512522 -1.1081166 -0.8715807 1.3057687
1.5199504 -0.10432953 -0.7226539 -1.3888098 -0.9540809 0.3438198 0.1255032 0.08766638
1.2086504 0.77406985 0.09126946 0.58662957 0.25190854 0.48149368 -0.12067875 -0.8512038
-0.111153975 -0.19477066 -0.22555372 -0.2755052 -1.0278381 0.85439366 0.6770114 -1.5261939
-0.21980731 0.6168489 0.6113458 0.23056003 -0.41707513 0.46474582 0.315252 -0.7121198
0.16879222 0.88598204 0.45891595 -0.1287918 1.1393089 1.5802594 0.35305816 0.2648454
-0.30982026 -0.024591327 1.2798438 -0.60349417 0.25149107 -0.30270484 -0.63481116 0.5711094
-0.16466123 0.30584574 -0.779401 -1.0775331 -0.9466371 -0.08702819 -0.18636541 -0.14038335
-1.2209826 0.571904 -1.203783 0.31064403 0.08021858 0.024282442 -0.33135942 -0.18888684
0.09805141 -0.4298154 -0.21027592 -0.3965673 0.7623841 -0.41751298 0.72791517 -0.6332328
0.5565841 -0.5866611 -0.951985 0.20125616 0.67721826 -0.42802712 -0.14436518 0.91319585
0.25592434 -1.2612239 1.5881882 -0.59229374 0.7453097 0.8581856 -2.088281 -1.085863
-0.7628226 -1.0631378 0.1875476 -1.1580056 -0.5146727 0.39511642 0.21538146 0.701599
-0.16331102 0.60400313 -0.7100412 0.14798987 -0.09338396 -0.27155605 -0.172951 -1.0031433
0.7946418 -0.56400645 -0.7142131 -0.24783677 -0.9044722 0.34260333 -0.483012 0.05467467
0.41729656 -0.4124731 -1.0755205 0.06965774 0.3992997 -0.76036674 1.0476518 -0.9944806
0.16400038 -0.020252064 -0.15448606 -0.2187011 -0.21593225 -0.20417887 -0.31261557 0.27213913
00000000: d2ff 6a3d 3559 4cbf d25b 04bf 284d 543f
00000010: 5f69 633f df3a dcbe b206 173e 25f7 d13e
00000020: 50e8 afbe ea33 aebf 235c 403f 18f6 82bf
00000030: 734f a9be bc16 41bf 5a91 e3be e515 263f
00000040: ef55 7bbe bc8a dbbe 56c7 72bd 5f09 3c3f
00000050: 23b2 17bf 3147 9c3d 87a4 02bd de84 b13e
00000060: 33f2 993f df6d 81bf 43d8 8d3e e9f0 413f
00000070: 959e 1cbf 6f9a 1b3f 043d 3d3f 92dc c63d
00000080: a702 1e3f d4a4 f1be a3a7 823f d8b5 743f
00000090: ec69 abbf e593 60bd d81c 82bf 026f c83e
000000a0: d92e 8ebd a606 8f3e 84e4 a43d 0ed3 a6be
000000b0: 2104 7fbf a005 a5be abde 84be 639c 773f
000000c0: 23d6 453e aea0 203f 5079 10bf aaf3 aebf
000000d0: d0e0 623d 77e2 b4bc 6e73 2fbf 6a49 95be
000000e0: f30a 1b3e e625 fdbe 6144 25be 419f 323f
000000f0: eca6 4bbe 7006 3f3d cb9f 9bbe 7b36 abbe
00000100: f823 873e ea3d a5be b583 523f b3c2 34bf
00000110: 8ccf 13be 21fa 8bbd 907c 06bf 4e6a 2f3e
00000120: d15c 80bf 67c1 55bf c49a 8c3f 0c9c 653f
00000130: 9ff8 3ebe f1dd 82be c75c f8be 293e bf3e
00000140: 0d7b 203f c501 863f 8fae 64be 03b9 05be
00000150: cc18 8c3f 3ba2 23be d9dc 043d 8156 9f3d
00000160: 612d 143e 8617 b7be 1f98 9a3e 241c 72be
00000170: 33f1 b63e 97ae 2cbf 1d52 183e 15af 7c3e
00000180: cb25 d7be 08a4 ecbd fffa acbe 1238 c3be
00000190: 3a62 803b c3e3 253f 3aae 7bbf 6a4e e5be
000001a0: 7958 ce3e 8c80 c13d 2961 373e f70d bc3e
000001b0: 0e3a 4e3e f499 abbe 9484 18bf 32d6 9abe
000001c0: ef69 6ebe 2e31 93be fdcf 64bf 5871 863f
000001d0: e959 313f 03cc 3fbf 6b59 bcbc 5b3a 563e
000001e0: a6b7 86bf fb31 e3bd ed00 853f 653a 49bf
000001f0: 54d7 b3be c4d6 8dbf ea1f 5fbf 6e23 a73f
00000200: bc8d c23f b8aa d5bd d9ff 38bf 85c4 b1bf
00000210: a53e 74bf 2609 b03e e983 003e 6e8a b33d
00000220: 0eb5 9a3f 7129 463f 7ceb ba3d 5b2d 163f
00000230: 28fa 803e 5786 f63e 6c26 f7bd 7ee8 59bf
00000240: b2a4 e3bd f671 47be 8ef7 66be 040f 8dbe
00000250: 3390 83bf 8bb9 5a3f 9e50 2d3f 525a c3bf
00000260: 2b15 61be cfe9 1d3f 2981 1c3f ee17 6c3e
00000270: df8a d5be 2af3 ed3e b668 a13e 7c4d 36bf
00000280: ded7 2c3e b8cf 623f 08f7 ea3e ffe1 03be
00000290: e0d4 913f f145 ca3f 0ac4 b43e d199 873e
000002a0: c3a0 9ebe c073 c9bc ecd1 a33f 987e 1abf
000002b0: 70c3 803e 21fc 9abe fc82 22bf 3a34 123f
000002c0: f49c 28be d097 9c3e d386 47bf 9bec 89bf
000002d0: cf56 72bf d63b b2bd 93d6 3ebe a7c0 0fbe
000002e0: 2849 9cbf 4d68 123f 9015 9abf bc0c 9f3e
000002f0: a449 a43d f9eb c63c f1a7 a9be 8d6b 41be
00000300: 2dcf c83d c410 dcbe 9252 57be df0a cbbe
00000310: 9b2b 433f 43c4 d5be a658 3a3f 8b1b 22bf
00000320: 4c7c 0e3f 6c2f 16bf 4ab5 73bf 1816 4e3e
00000330: 2d5e 2d3f 5f26 dbbe 77d4 13be 34c7 693f
00000340: 8408 833e c96f a1bf c049 cb3f 90a0 17bf
00000350: 9ecc 3e3f 0db2 5b3f 65a6 05c0 8ffd 8abf
00000360: 5848 43bf e614 88bf 7a0c 403e 8739 94bf
00000370: 97c1 03bf b34c ca3e f58c 5c3e fe9b 333f
00000380: 013b 27be f39f 1a3f 43c5 35bf a88a 173e
00000390: 1740 bfbd 6509 8bbe 111a 31be 0067 80bf
000003a0: a56d 4b3f ba62 10bf abd6 36bf ecc8 7dbe
000003b0: 7d8b 67bf b469 af3e 594d f7be 8cf2 5f3d
000003c0: e5a7 d53e ad2f d3be a8aa 89bf b8a8 8e3d
000003d0: 0371 cc3e 65a7 42bf 7419 863f 4896 7ebf
000003e0: b7ef 273e a8e7 a5bc 9831 1ebe 2ef3 5fbe
000003f0: 581d 5dbe 4414 51be 260f a0be d255 8b3e

network_body._body_endoder.seq_layers.0.bias f4 [128]
0.0 0.0 0.0 0.0 0.0 0.0 0.0 0.0
0.0 0.0 0.0 0.0 0.0 0.0 0.0 0.0
0.0 0.0 0.0 0.0 0.0 0.0 0.0 0.0
0.0 0.0 0.0 0.0 0.0 0.0 0.0 0.0
0.0 0.0 0.0 0.0 0.0 0.0 0.0 0.0
0.0 0.0 0.0 0.0 0.0 0.0 0.0 0.0
0.0 0.0 0.0 0.0 0.0 0.0 0.0 0.0
0.0 0.0 0.0 0.0 0.0 0.0 0.0 0.0
0.0 0.0 0.0 0.0 0.0 0.0 0.0 0.0
0.0 0.0 0.0 0.0 0.0 0.0 0.0 0.0
0.0 0.0 0.0 0.0 0.0 0.0 0.0 0.0
0.0 0.0 0.0 0.0 0.0 0.0 0.0 0.0
0.0 0.0 0.0 0.0 0.0 0.0 0.0 0.0
0.0 0.0 0.0 0.0 0.0 0.0 0.0 0.0
0.0 0.0 0.0 0.0 0.0 0.0 0.0 0.0
0.0 0.0 0.0 0.0 0.0 0.0 0.0 0.0
00000000: 0000 0000 0000 0000 0000 0000 0000 0000
00000010: 0000 0000 0000 0000 0000 0000 0000 0000
00000020: 0000 0000 0000 0000 0000 0000 0000 0000
00000030: 0000 0000 0000 0000 0000 0000 0000 0000
00000040: 0000 0000 0000 0000 0000 0000 0000 0000
00000050: 0000 0000 0000 0000 0000 0000 0000 0000
00000060: 0000 0000 0000 0000 0000 0000 0000 0000
00000070: 0000 0000 0000 0000 0000 0000 0000 0000
00000080: 0000 0000 0000 0000 0000 0000 0000 0000
00000090: 0000 0000 0000 0000 0000 0000 0000 0000
000000a0: 0000 0000 0000 0000 0000 0000 0000 0000
000000b0: 0000 0000 0000 0000 0000 0000 0000 0000
000000c0: 0000 0000 0000 0000 0000 0000 0000 0000
000000d0: 0000 0000 0000 0000 0000 0000 0000 0000
000000e0: 0000 0000 0000 0000 0000 0000 0000 0000
000000f0: 0000 0000 0000 0000 0000 0000 0000 0000
00000100: 0000 0000 0000 0000 0000 0000 0000 0000
00000110: 0000 0000 0000 0000 0000 0000 0000 0000
00000120: 0000 0000 0000 0000 0000 0000 0000 0000
00000130: 0000 0000 0000 0000 0000 0000 0000 0000
00000140: 0000 0000 0000 0000 0000 0000 0000 0000
00000150: 0000 0000 0000 0000 0000 0000 0000 0000
00000160: 0000 0000 0000 0000 0000 0000 0000 0000
00000170: 0000 0000 0000 0000 0000 0000 0000 0000
00000180: 0000 0000 0000 0000 0000 0000 0000 0000
00000190: 0000 0000 0000 0000 0000 0000 0000 0000
000001a0: 0000 0000 0000 0000 0000 0000 0000 0000
000001b0: 0000 0000 0000 0000 0000 0000 0000 0000
000001c0: 0000 0000 0000 0000 0000 0000 0000 0000
000001d0: 0000 0000 0000 0000 0000 0000 0000 0000
000001e0: 0000 0000 0000 0000 0000 0000 0000 0000
000001f0: 0000 0000 0000 0000 0000 0000 0000 0000

network_body._body_endoder.seq_layers.2.weight f4 [128, 128]
-0.09504566 -0.029817628 -0.028259214 0.06235163 -0.029129993 -0.061321758 -0.15912275 -0.08032682
-0.013845777 0.03838214 -0.015561922 -0.059119023 -0.027457973 0.035593968 0.057004314 -0.014328912
0.03149996 -0.09846082 0.09893964 -0.040871162 -0.030749753 0.022956764 0.060749076 0.05935108
-0.064982064 -0.018541697 -0.105623364 -0.07891204 -0.039654814 0.09039379 0.03995093 0.08860937
-0.0031496717 0.05749141 -0.070834264 0.09352763 0.0154301915 0.06942268 0.05699061 -0.038626023
-0.0644925 0.06897268 -0.064243875 -0.107520126 -0.031937692 -0.035428513 0.009886104 0.034092437
-0.13474922 -0.027342726 0.04759201 0.08905451 0.034346145 0.073473126 -0.07960627 -0.04379384
-0.117027365 0.13839349 -0.0681468 0.13101353 -0.059373498 0.12786113 -0.11534107 -0.14780112
-0.036737047 -0.0068213516 -0.085725 -0.06761924 -0.046899274 -0.14147775 0.029577442 0.10170553
0.0895271 0.049340904 0.09879007 0.021719199 0.044993598 -0.06228877 -0.09774872 -0.13848494
-0.09019289 0.08258844 -0.05313281 -0.04976849 -0.13374676 -0.050795503 0.14390983 0.07657628
-0.11400892 -0.07273414 -0.04284679 -0.034903076 0.13532387 -0.13984516 0.122439004 0.10789833
0.017537722 0.14485545 -0.08169465 0.004597123 0.019261621 0.050133213 0.2762744 0.06395937
0.05837608 0.030511655 0.0067384834 0.0403959 0.2122774 -0.10362795 0.0037940524 -0.046861865
-0.060843423 0.07899264 0.14011867 -0.01710316 0.019505756 -0.008918334 -0.1049179 -0.1239436
0.13302685 0.0032937294 -0.13691005 -0.082845196 -0.11610125 0.0803984 0.02602443 0.14193852
0.038307205 -0.025695914 -0.010445455 0.069497205 -0.054958187 0.034678973 -0.019010007 0.020110572
0.05626541 -0.05606811 0.0332877 -0.031179138 -0.043616373 0.074859984 -0.037086643 -0.2893808
0.13187772 0.17834367 -0.09463648 0.024581783 0.11142104 -0.042416286 -0.02470772 0.008523089
-0.13768442 -0.30465174 -0.0050406917 0.024446588 0.1158278 -0.010210215 -0.11961604 -0.058447316
-0.011860508 -0.14520498 0.06506837 0.10881972 0.046705823 0.066900395 -0.034107614 -0.14346197
-0.03919021 -0.1510918 0.22156286 0.006169012 -0.02896591 0.014064368 -0.092994995 0.13633272
-0.05182596 0.043040127 0.05312332 -0.06808349 0.12535533 0.0362291 0.10702469 -0.08143224
0.08392834 -0.05730975 0.009263437 -0.07571747 0.013033032 -0.10730854 0.16560932 -0.011894982
0.114496 -0.033314694 0.02348273 -0.15382583 0.0066864537 0.09899757 0.110292055 0.03932146
0.08695563 -0.0389548 0.07909552 0.10184889 0.10090203 -0.07501784 -0.116419986 0.037981357
-0.12657577 -0.12694299 -0.04011109 -0.07854172 0.056066547 -0.17805047 0.20904991 0.019415962
-0.007078416 -0.035773914 -0.06060445 -0.079208195 0.13965079 0.11857637 0.01774994 0.121252775
-0.11447126 -0.060161803 0.087989844 -0.06371218 0.0626496 0.13491806 -0.1475217 -0.0104918
0.1646116 -0.10677808 -0.0036859477 -0.026120797 0.06840555 0.11259895 -0.11654042 0.15020001
-0.18932877 -0.012779351 0.04083251 0.048831597 0.10225649 -0.06730511 0.012616088 0.043622337
-0.0584993 0.09879321 0.07726812 0.09338259 -0.005684821 0.034325153 0.08968311 -0.124375045
00000000: 4da7 c2bd 1944 f4bc de7f e7bc 6c64 7f3d
00000010: 06a2 eebc 862c 7bbd 13f1 22be 6382 a4bd
00000020: 66d9 62bc 9736 1d3d 6ff7 7ebc ca26 72bd
00000030: 8bef e0bc fbca 113d 5b7d 693d d0c3 6abc
00000040: 1a06 013d d4a5 c9bd dea0 ca3d 8568 27bd
00000050: e8e6 fbbc d30f bc3c 06d4 783d 1e1a 733d
00000060: 5115 85bd c2e4 97bc 1051 d8bd a39c a1bd
00000070: 166d 22bd 6120 b93d 96a3 233d d478 b53d
00000080: b96a 4ebb 1d7c 6b3d 8e11 91bd 6a8b bf3d
00000090: eace 7c3c 7a2d 8e3d fc6e 693d 5236 1ebd
000000a0: a514 84bd 8c41 8d3d 4b92 83bd 8333 dcbd
000000b0: 19d1 02bd 7d1d 11bd 53f9 213c 83a4 0b3d
000000c0: b3fb 09be dafd dfbc d7ef 423d 3662 b63d
000000d0: 8bae 0c3d 1479 963d 9d08 a3bd 2b61 33bd
000000e0: 0bac efbd 06b7 0d3e 8d90 8bbd 6928 063e
000000f0: a031 73bd 07ee 023e f037 ecbd 2d59 17be
00000100: 9679 16bd a585 dfbb 9790 afbd f57b 8abd
00000110: 7419 40bd 8bdf 10be 644c f23c fd4a d03d
00000120: fc59 b73d b019 4a3d 7352 ca3d 76ec b13c
00000130: 354b 383d 8222 7fbd 7b30 c8bd ffce 0dbe
00000140: 0db7 b8bd 2124 a93d caa1 59bd 0bda 4bbd
00000150: e9f4 08be f20e 50bd 195d 133e 06d4 9c3d
00000160: 827d e9bd a3f5 94bd 1e80 2fbd 87f6 0ebd
00000170: 5792 0a3e 9233 0fbe 4dc1 fa3d cdf9 dc3d
00000180: 45ab 8f3c fd54 143e 864f a7bd 76a3 963b
00000190: 8cca 9d3c 7c58 4d3d d773 8d3e 21fd 823d
000001a0: c21b 6f3d 94f3 f93c 7fce dc3b 2c76 253d
000001b0: 3f5f 593e e43a d4bd a3a5 783b 3af2 3fbd
000001c0: f436 79bd e5c6 a13d 457b 0f3e ed1b 8cbc
000001d0: 89ca 9f3c 341e 12bc 32df d6bd 24d6 fdbd
000001e0: 3138 083e 9cdb 573b 2632 0cbe beaa a9bd
000001f0: 7ec6 edbd eba7 a43d 2f31 d53c 5558 113e
00000200: 04e8 1c3d 3d80 d2bc 6a23 2bbc 8d54 8e3d
00000210: d61b 61bd 8a0b 0e3d e0ba 9bbc edbe a43c
00000220: 8f76 663d ada7 65bd af58 083d 646b ffbc
00000230: 15a7 32bd 3150 993d 2ae8 17bd b829 94be
00000240: f40a 073e b99f 363e c5d0 c1bd bc5f c93c
00000250: b730 e43d b3bc 2dbd d867 cabc 6da4 0b3c
00000260: 25fd 0cbe 50fb 9bbe 632c a5bb 3644 c83c
00000270: 2037 ed3d bf48 27bc 41f9 f4bd 7466 6fbd
00000280: 9352 42bc 9db0 14be 9142 853d e0dc de3d
00000290: 9b4e 3f3d 1303 893d 6db4 0bbd b2e7 12be
000002a0: ea85 20bd cfb7 1abe 60e1 623e 6c25 ca3b
000002b0: eb49 edbc 3c6e 663c 2974 bebd ce9a 0b3e
000002c0: 7547 54bd d84a 303d d797 593d 5b6f 8bbd
000002d0: 265d 003e f764 143d c32f db3d f2c5 a6bd
000002e0: 9fe2 ab3d a1bd 6abd acc5 173c c311 9bbd
000002f0: 8088 553c 94c4 dbbd 7d95 293e 2ce3 42bc
00000300: e17c ea3d fd74 08bd db5e c03c 8584 1dbe
00000310: 0a1a db3b 3dbf ca3d cde0 e13d 8a0f 213d
00000320: cb15 b23d 128f 1fbd d5fc a13d 2796 d03d
00000330: b9a5 ce3d f4a2 99bd 9a6d eebd 5792 1b3d
00000340: 149d 01be 58fd 01be 874b 24bd 7bda a0bd
00000350: 09a6 653d dd52 36be 2e11 563e 390e 9f3c
00000360: 0ff2 e7bb ab87 12bd 5f3c 78bd e837 a2bd
00000370: 9e00 0f3e 2bd8 f23d 5268 913c 6053 f83d
00000380: e86f eabd 396c 76bd 0534 b43d 887b 82bd
00000390: 6f4e 803d f627 0a3e ee0f 17be cce5 2bbc
000003a0: f18f 283e 77ae dabd f18f 71bb 48fb d5bc
000003b0: 3618 8c3d 479a e63d beac eebd 08ce 193e
000003c0: 67df 41be 7c60 51bc fd3f 273d a403 483d
000003d0: da6b d13d 43d7 89bd b5b3 4e3c 56ad 323d
000003e0: f69c 6fbd 1854 ca3d c03e 9e3d 5f3f bf3d
000003f0: bc47 babb 8898 0c3d c7ab b73d 58b8 febd

network_body._body_endoder.seq_layers.2.bias f4 [128]
0.0 0.0 0.0 0.0 0.0 0.0 0.0 0.0
0.0 0.0 0.0 0.0 0.0 0.0 0.0 0.0
0.0 0.0 0.0 0.0 0.0 0.0 0.0 0.0
0.0 0.0 0.0 0.0 0.0 0.0 0.0 0.0
0.0 0.0 0.0 0.0 0.0 0.0 0.0 0.0
0.0 0.0 0.0 0.0 0.0 0.0 0.0 0.0
0.0 0.0 0.0 0.0 0.0 0.0 0.0 0.0
0.0 0.0 0.0 0.0 0.0 0.0 0.0 0.0
0.0 0.0 0.0 0.0 0.0 0.0 0.0 0.0
0.0 0.0 0.0 0.0 0.0 0.0 0.0 0.0
0.0 0.0 0.0 0.0 0.0 0.0 0.0 0.0
0.0 0.0 0.0 0.0 0.0 0.0 0.0 0.0
0.0 0.0 0.0 0.0 0.0 0.0 0.0 0.0
0.0 0.0 0.0 0.0 0.0 0.0 0.0 0.0
0.0 0.0 0.0 0.0 0.0 0.0 0.0 0.0
0.0 0.0 0.0 0.0 0.0 0.0 0.0 0.0
00000000: 0000 0000 0000 0000 0000 0000 0000 0000
00000010: 0000 0000 0000 0000 0000 0000 0000 0000
00000020: 0000 0000 0000 0000 0000 0000 0000 0000
00000030: 0000 0000 0000 0000 0000 0000 0000 0000
00000040: 0000 0000 0000 0000 0000 0000 0000 0000
00000050: 0000 0000 0000 0000 0000 0000 0000 0000
00000060: 0000 0000 0000 0000 0000 0000 0000 0000
00000070: 0000 0000 0000 0000 0000 0000 0000 0000
00000080: 0000 0000 0000 0000 0000 0000 0000 0000
00000090: 0000 0000 0000 0000 0000 0000 0000 0000
000000a0: 0000 0000 0000 0000 0000 0000 0000 0000
000000b0: 0000 0000 0000 0000 0000 0000 0000 0000
000000c0: 0000 0000 0000 0000 0000 0000 0000 0000
000000d0: 0000 0000 0000 0000 0000 0000 0000 0000
000000e0: 0000 0000 0000 0000 0000 0000 0000 0000
000000f0: 0000 0000 0000 0000 0000 0000 0000 0000
00000100: 0000 0000 0000 0000 0000 0000 0000 0000
00000110: 0000 0000 0000 0000 0000 0000 0000 0000
00000120: 0000 0000 0000 0000 0000 0000 0000 0000
00000130: 0000 0000 0000 0000 0000 0000 0000 0000
00000140: 0000 0000 0000 0000 0000 0000 0000 0000
00000150: 0000 0000 0000 0000 0000 0000 0000 0000
00000160: 0000 0000 0000 0000 0000 0000 0000 0000
00000170: 0000 0000 0000 0000 0000 0000 0000 0000
00000180: 0000 0000 0000 0000 0000 0000 0000 0000
00000190: 0000 0000 0000 0000 0000 0000 0000 0000
000001a0: 0000 0000 0000 0000 0000 0000 0000 0000
000001b0: 0000 0000 0000 0000 0000 0000 0000 0000
000001c0: 0000 0000 0000 0000 0000 0000 0000 0000
000001d0: 0000 0000 0000 0000 0000 0000 0000 0000
000001e0: 0000 0000 0000 0000 0000 0000 0000 0000
000001f0: 0000 0000 0000 0000 0000 0000 0000 0000

action_model._continuous_distribution.mu.weight f4 [1, 128]
-0.012701474 0.003945892 0.028817305 -0.0075090723 -0.02335813 -0.013269718 0.004306773 0.0059997607
0.0070964987 0.035081957 0.0060293297 -0.017951762 0.021275623 0.01061467 0.00037925152 0.0013553941
0.0002848391 -0.0013636333 -0.025062194 -0.029330952 -0.0072155506 0.0006638758 -0.0047857147 0.025809696
-0.0035109408 0.0033472707 -0.001172486 -0.01854349 -0.0064748 0.00049367885 -0.00035226438 0.001247399
-0.014950524 -0.04152375 0.02009292 -0.013144629 0.012110573 -0.0053348946 -0.007106302 -0.015207975
-0.013860861 -0.00016717652 0.016000144 -0.03041916 -0.009600048 -0.023405688 0.01884565 -0.0079978295
-0.01631635 -0.007922673 -0.02469009 0.028062213 0.0029305299 -0.056145098 -0.00414749 -0.035499766
0.018202946 0.0037299038 -0.009009204 -0.019605342 -0.032772798 0.028218836 -0.0067146355 0.026081948
-0.009492003 0.011072678 0.011853124 -0.0012586442 0.014823071 -0.014456637 -0.0072479635 -0.000952899
-0.020364596 0.0044531203 -0.001497293 -0.0110690035 0.017050223 -0.00018291526 -0.037969567 -0.0134494705
0.012069412 0.026499841 0.013021099 -0.008243141 0.00052602094 -0.027554994 0.0072155977 0.013180536
0.011606158 0.0040725027 -0.005450241 -0.006903523 0.031845268 -0.017559156 0.0022249154 -0.0346731
-0.0008289448 -0.010674732 7.900773e-05 0.001014824 -0.0042666416 -0.0048420313 -0.026407275 -0.008807058
0.019320054 -0.020533586 0.023819273 -0.023217758 -0.011589768 -0.05645449 -0.0008510668 0.011651277
-0.022250382 -0.009082038 0.032892857 -0.034675352 0.03877644 0.0011765357 -0.022788841 0.01959944
0.004411451 0.022787398 -0.005547834 0.020784846 -0.016077174 -0.0024841314 -0.009935594 0.016373316
00000000: d819 50bc 8b4c 813b 4512 ec3c aa0e f6bb
00000010: 8d59 bfbc 3b69 59bc d51f 8d3b a499 c43b
00000020: bf89 e83b 19b2 0f3d af91 c53b 930f 93bc
00000030: 374a ae3c 27e9 2d3c 47d6 c639 7ba7 b13a
00000040: 7556 9539 f1bb b2ba 3b4f cdbc 7747 f0bc
00000050: 6d70 ecbb f307 2e3a 7cd1 9cbb db6e d33c
00000060: d017 66bb e25d 5b3b 1aae 99ba 84e8 97bc
00000070: 8f2a d4bb 3a6a 013a 20b0 b8b9 c47f a33a
00000080: 0bf3 74bc cf14 2abd e899 a43c 925c 57bc
00000090: 6d6b 463c 57d0 aebb fbdb e8bb df2a 79bc
000000a0: aa18 63bc 1b4c 2fb9 bc12 833c 9a31 f9bc
000000b0: 8549 1dbc 49bd bfbc 3162 9a3c 5409 03bc
000000c0: dea9 85bc 19ce 01bc df42 cabc bae2 e53c
000000d0: 220e 403b 67f8 65bd abe7 87bb 3468 11bd
000000e0: 581e 953c 6771 743b 579b 13bc 629b a0bc
000000f0: c53c 06bd 302b e73c 7206 dcbb cfa9 d53c
00000100: 5984 1bbc 2d6a 353c 9b33 423c 17f9 a4ba
00000110: 77dc 723c 88db 6cbc 5380 edbb f8cb 79ba
00000120: a7d3 a6bc 7beb 913b d140 c4ba c45a 35bc
00000130: e9ac 8b3c f1cc 3fb9 fa85 1bbd 2b5b 5cbc
00000140: c8be 453c 3216 d93c 7356 553c 3d0e 07bc
00000150: abe4 093a 03bb e1bc d270 ec3b 2df3 573c
00000160: c127 3e3c a172 853b ef97 b2bb f336 e2bb
00000170: 2f70 023d 38d8 8fbc e3cf 113b 6105 0ebd
00000180: 8b4d 59ba 12e5 2ebc f4b0 a538 d803 853a
00000190: 2fcf 8bbb e7a9 9ebb 1254 d8bc 7b4b 10bc
000001a0: 1745 9e3c 0d36 a8bc a320 c33c 2b33 bebc
000001b0: 03e3 3dbc d33c 67bd 201a 5fba ffe4 3e3c
000001c0: 6f46 b6bc d4cc 14bc a9ba 063d be07 0ebd
000001d0: 0bd4 1e3d fd35 9a3a aaaf babc 018f a03c
000001e0: ef8d 903b a3ac ba3c 9bca b5bb fb44 aa3c
000001f0: 47b4 83bc cfcc 22bb e7c8 22bc 5521 863c

network_body._body_endoder.seq_layers.0.weight f4 [128, 2]
-1.4924629 1.0716574 0.21438015 0.6135648 -0.13256636 -0.36447418 0.1587738 0.47890806
-0.14738838 0.59128004 1.0721933 -0.71502894 0.45081776 -0.37939298 0.7563089 0.04306607
-0.63729733 0.060741283 -0.2014574 -0.73826265 -1.0983639 -0.40723768 0.42045632 0.35801542
-1.0345505 -0.032153662 -0.12839612 1.9196694 0.7861357 0.16058646 -0.5058684 -0.1774884
-0.15066709 0.28860345 -0.7048036 -0.06155842 0.91553277 -0.0689796 0.9312072 0.216255
0.3676876 0.08895325 -0.86115587 0.26660365 -1.060101 -0.51208186 0.93461454 0.2614562
1.0188284 -0.607545 0.0036607073 -0.8252701 1.23701 0.008862887 0.040123504 -0.31191227
-0.22054583 -0.039179087 -0.22220048 -0.9392964 0.7873911 -0.15082963 0.52626896 -0.66573775
-1.2050118 -0.7966689 -0.14617762 -0.6605904 0.93925154 0.4212201 -0.9967512 0.47403324
0.3060587 -0.6814324 0.66201955 -0.67497176 0.63343245 0.114221886 0.9330012 0.18037227
-0.1444625 0.7042411 -0.5183386 0.42730784 0.24420919 0.66578686 0.892243 0.06497317
-0.23547274 -0.52692264 1.1520686 -0.791214 0.15584241 -1.0241041 0.34216803 1.0618705
0.77838266 0.20165482 0.68236685 1.07142 1.0158657 0.99019283 -0.39185923 -0.37300006
-0.63797253 -0.7552866 -0.46176 0.4565095 0.6221595 -1.1407965 0.30063844 -0.054429244
0.29029846 0.4944902 1.4305971 -0.32328787 0.112559594 -0.08688961 -0.8864482 0.3452546
0.8952647 -0.008438524 0.046921752 -1.1631173 0.6204464 0.72800547 0.548857 -1.3885899
-0.49734077 -1.0495387 0.090783276 0.11953341 0.81438196 0.5935924 0.66766405 -0.9978318
0.1653751 -1.2334794 -0.5846786 -0.19979177 -1.9711509 -0.39368886 -1.1729566 -0.09673871
0.7708604 -0.21428707 -0.2443921 0.52700895 -0.8148009 -0.31707695 1.1617405 -0.19165333
0.7502188 -0.07153075 -0.6528356 -0.93277484 0.8934587 -0.3105357 -0.4469042 0.72946876
0.42364147 0.2243651 0.5553269 0.11253512 0.04864934 0.09715628 -0.37652472 0.0010587728
0.732319 0.5872509 0.06840247 -0.779694 -0.3177923 0.253892 0.28679514 0.19228011
-0.12690163 0.27533144 0.8281613 -0.28490147 0.49050534 0.43092716 0.37484226 -0.028628731
-0.3099308 0.70933354 1.232625 -0.13298473 -0.5191101 0.121575974 1.2506962 0.030165352
0.03493687 0.3662192 -1.137147 -0.6996794 0.054233775 -0.57419854 -0.8194123 -0.783416
-1.3443586 -0.5584112 -0.1927741 0.66516423 -0.21179664 1.1835907 -0.06794833 0.7667232
1.6528201 0.2768866 -0.5101578 -0.10067058 -0.28256425 -0.13924494 0.38066402 0.37116808
-0.17959435 0.38954455 -1.0556409 0.59727776 0.35824007 -0.24049985 -1.0563909 0.7635371
-0.8284906 -0.6439608 -1.3663781 -1.1721181 0.0059578423 -1.5367358 0.0944217 0.8940623
1.0421323 0.1903274 -0.014684439 -0.57513785 0.50301296 -0.519174 -0.5069457 -1.50854
0.31514394 0.35608894 0.6965342 0.08463896 -0.06803301 0.23135385 -1.2514756 0.017373621
-0.4789658 -0.7508547 1.8473887 -0.048952103 0.041750647 0.36957029 0.26313713 0.16287433
00000000: 0609 bfbf 122c 893f 7886 5b3e 9512 1d3f
00000010: 7abf 07be 5c9c babe 9995 223e 7033 f53e
00000020: fbec 16be 215e 173f a13d 893f 230c 37bf
00000030: 96d1 e63e cc3f c2be 769d 413f 0c66 303d
00000040: eb25 23bf dacb 783d d94a 4ebe c8fe 3cbf
00000050: 3097 8cbf 7581 d0be 0d46 d73e cc4d b73e
00000060: 276c 84bf 8fb3 03bd 467a 03be bab7 f53f
00000070: 3040 493f c770 243e 9780 01bf 85bf 35be
00000080: 7948 1abe d5c3 933e 026e 34bf af24 7cbd
00000090: 5b60 6a3f 2d45 8dbd 9863 6e3f f371 5d3e
000000a0: 8d41 bc3e 1f2d b63d b674 5cbf 4680 883e
000000b0: 64b1 87bf cc17 03bf e642 6f3f 96dd 853e
000000c0: f868 823f 1288 1bbf 7ae8 6f3b e744 53bf
000000d0: 5856 9e3f a435 113c 8b58 243d f7b2 9fbe
000000e0: c4d6 61be 407a 20bd 8688 63be bb75 70bf
000000f0: 7792 493f 1573 1abe 90b9 063f ca6d 2abf
00000100: d43d 9abf 7ef2 4bbf 96af 15be 741c 29bf
00000110: ca72 703f 29aa d73e 162b 7fbf 7cb4 f23e
00000120: bab3 9c3e 5b72 2ebf 1d7a 293f f3ca 2cbf
00000130: a128 223f 2aed e93d 2bd9 6e3f 82b3 383e
00000140: faed 13be 2549 343f d7b1 04bf 18c8 da3e
00000150: f911 7a3e 0271 2a3f 0a6a 643f a710 853d
00000160: c41f 71be 67e4 06bf fc76 933f 008d 4abf
00000170: 2795 1f3e d815 83bf a630 af3e 5feb 873f
00000180: 1644 473f 9a7e 4e3e 98af 2e3f 4a24 893f
00000190: e307 823f 477d 7d3f c6a1 c8be ddf9 bebe
000001a0: 2b52 23bf 765a 41bf cf6b ecbe 9dbb e93e
000001b0: d845 1f3f 9f05 92bf 48ed 993e 33f1 5ebd
000001c0: 00a2 943e d22d fd3e ce1d b73f fd85 a5be
000001d0: a585 e63d 2ef3 b1bd 45ee 62bf 36c5 b03e
000001e0: 1130 653f bc41 0abc 0631 403d 07e1 94bf
000001f0: 93d5 1e3f 915e 3a3f e481 0c3f 50bd b1bf
00000200: 73a3 febe 4957 86bf 95ec b93d efcd f43d
00000210: 567b 503f acf5 173f 08ec 2a3f e871 7fbf
00000220: 1758 293e a7e2 9dbf 7fad 15bf 3796 4cbe
00000230: ac4e fcbf 9691 c9be 7123 96bf f21e c6bd
00000240: 1b57 453f 126e 5bbe ec41 7abe 0fea 063f
00000250: cb96 50bf e957 a2be eab3 943f c540 44be
00000260: 570e 403f b77e 92bd 3c20 27bf 55ca 6ebf
00000270: b6b9 643f 89fe 9ebe a1d0 e4be 77be 3a3f
00000280: 89e7 d83e f7bf 653e e729 0e3f d078 e63d
00000290: 8844 473d dff9 c63d d9c7 c0be 85c6 8a3a
000002a0: 4279 3b3f 1356 163f 9816 8c3d 079a 47bf
000002b0: acb5 a2be 22fe 813e d0d6 923e 14e5 443e
000002c0: 80f2 01be 3ef8 8c3e 6102 543f 9bde 91be
000002d0: 8423 fb3e 7ca2 dc3e 53eb bf3e cd86 eabc
000002e0: 40af 9ebe e296 353f a8c6 9d3f 262d 08be
000002f0: 66e4 04bf d3fc f83d d016 a03f 541d f73c
00000300: f719 0f3d 1581 bb3e 088e 91bf 301e 33bf
00000310: 3c24 5e3d adfe 12bf 01c5 51bf f38d 48bf
00000320: f113 acbf 09f4 0ebf 9366 45be 3448 2a3f
00000330: 38e1 58be e67f 973f 7e28 8bbd f947 443f
00000340: 9c8f d33f 15c4 8d3e b499 02bf 612c cebd
00000350: 43ac 90be 3a96 0ebe 65e6 c23e be09 be3e
00000360: 95e7 37be 6272 c73e 3e1f 87bf 32e7 183f
00000370: 3e6b b73e 9845 76be d137 87bf 2b77 433f
00000380: f617 54bf 9dda 24bf 7ae5 aebf f707 96bf
00000390: 013a c33b c2b3 c4bf 2a60 c13d 44e1 643f
000003a0: 9764 853f 30e5 423e 0097 70bc 3c3c 13bf
000003b0: 75c5 003f 96e8 04bf 32c7 01bf d717 c1bf
000003c0: 8c5a a13e 4a51 b63e 1150 323f 3157 ad3d
000003d0: e454 8bbd 06e8 6c3e 5a30 a0bf 2053 8e3c
000003e0: 013b f5be 0338 40bf 3c77 ec3f 0082 48bd
000003f0: ba02 2b3d 5138 bd3e e9b9 863e 87c8 263e

network_body._body_endoder.seq_layers.0.bias f4 [128]
0.0 0.0 0.0 0.0 0.0 0.0 0.0 0.0
0.0 0.0 0.0 0.0 0.0 0.0 0.0 0.0
0.0 0.0 0.0 0.0 0.0 0.0 0.0 0.0
0.0 0.0 0.0 0.0 0.0 0.0 0.0 0.0
0.0 0.0 0.0 0.0 0.0 0.0 0.0 0.0
0.0 0.0 0.0 0.0 0.0 0.0 0.0 0.0
0.0 0.0 0.0 0.0 0.0 0.0 0.0 0.0
0.0 0.0 0.0 0.0 0.0 0.0 0.0 0.0
0.0 0.0 0.0 0.0 0.0 0.0 0.0 0.0
0.0 0.0 0.0 0.0 0.0 0.0 0.0 0.0
0.0 0.0 0.0 0.0 0.0 0.0 0.0 0.0
0.0 0.0 0.0 0.0 0.0 0.0 0.0 0.0
0.0 0.0 0.0 0.0 0.0 0.0 0.0 0.0
0.0 0.0 0.0 0.0 0.0 0.0 0.0 0.0
0.0 0.0 0.0 0.0 0.0 0.0 0.0 0.0
0.0 0.0 0.0 0.0 0.0 0.0 0.0 0.0
00000000: 0000 0000 0000 0000 0000 0000 0000 0000
00000010: 0000 0000 0000 0000 0000 0000 0000 0000
00000020: 0000 0000 0000 0000 0000 0000 0000 0000
00000030: 0000 0000 0000 0000 0000 0000 0000 0000
00000040: 0000 0000 0000 0000 0000 0000 0000 0000
00000050: 0000 0000 0000 0000 0000 0000 0000 0000
00000060: 0000 0000 0000 0000 0000 0000 0000 0000
00000070: 0000 0000 0000 0000 0000 0000 0000 0000
00000080: 0000 0000 0000 0000 0000 0000 0000 0000
00000090: 0000 0000 0000 0000 0000 0000 0000 0000
000000a0: 0000 0000 0000 0000 0000 0000 0000 0000
000000b0: 0000 0000 0000 0000 0000 0000 0000 0000
000000c0: 0000 0000 0000 0000 0000 0000 0000 0000
000000d0: 0000 0000 0000 0000 0000 0000 0000 0000
000000e0: 0000 0000 0000 0000 0000 0000 0000 0000
000000f0: 0000 0000 0000 0000 0000 0000 0000 0000
00000100: 0000 0000 0000 0000 0000 0000 0000 0000
00000110: 0000 0000 0000 0000 0000 0000 0000 0000
00000120: 0000 0000 0000 0000 0000 0000 0000 0000
00000130: 0000 0000 0000 0000 0000 0000 0000 0000
00000140: 0000 0000 0000 0000 0000 0000 0000 0000
00000150: 0000 0000 0000 0000 0000 0000 0000 0000
00000160: 0000 0000 0000 0000 0000 0000 0000 0000
00000170: 0000 0000 0000 0000 0000 0000 0000 0000
00000180: 0000 0000 0000 0000 0000 0000 0000 0000
00000190: 0000 0000 0000 0000 0000 0000 0000 0000
000001a0: 0000 0000 0000 0000 0000 0000 0000 0000
000001b0: 0000 0000 0000 0000 0000 0000 0000 0000
000001c0: 0000 0000 0000 0000 0000 0000 0000 0000
000001d0: 0000 0000 0000 0000 0000 0000 0000 0000
000001e0: 0000 0000 0000 0000 0000 0000 0000 0000
000001f0: 0000 0000 0000 0000 0000 0000 0000 0000

network_body._body_endoder.seq_layers.2.weight f4 [128, 128]
-0.061589062 -0.058556423 -0.08833002 0.025177175 -0.02157683 0.091492206 0.017602298 0.06676571
0.16668053 -0.12071423 0.009173562 -0.07466299 0.14141575 -0.06923622 -0.13116242 0.014169866
0.08470301 0.14270082 0.10548947 0.006947594 -0.029435214 -0.026426064 0.042579357 -0.04591689
-0.12593667 0.12661599 -0.033731874 -0.019457549 -0.033298045 -0.036777936 0.1825098 0.121308945
-0.025830641 -0.03414468 0.063498855 0.043894984 0.14892961 0.07796862 0.027651578 0.037042934
0.013635916 0.056072377 0.07761916 0.05331875 -0.110111475 0.03600889 -0.112024486 -0.19264717
0.093785085 0.11085726 0.051493317 0.051518537 0.054018423 0.002510744 0.0042302012 0.211463
-0.041129272 -0.009615164 0.09773717 -0.02672952 -0.038784813 -0.020539403 0.05820187 -0.021952923
0.082001396 0.05464931 -0.10117583 -0.0066820956 0.12121045 -0.06382703 0.045433737 0.055977862
-0.1584288 0.07642114 -0.07590648 0.050611295 0.024142679 0.033594303 -0.0010342603 -0.11044141
-0.081429504 -0.021793652 0.044668425 0.13728471 0.0012796463 -0.041399438 -0.0064758696 0.10086249
0.034506086 0.06339477 0.112857334 -0.082332626 -0.08907342 0.06944449 -0.03564743 -0.13303155
-0.033686567 -0.04459724 -0.12931226 0.06445386 0.015407574 0.12829758 -0.19737978 0.12509583
-0.08914167 0.050709803 -0.073537074 0.0028849214 -0.01438746 0.16888547 -0.044850804 0.10983942
-0.06508928 0.12241206 -0.029155925 0.087663285 -0.20146441 -0.10821282 0.16212411 -0.06951025
0.023043288 0.15284482 -0.14783405 0.048176665 -0.0027091864 -0.033110283 -0.10311552 -0.05503008
-0.057349857 -0.044554755 0.13420583 0.007520603 -0.04369064 0.17116183 -0.15962721 0.077443324
0.16729173 0.17475235 -0.010374273 -0.11908614 -0.04302781 -0.070469745 0.011582832 -0.022878883
0.013359994 -0.07786944 -0.06547296 -0.03817153 -0.01799983 0.04714246 -0.039604757 0.07473468
-0.03257053 -0.14174028 -0.014718037 -0.053372283 -0.0046251016 -0.04310589 0.04656405 -0.01937602
0.07793881 -0.07691576 -0.09771006 0.1304083 0.09095594 0.07322309 -0.09963991 -0.07438259
-0.23281424 0.19893451 -0.04322953 0.13867089 -0.13682751 0.14149877 0.018901236 -0.014252981
-0.09066625 -0.023472061 0.010468742 -0.08416643 -0.015315311 -0.036582027 0.028019704 -0.088331215
-0.031148048 -0.095437825 0.060759377 0.14569724 0.0132906595 -0.017060347 0.09668995 0.1228457
-0.18012148 0.038873088 -0.109040976 -0.01777306 -0.1795167 -0.039277002 0.011155263 -0.055686142
-0.025249442 0.05439755 0.026646173 -0.05302058 -0.033215057 0.026393106 -0.09064878 -0.17958784
0.078528136 -0.028610837 0.03390333 -0.00860758 -0.012602876 -0.02966259 -0.15769611 -0.21292998
-0.0056568794 -0.046721973 -0.062610716 -0.031194713 0.02281898 0.19295712 0.10493393 -0.054270864
0.025088172 -0.00060292275 0.028373634 0.007951936 0.081779696 -0.07237857 0.17239839 -0.041033246
0.13243449 0.065864235 0.033761684 0.0072598807 0.114809364 0.05463292 0.16274878 -0.07231049
-0.023428692 -0.012137659 0.016940301 0.12000397 0.06544078 0.09060325 -0.059459694 0.022116076
0.005987829 -0.01255459 -0.096032806 0.018550875 0.049663965 0.08471838 -0.013991067 0.20435472
00000000: d044 7cbd dcd8 6fbd 5fe6 b4bd 5d40 ce3c
00000010: e4c1 b0bc 4460 bb3d b232 903c 76bc 883d
00000020: 4dae 2a3e 0639 f7bd b54c 163c e9e8 98bd
00000030: 4acf 103e b8cb 8dbd 714f 06be ba28 683c
00000040: c678 ad3d 2a20 123e dd0a d83d a5a8 e33b
00000050: 1e22 f1bc 797b d8bc b167 2e3d 5913 3cbd
00000060: 8bf5 00be 9fa7 013e 6f2a 0abd 7065 9fbc
00000070: 8863 08bd 76a4 16bd d9e3 3a3e d370 f83d
00000080: c89a d3bc 4bdb 0bbd b00b 823d 3acb 333d
00000090: 0181 183e 03ae 9f3d 9085 e23c 55ba 173d
000000a0: 2d69 5f3c 26ac 653d cbf6 9e3d c364 5a3d
000000b0: 2082 e1bd 0f7e 133d 186d e5bd 4d45 45be
000000c0: 6512 c03d 2209 e33d a8ea 523d 1a05 533d
000000d0: 6c42 5d3d 4b8b 243b 809d 8a3b c289 583e
000000e0: 2b77 28bd ec88 1dbc 6d2a c83d def7 dabc
000000f0: d3dc 1ebd 4042 a8bc 1665 6e3d 9ed6 b3bc
00000100: 59f0 a73d f4d7 5f3d 4635 cfbd 7bf5 dabb
00000110: 2f3d f83d bfb7 82bd ba18 3a3d 0b49 653d
00000120: 293b 22be b082 9c3d db74 9bbd ca4d 4f3d
00000130: dec6 c53c 2e9a 093d 0490 87ba 1b2f e2bd
00000140: 83c4 a6bd 9a88 b2bc 3df6 363d 5d94 0c3e
00000150: ceb9 a73a 7592 29bd 8833 d4bb fe90 ce3d
00000160: 4156 0d3d 1ed5 813d bf21 e73d 029e a8bd
00000170: 206c b6bd ea38 8e3d 0a03 12bd 6c39 08be
00000180: edfa 09bd 98ab 36bd 6f6a 04be 6300 843d
00000190: 0d70 7c3c 7160 033e ed1d 4abe 1f19 003e
000001a0: e88f b6bd 15b5 4f3d 9b9a 96bd f310 3d3b
000001b0: 62b9 6bbc 50f0 2c3e 7ab5 37bd 7df3 e03d
000001c0: 874d 85bd 2db3 fa3d 68d8 eebc cf88 b33d
000001d0: b04c 4ebe af9e ddbd dd03 263e 645b 8ebd
000001e0: 47c5 bc3c 5a83 1c3e cf61 17be e554 453d
000001f0: 9b8c 31bb a69e 07bd 3b2e d3bd 3967 61bd
00000200: afe7 6abd 0c7f 36bd 416d 093e 646f f63b
00000210: f5f4 32bd 0c45 2f3e 5175 23be 9b9a 9e3d
00000220: 864e 2b3e 48f2 323e dbf8 29bc 6fe3 f3bd
00000230: ee3d 30bd 7152 90bd ebc5 3d3c 7f6c bbbc
00000240: e0e3 5a3c 037a 9fbd b016 86bd c059 1cbd
00000250: 6174 93bc 7418 413d 9938 22bd 7f0e 993d
00000260: ad68 05bd 5d24 11be ec23 71bc e59c 5abd
00000270: 2a8e 97bb cd8f 30bd f2b9 3e3d 76ba 9ebc
00000280: 629e 9f3d 0386 9dbd 361c c8bd c189 053e
00000290: 1c47 ba3d fdf5 953d 0210 ccbd e655 98bd
000002a0: db66 6ebe 7db5 4b3e 7311 31bd beff 0d3e
000002b0: 831c 0cbe 0ee5 103e c4d6 9a3c 5685 69bc
000002c0: 3aaf b9bd 7b48 c0bc 1685 2b3c 735f acbd
000002d0: 12ed 7abc 09d7 15bd 9489 e53c ffe6 b4bd
000002e0: 312a ffbc e874 c3bd d3de 783d a831 153e
000002f0: 11c1 593c 24c2 8bbc 6105 c63d 8796 fb3d
00000300: c471 38be 6339 1f3d e050 dfbd cf98 91bc
00000310: 3ad3 37be ece0 20bd 90c4 363c 2717 64bd
00000320: ebd7 cebc f7cf 5e3d 1349 da3c 1c2c 59bd
00000330: 830c 08bd 5b36 d83c 11a6 b9bd e0e5 37be
00000340: 5cd3 a03d 4661 eabc 38de 0a3d cf06 0dbc
00000350: 4b7c 4ebc f6fe f2bc 177b 21be 510a 5abe
00000360: 585d b9bb 8a5f 3fbd 0c3a 80bd 0e8c ffbc
00000370: dfee ba3c 8d96 453e 9ae7 d63d 204b 5ebd
00000380: b685 cd3c 760d 1eba d36f e83c d648 023c
00000390: 1d7c a73d 373b 94bd 3489 303e 7a12 28bd
000003a0: e89c 073e d4e3 863d b149 0a3d 4be4 ed3b
000003b0: 2c21 eb3d c5c6 5f3d 9ea7 263e 8617 94bd
000003c0: 87ed bfbc 08dd 46bc 63c6 8a3c a4c4 f53d
000003d0: d105 863d 328e b93d 028c 73bd c62c b53c
000003e0: 8d35 c43b c4b1 4dbc d9ac c4bd 01f8 973c
000003f0: 716c 4b3d d480 ad3d ca3a 65bc 5d42 513e

network_body._body_endoder.seq_layers.2.bias f4 [128]
0.0 0.0 0.0 0.0 0.0 0.0 0.0 0.0
0.0 0.0 0.0 0.0 0.0 0.0 0.0 0.0
0.0 0.0 0.0 0.0 0.0 0.0 0.0 0.0
0.0 0.0 0.0 0.0 0.0 0.0 0.0 0.0
0.0 0.0 0.0 0.0 0.0 0.0 0.0 0.0
0.0 0.0 0.0 0.0 0.0 0.0 0.0 0.0
0.0 0.0 0.0 0.0 0.0 0.0 0.0 0.0
0.0 0.0 0.0 0.0 0.0 0.0 0.0 0.0
0.0 0.0 0.0 0.0 0.0 0.0 0.0 0.0
0.0 0.0 0.0 0.0 0.0 0.0 0.0 0.0
0.0 0.0 0.0 0.0 0.0 0.0 0.0 0.0
0.0 0.0 0.0 0.0 0.0 0.0 0.0 0.0
0.0 0.0 0.0 0.0 0.0 0.0 0.0 0.0
0.0 0.0 0.0 0.0 0.0 0.0 0.0 0.0
0.0 0.0 0.0 0.0 0.0 0.0 0.0 0.0
0.0 0.0 0.0 0.0 0.0 0.0 0.0 0.0
00000000: 0000 0000 0000 0000 0000 0000 0000 0000
00000010: 0000 0000 0000 0000 0000 0000 0000 0000
00000020: 0000 0000 0000 0000 0000 0000 0000 0000
00000030: 0000 0000 0000 0000 0000 0000 0000 0000
00000040: 0000 0000 0000 0000 0000 0000 0000 0000
00000050: 0000 0000 0000 0000 0000 0000 0000 0000
00000060: 0000 0000 0000 0000 0000 0000 0000 0000
00000070: 0000 0000 0000 0000 0000 0000 0000 0000
00000080: 0000 0000 0000 0000 0000 0000 0000 0000
00000090: 0000 0000 0000 0000 0000 0000 0000 0000
000000a0: 0000 0000 0000 0000 0000 0000 0000 0000
000000b0: 0000 0000 0000 0000 0000 0000 0000 0000
000000c0: 0000 0000 0000 0000 0000 0000 0000 0000
000000d0: 0000 0000 0000 0000 0000 0000 0000 0000
000000e0: 0000 0000 0000 0000 0000 0000 0000 0000
000000f0: 0000 0000 0000 0000 0000 0000 0000 0000
00000100: 0000 0000 0000 0000 0000 0000 0000 0000
00000110: 0000 0000 0000 0000 0000 0000 0000 0000
00000120: 0000 0000 0000 0000 0000 0000 0000 0000
00000130: 0000 0000 0000 0000 0000 0000 0000 0000
00000140: 0000 0000 0000 0000 0000 0000 0000 0000
00000150: 0000 0000 0000 0000 0000 0000 0000 0000
00000160: 0000 0000 0000 0000 0000 0000 0000 0000
00000170: 0000 0000 0000 0000 0000 0000 0000 0000
00000180: 0000 0000 0000 0000 0000 0000 0000 0000
00000190: 0000 0000 0000 0000 0000 0000 0000 0000
000001a0: 0000 0000 0000 0000 0000 0000 0000 0000
000001b0: 0000 0000 0000 0000 0000 0000 0000 0000
000001c0: 0000 0000 0000 0000 0000 0000 0000 0000
000001d0: 0000 0000 0000 0000 0000 0000 0000 0000
000001e0: 0000 0000 0000 0000 0000 0000 0000 0000
000001f0: 0000 0000 0000 0000 0000 0000 0000 0000

value_heads.value_heads.extrinsic.weight f4 [1, 128]
-0.021940708 -0.041358694 0.028596103 -0.12263747 0.045275956 0.12987411 0.017083257 -0.026070148
0.13101125 0.16716957 0.09212968 -0.12450749 -0.15578681 0.13706952 0.09847489 -0.035952345
-0.14102757 -0.19222009 -0.04401137 -0.20652431 -0.17672846 -0.20944402 -0.0071687847 -0.13670367
-0.12909733 0.15887612 -0.06372324 -0.08998181 0.14760292 -0.05541727 -0.10117344 0.12722749
0.10010561 -0.14819166 0.13603711 -0.08651371 0.030121386 0.1771836 -0.0784979 0.18924865
0.19003466 -0.033591405 0.03527665 -0.053900197 -0.14148776 0.061432213 -0.1843737 -0.1947211
-0.01550892 0.19302964 0.16129088 -0.18735334 -0.042067364 0.1073378 -0.10801271 0.009300172
-0.08468388 0.043296635 -0.05556345 0.04069656 -0.13929716 -0.004532248 0.15835848 0.05955428
-0.1640909 -0.18922886 0.21453166 0.026765779 -0.17487355 0.16718066 -0.09274414 0.11331034
-0.028213918 -0.040540442 -0.04148346 0.1903367 -0.040723696 0.14757654 0.16582415 -0.18948105
-0.19299863 0.15245146 -0.06866701 0.19217551 0.07087076 -0.20144755 -0.044733703 0.09423879
-0.18066193 -0.023529232 -0.012375802 -0.10478172 -0.09768078 0.17088553 -0.13847849 -0.011219919
0.114198804 -0.08045703 0.14608341 -0.18390737 -0.035608098 0.18777636 0.1736657 0.014353603
0.04220894 0.008444801 0.18373689 0.05924982 -0.08613631 0.004505202 0.17883152 0.19575676
-0.1808466 0.123217046 -0.0028070211 0.080486745 0.1704435 0.043851912 -0.044657916 0.21011022
0.11621857 0.11812934 -0.01562716 -0.14704584 0.0359523 -0.07857233 0.04302007 -0.17782319
00000000: 00bd b3bc bc67 29bd 6042 ea3c 5b29 fbbd
00000010: 4873 393d b8fd 043e 30f2 8b3c 1091 d5bc
00000020: d027 063e 802e 2b3e 7cae bc3d c8fd febd
00000030: 9486 1fbe f45b 0c3e 34ad c93d c442 13bd
00000040: 8869 10be 58d5 44be 4445 34bd 1c7b 53be
00000050: 4ef8 34be 7e78 56be 20e8 eabb 0cfc 0bbe
00000060: 1732 04be 6cb0 223e 5481 82bd 6248 b8bd
00000070: 3825 173e 38fd 62bd 0534 cfbd ec47 023e
00000080: 2c04 cd3d 8ebf 17be 504d 0b3e 1a2e b1bd
00000090: 20c1 f63c 9e6f 353e 82c3 a0bd 66ca 413e
000000a0: 7298 423e 2497 09bd 407e 103d 74c6 5cbd
000000b0: 2be2 10be 58a0 7b3d 76cc 3cbe f864 47be
000000c0: 2019 7ebc 90a9 453e 7029 253e 8ed9 3fbe
000000d0: d44e 2cbd ecd3 db3d c535 ddbd c05f 183c
000000e0: be6e adbd d057 313d 8096 63bd 70b1 263d
000000f0: eaa3 0ebe 4083 94bb ba28 223e 30ef 733d
00000100: 7207 28be 36c5 41be 30ae 5b3e e843 db3c
00000110: 0d12 33be 6831 2b3e a4f0 bdbd 400f e83d
00000120: e020 e7bc bc0d 26bd 90ea 29bd a0e7 423e
00000130: e4cd 26bd 4e1e 173e cecd 293e 5207 42be
00000140: 6fa1 45be 3c1c 1c3e 4aa1 8cbd a8c9 443e
00000150: b024 913d 4448 4ebe b03a 37bd 4400 c13d
00000160: 71ff 38be 60c0 c0bc e0c3 4abc cc97 d6bd
00000170: dc0c c8bd 9efc 2e3e 4ecd 0dbe c0d3 37bc
00000180: 10e1 e93d a8c6 a4bd e496 153e 3752 3cbe
00000190: ccd9 11bd 7248 403e 6cd5 313e 602b 6b3c
000001a0: 48e3 2c3d 105c 0a3c 8625 3c3e f0af 723d
000001b0: 3c68 b0bd 60a0 933b 9c1f 373e 7674 483e
000001c0: da2f 39be 3859 fc3d 00f6 37bb 3cd6 a43d
000001d0: be88 2e3e 109e 333d 38eb 36bd 2227 573e
000001e0: 0004 ee3d cced f13d 8804 80bc 2f93 16be
000001f0: b842 133d 88ea a0bd d035 303d 4817 36be
