results/CropSorterSpedUp/PlayerRL/PlayerRL-349.pt (torch, 144850 bytes, 10 tensors)

network_body._body_endoder.seq_layers.0.weight f4 [128, 2]
000000 14 39 8a be 69 4e 68 3f c3 5a d9 3b f6 b7 19 3f
       -0.26996672 0.90744644 0.006633134 0.6004633
000010 0a 87 c6 be 2a 6f 11 be 36 5c 9b bf dc 65 e3 be
       -0.38774902 -0.14202562 -1.2137516 -0.4441365
000020 13 2e 4d bd e3 0c 22 3f ed 21 cf be a6 25 4a 3f
       -0.050092768 0.63300914 -0.4045557 0.78963697
000030 3a d9 54 bf 93 9b 12 bf 4f 0b 87 bf e6 cf ca bf
       -0.8314396 -0.5726864 -1.0550326 -1.5844696
000040 2c af 7e 3f f0 7c 0c bc 2f a3 8f 3f c5 9e f8 bd
       0.9948604 -0.008574709 1.1221675 -0.12139658
000050 5a 65 93 bd 13 b5 72 bd da 72 d2 be f5 26 15 3f
       -0.07197066 -0.059254717 -0.4110325 0.5826257
000060 ce 5a 8e be c7 ce ea 3e fd 52 66 3f 51 c6 c7 3e
       -0.27803653 0.45860884 0.8997038 0.3901849
000070 01 88 43 3f a3 06 7f bf da de 1c 3e 2a af 30 bf
       0.763794 -0.996195 0.15319386 -0.6901728
000080 34 b1 25 3f 65 87 4b 3f bf b9 d4 3e ed 0a 95 be
       0.64723516 0.7950347 0.41547963 -0.29109898
000090 1d 61 e1 3e 07 47 30 3f bc 88 05 bd ad 7b 89 3e
       0.44019404 0.6885838 -0.032601103 0.2685217
0000a0 27 21 03 40 29 5f 8f 3d c0 8f 9f 3f ba 42 03 c0
       2.0488985 0.07000572 1.2465744 -2.0509477
0000b0 83 18 a8 3f d7 e1 05 c0 21 cb 67 3c 02 26 8f 3f
       1.313248 -2.0919092 0.014147551 1.1183474
0000c0 d0 c0 04 be f6 16 26 be 49 5b c5 3e 7f 80 85 3f
       -0.12964177 -0.16219696 0.38546208 1.0429839
0000d0 24 d1 1e 3e 4c 18 3f 3f df 4c 55 be d1 2f a5 be
       0.15509468 0.7464645 -0.20830105 -0.32263044
0000e0 3e f2 03 3f 2e 97 0c 3f 9f 94 22 be b0 ed 7a 3e
       0.5154151 0.5491818 -0.15877007 0.24504733
0000f0 04 30 00 3f 15 0d 0e bf 38 1f 94 bf e4 b4 a9 bf
       0.50073266 -0.5548871 -1.1572027 -1.3258328
000100 ea 44 39 3e 4f b5 e9 3d 48 aa e5 3e 09 8b b6 bf
       0.18092695 0.11411535 0.44856477 -1.426118
000110 36 38 73 3e 72 15 cb be d7 1d 58 be c4 ae 85 3e
       0.23751912 -0.396648 -0.21105133 0.26109898
000120 1f db 48 3f ea 3a a2 3f 25 51 a5 bf 4c c8 b5 be
       0.7845935 1.2674229 -1.2915388 -0.35504377
000130 d5 1f b4 3d ea d9 95 3d 4c 63 af 3e 24 56 20 3e
       0.08795134 0.073169544 0.34255445 0.1565786
000140 b9 b9 9b bf 01 8e a6 be 71 16 2e bf 36 1e a3 bf
       -1.2166053 -0.32530215 -0.6800299 -1.2743595
000150 4a d2 42 3f 6b b4 bb bf d6 ff 66 bc 91 a6 c6 be
       0.76102126 -1.4664434 -0.014099082 -0.38798955
000160 d7 f8 39 3f ea 9b 1a bf 28 04 3d bf 10 d0 9a bf
       0.72645324 -0.60394156 -0.73834467 -1.2094746
000170 5c eb 32 bf ae 0b 7e bf ca 79 0c 3f 5c 12 e6 3d
       -0.6989038 -0.9923657 0.54873335 0.112339705
000180 c7 64 a9 3e 72 a1 40 3f 4b 9e 94 3f 48 48 cb be
       0.330847 0.75246346 1.1610807 -0.39703584
000190 9b 93 2e 3e 20 7f 39 3e 69 2b 17 bf 48 9c 1e bf
       0.17048495 0.181149 -0.59050614 -0.61957216
0001a0 5f 53 9b bf 66 48 3e 3f 4a 26 fc be a0 34 15 3d
       -1.2134818 0.7432922 -0.49247962 0.03642714
0001b0 f8 86 72 3f 8e 91 3c bf d9 75 c4 3e d2 33 aa be
       0.94737196 -0.736596 0.3837116 -0.3324266
0001c0 ee a0 79 bf 9a 32 10 bf c7 8c 79 3e 3c ec a0 3f
       -0.97511184 -0.5632721 0.24370109 1.2572093
0001d0 e0 9d 3a bd 46 81 52 bf f8 ff 3b be da 4d 55 3f
       -0.045560718 -0.82228506 -0.18359363 0.8332192
0001e0 c4 ac 8b 3f 2a fd ee bd 69 8f 10 bf 96 9d 60 bf
       1.0912099 -0.11669381 -0.56468827 -0.8774046
0001f0 43 e1 41 3e 34 2f 12 3f 5b 77 2b 3f 4b 0c e0 3b
       0.18933587 0.57103276 0.66978997 0.006837403
000200 2b 2b 37 3f e2 b1 08 be 08 9e 98 3e 75 07 e2 3e
       0.71550244 -0.13349107 0.29808068 0.44146314
000210 23 2d a2 be 89 16 09 3f f6 65 9c 3f 4a 5d 85 3f
       -0.31675062 0.5355001 1.2218616 1.0419095
000220 bf 18 c0 be 90 c7 fb 3d f8 79 aa bf 85 83 02 3f
       -0.3751888 0.12293923 -1.3318472 0.5098193
000230 c7 d3 f0 3f 72 1d 91 be 95 16 97 be bb b8 f3 3d
       1.8814629 -0.28342777 -0.29509416 0.11900469
000240 9d 34 2d 3e c3 75 e1 3e bb 8b 00 bd c9 ba 70 3f
       0.16914602 0.44035158 -0.031383257 0.9403501
000250 ae 63 9e be 4d 15 0f bd 10 46 ed be 7e 37 72 bf
       -0.30935425 -0.034932423 -0.46342516 -0.94615924
000260 8e e4 38 bf 96 8d 96 3f d5 91 55 bf a9 94 97 3e
       -0.72223747 1.1761959 -0.8342565 0.29605606
000270 2a 46 3b 3f 95 77 4b 3f 8c 92 8e 3f e4 46 9d 3d
       0.73153937 0.7947934 1.1138473 0.07679537
000280 fd ed 42 bf 99 43 28 3f e5 3b 68 3e 73 d8 55 bf
       -0.7614439 0.65728146 0.22679098 -0.835334
000290 a7 65 e5 bd 16 72 c7 3e b3 30 80 bf b6 5b 70 3f
       -0.11201029 0.38954228 -1.0014862 0.9388994
0002a0 66 18 0f 3d 18 1d 30 bf f3 8f c0 bf 32 74 6d bf
       0.034935378 -0.68794394 -1.504393 -0.92755425
0002b0 64 8d 12 be 14 57 c4 bf 96 8c 4b 3f 3d 9a b3 bf
       -0.14311749 -1.5339074 0.7951139 -1.4031445
0002c0 30 70 4b 3e 6f 36 a6 be 4d ed e1 be bb 42 6b 3e
       0.19867015 -0.32463405 -0.4412636 0.22974674
0002d0 12 3b b4 3f 21 52 70 bf 41 e2 04 bf cd 2b 7f 3d
       1.4080527 -0.9387532 -0.51907736 0.06229763
0002e0 03 ae 9e be 9e 58 ed 3d 86 e6 d2 be 29 d8 d2 bf
       -0.30992135 0.11589168 -0.411915 -1.6472217
0002f0 22 fb 1c be f9 73 ea 3d 52 ca 36 3d 42 71 31 bf
       -0.15330175 0.11447901 0.04462654 -0.6931344
000300 31 c3 9b be 87 58 f9 3e bf ee 98 bf 3b 86 7f bf
       -0.30422357 0.48700354 -1.194786 -0.99814194
000310 2d 7a a1 3d fa b6 0a bf 8c 6a c6 be 77 2f 4e be
       0.07884631 -0.5418545 -0.38753164 -0.20135294
000320 de e7 b4 bc 60 16 e4 3e 2f 4a c9 3d 05 41 b0 3e
       -0.02208322 0.4454832 0.098286025 0.34424606
000330 5e d3 94 be ff 19 5c 3f c6 e0 fd 3e d3 cc 96 3a
       -0.2906751 0.85977167 0.4958555 0.0011505134
000340 07 a4 4b bd 7e 2c b6 be 3f fb d1 bf a7 cd 37 3f
       -0.049716976 -0.3558082 -1.6404799 0.71798176
000350 e8 aa 3b bf f2 a2 83 bf 44 49 78 3e f0 99 02 be
       -0.7330766 -1.0284102 0.24246699 -0.12754035
000360 24 6b 40 3f bc aa 8d 3f c3 6b 26 be cc e6 36 3e
       0.75163484 1.1067729 -0.16252045 0.1786148
000370 75 dc 15 3e 3b 51 28 be 3c ec a0 3e 17 d6 92 3d
       0.14634879 -0.16437237 0.31430233 0.07169741
000380 32 a0 a2 3e 3b 5e 11 bf c6 27 73 3f c0 0b 26 3f
       0.31762844 -0.5678441 0.94982564 0.6486168
000390 3a 68 86 be 4f c1 fa be b2 5a 32 bf 87 d1 7d 3f
       -0.26251394 -0.48975608 -0.6966964 0.9914784
0003a0 aa 7c 11 bf 4b cc 76 3f fc 89 17 3f 57 a4 ec bd
       -0.5683085 0.96405476 0.5919492 -0.11554783
0003b0 99 e2 87 3f 5c 36 fd bd 82 d4 20 3f 8f 87 d8 3e
       1.0616027 -0.12363884 0.6282426 0.42290923
0003c0 fc 03 a1 be a4 d4 13 bf ac a4 56 bf a4 69 28 be
       -0.31448352 -0.5774634 -0.8384502 -0.16446549
0003d0 bf 36 e6 3e fb f8 b7 3e 79 51 f8 be 2c 07 3b 3f
       0.44963643 0.35932145 -0.4849966 0.7305782
0003e0 90 7d 51 3f 4d 25 02 be 63 28 a8 3e e2 01 6f 3e
       0.8183222 -0.12709542 0.32843313 0.23340562
0003f0 7e db 26 3f 43 64 c1 3e 11 0b 75 bf 73 f0 6f be
       0.6517867 0.37771806 -0.9572001 -0.23431568

network_body._body_endoder.seq_layers.0.bias f4 [128]
000000 00 00 00 00 00 00 00 00 00 00 00 00 00 00 00 00
       0.0 0.0 0.0 0.0
000010 00 00 00 00 00 00 00 00 00 00 00 00 00 00 00 00
       0.0 0.0 0.0 0.0
000020 00 00 00 00 00 00 00 00 00 00 00 00 00 00 00 00
       0.0 0.0 0.0 0.0
000030 00 00 00 00 00 00 00 00 00 00 00 00 00 00 00 00
       0.0 0.0 0.0 0.0
000040 00 00 00 00 00 00 00 00 00 00 00 00 00 00 00 00
       0.0 0.0 0.0 0.0
000050 00 00 00 00 00 00 00 00 00 00 00 00 00 00 00 00
       0.0 0.0 0.0 0.0
000060 00 00 00 00 00 00 00 00 00 00 00 00 00 00 00 00
       0.0 0.0 0.0 0.0
000070 00 00 00 00 00 00 00 00 00 00 00 00 00 00 00 00
       0.0 0.0 0.0 0.0
000080 00 00 00 00 00 00 00 00 00 00 00 00 00 00 00 00
       0.0 0.0 0.0 0.0
000090 00 00 00 00 00 00 00 00 00 00 00 00 00 00 00 00
       0.0 0.0 0.0 0.0
0000a0 00 00 00 00 00 00 00 00 00 00 00 00 00 00 00 00
       0.0 0.0 0.0 0.0
0000b0 00 00 00 00 00 00 00 00 00 00 00 00 00 00 00 00
       0.0 0.0 0.0 0.0
0000c0 00 00 00 00 00 00 00 00 00 00 00 00 00 00 00 00
       0.0 0.0 0.0 0.0
0000d0 00 00 00 00 00 00 00 00 00 00 00 00 00 00 00 00
       0.0 0.0 0.0 0.0
0000e0 00 00 00 00 00 00 00 00 00 00 00 00 00 00 00 00
       0.0 0.0 0.0 0.0
0000f0 00 00 00 00 00 00 00 00 00 00 00 00 00 00 00 00
       0.0 0.0 0.0 0.0
000100 00 00 00 00 00 00 00 00 00 00 00 00 00 00 00 00
       0.0 0.0 0.0 0.0
000110 00 00 00 00 00 00 00 00 00 00 00 00 00 00 00 00
       0.0 0.0 0.0 0.0
000120 00 00 00 00 00 00 00 00 00 00 00 00 00 00 00 00
       0.0 0.0 0.0 0.0
000130 00 00 00 00 00 00 00 00 00 00 00 00 00 00 00 00
       0.0 0.0 0.0 0.0
000140 00 00 00 00 00 00 00 00 00 00 00 00 00 00 00 00
       0.0 0.0 0.0 0.0
000150 00 00 00 00 00 00 00 00 00 00 00 00 00 00 00 00
       0.0 0.0 0.0 0.0
000160 00 00 00 00 00 00 00 00 00 00 00 00 00 00 00 00
       0.0 0.0 0.0 0.0
000170 00 00 00 00 00 00 00 00 00 00 00 00 00 00 00 00
       0.0 0.0 0.0 0.0
000180 00 00 00 00 00 00 00 00 00 00 00 00 00 00 00 00
       0.0 0.0 0.0 0.0
000190 00 00 00 00 00 00 00 00 00 00 00 00 00 00 00 00
       0.0 0.0 0.0 0.0
0001a0 00 00 00 00 00 00 00 00 00 00 00 00 00 00 00 00
       0.0 0.0 0.0 0.0
0001b0 00 00 00 00 00 00 00 00 00 00 00 00 00 00 00 00
       0.0 0.0 0.0 0.0
0001c0 00 00 00 00 00 00 00 00 00 00 00 00 00 00 00 00
       0.0 0.0 0.0 0.0
0001d0 00 00 00 00 00 00 00 00 00 00 00 00 00 00 00 00
       0.0 0.0 0.0 0.0
0001e0 00 00 00 00 00 00 00 00 00 00 00 00 00 00 00 00
       0.0 0.0 0.0 0.0
0001f0 00 00 00 00 00 00 00 00 00 00 00 00 00 00 00 00
       0.0 0.0 0.0 0.0

network_body._body_endoder.seq_layers.2.weight f4 [128, 128]
000000 a7 1b 5c bd 4b 0e 26 bd 92 ed c8 bd a3 69 87 bc
       -0.05373731 -0.040540975 -0.09810938 -0.016529864
000010 38 19 33 bd 5a ac a0 bd 90 ac a1 bd a7 14 8f bd
       -0.043725222 -0.078453735 -0.07894242 -0.06986361
000020 b0 12 9a bc da 35 96 bd 8d 18 28 3c 9f fb 82 bd
       -0.018807739 -0.0733449 0.01025976 -0.06395649
000030 c5 e9 06 3d 5f b7 de 3d d5 5b b9 3d 33 cf ca bd
       0.032937784 0.10874819 0.09050719 -0.09902801
000040 d7 1c 52 3e 3b ae 18 bd 54 d7 bc bd 2d 64 32 bd
       0.20518814 -0.037275534 -0.09220758 -0.043552566
000050 32 85 1c 3e f3 41 e8 bd 31 59 2c 3d af c4 a9 3d
       0.15285185 -0.11340704 0.042077247 0.082894675
000060 a1 69 df 3d 98 6e 93 3b c0 5c 1d be cb 21 02 3e
       0.10908819 0.004499268 -0.15367413 0.12708203
000070 55 78 ad 3c fd 4c 7d 3c 16 e9 b0 bd 07 d7 08 3d
       0.021175543 0.01546025 -0.086382076 0.03340819
000080 56 a3 ef 3a 26 bf af bd af 75 04 3b 24 a6 0e be
       0.0018282931 -0.085813805 0.0020211746 -0.13930565
000090 29 28 61 bd 8f ac 0a 3d 01 e6 84 3c e3 da 07 bd
       -0.05496994 0.03385597 0.016222956 -0.03316773
0000a0 f9 f0 a0 bd f8 c0 a4 3c ad 90 d1 3d d8 a4 6f be
       -0.07858462 0.020111546 0.10232673 -0.23402727
0000b0 cc 69 d0 bc 24 7f 35 3e 09 57 c7 bd b6 33 18 3d
       -0.025441073 0.17724282 -0.097333975 0.03715869
0000c0 dc 4c d2 bd 68 6d 00 be a2 03 44 bc 65 0d 8e 3d
       -0.10268566 -0.12541735 -0.011963757 0.069361486
0000d0 0a 77 c5 3c 6c ec 8a 3c be 07 8b bd 04 94 f1 3d
       0.024104614 0.016958438 -0.06788586 0.1179581
0000e0 ca 30 0f 3e 80 8f ff bd 5e 02 82 bd 27 96 db 3d
       0.13983455 -0.12478542 -0.06348108 0.10721999
0000f0 3c 57 81 3d ad d1 41 bd b7 64 79 3d 15 47 65 bd
       0.06315467 -0.047319103 0.060887065 -0.055975992
000100 5d b0 f3 3c 46 c4 66 bd 35 fe 38 3e 75 3d 59 ba
       0.029747183 -0.056339525 0.18065722 -0.0008287051
000110 b5 d4 3c 3d d5 08 a5 bd d1 5f 2e bd c7 9e 8a bc
       0.04610129 -0.08058325 -0.042571846 -0.016921414
000120 0d 23 0f bd 3a 19 e9 bd e8 cc b6 bd bc d1 d1 3d
       -0.034945536 -0.11381765 -0.089258015 0.10245082
000130 f5 b3 84 3d 8a cb a7 3d 33 07 d2 bd 5d 39 86 3c
       0.064796366 0.08193119 -0.102552794 0.016384775
000140 d4 09 1e 3c 82 cf 60 3d 0e b0 0d 3e 9d 9c 94 bd
       0.009645898 0.054885395 0.13836691 -0.07256434
000150 4d bf 96 bd ff 23 cb 3d 14 30 92 bd 64 0d ee bd
       -0.073607065 0.09918975 -0.071380764 -0.11623648
000160 13 c9 06 3d 75 b7 10 be 12 6a 95 3c fb 16 59 be
       0.032906603 -0.14132483 0.018239055 -0.21200173
000170 06 d5 99 bd c3 13 bf bd 3b 5c bf bd ca 5f aa 3b
       -0.07511334 -0.09329941 -0.093437634 0.005199407
000180 35 de d8 3b 6c c1 99 bd ff 59 09 be cb 45 04 be
       0.006618286 -0.075075954 -0.13413237 -0.12917249
000190 bc 6c de bd c2 c8 38 bd 27 02 35 3d 60 16 cd bb
       -0.10860583 -0.045113333 0.044191506 -0.006258771
0001a0 e3 96 8f 3c 7d 12 48 bd b7 79 1e 3c b8 c3 1a be
       0.017528003 -0.048845757 0.009672574 -0.15113723
0001b0 8d 25 69 bd 51 63 97 3d 9a 1c 6e bd eb 86 61 3c
       -0.056920577 0.0739199 -0.058132745 0.013765077
0001c0 a4 d6 db bc 69 01 3f 3d 44 8c 20 3d 4e 82 66 bd
       -0.026835747 0.046632204 0.039196268 -0.056276612
0001d0 b7 d6 00 be 91 bc 0b 3b 38 86 4c bd 05 0a 17 3e
       -0.12581907 0.002132211 -0.04993269 0.14749916
0001e0 0a 34 01 3d d3 22 c2 bd d5 ad 27 be 3f 71 b1 3d
       0.03154377 -0.094792984 -0.16374905 0.08664178
0001f0 a9 ae ca 3b d0 a8 38 3b 66 a2 39 3d 36 3b f7 3c
       0.006185372 0.0028176792 0.04532089 0.030179601
000200 44 f5 82 bd 1d ff cd 3d 71 7c a3 3c fb f1 05 3c
       -0.06394437 0.100584246 0.0199568 0.008175368
000210 8e 74 89 3d 7e f1 ec 3a 02 32 88 bd 7d 57 1d bd
       0.06711684 0.0018077341 -0.06650163 -0.038413513
000220 d5 72 b8 bd 8e 63 d0 bd b1 2a 88 3d e5 09 19 3d
       -0.090062775 -0.101752385 0.06648768 0.03736295
000230 e8 d7 56 bd 85 ee 84 bd 16 2c 1c be 17 48 36 3e
       -0.052451998 -0.064908065 -0.15251192 0.17800938
000240 c1 ad cb 3d 63 68 05 3d 6a c7 83 3c 62 f6 94 3d
       0.0994525 0.032570254 0.016086299 0.07273556
000250 e2 53 d6 3d 31 61 4f bd 35 cb c6 3d 24 90 11 bd
       0.10465218 -0.0506298 0.097067274 -0.035537854
000260 89 89 47 be 7a 99 ea 3c aa 86 da 3d 5a c1 0e be
       -0.19486059 0.028637636 0.106702164 -0.13940945
000270 4b 7b 6c bd 94 2c 95 bd 9a 40 64 39 a6 3b 27 be
       -0.05773477 -0.07283893 0.0002176784 -0.16331348
000280 66 d0 7b 3d 8d ab 52 3d f5 9a dd 3c 37 3c 6e bd
       0.06147804 0.051433135 0.027051428 -0.058162894
000290 8c 97 64 bd 5e c9 d9 3c 49 45 0a be 7e 3c 18 be
       -0.05580859 0.026585277 -0.13502993 -0.14866826
0002a0 c7 5d ec bd 1b fe 07 3e 57 44 ee bd b1 aa 86 bd
       -0.11541324 0.13280527 -0.116341285 -0.065755256
0002b0 e3 67 30 bd 3e dd db bd 73 31 bc 3d a7 08 1d bc
       -0.043067824 -0.10735558 0.09189119 -0.009584582
0002c0 4a 73 64 bb 6c 6c 28 3d ca 1a 66 3d fa 53 87 bc
       -0.0034858757 0.041119024 0.05617789 -0.016519535
0002d0 f8 c6 ac 3d dd 03 77 3d 0a 80 46 be 16 2f 30 bd
       0.08436388 0.06030642 -0.1938478 -0.043013655
0002e0 8f a6 d3 3d bf d7 1a be e8 89 ed 3d b6 0a cc bc
       0.10334503 -0.15121363 0.11598569 -0.024907451
0002f0 4e c2 15 3d fc 33 61 3e 56 34 8a 3c d0 d9 4a 3d
       0.036562257 0.21992487 0.016870659 0.04952413
000300 72 6f 03 be 0b 4f 4d ba 04 33 cd 3c fd 64 c1 bc
       -0.12835482 -0.0007831908 0.02504874 -0.023607725
000310 09 83 5a bd 8e 67 cf bd e4 60 cd 3d d0 04 b3 3d
       -0.05334762 -0.10127173 0.10028246 0.08741152
000320 3a 49 a7 bc 42 ee 8a 3d db e1 f7 3c f9 86 21 bd
       -0.02042066 0.06783725 0.030259063 -0.03943536
000330 e9 8f 21 be 1e be 58 bd 59 52 09 bd 9e 93 c4 3d
       -0.15777554 -0.052915685 -0.0335258 0.09598468
000340 ce 30 b4 3d 3b c0 93 3c df 42 df bc 51 38 07 be
       0.08798371 0.018035999 -0.027253566 -0.13205077
000350 1c 17 20 3e a8 b1 d5 3c a3 d0 cf bd 4c c3 09 bd
       0.15633816 0.02608569 -0.10147216 -0.033633515
000360 24 2f c0 bc d0 ec 8c 3d f3 79 90 3d 17 4e cb 3d
       -0.023459978 0.06881106 0.0705451 0.09927004
000370 1a 5d fb 3b f8 9e 7d bd 1b b6 97 bd fe 62 26 bd
       0.0076710107 -0.061919183 -0.07407781 -0.04062175
000380 ea 22 81 3d 04 5e 49 3d f8 4a b5 3d c0 87 04 3e
       0.063054875 0.049161926 0.0885219 0.1294241
000390 a3 66 37 be c6 df 97 3c 35 8e 89 3b 91 e1 c7 bd
       -0.17910247 0.01853932 0.0041978606 -0.0975982
0003a0 ab 65 c7 3d ae de 7f bd 6f ed f2 bd 13 f7 56 3d
       0.097361885 -0.062468223 -0.11861693 0.052481722
0003b0 b2 50 06 3e 17 0a fd 3b b2 be 98 3d 1e f2 94 ba
       0.1311672 0.00772215 0.07458247 -0.001136366
0003c0 e5 b9 8b bd 81 39 11 3e 80 dd 8f 3c a5 8e 6e 3c
       -0.06822566 0.14182092 0.017561674 0.014560376
0003d0 32 d3 c0 3d 3d 8b 6e 3c f7 49 cb 3c 1a 3b 97 bd
       0.09415282 0.014559564 0.024815543 -0.073843196
0003e0 a6 70 c7 3c bb fb bb bb 40 1e 57 bd 01 b1 95 3d
       0.024345707 -0.0057367957 -0.052519083 0.073091514
0003f0 5c 1c 0a 3e 22 b4 81 bd c9 e3 27 3d 31 39 a4 bc
       0.1348738 -0.06333186 0.040988717 -0.020046802

network_body._body_endoder.seq_layers.2.bias f4 [128]
000000 00 00 00 00 00 00 00 00 00 00 00 00 00 00 00 00
       0.0 0.0 0.0 0.0
000010 00 00 00 00 00 00 00 00 00 00 00 00 00 00 00 00
       0.0 0.0 0.0 0.0
000020 00 00 00 00 00 00 00 00 00 00 00 00 00 00 00 00
       0.0 0.0 0.0 0.0
000030 00 00 00 00 00 00 00 00 00 00 00 00 00 00 00 00
       0.0 0.0 0.0 0.0
000040 00 00 00 00 00 00 00 00 00 00 00 00 00 00 00 00
       0.0 0.0 0.0 0.0
000050 00 00 00 00 00 00 00 00 00 00 00 00 00 00 00 00
       0.0 0.0 0.0 0.0
000060 00 00 00 00 00 00 00 00 00 00 00 00 00 00 00 00
       0.0 0.0 0.0 0.0
000070 00 00 00 00 00 00 00 00 00 00 00 00 00 00 00 00
       0.0 0.0 0.0 0.0
000080 00 00 00 00 00 00 00 00 00 00 00 00 00 00 00 00
       0.0 0.0 0.0 0.0
000090 00 00 00 00 00 00 00 00 00 00 00 00 00 00 00 00
       0.0 0.0 0.0 0.0
0000a0 00 00 00 00 00 00 00 00 00 00 00 00 00 00 00 00
       0.0 0.0 0.0 0.0
0000b0 00 00 00 00 00 00 00 00 00 00 00 00 00 00 00 00
       0.0 0.0 0.0 0.0
0000c0 00 00 00 00 00 00 00 00 00 00 00 00 00 00 00 00
       0.0 0.0 0.0 0.0
0000d0 00 00 00 00 00 00 00 00 00 00 00 00 00 00 00 00
       0.0 0.0 0.0 0.0
0000e0 00 00 00 00 00 00 00 00 00 00 00 00 00 00 00 00
       0.0 0.0 0.0 0.0
0000f0 00 00 00 00 00 00 00 00 00 00 00 00 00 00 00 00
       0.0 0.0 0.0 0.0
000100 00 00 00 00 00 00 00 00 00 00 00 00 00 00 00 00
       0.0 0.0 0.0 0.0
000110 00 00 00 00 00 00 00 00 00 00 00 00 00 00 00 00
       0.0 0.0 0.0 0.0
000120 00 00 00 00 00 00 00 00 00 00 00 00 00 00 00 00
       0.0 0.0 0.0 0.0
000130 00 00 00 00 00 00 00 00 00 00 00 00 00 00 00 00
       0.0 0.0 0.0 0.0
000140 00 00 00 00 00 00 00 00 00 00 00 00 00 00 00 00
       0.0 0.0 0.0 0.0
000150 00 00 00 00 00 00 00 00 00 00 00 00 00 00 00 00
       0.0 0.0 0.0 0.0
000160 00 00 00 00 00 00 00 00 00 00 00 00 00 00 00 00
       0.0 0.0 0.0 0.0
000170 00 00 00 00 00 00 00 00 00 00 00 00 00 00 00 00
       0.0 0.0 0.0 0.0
000180 00 00 00 00 00 00 00 00 00 00 00 00 00 00 00 00
       0.0 0.0 0.0 0.0
000190 00 00 00 00 00 00 00 00 00 00 00 00 00 00 00 00
       0.0 0.0 0.0 0.0
0001a0 00 00 00 00 00 00 00 00 00 00 00 00 00 00 00 00
       0.0 0.0 0.0 0.0
0001b0 00 00 00 00 00 00 00 00 00 00 00 00 00 00 00 00
       0.0 0.0 0.0 0.0
0001c0 00 00 00 00 00 00 00 00 00 00 00 00 00 00 00 00
       0.0 0.0 0.0 0.0
0001d0 00 00 00 00 00 00 00 00 00 00 00 00 00 00 00 00
       0.0 0.0 0.0 0.0
0001e0 00 00 00 00 00 00 00 00 00 00 00 00 00 00 00 00
       0.0 0.0 0.0 0.0
0001f0 00 00 00 00 00 00 00 00 00 00 00 00 00 00 00 00
       0.0 0.0 0.0 0.0

action_model._continuous_distribution.mu.weight f4 [1, 128]
000000 78 14 1b bd 2b a3 ba bb 25 01 17 3c b8 f7 eb bb
       -0.037861317 -0.0056957207 0.0092165815 -0.0072011612
000010 c6 bd 12 bc 78 9a 0f 3b 63 6e 27 3c 36 15 30 bc
       -0.008956378 0.002191214 0.010219189 -0.010747245
000020 c3 50 64 3c 81 74 3c 3c b3 28 98 bc 0d be 26 bc
       0.013935271 0.011502386 -0.018574094 -0.010177148
000030 5d 9a 72 bb 7e d5 33 bc 8f b5 f8 3a 5e 48 8b 3c
       -0.0037018277 -0.0109761935 0.0018975007 0.01700228
000040 17 e4 2d 3c 19 df 95 3a 91 22 2d bd 77 ad ec 3b
       0.010613463 0.0011434286 -0.042269293 0.007222827
000050 26 ab 04 bc b5 dc fc 3b 2c 72 80 bb 5b c2 0a bd
       -0.008097446 0.00771674 -0.0039198603 -0.033876758
000060 92 de 98 ba b1 9f ab bb 0f a2 ce 3c 91 6a 01 bc
       -0.0011663011 -0.0052375426 0.02522376 -0.007898943
000070 83 5d 16 bc 9b c4 7a bc 3e 73 b6 bc 3f 37 61 bb
       -0.009177568 -0.015305663 -0.022271749 -0.0034365205
000080 23 9a 24 bc d2 10 8b 3c b0 ff 88 3c e6 35 0b bc
       -0.010046515 0.016975794 0.016723484 -0.008496737
000090 a7 28 f7 bb a6 8c bb bb cc d4 a6 3b 8f 0e 47 3c
       -0.007542688 -0.0057235537 0.0050912853 0.012149467
0000a0 d8 28 84 bb 11 62 2f 3d 3a f0 af 3c 35 7f 54 bc
       -0.0040331893 0.042818133 0.021476854 -0.012969782
0000b0 8c 23 c9 3c 54 aa 31 3d ff 14 05 bc a7 99 bc 3c
       0.024553083 0.04337533 -0.008122682 0.023022486
0000c0 6d b9 1f 3c 11 6d 47 bc 1b 78 50 3a 64 f8 c2 bb
       0.009748799 -0.012172 0.00079524674 -0.0059500206
0000d0 6b f6 ad 3a 7f e5 c3 3b 07 b4 77 3c 3f 9f d2 bb
       0.0013272291 0.005978286 0.015118605 -0.006427675
0000e0 0f bf e2 3b e2 a9 77 3c 66 4f 9c 3b ea 0f b8 3b
       0.0069197486 0.015116187 0.004770207 0.0056171315
0000f0 a3 24 c3 3b 2f 54 d3 3c fb 48 da bc 3b 0e 88 bc
       0.005955295 0.025796978 -0.026646128 -0.016608348
000100 aa 80 0e 3c 00 a0 80 3c aa 2d 8a bc a0 ed e1 bb
       0.008697668 0.015701294 -0.016867477 -0.006894782
000110 af 4e f3 bc ac 56 b8 bc 85 12 61 3c 07 5a 48 3c
       -0.029700605 -0.022502266 0.013737326 0.012228495
000120 ea 32 07 3c cb 9f 43 3c fe f3 0c bc 4a 3d 5b bc
       0.008251885 0.011939953 -0.008603094 -0.013381312
000130 0f 53 32 bc cb 4d 42 3c ab b7 3e bc da fe 61 3c
       -0.0108840605 0.011859368 -0.01164047 0.0137936715
000140 ca 2a 3b 3b dd cb 5c 3b 1a 6b 13 3d fb c4 76 3c
       0.002855944 0.0033690848 0.035990812 0.015061612
000150 fe b6 4a bc 74 e6 87 bb 80 76 fa bb b7 42 01 bc
       -0.01237273 -0.004147345 -0.007643521 -0.007889441
000160 eb cb a2 bb 56 5d b5 bb 86 88 32 bc 40 41 c7 bb
       -0.0049681566 -0.005534808 -0.010896808 -0.0060807765
000170 bd 1e 88 3c 64 06 13 bd c3 9e 7d 3b 29 94 80 3b
       0.01661622 -0.035894766 0.0038699366 0.003923912
000180 b5 06 04 bc cb 8f ca 3c 2f bc cf 3b a5 3e 76 3c
       -0.00805824 0.024726769 0.006339572 0.015029584
000190 4c c6 99 3c d7 14 88 3c 23 17 a3 bc 5d d9 63 bc
       0.018771313 0.0166115 -0.019908493 -0.013906804
0001a0 48 8b 44 bc 0d e2 ef 3c 5f f7 7d 3a d9 15 04 3c
       -0.011996098 0.029282594 0.0009688045 0.0080618495
0001b0 2d 5d 09 bd 07 9e bf 3c 15 c0 b0 bc 97 94 d0 3c
       -0.033536125 0.023390783 -0.021575967 0.025461478
0001c0 c2 54 83 bc 7a 82 c5 bc 8a 5f 1b 3d ba e0 ce bc
       -0.016031627 -0.024110068 0.03793291 -0.025253642
0001d0 a8 fa d7 39 9f 44 c8 3c 1d d3 12 bd 37 9f 39 3d
       0.0004119475 0.024446784 -0.035845865 0.045317855
0001e0 b0 1a f1 bb 0f d3 0f bc 4a 21 d7 bb 61 d1 91 bc
       -0.0073579177 -0.008778348 -0.0065652477 -0.017800035
0001f0 c3 c8 c6 ba 28 21 8d 3c 1b 33 ef bc c7 eb 3f 3d
       -0.0015166033 0.017227724 -0.029199174 0.046855714

network_body._body_endoder.seq_layers.0.weight f4 [128, 2]
000000 4d 17 dd bf 8e 4b a7 3e 8e 36 84 3f 1d 9b 96 3f
       -1.7272736 0.3267483 1.0329149 1.1766087
000010 90 af 68 bf 7f 8c 96 3c 3b 36 49 3d 34 d8 21 bf
       -0.9089289 0.01837754 0.049123984 -0.63220525
000020 a0 05 73 be 2c 7e 94 3f 67 23 15 be b8 c8 8d 3f
       -0.23732615 1.1601005 -0.14564286 1.107688
000030 28 74 56 bf 7e e0 a6 3e d7 b5 e9 3e 9f cc 68 bf
       -0.8377099 0.3259315 0.45646545 -0.90937227
000040 46 94 86 3d 7f 6f db 3f 56 a8 21 3e 1c 23 d0 3d
       0.0657125 1.7143401 0.15786871 0.101629466
000050 c8 1f 80 be 76 7e 09 bf a1 15 bf bd 50 56 e5 3d
       -0.25024247 -0.5370859 -0.09330297 0.111981034
000060 e0 1b 89 3f 6a a6 83 3e c7 98 33 3e fe 1e 95 bf
       1.0711632 0.257129 0.17538749 -1.1650083
000070 d9 c2 83 be 48 f2 8d 3e 2c 2c 12 3f 9d 89 2d 3f
       -0.25734594 0.27723908 0.5709865 0.67788106
000080 f9 8f 19 be ca 61 5f bf 4d 3c ea 3e c7 1e 60 bf
       -0.14996327 -0.8725859 0.4574913 -0.8754696
000090 4d 8f 02 3e ae 04 d4 be 15 8a 86 3f 4e 59 74 be
       0.12749977 -0.4140982 1.0510889 -0.23862192
0000a0 8d 06 a3 be 9d ca 9b 3e c0 4c a8 3e 12 19 73 3f
       -0.31840935 0.3042802 0.32871056 0.9496013
0000b0 66 5f f5 bd 0f 33 5b bf a9 bd a0 3f b7 6e ef 3e
       -0.119810864 -0.85624784 1.255788 0.46764156
0000c0 9a 78 3e bf ba a6 a6 bd 3a d1 3e be f6 9a db be
       -0.74402773 -0.08137269 -0.18634501 -0.42891663
0000d0 e6 76 88 bf 7f 58 fc 3d 75 fc 7c 3f 60 01 6c 3f
       -1.0661285 0.12321567 0.9882272 0.921896
0000e0 a3 be 31 be d3 c1 75 be bd 58 e8 be 9d db e7 3e
       -0.17357878 -0.2399972 -0.45380202 0.4528474
0000f0 00 fa 07 3f 0c 1c 67 bf b8 00 db 3e 20 1b b7 be
       0.53115845 -0.9027717 0.42773986 -0.35762882
000100 cf 62 be 3e 7c 00 a0 3f 28 fe 75 be 65 7f 0a bf
       0.3718476 1.2500148 -0.24022734 -0.5410064
000110 43 55 e5 bd 17 99 9c be 02 09 0e bf 8f 40 87 3f
       -0.11197903 -0.30585548 -0.55482495 1.0566577
000120 80 29 9a 3e 01 02 cd be 1f 62 3a bf 1b b5 09 be
       0.30109787 -0.4004059 -0.7280597 -0.13447993
000130 05 c6 9b be ba 41 37 bf b6 23 44 bf 55 f4 26 bf
       -0.30424514 -0.71584666 -0.7661699 -0.6521657
000140 04 b0 29 bf b0 fb 2f be c4 4b 1c bf 77 c9 bd be
       -0.66284204 -0.17185855 -0.6105311 -0.37067768
000150 ae b8 9b 3e 9d 21 97 be c6 52 ee be 96 d1 95 be
       0.30414337 -0.29517832 -0.46547526 -0.29261464
000160 80 c7 51 3f d4 ee d7 3e d4 d3 32 3c 1b 2c 27 3f
       0.8194504 0.421744 0.010914762 0.65301675
000170 13 f0 80 bf 1a 26 8a 3e ec b6 9e bf 30 d8 b0 bf
       -1.0073265 0.26982194 -1.2399573 -1.3815975
000180 41 28 fe 3e 97 32 9a bf 83 53 83 bf 06 00 72 3d
       0.49640086 -1.2046689 -1.0259861 0.059082054
000190 6e c5 c0 3e 8c bc 23 bf 5c 18 e7 bd a8 32 da bf
       0.37650627 -0.63959575 -0.11283943 -1.7046709
0001a0 c0 08 13 be 03 33 b1 3e 51 ad c4 3e 81 13 eb bf
       -0.14358807 0.3460923 0.3841348 -1.8365327
0001b0 dc 4a bb 3e 3c 9d ba 3e fe d4 97 bf 22 cb c7 bd
       0.3658055 0.36448085 -1.1861875 -0.097555414
0001c0 0e 5a 6b be 2d 6a 8a bf f6 53 8c be a6 9a 9b be
       -0.22983572 -1.0813652 -0.27407807 -0.30391425
0001d0 5d 77 25 be 82 47 f5 bf ad e2 7d be 02 a5 28 bf
       -0.16158815 -1.9162447 -0.24793501 -0.6587678
0001e0 07 4e 26 3d 99 f6 f2 3e 9a 8b 2f bf 54 12 0e 3f
       0.040601756 0.47453764 -0.6857239 0.55496716
0001f0 08 2c 08 c0 af 6e 6d 3e 0c 39 e8 be a7 4b 15 bf
       -2.1276875 0.23186754 -0.45356023 -0.5831856
000200 2c 4e a6 3e db 22 3d 3f 0f 46 af 3e 65 fe 60 3e
       0.32481515 0.7388131 0.34233138 0.21972044
000210 50 88 bf 3e f1 ac b1 be b4 a8 e5 be 37 2d ca be
       0.37408686 -0.34702256 -0.44855273 -0.3948762
000220 3c e0 1c 3f cb 93 e3 3d 2b 07 67 3f 80 7c 92 bf
       0.61279655 0.11112174 0.9024531 -1.1444244
000230 fd fe 93 3f 80 ea 94 be fa 4a d2 3e f4 f6 1b bf
       1.1562191 -0.2908516 0.41072828 -0.60923696
000240 35 14 4d be 0b b0 1b be 51 f5 9a 3f b7 aa 0e bf
       -0.2002724 -0.15203874 1.2106115 -0.5572924
000250 0d be 74 3f 36 63 96 bf 76 d5 7c 3a 52 fa cc bf
       0.95602494 -1.1749027 0.0009644845 -1.6013892
000260 bf 74 b1 be 93 97 dc 3e bd 7f b1 be 23 93 24 3f
       -0.34659383 0.43084392 -0.3466777 0.6428701
000270 82 c9 1e be fb 33 d2 be 5d c1 93 3e 63 d4 e7 be
       -0.15506557 -0.41055283 0.28858462 -0.45279226
000280 36 8f 1e 3f f6 6a 03 3e 1f a2 fb bd d9 ca 0b bf
       0.6193727 0.12833771 -0.122867815 -0.54606396
000290 3d df 2c bf 2b da ec be af e9 37 bf 12 c8 14 3f
       -0.67528135 -0.462602 -0.7184095 0.58117783
0002a0 30 0c 04 3e 49 db e2 3e 1e 3c 6e 3f 8a 6c 0b 3f
       0.12895274 0.44307926 0.9306048 0.5446249
0002b0 38 18 f8 3e 3e f2 6b bf a9 64 6d be 5e eb 75 3e
       0.48455977 -0.9216651 -0.2318293 0.24015567
0002c0 d0 23 2b bf cb 26 7d bf 8e a3 0a bd 1d f8 00 3d
       -0.6685152 -0.9888732 -0.033847384 0.03148662
0002d0 9c 7a f4 3f 47 75 03 c0 ff ac 96 bd 9c 1f ef 3e
       1.9099917 -2.054033 -0.07357215 0.46703804
0002e0 fa f0 25 3f a5 b9 90 3e fa 71 66 be 4c 27 b3 3f
       0.64820826 0.28266636 -0.22504416 1.3996367
0002f0 4a e9 0f bf 76 e4 a6 be 01 40 b2 3e 0d 0f 13 be
       -0.56215346 -0.32596177 0.34814456 -0.1436121
000300 7c 1d 4a be dc bf f9 bf b2 a4 64 be 45 da 61 bf
       -0.1973781 -1.9511676 -0.22328451 -0.8822368
000310 7c 75 12 3f b1 ca 23 3f f0 8f d0 bf 1c 83 25 bf
       0.57210517 0.6398116 -1.6293926 -0.6465318
000320 d7 c5 37 3f b0 ea 4a 3e 5c c8 2a 3d 4e ab 93 bf
       0.71786255 0.19816089 0.041694984 -1.1536653
000330 32 3b 6a be f0 2f 88 3f d8 2a 96 bf c0 3b 08 bf
       -0.22874144 1.0639629 -1.1731825 -0.5321617
000340 c6 46 9d 3e af 31 8e 3e b1 aa 69 bf 4b a8 d5 3e
       0.30718058 0.2777228 -0.9127608 0.4172996
000350 b7 21 01 3f 66 e3 06 bf e5 86 8f bf 25 c3 83 bd
       0.5044207 -0.5269073 -1.1213042 -0.06433705
000360 64 b4 76 bf b7 7b 73 bf 0a 52 69 3b ae 06 a0 3f
       -0.96369004 -0.9511065 0.0035601878 1.2502038
000370 08 8a c4 be 10 95 86 bf ae 22 4a bf 7d fe 2c bf
       -0.3838656 -1.051424 -0.78959167 -0.6757582
000380 26 c5 53 be 4e eb 6c 3d f0 4d 3a bf 4f 4b bb 3e
       -0.20680675 0.05784159 -0.72775173 0.36580893
000390 47 6f 9f bf 5f 33 21 3f 49 6c ff be aa c0 f2 be
       -1.2455834 0.6296901 -0.49887303 -0.47412616
0003a0 01 39 a3 bf 44 c7 b8 bf 18 2a f2 3e 55 e6 b1 3e
       -1.2751771 -1.4435811 0.4729774 0.34746042
0003b0 60 c1 bd 3e 61 8b ba bf 68 2c b4 3e 88 15 1a bc
       0.37061596 -1.4573785 0.3519013 -0.0094045475
0003c0 2b 7a d5 be a1 dd 66 3f b0 1a 3d be 81 cf 8f 3f
       -0.4169477 0.9018193 -0.18467212 1.12352
0003d0 12 08 43 bd 76 ed 3a 3e 91 0f 9b 3c 42 2c 51 bf
       -0.04761512 0.18254647 0.018928321 -0.8170816
0003e0 cd b4 29 3f 28 c6 86 3e 98 5d ab bc e9 4f 05 3f
       0.66291505 0.26323056 -0.020918652 0.5207506
0003f0 57 22 71 3f 63 eb 09 bf b7 b0 fe 3e 7d dc 01 bf
       0.94193023 -0.53874797 0.49744198 -0.50727063

network_body._body_endoder.seq_layers.0.bias f4 [128]
000000 00 00 00 00 00 00 00 00 00 00 00 00 00 00 00 00
       0.0 0.0 0.0 0.0
000010 00 00 00 00 00 00 00 00 00 00 00 00 00 00 00 00
       0.0 0.0 0.0 0.0
000020 00 00 00 00 00 00 00 00 00 00 00 00 00 00 00 00
       0.0 0.0 0.0 0.0
000030 00 00 00 00 00 00 00 00 00 00 00 00 00 00 00 00
       0.0 0.0 0.0 0.0
000040 00 00 00 00 00 00 00 00 00 00 00 00 00 00 00 00
       0.0 0.0 0.0 0.0
000050 00 00 00 00 00 00 00 00 00 00 00 00 00 00 00 00
       0.0 0.0 0.0 0.0
000060 00 00 00 00 00 00 00 00 00 00 00 00 00 00 00 00
       0.0 0.0 0.0 0.0
000070 00 00 00 00 00 00 00 00 00 00 00 00 00 00 00 00
       0.0 0.0 0.0 0.0
000080 00 00 00 00 00 00 00 00 00 00 00 00 00 00 00 00
       0.0 0.0 0.0 0.0
000090 00 00 00 00 00 00 00 00 00 00 00 00 00 00 00 00
       0.0 0.0 0.0 0.0
0000a0 00 00 00 00 00 00 00 00 00 00 00 00 00 00 00 00
       0.0 0.0 0.0 0.0
0000b0 00 00 00 00 00 00 00 00 00 00 00 00 00 00 00 00
       0.0 0.0 0.0 0.0
0000c0 00 00 00 00 00 00 00 00 00 00 00 00 00 00 00 00
       0.0 0.0 0.0 0.0
0000d0 00 00 00 00 00 00 00 00 00 00 00 00 00 00 00 00
       0.0 0.0 0.0 0.0
0000e0 00 00 00 00 00 00 00 00 00 00 00 00 00 00 00 00
       0.0 0.0 0.0 0.0
0000f0 00 00 00 00 00 00 00 00 00 00 00 00 00 00 00 00
       0.0 0.0 0.0 0.0
000100 00 00 00 00 00 00 00 00 00 00 00 00 00 00 00 00
       0.0 0.0 0.0 0.0
000110 00 00 00 00 00 00 00 00 00 00 00 00 00 00 00 00
       0.0 0.0 0.0 0.0
000120 00 00 00 00 00 00 00 00 00 00 00 00 00 00 00 00
       0.0 0.0 0.0 0.0
000130 00 00 00 00 00 00 00 00 00 00 00 00 00 00 00 00
       0.0 0.0 0.0 0.0
000140 00 00 00 00 00 00 00 00 00 00 00 00 00 00 00 00
       0.0 0.0 0.0 0.0
000150 00 00 00 00 00 00 00 00 00 00 00 00 00 00 00 00
       0.0 0.0 0.0 0.0
000160 00 00 00 00 00 00 00 00 00 00 00 00 00 00 00 00
       0.0 0.0 0.0 0.0
000170 00 00 00 00 00 00 00 00 00 00 00 00 00 00 00 00
       0.0 0.0 0.0 0.0
000180 00 00 00 00 00 00 00 00 00 00 00 00 00 00 00 00
       0.0 0.0 0.0 0.0
000190 00 00 00 00 00 00 00 00 00 00 00 00 00 00 00 00
       0.0 0.0 0.0 0.0
0001a0 00 00 00 00 00 00 00 00 00 00 00 00 00 00 00 00
       0.0 0.0 0.0 0.0
0001b0 00 00 00 00 00 00 00 00 00 00 00 00 00 00 00 00
       0.0 0.0 0.0 0.0
0001c0 00 00 00 00 00 00 00 00 00 00 00 00 00 00 00 00
       0.0 0.0 0.0 0.0
0001d0 00 00 00 00 00 00 00 00 00 00 00 00 00 00 00 00
       0.0 0.0 0.0 0.0
0001e0 00 00 00 00 00 00 00 00 00 00 00 00 00 00 00 00
       0.0 0.0 0.0 0.0
0001f0 00 00 00 00 00 00 00 00 00 00 00 00 00 00 00 00
       0.0 0.0 0.0 0.0

network_body._body_endoder.seq_layers.2.weight f4 [128, 128]
000000 38 26 81 3d 61 28 3c bd 1c 86 27 bd d9 37 9d bd
       0.06306118 -0.045936946 -0.04089938 -0.07676668
000010 6e 36 55 bb 16 d2 01 3e e5 5f b5 3d 6d 1e 2c bd
       -0.0032533663 0.12677798 0.08856181 -0.042021204
000020 68 e2 86 bd 72 63 27 be 17 3f ed b7 ae f6 04 be
       -0.06586152 -0.16346529 -2.828198e-05 -0.12984726
000030 33 56 5e bd cf 35 9e 3c a4 45 1b 3d 1c e7 03 bd
       -0.054281425 0.019312767 0.03790821 -0.032202825
000040 a2 32 d4 bc 38 12 07 3e 31 e8 83 bc d3 cd 54 bd
       -0.02590305 0.13190544 -0.016101928 -0.0519541
000050 86 b5 0f bc 34 47 34 be 92 68 3f 3e d4 4a c4 bd
       -0.008771306 -0.17605287 0.18692234 -0.09584585
000060 45 6d 88 bc f1 e0 c2 3c f8 c3 62 bd 44 c1 17 3e
       -0.016653666 0.023788901 -0.05536267 0.14819819
000070 27 43 31 bd c0 df 1f be 14 c2 f8 bd 7c 31 40 bc
       -0.043276932 -0.15612698 -0.121463925 -0.011730548
000080 3a f8 a1 3d dc 0d c2 bc e1 2a c7 3d e4 dc b0 3d
       0.079086736 -0.02368825 0.097249754 0.086358815
000090 36 a4 a5 bd e0 c5 cc 3d aa 7e 0e be ae b0 81 bc
       -0.080879614 0.09998679 -0.13915506 -0.015831318
0000a0 76 c8 78 3b e9 87 d5 bd 8a 8f 53 bd d5 8c e5 bc
       0.003796128 -0.104263134 -0.05165056 -0.028021256
0000b0 15 47 01 3e e8 14 9d 3d d8 16 b9 bc 58 b0 82 bd
       0.12624772 0.07670003 -0.0225939 -0.06381291
0000c0 91 0d 19 3e 3b 87 51 bd 8d 38 ce 3c 15 8d a8 bb
       0.14946581 -0.051154356 0.02517345 -0.0051437714
0000d0 56 24 aa 3d 5e 1f 1f 3e 30 7c 10 3e da 66 09 be
       0.08307712 0.1553931 0.14109874 -0.13418141
0000e0 2c 10 d1 bd a6 e9 03 3d 03 0e 59 bc 8c bf 0b bd
       -0.10208163 0.032205246 -0.01324797 -0.03411822
0000f0 49 6e 47 be 36 92 e6 3c e4 22 cd ba cb de 89 be
       -0.19475664 0.02814589 -0.0015650657 -0.2692779
000100 4b 49 ad bd fc 60 0a bd bd 29 9b bd 81 54 e0 bb
       -0.08461245 -0.033783898 -0.0757632 -0.006846011
000110 c6 c3 31 bd 62 81 87 bd 9e 05 b9 3d 63 b7 af bd
       -0.043399595 -0.06616475 0.090342745 -0.085799
000120 a0 b8 c8 bc 62 a1 02 3e 75 7f 5d bd 75 89 29 bd
       -0.024502099 0.12756875 -0.05407663 -0.041390855
000130 8d a5 3b 3c 75 79 e7 bd 56 e8 90 3d 48 78 83 3c
       0.011453045 -0.11302463 0.070755646 0.016048566
000140 96 96 99 bd 1d 4c cc 3c 2c e7 1b 3e b9 81 37 3e
       -0.07499425 0.024938637 0.15224904 0.17920579
000150 28 cf 8c 3c f0 da ab bc ed 76 1c bc 3e 93 2a bd
       0.017188624 -0.020978421 -0.0095498385 -0.041644327
000160 bb 93 e4 bc 33 4c d8 3d 1a c3 e1 bc 64 46 2e 3d
       -0.027902475 0.10561409 -0.027558852 0.0425476
000170 80 00 51 bd db 6d a2 3d dd f8 fa 3d 23 45 e3 3c
       -0.051025867 0.079311095 0.12254498 0.027742928
000180 97 91 9c bd 12 78 a2 3b f5 cf 6a bd 9e 31 fe bd
       -0.076449566 0.004958161 -0.05732723 -0.124118075
000190 c9 02 f1 3d f4 4d ad 3d 9a dd 50 3c 8c ec 27 3e
       0.11768109 0.08462134 0.012748146 0.16398829
0001a0 2c 18 eb 3d 72 01 54 3c 79 ab b1 3a 27 ea f1 3d
       0.1147922 0.012939798 0.0013555131 0.11812239
0001b0 93 38 d1 3d d5 f3 a2 bd e3 50 95 3b a6 94 1c 3c
       0.10215869 -0.079566635 0.0045567616 0.009556925
0001c0 6c 9a fa 3b 20 ef e9 bc 9d b6 1b 3c 39 9a 7d bd
       0.007647803 -0.028556406 0.009503988 -0.061914656
0001d0 40 c3 a5 3d 63 58 eb bc 0a 15 e8 3d db d1 ca 3d
       0.080938816 -0.02872867 0.11332138 0.09903308
0001e0 be c9 23 3d 09 29 54 3d 29 b8 7a 3d 60 a5 bb 3b
       0.03998732 0.051796947 0.061210785 0.0057265013
0001f0 3d ab 82 3d 43 89 9e 3d 5d 1f b8 3d 18 e6 18 be
       0.06380317 0.07741024 0.08990357 -0.14931524
000200 bc cb c4 3d 7e 12 3f bd 6e 2a 1d 3e f6 54 5c bc
       0.09609172 -0.046648495 0.15348217 -0.013447991
000210 97 08 6e 3d e5 30 4f bd fb 10 b6 3c a4 43 2f bd
       0.05811366 -0.05058374 0.022224894 -0.042789117
000220 e1 b6 0f bd 85 49 bb ba 7d 10 48 bc 1b ce 96 3c
       -0.035086516 -0.0014288878 -0.012210962 0.018408826
000230 14 91 7a 3d 75 cc 2d 3e f5 c8 53 bd e5 a8 4f bd
       0.061173514 0.16972525 -0.05170532 -0.05069818
000240 71 35 13 be ff 3d 1f bd 7c fd 31 be c2 2c b7 bd
       -0.14375855 -0.038877483 -0.17381853 -0.08944084
000250 05 49 80 bd 45 e7 d1 3d 78 1b 9a bd 58 23 b5 3d
       -0.06263927 0.10249189 -0.075247705 0.08844632
000260 1c 49 14 be 8d cb c6 3d 24 4e 21 3b ef a2 a7 bd
       -0.14481014 0.09706793 0.0024613226 -0.08185374
000270 6d 05 e9 3d e3 c0 60 bc d5 e3 dd bc cb 9b 6b bd
       0.11377988 -0.013717863 -0.027086178 -0.057521623
000280 b4 cc 28 3d 30 f0 e5 3b c0 98 58 3e 69 14 4a bd
       0.041210845 0.007017158 0.2115202 -0.04933587
000290 99 d1 9c 3b c3 b8 fd bd 2d eb 39 3c a0 b7 ee bd
       0.004785728 -0.12388756 0.011347574 -0.116561174
0002a0 86 8e cf 3d c6 90 6a bd 36 4d 41 bd 57 1a 10 3d
       0.10134606 -0.057266973 -0.047192775 0.03518137
0002b0 1e 74 07 3d 89 a7 12 3d 99 97 5c bd a4 79 7d bc
       0.033069722 0.035804305 -0.053855512 -0.015470896
0002c0 db 48 c3 bd cd fa 90 bd 9a d3 12 be c5 7c 44 bb
       -0.095353805 -0.070790865 -0.14338532 -0.0029981595
0002d0 29 2d 42 bd f3 4b 80 bd d4 c7 c9 bd b4 f9 36 3d
       -0.04740635 -0.06264486 -0.09852567 0.04467173
0002e0 4f ab cc 3d f0 8d c5 bc 86 19 5f bd e7 8f b5 3d
       0.09993612 -0.024115533 -0.0544677 0.08865338
0002f0 e4 25 d1 3b a6 88 34 bb db 5c 87 3a 1e e4 b4 bd
       0.0063826907 -0.002754727 0.0010327356 -0.088325724
000300 87 8d 0f bd f0 bc b7 bc 5d 60 c9 3d bd 20 0a bd
       -0.03504708 -0.02242896 0.09832833 -0.033722628
000310 f0 ba c2 3d 48 2a 83 bd dc a4 13 3e 12 e9 61 3d
       0.09508312 -0.06404549 0.14418358 0.055153914
000320 9a fa 01 bd 72 49 89 bc b0 ed 15 be c5 69 76 3d
       -0.031733133 -0.016758654 -0.14641452 0.060159463
000330 54 6d 42 3e bd b8 b2 3d f9 8f ce bd 9a 6c 90 3d
       0.18987018 0.08726642 -0.10086054 0.07051964
000340 3a 65 93 bd 2c 04 67 bc bc 77 2d bd 07 ea 5c bd
       -0.07197042 -0.014100116 -0.042350516 -0.053934123
000350 52 a3 93 bd 90 59 03 be 33 60 62 bd e4 c2 38 be
       -0.07208885 -0.12827134 -0.055267524 -0.18043095
000360 8a a5 47 3d 06 95 d4 bc 70 d7 b2 3d a0 f6 5f be
       0.048741855 -0.025949966 0.08732498 -0.21871424
000370 2c b2 3d 3d f9 18 bb bd e0 4b f1 3c d5 a7 90 3d
       0.046312496 -0.091356225 0.029455125 0.070632614
000380 90 5d 2d 3e db 66 03 3e b9 c7 04 be 0e 24 34 3d
       0.16930223 0.12832205 -0.12966813 0.043979697
000390 7d 59 e2 ba 87 fe 60 bd 02 7f c7 bd 3a dd 0f 3d
       -0.0017269101 -0.054930236 -0.09741022 0.035123087
0003a0 47 e5 fd bd e6 bf 0d bd b7 31 e4 bb 69 e8 a1 bd
       -0.12397247 -0.034606837 -0.0069639343 -0.07905657
0003b0 53 8e 8a 3c 3f 54 94 bc 7f 6b 91 bc 98 65 27 be
       0.016913569 -0.018106578 -0.017751453 -0.16347349
0003c0 39 bc c8 3d 55 64 0d 3a 39 48 ee 3c 35 3e fb bd
       0.098015256 0.0005393674 0.029087173 -0.122677244
0003d0 12 05 ef bb 1a 27 f2 3c 7d a5 8c bd 00 95 12 3e
       -0.0072943056 0.02955966 -0.06867502 0.14314651
0003e0 7a 68 20 bd 7e a3 a4 3c 62 42 8d 3d 4e 21 ad bd
       -0.039162137 0.02009749 0.06897427 -0.08453618
0003f0 c3 cf 82 3d 4c 02 a1 bd e2 58 4f bd 27 e6 1c be
       0.06387284 -0.07861766 -0.050621875 -0.15322171

network_body._body_endoder.seq_layers.2.bias f4 [128]
000000 00 00 00 00 00 00 00 00 00 00 00 00 00 00 00 00
       0.0 0.0 0.0 0.0
000010 00 00 00 00 00 00 00 00 00 00 00 00 00 00 00 00
       0.0 0.0 0.0 0.0
000020 00 00 00 00 00 00 00 00 00 00 00 00 00 00 00 00
       0.0 0.0 0.0 0.0
000030 00 00 00 00 00 00 00 00 00 00 00 00 00 00 00 00
       0.0 0.0 0.0 0.0
000040 00 00 00 00 00 00 00 00 00 00 00 00 00 00 00 00
       0.0 0.0 0.0 0.0
000050 00 00 00 00 00 00 00 00 00 00 00 00 00 00 00 00
       0.0 0.0 0.0 0.0
000060 00 00 00 00 00 00 00 00 00 00 00 00 00 00 00 00
       0.0 0.0 0.0 0.0
000070 00 00 00 00 00 00 00 00 00 00 00 00 00 00 00 00
       0.0 0.0 0.0 0.0
000080 00 00 00 00 00 00 00 00 00 00 00 00 00 00 00 00
       0.0 0.0 0.0 0.0
000090 00 00 00 00 00 00 00 00 00 00 00 00 00 00 00 00
       0.0 0.0 0.0 0.0
0000a0 00 00 00 00 00 00 00 00 00 00 00 00 00 00 00 00
       0.0 0.0 0.0 0.0
0000b0 00 00 00 00 00 00 00 00 00 00 00 00 00 00 00 00
       0.0 0.0 0.0 0.0
0000c0 00 00 00 00 00 00 00 00 00 00 00 00 00 00 00 00
       0.0 0.0 0.0 0.0
0000d0 00 00 00 00 00 00 00 00 00 00 00 00 00 00 00 00
       0.0 0.0 0.0 0.0
0000e0 00 00 00 00 00 00 00 00 00 00 00 00 00 00 00 00
       0.0 0.0 0.0 0.0
0000f0 00 00 00 00 00 00 00 00 00 00 00 00 00 00 00 00
       0.0 0.0 0.0 0.0
000100 00 00 00 00 00 00 00 00 00 00 00 00 00 00 00 00
       0.0 0.0 0.0 0.0
000110 00 00 00 00 00 00 00 00 00 00 00 00 00 00 00 00
       0.0 0.0 0.0 0.0
000120 00 00 00 00 00 00 00 00 00 00 00 00 00 00 00 00
       0.0 0.0 0.0 0.0
000130 00 00 00 00 00 00 00 00 00 00 00 00 00 00 00 00
       0.0 0.0 0.0 0.0
000140 00 00 00 00 00 00 00 00 00 00 00 00 00 00 00 00
       0.0 0.0 0.0 0.0
000150 00 00 00 00 00 00 00 00 00 00 00 00 00 00 00 00
       0.0 0.0 0.0 0.0
000160 00 00 00 00 00 00 00 00 00 00 00 00 00 00 00 00
       0.0 0.0 0.0 0.0
000170 00 00 00 00 00 00 00 00 00 00 00 00 00 00 00 00
       0.0 0.0 0.0 0.0
000180 00 00 00 00 00 00 00 00 00 00 00 00 00 00 00 00
       0.0 0.0 0.0 0.0
000190 00 00 00 00 00 00 00 00 00 00 00 00 00 00 00 00
       0.0 0.0 0.0 0.0
0001a0 00 00 00 00 00 00 00 00 00 00 00 00 00 00 00 00
       0.0 0.0 0.0 0.0
0001b0 00 00 00 00 00 00 00 00 00 00 00 00 00 00 00 00
       0.0 0.0 0.0 0.0
0001c0 00 00 00 00 00 00 00 00 00 00 00 00 00 00 00 00
       0.0 0.0 0.0 0.0
0001d0 00 00 00 00 00 00 00 00 00 00 00 00 00 00 00 00
       0.0 0.0 0.0 0.0
0001e0 00 00 00 00 00 00 00 00 00 00 00 00 00 00 00 00
       0.0 0.0 0.0 0.0
0001f0 00 00 00 00 00 00 00 00 00 00 00 00 00 00 00 00
       0.0 0.0 0.0 0.0

value_heads.value_heads.extrinsic.weight f4 [1, 128]
000000 d4 b7 47 bd b8 09 de 3c 72 3e 3f be dc a1 bb 3d
       -0.048759297 0.027104244 -0.18676165 0.091617316
000010 f8 55 b6 3d 88 7b 2d 3e 04 8a 3b 3e 50 18 11 be
       0.08903116 0.16941655 0.18314368 -0.1416943
000020 80 0f d2 3c f2 ff ac bd 3c a5 06 be 42 91 36 be
       0.025642157 -0.08447255 -0.1314897 -0.17828849
000030 00 6c 42 3a 01 45 56 be 60 41 4e 3c 88 96 c3 bc
       0.0007416606 -0.2092476 0.012588829 -0.02387549
000040 00 39 ea bb 2c da 8e 3d 60 21 39 be e2 4d 0f be
       -0.007147908 0.06975207 -0.18079138 -0.13994554
000050 52 71 55 3e 54 85 4f bd 50 52 7f 3d 9a 1e 0e be
       0.2084401 -0.05066426 0.06233436 -0.13878861
000060 3e 93 c0 bd d8 fe bc 3d 14 6e 9d bd 1a a6 38 3e
       -0.09403084 0.09228295 -0.07687011 0.18032113
000070 06 23 3b 3e 84 9c 28 3e 00 7c 10 3d 54 24 a8 3d
       0.18275079 0.16465956 0.035274506 0.08210054
000080 46 be 14 3e 30 bf d7 bc a8 72 dc 3c a4 93 6a bd
       0.14525709 -0.026336282 0.026910141 -0.057269707
000090 85 c0 34 be 52 ae 34 3e 86 9f fb bd 52 4f 08 3e
       -0.17651565 0.17644623 -0.12286286 0.13311508
0000a0 e4 19 a1 3d e0 e3 9c bb b0 6b bf bd 38 68 3f 3d
       0.07866266 -0.004787907 -0.09346712 0.04673025
0000b0 f6 08 56 be bc 32 b9 3d d8 52 d1 bc 70 b8 cd 3d
       -0.20901856 0.0904288 -0.025552198 0.10044944
0000c0 f4 aa fa 3d 10 97 cf 3d 00 2b 0b 3b a8 c4 e5 3d
       0.12239638 0.10136235 0.0021235347 0.1121915
0000d0 aa 26 3a 3e e4 0f da 3d 76 66 37 3e fc b7 fe 3d
       0.18178812 0.10647562 0.1791018 0.12437436
0000e0 26 e2 50 3e 20 95 99 3d 20 28 2a bc 42 d7 8f bd
       0.20398769 0.074991465 -0.010385543 -0.07023479
0000f0 da db 23 3e e8 46 0a be c0 52 e2 bd 91 72 36 be
       0.16001835 -0.13503611 -0.110509396 -0.17817141
000100 00 b5 26 3e 40 69 5a be 8c f9 e6 3d 9a d6 59 be
       0.16279984 -0.21329212 0.11278066 -0.2127327
000110 e4 d4 f7 3d 50 9d 52 3e b7 e2 01 be 62 2e 53 3e
       0.121011525 0.20567822 -0.12684141 0.20623162
000120 09 3a e7 bd f7 5e c4 bd 70 89 b9 bd 3e 2e 1a be
       -0.11290366 -0.095884256 -0.09059417 -0.15056702
000130 10 18 a1 3c 6c ea 93 3d 2d 61 d4 bd 4c ab 28 be
       0.019664794 0.07222447 -0.10370097 -0.16471595
000140 a8 9d 52 3e 68 c1 15 be ca d3 90 bd be fb 26 3e
       0.20567954 -0.1462456 -0.070716456 0.1630697
000150 4c c6 18 bd 5b 55 4f be 9e 33 48 3e 51 41 19 be
       -0.037298486 -0.20247404 0.1955094 -0.14966322
000160 10 58 1a bc c2 96 01 be d8 7e 91 bd 9c 29 14 3e
       -0.00942041 -0.12655166 -0.07104272 0.14468998
000170 3c f2 eb 3d bf 62 31 be 20 ef 3d bd b0 74 ae 3d
       0.11520812 -0.17322825 -0.046370625 0.0851835
000180 90 96 11 3e fe cd 53 3e 08 50 fa bd f1 69 0c be
       0.14217591 0.20684049 -0.12222296 -0.13712288
000190 dc a4 61 bd 58 75 d9 3d 48 ab e8 3c fe eb 27 be
       -0.055088863 0.10618085 0.028401986 -0.16398618
0001a0 e2 d3 1e be 55 0f 0b be 82 92 4e 3e b8 d7 51 3e
       -0.15510514 -0.13580067 0.20173076 0.20492446
0001b0 e8 a2 20 3d b8 4c 2b be db 8d 26 be 3c 43 11 bd
       0.03921786 -0.16728485 -0.16265051 -0.03546451
0001c0 88 47 59 3e 1a f7 4c 3e b8 69 a4 bd 2c 1f 84 3d
       0.21218693 0.20016137 -0.08027977 0.06451258
0001d0 5c ba 0d bd 46 7c 46 be 80 85 4b 3d 44 0e 53 3e
       -0.034601554 -0.19383344 0.049687862 0.2061091
0001e0 be 73 f1 bd 00 74 1c bb c0 a1 bd 3d 38 f8 56 3e
       -0.11789654 -0.0023872852 0.09259367 0.20993125
0001f0 80 98 6d bb 38 18 49 3e 18 4c 42 3d 20 9b 60 3d
       -0.0036254227 0.19638145 0.04743585 0.05483544
