results/CropSorterSpedUp/PlayerRL/PlayerRL-19582.pt (torch, 434942 bytes, 36 tensors)

network_body._body_endoder.seq_layers.0.weight f4 [128, 2]
0	0x3f1457d9	0.57946545
1	0xbfae256b	-1.3605169
2	0xbf645f5f	-0.89208025
3	0x3f764001	0.9619141
4	0x3e87c5b0	0.2651801
5	0xbf168167	-0.587912
6	0xbf2ef353	-0.68340033
7	0x3f150c3c	0.58221793
8	0xbe1a1b05	-0.1504937
9	0xbff73bb9	-1.9315101
10	0xbe80981e	-0.25116056
11	0x3fe9f560	1.8278008
12	0xbf32ca00	-0.6983948
13	0x3f5915f9	0.8479915
14	0x3d86472b	0.06556543
15	0xbe83033d	-0.25588408
16	0x3edb9c1b	0.42892537
17	0xbb56a319	-0.0032751022
18	0xbdf95319	-0.12174053
19	0xbf02252f	-0.5083799
20	0x3f1fe701	0.6246186
21	0x3f0ce67b	0.55039185
22	0xbf346243	-0.70462435
23	0xbf608362	-0.87700474
24	0x3ee61d3d	0.44944182
25	0xbf82cb36	-1.0218265
26	0x3ee69f29	0.45043305
27	0x3e0db288	0.13837636
28	0x3de71626	0.11283521
29	0xbeb9e95e	-0.36310858
30	0xbb2348a4	-0.0024915123
31	0x3f81862f	1.0119075
32	0x3e37802c	0.17919987
33	0x3e845c5d	0.25851718
34	0x3f143a1c	0.5790117
35	0x3ec2fcfa	0.3808363
36	0x3e2b89a9	0.16751732
37	0xbf04d66c	-0.5188968
38	0x3da34d3c	0.07973716
39	0xbe8c8bd3	-0.27450427
40	0xbf51e4f3	-0.81989974
41	0x3f387052	0.7204639
42	0x3d0bc173	0.034120034
43	0x3e751792	0.23934773
44	0xbf05750b	-0.5213172
45	0x3f264cdd	0.64961034
46	0x3f1ebb3d	0.6200445
47	0xbf4c1a51	-0.79727656
48	0xbf617397	-0.88067
49	0xbe8f83d3	-0.2803026
50	0x3efb99d6	0.49140805
51	0xbe3a4e4c	-0.1819393
52	0xbf3e7832	-0.74402153
53	0x3f7b6b51	0.98210627
54	0x3f35bd10	0.7099161
55	0xbf4e5514	-0.8059857
56	0xbf46eaae	-0.7770184
57	0x3ef7e2dc	0.48415267
58	0xbf234395	-0.63774997
59	0x3e366d54	0.17815143
60	0xbfa5cde4	-1.2953458
61	0xbfa71c1b	-1.3055452
62	0x3ec9d42b	0.39419684
63	0xbf57819d	-0.8418215
64	0xbdf98175	-0.12182895
65	0x3f01233c	0.5044439
66	0x3e1f9fcc	0.15588301
67	0x3f007a7c	0.50186896
68	0x3f514a59	0.8175407
69	0x3e6941de	0.22779033
70	0xbf3f63bd	-0.74761564
71	0x3f00b6cd	0.5027893
72	0x3d5f5ae1	0.05453003
73	0xbfb65ab0	-1.4246426
74	0x3ec8d662	0.3922606
75	0xbf6e440d	-0.9307259
76	0x3f8644f3	1.0489792
77	0x3f1f9035	0.6232942
78	0xbe398a99	-0.18119277
79	0x3f8ea687	1.114457
80	0xbe8df94b	-0.27729258
81	0xbe84bb02	-0.25923926
82	0x3ead6b1d	0.33870783
83	0x3e88adb7	0.26695034
84	0xbf259542	-0.64680874
85	0xbf0fe999	-0.56215817
86	0xbe959e12	-0.2922216
87	0x3f017e4c	0.5058334
88	0x3f533e43	0.8251688
89	0xbeec328a	-0.46132308
90	0x3f3038c6	0.6883663
91	0xbeef8ef1	-0.46788743
92	0x3f3e65d4	0.7437413
93	0x3e3ae6bb	0.18252079
94	0x3e914597	0.28373405
95	0xbf053b48	-0.5204358
96	0x3ea4afb9	0.32165316
97	0xbf841290	-1.0318165
98	0xbf11a665	-0.5689452
99	0xbf0d127c	-0.5510633
100	0xbf6795a7	-0.90462726
101	0xbeb2405d	-0.3481473
102	0xbf8a9851	-1.0827733
103	0x3f979cae	1.184469
104	0x3d8f94b1	0.070107825
105	0x3ef3bb14	0.47603667
106	0xbe3a2023	-0.18176322
107	0xbe952dc0	-0.29136467
108	0xbd42204e	-0.04739409
109	0x3dda0ba4	0.106467515
110	0x3ea99d2a	0.3312772
111	0x3e843d30	0.25827932
112	0xbf31655e	-0.692953
113	0x3fa56a88	1.2923136
114	0xbeb97feb	-0.36230406
115	0x3f005326	0.50126874
116	0xbf53dbd9	-0.82757336
117	0xbeadc5a1	-0.3393984
118	0xbf2e4824	-0.6807883
119	0xbf91f222	-1.1402018
120	0xbf449f8d	-0.76805955
121	0x3e8e1eea	0.2775796
122	0xbf29ff94	-0.66405606
123	0x3ede1023	0.43371686
124	0x3dbb38d4	0.091416985
125	0x3eb4a455	0.35281625
126	0x3ecdae03	0.40171823
127	0xbe9790be	-0.29602617
128	0xbe6bc133	-0.23022918
129	0x3f18e66b	0.5972659
130	0x3f829412	1.0201437
131	0x3cc39c0d	0.023878122
132	0x3f44d3c1	0.7688561
133	0x3d633c3f	0.055477377
134	0x3d85d429	0.06534607
135	0xbf131ca6	-0.5746559
136	0xbf130ade	-0.57438457
137	0xbf9ac7a8	-1.209218
138	0xbf3a2809	-0.7271734
139	0xbfc4391d	-1.532993
140	0xbe3e8f0e	-0.18609259
141	0xbede8a28	-0.4346478
142	0x3e5c0481	0.21486093
143	0x3c1dd443	0.009633127
144	0xbc51415c	-0.012771931
145	0xbefeec1b	-0.4978951
146	0x3f0796e0	0.5296459
147	0xbd4c4fb9	-0.049880717
148	0x3e0f1c50	0.13975644
149	0xbf50dd4d	-0.8158768
150	0xbf1f655d	-0.62264043
151	0x3f0291fd	0.5100401
152	0xbc30745e	-0.010769932
153	0x3f38f654	0.72250867
154	0x3ff411e1	1.9067956
155	0x3eb3eb33	0.3514038
156	0xbe491129	-0.19635452
157	0xbf49de1e	-0.7885455
158	0x3f2e6890	0.681283
159	0x3f61a1b7	0.8813738
160	0xbe1fe1e9	-0.15613522
161	0x3f646e49	0.8923078
162	0x3f4fc6d4	0.8116276
163	0xbfae5c1f	-1.3621863
164	0x3f326497	0.6968474
165	0x3eb93dc4	0.36179936
166	0xbefed9f9	-0.49775675
167	0xbfc24db8	-1.5179968
168	0x3ea48ff8	0.3214109
169	0xbef60058	-0.48047137
170	0xbd45ee33	-0.048322868
171	0x3f5d1ef2	0.86375344
172	0xbe39fa65	-0.18161924
173	0xbddac9ed	-0.106830455
174	0x3dd7f0b1	0.10543955
175	0x3f02f3a1	0.51153
176	0x3ea450df	0.3209295
177	0xbcdafaa4	-0.026730843
178	0xbec044e4	-0.3755256
179	0xbfc3847b	-1.5274805
180	0x3ef018d3	0.4689394
181	0x3f7538c2	0.9578973
182	0xbf88b81f	-1.0681189
183	0xbf17b245	-0.5925639
184	0x3f23b2dd	0.639448
185	0x3f8b7ec2	1.0898058
186	0xbf8bd6d2	-1.0924933
187	0x3e03ed3d	0.12883468
188	0x3e8a4f48	0.27013612
189	0x3f5051a5	0.8137458
190	0x3e1b5f2c	0.15173024
191	0xbf171c3c	-0.5902746
192	0x3f85e623	1.0460857
193	0xbc928408	-0.017885223
194	0xbf04602f	-0.51709265
195	0xbea75170	-0.3267932
196	0x3f799e09	0.9750677
197	0x3f164629	0.58700806
198	0x3e9eddf9	0.31028727
199	0xbe10ecae	-0.14152786
200	0xbe35fa01	-0.1777115
201	0xbf24074c	-0.64073634
202	0xbe874c24	-0.26425278
203	0xbe35fd88	-0.17772496
204	0xbe94d6ab	-0.2907003
205	0x3dd5aa41	0.10432864
206	0xbeb66844	-0.35626423
207	0xbdbfda85	-0.09367851
208	0xbea5537b	-0.32290253
209	0x3ff328ef	1.8996867
210	0xbf2d5679	-0.6771007
211	0xbef9e7bb	-0.4880961
212	0xbe734c81	-0.23759653
213	0xbf0e5e8a	-0.55613005
214	0xbf935d40	-1.1512833
215	0x3f8474b0	1.034811
216	0x3f8995ce	1.0748842
217	0x3fbbd2b7	1.467368
218	0xbf96a3d3	-1.1768745
219	0xbf798f6a	-0.9748446
220	0xbf8d7f45	-1.1054465
221	0x3eb20044	0.34765828
222	0x3f98ee2d	1.1947685
223	0xbe6dccd5	-0.23222668
224	0xbf396b51	-0.72429377
225	0x3f045c67	0.51703495
226	0xbead13c6	-0.33804148
227	0xbf5a0412	-0.8516246
228	0xbcdb777e	-0.026790377
229	0xbd79cd7c	-0.06098698
230	0x3f1f5ff0	0.62255764
231	0xbd24c4c4	-0.040226713
232	0x3eaddba2	0.3395663
233	0xbed0e0bc	-0.4079646
234	0xbf511aba	-0.81681406
235	0x3d3e5084	0.046463504
236	0xbdda57bf	-0.106612675
237	0xbf05efc9	-0.5231901
238	0x3eb11b35	0.3459107
239	0xbe2acba1	-0.16679241
240	0xbdefb59b	-0.1170456
241	0x3f9da6c0	1.2316513
242	0xbf8264db	-1.0187029
243	0xbdbbbdee	-0.091670856
244	0x3e40c81b	0.18826334
245	0x3e99abf6	0.30014008
246	0x3ec944f8	0.3931043
247	0x3dbb5f82	0.09149076
248	0x3df75385	0.12076477
249	0x3ebd243c	0.36941707
250	0x3e652525	0.22377451
251	0xbe1a209a	-0.15051499
252	0xbf22b1a1	-0.6355229
253	0xbff1b3bf	-1.8882979
254	0xbe8ce274	-0.2751652
255	0xbf27e3d3	-0.6558201

network_body._body_endoder.seq_layers.0.bias f4 [128]
0	0x3b4e6f79	0.0031499548
1	0xbc104261	-0.008804888
2	0xbc8b4457	-0.01700036
3	0xbb28179c	-0.0025648838
4	0xbb2494cb	-0.0025113102
5	0x3c567a10	0.013090625
6	0xbb608772	-0.003426042
7	0x3ba3dedf	0.0050009335
8	0x3b9d65f4	0.0048034135
9	0x3b303c77	0.0026891509
10	0xbc1715eb	-0.009221534
11	0x3c832a2c	0.01601132
12	0x3bad9f4b	0.00529853
13	0xbbe3f5b7	-0.0069567817
14	0xbb90670f	-0.004406817
15	0x3c0b7ef5	0.008514156
16	0xbb8d70f6	-0.0043164445
17	0xbb80ef6a	-0.0039347904
18	0xbc6c3de1	-0.01441905
19	0x3ba7ea2c	0.005124351
20	0x3bd8d620	0.0066173226
21	0x3c078c6f	0.008273228
22	0x3bc56af5	0.006024713
23	0xbc40491d	-0.011736182
24	0xbac41064	-0.0014958498
25	0xbc1c710f	-0.00954844
26	0x3b40965f	0.0029386503
27	0xbbe13e7d	-0.0068739043
28	0x3b7c6e39	0.0038517846
29	0xbbd61eed	-0.0065344484
30	0x3c4dc455	0.012559016
31	0x3b048dd4	0.0020226138
32	0xbba25bd1	-0.004954793
33	0xbbc447c7	-0.005990002
34	0xbc0d3bb0	-0.008620188
35	0x3bb40c3a	0.0054946216
36	0x3b9a08d5	0.00470076
37	0xb94b1e06	-0.00019370773
38	0xbbf7f2fa	-0.007566807
39	0xbc14fddc	-0.009093728
40	0xbc8f63ab	-0.01750358
41	0xbbb2909e	-0.0054493686
42	0x3a84fa6e	0.0010145435
43	0x3b8dd7a3	0.0043286844
44	0x3b6ed28f	0.003644142
45	0xbc243f0d	-0.010024798
46	0xbc30eb6a	-0.010798315
47	0xb91f0caf	-0.00015168147
48	0x3b4b5a38	0.0031029116
49	0x3b46752e	0.0030282247
50	0x3930b131	0.00016850677
51	0xbbee3bf3	-0.00727033
52	0x3be2f298	0.006925892
53	0xbc47f121	-0.012203486
54	0xb888ea20	-6.5285945e-05
55	0x3bb44db5	0.0055024275
56	0xbc34f36d	-0.011044365
57	0x3ad0b6f7	0.0015923668
58	0xbb044159	-0.0020180552
59	0xbc4d50c3	-0.012531462
60	0xbaf57ad4	-0.0018728622
61	0xbb0e9c3d	-0.0021760606
62	0xbc5379ab	-0.012907426
63	0xbaa93052	-0.0012908077
64	0x3a9e4580	0.0012075156
65	0xbc0a6916	-0.008447906
66	0xbb1e206a	-0.0024128207
67	0xbb45b89c	-0.003016985
68	0x3bd1b01f	0.006399169
69	0xbc2f53f4	-0.010701168
70	0xba6057cc	-0.00085580046
71	0x3bbc3969	0.0057441485
72	0x396da71a	0.00022664331
73	0xbaeba4af	-0.0017978157
74	0xba143cab	-0.0005654792
75	0x3bbbc70b	0.005730515
76	0xbbe1ba72	-0.006888681
77	0xb91e6fcb	-0.000151097
78	0x3c872b77	0.016500218
79	0x3b339b39	0.0027405752
80	0x3bc77880	0.0060873628
81	0xbb58e842	-0.003309742
82	0x3b161998	0.0022903439
83	0x3c40598f	0.011740102
84	0xbbc2ca33	-0.005944514
85	0x3c1d1039	0.009586387
86	0xbc51074a	-0.0127580855
87	0xbc147151	-0.00906022
88	0x3bd5d3be	0.006525486
89	0x3c35540f	0.011067404
90	0xbc279ad0	-0.010229781
91	0x3c236ada	0.009974206
92	0x3bb91d67	0.005649257
93	0xbb80ec40	-0.003934413
94	0xbc191641	-0.009343685
95	0xbba3b799	-0.004996252
96	0x3ba8c0d1	0.0051499386
97	0xbb7d19d6	-0.0038620136
98	0xbc0ce4c3	-0.008599463
99	0xbba13d41	-0.004920632
100	0x3bdd1590	0.006746955
101	0xbacc52a0	-0.0015588589
102	0xbc0369a6	-0.008020794
103	0x3c12dcf4	0.008963812
104	0x3be1a6c9	0.0068863374
105	0x3bcd4ebc	0.0062654894
106	0xba85e2df	-0.0010214708
107	0x3b8402f5	0.004028673
108	0x38a1f3c5	7.722484e-05
109	0x3c91fbfd	0.017820353
110	0x39c4b338	0.00037517562
111	0xbc42aada	-0.0118815545
112	0xbc9c79f7	-0.019101126
113	0xbbfc782c	-0.0077047553
114	0x3c8dc5af	0.017306177
115	0xbc293edf	-0.010329931
116	0xbb1ed98d	-0.0024238557
117	0x3c7c74fa	0.015408749
118	0x39c3811a	0.00037289486
119	0xbc3da3d3	-0.011574703
120	0xbc81bc6e	-0.01583692
121	0xbcc66f24	-0.024222918
122	0x3abd0a5f	0.0014422646
123	0xbbc4cd3c	-0.006005911
124	0xbbb8845d	-0.0056310133
125	0xbb1e4f44	-0.0024156133
126	0x3b8d482c	0.004311582
127	0x3be456bb	0.006968347

network_body._body_endoder.seq_layers.2.weight f4 [128, 128]
0	0x3dd7b53e	0.10532616
1	0xbe2f2037	-0.17102133
2	0x3ab92ba5	0.0014127387
3	0xbdbbbede	-0.091672644
4	0xbd980409	-0.07422645
5	0x3d9ef571	0.07761658
6	0xbd4b9086	-0.049698375
7	0x3d8cfde4	0.06884363
8	0x3cb2e97d	0.021839852
9	0x3e58258c	0.21108073
10	0x3e013c4f	0.12620662
11	0xbd047da0	-0.032346368
12	0x3e360bf2	0.17777994
13	0xbdaaee34	-0.08346215
14	0xbe53de32	-0.2069023
15	0x3d4e1dcd	0.05032139
16	0x3d1783ee	0.036991052
17	0xbd1e6201	-0.038667683
18	0x3e1e2379	0.15443219
19	0xbdba8fe6	-0.09109478
20	0xbd9112a2	-0.07083632
21	0xbd9bf7fa	-0.07615657
22	0xbd60aa02	-0.054849632
23	0x3cf5a6cf	0.029986767
24	0xbe1adfe9	-0.15124477
25	0x3c43a98e	0.01194228
26	0xbc807251	-0.01567951
27	0xbdae912a	-0.085237816
28	0x3dff8453	0.12476411
29	0x3c081d6b	0.008307795
30	0xbcfc8209	-0.030823724
31	0x3e8c7c7f	0.27438733
32	0x3e0b3350	0.13593793
33	0x3da8ae95	0.08236424
34	0xbd9d3cd2	-0.07677616
35	0xbd7ad230	-0.061235607
36	0xbdd509ff	-0.10402297
37	0xbe7b1c1a	-0.24522439
38	0x3df4cfad	0.119536735
39	0xbd2911b9	-0.041276667
40	0x3dc49565	0.09598807
41	0x3e3d730a	0.18500915
42	0x3d3981e6	0.045289896
43	0xbd67082f	-0.05640429
44	0xbd2f561c	-0.04280673
45	0xbdd8e6f4	-0.10590926
46	0x3d9ae4aa	0.075631455
47	0xbdcd4601	-0.10023118
48	0xbdfc3711	-0.123151906
49	0x3dc92879	0.09822173
50	0x3e2b8c98	0.16752851
51	0x3ca62d4e	0.020285275
52	0xbd573af2	-0.05254645
53	0x3d080aca	0.033213414
54	0x3cdf9761	0.027293863
55	0x3dbba415	0.091621555
56	0xbdbb781a	-0.09153767
57	0x3d97d7ce	0.07414208
58	0x3c23ec96	0.010005137
59	0x39d27e50	0.0004014843
60	0x3d579fca	0.05264262
61	0xbd6b70b8	-0.057480544
62	0x3d762de2	0.06010235
63	0x3e121c81	0.14268686
64	0xbd5c3f23	-0.05377115
65	0xbd29eef6	-0.041487657
66	0x3dbaadab	0.09115156
67	0xbd986658	-0.074413955
68	0x3d801965	0.062548436
69	0xbc903429	-0.017602997
70	0x3e003531	0.12520291
71	0x3ddc54d1	0.10758365
72	0x3d52fc81	0.051510338
73	0x3d98d79d	0.07463
74	0xbc53ca35	-0.012926628
75	0xbd802ebe	-0.06258915
76	0x3dac924a	0.0842634
77	0x3de0301f	0.10946678
78	0xbe0bd93f	-0.13657092
79	0xbd21c196	-0.03949126
80	0x3dcb7cc2	0.09935905
81	0x3c71bf29	0.014755049
82	0xbd4cf4e8	-0.05003825
83	0xbda809e1	-0.08205009
84	0xbd19a30c	-0.03750901
85	0x3df37ced	0.11889062
86	0xbd9e826f	-0.07739722
87	0x3bfb9c73	0.0076785623
88	0x3dc1d780	0.094649315
89	0x3cc56e63	0.024100488
90	0x3d91b0c1	0.07113791
91	0x3e340cdd	0.17583032
92	0xbc721450	-0.014775351
93	0x3e06a789	0.13149847
94	0x3dc84966	0.09779625
95	0xbc71e387	-0.014763719
96	0xbd117257	-0.035509434
97	0xbd8559ab	-0.065112434
98	0x3d832d4b	0.06405123
99	0x3bf358fb	0.007426379
100	0xbd9ea2ca	-0.07745893
101	0xbdef9a1b	-0.11699315
102	0xbd7aca26	-0.06122794
103	0x3d1fddf0	0.039030015
104	0xbc424b76	-0.011858812
105	0x3d4b8f7f	0.049697395
106	0xbdc13c1c	-0.09435293
107	0xbc71b64a	-0.014752934
108	0xbd3b9c28	-0.04580322
109	0x3d2f056e	0.042729788
110	0xbc65b9ed	-0.014021379
111	0x3d8f9fa3	0.0701287
112	0xbd46c4b0	-0.04852742
113	0x3dcba3fb	0.09943386
114	0xbd99769b	-0.07493325
115	0x3da6a421	0.08136774
116	0x3dd59c43	0.10430195
117	0xbceecbfc	-0.029150002
118	0xbd0bc44a	-0.034122743
119	0x3ddc60f9	0.107606836
120	0x3d03f56c	0.032216474
121	0xbd05422b	-0.032533806
122	0x3d0722e9	0.032992277
123	0x3e03771b	0.12838404
124	0x3dce80c8	0.10083157
125	0xbd7d00e2	-0.06176842
126	0x3dbc2473	0.0918664
127	0xbe01a7d1	-0.12661673
128	0xbd6e13a6	-0.058124207
129	0x3dc7eca7	0.09761935
130	0x3d214aa9	0.039377842
131	0xbe120653	-0.14260225
132	0x3dba7a69	0.09105379
133	0xbe18ada7	-0.14909993
134	0x3c81fcf5	0.01586769
135	0xbd99701b	-0.074920855
136	0x3d3c2fdf	0.04594409
137	0xbc150904	-0.009096388
138	0xbd65092b	-0.055916946
139	0x3de8cfe9	0.11367781
140	0x3e1fc2cb	0.15601651
141	0x3b565d90	0.0032709576
142	0xbd3b2eef	-0.045699056
143	0xbd26ec10	-0.04075247
144	0xbdfa225b	-0.12213584
145	0xbc211bce	-0.009833289
146	0x3d5f6e58	0.05454859
147	0xbbd1960a	-0.00639606
148	0x3d32c42b	0.04364411
149	0x3e067f9b	0.13134615
150	0xbe07b0b5	-0.13251002
151	0x3d5cf12b	0.053940933
152	0xbda6c2a0	-0.081425905
153	0xbc48d91a	-0.012258792
154	0xbe2350f9	-0.15948857
155	0xbcfa2e2c	-0.030539595
156	0x3dddeeda	0.10836573
157	0x3d1a9ea4	0.037748948
158	0xbca9fbda	-0.020749975
159	0xbc5ff126	-0.013668334
160	0x3da5d5e5	0.08097438
161	0x3dab3040	0.08358812
162	0x3d9ee760	0.07758975
163	0x3e610db7	0.21977888
164	0x3dc7ae4f	0.097500436
165	0x3990d71a	0.00027626083
166	0x3d99c40a	0.075080946
167	0x3cf89015	0.030342141
168	0xbd9dae28	-0.07699233
169	0xbe06d0e9	-0.1316563
170	0xbd0ed2c4	-0.03486897
171	0x3da4f455	0.08054415
172	0x3d50bf1a	0.0509635
173	0x3e1d675f	0.15371464
174	0x3d7768b3	0.060402583
175	0x3d118aaa	0.03553263
176	0x3d3dc2c3	0.046328317
177	0xbd71c477	-0.059025254
178	0x3e569263	0.2095428
179	0xbdc8f374	-0.0981206
180	0xbd78fc72	-0.060787626
181	0x3e2a08cc	0.16604918
182	0xbceaeeab	-0.028678259
183	0xbc488fab	-0.012241284
184	0xbd2e0977	-0.042489495
185	0x3d49b4d6	0.049244724
186	0x3dbb423d	0.09143493
187	0x3cbdeb66	0.023183536
188	0xbd81e617	-0.06342714
189	0x3d04c6a0	0.032415986
190	0x3ce136f4	0.027492024
191	0xbd477cf8	-0.048703164
192	0x3cb6e1fd	0.022324556
193	0xbd22b206	-0.039720558
194	0x3cd87406	0.026422512
195	0xbd7758ee	-0.060387544
196	0x3dda79cb	0.106677614
197	0x3df8d789	0.12150485
198	0x3d33f807	0.04393771
199	0x3d6a3813	0.057182383
200	0x3db76d1d	0.089563586
201	0xbcc3f4db	-0.023920467
202	0xbd373299	-0.044725988
203	0x3d55fd76	0.052243672
204	0x3e8358f4	0.25653803
205	0xbcc98af3	-0.024602389
206	0x3db47952	0.088122025
207	0x3dc59ca6	0.09649019
208	0xbd8b897e	-0.06813334
209	0x3e778c69	0.24174656
210	0xbdf066b9	-0.11738343
211	0x3dc8cc76	0.09804623
212	0xbcd713e0	-0.026254594
213	0xbe3d478e	-0.18484327
214	0x3e0465bb	0.12929432
215	0xbdd04ded	-0.10171113
216	0xbe1c5cd8	-0.15269792
217	0x3e5d4622	0.21608785
218	0x3dc10833	0.09425392
219	0xbce9cc68	-0.028539851
220	0x3e3f79f9	0.18698873
221	0xbd3fae66	-0.04679718
222	0x3dfad5e1	0.122478254
223	0x3e514e1f	0.20439957
224	0xbd337a89	-0.04381803
225	0xbcd8cbcb	-0.026464364
226	0x3d3b1e41	0.04568315
227	0xbd366838	-0.044532984
228	0xbdc3d73b	-0.09562536
229	0xbd67a8a2	-0.056557305
230	0x3da7a3f0	0.081855655
231	0x3d8e9e5f	0.06963801
232	0x3dd175e8	0.10227567
233	0x3d229d9a	0.03970108
234	0xbc8463ea	-0.016160924
235	0x3deee9a5	0.11665658
236	0x3dc0b8b1	0.09410227
237	0x3df6133a	0.12015386
238	0xbcc5d005	-0.024147043
239	0xbda7026f	-0.08154761
240	0xbde99d25	-0.11406926
241	0xbcecb01a	-0.028892566
242	0xbcf3bb4d	-0.029752398
243	0x3d939aaf	0.07207238
244	0xbd0956fd	-0.033530224
245	0xbe82e6d1	-0.25566724
246	0xbd1c4274	-0.038149312
247	0x3dd84962	0.10560872
248	0x3d06b477	0.03288695
249	0x3d0acb97	0.033885565
250	0xbd24c056	-0.04022249
251	0x3d4ddc9c	0.050259218
252	0xbcff1dfe	-0.031142231
253	0xbc9c270f	-0.019061593
254	0x3e21e6b9	0.1581067
255	0x3d4503bd	0.04809927

network_body._body_endoder.seq_layers.2.bias f4 [128]
0	0xbb9924b5	-0.0046735653
1	0xbc3e5241	-0.011616291
2	0xbbf0611c	-0.007335795
3	0xbad8f62b	-0.0016552856
4	0xbc0324db	-0.0080043925
5	0xbbb3edbd	-0.005490987
6	0xba9a320d	-0.0011764184
7	0x3cbd3d0f	0.023100404
8	0x3bb9dae5	0.005671846
9	0x3be9150f	0.007113106
10	0xbc47fb92	-0.012205975
11	0x3bd8167e	0.006594478
12	0xbc08ec93	-0.008357185
13	0xbc80915e	-0.015694316
14	0x39444b08	0.00018719968
15	0xbc3c9884	-0.011510972
16	0x3b7624ec	0.0037558628
17	0xbbdd6287	-0.00675613
18	0xbb6cfc9e	-0.0036161314
19	0x3b85cf66	0.0040835617
20	0xbbc3b73b	-0.0059727705
21	0x3ba8fbbe	0.005156963
22	0xbbda8a7f	-0.006669342
23	0x3d2ca6e6	0.042151354
24	0x3af64509	0.0018788885
25	0x3c97d1fe	0.01853275
26	0x3ae19d9c	0.0017213109
27	0x3abf7a34	0.0014608563
28	0xbb81a098	-0.003955912
29	0xbc12a6d3	-0.008950907
30	0xbbbee376	-0.0058254553
31	0xbc10beeb	-0.008834581
32	0xbb881aa8	-0.0041535683
33	0xbbdaf042	-0.006681473
34	0x3bff5bc3	0.0077929213
35	0x3bcc5d20	0.0062366873
36	0xbc3cc1b0	-0.011520788
37	0xbc3f0623	-0.011659178
38	0x3be20e48	0.006898675
39	0xbc133d3c	-0.008986767
40	0xbba3ce3e	-0.004998951
41	0xbbdc9a02	-0.0067322263
42	0xbc26a35c	-0.010170784
43	0xbbaea8a7	-0.0053301635
44	0xbb02fd14	-0.0019987272
45	0xbb1fd25b	-0.0024386856
46	0xbc147e31	-0.0090632895
47	0xbbca1564	-0.0061671007
48	0xbc73d4e4	-0.0148823
49	0x3c24252b	0.010018627
50	0xbb9c4150	-0.004768528
51	0xbc1b0149	-0.009460756
52	0x3b48c780	0.003063649
53	0x3a9a2efe	0.0011763272
54	0xbc13d2a4	-0.009022389
55	0x3b1a675e	0.0023560147
56	0x3ac635c3	0.0015122223
57	0x3b39bcf3	0.0028341382
58	0x3c0ee863	0.0087223975
59	0x3a6bd81a	0.000899674
60	0xbc09b493	-0.008404869
61	0xbc417680	-0.011808038
62	0x3c4217e7	0.011846519
63	0xbc007dbf	-0.00784248
64	0xbc01ace1	-0.007914753
65	0xbc522017	-0.012825034
66	0x3c0cd123	0.008594784
67	0x3aa3dbab	0.0012501379
68	0x3b9bdf3c	0.004756836
69	0x3bace2cf	0.005276061
70	0xbaa4c4b3	-0.0012570828
71	0x3b7dd21a	0.0038729967
72	0x39ad50dc	0.00033057376
73	0xbc1610f6	-0.009159317
74	0xbbc91013	-0.0061359494
75	0x3bd92575	0.0066267797
76	0xbbcf1bfd	-0.006320475
77	0x3bf90352	0.0075992728
78	0x3baecd3c	0.0053345244
79	0xbbfd0e78	-0.007722672
80	0x3ac58811	0.0015070458
81	0xbc0ea223	-0.008705649
82	0xbc2c93c2	-0.010533275
83	0xbbcdc894	-0.0062800143
84	0xbbcaaff3	-0.0061855256
85	0x3bdd7ec9	0.0067594987
86	0xba91f961	-0.0011136943
87	0x3b2ddac4	0.00265281
88	0xbbe9044d	-0.0071111084
89	0xb9efa0f6	-0.00045705558
90	0xbc0be226	-0.008537805
91	0xbb4c81b4	-0.0031205239
92	0xbbe1f700	-0.0068959
93	0x3aff82db	0.0019493954
94	0x3b93a0de	0.004505261
95	0x3bde381f	0.0067815925
96	0x3a40a4b9	0.00073487643
97	0xbbf2c8a2	-0.007409171
98	0x3b799de5	0.0038088497
99	0x3c8952e2	0.016763154
100	0xbb434ae6	-0.0029799282
101	0xbc23d8a0	-0.010000378
102	0x3bc76408	0.0060849227
103	0x39916621	0.00027732647
104	0xbbf64a08	-0.0075161494
105	0xba1bf521	-0.0005949308
106	0xba004269	-0.00048927084
107	0xbb89234d	-0.0041851164
108	0xbbd26424	-0.006420629
109	0xbb0743eb	-0.0020639847
110	0x3c1a85bc	0.009431299
111	0x3b2ce700	0.0026382804
112	0x3ba16bdf	0.0049261893
113	0x3b537f02	0.0032271747
114	0xbc497793	-0.012296575
115	0xba7d4125	-0.00096608914
116	0x3b9707de	0.004609092
117	0x3b0a6de8	0.0021122638
118	0xbc1dba39	-0.0096269185
119	0xbb0cfb8f	-0.0021512245
120	0x3a0c3e8c	0.00053498964
121	0xbc7c791e	-0.015409736
122	0xbcbc7786	-0.023006212
123	0x3bfcd7f8	0.007716175
124	0xba63f3f9	-0.00086957176
125	0x3c09b68a	0.008405337
126	0x3b713a86	0.0036808564
127	0xbbf388c7	-0.0074320766

action_model._continuous_distribution.mu.weight f4 [1, 128]
0	0x3a608147	0.00085641857
1	0x3bae1667	0.005312729
2	0x3ad8a76e	0.001652939
3	0x3ad11121	0.0015950539
4	0x3c576123	0.013145718
5	0x3bef924a	0.00731114
6	0x3b60a115	0.00342757
7	0xbbb53e67	-0.0055311206
8	0xbc048628	-0.008088626
9	0xbcac7ca4	-0.021055527
10	0x3c424cb2	0.011859106
11	0xbd420806	-0.047370933
12	0x3b100bad	0.0021979616
13	0xbc656d6d	-0.01400314
14	0xbad03ab7	-0.0015886639
15	0x3c9dfe78	0.01928638
16	0xbbcfcde2	-0.006341682
17	0x3c989fcb	0.018630883
18	0x3cb000d8	0.021484777
19	0x3c1891aa	0.009312073
20	0x3ce687bf	0.0281409
21	0x3d0f6ef5	0.035017926
22	0x3c8965b7	0.016772134
23	0xbcd759fe	-0.026288029
24	0xbc5d14bc	-0.013493713
25	0xbb5805c4	-0.003296242
26	0x3ba86cfa	0.005139944
27	0x3d00d42b	0.03145234
28	0x3d2ccfd3	0.042190384
29	0x3c6cdf5d	0.014457551
30	0x3cbb4414	0.02285961
31	0x3c292a1d	0.010324982
32	0x3d3a09c6	0.045419477
33	0x3c68ff6f	0.014221056
34	0xbcbf4f35	-0.023353199
35	0xbcd28e37	-0.025702579
36	0x3c329de8	0.010901906
37	0x3c0b0ab0	0.008486435
38	0x3c6bbb22	0.014387878
39	0x3c9fda1c	0.019513182
40	0x3c47fc70	0.012206182
41	0x3c2ccec5	0.010547345
42	0x3d22cdca	0.039747037
43	0xbb1db71a	-0.0024065436
44	0x3cc89109	0.02448322
45	0xbb684727	-0.00354428
46	0x3ca35612	0.019938502
47	0xbbd0013a	-0.0063478025
48	0x3c052014	0.008125324
49	0xbc70074f	-0.01465018
50	0x3c86cc3a	0.016454805
51	0x3b6592bc	0.0035030087
52	0xbb8b4ccc	-0.0042510983
53	0xbbf3b126	-0.007436889
54	0x3c20a13c	0.009804066
55	0x3cf49e68	0.02986069
56	0xbbf39e82	-0.007434667
57	0x3abef362	0.0014568383
58	0x3d0b05dd	0.03394114
59	0x3cee9641	0.029124381
60	0x3c26f022	0.010189088
61	0x3c81d80b	0.015850088
62	0xbcb7226d	-0.022355283
63	0x3c76e3bf	0.015068947
64	0x3ce5fa86	0.02807356
65	0x3d6742c0	0.056460142
66	0xbcd18a7a	-0.025578726
67	0x3d449b78	0.04799983
68	0x3c966b02	0.018361572
69	0x3c9062c1	0.017625215
70	0x3ca1c88c	0.019748949
71	0xbc5a9471	-0.013341055
72	0xbc2f95c2	-0.010716857
73	0xbba5e73a	-0.0050629647
74	0x3cc5a3e6	0.024126004
75	0xbc03cf11	-0.008044974
76	0x3cdf0e18	0.0272284
77	0xbc656b0b	-0.014002572
78	0xbbf74046	-0.007545504
79	0x3c9d542f	0.01920518
80	0xbbd5178d	-0.0065030516
81	0x3d0746ac	0.033026382
82	0x3c0fa815	0.008768101
83	0x3b990e3f	0.0046708877
84	0x3cacce9f	0.021094618
85	0xbc8d1b2b	-0.017224869
86	0x3d003aa9	0.031305943
87	0x3c54cc5c	0.012988176
88	0x3ce8a166	0.028397273
89	0xba7a73ed	-0.00095540175
90	0x391f0e18	0.00015168672
91	0xbb138639	-0.0022510423
92	0x3bf3af6b	0.007436683
93	0x3c2eddda	0.010673011
94	0xbcb42146	-0.021988522
95	0xbbac0784	-0.0052499194
96	0x3bd4e5cf	0.006497122
97	0x3c9f8b3e	0.019475576
98	0x3cb5c2c6	0.022187602
99	0xba478a12	-0.00076118216
100	0x3cf4eb44	0.02989734
101	0x3b82a78c	0.0039872583
102	0xbcfd86dc	-0.030948095
103	0x3bd5d918	0.0065261237
104	0x3cc81dc1	0.02442825
105	0x3c19b450	0.009381369
106	0xbb3035b4	-0.0026887478
107	0x3c1027a7	0.008798516
108	0x3be69551	0.007036843
109	0xbabb684a	-0.0014298048
110	0x3ba0d2c1	0.0049079363
111	0xbcc665d0	-0.02421847
112	0x3d02e83a	0.03195975
113	0xbc8ee325	-0.017442295
114	0x3c39ff63	0.011352393
115	0x3d19e29b	0.037569623
116	0xbd01bb6b	-0.031672876
117	0x3d1badf6	0.0380077
118	0x3cad8674	0.021182276
119	0x3b82e681	0.0039947634
120	0x3c5fa703	0.013650659
121	0x3c38cf9b	0.011279966
122	0x3ce8b6a1	0.028407397
123	0xbd158375	-0.03650232
124	0xbb62f314	-0.003462975
125	0xbbbbd461	-0.0057321046
126	0x3b9f104c	0.0048542377
127	0x3ccf1443	0.025278216

action_model._discrete_distribution.branches.0.weight f4 [3, 128]
0	0xbc9fc5ef	-0.019503562
1	0xbbc9af69	-0.0061549437
2	0x39d19f94	0.0003998248
3	0xbb1fda21	-0.002439149
4	0xbc31726f	-0.010830506
5	0x3b865e4b	0.004100596
6	0xbc6ac25b	-0.0143285645
7	0x3c107aa2	0.0088183
8	0xbcb732d6	-0.022363108
9	0x3b55c69d	0.0032619603
10	0xbbcba4c2	-0.006214709
11	0xbc167f49	-0.009185621
12	0xbc63cb74	-0.0139034875
13	0xbbda177a	-0.0066556307
14	0x3bada315	0.005298982
15	0xbb53e2f6	-0.0032331324
16	0xbc388004	-0.01126099
17	0x3bbebc58	0.005820792
18	0x3c05eac5	0.008173649
19	0x3b24d670	0.0025152229
20	0x3c8d6a7d	0.017262692
21	0xbc30df81	-0.010795475
22	0xbcaa32f8	-0.020776257
23	0xbaecbebc	-0.0018062214
24	0xbb26420a	-0.0025368952
25	0x3d2a4d34	0.041577533
26	0x3ce163c4	0.027513392
27	0xba9ca01e	-0.0011949574
28	0x3c0a4ddc	0.008441415
29	0x3adbadce	0.0016760172
30	0xbbb46d7b	-0.005506215
31	0xba8f3b2e	-0.0010927671
32	0xbbc55c69	-0.006022979
33	0xbbbe6727	-0.0058106366
34	0x3b6f5f2c	0.0036525233
35	0xba927294	-0.0011173063
36	0x3b7c3788	0.0038485248
37	0x3ac091a0	0.0014691837
38	0xbbec6e53	-0.0072153
39	0xbc323ca2	-0.010878714
40	0xbbdc1ad2	-0.0067170644
41	0x3c0efe8a	0.008727679
42	0x3bbfea88	0.0058568157
43	0xbc550c54	-0.013003428
44	0x3cae4073	0.021270966
45	0x3c8b4605	0.017001161
46	0x3a68a18a	0.0008874169
47	0xbc34d523	-0.011037144
48	0x3aeb57f4	0.0017955289
49	0x3bb0ee6b	0.0053995154
50	0x3c1540a4	0.00910965
51	0xbc8aca1f	-0.016942082
52	0xbcd424d2	-0.025896464
53	0xbc476d76	-0.012172094
54	0xbbf9e544	-0.0076262075
55	0x3c169c1a	0.009192491
56	0x3b6d8431	0.0036242122
57	0x3b83358f	0.0040041874
58	0xbb902f3a	-0.004400161
59	0x3b93feaf	0.0045164446
60	0xbc048736	-0.008088877
61	0xba932c13	-0.0011228345
62	0xbce7438a	-0.028230447
63	0xb96e79cf	-0.00022742826
64	0xbbe95871	-0.0071211387
65	0x3bc7fb34	0.006102944
66	0x3b71e05f	0.0036907417
67	0xbbdef340	-0.0068039
68	0x3c4ba2b1	0.012428925
69	0xbb70054f	-0.0036624258
70	0xbbcffdf1	-0.006347411
71	0xbab2bcad	-0.0013636552
72	0x3c6dcf90	0.014514819
73	0xbc8e3572	-0.01735947
74	0x3c7f6920	0.015589029
75	0xbc7ab4ad	-0.0153018655
76	0xbc8f7e50	-0.017516285
77	0x3ba22557	0.004948299
78	0x3c82c4f7	0.01596306
79	0xbacc98b3	-0.0015609473
80	0xbd060a72	-0.032724805
81	0x3c2f9db1	0.010718749
82	0xbb74a3ba	-0.0037329034
83	0x3c293adf	0.010328977
84	0xbc2ae8f5	-0.010431518
85	0x3c723781	0.014783741
86	0x3c355255	0.011066993
87	0xbae2c28e	-0.0017300413
88	0xbc032cdb	-0.0080063
89	0xbc4b8492	-0.012421744
90	0x3b8f2fea	0.0043697255
91	0xbb837d4a	-0.0040127384
92	0xbc03b0fb	-0.008037801
93	0x3c094837	0.008379034
94	0xbbb67f0e	-0.0055693453
95	0x3cb7057f	0.022341488
96	0x3ca45a31	0.020062538
97	0x3be3bb2c	0.006949803
98	0x3c4c32bf	0.012463271
99	0x3b269728	0.0025419686
100	0x3ba4e52b	0.0050322018
101	0xbb3f3841	-0.0029177817
102	0xbc69759f	-0.014249234
103	0x3b18640f	0.0023253
104	0xbc32525f	-0.010883897
105	0x3badfd43	0.005309732
106	0x3c1f589d	0.009725717
107	0x3a4e5509	0.00078709476
108	0xbc97dc02	-0.018537525
109	0xb94a9d1d	-0.0001932275
110	0x3cabeec7	0.020987881
111	0xbc411fb9	-0.011787348
112	0xbbf46728	-0.0074585862
113	0xbabaf695	-0.0014264161
114	0x3bd483c8	0.006485436
115	0x3a1813f7	0.0005801315
116	0xbb37f6b6	-0.0028070635
117	0x3c1d8971	0.009615288
118	0x3c659fdd	0.014015165
119	0x3c233b1e	0.009962825
120	0x3c9c6044	0.019088872
121	0xbb6cdf9a	-0.003614402
122	0xbb9b7592	-0.00474424
123	0x3b595dd4	0.0033167498
124	0xbc8cf976	-0.017208796
125	0xbc073413	-0.008252162
126	0x3c428112	0.011871593
127	0xbc94476e	-0.018100467
128	0x3aff18c1	0.0019462333
129	0xbb66b2fd	-0.00352019
130	0x3c0c5420	0.008564979
131	0xbcaac1e0	-0.0208444
132	0xbae1d165	-0.0017228542
133	0xbcd9310e	-0.026512649
134	0x3bef4772	0.007302218
135	0x3c6c2faf	0.0144156655
136	0x3c000153	0.007812816
137	0x3bb4eacc	0.005521154
138	0x3babf0ce	0.005247212
139	0x3b81990c	0.003955012
140	0xbb7671a4	-0.0037604356
141	0x3c31509f	0.010822444
142	0xbbdeee61	-0.0068033193
143	0xbb84e8a2	-0.0040560523
144	0x3c1acd1e	0.009448318
145	0xbb99987f	-0.0046873684
146	0xbc51cdaa	-0.012805382
147	0xbc95fa46	-0.018307816
148	0xbc970341	-0.018434169
149	0x3b416b9e	0.0029513608
150	0x3bd16eba	0.0063913735
151	0x3b2f721b	0.0026770893
152	0xbb850c50	-0.0040603057
153	0xbc989cb1	-0.018629404
154	0xbba20ab7	-0.004945125
155	0xbbf4b667	-0.007468033
156	0xbc61cfc5	-0.013782446
157	0xbafd004b	-0.0019302455
158	0x3c35ff4d	0.011108232
159	0xbc657bbd	-0.014006552
160	0xbc86535b	-0.016397169
161	0x3c9a6276	0.018845778
162	0x3b604a2e	0.0034223902
163	0x3c158b62	0.00912747
164	0xbbb650c4	-0.005563827
165	0xbc28a968	-0.010294296
166	0xbc7c6da5	-0.015407001
167	0xbba3579c	-0.004984809
168	0x3c443189	0.011974701
169	0xbc43944a	-0.01193721
170	0xbc52bc6d	-0.012862307
171	0xbb4ec136	-0.0031548268
172	0xbc718463	-0.014741036
173	0xbb00c1f5	-0.0019646857
174	0xbb93acad	-0.0045066685
175	0x3bc885cb	0.006119465
176	0xbc1c73ca	-0.009549091
177	0x3c220c1a	0.009890581
178	0xbc764d90	-0.015033141
179	0xba87e034	-0.00103665
180	0x3bb9d788	0.0056714453
181	0xba9109b1	-0.001106551
182	0x3c894a02	0.016758922
183	0xbbd7a698	-0.006581139
184	0xbc8c1745	-0.01710094
185	0xbcb66507	-0.02226497
186	0xbb3e407e	-0.002903014
187	0x3ba8898a	0.005143349
188	0x3c6df349	0.014523336
189	0xbc0b8b9a	-0.00851717
190	0x3c6c72ca	0.014431665
191	0x3c3bbac0	0.011458099
192	0xbb53f14a	-0.0032339864
193	0xbc7370d5	-0.014858444
194	0x3c588da9	0.013217368
195	0xbbbe4950	-0.0058070794
196	0xbcb20469	-0.021730619
197	0xbc5fa8f7	-0.013651124
198	0xbc0dfc61	-0.008666129
199	0xb97613a5	-0.00023467706
200	0xbbceab33	-0.0063070296
201	0xbb8cc878	-0.0042963587
202	0xbc341c1e	-0.010993032
203	0x3c2418ba	0.010015661
204	0x3c38b23d	0.011272964
205	0x3ba15673	0.0049236356
206	0xbbb9392a	-0.0056525664
207	0xbb774595	-0.0037730683
208	0x3c8e699f	0.017384348
209	0x3b3b71cc	0.0028601764
210	0x39e58464	0.00043776922
211	0xbb4de1e3	-0.0031415157
212	0x3c41115c	0.011783924
213	0x3b0518e0	0.0020309016
214	0x3b73b0e2	0.0037184288
215	0xbc3cb98f	-0.01151885
216	0x3c2d77ca	0.010587642
217	0x3c4ea5aa	0.01261274
218	0x3b2accc3	0.002606199
219	0x3c0d6553	0.008630115
220	0x3c422906	0.011850601
221	0x3b3ebec2	0.00291054
222	0x3c594f24	0.0132634975
223	0xbcaa420b	-0.020783445
224	0x3c5e8288	0.013580926
225	0x3c84ecee	0.016226258
226	0xbc80e790	-0.015735418
227	0x3acd77d5	0.0015675972
228	0xba82bda9	-0.0009974736
229	0xbbfef668	-0.0077808388
230	0x3c4b05fe	0.012391565
231	0x3cd01512	0.025400672
232	0xbc15a492	-0.009133475
233	0xbc9d8a1a	-0.019230891
234	0xbb05562b	-0.002034555
235	0xbc03abf3	-0.008036601
236	0x3bf2a65a	0.0074050846
237	0x3c088fff	0.008335113
238	0xbc86ef1e	-0.016471442
239	0xbb5581e9	-0.0032578653
240	0xbbe0a91a	-0.006856096
241	0xbc321c19	-0.010870957
242	0xbbb0add0	-0.005391814
243	0xbd057b46	-0.032588266
244	0xbc25ad76	-0.010112157
245	0xbcb4607d	-0.022018665
246	0x3c806179	0.015671479
247	0xbc954664	-0.018222041
248	0xbbf80cc9	-0.0075698835
249	0x3b87a4ef	0.0041395347
250	0x3c0bc1e2	0.008530112
251	0x3b4ee7f9	0.0031571372
252	0x3b440cfd	0.0029914968
253	0x3c728965	0.014803265
254	0xbc4baed3	-0.012431818
255	0x3c3c9e93	0.011512416

action_model._discrete_distribution.branches.0.bias f4 [3]
0	0xbb95b55e	-0.00456874
1	0x3b86b90c	0.004111415
2	0xb95d798c	-0.00021121482

exp_avg f4 [128, 2]
0	0xb98bfddc	-0.00026701286
1	0x39209452	0.00015314043
2	0xb8c127e2	-9.210386e-05
3	0xb75f3ce0	-1.3306009e-05
4	0xb9143672	-0.00014134662
5	0x39197d0e	0.00014637804
6	0x3801f597	3.098472e-05
7	0x3a0ce316	0.00053744146
8	0x38b15bfa	8.45715e-05
9	0x365a24c0	3.2505923e-06
10	0xb97a4538	-0.00023867644
11	0x39bb4fd9	0.0003572691
12	0xb8d7e473	-0.00010294551
13	0xb9e7b828	-0.0004419696
14	0x3987c83e	0.000258984
15	0xb7e28f7c	-2.7008115e-05
16	0xba33a004	-0.00068521523
17	0x38ba9860	8.897553e-05
18	0x37d18db9	2.4980736e-05
19	0xb437a500	-1.710323e-07
20	0xba11bc14	-0.0005559337
21	0xb927d1fb	-0.00016004585
22	0xb7985d9e	-1.8163406e-05
23	0x364be260	3.0381125e-06
24	0xb902b366	-0.00012464597
25	0x3903e41d	0.00012578112
26	0xb77cb440	-1.5062338e-05
27	0xb8faa9bc	-0.000119525444
28	0xb8d0abd6	-9.95022e-05
29	0x38c71f63	9.494906e-05
30	0x38bf2c12	9.1157985e-05
31	0x3a1318bf	0.00056112924
32	0xb8947a56	-7.079977e-05
33	0xb9d47282	-0.00040521106
34	0xb89b4ada	-7.404918e-05
35	0xb80bf8f8	-3.3372053e-05
36	0xb80191dc	-3.089184e-05
37	0x392f382d	0.00016710228
38	0x3972a20a	0.00023139283
39	0xb84da137	-4.902595e-05
40	0x3936d374	0.00017435645
41	0x3a82da25	0.0009983225
42	0x3944864a	0.00018742043
43	0x39df9554	0.00042645133
44	0x38254ee4	3.9412538e-05
45	0x390d171c	0.00013455417
46	0xb9a74dc4	-0.00031910662
47	0x390f3809	0.00013658417
48	0xb824f4f2	-3.932877e-05
49	0x36530a8d	3.1447591e-06
50	0x383d01e0	4.5062858e-05
51	0x3856c8be	5.120853e-05
52	0xb6d2b8d0	-6.2800027e-06
53	0x39600503	0.00021364172
54	0x3912fd74	0.00014018064
55	0x38baf651	8.915051e-05
56	0xb8a17afc	-7.699986e-05
57	0x39357e4e	0.00017308557
58	0x375bf490	1.3110359e-05
59	0xb6250c00	-2.45939e-06
60	0x37776a60	1.4747115e-05
61	0xb63b57c4	-2.7916258e-06
62	0xb94d1fb0	-0.00019562128
63	0x3944be82	0.00018762986
64	0x380162e0	3.084808e-05
65	0xba1944fb	-0.00058467657
66	0xb992c102	-0.00027991092
67	0x38fdff42	0.000121115256
68	0xb9c93eb9	-0.0003838444
69	0xba0d5182	-0.0005390869
70	0xb920f37c	-0.00015349494
71	0xba2a5408	-0.0006497507
72	0xb933765a	-0.0001711486
73	0x37d49feb	2.5346837e-05
74	0x37e7a6e0	2.7615053e-05
75	0x38e1e6ad	0.00010771803
76	0xb9cb2110	-0.0003874381
77	0xba41dda4	-0.0007395393
78	0x38ef4fce	0.00011411273
79	0xb9518705	-0.00019982092
80	0xb6a7d890	-5.002199e-06
81	0x3885012b	6.342152e-05
82	0xb91a4976	-0.00014713951
83	0xb94a7a61	-0.00019309811
84	0xb6c5b644	-5.892276e-06
85	0x38130ba6	3.505838e-05
86	0x37cd2970	2.44572e-05
87	0x39e8cf12	0.00044404768
88	0xb8ebe137	-0.00011247623
89	0xb759eca8	-1.2989309e-05
90	0xb8837214	-6.2678155e-05
91	0xb6ff07d0	-7.6005017e-06
92	0x38eac632	0.00011194906
93	0xb8853568	-6.351882e-05
94	0xb90d2af2	-0.00013462806
95	0xb8169a22	-3.5906334e-05
96	0xb9c10414	-0.00036814867
97	0x39122ff7	0.00013941513
98	0xb73834cc	-1.0979547e-05
99	0x37b06550	2.1028012e-05
100	0x379a8af7	1.8422941e-05
101	0x37e6c354	2.7509093e-05
102	0xb9838a7a	-0.0002508944
103	0xba7167fc	-0.0009208915
104	0x392a6ad8	0.00016252266
105	0x3a442913	0.0007482927
106	0xb682afd0	-3.894769e-06
107	0x38c5d6ca	9.4336996e-05
108	0x3983b862	0.00025123643
109	0x39064349	0.00012804302
110	0xb75f0a66	-1.3294257e-05
111	0x395498d4	0.00020274828
112	0xb94eb9de	-0.00019714932
113	0xba1eb308	-0.00060538994
114	0x38dd3662	0.00010548231
115	0x39a10e26	0.00030718854
116	0xb7118800	-8.6743385e-06
117	0xb58597b0	-9.953419e-07
118	0xb763919c	-1.3564157e-05
119	0x37f92912	2.9702238e-05
120	0xb8a2fd22	-7.7719116e-05
121	0xb9ae908a	-0.00033295556
122	0xb7ace178	-2.060899e-05
123	0x382a31e4	4.0577623e-05
124	0x3910f280	0.00013823248
125	0x390e1e0f	0.00013553373
126	0xb992523e	-0.00027908565
127	0xb809ad2c	-3.2824624e-05
128	0x37a3ad60	1.9511848e-05
129	0xb9255244	-0.00015766273
130	0xb983d81a	-0.00025147275
131	0xb9bd0d81	-0.0003605895
132	0xb8fa46a0	-0.00011934084
133	0x382ed9be	4.168762e-05
134	0xb992d820	-0.00028008316
135	0x3922d0af	0.00015527265
136	0x3636155c	2.7132546e-06
137	0xb781dbf6	-1.5480426e-05
138	0x374352c0	1.16421725e-05
139	0xb6a5b11b	-4.938001e-06
140	0xb80823bc	-3.2458207e-05
141	0x3882c79a	6.236062e-05
142	0xb93045d0	-0.00016810675
143	0x39a0a334	0.00030639174
144	0xb94165b8	-0.00018443807
145	0x3901f472	0.00012393462
146	0xb8c294c4	-9.2783506e-05
147	0xb85911eb	-5.175352e-05
148	0xb8d28460	-0.00010038237
149	0x391db07c	0.00015038432
150	0x38bb1e66	8.922517e-05
151	0x39e945ab	0.0004449313
152	0xb8a880e0	-8.034869e-05
153	0xba3d6c24	-0.0007225892
154	0xba101c41	-0.0005497374
155	0xb8574220	-5.132158e-05
156	0xb83c0cdc	-4.483467e-05
157	0x38788c36	5.925839e-05
158	0xb896cd84	-7.190838e-05
159	0x39e3f6fc	0.00043480832
160	0x395cb8de	0.00021049703
161	0x36af7640	5.2291725e-06
162	0xb90d0aa4	-0.00013450772
163	0x39073f86	0.00012898268
164	0x38e2be39	0.000108119515
165	0x392c12ae	0.00016410157
166	0xb6a65331	-4.9568703e-06
167	0xb5e578b8	-1.7096963e-06
168	0x39b52ec0	0.00034557842
169	0xb6a73122	-4.9827077e-06
170	0xb927ff1c	-0.00016021397
171	0x3a21d90d	0.00061740057
172	0xb7ab11b4	-2.0393032e-05
173	0xb81640f8	-3.5823294e-05
174	0xb9d83f5e	-0.00041245943
175	0xb9af409f	-0.00033426748
176	0xb93fd8a5	-0.00018295886
177	0x39359cc4	0.00017319905
178	0xb829e249	-4.0503484e-05
179	0xb78968f4	-1.6380545e-05
180	0x3740ec00	1.149904e-05
181	0xba5ac076	-0.0008344719
182	0x380f4cb2	3.4165285e-05
183	0x38612d30	5.3686264e-05
184	0x39046c89	0.00012628933
185	0x398f6966	0.00027353613
186	0x380ba7fd	3.3296634e-05
187	0x38de8a19	0.000106115076
188	0xb9649cff	-0.0002180226
189	0xb62eba80	-2.6036578e-06
190	0x383e4ccc	4.5371053e-05
191	0x3904ea9d	0.00012675901
192	0x38c93474	9.594197e-05
193	0x3a1744d4	0.0005770449
194	0xb7f9499f	-2.9717396e-05
195	0xb7aa7a4e	-2.0322532e-05
196	0x391793ad	0.00014455496
197	0x391c07ca	0.00014880221
198	0x37f74c00	2.9480085e-05
199	0xb9012323	-0.00012315488
200	0xb7486290	-1.1943877e-05
201	0x38e5e133	0.000109615175
202	0x3822f5a3	3.8852577e-05
203	0xb6db2e90	-6.532129e-06
204	0x38a176cc	7.699206e-05
205	0x3892c494	6.998438e-05
206	0xb65471f0	-3.1656782e-06
207	0x38dd5d47	0.000105554755
208	0x393251b5	0.00017005841
209	0xb99ee69c	-0.00030307926
210	0x3793af70	1.760546e-05
211	0x37ea98bc	2.7966096e-05
212	0xb73e9260	-1.1358963e-05
213	0x3801474a	3.082239e-05
214	0x388555ee	6.35794e-05
215	0x398c0f47	0.00026714263
216	0xb9966aac	-0.00028689706
217	0x39493fe8	0.0001919266
218	0x370fa272	8.561286e-06
219	0x370c5e60	8.366624e-06
220	0x37b9f102	2.2165947e-05
221	0x39607a6e	0.00021407913
222	0xb9313128	-0.00016898348
223	0xb83a6e0c	-4.4448345e-05
224	0xb8def16c	-0.00010630753
225	0xb9582a42	-0.00020615107
226	0xb68ad4df	-4.137502e-06
227	0x35fe945a	1.8967651e-06
228	0xb8980140	-7.2481576e-05
229	0xb7e44d2a	-2.721565e-05
230	0x38445418	4.680836e-05
231	0xb98b3f42	-0.00026559277
232	0xb92c2f04	-0.00016420713
233	0x379ae0fc	1.8462997e-05
234	0xb88cc676	-6.7126864e-05
235	0x372c8ae0	1.0284333e-05
236	0x38e0d8de	0.00010721547
237	0x374a4ea0	1.2058445e-05
238	0xb9336484	-0.00017108215
239	0xb996dd5c	-0.00028775155
240	0x3855242c	5.0816845e-05
241	0xba58924d	-0.00082615466
242	0x3756b0f3	1.2796593e-05
243	0x378a638e	1.649724e-05
244	0x38f271d8	0.00011560664
245	0x3851a710	4.9985072e-05
246	0xb9d9ea18	-0.0004156388
247	0xb8f880ac	-0.000118495285
248	0x37e3b97e	2.7146885e-05
249	0xba36a1bf	-0.0006966851
250	0xb9859a23	-0.00025482578
251	0xb70414b0	-7.87263e-06
252	0x37d6ddf8	2.561415e-05
253	0xb7276f2b	-9.979859e-06
254	0xb7bf1cb0	-2.2782333e-05
255	0x386659ed	5.4920023e-05

exp_avg_sq f4 [128, 2]
0	0x37ea048d	2.7897093e-05
1	0x33d1cf30	9.770008e-08
2	0x3504148e	4.9203743e-07
3	0x36c69e0f	5.9192603e-06
4	0x3581b8be	9.665016e-07
5	0x34573d0c	2.0045644e-07
6	0x355e2dc6	8.2768054e-07
7	0x37454fa2	1.1760656e-05
8	0x352a4883	6.3435454e-07
9	0x3059fd9e	7.930455e-10
10	0x36871852	4.026145e-06
11	0x37c2165e	2.3137018e-05
12	0x34a49801	3.0657978e-07
13	0x364f4d2b	3.0890321e-06
14	0x36cec138	6.161772e-06
15	0x349aeb35	2.885587e-07
16	0x36f6a271	7.350282e-06
17	0x37054db4	7.945509e-06
18	0x34ed1d9b	4.416623e-07
19	0x33c97c44	9.382396e-08
20	0x37710ba7	1.4367432e-05
21	0x36b614eb	5.426458e-06
22	0x3447d2c7	1.861e-07
23	0x3420a9bc	1.496291e-07
24	0x3609616f	2.0471305e-06
25	0x3396e825	7.027146e-08
26	0x379a2f2d	1.8380199e-05
27	0x377ff068	1.5255158e-05
28	0x369b9a69	4.6373357e-06
29	0x34271403	1.5560367e-07
30	0x364dd662	3.0672168e-06
31	0x378d8d3d	1.6874279e-05
32	0x35f66b77	1.8359705e-06
33	0x360f0a02	2.1314486e-06
34	0x35585bd8	8.059992e-07
35	0x35874f9e	1.0081455e-06
36	0x355f485f	8.317929e-07
37	0x34ccf0a3	3.8173047e-07
38	0x3676dd83	3.6785793e-06
39	0x3425b4d4	1.5432607e-07
40	0x3613112d	2.1914705e-06
41	0x3818ec37	3.6459616e-05
42	0x3533bad5	6.695457e-07
43	0x3700af3f	7.670197e-06
44	0x3521a841	6.0222015e-07
45	0x36e9c402	6.9667594e-06
46	0x361281df	2.183129e-06
47	0x332b0a42	3.982337e-08
48	0x33b4b93c	8.415597e-08
49	0x32f3bc65	2.8374595e-08
50	0x358332a8	9.775003e-07
51	0x3447aadf	1.8595482e-07
52	0x359508d0	1.110393e-06
53	0x373d4c5d	1.1283058e-05
54	0x35ceccc0	1.5407786e-06
55	0x33aa0e8e	7.9188894e-08
56	0x346e115b	2.2171791e-07
57	0x36ae124f	5.1877355e-06
58	0x34ace729	3.2205688e-07
59	0x372c5714	1.0272273e-05
60	0x32503d07	1.21210695e-08
61	0x31c17f5f	5.6315197e-09
62	0x3779bc65	1.4885421e-05
63	0x342a00c8	1.5832768e-07
64	0x36890706	4.083736e-06
65	0x38464c81	4.727813e-05
66	0x35b0088b	1.3115508e-06
67	0x36802ade	3.8196877e-06
68	0x36cb3b33	6.056763e-06
69	0x379d4e68	1.875237e-05
70	0x34d6a0da	3.997764e-07
71	0x36dc7041	6.569579e-06
72	0x358053ae	9.561097e-07
73	0x32f4e524	2.850954e-08
74	0x3699fdb4	4.5892903e-06
75	0x33ee2c1c	1.1090762e-07
76	0x373a8c2a	1.1119098e-05
77	0x37c26b2d	2.317651e-05
78	0x3545457c	7.348933e-07
79	0x36913412	4.3273985e-06
80	0x3356e54e	5.003431e-08
81	0x32c04b2a	2.2385922e-08
82	0x35a90a51	1.2594484e-06
83	0x35bc1570	1.4013331e-06
84	0x32458bc8	1.1498692e-08
85	0x330eeb98	3.3276223e-08
86	0x367b22e1	3.7422217e-06
87	0x38512f9a	4.9873815e-05
88	0x3636d83f	2.7245985e-06
89	0x348c6987	2.6153813e-07
90	0x3593123b	1.0957659e-06
91	0x33edfb05	1.1081833e-07
92	0x376e412f	1.4201082e-05
93	0x380cd077	3.357275e-05
94	0x35a7542f	1.246697e-06
95	0x3459a823	2.0270868e-07
96	0x37300a63	1.0492836e-05
97	0x344850e6	1.8655882e-07
98	0x320132a6	7.520304e-09
99	0x33364f40	4.2447255e-08
100	0x336495f8	5.3221783e-08
101	0x335aabeb	5.091344e-08
102	0x363d2942	2.818721e-06
103	0x380714f3	3.220602e-05
104	0x377cfce6	1.5079253e-05
105	0x383de421	4.5273573e-05
106	0x35a22b12	1.2082476e-06
107	0x34220953	1.5090818e-07
108	0x357c3051	9.3947625e-07
109	0x35a0d3be	1.1982554e-06
110	0x36212fd4	2.401871e-06
111	0x372b88c9	1.0224242e-05
112	0x36742bac	3.6384254e-06
113	0x384d32fc	4.892329e-05
114	0x359856ba	1.1350123e-06
115	0x3797169c	1.8011131e-05
116	0x33650dbf	5.333072e-08
117	0x341eb813	1.4781862e-07
118	0x350e40ae	5.2993244e-07
119	0x33cc0e42	9.502084e-08
120	0x349da611	2.9364358e-07
121	0x373f93bb	1.1418883e-05
122	0x34327b5c	1.662242e-07
123	0x35c58a25	1.4717849e-06
124	0x363c19ca	2.8029194e-06
125	0x373d2bcf	1.1275478e-05
126	0x36ea6fa9	6.9867424e-06
127	0x35079e5c	5.052186e-07
128	0x352c64ff	6.422196e-07
129	0x3642f035	2.9048072e-06
130	0x3714b37e	8.863279e-06
131	0x371d6679	9.381788e-06
132	0x3719f033	9.175436e-06
133	0x36f032a6	7.1584536e-06
134	0x36329aed	2.6614246e-06
135	0x33eb069c	1.09442425e-07
136	0x329aab52	1.8005867e-08
137	0x31a4f275	4.8005924e-09
138	0x32b1c65c	2.0695715e-08
139	0x310dfafa	2.0660864e-09
140	0x3576ea1b	9.198281e-07
141	0x3456926b	1.998357e-07
142	0x37750ce0	1.4606136e-05
143	0x37e343ac	2.709202e-05
144	0x35e7f12d	1.7281033e-06
145	0x349a6de5	2.8764694e-07
146	0x364a8f04	3.0183592e-06
147	0x361632f8	2.238141e-06
148	0x35d7e021	1.6083978e-06
149	0x33fe165b	1.1831863e-07
150	0x354eb4e1	7.7004194e-07
151	0x3783c91e	1.571007e-05
152	0x363f3199	2.8490088e-06
153	0x37bbaff2	2.2374068e-05
154	0x373fea8e	1.1439099e-05
155	0x38124120	3.4869765e-05
156	0x34934558	2.7431338e-07
157	0x33a492fd	7.663582e-08
158	0x36bbed17	5.600635e-06
159	0x37f6fb74	2.9442577e-05
160	0x3628177a	2.5047616e-06
161	0x378fd63a	1.7146685e-05
162	0x36a0bea2	4.790564e-06
163	0x33019d5a	3.0178263e-08
164	0x3608a9e0	2.036446e-06
165	0x36bac4a5	5.5661244e-06
166	0x31b955a1	5.3939435e-09
167	0x3201af3c	7.548632e-09
168	0x3615897d	2.228276e-06
169	0x3277b88e	1.4419255e-08
170	0x36c3d3c7	5.836107e-06
171	0x383cf7ef	4.50536e-05
172	0x34a52480	3.0760202e-07
173	0x3580e384	9.602959e-07
174	0x35b6c810	1.3618283e-06
175	0x36bbf3a3	5.6013973e-06
176	0x35d2ddf3	1.5710815e-06
177	0x36ae48e6	5.1940906e-06
178	0x30eb781f	1.7132641e-09
179	0x3104e224	1.9337074e-09
180	0x370b1cbc	8.291736e-06
181	0x37d01e27	2.4809573e-05
182	0x33d55a23	9.934981e-08
183	0x34b77264	3.4169636e-07
184	0x36e2637e	6.7469073e-06
185	0x38166382	3.585546e-05
186	0x332a0402	3.9584855e-08
187	0x36a5e1e3	4.94368e-06
188	0x35b22113	1.3271659e-06
189	0x364f4199	3.0883587e-06
190	0x35383a2d	6.863e-07
191	0x332eba40	4.0681925e-08
192	0x37430ab4	1.1625398e-05
193	0x38079802	3.2328076e-05
194	0x32d763ac	2.507462e-08
195	0x33bbf3a4	8.752184e-08
196	0x35edeb3e	1.772634e-06
197	0x36548ab5	3.16712e-06
198	0x363b6c10	2.7928072e-06
199	0x34a3ebf9	3.053281e-07
200	0x3536704c	6.7963697e-07
201	0x34a99ade	3.1591384e-07
202	0x339a1896	7.175656e-08
203	0x33cbedcf	9.496181e-08
204	0x35070640	5.0300514e-07
205	0x36469b3e	2.9594662e-06
206	0x32af1852	2.0383741e-08
207	0x35487b95	7.468564e-07
208	0x3609efcb	2.0554169e-06
209	0x375f3362	1.3303799e-05
210	0x339bf94d	7.2630975e-08
211	0x3406bd7e	1.254866e-07
212	0x335c717e	5.1325962e-08
213	0x32ebf8ae	2.7470687e-08
214	0x35daf88d	1.6314603e-06
215	0x37822722	1.551543e-05
216	0x36880061	4.05316e-06
217	0x3721052b	9.597551e-06
218	0x3258f7d1	1.2629202e-08
219	0x331c0f22	3.6335344e-08
220	0x338aaa14	6.457063e-08
221	0x36250a63	2.4592962e-06
222	0x3545ad42	7.364034e-07
223	0x357ad79d	9.3446016e-07
224	0x34420847	1.8070669e-07
225	0x366858dd	3.462242e-06
226	0x325fb783	1.3022034e-08
227	0x32ecbec4	2.7560766e-08
228	0x34a96edc	3.1559364e-07
229	0x34ac9557	3.2146156e-07
230	0x367f12b4	3.8008848e-06
231	0x3657f8ce	3.218232e-06
232	0x35d40e5a	1.5799408e-06
233	0x33905c6b	6.722333e-08
234	0x33031a1d	3.0524564e-08
235	0x35b17bf4	1.3223603e-06
236	0x34c87897	3.7340644e-07
237	0x33ccecb9	9.54255e-08
238	0x35baa53f	1.3906173e-06
239	0x36467fc3	2.9578666e-06
240	0x36d6bb63	6.3995117e-06
241	0x384e9130	4.9249444e-05
242	0x31cb946e	5.924952e-09
243	0x338a1aae	6.430979e-08
244	0x35d4d509	1.5857232e-06
245	0x36285553	2.5083616e-06
246	0x36cec5b8	6.162296e-06
247	0x370ff19d	8.579719e-06
248	0x35fbced8	1.8761157e-06
249	0x37901eba	1.7180446e-05
250	0x359e22b2	1.1782015e-06
251	0x348d2d20	2.629613e-07
252	0x31bd9a49	5.518164e-09
253	0x2fdd024d	4.02013e-10
254	0x32cf7eff	2.4155723e-08
255	0x333dfa43	4.4232603e-08

exp_avg f4 [128]
0	0xb84cc720	-4.882284e-05
1	0xb79f3a2c	-1.8981365e-05
2	0xb7b7e0d0	-2.1919986e-05
3	0x39099d84	0.00013124017
4	0x37ec9d9c	2.8206785e-05
5	0xb85d473c	-5.2756848e-05
6	0xb906e7d4	-0.00012865599
7	0x389d239f	7.492978e-05
8	0xb92381f6	-0.00015593306
9	0x3734e21a	1.0781479e-05
10	0xb948c136	-0.00019145463
11	0xb72bcb73	-1.02397635e-05
12	0xb7613e98	-1.3425619e-05
13	0xb7ec3bcc	-2.8161237e-05
14	0xb735f728	-1.0845986e-05
15	0x387a7236	5.9711012e-05
16	0xb83e1819	-4.5321973e-05
17	0xb7b24c9a	-2.1254924e-05
18	0x37816824	1.5426493e-05
19	0x3861d583	5.384303e-05
20	0x393455de	0.00017198126
21	0x38ddd55c	0.000105778425
22	0xb8b303a2	-8.536062e-05
23	0xb8a41db6	-7.8256635e-05
24	0xb75a7170	-1.3020224e-05
25	0x37a419e4	1.956238e-05
26	0xb7a99256	-2.0214513e-05
27	0x388978f0	6.5551954e-05
28	0xb7694d60	-1.39058975e-05
29	0x37609088	1.3385092e-05
30	0x3682911f	3.8911962e-06
31	0xb7c979b0	-2.4017732e-05
32	0xb8f612e2	-0.00011733711
33	0xb76056de	-1.3371666e-05
34	0xb8f4bb7c	-0.00011669748
35	0xb9304638	-0.00016810826
36	0xb8504de4	-4.9663606e-05
37	0x3814b5d0	3.5455276e-05
38	0xb98d2885	-0.00026923805
39	0xb8897d6b	-6.55603e-05
40	0x36fcba7e	7.531896e-06
41	0xb84ca91e	-4.8794893e-05
42	0xb3c49400	-9.153882e-08
43	0x387b0258	5.9845246e-05
44	0xb7fd70f2	-3.0212545e-05
45	0xb81d9534	-3.7570673e-05
46	0x380c354c	3.3428238e-05
47	0xb8592f05	-5.1780622e-05
48	0xb8c42258	-9.352405e-05
49	0xb6254234	-2.4625451e-06
50	0x3619d670	2.2923596e-06
51	0xb9bb68d5	-0.00035745525
52	0x39012210	0.00012315088
53	0x372746fe	9.970505e-06
54	0x3895ea42	7.1485076e-05
55	0xb7df7cbc	-2.6641756e-05
56	0xb934bbba	-0.00017236071
57	0x3746f858	1.1859542e-05
58	0xb51a74c0	-5.7539364e-07
59	0x36e1f1a5	6.7336537e-06
60	0xb8a33b98	-7.783546e-05
61	0xb7384620	-1.0983582e-05
62	0x38bbeded	8.961172e-05
63	0xb85e285d	-5.2966516e-05
64	0xb8642e12	-5.4402342e-05
65	0xb89f8fec	-7.608518e-05
66	0xb743e748	-1.1676755e-05
67	0xb88df2dc	-6.76864e-05
68	0xb6e23661	-6.7416554e-06
69	0x36474d31	2.9698242e-06
70	0xb713ad98	-8.802301e-06
71	0xb7a1bc50	-1.9280385e-05
72	0xb834b5d2	-4.3084678e-05
73	0xb894fd0d	-7.104324e-05
74	0xb65c5560	-3.283225e-06
75	0x38daacc8	0.00010427233
76	0xb93c83ca	-0.00017978172
77	0xb8adf6c2	-8.295245e-05
78	0xb6796540	-3.7162827e-06
79	0x38829c09	6.227947e-05
80	0xb846556c	-4.7286434e-05
81	0xb7572fa0	-1.2826087e-05
82	0x37c31c12	2.3258883e-05
83	0xb5e7be4c	-1.7266225e-06
84	0x38efd7ce	0.00011436605
85	0x38c37f44	9.32203e-05
86	0xb6ab9e80	-5.114649e-06
87	0xb8ed93d8	-0.00011328579
88	0xb7408158	-1.1474207e-05
89	0xb79f64de	-1.9001247e-05
90	0xb91914ec	-0.00014599011
91	0x37560dd0	1.275861e-05
92	0xb7f286c8	-2.891141e-05
93	0x382c2288	4.1040155e-05
94	0xb824beb2	-3.9278246e-05
95	0x3812fab2	3.504259e-05
96	0x38a48c0b	7.8462144e-05
97	0xb7c49159	-2.3432704e-05
98	0x38de4a3b	0.000105996114
99	0x368dc220	4.2247266e-06
100	0x376e92a0	1.4220044e-05
101	0x360b9de0	2.080451e-06
102	0x380f9ca4	3.423974e-05
103	0x38146454	3.5379388e-05
104	0xb915ebe4	-0.00014297623
105	0x36f558ae	7.3118927e-06
106	0x36229140	2.4224428e-06
107	0x38860672	6.3908185e-05
108	0xb8468502	-4.7330752e-05
109	0x368dfe2e	4.231718e-06
110	0x38632866	5.415864e-05
111	0xb7878f98	-1.616012e-05
112	0xb87e8a0a	-6.0686878e-05
113	0xb726894e	-9.92634e-06
114	0xb7d02370	-2.4812034e-05
115	0xb68abf60	-4.1349995e-06
116	0xb811951a	-3.4709556e-05
117	0xb81130a8	-3.461601e-05
118	0x38045750	3.155257e-05
119	0xb89d5817	-7.5027514e-05
120	0xb8f3b05f	-0.000116199946
121	0x3633e91c	2.6808766e-06
122	0x37153b10	8.894844e-06
123	0xb8c5cfde	-9.43241e-05
124	0xb9097b1a	-0.00013111197
125	0xb88a8e50	-6.6068606e-05
126	0x369af776	4.618366e-06
127	0x358108d8	9.613823e-07
