results/Run2/PlayerRL/checkpoint.pt (torch, 479202 bytes, 42 tensors)

network_body._body_endoder.seq_layers.0.weight f4 [128, 15]
000000 fd c8 52 3e ac b9 46 be cd 1b f7 3d 49 8c 42 be
       0.20584483 -0.19406766 0.120658495 -0.18998827
000010 d2 24 61 3e ac ee 26 3e 01 e8 25 be f7 5c 82 3e
       0.21986702 0.16301984 -0.16201784 0.25461552
000020 3f 49 05 3e c7 68 56 3e a1 9f 00 3e 09 6e 62 3e
       0.13016222 0.20938407 0.12560894 0.22112288
000030 13 62 11 3e e3 cd b5 be 6f 7e 57 be 46 ca 70 be
       0.14197569 -0.35508642 -0.21044324 -0.23514661
000040 98 ff 06 3f 37 c8 1c be 23 26 0f 3e 39 f7 35 be
       0.52733755 -0.15310751 0.13979392 -0.17770089
000050 1e 45 e3 be 8e ec 96 3c c6 0a f1 bd 7d da 3c 3e
       -0.4438867 0.018423345 -0.11769633 0.18442722
000060 a9 fd 7e be 45 b0 c4 3c 99 dc a9 be 4f 41 c2 3e
       -0.24901451 0.024009833 -0.33176115 0.37940452
000070 b6 f2 80 be 7a 01 41 3e 67 fa 5d 3a f7 e4 d0 be
       -0.25185174 0.1884822 0.0008467794 -0.40799686
000080 5a 12 a5 be f7 31 b5 bb 1b 3e 03 bd e7 7a 4b be
       -0.32240564 -0.005529638 -0.03204165 -0.19871102
000090 86 71 b2 bd 4a 99 5f bd 2e 22 0c 3d ab d8 2e 3e
       -0.08713059 -0.054589547 0.034212284 0.1707484
0000a0 f4 9f 05 bd e0 56 0b 3f 37 b0 e6 be a9 e1 8c 3e
       -0.032623246 0.54429436 -0.45056316 0.27515915
0000b0 5e e6 3b 3d 2b e6 ae be 7a 34 99 bd 22 a4 25 bf
       0.045873992 -0.3415998 -0.07480712 -0.6470357
0000c0 93 a4 41 3e 95 89 b0 3e b0 9c 09 bd b5 74 8b 3e
       0.18910436 0.34479967 -0.033596694 0.27237478
0000d0 e9 48 1a 3d 0e 0b 11 3d 15 49 b9 3e ba 64 50 bd
       0.03766719 0.035410933 0.3618857 -0.05087731
0000e0 a9 83 38 3e 01 35 d8 be 18 a7 df 3d c8 ad c3 bd
       0.18018974 -0.4222794 0.109205425 -0.095546305
0000f0 bc 53 9c bd fe 69 dd 3e 13 f7 b0 be ca 89 ab be
       -0.076331586 0.43244928 -0.34563503 -0.33503562
000100 4c ed 01 bf be 67 a5 3d cf 3b 4b be bc 08 a6 be
       -0.5075271 0.08076428 -0.19847034 -0.3242854
000110 a9 70 34 be 0c e4 00 bf ad d5 cd bd 5f e8 fe 3e
       -0.17621101 -0.5034797 -0.10050521 0.4978666
000120 77 b8 1b be f8 a9 22 3e 65 7d 4f be ce 13 66 3e
       -0.15207087 0.1588515 -0.20262678 0.22468492
000130 8a e9 77 3e ef 7a 88 be f9 93 d4 3d d7 2c 55 3e
       0.24210182 -0.2665629 0.10379786 0.20817886
000140 39 47 b7 3e 05 0c 42 3e 63 09 28 3e a3 b1 2d bf
       0.35796526 0.18949898 0.16409831 -0.6784918
000150 29 b9 cf 3e e8 27 42 3e 62 0e 5c be 09 34 f5 3e
       0.40570953 0.18960536 -0.21489862 0.47891262
000160 d1 4d e5 be 53 97 a3 be 3d cd dc 3d c5 5d ae bd
       -0.44785932 -0.3195139 0.107813336 -0.08513979
000170 9b e7 9f 3e 00 2d 15 3e 7b cf a1 bd ab 85 74 3e
       0.31231388 0.14567947 -0.07900902 0.23879115
000180 a0 2b 34 3e 24 c0 aa 3e c5 25 ef 3d be 37 b6 3e
       0.17594767 0.33349717 0.11677126 0.35589403
000190 32 f4 ba be 1f 15 67 be 65 de 85 3e 61 2e 7e be
       -0.3651443 -0.22566651 0.26146236 -0.2482238
0001a0 7d 0f e8 3c 8a ee 63 be 78 24 f8 3e 1d 15 b9 bd
       0.028327698 -0.22258964 0.48465323 -0.0903723
0001b0 a2 1d bb bd 4c a9 75 3c f9 bf e7 be d9 69 24 be
       -0.091365114 0.014993977 -0.4526365 -0.16056003
0001c0 b1 53 ca 3d e7 e6 d1 bd 10 8c 68 be 41 32 88 3d
       0.09879244 -0.10249119 -0.2270968 0.0665021
0001d0 e3 88 23 be 8e b6 40 3e c8 21 ab bd 4d a0 cf 3c
       -0.15970187 0.18819639 -0.08356053 0.025344992
0001e0 8e 93 64 be 28 4a f0 3d 83 c1 08 3e f4 d5 78 be
       -0.22321913 0.11732894 0.13355069 -0.24300367
0001f0 75 cf cb 3d 28 c8 30 3c 3b 1d ea bc 09 6b 93 be
       0.09951679 0.0107899085 -0.028578391 -0.287926
000200 00 26 9e 3e 97 e7 57 3e 67 b2 2b be 3d 2f ad 3d
       0.30888367 0.21084438 -0.16767274 0.084562756
000210 2e a9 64 bd f6 9c 53 be db be b2 3d 16 01 c2 be
       -0.055825405 -0.20665345 0.08727809 -0.37891454
000220 d1 31 42 3e d1 d9 07 bf 2f 8d 14 be fe 62 d3 bd
       0.18964316 -0.53066736 -0.14506982 -0.10321616
000230 b3 8b 03 3f b0 c5 72 3e 7e aa b0 3d f8 1e b1 3e
       0.5138504 0.23708224 0.08626269 0.3459394
000240 0e 24 4e be 23 b2 96 be 78 be 48 be ee 24 4e 3e
       -0.20130941 -0.29432783 -0.19603908 0.20131275
000250 bd d4 86 be d6 00 02 3d 77 35 16 3e 2c 5f a8 bd
       -0.2633418 0.03173908 0.14668833 -0.082212776
000260 34 6a 39 3f 31 0c 56 be fc 94 4f be 76 b0 88 3e
       0.7242768 -0.20903088 -0.20271677 0.2669713
000270 16 e3 1b bd 44 71 af 3e 0b f2 a8 3e 1a be 0b be
       -0.038058363 0.34266102 0.32997164 -0.13646737
000280 63 e7 8a 3e a5 c2 75 3e 29 42 00 be 6a 5b 27 3e
       0.2712966 0.24000032 -0.12525238 0.16343465
000290 17 f0 d9 bd b2 6d 24 3e e4 73 b6 bd be ad f1 3e
       -0.10641497 0.1605747 -0.08908823 0.47202867
0002a0 99 36 76 bb e1 6a 89 be 7d 5c 12 3e bc 82 1f 3e
       -0.0037569164 -0.26839355 0.14293094 0.15577215
0002b0 d0 b7 82 bd f8 5e 34 be f7 71 3d bd ed b2 c9 3e
       -0.06382716 -0.17614353 -0.046251263 0.39394322
0002c0 94 cf d3 3e a5 5b 81 3e d9 f1 7c be 23 60 6f 3e
       0.41369307 0.25265232 -0.24701633 0.23376517
0002d0 e1 e5 a1 3d 58 b3 ac be 37 7e 84 be 68 f0 ed bd
       0.07905174 -0.33730578 -0.25877544 -0.116181195
0002e0 23 c0 a4 3e 59 54 8b 3e 3e ba 65 3e 94 cc 87 be
       0.3217784 0.2721279 0.22434327 -0.26523268
0002f0 77 c0 3b 3f b6 c6 f0 bd 91 1f fa 3d a2 fb 20 3f
       0.73340553 -0.11756651 0.12213052 0.6288396
000300 ba 28 8a be 24 4e 4d 3e 86 64 4c be c3 3c 73 3e
       -0.26984197 0.2004934 -0.19960222 0.23753648
000310 e1 14 b5 3e bb a8 33 3e 7d e0 cb be ef 24 81 3e
       0.35367492 0.17544834 -0.39819708 0.2522349
000320 f0 27 ea bd dc 5a d5 be 95 4f a5 3e e7 86 d1 be
       -0.11433399 -0.41670883 0.3228728 -0.40923235
000330 28 67 d0 be 39 1a e6 3e d4 d1 2b be 27 69 cd bd
       -0.40703702 0.4494188 -0.16779262 -0.10029822
000340 11 87 a0 3d 2d dc 0f 3f c6 26 fe 3d 20 63 36 3d
       0.07838262 0.56195337 0.12409739 0.044528127
000350 a8 a7 19 3e ab b6 7f bd 4e 8a 62 be 62 bc 81 3e
       0.15005362 -0.062430065 -0.22123072 0.25339037
000360 b8 cf 84 3d 22 db bb 3e 10 8b 43 bd 1c dc 82 3d
       0.06484932 0.36690623 -0.047740042 0.06389639
000370 a6 de 79 3e a2 10 10 be 2a 86 b8 3e 34 ed 90 3e
       0.2440134 -0.14068845 0.3603986 0.28305972
000380 76 77 a5 3e 3e 40 a2 3e ce 9a c6 3d 27 b3 83 bd
       0.32317704 0.31689638 0.096974954 -0.06430655
000390 63 3d 80 bc 2e d7 96 bb 2c 7d 0f be 24 30 9b 3d
       -0.015654271 -0.004603288 -0.14012593 0.075775415
0003a0 56 99 a4 bd 6f 67 79 3c 10 a1 ea 3e f8 92 f1 be
       -0.08037059 0.015222414 0.45826006 -0.4718244
0003b0 87 6e ca bd 5f da 65 be d6 c9 cf 3d eb 79 83 3d
       -0.09884363 -0.22446583 0.10145919 0.064197384
0003c0 37 b2 3a 3e 2e a8 de 3e 05 b7 d4 3e 19 37 7a be
       0.18232046 0.43487686 0.41545883 -0.2443508
0003d0 22 d1 68 3c fe 70 a1 3e c3 44 a8 bd 79 78 5f be
       0.014210017 0.3153152 -0.0821624 -0.218233
0003e0 fa ea 33 3e 01 b6 da 3d cb f0 02 be ac 91 c2 bb
       0.17570105 0.10679246 -0.12787168 -0.0059377756
0003f0 d5 4e a1 3d d3 ef e0 be 39 7c 08 3e 5e fc 87 bd
       0.07876364 -0.4393297 0.13328637 -0.06639932

network_body._body_endoder.seq_layers.0.bias f4 [128]
000000 68 11 13 bb 0d 04 4c 3b 63 3e 5d bb 89 3b 48 bb
       -0.0022440795 0.0031130344 -0.003375911 -0.0030553064
000010 4c 2f 2c bb 4d 3d cd 3b 34 a1 73 ba 44 1d 4b 3c
       -0.0026273308 0.006263411 -0.00092937355 0.012397114
000020 0d 75 90 bb ca d6 a4 39 87 2c 79 3a 42 4f 0c 3c
       -0.004408485 0.00031440548 0.0009505231 0.008563818
000030 13 41 9d ba ee ae 14 ba dd d9 ff 3a cd df 2c bb
       -0.0011997543 -0.00056718185 0.0019519884 -0.0026378513
000040 ab cb b7 bb 6a 39 d2 38 ac e0 89 3b ae 1e 57 ba
       -0.005608996 0.000100242745 0.004207691 -0.0008206171
000050 84 a2 9e 3a a5 b0 f0 3b 98 74 37 3c 04 35 91 39
       0.0012102877 0.0073452764 0.011197232 0.00027696055
000060 74 77 96 ba ea 1b 48 3a 09 02 37 3b 6c 22 79 bb
       -0.0011479692 0.0007633554 0.0027924797 -0.0038014902
000070 07 71 0f bb e1 a8 84 3a 42 a7 83 3b 00 71 3c 3b
       -0.0021887438 0.0010121131 0.0040177414 0.0028753877
000080 ee 27 42 3b 26 e7 c3 3a 1c 9d f2 3b 5e f9 2f 3c
       0.002962585 0.0014946207 0.007403983 0.010740606
000090 a7 40 10 3a cb 95 2b 3b f1 57 6d ba d8 d6 10 b9
       0.0005502798 0.0026181813 -0.0009053937 -0.00013812946
0000a0 7a 8d a5 b9 fc 31 7e bb 02 57 79 3b c4 91 7c ba
       -0.0003157666 -0.0038787117 0.0038046245 -0.0009634758
0000b0 30 ec 25 ba d1 22 4c bc 16 3c bb bb f3 b2 de 3a
       -0.0006329445 -0.012459473 -0.00571395 0.0016990587
0000c0 55 b7 3d bb 03 51 cc bb a1 b0 ae 3b 06 ad 33 bb
       -0.0028948386 -0.0062352433 0.0053311144 -0.0027416362
0000d0 9d 6c ba 3a cd 4c b7 ba 41 a2 30 3c da d1 45 bb
       0.0014223043 -0.001398468 0.010780872 -0.0030184896
0000e0 44 f6 a5 39 73 90 72 3b 50 06 be 3a c3 b7 7b bb
       0.00031654735 0.0037012368 0.0014497731 -0.003840909
0000f0 ae f4 b0 ba 2e b6 15 bb 7e c8 4b bb c5 71 1e bb
       -0.0013500655 -0.0022844183 -0.0031094844 -0.0024176699
000100 de 14 91 ba 28 b7 f8 b9 d0 ea 71 3b 13 25 b9 3b
       -0.0011068841 -0.00047438708 0.003691364 0.0056501715
000110 59 6c 58 bb 14 e5 69 39 1f 64 b1 bb a2 a9 2c ba
       -0.0033023565 0.0002230595 -0.0054135467 -0.00065865566
000120 0b 1e 5d bb 6a b2 e6 39 01 9f ef 3a 09 c5 40 3c
       -0.003373983 0.00044001947 0.001828164 0.011765727
000130 18 3e f0 39 54 69 c8 b8 42 87 23 3c 81 8e 23 3b
       0.0004582263 -9.556362e-05 0.009980978 0.0024956765
000140 82 17 03 3b 8e 17 13 3c 9f 83 d7 b9 f0 e7 16 3a
       0.0020003025 0.008977784 -0.0004110606 0.0005756607
000150 bf ad 24 ba a4 b7 a1 b9 0f 4a f5 ba 99 06 ca 3b
       -0.00062819937 -0.00030845136 -0.0018714088 0.0061653373
000160 c9 6b 65 3b 68 ec 26 b9 4c d8 47 3a 88 f6 e6 b9
       0.0035006872 -0.00015919062 0.00076234783 -0.000440527
000170 86 ba 55 bb 65 5b 14 bb fe 0f f5 38 49 8f 78 bb
       -0.0032612397 -0.0022637483 0.00011685489 -0.0037927201
000180 a2 44 10 3b 38 df 7a 3b e0 21 18 3a 01 85 57 3b
       0.0022013565 0.0038280021 0.00058033876 0.0032885673
000190 50 d4 09 3c d2 27 91 ba 80 3b d7 3b 92 14 26 bb
       0.008412436 -0.001107449 0.0065683722 -0.002534185
0001a0 aa 3c 96 3b 0e 84 d1 3b ad 9d d0 3b 2a 26 d7 bb
       0.0045848684 0.006393916 0.0063664527 -0.006565829
0001b0 4a af 8b 3b 72 07 d8 ba 8b 06 ad bb 31 d9 7a bb
       0.0042628394 -0.0016481711 -0.005280321 -0.0038276429
0001c0 06 5b 0d bb 7c c7 13 3a d6 04 0b 3b 26 38 dd bb
       -0.0021569147 0.00056373305 0.00212126 -0.006751078
0001d0 59 ac 41 3b cc ba c7 3b 99 47 13 b9 23 17 4e bb
       0.002955219 0.006095266 -0.00014045685 -0.0031446896
0001e0 52 cb a4 ba 65 c8 2d bb 34 35 06 bc 1b 13 78 3b
       -0.0012572801 -0.002651715 -0.008191396 0.0037853185
0001f0 14 5f 5a bb fe db 82 3b a1 83 d8 bb 1a 83 17 3c
       -0.003332083 0.0039935103 -0.0066074883 0.009247566

network_body._body_endoder.seq_layers.2.weight f4 [128, 128]
000000 f3 7f 1c 3d 18 58 d4 bc 28 d2 77 bc 67 10 c6 bd
       0.03820796 -0.025920913 -0.015125789 -0.09671097
000010 c6 21 16 be 37 3f 60 3d 04 40 a1 3c be 52 38 bd
       -0.14661321 0.054747786 0.019683845 -0.045000784
000020 d7 e0 a8 3b 61 76 95 bd c0 4d 4d 3e 09 91 e7 3d
       0.005153756 -0.072979696 0.2004919 0.1130696
000030 81 be e0 3d 55 5e 03 3d 88 df ca bc 2c cb a2 bd
       0.10973836 0.032072384 -0.024764791 -0.07948908
000040 a1 6e 1b 3e 06 08 be 3d 38 ed 51 3d 09 b8 95 bd
       0.1517892 0.09278874 0.05125162 -0.073104925
000050 86 d2 95 bb 67 8d 6c 3c 3c 25 28 bd c5 22 27 bd
       -0.0045722155 0.01443801 -0.041051134 -0.040804643
000060 4e 02 45 3e 04 00 7f 3d 81 32 c8 bb 41 26 99 bd
       0.1923916 0.062255874 -0.006109536 -0.074779995
000070 6a 4a 33 bc 4a d6 ff 3d 73 8e 3d 3d 51 63 ee 3d
       -0.010943035 0.12492044 0.04627843 0.11640037
000080 64 14 4d 3d 2b 9c 01 3e cc 49 3e 3d 78 33 10 be
       0.050068274 0.1265723 0.046457097 -0.14082134
000090 42 f9 08 3e 46 7c c4 3d 5f 74 9b bc e6 5c 6c bd
       0.13376334 0.09594016 -0.018976388 -0.057705782
0000a0 a7 1b 88 3b 67 88 6b bd 3c a1 22 3e b8 32 48 3d
       0.004153687 -0.05750313 0.15881819 0.048876494
0000b0 30 6c 61 bd 8f 11 a0 3d 17 76 34 3d 35 3a e8 3d
       -0.055034816 0.07815849 0.04405793 0.11339227
0000c0 25 cf db 3c 5f 39 a2 3d f7 f9 0b 3d fe 78 15 3e
       0.026832173 0.07921099 0.034173932 0.14596936
0000d0 c7 3e 2f 3e be c7 c9 bd e7 0e 04 3d 27 a7 dc bd
       0.17113791 -0.09852551 0.032240774 -0.10774069
0000e0 ff c7 02 be e7 1b 27 bd b3 43 0b bd 24 e0 5d 3e
       -0.12771605 -0.040798094 -0.03400011 0.21667534
0000f0 78 cf 85 bc e6 be 3f 3d 59 18 72 3c 6e f5 65 3d
       -0.01633428 0.046812914 0.014776313 0.056142263
000100 e8 31 61 bd 57 8e 5a 3d 54 46 56 3e 76 fa c9 bc
       -0.054979235 0.053358402 0.20925266 -0.024655562
000110 bb 4f e7 3d fe be 5f 3c 68 95 b4 bc 5f d5 28 bd
       0.11294504 0.013656376 -0.022043899 -0.04121911
000120 ea 99 ef 3d d0 6b 9c 3d 99 72 81 3e 02 f2 dd bd
       0.11699279 0.07637751 0.25282744 -0.10837175
000130 05 5a b0 bd a9 a9 d1 3d 6c 64 b2 bc 7c 7f 8c bd
       -0.0861092 0.10237438 -0.0217764 -0.06860253
000140 e6 28 d3 bd a8 08 78 3d a1 85 8d bd be 32 57 bb
       -0.10310535 0.06055513 -0.06910253 -0.0032836641
000150 65 40 7d 3e 12 f8 b7 3c f5 a5 42 bd d9 8a 59 bc
       0.24731596 0.022457156 -0.04752155 -0.013277733
000160 05 98 e4 bd 6a ec 31 3b ae 5e c9 3d b9 59 16 3c
       -0.11161808 0.002714897 0.09832512 0.009176665
000170 c2 44 b2 3c 6f 6b e8 bd 94 9a 1e be a2 c2 d8 bb
       0.021761302 -0.11348616 -0.15488654 -0.006614999
000180 27 1e 19 be b2 1c a2 ba 9b 21 88 3c ab c3 79 be
       -0.14952908 -0.0012368171 0.016617587 -0.24391048
000190 b3 5b 57 b9 07 38 62 be cb a9 9c 3d 45 72 50 3d
       -0.00020538158 -0.22091685 0.07649573 0.050890226
0001a0 40 11 a7 3c aa fa f6 3d 30 c6 3c be 38 2b 3f 3e
       0.020393968 0.12059529 -0.18434978 0.1866883
0001b0 b1 ad 3c 3d 08 c5 4a 3d eb 36 1d bd d7 b6 b5 bd
       0.046064083 0.04950431 -0.038382452 -0.088727646
0001c0 93 e4 db bd f7 ef 6c 3d 31 7c b6 3c ab 65 74 3d
       -0.107369564 0.057846036 0.022276016 0.05966727
0001d0 4f 3e 1e 3d 6a 69 2e 3e c9 0a fd 3d 5d c4 a0 3d
       0.03863364 0.170324 0.12355573 0.07849953
0001e0 47 e4 20 bd d9 78 d4 3c 73 45 01 3e 89 f9 36 be
       -0.039280202 0.02593653 0.12624149 -0.17868628
0001f0 a3 13 14 be 21 d9 e8 3c 7b 02 cd bd 90 4f 45 3d
       -0.14460616 0.028423848 -0.10010239 0.04817158
000200 87 b6 fe bd 16 f4 5a 3d 79 fc fb bb be 7a da bc
       -0.12437158 0.053455435 -0.007690009 -0.026669856
000210 c8 96 04 be 2a d3 53 bd 02 5d c9 3c c2 4a 82 bd
       -0.12948143 -0.051715054 0.024580482 -0.06361915
000220 a1 4f 18 3d 3c dd 42 be 4b fd d6 bd 8d a1 4b bd
       0.037185315 -0.19029707 -0.104975305 -0.049714614
000230 d5 c3 3c b9 ac 7b c7 bd f3 0b b0 bd 04 6e f8 3c
       -0.0001800203 -0.097403854 -0.08596029 0.030325897
000240 fc 7e ba bc fe 3a 88 be 85 f1 2d 3d a8 18 78 3d
       -0.022765629 -0.26607507 0.04246666 0.06057039
000250 6c 81 1f be d4 26 40 3a 76 bb 35 be 54 e1 6c ba
       -0.15576714 0.00073300046 -0.17747292 -0.0009036262
000260 7b d2 13 be f8 d9 a0 3d 09 e7 ad bc 43 97 cb 3c
       -0.1443576 0.07854074 -0.02122833 0.0248524
000270 8d 4c 41 bd c0 34 e8 bd d0 09 97 3c fc 44 fa 3d
       -0.047192145 -0.11338186 0.018437296 0.12220189
000280 5f b4 80 bc 51 63 30 be 15 d5 b9 3d 14 68 fe 3a
       -0.015711008 -0.17225386 0.09073845 0.001940968
000290 92 c9 11 be 83 3b 45 3e 3d 7c b5 3d f0 b8 0e bd
       -0.14237049 0.19260983 0.08861587 -0.03484434
0002a0 3d e1 ed bb 62 7f c5 3d 17 ea 8c b9 ef 42 c3 3d
       -0.0072595165 0.09643437 -0.0002687729 0.09534251
0002b0 72 e9 9c 3c ba c9 3b 3d 5a a1 9f 3a 3c 86 ae bd
       0.019154284 0.04584668 0.0012178824 -0.08521697
0002c0 76 02 1c 3c 3f 81 a0 bc 6f ea ee bc 1d 0b f4 3d
       0.009522071 -0.01959288 -0.029164521 0.11916182
0002d0 db 78 9a bc b9 ec 00 be 64 70 7b 3e ab e7 70 3d
       -0.018856457 -0.12590303 0.24554592 0.058814686
0002e0 33 64 0f be 5a df 52 3d 16 51 1a bd 0a b9 a6 bc
       -0.14003067 0.051482536 -0.037674986 -0.020351905
0002f0 3c e5 de bd a3 2b 3b 3e 03 3e fd bc 5f 76 a3 bd
       -0.10883567 0.18278365 -0.030913359 -0.07981562
000300 0d b6 58 3d fe cc 8b bd ce 24 bd bc 46 ac 8c 3d
       0.052907992 -0.068262085 -0.023088839 0.06868796
000310 06 95 0e 3d ec 45 6c bd 04 06 b3 3d 42 b8 26 3e
       0.03481009 -0.05768387 0.08741382 0.16281226
000320 5a 76 18 bd e5 8e aa 3d 90 d3 5d 3d 06 5e 3c 3e
       -0.037222244 0.08328036 0.05415684 0.18395242
000330 a9 c8 07 bc 5c bd 26 be 3b 36 4e bd 45 9c 64 ba
       -0.008287587 -0.16283172 -0.050344687 -0.0008720796
000340 8a e8 24 3d f1 9b 20 bd 54 50 da bd b0 df ab bb
       0.04026083 -0.039211217 -0.106598526 -0.0052451715
000350 90 49 d4 bd 17 5b 37 3e 3a 3f 85 bd c2 5e 24 3d
       -0.103655934 0.17905842 -0.065062 0.04012943
000360 5c a5 37 3d 13 d1 44 3c 97 6e ee bd 1a 19 fd 3d
       0.044835433 0.012012738 -0.11642187 0.12358303
000370 d2 56 b6 3d a0 51 d8 3c 9e c2 e9 bd e4 c0 b0 bd
       0.089032784 0.02640611 -0.114140734 -0.08630541
000380 90 9b 18 3e bf 51 21 3d ef f3 2b bd 0e 81 31 bd
       0.14903092 0.0393846 -0.04198068 -0.043335967
000390 18 00 d2 bd 35 66 bb 3d 51 72 a9 3d 7c 7c e1 bd
       -0.10253924 0.09150354 0.08273757 -0.11010072
0003a0 6d bb 88 3d f9 a9 39 bd d0 72 0f bd 2f 2f 87 bd
       0.06676374 -0.045328114 -0.035021603 -0.066007964
0003b0 ae d2 28 bd 07 5c a0 3d 45 14 00 bd e9 c2 71 3c
       -0.041216545 0.07830053 -0.03126933 0.014755943
0003c0 8e 37 d7 bc c7 78 80 3d 11 0b 0a bd 78 ea 24 3d
       -0.026271608 0.062730365 -0.03370196 0.04026267
0003d0 b8 fd c1 bd 21 62 82 3c 9e 34 16 3e 41 24 59 ba
       -0.09472221 0.015915932 0.1466851 -0.00082832953
0003e0 65 51 4b bd b2 21 21 3d 63 c8 02 3e 7b 6b ef ba
       -0.04963817 0.039338775 0.12771754 -0.0018266285
0003f0 fc 13 9d 3d 8a c2 87 bd 1d 1f 3c 3e af 1d c0 3d
       0.07669827 -0.06628902 0.18371244 0.09380662

network_body._body_endoder.seq_layers.2.bias f4 [128]
000000 c2 59 f7 3a eb 9d 9c 3a ea 45 d1 3a a4 c6 b1 3b
       0.0018871354 0.0011948919 0.0015966271 0.005425291
000010 1c 75 5a bb 33 2d ab ba e3 1a 30 ba 49 0f 5e 3c
       -0.0033333963 -0.0013059735 -0.00067178736 0.013553449
000020 62 9a bb bb 65 20 96 bb 7e 5b fe ba e0 ed 69 3c
       -0.005725191 -0.0045814984 -0.0019405929 0.014277905
000030 71 7f 9e bb 14 81 64 b7 d1 b4 3f 3c 5e 94 45 39
       -0.0048369695 -1.3619912e-05 0.011700825 0.00018842655
000040 dc 6e c8 3b fb 3e a5 ba e9 da 12 3a 0a 77 0a 3a
       0.006116731 -0.0012607271 0.0005602078 0.00052820204
000050 aa b5 46 39 97 22 8d bb ad 3a 23 bc c9 a2 17 bb
       0.00018950427 -0.004307102 -0.00996272 -0.00231378
000060 c4 25 13 3a b4 95 90 3b 04 13 16 3c a3 ed 0e bc
       0.00056132325 0.0044123773 0.009159807 -0.008723649
000070 f5 19 57 3a ed 80 ec 3b 23 65 b1 bb cd f4 1b 3a
       0.0008205467 0.0072175176 -0.0054136678 0.0005949259
000080 03 48 c2 bb 8b f2 bc 3a a2 c6 3f bb c0 b6 41 3b
       -0.0059289946 0.0014415545 -0.0029262681 0.002955839
000090 fe ee af bb 70 08 0d b9 28 8f 14 3c 83 61 1c bc
       -0.0053690663 -0.00013449951 0.009067334 -0.009544733
0000a0 ca 66 cf 3a dd fe c7 3a 70 4d 83 ba 2b 4f 02 3c
       0.001582348 0.001525845 -0.0010017585 0.007953445
0000b0 6a d7 21 39 ef 44 3e ba 42 d6 74 3a 4a 55 bc 3b
       0.00015434404 -0.0007258197 0.0009339788 0.005747472
0000c0 fc 31 ad bb 11 af 3e 3b 78 87 81 3a 1b 8c 7c 3b
       -0.0052854996 0.0029096047 0.0009882292 0.0038535658
0000d0 37 a5 93 3b b0 5a 1c 3b 0a e3 30 ba ea 6c df 3a
       0.004505779 0.0023857765 -0.00067476986 0.0017046009
0000e0 3b 18 6a 3b 13 90 92 3a 61 4d 0c bc 75 e4 3f 3b
       0.003572001 0.0011181853 -0.00856337 0.0029280458
0000f0 92 ac 41 3b 06 27 2a 3b a4 f9 ba 3b 9d 41 58 3c
       0.0029552323 0.0025963201 0.005706029 0.013199237
000100 ee e5 79 3b 6d ae b5 bb de 1d a2 ba 22 a5 94 3a
       0.0038131434 -0.005544475 -0.001236852 0.0011340717
000110 bd 35 8d 3c 80 0f 23 3a 52 54 61 3b 0b af 09 bb
       0.017237538 0.0006220266 0.0034382534 -0.0021008875
000120 9a 03 db ba 7a 63 62 3a f9 dc 63 3b 06 6e 67 3b
       -0.0016709447 0.0008636039 0.003476916 0.0035313382
000130 3c 28 a8 3b 24 9a 2c 3b c8 03 aa 3b c8 bf 4a 3b
       0.0051317494 0.0026336992 0.005188439 0.0030937064
000140 7a af ca 3a b7 07 9f bb 8c 5f 5f 3c 1e 5e 5b bb
       0.0015463673 -0.0048532146 0.01363362 -0.0033472846
000150 db 09 b7 ba bf 35 7b 3a 06 23 59 bb a9 86 87 3b
       -0.0013964729 0.0009582899 -0.0033132448 0.004135926
000160 11 72 12 3c f6 59 95 3b 1c b9 c3 3a 22 d8 57 bb
       0.008938328 0.0045578433 0.0014932486 -0.0032935222
000170 a7 74 50 3a 53 32 40 bb c1 0e 06 bc af 42 ed 3b
       0.0007951953 -0.002932687 -0.008182229 0.0072406153
000180 b3 ab 2e bb 4a 6a 40 bb 63 51 82 3a 9e d2 b6 3b
       -0.0026652634 -0.0029360228 0.0009942468 0.0055793067
000190 34 35 91 bb 1a 5b d5 bb 3f d0 1e bb 4c 9e 2e 3c
       -0.004431391 -0.0065111043 -0.002423301 0.010657858
0001a0 8a a1 c1 3a 4d 5f a1 3a 37 45 8e 3b 18 b3 31 3b
       0.0014772874 0.0012311727 0.004341747 0.0027114805
0001b0 0b b3 12 3c 91 af 65 3c 90 64 9e bb b4 5d 06 3b
       0.00895382 0.014018909 -0.0048337653 0.0020502629
0001c0 6d bf b4 ba d5 d2 43 3c 52 b9 0e 3a 92 c8 8e bb
       -0.001378996 0.011952122 0.0005444485 -0.004357406
0001d0 77 d6 4c 3b 16 6a 7c 3a 24 55 9e 3b 29 05 b7 3b
       0.003125576 0.0009628845 0.004831927 0.005585332
0001e0 7a 8f 90 3a 3a 5e a7 3a 0b 8c 09 ba 00 44 f2 bb
       0.0011029087 0.001276917 -0.0005247003 -0.00739336
0001f0 64 f8 d9 bb 53 55 ce 3b c2 34 c7 3b 75 95 5a 3b
       -0.006651925 0.0062967925 0.0060792873 0.0033353243

action_model._continuous_distribution.log_sigma f4 [1, 2]
000000 d2 40 d1 bc b4 31 66 bc
       -0.025543604 -0.014049936

action_model._continuous_distribution.mu.weight f4 [2, 128]
000000 ed 29 2c 3d 79 65 9c bb c1 18 c2 39 1c d8 66 bc
       0.04203217 -0.0047728387 0.00037021007 -0.01408961
000010 36 6c 46 3c f7 75 1f bb ac 6f e1 3b 6a 5f a9 3c
       0.01211076 -0.0024331787 0.0068797674 0.02067538
000020 7a c9 63 3c da 04 e5 3c 0e 63 db 3c 11 1f 7d bc
       0.013903016 0.027956415 0.026780631 -0.015449301
000030 06 bd 4e bc d4 25 7a 3c 13 1a 13 3d fa 76 cb 3b
       -0.012618309 0.015267808 0.03591354 0.0062092515
000040 61 49 bd 3c 21 57 3e 3c 10 e6 5e bc 84 27 d4 bb
       0.023106279 0.011617453 -0.013604656 -0.006474437
000050 33 61 a6 3c d9 eb 39 3c 45 50 ea bb 9b c7 fa bc
       0.02031002 0.011347734 -0.007150682 -0.030612757
000060 14 0a b4 3a 22 20 9c bc 0a 63 9e bc 22 ed 59 bc
       0.0013735914 -0.01905829 -0.019334335 -0.013301166
000070 da 28 a5 bb 67 36 08 3c dd c0 0c bc 05 72 16 3c
       -0.0050402703 0.008313752 -0.008590904 0.009182458
000080 ed e1 2a 3c 63 f0 ab bc 76 54 0d 3b 1e 8a e6 bc
       0.0104298415 -0.020988649 0.0021565235 -0.028142031
000090 f0 38 41 bc d8 56 a1 bc 70 16 22 3d 2c 97 5c bc
       -0.01179336 -0.01969473 0.03957218 -0.013463777
0000a0 e5 a6 91 3c a1 c6 1f bd 21 34 47 3c c5 a0 1f 3a
       0.017779777 -0.039007787 0.012158425 0.0006089325
0000b0 ff da 98 bc 9d 38 fd bc 94 ce ae bc 5a 43 6f 3c
       -0.018659113 -0.030910784 -0.021338739 0.01460346
0000c0 17 e1 3f bb fb ad ce 3b e1 1a 69 bc 4a f2 ee 3a
       -0.002927845 0.006307361 -0.0142276 0.0018230167
0000d0 01 f1 e7 39 81 87 ee bc e2 ca 91 3b 87 73 ab bc
       0.00044239315 -0.029117348 0.0044492343 -0.020929111
0000e0 28 d1 63 bc 24 8a 08 bd 76 db 0a bd 1f 62 5f 3c
       -0.013904847 -0.033334866 -0.0339007 0.013634234
0000f0 2a ee c7 bc 6a 04 8c 3c 03 5a b9 bc 58 02 8b bb
       -0.024405558 0.017091949 -0.022625929 -0.0042422228
000100 29 5e 3e 3c ca eb bc 3b 55 a7 9e 3c d1 4e 55 3b
       0.011619129 0.005765413 0.0193669 0.00325482
000110 d2 e6 1c 3b b5 5b 3f 3b 81 be c5 bb d0 76 60 bd
       0.002394129 0.0029198949 -0.0060346727 -0.05480081
000120 61 da 83 bc 08 5a 74 3c d9 ad c4 bb 46 aa 4a 3c
       -0.016095342 0.014914043 -0.0060021696 0.012369698
000130 72 70 b1 3a 2d 7a 61 3c cd e1 b9 3c 8a df 13 bc
       0.001353754 0.013762039 0.022690678 -0.009025464
000140 db 2a 1e bc d1 9a f1 3b 2a 8d 85 3a d5 4c c5 3b
       -0.009653772 0.007373192 0.0010189165 0.006021122
000150 6d 02 2b 3d b9 47 bc bc 08 3c 6c bc 45 47 9f 3c
       0.04175036 -0.022983419 -0.014418609 0.019443164
000160 0e 9c 10 3c 1c 5c bf 3a 0e ff 07 3d d3 36 22 3d
       0.008826269 0.0014599594 0.033202223 0.039603066
000170 41 ac 3a bc fd fd 8d 39 d6 b9 a3 3c 36 ab fb 3c
       -0.011393608 0.00027082852 0.019986074 0.030721288
000180 1e 4c 93 3c 0d 15 37 bc d9 3f 81 3c 86 c6 20 3d
       0.017980631 -0.0111744525 0.015777515 0.039251827
000190 09 6e 07 bc 19 81 e5 3c e7 9b 34 3a 23 8e 74 3c
       -0.0082659805 0.02801566 0.00068896863 0.014926466
0001a0 3d d4 04 bd db 2c 19 bc 2a dc 0d bc db f2 bb bb
       -0.03242897 -0.009349073 -0.008658448 -0.0057357377
0001b0 75 63 87 bc 4f ca 0f bc f3 d0 88 bc 1c fd 3d 3c
       -0.016526917 -0.0087762615 -0.016701197 0.0115959905
0001c0 b7 02 de 3c f2 17 6d 3c 14 b1 78 3c 14 d2 88 bc
       0.027100904 0.014471041 0.015178937 -0.016701736
0001d0 c9 d3 10 3d 06 78 61 bc a5 73 6b bc 60 b4 07 3c
       0.035358224 -0.013761526 -0.0143708335 0.008282751
0001e0 4f ce b4 3b e6 f6 b9 bc b2 d6 18 3c b4 a2 39 bc
       0.005517758 -0.022700738 0.009328531 -0.011330295
0001f0 8f 99 ae bc 67 fb 39 ba ba d5 08 bd 39 58 f0 bc
       -0.021313457 -0.0007094652 -0.03340695 -0.029338943
000200 13 29 21 bd 16 d2 10 3c 95 fb 82 bc 84 71 9f bc
       -0.039345812 0.008839151 -0.015989104 -0.019463308
000210 73 a5 cd bc 4f f3 13 bc 11 af 9a bc 86 e4 38 3c
       -0.025103306 -0.009030177 -0.018882306 0.011284953
000220 28 40 1f 3a f2 e8 c7 3c e6 ed ed 3b f1 5f c4 ba
       0.00060749287 0.02440307 0.0072610257 -0.0014982206
000230 12 88 cd 3c d0 29 87 3c d3 59 41 3c 1a 97 e3 3c
       0.025089297 0.01649943 0.011801201 0.027782012
000240 d9 dd a3 bb 8f ef 45 3c 7f cb 4c bd a1 41 df bc
       -0.0050008115 0.012081041 -0.049998756 -0.027252974
000250 f3 b7 54 bb 84 34 c2 bb 53 98 db 3b 15 29 2a 3c
       -0.0032458275 -0.0059266705 0.006701508 0.010385771
000260 13 db 02 bd f8 72 52 bb 90 96 02 bc 64 e9 9a 3c
       -0.031947207 -0.0032111984 -0.007970467 0.018910117
000270 53 83 12 bd 1f 20 27 bc dd c4 0f 3c af 40 d0 3c
       -0.03576977 -0.010200529 0.008774963 0.025421469
000280 f3 3c 9e bc f8 af 75 3c 90 01 32 3c 69 7a 33 bd
       -0.019316172 0.0149955675 0.01086463 -0.04381791
000290 45 8a 09 bd f3 cf 80 3b 63 13 12 3d c3 70 68 3c
       -0.03357913 0.0039310395 0.03566302 0.014187041
0002a0 a6 22 34 3b ab b1 fa bb 0e 28 5c bc d4 41 5e 3c
       0.0027486472 -0.007650574 -0.013437284 0.013565499
0002b0 53 00 29 3d 8c be 1a bc 1d 56 b0 bc a7 78 42 bc
       0.041260075 -0.009444844 -0.021525437 -0.011869586
0002c0 d9 ea 2b 3c 26 db 38 3c da 59 31 bc ce 91 aa bb
       0.010493004 0.011282718 -0.010824645 -0.0052053696
0002d0 cb f8 82 bc 19 59 11 3c f6 8e db 3c 6b 43 db 39
       -0.015987774 0.00887134 0.026801568 0.00041821165
0002e0 7a 6f 85 bc 26 94 21 bd be 31 9a 3c 28 22 29 3c
       -0.016288508 -0.039447926 0.018822547 0.010323085
0002f0 d5 61 5a 3b 28 67 dd bc 61 6d 04 3c e5 8d 87 3b
       0.0033322473 -0.027026728 0.008082719 0.004136788
000300 48 8e c0 bc f0 f7 87 3c 87 51 a6 bc a5 19 1a bc
       -0.023505345 0.016597718 -0.020302547 -0.009405528
000310 38 13 96 3a 97 cf e4 bb 2d 87 c0 bb 4e e1 29 3d
       0.001144982 -0.0069827545 -0.005875489 0.041474633
000320 ab 6b a0 3b 04 60 f8 3b 33 4e 75 bc 35 5a 9d bc
       0.0048956475 0.0075798053 -0.014972257 -0.019208053
000330 60 62 92 bc bc 04 06 bc 83 64 f9 3c 88 26 43 bd
       -0.017869174 -0.00817984 0.030443436 -0.04764417
000340 da 62 35 3d 60 e9 eb 3b 24 54 60 bb 41 91 8c bc
       0.044283725 0.0071994513 -0.003422984 -0.017159106
000350 cc 01 1a 3a f4 40 03 3d 5d e0 71 bc 2f 45 b2 3c
       0.00058749015 0.032044366 -0.014762965 0.021761505
000360 7d c3 8e bb c6 3b d3 3c 43 77 9e 3b 00 e6 9d bc
       -0.0043568 0.025785338 0.0048359944 -0.019274712
000370 69 13 d1 3c 87 7e 0e 3d b0 48 aa 3b 1c ba a0 3a
       0.02552195 0.034788635 0.0051966533 0.0012262496
000380 fe 38 18 b9 3d 8e 91 bc 69 6c df 3c 44 4e 31 bc
       -0.00014517081 -0.01776802 0.027273374 -0.010821883
000390 3e 00 ba bb 35 11 14 3d dd 1c 96 3c f4 16 78 bc
       -0.0056762984 0.036149222 0.01832431 -0.015142191
0003a0 40 02 55 bb 7f bb 31 3b ee d3 b0 3c 16 e1 b3 3c
       -0.0032502562 0.0027119813 0.021585431 0.021957915
0003b0 c4 4d 97 bc bc 88 20 bc 3a 26 28 3c 61 cd 30 3c
       -0.018469699 -0.009798225 0.01026302 0.010791154
0003c0 b3 f5 16 3d bf a6 77 3c 77 c5 28 3c f0 78 21 3b
       0.03685541 0.015115439 0.010300986 0.0024638735
0003d0 53 89 0a bc 21 9d 0d bc 82 ef 24 3c 08 04 52 ba
       -0.008455592 -0.0086434195 0.010066869 -0.0008011465
0003e0 70 55 9c bb b4 3c c7 3b 15 3b bc bb 49 76 f0 bb
       -0.004770927 0.0060802344 -0.005744348 -0.0073383194
0003f0 05 b0 44 3d ce 59 89 bc e5 2e d7 3b 6c b0 cf bc
       0.048019428 -0.016766455 0.0065668696 -0.02535268

action_model._continuous_distribution.mu.bias f4 [2]
000000 e7 7d 29 3a c6 b3 a2 ba
       0.0006465599 -0.0012413196

action_model._discrete_distribution.branches.0.weight f4 [5, 128]
000000 94 06 63 bc 0a e2 c2 b9 42 f6 2f 3b 2d 4f b5 bc
       -0.013856549 -0.00037170976 0.0026849662 -0.02213248
000010 d6 67 ad 39 e1 23 84 bb 49 65 c4 ba 5d 4c 1f 3c
       0.00033074495 -0.0040325974 -0.0014983799 0.009722796
000020 46 f5 25 3b d5 16 1d 3c b9 c6 c7 3c 4e ba 41 bd
       0.0025323196 0.009587963 0.02438675 -0.047296815
000030 f5 3f ca 3c 39 b0 9d 3a 8d 78 ed 3b ee 1d db bb
       0.0246887 0.0012030668 0.007247037 -0.0066869175
000040 8c ad c7 bb 0b b4 34 3b ed 62 69 ba ec 71 17 bb
       -0.0060936864 0.0027573134 -0.0008902986 -0.0023108674
000050 93 78 5d bc 30 13 4e bb de 22 5e 3c 0d 0c 1c 3b
       -0.013517517 -0.0031444542 0.013558118 0.0023810894
000060 bb 54 14 bc 4d 6f 5d bc e8 de 36 3c b9 eb 4c 3c
       -0.009053404 -0.013515306 0.011161543 0.012507373
000070 50 ef 8f bc a0 cc 2c bb 6b 0f 96 3c 85 c7 b7 3b
       -0.017570168 -0.0026367083 0.018317899 0.0056085014
000080 c9 26 87 3c 28 e2 96 bc 70 7a 66 bc cd ae 51 bb
       0.016497986 -0.018418387 -0.014067277 -0.0031995059
000090 53 7c 24 3c b7 d4 c0 3a 98 1b 10 bc 33 c2 38 3c
       0.010039407 0.0014711831 -0.008795641 0.011276769
0000a0 79 8b bf bc d3 25 f0 bb a6 79 d8 3b c8 9c 80 bc
       -0.023381935 -0.0073287277 0.0066062985 -0.01569976
0000b0 07 b6 44 bc b1 e1 35 3b 84 95 29 3c 6c 01 d2 bc
       -0.012006289 0.002775293 0.010350589 -0.025635444
0000c0 2b a0 09 bc 47 69 28 bc 82 5c 23 bb 74 66 06 bc
       -0.008400003 -0.010279006 -0.0024926965 -0.008203138
0000d0 4b 6a 64 3c b9 e4 8a bb ce d4 12 3a 3d ef 74 bc
       0.013941358 -0.0042386916 0.00056011684 -0.014949617
0000e0 c9 d7 00 3b b3 47 a6 3c 4a c7 08 3c 71 64 0b bc
       0.0019659868 0.02029786 0.008348295 -0.008507834
0000f0 8e 1e 2f bc b2 fc b0 bb 9f 38 63 3c 29 cd 0f bd
       -0.010688437 -0.0054012174 0.01386848 -0.035107765
000100 86 ca e9 ba 79 14 b3 3a 34 b1 2b 3a 3b 42 95 bb
       -0.0017836846 0.0013662718 0.00065495376 -0.0045550144
000110 e7 e4 0f 3d a8 19 b5 ba a3 f6 3b bb 97 a3 5a bc
       0.035130408 -0.001381685 -0.0028680942 -0.013344667
000120 10 f3 00 3c 42 d0 33 3c fa 59 e6 3a 8c d3 1e bc
       0.007870451 0.0109749455 0.0017574423 -0.009693991
000130 72 e2 22 ba 7d 73 a7 3c 26 d7 a2 3c 60 96 97 bc
       -0.00062135526 0.020440811 0.019877981 -0.018504322
000140 9b 83 14 bc 45 70 ac bb d3 4c dd bc 82 57 82 3c
       -0.00906458 -0.005262407 -0.027014172 0.015910868
000150 25 48 89 3c 3b bb 1f 3b 08 66 91 3a bd ea d9 bb
       0.016758034 0.0024373073 0.001109303 -0.0066502974
000160 e9 e5 9b bc 84 81 4c bc 06 24 fe ba 18 ee 3d 3c
       -0.019030528 -0.012482051 -0.0019389398 0.0115924105
000170 35 1c ad 3c 49 86 39 bc 5c e6 b0 3c 43 07 0b 3d
       0.021131614 -0.01132352 0.021594219 0.033942472
000180 6a 35 e5 3b b9 4a 29 3c 41 93 09 bc 7c 91 43 bc
       0.006994893 0.010332757 -0.0083969245 -0.011936542
000190 1a 4f 55 bc ff 08 22 3c 6a 37 8e b9 79 69 23 bd
       -0.013019348 0.00988984 -0.00027125637 -0.03989551
0001a0 65 99 43 bc a0 0d 84 3c fc 50 59 3b 66 a1 77 bc
       -0.011938428 0.016119778 0.0033159843 -0.015114164
0001b0 9b 44 1b bc 16 5e 0f bd 16 c1 6f 3c d5 40 87 bc
       -0.009476806 -0.035001837 0.014633438 -0.016510407
0001c0 e1 97 ab 3b 49 f9 e4 bc 31 a4 df 3b d9 14 d9 bb
       0.0052366112 -0.0279509 0.006824993 -0.0066247997
0001d0 b2 2a c3 bc b5 16 b4 bc ed 50 e5 3c ef 02 3e 3b
       -0.02382407 -0.021983484 0.02799269 0.0028993448
0001e0 e9 cb 86 bc db 24 21 bc c0 56 ab bc 9a e0 87 bc
       -0.016454654 -0.009835447 -0.020915389 -0.01658659
0001f0 8a a2 d7 3a c3 c0 98 39 84 78 3c bc 1e 62 af bb
       0.0016451639 0.00029135318 -0.011503343 -0.0053522727
000200 6a 16 67 3b 4e cc 16 3c 54 67 51 b9 0e 1a ad bb
       0.0035261163 0.0092039835 -0.00019970286 -0.005282647
000210 79 95 54 bb af fc 99 bb 84 38 3d 3c 13 e4 9c 3b
       -0.0032437725 -0.0046993117 0.011549119 0.0047879308
000220 d8 78 22 3c ff 59 b3 ba 87 7c a1 ba ec 1c c1 3c
       0.009916507 -0.0013683437 -0.0012320437 0.023573361
000230 58 a2 cd b6 ee 36 cd 3b de 07 5d bc 08 2d b7 bb
       -6.1283754e-06 0.0062626516 -0.013490645 -0.005590085
000240 38 94 67 bb e5 00 39 bb 1f 36 e7 3a 9b 5a 34 bb
       -0.0035336148 -0.0028229293 0.0017640031 -0.0027519825
000250 90 45 64 3b 9b 29 7b 3b 53 68 93 bb 21 0c 10 3b
       0.0034831502 0.003832436 -0.0044985204 0.0021979886
000260 b5 23 39 bc 27 fd 05 3c d9 ad 5a bb f7 79 b3 bb
       -0.011300017 0.008178032 -0.0033367781 -0.005477186
000270 99 e7 96 3b 66 7f 65 bb 1b 59 45 3b 94 e4 b4 ba
       0.0046052453 -0.0035018562 0.0030112925 -0.0013801032
000280 c6 af ee bb 23 de be 39 39 e4 aa 3c 4a 71 74 3b
       -0.0072841374 0.0003640513 0.020860778 0.003729897
000290 1d b4 00 3c e5 e0 a1 bc 1f f7 64 3c 00 31 82 3c
       0.007855442 -0.019760558 0.013974934 0.015892506
0002a0 3e 2b 59 3c 0f be 26 3c 62 8f be bb eb a6 6e 3c
       0.013254939 0.010177149 -0.0058154324 0.0145661635
0002b0 83 44 2c 3c 81 f6 4b 3c c1 eb dd ba 2d dd 1a bb
       0.010514381 0.012448908 -0.0016931222 -0.0023630366
0002c0 cf a9 c6 bc a3 c3 51 3c 22 fe c6 3a ff ae b7 ba
       -0.024250893 0.012802991 0.0015181939 -0.0014013945
0002d0 38 66 cc bb ae 40 32 3c 14 71 2f bc ec f8 a1 bb
       -0.0062377714 0.010879679 -0.010708112 -0.004943004
0002e0 aa 16 a4 ba 80 f4 84 39 71 fe b6 3c 7f a5 46 ba
       -0.0012518961 0.0002535917 0.022338124 -0.00075777614
0002f0 40 c0 ce b7 61 bf 84 3a d0 06 c5 bc ca 00 a9 3c
       -2.4646637e-05 0.0010127836 -0.0240511 0.020630259
000300 24 4b a4 bb 59 ae 94 ba 1b 4e 98 ba 57 7d 25 3a
       -0.0050138403 -0.0011343464 -0.0011619957 0.00063129276
000310 4f e4 e9 bc c0 ec 1a bc 84 eb 84 3c 27 d4 4b bc
       -0.028551249 -0.00945586 0.016225584 -0.012440718
000320 c8 95 ad bb ee d8 68 3c 6a 5e eb 3b f4 e8 6f bc
       -0.0052973963 0.014211876 0.007182886 -0.014642943
000330 bf 8d 50 bc 21 04 ac bc 29 00 33 bc 5a e7 27 3c
       -0.012729107 -0.020998063 -0.010925331 0.01024803
000340 2c a2 37 bc 1f 90 9d bb a6 2a d3 bc cf 06 b2 38
       -0.011208098 -0.0048084403 -0.025777172 8.4889696e-05
000350 8b b0 64 3c 21 92 08 bc b5 f9 8f bb 21 84 e6 3a
       0.013958107 -0.008335621 -0.004393781 0.0017586985
000360 39 a1 78 3c 95 c8 42 3c c5 32 31 bc af bd cf 3b
       0.015175157 0.011888643 -0.010815327 0.0063397507
000370 59 fd 0d bb b9 f3 72 bc 16 54 f5 3b 44 a4 81 bb
       -0.00216659 -0.014828616 0.0074868305 -0.0039563496
000380 4d c4 16 3a 9f 0f 4c bb dc 05 db bb af d8 26 3c
       0.0005751297 -0.003113724 -0.006684048 0.010183497
000390 18 ee f4 3b ab cb 99 bb 83 45 43 bc 05 17 98 3c
       0.007474672 -0.0046934686 -0.011918428 0.018565664
0003a0 1e 6e ad bc 81 63 9c bb ad 25 db 3b ba 1c 93 3b
       -0.021170672 -0.004772604 0.006687841 0.0044895085
0003b0 e9 09 9b bc 58 f9 8b bc 75 bb 56 3b 13 76 08 3c
       -0.018925624 -0.01708667 0.0032765542 0.008328932
0003c0 28 e0 23 3c 3f eb 13 bb bc d7 d5 ba 4e 1e 05 3b
       0.0100021735 -0.0022570638 -0.0016314904 0.0020312252
0003d0 76 c1 09 3c a7 fd 6e bc d1 c0 08 bc 60 a1 80 3b
       0.008407941 -0.014586843 -0.008346752 0.0039254874
0003e0 1b 6b 78 bc 40 e7 ea 3b 55 93 59 bb b3 b7 98 ba
       -0.015162255 0.0071686804 -0.003319939 -0.0011651426
0003f0 9b 3e 09 3b dc 63 19 bb 3a f4 e9 ba 73 0b 8f 3c
       0.0020941857 -0.0023405468 -0.0017849274 0.017461514

action_model._discrete_distribution.branches.0.bias f4 [5]
000000 ed e5 4c bc cd 40 14 3b 69 13 30 bb 65 78 63 3c
       -0.01250599 0.0022621632 -0.0026867038 0.013883685
000010 89 89 2b bc
       -0.010469803

exp_avg f4 [128, 15]
000000 f6 d3 72 b9 06 53 a7 b7 ac b2 1f b9 48 a2 49 38
       -0.0002315788 -1.9946612e-05 -0.00015229982 4.807327e-05
000010 60 cf 19 b9 b5 db 84 b8 5b 74 fa b8 d4 c6 81 37
       -0.0001466847 -6.335174e-05 -0.00011942602 1.5470585e-05
000020 60 5f 5c b8 46 5c 63 b8 a0 4b 60 39 52 5a b5 38
       -5.2540912e-05 -5.4206954e-05 0.00021390477 8.647576e-05
000030 ee 53 ab 37 18 28 9f 37 a8 15 6b 35 30 81 4e b7
       2.0423871e-05 1.8972947e-05 8.7575836e-07 -1.2308636e-05
000040 52 0f 86 b8 1d 84 0f b8 80 0d b5 b4 9a c3 2f b8
       -6.3924716e-05 -3.4216897e-05 -3.37237e-07 -4.190542e-05
000050 c8 ef 09 b8 73 a2 18 b8 e0 a8 bb b8 34 93 31 b8
       -3.288666e-05 -3.6390917e-05 -8.94831e-05 -4.2337182e-05
000060 bc 62 c2 b6 8e b1 39 b9 63 4c 34 38 2d 9b ea b7
       -5.7931447e-06 -0.00017709119 4.2986485e-05 -2.7967233e-05
000070 33 dc 6d b8 fa 93 49 b6 96 09 9c 37 be 0b cb 36
       -5.671028e-05 -3.0037468e-06 1.8601113e-05 6.0512384e-06
000080 ec 01 47 35 35 3c 85 b7 28 97 d6 36 10 b3 29 b6
       7.4136074e-07 -1.5882872e-05 6.395294e-06 -2.528719e-06
000090 b4 dc 4b b7 51 02 0a b8 96 a5 bd 37 84 31 ac 36
       -1.2151129e-05 -3.290392e-05 2.2607663e-05 5.131764e-06
0000a0 a6 c2 91 38 55 41 a4 37 96 96 01 36 29 90 99 36
       6.950395e-05 1.9580746e-05 1.931015e-06 4.576538e-06
0000b0 25 29 88 32 7c 89 3e 38 c8 fa 5e 37 fe 8b 98 37
       1.5851194e-08 4.5427572e-05 1.3290621e-05 1.8185001e-05
0000c0 92 8b 3a b8 0c 51 63 38 80 52 d2 b6 7c 0d ed 37
       -4.447584e-05 5.41965e-05 -6.268092e-06 2.825888e-05
0000d0 ce 69 6e b8 45 b7 49 38 4f 2d bb 37 b8 3f af 37
       -5.684216e-05 4.8092817e-05 2.2313236e-05 2.0891297e-05
0000e0 7e fe 36 38 58 fd 0a 34 e6 67 f6 35 e7 a5 46 32
       4.3629196e-05 1.2944417e-07 1.8358667e-06 1.1562839e-08
0000f0 b0 80 9a b7 40 a3 e7 34 d4 04 98 36 18 67 82 36
       -1.8418155e-05 4.3145883e-07 4.530515e-06 3.8863036e-06
000100 76 01 7e b7 31 9b 0c b7 70 bf aa 35 35 fc d3 b6
       -1.513992e-05 -8.380784e-06 1.2721703e-06 -6.317651e-06
000110 30 19 32 b6 b4 37 ed b6 29 02 61 b7 54 fa 91 37
       -2.6538728e-06 -7.069635e-06 -1.3411548e-05 1.7401915e-05
000120 56 99 87 37 e2 81 38 b6 50 87 ab 33 b3 0c 85 39
       1.6164657e-05 -2.7493738e-06 7.987421e-08 0.00025377198
000130 c4 7c ec 37 b4 c5 a2 36 12 bf 60 b8 1a 31 c3 38
       2.819149e-05 4.850992e-06 -5.358371e-05 9.3074705e-05
000140 6d 65 43 b7 dd 50 0e 36 8d eb a4 37 ee 1c 22 b8
       -1.1646521e-05 2.1206718e-06 1.966001e-05 -3.8650753e-05
000150 8a 3a 6d b8 d5 36 81 38 4b c9 aa b8 ed c7 ad 38
       -5.6559722e-05 6.1614126e-05 -8.1437254e-05 8.286522e-05
000160 b6 8f b6 37 5b c8 13 b5 1d 00 ac b9 de 56 ad b7
       2.1763011e-05 -5.5053323e-07 -0.0003280648 -2.0663658e-05
000170 c2 a1 7a b8 d7 b4 16 37 58 b9 91 37 3a 4d d8 b8
       -5.9755293e-05 8.982802e-06 1.7371654e-05 -0.00010314067
000180 7d 9f 26 38 59 b9 94 37 bc 58 ec b7 e2 03 29 b8
       3.972602e-05 1.7729284e-05 -2.8174712e-05 -4.0296356e-05
000190 10 d7 5c b8 38 3a 6d 35 f4 a5 3c b8 58 94 0b b8
       -5.265238e-05 8.83741e-07 -4.497725e-05 -3.327834e-05
0001a0 bf b2 32 b6 e4 9d 2f b7 a1 22 e7 37 08 46 5b b6
       -2.662811e-06 -1.0467575e-05 2.7553471e-05 -3.2674307e-06
0001b0 16 f3 ba 35 56 46 9c b7 b6 71 21 37 a6 a7 4c b7
       1.3928827e-06 -1.8629402e-05 9.622823e-06 -1.2198381e-05
0001c0 3c 48 05 38 51 f8 0f 38 b8 00 a6 37 37 3b 82 38
       3.1776945e-05 3.432512e-05 1.9789077e-05 6.209913e-05
0001d0 15 c1 ac b7 a6 36 0e 38 00 b3 89 b5 ec 76 a0 b5
       -2.0593909e-05 3.3906334e-05 -1.0259391e-06 -1.195554e-06
0001e0 b0 ee 01 37 4a e8 37 b7 d7 01 02 38 16 c4 33 37
       7.744573e-06 -1.0961734e-05 3.099613e-05 1.0714886e-05
0001f0 cc 8c b9 38 b1 c2 54 b7 e0 60 ac 38 ee 10 a9 b6
       8.847713e-05 -1.2681515e-05 8.2196435e-05 -5.0385634e-06
000200 e2 ec 36 39 53 6a 49 38 04 b8 0e b8 72 e1 56 b8
       0.00017445118 4.8021157e-05 -3.4026816e-05 -5.123154e-05
000210 d2 f7 a9 36 f1 b1 0a b6 28 15 4d b6 5f 9b f8 b8
       5.0654426e-06 -2.0667178e-06 -3.0559695e-06 -0.00011854502
000220 69 a0 27 b8 43 d4 00 b7 8e 95 0c b8 a8 c9 1d b8
       -3.9965296e-05 -7.678816e-06 -3.3517885e-05 -3.7619524e-05
000230 0d dd a2 b8 84 9a 72 b8 80 36 84 33 76 76 9b b8
       -7.765936e-05 -5.78412e-05 6.1566425e-08 -7.413041e-05
000240 82 74 6b b7 d2 fa 2f b8 fe 70 3b 38 29 ea c8 b7
       -1.4034218e-05 -4.1956846e-05 4.4689506e-05 -2.3950897e-05
000250 4e 46 b5 36 1b 36 33 b6 b4 54 50 ba 0b c6 17 b9
       5.402405e-06 -2.6704572e-06 -0.0007947192 -0.00014474259
000260 00 9d 02 35 a9 e7 35 b8 02 e3 13 b9 fd 9a b2 39
       4.865724e-07 -4.3369513e-05 -0.0001410358 0.0003406628
000270 18 47 44 b9 ce 66 a9 b8 9d 2f e3 b9 b5 67 cd 38
       -0.00018718501 -8.077697e-05 -0.0004333229 9.794479e-05
000280 94 cc 56 b9 7f 57 ff b8 82 a0 b1 b6 2e a2 fc b7
       -0.00020484842 -0.00012175645 -5.2936966e-06 -3.0116262e-05
000290 95 91 8a 35 c0 5e 06 3a d4 c2 4f 38 3c e6 2f 38
       1.0324171e-06 0.0005125813 4.9534094e-05 4.1937674e-05
0002a0 03 df 47 b7 e8 e3 63 38 0a 91 14 39 a0 29 70 38
       -1.1913248e-05 5.433327e-05 0.00014168411 5.7259225e-05
0002b0 a8 51 a9 38 54 c2 69 38 46 45 e6 b8 c6 1a cb b8
       8.0737576e-05 5.573251e-05 -0.00010980158 -9.684781e-05
0002c0 1e c3 ee b8 48 15 d0 38 22 cb 14 b7 2d a9 ae b5
       -0.00011385068 9.922177e-05 -8.868783e-06 -1.3013247e-06
0002d0 86 6b b3 b9 b3 e7 45 b8 02 9e ae 37 ba 9b 0c b7
       -0.00034221652 -4.7184247e-05 2.0815995e-05 -8.380908e-06
0002e0 97 5a 29 b8 46 68 32 38 a4 5a 88 b9 88 c2 0c 36
       -4.037711e-05 4.253562e-05 -0.00026007474 2.0974858e-06
0002f0 97 a0 1f b9 d0 7a ab 38 61 7a cc b8 41 0a 2e b8
       -0.00015223246 8.176791e-05 -9.750273e-05 -4.1494382e-05
000300 bf 5b 0f 37 0c c4 6f 38 73 f9 6e 36 83 3a 9c 3a
       8.5448255e-06 5.7164623e-05 3.5609962e-06 0.0011919293
000310 b0 14 dd 38 3c 3b 74 39 e0 c8 d0 36 06 9b 7b 39
       0.000105419545 0.0002329172 6.222268e-06 0.00023994976
000320 f8 56 30 39 33 fc 91 39 be 3b ef 37 84 f6 96 38
       0.00016817066 0.00027844458 2.851884e-05 7.1984745e-05
000330 08 72 85 38 54 9f 53 39 36 5b 2f b8 39 f3 41 39
       6.363174e-05 0.00020181882 -4.1808198e-05 0.00018496522
000340 ce 70 3c 38 60 b7 fe 35 1c 00 00 b8 9b 9c 50 b8
       4.492775e-05 1.8977844e-06 -3.051768e-05 -4.9736915e-05
000350 97 b2 b8 b8 a0 bd cf 38 4e 26 a5 38 6a 85 ad b8
       -8.807069e-05 9.9058496e-05 7.874948e-05 -8.274133e-05
000360 20 41 c9 38 71 d9 98 b8 5c 36 a8 38 88 3c a2 37
       9.596557e-05 -7.2884264e-05 8.0209895e-05 1.9340092e-05
000370 8c 38 f1 b8 e8 bf 9b b5 fd 7b 31 b8 ee 14 95 b8
       -0.00011502308 -1.1604252e-06 -4.231556e-05 -7.108772e-05
000380 30 0d 78 b6 16 ac 9c 38 6a 05 56 38 a3 e4 0f b8
       -3.6962556e-06 7.470713e-05 5.1026618e-05 -3.430679e-05
000390 b7 71 da 38 e6 3d 99 38 e4 4f 89 37 74 a6 df 38
       0.00010416231 7.307138e-05 1.6368875e-05 0.00010664473
0003a0 80 b3 b4 37 44 e3 92 38 1a b1 26 b8 ba 6e 33 b8
       2.1541258e-05 7.004154e-05 -3.9742423e-05 -4.2780048e-05
0003b0 42 d3 10 b8 a5 9a 4c b7 20 7e b8 37 f8 b0 c4 b2
       -3.4529025e-05 -1.21953535e-05 2.199324e-05 -2.289788e-08
0003c0 c7 ee a7 39 d4 ba 5c 38 99 90 82 39 0a 1f 6d b7
       0.00032030625 5.2626085e-05 0.00024903266 -1.4133528e-05
0003d0 ff f1 1b 39 fd 33 5d b8 bb dc 62 39 a0 49 d3 38
       0.00014872102 -5.2738924e-05 0.00021635268 0.00010074978
0003e0 3c b7 87 b8 8c 10 98 b8 db 03 7c 39 7c ce 13 b8
       -6.471432e-05 -7.251007e-05 0.00024034029 -3.5239835e-05
0003f0 9f a4 d6 38 2c c3 c3 38 b0 23 5c 36 78 79 7b 39
       0.00010234978 9.334678e-05 3.2803327e-06 0.00023982476
