results/Run2/PlayerRL/PlayerRL-529.pt (torch, 162134 bytes, 14 tensors)

network_body._body_endoder.seq_layers.0.weight f4 [128, 15]
0	0xbddb3f5d	-0.10705445
1	0x3e5b79fc	0.21433252
2	0xbdb933d7	-0.09043091
3	0xbe87b63d	-0.26506224
4	0xbe8427f4	-0.25811732
5	0x3e874754	0.26421607
6	0xbe04d921	-0.12973453
7	0x3d9035b4	0.07041493
8	0x3e301542	0.17195609
9	0x3e09ff6e	0.13476345
10	0x3d44345e	0.047901504
11	0xbb589f57	-0.0033053958
12	0xbdcc28b5	-0.09968702
13	0x3e9d3748	0.3070624
14	0x3e1202f8	0.14258945
15	0xbbd21d19	-0.00641216
16	0x3d776c44	0.060405985
17	0xbe8a5923	-0.2702113
18	0x3e4b9b70	0.19883513
19	0x3d6d626b	0.057955187
20	0xbe39a3bf	-0.1812887
21	0xbe8de249	-0.27711704
22	0xbe66ee18	-0.22551763
23	0xbe079169	-0.13239063
24	0x3e8ee686	0.2791025
25	0x3e0b5caf	0.13609575
26	0xbef4d86d	-0.4782137
27	0x3f06a143	0.52589816
28	0xbeb44ff1	-0.3521724
29	0x3d9d8926	0.076921746
30	0x3ea8ddb0	0.32981634
31	0x3e0d868e	0.1382086
32	0xbd559688	-0.05214551
33	0x3c96029a	0.018311787
34	0xbec3cb5d	-0.3824109
35	0x3dfcc91e	0.123430476
36	0xbe3736dc	-0.17892021
37	0xbe2ff551	-0.17183425
38	0x3d844f07	0.06460386
39	0xbdc37cfa	-0.09545322
40	0xbdf8e667	-0.12153321
41	0xbe924291	-0.2856641
42	0x3e82b791	0.25530675
43	0x3eb938c0	0.3617611
44	0xbddd150d	-0.10795031
45	0xbcd3961b	-0.025828412
46	0x3dbeb617	0.09312075
47	0xbef61874	-0.4806553
48	0xbe06e64b	-0.13173787
49	0xbe0587fb	-0.13040154
50	0xbdf1997a	-0.117968515
51	0xbe6b5455	-0.22981389
52	0xbe9cc72f	-0.30620715
53	0x3d8c94d2	0.06864323
54	0x3d8174f6	0.06321137
55	0xbe00a410	-0.12562585
56	0x3d5bc62f	0.0536558
57	0xbd4347b1	-0.047675792
58	0xbca3d9cc	-0.020001315
59	0xbe14ed43	-0.14543633
60	0xbe4c425b	-0.19947188
61	0xbe5da615	-0.21645387
62	0x3ee5f300	0.44911957
63	0x3d487c06	0.048946403
64	0x3ef31ef4	0.47484553
65	0xbeea70f1	-0.45789292
66	0xbdbe61bd	-0.09295986
67	0xbe9190eb	-0.28430876
68	0x3e4fc6a4	0.20290619
69	0x3e9f6de7	0.31138536
70	0xbef5656e	-0.47928947
71	0xbe97b9b0	-0.29633856
72	0xbd7498ad	-0.059715915
73	0xbd426532	-0.04745979
74	0xbe3a9dcb	-0.18224256
75	0xbe8f338c	-0.27969015
76	0x3d9da7c3	0.07698014
77	0x3ec18d61	0.37803176
78	0x3c0c470d	0.008561862
79	0xbe4bb966	-0.19894943
80	0xbdb49de2	-0.08819176
81	0xbe829c6b	-0.25509962
82	0x3e88a5c6	0.26688975
83	0xbe413a41	-0.18869878
84	0x3eaafa85	0.33394256
85	0xbd37423b	-0.044740897
86	0x3ec17a72	0.3778873
87	0xbe95ccf2	-0.29257923
88	0xbc11bc20	-0.00889495
89	0x3d50b090	0.050949633
90	0xbef5255d	-0.47880068
91	0xbc1e0594	-0.009644885
92	0xbe2425a9	-0.16029991
93	0x3bcf01e4	0.006317364
94	0xbedc74a0	-0.43057728
95	0xbe89fef2	-0.2695232
96	0x3d21d24b	0.03950719
97	0xbc2e0d61	-0.010623307
98	0x3ac45af0	0.0014980715
99	0x3db583e3	0.08863046
100	0xbc0e8084	-0.008697633
101	0xbd4c1a5c	-0.049829826
102	0x3f027332	0.50957024
103	0x3e9eefe2	0.3104239
104	0xbdf64022	-0.12023951
105	0x3da25d8a	0.079279974
106	0x3e9a8f52	0.3018747
107	0x3bc1150e	0.0058924025
108	0x3dde06c7	0.108411364
109	0xbe63ffa8	-0.22265494
110	0xbee41bf0	-0.44552565
111	0xbe447174	-0.19183904
112	0xbf51d864	-0.8197081
113	0x3e203330	0.15644526
114	0x3bdb1b29	0.0066865874
115	0xbeb35db3	-0.35032424
116	0xbd514dcf	-0.051099595
117	0xbe1ae584	-0.15126616
118	0xbe05965a	-0.13045636
119	0xbe3bbf35	-0.18334658
120	0xbe1d7281	-0.15375711
121	0xbe961a3a	-0.29316884
122	0x3de383ff	0.11109161
123	0x3ea3e33e	0.3200931
124	0xbe49a23c	-0.19690794
125	0xbe813cfc	-0.2524184
126	0xbddcc08b	-0.10778912
127	0xbe6df074	-0.23236257
128	0x3e1df8b6	0.15426907
129	0xbdc0efad	-0.094207145
130	0xbe89221d	-0.2678384
131	0x3d628970	0.055306852
132	0x3d251072	0.040298887
133	0x3e711ec7	0.23546897
134	0x3e11995e	0.14218661
135	0x3e889655	0.26677194
136	0x3e861e9f	0.26195237
137	0x3e8ee632	0.2791
138	0xbc673e9b	-0.014114047
139	0xbe8a1962	-0.2697249
140	0x3d92143d	0.071327664
141	0xbc6e369e	-0.014539389
142	0xbdb1eeae	-0.08688103
143	0x3de0d82e	0.10978733
144	0xbf3f3073	-0.746833
145	0x3df6497c	0.12025735
146	0xbd9151b8	-0.07095665
147	0xbef17d9c	-0.47166145
148	0xbe3a2f72	-0.18182161
149	0x3e41bf44	0.18920618
150	0xbe7ac59c	-0.24489444
151	0x3f02389a	0.5086762
152	0xbc34bf6f	-0.011031969
153	0x3e3e150b	0.18562715
154	0xbead4bd0	-0.33846903
155	0x3ed11033	0.40832672
156	0x3cd673e2	0.026178304
157	0x3c63f533	0.0139134405
158	0xbe6007ee	-0.21878025
159	0x3e22c598	0.15895689
160	0x3e44d9a4	0.19223648
161	0xbea47104	-0.32117474
162	0xbed58b63	-0.41707906
163	0x3d30683d	0.04306816
164	0x3dae467f	0.0850954
165	0x3dda2a61	0.106526144
166	0x3ef626bf	0.48076436
167	0xbd32415b	-0.04351936
168	0x3e5c527b	0.21515839
169	0xbe52ca7f	-0.20585059
170	0x3c103252	0.00880106
171	0xbeab8730	-0.33501577
172	0xbec8799e	-0.39155287
173	0x3d15a17a	0.03653095
174	0x3ef9ceec	0.4879068
175	0xbd93ccd7	-0.072168045
176	0x3deb3cae	0.11486183
177	0xbeb66d88	-0.3563044
178	0xbe90a707	-0.28252432
179	0xbe85bfa0	-0.2612276
180	0xbe037a64	-0.12839657
181	0x3ec0a18b	0.37623248
182	0x3cab9279	0.020943867
183	0xbe3d091e	-0.18460509
184	0x3e42233d	0.18958755
185	0x3e975a0a	0.29560882
186	0xbd62dcf2	-0.05538649
187	0xbe169d49	-0.14708437
188	0x3d2ced66	0.04221859
189	0xbed99d84	-0.42502987
190	0x3eba5b10	0.363976
191	0x3e5762e2	0.21033815
192	0x3e31baca	0.1735641
193	0x3d17f313	0.037097048
194	0xbef837bc	-0.48480022
195	0x3d88aa2d	0.066730835
196	0xbf232378	-0.63725996
197	0xbda14e6f	-0.07876288
198	0x3ea2d585	0.31803527
199	0xbe8fc2fa	-0.28078443
200	0xbd1cb611	-0.03825957
201	0xbedde5ac	-0.43339288
202	0x3d80d669	0.062908955
203	0xbec94ce8	-0.39316487
204	0xbebe8967	-0.37214205
205	0x3e22c12f	0.15894006
206	0x3d9d892e	0.076921806
207	0x3df2a3fe	0.11847685
208	0x3e4581de	0.19287822
209	0xbe9f833b	-0.31154808
210	0x3ec28e34	0.37999117
211	0xbe1f622c	-0.15564793
212	0x3dce0bfa	0.10060878
213	0x3ddcf28d	0.107884504
214	0x3e0f320e	0.13983938
215	0x3dedf48f	0.116189115
216	0x3dfad2a5	0.122472085
217	0xbe384216	-0.1799396
218	0x3e710eda	0.23540822
219	0x3da07973	0.078356646
220	0x3d83c081	0.064332016
221	0xbe4537bd	-0.19259544
222	0xbe540b4a	-0.20707431
223	0xbea3408d	-0.31885186
224	0xbdb3e3c6	-0.08783679
225	0x3c82c111	0.015961202
226	0x3dac706a	0.08419879
227	0x3ee93cab	0.45554098
228	0xbd1d4cac	-0.038403198
229	0xbd244d5c	-0.04011284
230	0x3ee75b46	0.45186824
231	0xbe907859	-0.28216818
232	0x3d911551	0.07084144
233	0x3e9f366e	0.31096214
234	0xbeb2e485	-0.34939972
235	0x3dec62fe	0.11542319
236	0xbc9f356c	-0.019434653
237	0x3e87c5d8	0.2651813
238	0xbd4564a0	-0.048191667
239	0x3e80ec96	0.251805
240	0x3d8cb268	0.06869966
241	0x3eba7f07	0.3642504
242	0xbf0f59a9	-0.55996186
243	0xbe2fef00	-0.17181015
244	0x3f184151	0.59474665
245	0xbe4fc2be	-0.20289132
246	0xbdc41114	-0.0957357
247	0xbe33192c	-0.17490071
248	0xbe96180a	-0.29315215
249	0xbd34e48d	-0.044163276
250	0x3deaba51	0.11461318
251	0xbe90fbbc	-0.28317058
252	0xbde58046	-0.11206107
253	0x3daccea9	0.08437855
254	0xbe7182c9	-0.23585047
255	0xbeee985c	-0.46600616

network_body._body_endoder.seq_layers.0.bias f4 [128]
0	0x00000000	0.0
1	0x00000000	0.0
2	0x00000000	0.0
3	0x00000000	0.0
4	0x00000000	0.0
5	0x00000000	0.0
6	0x00000000	0.0
7	0x00000000	0.0
8	0x00000000	0.0
9	0x00000000	0.0
10	0x00000000	0.0
11	0x00000000	0.0
12	0x00000000	0.0
13	0x00000000	0.0
14	0x00000000	0.0
15	0x00000000	0.0
16	0x00000000	0.0
17	0x00000000	0.0
18	0x00000000	0.0
19	0x00000000	0.0
20	0x00000000	0.0
21	0x00000000	0.0
22	0x00000000	0.0
23	0x00000000	0.0
24	0x00000000	0.0
25	0x00000000	0.0
26	0x00000000	0.0
27	0x00000000	0.0
28	0x00000000	0.0
29	0x00000000	0.0
30	0x00000000	0.0
31	0x00000000	0.0
32	0x00000000	0.0
33	0x00000000	0.0
34	0x00000000	0.0
35	0x00000000	0.0
36	0x00000000	0.0
37	0x00000000	0.0
38	0x00000000	0.0
39	0x00000000	0.0
40	0x00000000	0.0
41	0x00000000	0.0
42	0x00000000	0.0
43	0x00000000	0.0
44	0x00000000	0.0
45	0x00000000	0.0
46	0x00000000	0.0
47	0x00000000	0.0
48	0x00000000	0.0
49	0x00000000	0.0
50	0x00000000	0.0
51	0x00000000	0.0
52	0x00000000	0.0
53	0x00000000	0.0
54	0x00000000	0.0
55	0x00000000	0.0
56	0x00000000	0.0
57	0x00000000	0.0
58	0x00000000	0.0
59	0x00000000	0.0
60	0x00000000	0.0
61	0x00000000	0.0
62	0x00000000	0.0
63	0x00000000	0.0
64	0x00000000	0.0
65	0x00000000	0.0
66	0x00000000	0.0
67	0x00000000	0.0
68	0x00000000	0.0
69	0x00000000	0.0
70	0x00000000	0.0
71	0x00000000	0.0
72	0x00000000	0.0
73	0x00000000	0.0
74	0x00000000	0.0
75	0x00000000	0.0
76	0x00000000	0.0
77	0x00000000	0.0
78	0x00000000	0.0
79	0x00000000	0.0
80	0x00000000	0.0
81	0x00000000	0.0
82	0x00000000	0.0
83	0x00000000	0.0
84	0x00000000	0.0
85	0x00000000	0.0
86	0x00000000	0.0
87	0x00000000	0.0
88	0x00000000	0.0
89	0x00000000	0.0
90	0x00000000	0.0
91	0x00000000	0.0
92	0x00000000	0.0
93	0x00000000	0.0
94	0x00000000	0.0
95	0x00000000	0.0
96	0x00000000	0.0
97	0x00000000	0.0
98	0x00000000	0.0
99	0x00000000	0.0
100	0x00000000	0.0
101	0x00000000	0.0
102	0x00000000	0.0
103	0x00000000	0.0
104	0x00000000	0.0
105	0x00000000	0.0
106	0x00000000	0.0
107	0x00000000	0.0
108	0x00000000	0.0
109	0x00000000	0.0
110	0x00000000	0.0
111	0x00000000	0.0
112	0x00000000	0.0
113	0x00000000	0.0
114	0x00000000	0.0
115	0x00000000	0.0
116	0x00000000	0.0
117	0x00000000	0.0
118	0x00000000	0.0
119	0x00000000	0.0
120	0x00000000	0.0
121	0x00000000	0.0
122	0x00000000	0.0
123	0x00000000	0.0
124	0x00000000	0.0
125	0x00000000	0.0
126	0x00000000	0.0
127	0x00000000	0.0

network_body._body_endoder.seq_layers.2.weight f4 [128, 128]
0	0x3c3bda31	0.011465595
1	0xbdd4dcb4	-0.10393658
2	0xbd4e9485	-0.050434608
3	0x3da0771d	0.07835219
4	0xbc7a8b84	-0.015292052
5	0xbe184a3b	-0.14872067
6	0x39bf950f	0.00036541416
7	0x3c47d653	0.012197095
8	0x3d9d2bbe	0.07674359
9	0x3c3247da	0.010881389
10	0x3dac7b62	0.08421971
11	0xbd68c119	-0.056824777
12	0x3cc0d94e	0.023541119
13	0xbda5e0a3	-0.08099487
14	0x3e0891ee	0.13336918
15	0xbd46cd6e	-0.048535757
16	0x3d5a3878	0.05327651
17	0x3c8628de	0.016376909
18	0x3cb58455	0.022157827
19	0x3d9cffac	0.07665953
20	0x3dd5fccd	0.104486085
21	0x3db2b96a	0.08726771
22	0xbd10e6f9	-0.035376523
23	0x3dbbbc17	0.09166735
24	0xbcb858b4	-0.022503234
25	0xbcfe1a8b	-0.031018516
26	0x3ca10cb9	0.019659387
27	0xbce3794c	-0.0277678
28	0xbe417011	-0.18890406
29	0xbc97152c	-0.018442713
30	0xbe164326	-0.14674053
31	0x3dc59b11	0.09648717
32	0x3d967506	0.07346539
33	0x3e579e51	0.21056487
34	0xbd50c82e	-0.050972156
35	0xbda97f63	-0.0827625
36	0x3dad5d95	0.08465115
37	0xbdcef7c1	-0.10105849
38	0x3d1ec4b3	0.038761806
39	0xbdd4ba2c	-0.10387072
40	0xbe356452	-0.1771405
41	0xbda6108a	-0.08108623
42	0x3d19c2ed	0.03753941
43	0xbddb5a3e	-0.10710572
44	0xbb4e300d	-0.0031461746
45	0xbb5f1cf5	-0.003404436
46	0xbdabaad9	-0.08382196
47	0xbd3333f8	-0.043750733
48	0x3dea76f2	0.11448468
49	0xbd807ee8	-0.062742054
50	0x3db884ac	0.0900968
51	0xbdd0806b	-0.10180744
52	0x3d735316	0.05940541
53	0x3d196d8a	0.03745798
54	0x3d8d1f13	0.068906926
55	0x3d0c45b2	0.034246154
56	0x3d3df7fe	0.046379082
57	0xbe456e32	-0.19280317
58	0xbd9a82ad	-0.07544456
59	0x3dbb1cdf	0.09136366
60	0x3e35b898	0.17746198
61	0xbda37c2c	-0.07982668
62	0xbd5352fd	-0.051592816
63	0x39accf9c	0.00032961078
64	0x3cb9f07c	0.02269768
65	0x3dfcf190	0.12350762
66	0x3d963fc3	0.0733638
67	0xbd9f6d38	-0.07784504
68	0xbd02a3ce	-0.031894498
69	0xbdb5e519	-0.088815875
70	0x3c50db0e	0.012747539
71	0x3e13708e	0.14398405
72	0xbc5b4621	-0.013383419
73	0xbda8b441	-0.08237506
74	0x3c0a0bec	0.008425694
75	0xbcb6f6f5	-0.022334555
76	0x3d6b8c38	0.05750677
77	0xbda89df4	-0.08233252
78	0xbdd2e4b6	-0.102975294
79	0x3d107c66	0.035274886
80	0xbe258dc4	-0.1616736
81	0x3d2644ec	0.040593073
82	0x3e2d1b60	0.16904974
83	0xbc54251a	-0.012948299
84	0x3d9cf0be	0.076631054
85	0xbd4dfa69	-0.050287638
86	0xbd3a59b1	-0.045495693
87	0xbc969876	-0.018383246
88	0xbd9a25aa	-0.07526715
89	0x3c8a0867	0.01684971
90	0xbc82c1b2	-0.015961502
91	0xbdf78c05	-0.120872535
92	0xbd956f89	-0.07296664
93	0xbd2d1fc9	-0.04226664
94	0x3d06ed97	0.032941427
95	0x3d2fdfe6	0.042938136
96	0x3dfd87cd	0.123794176
97	0xbca6d59c	-0.020365529
98	0x3e186adf	0.14884518
99	0x3e80eb18	0.25179362
100	0xbdd2de1c	-0.1029627
101	0x3de4f876	0.11180203
102	0xbe37b3c7	-0.17939673
103	0x3e0b6abb	0.13614933
104	0xbce14f3b	-0.0275036
105	0xbcb86a22	-0.022511546
106	0xb95ef163	-0.00021261493
107	0x3e107aa7	0.14109288
108	0xbe23b131	-0.15985562
109	0x3e112532	0.14174345
110	0xbc273924	-0.0102064945
111	0x3de18a3c	0.11012694
112	0x3d588da4	0.052869454
113	0x3c49bcf1	0.012313114
114	0x3cd68c66	0.026189994
115	0x3affc141	0.001951255
116	0xbd93277d	-0.07185266
117	0xbd3750ed	-0.04475491
118	0xbe4cda94	-0.20005256
119	0x3d583fa9	0.052795086
120	0x38f67bfd	0.00011753289
121	0xbcc7a62f	-0.024371235
122	0x3d3a9bcd	0.04555874
123	0x3ce1c993	0.027561938
124	0x3d522f44	0.051314607
125	0x3bb61a81	0.0055573587
126	0x3d92a2e9	0.07159979
127	0xbd4b4141	-0.049622778
128	0xbd05d062	-0.032669432
129	0xbc99058f	-0.018679408
130	0x3e80e6a5	0.25175968
131	0xbcf04b55	-0.029332796
132	0xbe3f87f0	-0.187042
133	0x3c342074	0.010994066
134	0x3d4c80b3	0.049927425
135	0x3d07c95e	0.033151023
136	0xbe23103a	-0.15924159
137	0x3d8f3f00	0.06994438
138	0xbe49f892	-0.19723728
139	0x3d51f7f5	0.05126186
140	0xbccaa85d	-0.024738485
141	0xbcfe6201	-0.031052591
142	0x3e54a6b4	0.20766717
143	0x3c84bb82	0.016202692
144	0xbc1691d4	-0.009190042
145	0x3dc0c209	0.09412009
146	0x3d210ba9	0.03931776
147	0xbd30930f	-0.043108996
148	0x3c54b34c	0.012982201
149	0x3d4cfa0c	0.05004315
150	0x3dd2f373	0.103003405
151	0xbe1598c0	-0.14609051
152	0x3ccbe651	0.024890097
153	0xbbfbdd1b	-0.00768627
154	0xbde06147	-0.10956054
155	0xbe7232b4	-0.23652154
156	0x3d99743d	0.07492874
157	0xbd0e5b3f	-0.034754988
158	0xbe2dfa7e	-0.16990086
159	0x3d1559ff	0.03646278
160	0xbd898aaf	-0.06715905
161	0x3bde443b	0.006783036
162	0xbda5f1d7	-0.08102768
163	0xbdc9a1cd	-0.09845314
164	0xbd450c75	-0.048107583
165	0xbd949386	-0.072547
166	0x3c507bda	0.012724841
167	0x3d6a5c89	0.057217155
168	0xbe1f8d56	-0.15581259
169	0x3cd60c68	0.026128963
170	0x3d1d8e8d	0.038466025
171	0x3d54ff70	0.052001417
172	0xbc36025f	-0.011108964
173	0x3c287dad	0.01028387
174	0xbd8eecdd	-0.06978772
175	0xbdee952e	-0.116495475
176	0xbc42b5f5	-0.011884202
177	0x3d68ef5a	0.05686889
178	0xbd713f6e	-0.058898382
179	0x3ad452a9	0.0016198951
180	0x3d927b9e	0.07152484
181	0x3c18ff08	0.009338148
182	0xbe0a57ed	-0.13510104
183	0x3da65338	0.081213415
184	0x3bfb5f95	0.0076713064
185	0xbcba1a38	-0.02271758
186	0x3e14274a	0.14468113
187	0x3d5e2ce5	0.054242034
188	0x3df7ccba	0.12099595
189	0xbdc8b0a7	-0.09799319
190	0xbdb5e3ca	-0.08881338
191	0x3e0e63f7	0.13905321
192	0x3b46218c	0.0030232398
193	0x3db1b55f	0.08677172
194	0x3ce2ef49	0.02770199
195	0x3d8e459c	0.06946871
196	0x3dc46e88	0.09591395
197	0xbceef993	-0.02917174
198	0xbd4f5f70	-0.050628126
199	0x3d297469	0.041370783
200	0xbe02d1d8	-0.12775362
201	0xbd6555d4	-0.055990055
202	0x3dda4765	0.10658149
203	0x3d7ac869	0.061226282
204	0x3c037a80	0.008024812
205	0xbd712fb2	-0.058883376
206	0xbd1fc16a	-0.039002813
207	0x3d964510	0.073373914
208	0xbe29dbb4	-0.16587716
209	0xbdaef93c	-0.085436314
210	0xbd5ecb6a	-0.05439321
211	0x3d11488d	0.03546958
212	0x3da330f4	0.079683214
213	0x3d946fe5	0.07247905
214	0xbc16f602	-0.009213926
215	0xbdd8618d	-0.10565481
216	0x3d4e4f17	0.050368395
217	0x3d804fc4	0.06265214
218	0x3e1731fc	0.14765161
219	0xbd5fd9b5	-0.05465098
220	0xbd14cb10	-0.036326468
221	0xbd872dc0	-0.06600523
222	0x3e0c33b8	0.13691604
223	0x3d0e7635	0.0347807
224	0xbb90463c	-0.004402904
225	0x3df48e5e	0.11941217
226	0xbea3bae1	-0.31978515
227	0x3e30cf0e	0.17266485
228	0xbe21aec5	-0.15789326
229	0x3b535659	0.0032247512
230	0x3d7b9db4	0.061429694
231	0xbd9eeb62	-0.077597395
232	0x3d7f7010	0.06236273
233	0x3ce14843	0.027500277
234	0xbd8a6966	-0.067583844
235	0x3de75672	0.11295785
236	0x3c572c5a	0.013133133
237	0xbc808956	-0.015690487
238	0x3db0f39a	0.08640213
239	0xbabb7745	-0.0014302513
240	0xbd53f854	-0.051750496
241	0xbe053286	-0.13007554
242	0x3e58a138	0.2115525
243	0x3d877dc8	0.06615788
244	0xbd294525	-0.041325707
245	0x3db34381	0.0875311
246	0x3d9adc8d	0.07561598
247	0x3db8c805	0.09022526
248	0xbcb0ca7e	-0.02158093
249	0x3d9db7ad	0.07701049
250	0xbd7b8919	-0.061410043
251	0xbcdf1431	-0.027231308
252	0xbdd563f5	-0.10419456
253	0xbe34e5e7	-0.17665826
254	0xbd0c2922	-0.034218915
255	0x3a0c9c6f	0.00053638866

network_body._body_endoder.seq_layers.2.bias f4 [128]
0	0x00000000	0.0
1	0x00000000	0.0
2	0x00000000	0.0
3	0x00000000	0.0
4	0x00000000	0.0
5	0x00000000	0.0
6	0x00000000	0.0
7	0x00000000	0.0
8	0x00000000	0.0
9	0x00000000	0.0
10	0x00000000	0.0
11	0x00000000	0.0
12	0x00000000	0.0
13	0x00000000	0.0
14	0x00000000	0.0
15	0x00000000	0.0
16	0x00000000	0.0
17	0x00000000	0.0
18	0x00000000	0.0
19	0x00000000	0.0
20	0x00000000	0.0
21	0x00000000	0.0
22	0x00000000	0.0
23	0x00000000	0.0
24	0x00000000	0.0
25	0x00000000	0.0
26	0x00000000	0.0
27	0x00000000	0.0
28	0x00000000	0.0
29	0x00000000	0.0
30	0x00000000	0.0
31	0x00000000	0.0
32	0x00000000	0.0
33	0x00000000	0.0
34	0x00000000	0.0
35	0x00000000	0.0
36	0x00000000	0.0
37	0x00000000	0.0
38	0x00000000	0.0
39	0x00000000	0.0
40	0x00000000	0.0
41	0x00000000	0.0
42	0x00000000	0.0
43	0x00000000	0.0
44	0x00000000	0.0
45	0x00000000	0.0
46	0x00000000	0.0
47	0x00000000	0.0
48	0x00000000	0.0
49	0x00000000	0.0
50	0x00000000	0.0
51	0x00000000	0.0
52	0x00000000	0.0
53	0x00000000	0.0
54	0x00000000	0.0
55	0x00000000	0.0
56	0x00000000	0.0
57	0x00000000	0.0
58	0x00000000	0.0
59	0x00000000	0.0
60	0x00000000	0.0
61	0x00000000	0.0
62	0x00000000	0.0
63	0x00000000	0.0
64	0x00000000	0.0
65	0x00000000	0.0
66	0x00000000	0.0
67	0x00000000	0.0
68	0x00000000	0.0
69	0x00000000	0.0
70	0x00000000	0.0
71	0x00000000	0.0
72	0x00000000	0.0
73	0x00000000	0.0
74	0x00000000	0.0
75	0x00000000	0.0
76	0x00000000	0.0
77	0x00000000	0.0
78	0x00000000	0.0
79	0x00000000	0.0
80	0x00000000	0.0
81	0x00000000	0.0
82	0x00000000	0.0
83	0x00000000	0.0
84	0x00000000	0.0
85	0x00000000	0.0
86	0x00000000	0.0
87	0x00000000	0.0
88	0x00000000	0.0
89	0x00000000	0.0
90	0x00000000	0.0
91	0x00000000	0.0
92	0x00000000	0.0
93	0x00000000	0.0
94	0x00000000	0.0
95	0x00000000	0.0
96	0x00000000	0.0
97	0x00000000	0.0
98	0x00000000	0.0
99	0x00000000	0.0
100	0x00000000	0.0
101	0x00000000	0.0
102	0x00000000	0.0
103	0x00000000	0.0
104	0x00000000	0.0
105	0x00000000	0.0
106	0x00000000	0.0
107	0x00000000	0.0
108	0x00000000	0.0
109	0x00000000	0.0
110	0x00000000	0.0
111	0x00000000	0.0
112	0x00000000	0.0
113	0x00000000	0.0
114	0x00000000	0.0
115	0x00000000	0.0
116	0x00000000	0.0
117	0x00000000	0.0
118	0x00000000	0.0
119	0x00000000	0.0
120	0x00000000	0.0
121	0x00000000	0.0
122	0x00000000	0.0
123	0x00000000	0.0
124	0x00000000	0.0
125	0x00000000	0.0
126	0x00000000	0.0
127	0x00000000	0.0

action_model._continuous_distribution.log_sigma f4 [1, 2]
0	0x00000000	0.0
1	0x00000000	0.0

action_model._continuous_distribution.mu.weight f4 [2, 128]
0	0xbc8eff67	-0.01745577
1	0x3c0cd207	0.008594996
2	0x3b20e172	0.0024548438
3	0x3ce2b8dd	0.02767604
4	0xbcb0b9d8	-0.021572992
5	0xbc9f0368	-0.019410804
6	0xbc207ba6	-0.009795105
7	0x3c180cf6	0.009280434
8	0x3cdaf0cb	0.026726147
9	0x3b4827d7	0.0030541325
10	0x3c60c19b	0.013718034
11	0xbb824a6b	-0.0039761565
12	0xbcb26e8d	-0.02178123
13	0x3a8c6d7b	0.001071378
14	0x3c811aed	0.01575991
15	0xbbea53ea	-0.0071511166
16	0x3ccfd7b2	0.025371406
17	0x3ba50763	0.005036281
18	0xbb8aecbc	-0.0042396467
19	0xbc86b988	-0.01644589
20	0x3ca1b06b	0.019737443
21	0xbcd2531b	-0.025674393
22	0xbcb7a417	-0.022417111
23	0xbcdfb82f	-0.027309505
24	0xbc964067	-0.018341256
25	0xbc7425b0	-0.0149015635
26	0xbc7235d0	-0.014783338
27	0x3afc6c8f	0.0019258427
28	0xbb8003db	-0.0039067096
29	0xbca723d3	-0.020402825
30	0xbb82417f	-0.003975093
31	0x3ce83413	0.028345143
32	0x3c6af2ad	0.014340085
33	0xbcde2c68	-0.027120784
34	0x3bea0ba7	0.0071425023
35	0xbc3fc07e	-0.011703609
36	0x3d1c8fe5	0.038223166
37	0x3ab8a597	0.0014087436
38	0x3bb1da35	0.0054276236
39	0x3c4f2202	0.012642385
40	0xbca7a3c6	-0.020463835
41	0xbc33a5db	-0.010964836
42	0x3c32da21	0.010916264
43	0xbc31810b	-0.010833989
44	0xbcd71793	-0.026256358
45	0xbb92f91f	-0.004485264
46	0xbc16db1b	-0.009207512
47	0x3bf3ed22	0.00744404
48	0xbc73038f	-0.014832391
49	0x3c2b080d	0.010438931
50	0x3c28d60d	0.01030494
51	0xbd1c930c	-0.038226172
52	0x3cea880b	0.028629323
53	0xbb784f6d	-0.0037889138
54	0xbc4e804f	-0.012603833
55	0xbc33aa9e	-0.010965971
56	0x3bf0b385	0.007345619
57	0xbcd0d2f0	-0.025491208
58	0x3d243deb	0.040098112
59	0xbabe6f3b	-0.0014528999
60	0x3ac8667f	0.0015289335
61	0x3a4ad922	0.0007738044
62	0x3b202edd	0.0024441995
63	0xbcf762db	-0.030198505
64	0xbc5fc268	-0.01365719
65	0xbc60650a	-0.013695965
66	0xbcd895e0	-0.026438653
67	0xbb8e5efc	-0.004344819
68	0x3c2ca95c	0.010538425
69	0x3c5a3daf	0.013320371
70	0x3d00c593	0.03143842
71	0x3b8c97e2	0.004290567
72	0xbc39661e	-0.011315851
73	0xbd395deb	-0.045255583
74	0xbb81e1ef	-0.003963701
75	0xbc82d8be	-0.015972491
76	0x3cb11d7f	0.02162051
77	0xbbccd01f	-0.006250396
78	0xbc4b80df	-0.012420862
79	0xbc77d858	-0.015127264
80	0xbc9b49f4	-0.018956162
81	0x39e0fbad	0.00042912122
82	0x3bc3c38c	0.0059742387
83	0xbcf0b7ed	-0.029384578
84	0x3c41b8d4	0.011823852
85	0x3ab9b971	0.0014169646
86	0xbc2ab70e	-0.01041962
87	0x3c929486	0.017893087
88	0x3cbc98a5	0.023022005
89	0xbc4d52ca	-0.0125319455
90	0x3b869967	0.0041076425
91	0xbc91c8d3	-0.017795956
92	0x3c2b9156	0.0104716625
93	0x3bc9ba29	0.006156225
94	0x3c2dfef7	0.01061987
95	0x3cb80289	0.022462146
96	0xbc3c3348	-0.011486836
97	0x3c95b967	0.018276883
98	0x3ca71a33	0.020398235
99	0xbc306257	-0.010765634
100	0x3af3781b	0.0018575223
101	0xbc648077	-0.013946644
102	0x3c2bdee3	0.010490152
103	0xbbff711d	-0.0077954666
104	0xbaca0bf3	-0.0015414938
105	0xbc2c0ba3	-0.010500821
106	0xbbec3d98	-0.007209491
107	0xbbc00a08	-0.005860571
108	0x3b1a0ac4	0.0023504952
109	0x3c3fe791	0.011712925
110	0x3c611e58	0.013740145
111	0xbbc6eb67	-0.0060705426
112	0x3ad564b0	0.0016280618
113	0xbb887b06	-0.004165056
114	0xbc99568f	-0.018718032
115	0x3d008a97	0.03138217
116	0x3b0fa874	0.0021920474
117	0xbcb12912	-0.02162603
118	0x3b44909e	0.0029993425
119	0xbcaf770b	-0.021419069
120	0x3cb1384f	0.021633295
121	0xbd55e0b5	-0.05221625
122	0x3c68bddb	0.014205421
123	0x3a02bdc9	0.00049873866
124	0xbbd2d120	-0.006433621
125	0x39a04444	0.0003056844
126	0x3c6ecd7f	0.014575361
127	0x3b035841	0.0020041617
128	0x3adc5a8d	0.0016811654
129	0xbc9a4b4a	-0.018834729
130	0xba1a7d2c	-0.0005893286
131	0x3c9cbb6f	0.019132344
132	0x3bb8e1e3	0.005642162
133	0x3c136661	0.008996577
134	0xbc8b100d	-0.016975427
135	0xbb7d7d45	-0.0038679403
136	0x3c8814b6	0.016611438
137	0xbbfb2338	-0.0076641105
138	0x3b136f06	0.0022496595
139	0x3be15cca	0.0068775164
140	0xbbcb695d	-0.0062076286
141	0x3bf2e472	0.0074124867
142	0x3c137ebf	0.009002387
143	0x3ad944d8	0.0016576303
144	0x3ca4b3d0	0.020105273
145	0xbcea34ca	-0.028589625
146	0x3c762462	0.015023323
147	0xbcb4fa8f	-0.022092132
148	0xbb96f4cb	-0.0046068183
149	0xbbafe727	-0.0053681317
150	0x3c349c86	0.011023646
151	0xbb9634a8	-0.004583914
152	0xbd0698af	-0.032860454
153	0xbb86def3	-0.004115933
154	0xbcf9fdf8	-0.03051661
155	0xbbc2ebe1	-0.005948529
156	0x3b9bb23a	0.004751471
157	0xbb31cb5d	-0.002712927
158	0xbc8b8ae7	-0.017034007
159	0xbd199c7f	-0.037502762
160	0x3c3e2350	0.011605099
161	0x3bcaf785	0.0061940574
162	0xbc1259e5	-0.008932565
163	0xba9dea86	-0.0012048043
164	0x3c382139	0.01123839
165	0xbb8c33f1	-0.004278653
166	0x3a87f8ed	0.0010373868
167	0x3cc31259	0.02381246
168	0x3c828d09	0.015936391
169	0xbc34a4fb	-0.0110256625
170	0xbc2f7a8c	-0.01071037
171	0xbb81ac37	-0.003957297
172	0x3b853c10	0.004065998
173	0xbc7f81c8	-0.015594907
174	0xbb8baa76	-0.004262264
175	0x3c8b9c2e	0.017042246
176	0x3c81e447	0.015855921
177	0x3cac1927	0.021008087
178	0x3c6116dd	0.013738361
179	0x3c9d79c5	0.019223103
180	0xbc1bdb35	-0.009512712
181	0xbcb6e207	-0.022324575
182	0xbc6bcadb	-0.014391626
183	0xbd006321	-0.031344537
184	0x3d0f5da3	0.03500141
185	0x3ce91eb2	0.02845702
186	0x3c547c00	0.012969017
187	0x3c0652ac	0.008198421
188	0xbc161967	-0.00916133
189	0x3c70f048	0.014705725
190	0x3ced5aba	0.028973926
191	0x3cc011b2	0.023445938
192	0xbb7ad2b8	-0.003827257
193	0x3d3fab79	0.04679439
194	0xba8840cd	-0.0010395289
195	0x3ac2c49f	0.0014859623
196	0xba964b02	-0.0011466446
197	0x3d2a55d6	0.041585766
198	0xbb791c83	-0.003801138
199	0x3ca10c6a	0.01965924
200	0xbc899987	-0.01679684
201	0x3c419c37	0.01181703
202	0xbc5b1e77	-0.013373963
203	0x3c146822	0.00905803
204	0xbca7413d	-0.02041685
205	0xbabfc886	-0.0014631904
206	0x3d143137	0.036179747
207	0x3cf491f7	0.029854758
208	0xbb5b9992	-0.0033508283
209	0xbc3dec9a	-0.011592055
210	0xbc495aef	-0.012289747
211	0xbbfa9d22	-0.007648126
212	0xbca34e0b	-0.019934675
213	0x3bc56747	0.0060242745
214	0x3bc1d8b4	0.0059157256
215	0xbb23772c	-0.0024942858
216	0x3d0bfd4f	0.03417712
217	0x3b93a541	0.004505784
218	0x3c1be842	0.009515824
219	0x3b8b275f	0.0042466368
220	0x3c91b953	0.017788565
221	0x3d0675dc	0.032827243
222	0x3cca8f4b	0.02472653
223	0x3cb261f8	0.02177523
224	0xbb2101f2	-0.002456781
225	0xbc5d2e90	-0.013499871
226	0x3cae68b3	0.021290159
227	0x3b513c68	0.0031926874
228	0x3c7c3642	0.015393795
229	0x3cbd47a7	0.023105456
230	0xbc6b2102	-0.014351131
231	0xbb427ce2	-0.0029676487
232	0xbbf11afb	-0.0073579527
233	0x3cc6eef2	0.02428386
234	0x3b8cb41d	0.004293932
235	0x39e2ddc2	0.00043271302
236	0xbbdee47a	-0.006802139
237	0xbbc16568	-0.005901981
238	0xbc7333a3	-0.014843854
239	0x3bd0a6c8	0.006367538
240	0x3c1f530e	0.009724392
241	0xbb1ba8d4	-0.0023751752
242	0xbb95ef44	-0.004575642
243	0xbca92b57	-0.020650549
244	0x3c45d566	0.012074804
245	0x3c342ca7	0.010996974
246	0x3aa8727d	0.0012851503
247	0x3cd76053	0.026291048
248	0xbb26a611	-0.0025428573
249	0x3d2fe722	0.042945035
250	0xbc829493	-0.015939986
251	0xb998f993	-0.00029177647
252	0xbb68a0ba	-0.003549619
253	0x3c4ccedb	0.01250049
254	0x3c9cd673	0.019145226
255	0x3c5f3945	0.013624494

action_model._continuous_distribution.mu.bias f4 [2]
0	0x00000000	0.0
1	0x00000000	0.0

action_model._discrete_distribution.branches.0.weight f4 [5, 128]
0	0xbc1c7d4f	-0.00955136
1	0xbc04f662	-0.008115383
2	0x3b9e5390	0.004831739
3	0x3aa008cc	0.0012209653
4	0x3c008db0	0.007846281
5	0x3c836450	0.016039044
6	0x3b52edcd	0.0032185197
7	0x3a9a6ccb	0.001178169
8	0xbc0f0882	-0.008730056
9	0xbc29f736	-0.010373881
10	0xbc0ca78b	-0.008584867
11	0x3bac3701	0.0052555804
12	0x3b336afd	0.0027377002
13	0xbbad609b	-0.0052910573
14	0xbb84a89d	-0.0040484206
15	0xbc752ebd	-0.014964757
16	0x3c1f36bc	0.00971764
17	0xbb4db425	-0.0031387892
18	0xbb5a7e1f	-0.0033339334
19	0x3bc6c20c	0.0060656127
20	0xbc0f6273	-0.0087514995
21	0xba54422a	-0.00080970174
22	0xbbf16cdd	-0.007367714
23	0x3b1ec43d	0.0024225854
24	0x3aec7c08	0.0018042335
25	0xbb759f12	-0.0037478846
26	0x3c8353dc	0.016031198
27	0x3c2726da	0.010202134
28	0x3c85e777	0.016345723
29	0xbc4558d5	-0.012045105
30	0xbc40f0a9	-0.011776128
31	0xbbed585d	-0.0072431997
32	0xbbaeb9b1	-0.0053321947
33	0x3b7e45b8	0.003879888
34	0xbc59f11f	-0.013302117
35	0x3ad61fdf	0.0016336403
36	0xbb2443cb	-0.0025064822
37	0x3b62510f	0.0034533178
38	0xbc105f6b	-0.008811812
39	0xbcb9f44b	-0.022699496
40	0x3acd7e9d	0.0015677992
41	0xbb87cf8a	-0.0041446136
42	0xbc36c817	-0.011156104
43	0x3b577293	0.0032874688
44	0xbbbcc0f3	-0.005760306
45	0xbc8baa58	-0.017049
46	0x3be1e838	0.0068941377
47	0x3c9d3bf3	0.019193625
48	0x3a425452	0.00074130774
49	0xbc8c7697	-0.017146392
50	0x3b87a929	0.0041400385
51	0xbbb7d3da	-0.0056099715
52	0x3b1213b6	0.002228958
53	0xbb1de621	-0.0024093466
54	0x3b5dfb47	0.0033871697
55	0xbbde6e83	-0.0067880764
56	0xbb92f2ac	-0.004484495
57	0xbc18b207	-0.009319789
58	0x3c284253	0.010269719
59	0x3acd8505	0.0015679902
60	0xbc2cebd2	-0.010554271
61	0x3c433e54	0.011916716
62	0x3b8bd7e4	0.0042676795
63	0xbbdb497b	-0.006692109
64	0x3b919ca7	0.0044437232
65	0xbc25aacd	-0.010111523
66	0x3b1746bf	0.002308294
67	0x3cae8e9b	0.021308234
68	0x3b15d71f	0.0022863818
69	0xba7241d2	-0.00092413754
70	0x3b726828	0.0036988351
71	0xbbaf49b3	-0.005349362
72	0x3b47a65d	0.003046415
73	0xbb24a085	-0.002512009
74	0x3b005604	0.001958252
75	0xbb428b7a	-0.0029685185
76	0xbb37ff9f	-0.0028075946
77	0xbb8d2072	-0.0043068463
78	0x39d95bfd	0.00041458002
79	0x3be444e8	0.006966222
80	0xba6d9b93	-0.0009064015
81	0xbc66c7dd	-0.014085737
82	0x3bf64430	0.007515453
83	0xbbd156e2	-0.006388531
84	0xbc94ebc8	-0.018178836
85	0x3a8caf99	0.0010733485
86	0xbbad7766	-0.0052937744
87	0xbba3d24d	-0.004999435
88	0x3bf8ec68	0.007596541
89	0xbbfe6a1a	-0.007764113
90	0x3c9b7fd2	0.018981848
91	0x3b8c3e5a	0.004279894
92	0xba9a5ccd	-0.0011776924
93	0x3a656c77	0.0008751819
94	0x3c4d34e8	0.012524821
95	0xbc016a0a	-0.007898817
96	0x3baebe0f	0.0053327153
97	0x3b1719a4	0.0023056054
98	0xbc872c71	-0.016500684
99	0x3b668358	0.0035173502
100	0xbbc0b21f	-0.0058806087
101	0x3a081eb0	0.0005192561
102	0x3c94068d	0.01806953
103	0x39f3a5e7	0.0004647218
104	0xbbe6fb15	-0.0070489743
105	0x3bf19157	0.007372062
106	0xbcd02bf2	-0.02541158
107	0xbbe4f350	-0.006987013
108	0x3c2df138	0.010616593
109	0x3bfe95da	0.0077693285
110	0xbb9093b1	-0.0044121374
111	0xb9d467ab	-0.0004051303
112	0xbc093fad	-0.008376998
113	0xbbbdc518	-0.0057913177
114	0xbc16ddb7	-0.009208134
115	0xbc0e4bf0	-0.008685097
116	0x3c6220c0	0.0138017535
117	0x385e8570	5.3053198e-05
118	0x3ba64ab3	0.005074823
119	0xbb95818a	-0.0045625614
120	0x3cb1b1d4	0.02169124
121	0xbc418bfc	-0.01181316
122	0xbc291e55	-0.010322173
123	0x3b2ab01d	0.0026044913
124	0xbb90aa97	-0.004414867
125	0x3c2a995e	0.010412542
126	0x3c16dc65	0.00920782
127	0xbaebbd90	-0.0017985571
128	0xbb145b27	-0.002263734
129	0x3a1c2eaf	0.0005957884
130	0x3b04a803	0.0020241744
131	0xbb886b22	-0.004163162
132	0x3bafb0d8	0.0053616576
133	0x3c08206f	0.008308514
134	0xba5149e7	-0.00079837296
135	0x3c5806b0	0.013185188
136	0x3809d0df	3.285787e-05
137	0x3bcb26e8	0.0061997063
138	0xba927d0b	-0.0011176182
139	0xbc160824	-0.009157214
140	0x3c83f7ff	0.016109465
141	0x3cd3f0b2	0.025871608
142	0xbc377f1a	-0.011199737
143	0x3c57b35d	0.013165322
144	0x3bd52bf5	0.006505484
145	0xbc6e0363	-0.014527175
146	0xbb1a6836	-0.002356065
147	0x3c161893	0.009161132
148	0x3af9b487	0.0019050994
149	0x3bc3ece1	0.005979166
150	0xbbef8d1d	-0.007310523
151	0xbc42ac82	-0.011881949
152	0x3ad03c70	0.0015887152
153	0xbbc0a5f3	-0.0058791577
154	0xbbd2883b	-0.0064249313
155	0xbbf71e1a	-0.00754143
156	0x3b89743f	0.004194766
157	0x398e9fb5	0.00027203342
158	0x3c27cfbb	0.010242398
159	0xbbd3c035	-0.006462122
160	0x3c9378dd	0.018001968
161	0xbc1d9323	-0.0096176
162	0xbc1ec038	-0.009689383
163	0x3affb653	0.0019509293
164	0x3c1b0e19	0.00946381
165	0x3bd50f53	0.006502071
166	0x3b06e686	0.002058418
167	0x3b46fc53	0.00303628
168	0x3b903363	0.004400657
169	0x3a939f9a	0.0011262775
170	0xbba03603	-0.004889251
171	0xbc16641d	-0.009179142
172	0x3b9a0be9	0.004701127
173	0x3b78c345	0.0037958187
174	0x3b0c2033	0.0021381497
175	0x3b69bd0a	0.0035665655
176	0xbc8252ca	-0.015908618
177	0xbbfdc1fb	-0.0077440715
178	0x3a241a84	0.00062600547
179	0x3b4add91	0.0030954818
180	0xbc2491d7	-0.010044537
181	0x3a83519f	0.0010018832
182	0xbc237f58	-0.009979092
183	0x3c4b371b	0.012403275
184	0x3bee159a	0.0072657587
185	0xbbb4e1af	-0.0055200676
186	0x3bcd6725	0.0062683993
187	0x3c52d84a	0.01286895
188	0xbb8cfb2f	-0.0043024044
189	0xba2ca376	-0.0006585637
190	0xbbf1d14b	-0.007379686
191	0x3b020658	0.0019840207
192	0xbb2cd3ef	-0.002637144
193	0xbc1d27aa	-0.009591976
194	0xbbd23473	-0.006414944
195	0x3bc5474a	0.006020461
196	0x3c1b612b	0.009483616
197	0xbb6e1928	-0.0036330912
198	0x3bf755a5	0.0075480514
199	0x3c19db58	0.0093906745
200	0xbc0c2916	-0.0085547175
201	0xbbb88908	-0.00563157
202	0x3c4a3aef	0.012343152
203	0x3a434a45	0.00074497267
204	0xbb53d3c3	-0.0032322265
205	0x3c5fae60	0.013652414
206	0x3b9817cc	0.0046415087
207	0x3b209f5f	0.0024509055
208	0xbc292033	-0.010322618
209	0x3bbb621a	0.0057184817
210	0xba48c983	-0.0007659422
211	0x3c28084c	0.010255884
212	0xbb8946b9	-0.004189339
213	0xbc313b8d	-0.010817421
214	0x3cd47a3f	0.025937198
215	0x3b308f3b	0.002694084
216	0x3c212f12	0.009837883
217	0x3a8b23fc	0.0010615583
218	0x3b9ae25d	0.0047266916
219	0xbba5826f	-0.0050509493
220	0xbace1ab8	-0.0015724516
221	0x3c18f487	0.009335644
222	0x39dfb05f	0.0004266528
223	0x3b722bd2	0.0036952388
224	0xbb57aa73	-0.0032907992
225	0xb91ad5c1	-0.00014766214
226	0x3c083e67	0.008315659
227	0xbb495fcc	-0.0030727265
228	0xbc0f9aad	-0.008764905
229	0xbb251253	-0.0025187924
230	0xbc2a4909	-0.0103933895
231	0xbba5ab2e	-0.0050558066
232	0x3c22e0ef	0.009941324
233	0xbb09ec94	-0.0021045553
234	0x3baa0b3a	0.0051893266
235	0xbbb7fd4b	-0.0056149117
236	0xbc26d9a3	-0.010183725
237	0xbbdc7d12	-0.0067287767
238	0xbb483cfa	-0.0030553923
239	0xbc95816b	-0.018250188
240	0xbc8d0a3f	-0.0172168
241	0xbbeb99ca	-0.007189964
242	0x3c19ae3b	0.009379919
243	0x3c4fc37f	0.012680887
244	0x3bed7a75	0.007247264
245	0x3b4cbcff	0.003124058
246	0xbc6e6f6d	-0.014552933
247	0xbb224e02	-0.0024765735
248	0xbc860a32	-0.016362283
249	0x3c8ee08b	0.017441055
250	0xbc3ae4c8	-0.011407085
251	0xba68ce28	-0.00088808173
252	0x3b8bf893	0.0042715757
253	0x3b701ad0	0.0036637075
254	0x3bc15d75	0.0059010335
255	0x3b3f532c	0.0029193861

action_model._discrete_distribution.branches.0.bias f4 [5]
0	0x00000000	0.0
1	0x00000000	0.0
2	0x00000000	0.0
3	0x00000000	0.0
4	0x00000000	0.0

network_body._body_endoder.seq_layers.0.weight f4 [128, 15]
0	0xbde4a0b8	-0.11163467
1	0xbded2255	-0.11578814
2	0xbecfcbab	-0.40585074
3	0xbe434f97	-0.1907333
4	0xbf175d74	-0.59126973
5	0x3c73c42c	0.014878314
6	0xbe1f3823	-0.15548758
7	0xbd890744	-0.06690839
8	0xbca2fed8	-0.01989691
9	0xbe9452e5	-0.28969494
10	0x3e0b4f60	0.13604498
11	0xbedff9d4	-0.4374529
12	0xbe713015	-0.23553498
13	0x3e71dccd	0.23619385
14	0xbe9dea07	-0.3084261
15	0xbdc9d49d	-0.09855006
16	0xbe7f0ff8	-0.24908435
17	0x3dd4b2fa	0.103856996
18	0xbe779b7a	-0.24180403
19	0x3e54dfed	0.20788546
20	0x3ea5d5f6	0.32389802
21	0x3e1c5091	0.15265109
22	0x3d85f1a7	0.06540232
23	0x3eb34765	0.35015407
24	0xbe21a2dd	-0.15784784
25	0x3e789b66	0.2427803
26	0x3ea6d85b	0.3258694
27	0x3d686f9c	0.056747064
28	0xbe2adf56	-0.16686758
29	0x3daf2408	0.08551794
30	0xbf331e93	-0.6996853
31	0x3cb6fb32	0.022336576
32	0x3d267957	0.040643062
33	0xbd621c71	-0.055202905
34	0x3eeee1fb	0.46656784
35	0x3c0c5b74	0.008566726
36	0xbd92a9bb	-0.0716128
37	0x3e074557	0.13210045
38	0xbf4c8ae5	-0.79899436
39	0x3ecf2cac	0.4046377
40	0x3e128fd7	0.14312683
41	0x3e2d5bfb	0.16929619
42	0x3e897c18	0.2685249
43	0xbf20de96	-0.6283964
44	0x3d891998	0.06694335
45	0xbdcc983a	-0.099899724
46	0xbecd0f57	-0.40050766
47	0x3e1f7377	0.1557139
48	0x3e1208fb	0.14261238
49	0xbe9025c7	-0.28153822
50	0xbee2d22c	-0.44300973
51	0xbe988c6d	-0.29794636
52	0xbdaa87a0	-0.0832665
53	0x3f006808	0.5015874
54	0xbe9811ef	-0.29701182
55	0x3eef5cca	0.4675048
56	0x3c8bdcab	0.017072996
57	0x3dd34a7b	0.103169404
58	0x3d5bdb5c	0.053675994
59	0x3eac4658	0.33647418
60	0xbb19089e	-0.0023351084
61	0xbdf0dbf4	-0.11760703
62	0xbe2766ba	-0.16347781
63	0xbb7d5bdb	-0.0038659486
64	0xbed518c0	-0.41620445
65	0xbe1b9a43	-0.15195565
66	0xbefa00a0	-0.48828602
67	0x3e67d1b2	0.22638586
68	0x3e9add01	0.30246738
69	0x3dcdda1c	0.10051367
70	0xbddb8459	-0.10718603
71	0xbe4118fb	-0.18857186
72	0xbe069c96	-0.1314567
73	0x3eda65f7	0.42655918
74	0x3ea1f520	0.31632328
75	0xbe553c8b	-0.20823877
76	0x3e5cedaf	0.21575044
77	0xbda8c1f8	-0.082401216
78	0x3f794a28	0.9737878
79	0xbeb71884	-0.3576089
80	0x3f27c569	0.655356
81	0x3e8a80cd	0.27051392
82	0x3f20c3d5	0.62798816
83	0x3e1f8188	0.15576756
84	0xbe442789	-0.19155706
85	0x3f41e092	0.7573329
86	0xbe9bc506	-0.30423754
87	0x3ba5b202	0.0050566206
88	0xbe56cb1f	-0.20975922
89	0x3ccdac87	0.025106682
90	0xbdb95fd4	-0.09051481
91	0xbec999d6	-0.3937518
92	0x3d1a0c5d	0.037609447
93	0xbea2eb95	-0.3182036
94	0xbd0becd7	-0.034161415
95	0x3e00264c	0.12514609
96	0xbda88bbd	-0.08229778
97	0xbe381641	-0.17977239
98	0xbceec69a	-0.029147435
99	0xbdc7a24e	-0.09747754
100	0x3ed0cec4	0.4078275
101	0x3f023399	0.5085998
102	0xbebae63a	-0.36503774
103	0xbef278e1	-0.47357848
104	0x3e0395ac	0.12850064
105	0xbe0e983b	-0.13925259
106	0xbe41154b	-0.18855779
107	0xbf1e0022	-0.6171895
108	0xbded7e95	-0.11596409
109	0x3ebeaf45	0.37243095
110	0x3e7333f3	0.23750286
111	0x3e5ad3bc	0.21369833
112	0x3f287e19	0.6581741
113	0xbe5cba9f	-0.21555565
114	0x3ed67fb7	0.41894314
115	0x3e8f20ee	0.2795481
116	0xbf0caed8	-0.5495429
117	0x3d5db064	0.054123297
118	0xbd68bca0	-0.05682051
119	0x3bdb81c9	0.006698821
120	0x3de598ed	0.11210809
121	0xbec88627	-0.3916485
122	0x3dc0a5d3	0.094066285
123	0x3d5d89ec	0.05408661
124	0x3e337f33	0.17528991
125	0x3e5f624e	0.21814844
126	0xbe6c5940	-0.23080921
127	0xbdc97472	-0.09836663
128	0x3e5457ff	0.20736693
129	0x3df01d38	0.11724323
130	0xbe3f69bc	-0.18692678
131	0x3ea4ee40	0.3221302
132	0xbebbe5e1	-0.3669882
133	0xbce520bb	-0.027969709
134	0x3ea4faf2	0.32222706
135	0xbe11564a	-0.14193073
136	0x3c431ff3	0.011909473
137	0x3eb2a27b	0.34889588
138	0x3e28b006	0.16473398
139	0xbe54f3f2	-0.20796183
140	0xbe2a2c8f	-0.1661856
141	0xbd0bd4c8	-0.03413847
142	0xbb237596	-0.0024941913
143	0xbd25bada	-0.0404614
144	0x3e483e55	0.19555028
145	0x3e843d94	0.2582823
146	0x3c954b74	0.018224455
147	0xbea4a6d8	-0.32158542
148	0x3d84b2fe	0.064794526
149	0xbd9dc8e6	-0.07704334
150	0xbcfae12f	-0.030624954
151	0x3d3c1655	0.045919735
152	0xbd76fe84	-0.06030132
153	0x3e69fd46	0.22850522
154	0x3ba18b34	0.0049299244
155	0x3eae3169	0.34022072
156	0x3e82e632	0.2556625
157	0x3cd663b6	0.026170593
158	0xbe4b5719	-0.19857444
159	0xbec9d6e7	-0.3942177
160	0x3e803415	0.25039735
161	0x3eeaaf6a	0.45836955
162	0x3df42c7c	0.11922547
163	0xbeaf2a7a	-0.34212095
164	0xbe931395	-0.28725877
165	0x3e078676	0.13234887
166	0xbd2f316d	-0.042771745
167	0x3e1cd89b	0.15317003
168	0xbeac2378	-0.3362081
169	0xbe45cbef	-0.19316076
170	0x3e93b438	0.28848433
171	0xbce167fa	-0.0275154
172	0xbe4f77fd	-0.20260616
173	0x3e0ef6f1	0.13961388
174	0xbf16f774	-0.58971334
175	0x3d7e1932	0.062035747
176	0xbea8580d	-0.32879677
177	0xbe9762a3	-0.2956744
178	0x3dd06f5c	0.1017749
179	0xbda2b32a	-0.07944329
180	0x3c0db6b2	0.008649515
181	0x3eb37ca3	0.35056028
182	0x3da5b5cf	0.08091318
183	0xbe7ef0a8	-0.2489649
184	0xbd931ede	-0.07183622
185	0xbe42641c	-0.18983501
186	0x3e84db8e	0.25948757
187	0x3ecf44b3	0.404821
188	0x3e150859	0.14553966
189	0x3e669295	0.22516854
190	0x3de63d33	0.112421416
191	0xbe0c3e8d	-0.13695736
192	0x3d7bbf30	0.061461627
193	0xbe083ed4	-0.13305217
194	0xbddfd6c5	-0.10929636
195	0xbea82f95	-0.32848802
196	0xbe8f21a0	-0.2795534
197	0xbe29cdad	-0.16582365
198	0xbe78d707	-0.24300776
199	0x3ed13d77	0.40867206
200	0x3e3f8663	0.18703608
201	0x3e308a7b	0.17240326
202	0x3e4643e1	0.19361831
203	0xbdabd9b4	-0.08391133
204	0x3cc28c21	0.02374846
205	0x3ea361a7	0.3191044
206	0xbecb66d7	-0.39726898
207	0xbe90d8ee	-0.28290504
208	0xbe18609a	-0.148806
209	0xbdb8c56b	-0.090220295
210	0xbda4d1d2	-0.080478325
211	0x3cb3e8e6	0.02196164
212	0x3e463513	0.19356184
213	0x3dbaf112	0.09128012
214	0xbd8a9661	-0.06766964
215	0xbebd4812	-0.36969048
216	0x3ea40a8a	0.3203929
217	0xbeda644c	-0.42654645
218	0xbef12e75	-0.47105756
219	0x3e6a3569	0.22871937
220	0x3d5ee681	0.054419044
221	0x3de83c51	0.113396294
222	0x3d8bd86c	0.068283886
223	0x3df999fd	0.12187574
224	0x3f2078cc	0.6268432
225	0xbec2d524	-0.38053238
226	0x3f1ac103	0.6045076
227	0xbe10b345	-0.14130886
228	0xbdb3008f	-0.08740341
229	0x3ecde4fb	0.4021376
230	0xbdd422b3	-0.10358181
231	0x3db5c0c9	0.088746615
232	0xbe19f3cc	-0.15034407
233	0xbeab22f5	-0.33425108
234	0xbe36f13b	-0.1786546
235	0xbcd6635f	-0.02617043
236	0xbe549414	-0.20759612
237	0x3e4c35c6	0.19942388
238	0xbd5d1750	-0.05397731
239	0xbca85df1	-0.020552607
240	0xbe11207d	-0.1417255
241	0xbea2d8c8	-0.31806016
242	0x3e0a0819	0.13479652
243	0xbe335b87	-0.17515384
244	0xbed20384	-0.41018307
245	0x3e63e542	0.22255424
246	0x3e241d38	0.16026771
247	0x3ed24f8a	0.41076308
248	0xbd9cd412	-0.07657637
249	0xbea5d233	-0.32386932
250	0xbdb97bc7	-0.09056812
251	0x3eda48a8	0.42633557
252	0x3e646395	0.22303613
253	0x3e72a847	0.23697005
254	0xbf24e696	-0.64414346
255	0x3e28f5ee	0.16500065

network_body._body_endoder.seq_layers.0.bias f4 [128]
0	0x00000000	0.0
1	0x00000000	0.0
2	0x00000000	0.0
3	0x00000000	0.0
4	0x00000000	0.0
5	0x00000000	0.0
6	0x00000000	0.0
7	0x00000000	0.0
8	0x00000000	0.0
9	0x00000000	0.0
10	0x00000000	0.0
11	0x00000000	0.0
12	0x00000000	0.0
13	0x00000000	0.0
14	0x00000000	0.0
15	0x00000000	0.0
16	0x00000000	0.0
17	0x00000000	0.0
18	0x00000000	0.0
19	0x00000000	0.0
20	0x00000000	0.0
21	0x00000000	0.0
22	0x00000000	0.0
23	0x00000000	0.0
24	0x00000000	0.0
25	0x00000000	0.0
26	0x00000000	0.0
27	0x00000000	0.0
28	0x00000000	0.0
29	0x00000000	0.0
30	0x00000000	0.0
31	0x00000000	0.0
32	0x00000000	0.0
33	0x00000000	0.0
34	0x00000000	0.0
35	0x00000000	0.0
36	0x00000000	0.0
37	0x00000000	0.0
38	0x00000000	0.0
39	0x00000000	0.0
40	0x00000000	0.0
41	0x00000000	0.0
42	0x00000000	0.0
43	0x00000000	0.0
44	0x00000000	0.0
45	0x00000000	0.0
46	0x00000000	0.0
47	0x00000000	0.0
48	0x00000000	0.0
49	0x00000000	0.0
50	0x00000000	0.0
51	0x00000000	0.0
52	0x00000000	0.0
53	0x00000000	0.0
54	0x00000000	0.0
55	0x00000000	0.0
56	0x00000000	0.0
57	0x00000000	0.0
58	0x00000000	0.0
59	0x00000000	0.0
60	0x00000000	0.0
61	0x00000000	0.0
62	0x00000000	0.0
63	0x00000000	0.0
64	0x00000000	0.0
65	0x00000000	0.0
66	0x00000000	0.0
67	0x00000000	0.0
68	0x00000000	0.0
69	0x00000000	0.0
70	0x00000000	0.0
71	0x00000000	0.0
72	0x00000000	0.0
73	0x00000000	0.0
74	0x00000000	0.0
75	0x00000000	0.0
76	0x00000000	0.0
77	0x00000000	0.0
78	0x00000000	0.0
79	0x00000000	0.0
80	0x00000000	0.0
81	0x00000000	0.0
82	0x00000000	0.0
83	0x00000000	0.0
84	0x00000000	0.0
85	0x00000000	0.0
86	0x00000000	0.0
87	0x00000000	0.0
88	0x00000000	0.0
89	0x00000000	0.0
90	0x00000000	0.0
91	0x00000000	0.0
92	0x00000000	0.0
93	0x00000000	0.0
94	0x00000000	0.0
95	0x00000000	0.0
96	0x00000000	0.0
97	0x00000000	0.0
98	0x00000000	0.0
99	0x00000000	0.0
100	0x00000000	0.0
101	0x00000000	0.0
102	0x00000000	0.0
103	0x00000000	0.0
104	0x00000000	0.0
105	0x00000000	0.0
106	0x00000000	0.0
107	0x00000000	0.0
108	0x00000000	0.0
109	0x00000000	0.0
110	0x00000000	0.0
111	0x00000000	0.0
112	0x00000000	0.0
113	0x00000000	0.0
114	0x00000000	0.0
115	0x00000000	0.0
116	0x00000000	0.0
117	0x00000000	0.0
118	0x00000000	0.0
119	0x00000000	0.0
120	0x00000000	0.0
121	0x00000000	0.0
122	0x00000000	0.0
123	0x00000000	0.0
124	0x00000000	0.0
125	0x00000000	0.0
126	0x00000000	0.0
127	0x00000000	0.0

network_body._body_endoder.seq_layers.2.weight f4 [128, 128]
0	0xbd960050	-0.07324278
1	0xbdf66d7f	-0.120326035
2	0xbdd627d1	-0.10456813
3	0xbd11d64e	-0.035604768
4	0xbcacdb9a	-0.021100808
5	0xbd545271	-0.051836435
6	0x3d6b71b1	0.05748147
7	0xbdf9a2bf	-0.121892445
8	0xbde0cf28	-0.10977012
9	0xbcb3cb30	-0.021947473
10	0xbdda21c3	-0.10650971
11	0x3b9b4c17	0.004739295
12	0x3e084655	0.1330808
13	0xbcc27def	-0.02374169
14	0xbe40ebc6	-0.1883994
15	0xbca30c96	-0.019903462
16	0x3de6a32f	0.112615936
17	0xbe231a1c	-0.15927929
18	0xbd1cabc7	-0.038249757
19	0x3d8fc73c	0.07020423
20	0x3df613f4	0.120155245
21	0x3dba6254	0.09100786
22	0xbd7a82ab	-0.06115977
23	0x3d83a787	0.06428438
24	0xbdef5509	-0.11686141
25	0x3ba143de	0.0049214205
26	0x3d7d8f5e	0.061904304
27	0x3cc7ded5	0.024398247
28	0xbe49a5de	-0.1969218
29	0x3d5b84da	0.053593494
30	0x3adc6d46	0.0016817234
31	0x3df66530	0.12031019
32	0xbcd6274d	-0.026141787
33	0x3cfdef5a	0.03099792
34	0xbcdd7598	-0.027033612
35	0x3d13f1a4	0.03611912
36	0x3dc1da70	0.09465492
37	0x3c81f35f	0.015863119
38	0xbd5e4561	-0.054265384
39	0xbcf4c4a4	-0.029878922
40	0xbd0d7551	-0.03453571
41	0xbd64000d	-0.05566411
42	0xbe435e15	-0.19078858
43	0xbc71e9b4	-0.014765192
44	0xbdcc646e	-0.09980093
45	0x3dcac392	0.09900583
46	0xbdf357de	-0.11881994
47	0x3d90b49c	0.070656985
48	0x3ca1b143	0.019737845
49	0x3dd7687d	0.105179764
50	0xbcafeacc	-0.021474265
51	0xbd9a1ba3	-0.075248025
52	0x3da6702a	0.08126862
53	0xbdedaeb8	-0.116055906
54	0x3c966051	0.018356474
55	0xbe04ff9f	-0.12988137
56	0x3e030f29	0.12798752
57	0xbd0148c0	-0.03156352
58	0x3e2ed95f	0.17075108
59	0x3b9d8c8f	0.0048080157
60	0xbcb5186f	-0.022106377
61	0xbdac6505	-0.084177054
62	0xbdfb5743	-0.12272503
63	0x3d60bc33	0.05486698
64	0x3dc94242	0.09827091
65	0x3d4eda34	0.050501063
66	0x3cfde3d3	0.030992424
67	0x3b0f1ff1	0.0021839107
68	0xbd0b76be	-0.03404879
69	0xbd02ce82	-0.031935222
70	0x3d59fd8a	0.05322031
71	0xbd9fb064	-0.07797316
72	0x3e0724ce	0.13197634
73	0xbd8b2b32	-0.06795348
74	0x3e11dd21	0.1424451
75	0x3d8671bd	0.065646626
76	0xbd05708f	-0.032578047
77	0xbd723464	-0.059131995
78	0x3d9ba755	0.076002754
79	0xbd3a19fb	-0.045434933
80	0xbd3cc514	-0.046086386
81	0xbd7f0651	-0.062261883
82	0xbe113ac1	-0.14182569
83	0xbdceb6fd	-0.10093496
84	0x3dee8ed3	0.11648335
85	0x3d9cd615	0.076580204
86	0x3d24f5ac	0.040273353
87	0x3d585842	0.052818544
88	0x3d253240	0.040331125
89	0x3e1e4cf4	0.15459043
90	0x3d6c9441	0.057758573
91	0x3d52f771	0.05150551
92	0x3e114d48	0.14189637
93	0x3d3a7266	0.045519255
94	0x3df1ea68	0.118122876
95	0x3d242a13	0.040079188
96	0xbde68420	-0.112556696
97	0x3d824aff	0.063619606
98	0x3d029975	0.03188463
99	0xbda20a16	-0.0791208
100	0xbd49ffb2	-0.049316116
101	0xbe1efc5b	-0.15525953
102	0x3cb0b809	0.02157213
103	0x3db280a4	0.087159425
104	0x3bae98a9	0.005328257
105	0x3dc55276	0.09634869
106	0xbd55458f	-0.05206829
107	0x3dc2f188	0.09518725
108	0x3dce6ab5	0.100789465
109	0x3d340efd	0.043959606
110	0xbd82ec2a	-0.06392701
111	0x3bb2dcee	0.005458466
112	0xbddec7e9	-0.108779736
113	0x3c971965	0.018444726
114	0xbc4b1308	-0.012394674
115	0x3d097b6a	0.033564962
116	0xbe25019f	-0.161139
117	0x3e332cd3	0.17497568
118	0x3d454320	0.04815972
119	0xbcce4d90	-0.025183469
120	0xbd45f9dc	-0.048333988
121	0x3c1528c5	0.0091039585
122	0xbe0c793a	-0.1371812
123	0xbdacc8ce	-0.08436738
124	0x3e86159a	0.26188356
125	0x3de6cb2b	0.1126922
126	0xbd38c695	-0.045111258
127	0xbda3f49f	-0.08005642
128	0xbcf832d7	-0.03029768
129	0xbcd6c313	-0.026216066
130	0x3d022890	0.031776965
131	0x3d9831a3	0.074313425
132	0x3cf2b1a8	0.029625729
133	0x3cd27d11	0.025694402
134	0xba580310	-0.00082402024
135	0xbc96ad95	-0.018393317
136	0xbd2000fb	-0.039063435
137	0x3c47ca1f	0.0121941855
138	0xbadff8e8	-0.001708773
139	0x3e3369b2	0.17520788
140	0xbdb42315	-0.08795754
141	0x3e5cbd43	0.21556573
142	0x3da507dd	0.080581404
143	0x3cedf592	0.029047761
144	0x3d17d0eb	0.037064474
145	0xbdae09b1	-0.08497942
146	0x3c38de0a	0.011283407
147	0xbd07183c	-0.032982096
148	0xbdb92afc	-0.09041402
149	0x3e60d022	0.21954396
150	0xbe1107b7	-0.14163099
151	0xbdbd8567	-0.0925396
152	0x3c017744	0.00790197
153	0x3d670577	0.056401696
154	0x3d716aea	0.05893985
155	0xbd3b1d21	-0.045682076
156	0xbdc75876	-0.097336695
157	0xbce947ab	-0.028476557
158	0x3dbe9523	0.09305789
159	0xbd9e681d	-0.07734702
160	0x3d8c99ef	0.06865298
161	0xbd89aa48	-0.06721932
162	0xbd00cb6e	-0.031444006
163	0x3d685fc1	0.056731943
164	0xbb97d1f2	-0.0046331817
165	0x3db470e6	0.08810596
166	0x3dc57902	0.09642221
167	0xbc6175c6	-0.0137609895
168	0x3dd89c31	0.10576666
169	0x3cd40161	0.025879564
170	0x3d1aee14	0.037824705
171	0x3decb8b2	0.11558665
172	0x3dbe78fc	0.0930042
173	0xbc517d82	-0.012786271
174	0x3ca2f26b	0.019890985
175	0xbdcafa7b	-0.099110566
176	0x3d51f130	0.051255405
177	0x3db821f8	0.08990854
178	0x3d76a879	0.06021926
179	0xbe0b1fb6	-0.13586316
180	0xbd60ed75	-0.054913957
181	0xbd1ab831	-0.037773315
182	0xbd9fd080	-0.0780344
183	0xbbb5940b	-0.0055413297
184	0x3cbfbb38	0.023404703
185	0xbcd54278	-0.026032671
186	0xbd72f50a	-0.05931572
187	0xbbc7caed	-0.0060971887
188	0xbd29ae58	-0.041426033
189	0xbd2d211c	-0.042267904
190	0xbc3eedd0	-0.011653379
191	0x3c9a2391	0.018815788
192	0x3ca5a128	0.020218447
193	0x3d572e97	0.052534666
194	0xbdadc964	-0.08485678
195	0x3cf4a02d	0.029861534
196	0xbce97be4	-0.028501458
197	0x3d5b9833	0.053611945
198	0x3df3212c	0.118715614
199	0xbce594c7	-0.028025044
200	0xbdfac6a6	-0.122449204
201	0x3cd0c724	0.025485583
202	0xbe0e692c	-0.13907307
203	0xbdcbd042	-0.099518314
204	0x3d8e6c75	0.0695428
205	0x3bde22b7	0.0067790407
206	0x3e0eab22	0.1393247
207	0xbd78d0c1	-0.06074596
208	0x3bbb79db	0.0057213134
209	0x3d8087d9	0.06275911
210	0x3def7561	0.1169231
211	0xbd78b991	-0.060723845
212	0x3e8d12c0	0.27553368
213	0xbd73e98e	-0.059548907
214	0xbd3d71c5	-0.046251077
215	0xbbd44d7b	-0.006478963
216	0x3dea3feb	0.11437973
217	0x3db935a7	0.090434365
218	0x3da73b97	0.08165663
219	0xbc502794	-0.012704749
220	0x3d89b1ea	0.067233875
221	0x3cb2d5ab	0.0218304
222	0x3be00f19	0.0068377373
223	0x3dc1db4d	0.094656564
224	0x3c2f887c	0.010713693
225	0x3d4902ed	0.049075056
226	0x3de9ed3f	0.11422204
227	0xbd6134b1	-0.05498189
228	0xbdda223a	-0.106510594
229	0x3d716ab1	0.05893964
230	0x3da9351b	0.08262082
231	0xbd0bf3c8	-0.034168035
232	0x3d44024f	0.047853764
233	0x3e8bedbf	0.27329823
234	0xbd1f235f	-0.038852092
235	0xbd7c34c5	-0.061573762
236	0x3ad5c68d	0.0016309783
237	0x3e2194cf	0.15779422
238	0x3d39426b	0.045229357
239	0xbd08f5c2	-0.033437498
240	0xbd510c2a	-0.05103699
241	0xbdf66c7c	-0.120324105
242	0xbce170fc	-0.027519695
243	0xbe16a7f3	-0.14712505
244	0x3c0ac458	0.008469664
245	0x3c342bd9	0.010996782
246	0x3dac51c6	0.084140345
247	0x3db5858f	0.08863365
248	0xbe0e12cd	-0.1387436
249	0x3e58e5c6	0.21181402
250	0xbce7b20e	-0.028283145
251	0x3dc8be6a	0.098019436
252	0xbe045a88	-0.1292516
253	0xbce3df56	-0.027816456
254	0xbce17f31	-0.02752647
255	0x3dfbf305	0.12302212
