results/WaterNetwork/PlayerRL/PlayerRL-399891.onnx (onnx, 6338 bytes, 6 tensors)

network_body._body_endoder.seq_layers.0.weight f4 [16, 2]
0	0xbe013467	-0.12617646
1	0xbf713802	-0.94226086
2	0x3f0844f6	0.53230226
3	0xbf006b2e	-0.50163543
4	0xbe7df0d8	-0.24798906
5	0x3f748a61	0.9552365
6	0xbe47ca96	-0.19510874
7	0xbf83fe6c	-1.0312018
8	0x3f0acb8e	0.5421685
9	0xbe06e6d8	-0.13173997
10	0xbf09f72a	-0.5389277
11	0xbf00e8c1	-0.50355154
12	0xbf31076e	-0.6915196
13	0x3e2b2d83	0.1671658
14	0x3e62adfd	0.22136684
15	0x3eea1e53	0.4572626
16	0x3c55a151	0.013038949
17	0xbde76c1c	-0.11299917
18	0xbf240303	-0.64067096
19	0x3f0d084e	0.55090797
20	0xbd9f7122	-0.0778525
21	0x3eaa5cdd	0.33273974
22	0x3f89c715	1.076388
23	0xbd6bdc27	-0.057583
24	0x3f93bfe7	1.1542939
25	0xbcafb49c	-0.021448426
26	0xbe8023ed	-0.2502741
27	0xbf7699b4	-0.9632828
28	0x3f2d28ff	0.6764068
29	0x3e360f9b	0.1777939
30	0x3db2141b	0.08695241
31	0xbecfbbfd	-0.4057311

network_body._body_endoder.seq_layers.0.bias f4 [16]
0	0x3c44c611	0.012010113
1	0xbd953463	-0.072853826
2	0x3e312bc1	0.17301847
3	0x3d69b84f	0.057060536
4	0xbc0e3df2	-0.008681761
5	0x3d847c06	0.06468968
6	0x3e451e32	0.192498
7	0x3dff0f01	0.12454034
8	0xbbb1a96a	-0.005421807
9	0x3c34896d	0.011019093
10	0x3dc85103	0.09781077
11	0x3ddde313	0.108343266
12	0x3dfdae52	0.123867646
13	0xbcf928f4	-0.030415036
14	0x3d97f08f	0.0741893
15	0xbc00c1ac	-0.007858675

network_body._body_endoder.seq_layers.2.weight f4 [16, 16]
0	0xbeb136ed	-0.34612218
1	0x3ef121a1	0.4709597
2	0xbe81c0d3	-0.25342426
3	0xbe537255	-0.20649083
4	0x3e1c7c3d	0.15281768
5	0xbe318c08	-0.17338574
6	0xbc1bd577	-0.009511343
7	0xbeb729b2	-0.35773998
8	0x3e2228b5	0.15835841
9	0xbe6af7ca	-0.22946087
10	0x3e395753	0.18099718
11	0x3e92ed54	0.28696692
12	0xbec2299f	-0.3792238
13	0xbe9e5a92	-0.30928475
14	0x3df91de2	0.12163903
15	0xbe5382d4	-0.20655376
16	0xbe5c327a	-0.2150363
17	0xbd8f6125	-0.07000951
18	0xbcf35477	-0.029703362
19	0xbe711303	-0.23542409
20	0xbedde7a6	-0.43340796
21	0x3eaf3717	0.34221718
22	0x3dc4fcce	0.09618531
23	0x3e2006b9	0.15627564
24	0xbdebdce2	-0.115167394
25	0x3e999650	0.29997492
26	0x3f168ac4	0.5880549
27	0x3d625469	0.05525628
28	0xbea995cf	-0.33122107
29	0xbca48f0e	-0.020087745
30	0xbf0db9c3	-0.55361575
31	0x3d8f25c0	0.06989622
32	0xbda53591	-0.080668576
33	0xbdb1f968	-0.086901486
34	0x3e51c197	0.20484005
35	0xbe06bb63	-0.1315742
36	0xbec37caf	-0.38181064
37	0xbe6034e8	-0.21895182
38	0x3ef5e323	0.48024854
39	0x3dfb2810	0.12263501
40	0x3c8a9221	0.016915383
41	0xbd6b154a	-0.05739335
42	0x3edb7a9e	0.42866987
43	0xbee0bba1	-0.4389315
44	0xbf07f85a	-0.5311333
45	0x3c8e9e5f	0.017409502
46	0xbab76201	-0.0013991
47	0x3cfcae0a	0.030844707
48	0xbe1e597e	-0.15463826
49	0xbdb63376	-0.08896534
50	0x3c25bd19	0.010115885
51	0x3e966946	0.29377192
52	0xbcfe5c6a	-0.031049926
53	0xbdf937bc	-0.121688336
54	0xbe970ff7	-0.29504368
55	0x3e3a7c8f	0.18211578
56	0x3e7bb1a0	0.24579477
57	0xbe28f9ed	-0.16501589
58	0x3cc9a3b9	0.024614202
59	0xbd0b37f9	-0.033988927
60	0x3efc3905	0.49262252
61	0x3d7d40ff	0.061829563
62	0xbe2863c0	-0.16444302
63	0xbf42b198	-0.76052237
64	0x3e31ea7f	0.1737461
65	0x3d4e22c3	0.05032612
66	0xbe408c19	-0.18803443
67	0x3d74dd08	0.059781104
68	0x3eaade47	0.3337271
69	0xbdbbeffc	-0.09176633
70	0xbe5f1c2d	-0.21788092
71	0xbd5ae023	-0.05343641
72	0xbee3c158	-0.44483447
73	0xbcce2dec	-0.025168382
74	0x3ed971b7	0.4246957
75	0xbe3a60e4	-0.18201023
76	0x3e4bf815	0.19918855
77	0xbe5e92a4	-0.21735626
78	0x3cd8d519	0.0264688
79	0xbdcf8645	-0.10133032
80	0x3c89b12f	0.01680812
81	0x3e0bd9b1	0.13657261
82	0xbf0f6f74	-0.5602944
83	0x3e6586e5	0.2241474
84	0x3efcb830	0.49359274
85	0x3d042c2e	0.032268696
86	0xbe425a81	-0.18979837
87	0xbd90723d	-0.07053039
88	0xbe54998d	-0.207617
89	0xbf0cc22e	-0.54983795
90	0xbe6ee20c	-0.23328418
91	0x3d0a15b6	0.03371211
92	0xbd928315	-0.07153908
93	0x3e11a55b	0.14223234
94	0x3d9454de	0.0724275
95	0x3e1f37c9	0.15548624
96	0xbe9e9639	-0.30973986
97	0xbde7732d	-0.11301265
98	0xbd760810	-0.060066283
99	0xbef68dd8	-0.48155093
100	0x3d44dd5e	0.048062675
101	0xbe554d1e	-0.20830199
102	0xbe3b8215	-0.18311341
103	0x3db181f7	0.08667367
104	0xbe34e0c1	-0.17663862
105	0xbe00f015	-0.12591584
106	0xbe61a4b7	-0.2203549
107	0x3e9a83e7	0.30178759
108	0x3e6e3b73	0.23264866
109	0x3b826437	0.0039792317
110	0x3e0f70da	0.14007893
111	0xbe138ff4	-0.14410383
112	0xbd1b5a20	-0.037927747
113	0xbe2409c4	-0.1601935
114	0x3ede4398	0.43410945
115	0x3e496137	0.19665991
116	0x3ea59ed8	0.3234775
117	0xbca2573d	-0.01981699
118	0xbf125a30	-0.57168865
119	0x3dbd219f	0.09234928
120	0x3eccf2a9	0.40028885
121	0xbc93029f	-0.017945586
122	0xbee9e2bd	-0.456808
123	0xbdbf64d9	-0.09345407
124	0x3f32a3b6	0.69781053
125	0x3e46668d	0.19375058
126	0x3f0d4f30	0.55198956
127	0xbddc8897	-0.1076824
128	0xbe490710	-0.196316
129	0x3df71e9c	0.12066385
130	0x3e86595f	0.2624006
131	0xbe643407	-0.22285472
132	0xbdb5d905	-0.08879284
133	0x3cacda60	0.021100223
134	0x3e3d43b8	0.18482864
135	0xbe96931c	-0.2940911
136	0xbf2604ad	-0.64850885
137	0x3f024789	0.50890404
138	0x3e3ff2d1	0.18744971
139	0x3d35f139	0.0444195
140	0xbeb582aa	-0.3545125
141	0xbeb05860	-0.34442425
142	0xbe09cf0e	-0.13457891
143	0xbe93d7cc	-0.28875577
144	0x3e07b634	0.13253099
145	0xbdcdc7a9	-0.10047848
146	0x3d963b61	0.073355444
147	0x3eea698b	0.45783648
148	0xbf01fafd	-0.507736
149	0xbebded33	-0.3709503
150	0x3f07a2f6	0.52983034
151	0xbd45b05e	-0.0482639
152	0xbe6c0f9d	-0.23052831
153	0x3f1a95cc	0.6038482
154	0xbcd30b60	-0.02576226
155	0xbed94815	-0.42437807
156	0x3e860d7a	0.26182157
157	0xbdf0ddf4	-0.11761084
158	0xbd794056	-0.06085237
159	0xbe6159b5	-0.22006877
160	0x3f1bb27d	0.60819227
161	0x3e01dd38	0.12682045
162	0x3e04d279	0.12970914
163	0xbec694b8	-0.38785338
164	0x3def1202	0.116733566
165	0x3d484c66	0.048900984
166	0xbeb8af1c	-0.36071098
167	0x3e3c9089	0.18414511
168	0x3e9cc632	0.3061996
169	0xbe5cfa91	-0.21579958
170	0x3eb8efb9	0.36120394
171	0x3d823398	0.06357497
172	0x3e948cc3	0.29013643
173	0xbe64c78c	-0.22341746
174	0x3ee4b88d	0.4467205
175	0xbe9ef078	-0.31042838
176	0xbe7e28f2	-0.24820307
177	0x3ea63c39	0.3246782
178	0x3e099d8e	0.13439009
179	0xbe36b0ed	-0.1784093
180	0x3d4d7da7	0.05016866
181	0xbe494696	-0.19655833
182	0xbec99735	-0.39373174
183	0x3c937f63	0.018005079
184	0xbdfdd5ff	-0.12394332
185	0xbdfe882e	-0.12428318
186	0x3d2c4a2c	0.042062923
187	0x3e5990f9	0.21246709
188	0x3e49216e	0.19641659
189	0xbd9af500	-0.07566261
190	0x3e2ec91d	0.17068906
191	0xbe2ab7b0	-0.16671634
192	0xbdbb3e59	-0.09142751
193	0x3e820f03	0.25402078
194	0x3ee93447	0.45547697
195	0x3eb5f618	0.35539317
196	0xbd5e478e	-0.05426746
197	0xbd0e85d2	-0.03479559
198	0xbf06e57d	-0.5269392
199	0x3ea832ff	0.32851407
200	0xbe4416b0	-0.1914928
201	0xbe1eb543	-0.15498833
202	0x3e6d8b6a	0.23197713
203	0x3d500c0a	0.05079273
204	0x3e741c41	0.23838903
205	0xbecbb29b	-0.39784703
206	0xbd06d38f	-0.0329166
207	0x3e65523c	0.22394651
208	0xbe9dfbbe	-0.30856127
209	0xbe6512a3	-0.2237039
210	0x3ea509f8	0.32234168
211	0x3e6b95db	0.23006384
212	0xbec123f4	-0.37722743
213	0xbec66ad0	-0.38753366
214	0x3f62ba5b	0.88565606
215	0x3f1cb42f	0.6121244
216	0xbc3b320a	-0.011425504
217	0x3e22a41a	0.15882912
218	0xbe7b5fba	-0.24548236
219	0xbde28976	-0.11061375
220	0xbf072fdd	-0.5280741
221	0x3dc48077	0.09594815
222	0xbddba4af	-0.1072477
223	0x3ea00bef	0.31259105
224	0x3ef5655a	0.47928888
225	0xbc14067a	-0.009034747
226	0xbd539bc4	-0.05166222
227	0x3e34f09d	0.17669912
228	0x3da598ce	0.08085786
229	0xbe567a7d	-0.20945163
230	0x3e8a4eff	0.27013394
231	0xbefcbc10	-0.4936223
232	0xbe9b0e19	-0.30284193
233	0xbe7b413d	-0.24536605
234	0xbe9071a5	-0.28211704
235	0xbebcbbd9	-0.36862066
236	0x3e861123	0.2618495
237	0xbd995d33	-0.074884795
238	0xbd565443	-0.052326452
239	0x3dfc5289	0.1232043
240	0xbeb0d75e	-0.34539312
241	0xbe0c8c10	-0.13725305
242	0x3d515129	0.05110279
243	0xbe19b29e	-0.15009543
244	0xbe61b657	-0.22042213
245	0xbdb786f3	-0.089612864
246	0x3e06638f	0.13123916
247	0x3ed85549	0.42252567
248	0xbe976765	-0.2957107
249	0xbf086219	-0.53274685
250	0x3e408b57	0.18803154
251	0x3eabd6c6	0.33562297
252	0x3eb2edad	0.34946957
253	0xbe7dd23c	-0.2478723
254	0x3f1f99ce	0.6234406
255	0xbe41fbab	-0.1894366

network_body._body_endoder.seq_layers.2.bias f4 [16]
0	0xbc9119d1	-0.017712506
1	0x3de2a254	0.11066118
2	0x3dd834b1	0.10556925
3	0x3d4fcc33	0.05073185
4	0x3cef4241	0.029206397
5	0xba383b34	-0.0007027865
6	0x3d972f5f	0.07382082
7	0x3cb50d16	0.022100966
8	0x3ce7a7ce	0.028278258
9	0x3d513c46	0.05108287
10	0x3ce8aa48	0.028401509
11	0x3cc28e71	0.023749562
12	0xbd0775fc	-0.033071503
13	0x3d36fbfa	0.044673897
14	0x3d307efb	0.043089848
15	0x3d9c21a9	0.07623608

action_model._discrete_distribution.branches.0.weight f4 [2, 16]
0	0xbdc8097f	-0.09767436
1	0x3e35cdde	0.17754313
2	0x3e75d0ba	0.24005404
3	0xbdee3324	-0.11630848
4	0xbc7dbf49	-0.0154875005
5	0x3df998e0	0.12187362
6	0xbdff067a	-0.12452407
7	0xbd30aa01	-0.04313088
8	0x3de9e13e	0.11419915
9	0x3e0f666a	0.14003912
10	0xbd519f68	-0.051177412
11	0xbd713d05	-0.058896083
12	0xbd08cc6a	-0.03339807
13	0x3de66281	0.11249257
14	0x3d8f7588	0.07004839
15	0xbdee7d59	-0.11645002
16	0x3c54dbed	0.0129918875
17	0xbdf26d40	-0.11837244
18	0xbe83d8d6	-0.2575137
19	0x3de29413	0.11063399
20	0x3d545ad4	0.051844433
21	0xbd906016	-0.07049577
22	0x3e1c28cc	0.15249938
23	0x3dc981b0	0.09839189
24	0xbd644049	-0.05572537
25	0xbdd62d38	-0.104578435
26	0x3dc1a6f0	0.09455669
27	0x3dac338c	0.08408269
28	0xbc21676d	-0.009851319
29	0xbe1c0b93	-0.1523879
30	0xbd67fcb9	-0.0566375
31	0x3e3b71c6	0.1830512

action_model._discrete_distribution.branches.0.bias f4 [2]
0	0x3c8b999c	0.01704102
1	0xbc8b999f	-0.017041026
