results/WaterNetwork/PlayerRL/PlayerRL-10299.pt (torch, 146826 bytes, 12 tensors)

network_body._body_endoder.seq_layers.0.weight f4 [128, 2]
00000000: 44db b03d 4553 0abe da44 1e3f 4233 aebd
00000010: 6839 c9be 0922 073c ed57 3f3e b9e2 63be
00000020: 2a91 7dbe e937 04bf 5e69 a23f 4b68 dabe
00000030: c2cd e1bd 495c 63bd ba3c 0f40 ffae 16be
00000040: dbfd 563f d73d 4cbb 4582 07c0 192a 133f
00000050: 03d3 773e 36cb cd3e 8989 d13d 571e 29be
00000060: b980 82bd 3368 1e3e 752d 803f 9c84 cd3e
00000070: a368 4a3e 3673 3a3f c3d2 953f c116 37bf
00000080: f560 25bf 5e26 5f3f 0bf2 4fbf e374 98be
00000090: 7ee8 483e 9278 2abe fc9a cfbe e226 bcbf
000000a0: ed2a 1b3f 9158 083e b477 c1bf 9d9b c6bf
000000b0: 554a da3c 1626 9bbf f2bc 5c3f 1175 9d3f
000000c0: 5c3a 483e 4d4e 803f f660 9ebf 5885 84bf
000000d0: 9141 84bf 8dbe 5abf 106e d43f c1ea b6bc
000000e0: 6a30 91bf 407d db3e afe7 ca3d 0f05 463e
000000f0: 0b5e b4bf 6cf7 a23f 7431 c73c 69f7 b23d
00000100: 4837 b23f df0b bcbf 071c 8bbc c16e 18bf
00000110: ac3f 1e3e 3e55 0ebf a0ab a53f d332 1f3e
00000120: 41a3 843f 60f7 edbe 504d 3dbf 93fa ffbe
00000130: 9698 95bf deb7 7d3f f35a 0f3d d356 8c3e
00000140: 36ae 343f 4084 f5bd afaf 28bf 6ebf c0bf
00000150: 6e58 143f af3f 4bbe 8be4 b4bf 708e 8fbf
00000160: f847 82bf 4340 8abe 04ee 1abf 9f94 553e
00000170: e5dc 0f3f 4c93 353f aefa 19bf 3f88 84be
00000180: 2f1a 94bf 992e 3c3d a9ae f43e 9e4f 60bc
00000190: c1dd 6dbe 5c74 f4be 9533 073f 9006 463f
000001a0: dbe9 a3be aa4e ed3e 43c4 0ac0 ac56 953e
000001b0: c669 f03e d7dd 11bf 90b1 183e 49ed 7fbf
000001c0: 4f66 593c a719 da3d 480f 09bd cd73 2dbe
000001d0: 9133 583e 4a68 90bf 8ce3 183f f567 993f
000001e0: 4d65 3dbf cf5d 973e eaf0 3e3d e4af 51be
000001f0: e8c1 ab3e 4f03 0dbf 80b3 0d3f 8291 883f
00000200: 76c5 a43f 5e65 f8be f059 7bbf 510e d1be
00000210: 0deb ff3e ec51 1e3f 3f2e a53f e87a 86be
00000220: 8c35 8dbe ef0e 793f 3af5 fdbe a179 67bf
00000230: 58de efbf 0a80 163f 2c74 ad3e d1da c6bd
00000240: 4efb bc3e d91a 26bf 2358 39bf 4edf 543f
00000250: f3a0 21bf 7742 43bd 5b6e 93bf af38 eebf
00000260: d14a a13f b8ff 323f 6ca8 7c3e 2e5d c4bf
00000270: f343 8c3e a19b 443f 0079 d1be bbaa 78be
00000280: f39b c9be ed7b 473c a3d8 a73e 2e7c 103e
00000290: 3f7a a5bf 4118 1a3f 6a25 7fbf fbd8 49bf
000002a0: b88d e0be bcc9 713d b6b6 b6be dc03 11be
000002b0: 6c1f 3c3f d910 763f 6e75 4b3e dac0 2e3e
000002c0: 7279 063f 43e4 1d3e b226 70ba b874 523f
000002d0: e289 79bf 56f7 6b3f 9058 243f 7f62 0f3d
000002e0: f0f2 643f 06fb be3e f700 133e b645 3d3e
000002f0: 5ad0 973e 7c1d 99bf cfcd b13f 5b0c 9abc
00000300: 7c92 ecbe 928a 87bf 12e1 aa3e f331 f43e
00000310: 6438 efbd 92a1 3fbd 9934 7d3e 9244 0c3d
00000320: 9b78 6d3f dcea a93e c24a 5c3f 5b9b d93e
00000330: bf01 75be 3afe 2f3f e663 783d 74f7 443e
00000340: 66e9 343f 6fc5 8ebe 456d 8d3e 1494 0fbe
00000350: 31d8 0dbf fb0d ef3e 1778 10bf 2772 37bf
00000360: dcc8 01bf 9a62 243e d216 b73e bd6f 45bf
00000370: 4051 06bf 62de 403f 3e61 693e 7bf6 02bf
00000380: bf70 663f d98a 913f 29a7 ebbe 48f3 5b3f
00000390: 0ad8 02bf a237 5abf 6441 45bd 4f11 36bf
000003a0: cdcc 1dbf a5e0 2f3f 4961 443f 9a11 873f
000003b0: 3b19 d0bd 5173 423f b3e9 fc3d 9b36 82bf
000003c0: fca9 c2be f939 8fbe 2083 15bf 565e 0dbf
000003d0: 392c 66bf 97a3 163f 2b1b b03e 6972 dbbf
000003e0: 69da 2dbf 41b1 d13e d33a a73e 3704 4f3e
000003f0: 5ae3 4c3f ca10 b3be cbba babe 7de8 8ebf
0.086355716 -0.13508327 0.6182381 -0.085058704 -0.3930161 0.008247861 0.18685885 -0.22254457
-0.24762407 -0.5164781 1.2688406 -0.42657694 -0.11025573 -0.05550793 2.2380815 -0.14715193
0.839811 -0.003116479 -2.117326 0.5748611 0.24201588 0.401941 0.10231311 -0.1651548
-0.06372208 0.15469436 1.0013872 0.40140235 0.19766478 0.7283205 1.1704944 -0.71519095
-0.6460107 0.8716792 -0.81228703 -0.29776677 0.19619939 -0.16647556 -0.4054793 -1.4699366
0.60612375 0.13315035 -1.5114655 -1.551624 0.026646772 -1.2120998 0.8622581 1.2301351
0.19553512 1.0023896 -1.237334 -1.0353193 -1.0332509 -0.8544701 1.6596088 -0.022328736
-1.13429 0.42868996 0.099074714 0.19337867 -1.40912 1.2731757 0.024315573 0.08738596
1.392312 -1.4691123 -0.016981138 -0.59544 0.15453976 -0.5559882 1.2943001 0.15546732
1.0362321 -0.46477795 -0.73946095 -0.4999586 -1.168719 0.99108684 0.034998845 0.27409992
0.70578325 -0.11988115 -0.6589307 -1.505842 0.57947433 -0.19848512 -1.4132246 -1.1215343
-1.0178213 -0.27002153 -0.60519433 0.20857476 0.56196433 0.7092788 -0.6014813 -0.25885198
-1.1570491 0.045942876 0.47789505 -0.013690857 -0.23229124 -0.47745025 0.5281308 0.77353764
-0.32014355 0.46349078 -2.1682289 0.29167688 0.469557 -0.56979126 0.14911485 -0.99971443
0.013269021 0.10649424 -0.03346184 -0.16938706 0.21113421 -1.1281826 0.5972221 1.198485
-0.739827 0.29563758 0.046616472 -0.20477253 0.33546376 -0.55083174 0.5535202 1.0669405
1.287276 -0.48514837 -0.9818411 -0.40831235 0.49984017 0.6184375 1.2904738 -0.26265645
-0.27579916 0.9728841 -0.49601156 -0.90419966 -1.8739729 0.5878912 0.33877695 -0.09709705
0.3691048 -0.64884716 -0.7240011 0.83153236 -0.63136214 -0.047670808 -1.1518053 -1.8611048
1.2600957 0.69921446 0.24673623 -1.5340936 0.2739559 0.7679997 -0.40912628 -0.24283879
-0.39376792 0.012175542 0.32782468 0.14109871 -1.2927932 0.6019326 -0.99666464 -0.7884671
-0.43858123 0.05903028 -0.35686272 -0.14161628 0.73485446 0.9611946 0.19869015 0.17065755
0.5252906 0.15419106 -0.00091610395 0.8220935 -0.9747602 0.9217428 0.64197636 0.035006043
0.89433193 0.3730089 0.14355837 0.18483624 0.29651147 -1.1962123 1.3890933 -0.01880472
-0.4620551 -1.0589163 0.3337484 0.47694358 -0.116806775 -0.046784945 0.24727096 0.03424508
0.92762154 0.33186996 0.8605157 0.4250134 -0.23926447 0.68747294 0.060642146 0.19235021
0.7066864 -0.27885005 0.2762243 -0.14021331 -0.55408007 0.46690354 -0.5643324 -0.7165856
-0.5069711 0.16053239 0.35759598 -0.77123624 -0.5246773 0.7533933 0.22791001 -0.5115735
0.90015787 1.1370498 -0.4602597 0.8591809 -0.511109 -0.8524114 -0.048158064 -0.7112016
-0.61640626 0.68702155 0.76710945 1.0552247 -0.10161062 0.7595721 0.12349262 -1.0172914
-0.38020313 -0.27973917 -0.58403206 -0.5522207 -0.8991123 0.5884337 0.34395728 -1.714429
-0.6791139 0.40955546 0.32662067 0.20216452 0.8003441 -0.34973747 -0.36470637 -1.11647

network_body._body_endoder.seq_layers.0.bias f4 [128]
00000000: 0000 0000 0000 0000 0000 0000 0000 0000
00000010: 0000 0000 0000 0000 0000 0000 0000 0000
00000020: 0000 0000 0000 0000 0000 0000 0000 0000
00000030: 0000 0000 0000 0000 0000 0000 0000 0000
00000040: 0000 0000 0000 0000 0000 0000 0000 0000
00000050: 0000 0000 0000 0000 0000 0000 0000 0000
00000060: 0000 0000 0000 0000 0000 0000 0000 0000
00000070: 0000 0000 0000 0000 0000 0000 0000 0000
00000080: 0000 0000 0000 0000 0000 0000 0000 0000
00000090: 0000 0000 0000 0000 0000 0000 0000 0000
000000a0: 0000 0000 0000 0000 0000 0000 0000 0000
000000b0: 0000 0000 0000 0000 0000 0000 0000 0000
000000c0: 0000 0000 0000 0000 0000 0000 0000 0000
000000d0: 0000 0000 0000 0000 0000 0000 0000 0000
000000e0: 0000 0000 0000 0000 0000 0000 0000 0000
000000f0: 0000 0000 0000 0000 0000 0000 0000 0000
00000100: 0000 0000 0000 0000 0000 0000 0000 0000
00000110: 0000 0000 0000 0000 0000 0000 0000 0000
00000120: 0000 0000 0000 0000 0000 0000 0000 0000
00000130: 0000 0000 0000 0000 0000 0000 0000 0000
00000140: 0000 0000 0000 0000 0000 0000 0000 0000
00000150: 0000 0000 0000 0000 0000 0000 0000 0000
00000160: 0000 0000 0000 0000 0000 0000 0000 0000
00000170: 0000 0000 0000 0000 0000 0000 0000 0000
00000180: 0000 0000 0000 0000 0000 0000 0000 0000
00000190: 0000 0000 0000 0000 0000 0000 0000 0000
000001a0: 0000 0000 0000 0000 0000 0000 0000 0000
000001b0: 0000 0000 0000 0000 0000 0000 0000 0000
000001c0: 0000 0000 0000 0000 0000 0000 0000 0000
000001d0: 0000 0000 0000 0000 0000 0000 0000 0000
000001e0: 0000 0000 0000 0000 0000 0000 0000 0000
000001f0: 0000 0000 0000 0000 0000 0000 0000 0000
0.0 0.0 0.0 0.0 0.0 0.0 0.0 0.0
0.0 0.0 0.0 0.0 0.0 0.0 0.0 0.0
0.0 0.0 0.0 0.0 0.0 0.0 0.0 0.0
0.0 0.0 0.0 0.0 0.0 0.0 0.0 0.0
0.0 0.0 0.0 0.0 0.0 0.0 0.0 0.0
0.0 0.0 0.0 0.0 0.0 0.0 0.0 0.0
0.0 0.0 0.0 0.0 0.0 0.0 0.0 0.0
0.0 0.0 0.0 0.0 0.0 0.0 0.0 0.0
0.0 0.0 0.0 0.0 0.0 0.0 0.0 0.0
0.0 0.0 0.0 0.0 0.0 0.0 0.0 0.0
0.0 0.0 0.0 0.0 0.0 0.0 0.0 0.0
0.0 0.0 0.0 0.0 0.0 0.0 0.0 0.0
0.0 0.0 0.0 0.0 0.0 0.0 0.0 0.0
0.0 0.0 0.0 0.0 0.0 0.0 0.0 0.0
0.0 0.0 0.0 0.0 0.0 0.0 0.0 0.0
0.0 0.0 0.0 0.0 0.0 0.0 0.0 0.0

network_body._body_endoder.seq_layers.2.weight f4 [128, 128]
00000000: d732 3bbd f89a d2bd 09b2 c4bd 3cf4 5d3d
00000010: f750 dfbc acb1 2bbe 2780 963d 3913 033e
00000020: ab3a ad3d b3fe 66bd 2234 943c f078 23bd
00000030: a39b 663d 48d6 653d 9a11 cdbc 4475 cdbd
00000040: a834 cebd 647e 05bc e0b4 b8bd f631 1d3e
00000050: ee48 363d b9e7 d3bd 500a d53d 0171 3b3c
00000060: 05be b93c a5f1 6c3d aaa8 d7bd b374 ae3d
00000070: ea71 973d 1705 42be 6b4f d03d 94e5 4b3c
00000080: 5e36 19bd b428 5cbd 85c3 98bc 18b1 2fbc
00000090: d52c 94bd 0ced 3abe 4655 debd f531 e6bd
000000a0: 7c4e 11bd c90b 1cbe ed0a 07be 2ced 473e
000000b0: 86e9 bdbd c2f2 b03c 60b0 88bd f18b bfbd
000000c0: 7d0f 293d 8df7 63bb c889 67bd 7187 e83d
000000d0: d6bb 62bd 0526 b03d 6588 b63b 77f1 6fbd
000000e0: 213d 153e 3215 a3bd a91d 533d fca9 bfbd
000000f0: f719 65bc 4b8d 043c d0a2 f7bc afbe 983d
00000100: 63dd bb3d ba0d a4be ad38 80bc e3f9 d2bd
00000110: dc9b 593d 922b bc3d 70dc f63c efb8 ec3d
00000120: a819 2a3d faaa 283e b4e7 543d 6af2 00bc
00000130: a086 22bd 7aee e03d 4c89 06bc 4673 09bc
00000140: 177f dcbd f6bd 893d 6ec2 113a be0a 29be
00000150: f3dc fa3d 71f5 da3d f289 983d 06fa 47bd
00000160: d9a6 e6bc a94f 9bbd 7db4 353e e4ec ab3c
00000170: 639a 723b 8c1e 1d3a d26a e73d 073d 8a3d
00000180: 423b 203e 8c0c b9bc c339 b93d d328 a1bd
00000190: b048 cb3d f779 083e d797 30be 4a39 7e3d
000001a0: 12b1 3cbd 360d fbbc d9cc d73c 9f5f 55bd
000001b0: 7353 753d c5e6 43bd 2bce 7abd 827e ce3d
000001c0: 33fb 823d 13dc 6dbd 23b7 7f3d edab e2bd
000001d0: 78ad e63b d852 533d 986e efbc 0a1c 813d
000001e0: f472 d83d 262d ca3b 639f fa3c 67f3 e5bd
000001f0: 146e 0ebd 2744 61bd a31a e83c e5a9 a2bc
00000200: 573e 9fbd ad16 b13d e9ca 97bc 0324 c6bd
00000210: b8fe 1f3c c4e2 333e 6d57 8a3d 8a61 503e
00000220: b689 4cbe 81f3 813e 2e5f 25bd 3774 f7bc
00000230: ad5f 49bd 300a b3bd 8edb 683d 9ad7 2d3c
00000240: 6610 ee3c 388c b7bb 2c7d e83d 4175 e83c
00000250: 77c6 183d 4fb3 df3c 5de6 63bd e3b0 9cbb
00000260: c92a 5dbd 386d a9bd 2f0c 983d ba92 2f3e
00000270: f767 efbd c235 18be 9d97 5f3d 95e3 42bc
00000280: bd1b b5bd f656 8bbe c9ab c33d 69f3 39bc
00000290: a276 26bd ed5a be3d 09e9 b33d 1f58 c0bc
000002a0: 76df 993c ecd4 9c3d 8ce8 69bc 8351 29be
000002b0: 4e93 943d 8424 62bc 9768 9cbd 848a 5cbd
000002c0: 72da 5f38 d320 633d 6238 523d bd65 433d
000002d0: e29c f33d fdf2 173d c24c 883b 27f5 ffbd
000002e0: ae90 063d b712 d93d 03ae 633d 304d 213d
000002f0: a6f2 86bc f6ce cfbd d7eb 1ebd 4c4e 5e3e
00000300: 347c b93d f2d2 0d3d 4c95 893d 278d 20bc
00000310: fc8b cebd 8a73 17bc a01e 49bc fc68 b7bd
00000320: 3b3a 373d ebf3 8e3d e9db 803d 2eea 943c
00000330: 3f99 663b b741 c9bd 37d5 08be d9f8 093e
00000340: 278b b63d dd68 64bc 38fe fc3d 8450 1bbe
00000350: e1e2 093e e9d0 8fbd 1264 f3bd aee9 203d
00000360: a7c6 273e f5cb 753d 24c8 a1bd 7fa8 20be
00000370: a665 53bd 1104 bf3d e506 073e 659e 643b
00000380: e850 33bd f33f 393d e364 3cbd f5ca c9bd
00000390: 6274 58bc d09d 4ebd 5f82 d6bd 518a 3a3e
000003a0: c500 85bc 6dfe e5bc 4fb3 033e 53e3 c73d
000003b0: 345e 19bd 4b4e f83d e381 b6bd e3bf dd3c
000003c0: 7db0 4abd 3e87 3f3e 2cb7 acbd bbe6 72bd
000003d0: 4f79 99bb ddf5 483e a535 a13d 9525 be3d
000003e0: 1fd3 d03c e0c3 f4bd 0497 cabc ae5c b73d
000003f0: 0e17 febb dee1 0abd ed08 703d aa42 08bd
-0.04570278 -0.10283464 -0.0960427 0.054188 -0.027260287 -0.16766995 0.07348662 0.12800302
0.08458456 -0.056395244 0.018091265 -0.039910257 0.05630077 0.056112558 -0.025032807 -0.10032132
-0.10068637 -0.00814781 -0.09018874 0.1535109 0.044503145 -0.10346932 0.104023576 0.011440516
0.022673616 0.057847638 -0.10530217 0.08518352 0.07394774 -0.18947254 0.10171398 0.012444872
-0.037405364 -0.053749755 -0.018647918 -0.010723375 -0.072351135 -0.18254489 -0.10856108 -0.11239997
-0.03547524 -0.1523887 -0.13187762 0.19524068 -0.09273057 0.021600131 -0.06674266 -0.093528636
0.041274536 -0.0034785003 -0.056527883 0.113539584 -0.055354916 0.08601002 0.0055704587 -0.05857989
0.145741 -0.07963027 0.051541958 -0.09358594 -0.013983241 0.0080903275 -0.030229002 0.07458245
0.091730855 -0.32041723 -0.015652025 -0.10301568 0.053127155 0.09187998 0.03013441 0.11558711
0.041528374 0.16471472 0.05197878 -0.007870296 -0.03967917 0.10982986 -0.008211445 -0.0083893
-0.10766428 0.06725685 0.00055602833 -0.16508004 0.12249174 0.106913455 0.07448186 -0.048822425
-0.028155731 -0.07583553 0.17744632 0.020986982 0.0037018291 0.00059936265 0.11299671 0.06749921
0.15647605 -0.02258899 0.0904422 -0.07869115 0.099259734 0.13327776 -0.17245422 0.062066354
-0.046067305 -0.030645948 0.026342796 -0.052093145 0.059894037 -0.0478275 -0.061231773 0.10082723
0.06395569 -0.058071207 0.062430512 -0.110679485 0.007039722 0.051592678 -0.02922754 0.06304176
0.105688006 0.006169933 0.03059358 -0.11228066 -0.034772947 -0.054996636 0.028333014 -0.019856403
-0.07775562 0.08646903 -0.018529372 -0.096748374 0.0097653195 0.17566973 0.067549564 0.20349708
-0.19974408 0.2538109 -0.040373974 -0.030206783 -0.04916351 -0.087421775 0.05685001 0.010610485
0.029060554 -0.005601432 0.11352 0.028376224 0.037298646 0.02730718 -0.055639613 -0.0047818287
-0.05399588 -0.08272785 0.07424199 0.17145815 -0.116897516 -0.14864257 0.05458795 -0.01189508
-0.08843181 -0.27214783 0.0955425 -0.011349537 -0.04064048 0.092946865 0.08784682 -0.02347952
0.018783312 0.07657799 -0.014276635 -0.16535 0.07254659 -0.013802651 -0.076371364 -0.053843036
5.3370786e-05 0.055451225 0.051323302 0.047704447 0.118951574 0.037096966 0.004159541 -0.12497931
0.03285282 0.10599273 0.055585872 0.039380252 -0.016473126 -0.101468965 -0.038799133 0.21709555
0.09056893 0.034625 0.06717929 -0.009799278 -0.10085294 -0.009243855 -0.012275368 -0.08955571
0.044733267 0.069801174 0.062919445 0.018178072 0.0035186557 -0.09826987 -0.13362585 0.13473834
0.0891326 -0.013941017 0.12353176 -0.15167433 0.13465454 -0.07022268 -0.11884321 0.039285354
0.16384374 0.06000896 -0.07899502 -0.15689276 -0.05161061 0.093269475 0.13186224 0.003488445
-0.04377833 0.045227002 -0.04599465 -0.09853164 -0.013211342 -0.05044347 -0.10474085 0.18216826
-0.016235719 -0.028075421 0.1286137 0.097601555 -0.037443355 0.12124308 -0.08911493 0.027069038
-0.04948472 0.18703935 -0.08433375 -0.059302073 -0.0046836506 0.1962504 0.0787156 0.09284512
0.025491295 -0.11951423 -0.024730213 0.08953224 -0.007754213 -0.03390681 0.058602262 -0.0332667

network_body._body_endoder.seq_layers.2.bias f4 [128]
00000000: 0000 0000 0000 0000 0000 0000 0000 0000
00000010: 0000 0000 0000 0000 0000 0000 0000 0000
00000020: 0000 0000 0000 0000 0000 0000 0000 0000
00000030: 0000 0000 0000 0000 0000 0000 0000 0000
00000040: 0000 0000 0000 0000 0000 0000 0000 0000
00000050: 0000 0000 0000 0000 0000 0000 0000 0000
00000060: 0000 0000 0000 0000 0000 0000 0000 0000
00000070: 0000 0000 0000 0000 0000 0000 0000 0000
00000080: 0000 0000 0000 0000 0000 0000 0000 0000
00000090: 0000 0000 0000 0000 0000 0000 0000 0000
000000a0: 0000 0000 0000 0000 0000 0000 0000 0000
000000b0: 0000 0000 0000 0000 0000 0000 0000 0000
000000c0: 0000 0000 0000 0000 0000 0000 0000 0000
000000d0: 0000 0000 0000 0000 0000 0000 0000 0000
000000e0: 0000 0000 0000 0000 0000 0000 0000 0000
000000f0: 0000 0000 0000 0000 0000 0000 0000 0000
00000100: 0000 0000 0000 0000 0000 0000 0000 0000
00000110: 0000 0000 0000 0000 0000 0000 0000 0000
00000120: 0000 0000 0000 0000 0000 0000 0000 0000
00000130: 0000 0000 0000 0000 0000 0000 0000 0000
00000140: 0000 0000 0000 0000 0000 0000 0000 0000
00000150: 0000 0000 0000 0000 0000 0000 0000 0000
00000160: 0000 0000 0000 0000 0000 0000 0000 0000
00000170: 0000 0000 0000 0000 0000 0000 0000 0000
00000180: 0000 0000 0000 0000 0000 0000 0000 0000
00000190: 0000 0000 0000 0000 0000 0000 0000 0000
000001a0: 0000 0000 0000 0000 0000 0000 0000 0000
000001b0: 0000 0000 0000 0000 0000 0000 0000 0000
000001c0: 0000 0000 0000 0000 0000 0000 0000 0000
000001d0: 0000 0000 0000 0000 0000 0000 0000 0000
000001e0: 0000 0000 0000 0000 0000 0000 0000 0000
000001f0: 0000 0000 0000 0000 0000 0000 0000 0000
0.0 0.0 0.0 0.0 0.0 0.0 0.0 0.0
0.0 0.0 0.0 0.0 0.0 0.0 0.0 0.0
0.0 0.0 0.0 0.0 0.0 0.0 0.0 0.0
0.0 0.0 0.0 0.0 0.0 0.0 0.0 0.0
0.0 0.0 0.0 0.0 0.0 0.0 0.0 0.0
0.0 0.0 0.0 0.0 0.0 0.0 0.0 0.0
0.0 0.0 0.0 0.0 0.0 0.0 0.0 0.0
0.0 0.0 0.0 0.0 0.0 0.0 0.0 0.0
0.0 0.0 0.0 0.0 0.0 0.0 0.0 0.0
0.0 0.0 0.0 0.0 0.0 0.0 0.0 0.0
0.0 0.0 0.0 0.0 0.0 0.0 0.0 0.0
0.0 0.0 0.0 0.0 0.0 0.0 0.0 0.0
0.0 0.0 0.0 0.0 0.0 0.0 0.0 0.0
0.0 0.0 0.0 0.0 0.0 0.0 0.0 0.0
0.0 0.0 0.0 0.0 0.0 0.0 0.0 0.0
0.0 0.0 0.0 0.0 0.0 0.0 0.0 0.0

action_model._continuous_distribution.mu.weight f4 [1, 128]
00000000: 2eee 923c 8d32 15bd a372 4dbc 5bed 313b
00000010: b396 2fbc f6ab b9bc e652 bc3c cf47 653b
00000020: d8eb 133d 8511 153b 8f4d 69bc e3ee f2ba
00000030: 4345 e23b 555a 813b a73b 523c 7f7e 053d
00000040: eaa1 32bc 67dd 0fbc ed28 93bc 35e8 3d38
00000050: 97a6 083b 4376 10bd 035c 39bd 5e41 083d
00000060: 68cf 08bc 86a2 403d b325 dd3c 8570 b43c
00000070: 4ca2 45bc abfe c43b a2b8 62bb 4f86 9bbb
00000080: 0ba5 123c ff76 fd3b 5dc0 df3c bd1a 74bc
00000090: 8020 aabc 73c4 d4bc 4735 26bd 3d33 ecbb
000000a0: 0c29 15bd dcfc 8b39 4518 c73a e3cb cdbb
000000b0: 0fcd 70bb 5ba1 883c c7f3 073d 1d71 a63c
000000c0: a82e b3bc bb4f 1b3a a218 4f3c 6a89 41bc
000000d0: e313 7b3c 1b02 b03c fe94 ac3c db5e 113c
000000e0: 1cb3 8bbc 72b2 bcbc f387 14bc 43af c23c
000000f0: d558 8dbc 5584 653c edab eb3b 253b df3c
00000100: 0f26 3dbc 9514 353a 2324 52bc 46e9 973c
00000110: a041 4d3c 3a63 513b 548d 80bc 9ff0 303b
00000120: 77a0 4c3c 2d31 be3c 2a52 863c c062 173c
00000130: 839a 54bc 410a 233c c0d4 99bc b732 a1bb
00000140: ce09 023d b399 283c afe1 d1bc 8c81 933c
00000150: ab8f 1a3c 7228 cdbc 1714 613a 4746 27bc
00000160: f831 c13c 222f 81bc 9f85 34bc a7ff 5b3b
00000170: 8e38 063b 5770 af3c 148d 97bc 9f19 6a3c
00000180: 0b74 ae3a 024b cabc 65fa 7c3c 74d5 8c3c
00000190: 5e35 1ebc 49d1 2dbc 65a8 61bc f142 8cbc
000001a0: e640 20bc cd1f 47bc 5535 febc 2332 5d3c
000001b0: 7a36 073b d016 2a3c 9740 9ebb 645a 2ebc
000001c0: 9d47 433c 07f9 63bb 956f 4fbd 0038 c43c
000001d0: 8385 4bbc 98e3 d4bc b4c6 81bc 9378 9e3a
000001e0: c017 5eba 877c 27bc b20b 6939 9604 a9bc
000001f0: 127b aebc 572b 933c 7aa6 a13b fd77 13bd
0.017935839 -0.036425162 -0.012539539 0.0027149532 -0.010717082 -0.022665005 0.022988748 0.0034985428
0.03611359 0.0022746038 -0.014239683 -0.0018534329 0.0069052293 0.003947536 0.012831605 0.03259134
-0.010902861 -0.008780814 -0.01796385 4.527737e-05 0.0020851248 -0.035269033 -0.045253765 0.033265464
-0.008350231 0.047029994 0.026995515 0.02202631 -0.01206262 0.006011804 -0.0034594913 -0.0047462354
0.008950482 0.0077351327 0.027313406 -0.014898953 -0.02076745 -0.02597258 -0.040578153 -0.0072082565
-0.0364161 0.0002670054 0.0015189728 -0.0062804087 -0.0036743318 0.016678503 0.03319147 0.020317608
-0.021872833 0.00059246615 0.01264015 -0.011812547 0.015324566 0.021485379 0.021067139 0.008872713
-0.01705318 -0.023034308 -0.009065616 0.023765212 -0.017254272 0.014008601 0.007192126 0.027249882
-0.011544718 0.0006907669 -0.0128259985 0.01854385 0.012527853 0.0031950013 -0.01569239 0.002699889
0.01248943 0.023216808 0.0163966 0.009239852 -0.012976292 0.009951175 -0.018778205 -0.0049193758
0.03174763 0.010290551 -0.02562031 0.018006109 0.009433667 -0.0250437 0.00085860625 -0.0102096265
0.023583397 -0.015769545 -0.011018186 0.0033569129 0.0020480487 0.021415872 -0.018499888 0.014288335
0.001330973 -0.02469397 0.015440558 0.017191626 -0.009656278 -0.0106089795 -0.013773059 -0.017121764
-0.009781098 -0.012153578 -0.03103129 0.013500723 0.0020631836 0.0103814155 -0.004829477 -0.010641668
0.011918929 -0.0034785883 -0.050643522 0.023952484 -0.012421968 -0.025987431 -0.01584182 0.0012090377
-0.0008472167 -0.010222561 0.00022224968 -0.02063207 -0.021298919 0.017965002 0.0049331756 -0.0360031

action_model._discrete_distribution.branches.0.weight f4 [2, 128]
00000000: c8ff 613c cbab cc3a bc7f 163c d2d2 6e3c
00000010: e44b 8ebc 4710 923b 5f6f 883b 90d7 92bb
00000020: e731 5cbc 185a 753b 2385 443c 2880 c1bb
00000030: 9f8f bcbb 12ee 8bba 823c febb cdfd ae3b
00000040: 7db3 013c 20e7 5d3a 42db 703b d5cc 03bc
00000050: e727 5bba 110c 15bc d8c3 b3bc f728 5e3b
00000060: 902d bdb9 3fde 16bb a6fc 8b3c dda3 193c
00000070: 472c 16bc da1c f3b9 1260 d83b 570b a1ba
00000080: 82fe 7a3a 57cc 38bc 6871 623c 93c0 d63a
00000090: 17fc 97ba ff2d f13a 92b1 e5bb d315 17bc
000000a0: 9f6a 563c d5e8 823c c8a5 983a d27c 0fbb
000000b0: 01f4 c63c 57f9 383b c1d9 96bb c8be 60bc
000000c0: cab0 063c ee52 c63b d711 f63b 8704 003b
000000d0: c3be 803b 7f3a eaba 73f4 4abc f474 413c
000000e0: f40d b239 924c d9bb 8ffe c739 e9f0 90bc
000000f0: 27b2 9f3b 4338 9bbb 4da7 0e3c 5c83 0dbb
00000100: e2b5 e83c db73 f5bb 2f4b 5e3a 8a4a 613c
00000110: 7b04 02bc eb92 083c 15c8 373c 9a26 a0bb
00000120: 9f5c 9e3c 5f22 eebb b7b9 963b db5a 1c3c
00000130: dfe5 e33b c058 8fbc 317c 803a cf7e 3d3b
00000140: 7632 423b 55e8 e33b 1398 02bb 5836 5c3c
00000150: 008a 1cbc 22a8 c13a e872 12bb edba 2d3b
00000160: c1d9 4abc 277c b43b ab10 4dbb fd40 ec39
00000170: a875 ce3a 1112 cb39 c153 45bb e047 74bb
00000180: 16f1 ca3b d0af 4e3c b345 03bc e004 5bbb
00000190: 9e6a 21bb 7b9a 3dbb c9d9 043c dfae b83b
000001a0: 87b2 9837 3ba0 59bc 6ac6 db3b ed1a 06bc
000001b0: 3207 71bc e2e1 2dbb 9d5a a73b 6382 433c
000001c0: fa95 713b e27d 0e3c 0f4e ba3b beaa a9ba
000001d0: a7b1 4a3c 1110 923c 6dbc 20bb 9db4 0b3c
000001e0: ff9b 96ba f707 71b9 62d3 67bc c491 cabb
000001f0: 5dd2 e5bb 0158 003b 4748 20bc 178a 7a3b
00000200: a922 b73c 0022 d6bb 2a64 12bc 4ef7 313c
00000210: 615c 0a3c 1156 2e3c 8746 cb3a 8fa2 003c
00000220: 3a15 7d3a 6da7 843b e37c f2bb 3b35 ea3b
00000230: 0006 023c 03f8 9bbb ad39 653a d996 303c
00000240: 8262 57bb 78e7 813b eae4 b5bb f211 dd3a
00000250: 3f35 d5bb 6281 f4bb e1ad b3bb 3b97 083c
00000260: 9fcf d73a 1861 ed3b 0488 17bb ebd7 033b
00000270: 2856 0e3c ad60 203c 6291 983b f171 b5ba
00000280: d933 02bc 8a9d 3b3c fe9f 15ba 5dde e53b
00000290: 93da 733c d236 6dbb 979a 51bb 706c 7aba
000002a0: b02e 4a3b 0bc3 27bc 73f8 73bc 9dd7 803c
000002b0: ab5f a3ba dab8 043b 13d6 303c fb5b 82bb
000002c0: 5e9b b43b 07f4 913c f415 1d3b 6008 e5bb
000002d0: 2ddf 68bc abbb cfbb 5bc5 da3b f2c0 d0bb
000002e0: 8feb 58bb 4a06 213c cc9e 923a 8b43 803c
000002f0: 28fa 61bc d313 02bc 2fcc 3fbb e027 cd39
00000300: f5b8 34bb 5226 8bbc eea8 8d3b 3001 77ba
00000310: 9786 9cbb 1a46 09bb 8052 5fbc 4aac 1838
00000320: 9096 92bb 67bc c1b9 7e14 21bc 50ea 623b
00000330: 6ccd 0cbc a799 3f3c d1b9 02bc cdcf c03a
00000340: b041 503a 6687 12bc 273d 61b9 da12 e1bb
00000350: b3cd e5bb fa6d 563c 1f98 5ebc fd98 5f3b
00000360: 2ffa ad3b 8752 353c a470 1a3c 8fdd 1a3b
00000370: 0b41 1c3c 415c c7bb c885 65bc a366 b6bc
00000380: 6dd9 7dbb 1005 223c 2775 03bb 7353 5e3c
00000390: 9136 2f3c 63b8 243c 3565 d53b fb63 1e3c
000003a0: 2f34 da3a 7b5e 533a 07f8 d93a c31b ecba
000003b0: 83df 3dbc 82cb 8739 149c 983c 5dc4 e83b
000003c0: 5b3e 24bc b6c7 9fbb 433d a83b 8b9f 273b
000003d0: e462 3d3c eb5a 843b ef85 f3b8 53ba e3bb
000003e0: ec8c a9bb 580b 503c 86ed a0ba 47da 93bb
000003f0: 7fee 3a3c 2a2e c3bb 747c 32bb c525 f13b
0.013793893 0.0015615163 0.009185728 0.014576631 -0.017370172 0.004457507 0.004163667 -0.0044812635
-0.013439632 0.0037437733 0.011994633 -0.00590517 -0.0057544257 -0.0010675809 -0.007758678 0.005340314
0.0079163285 0.0008464921 0.0036751782 -0.008044441 -0.0008360133 -0.009097115 -0.021943972 0.0033898929
-0.00036082836 -0.0023020653 0.017088246 0.009377447 -0.00916583 -0.00046370068 0.0066032493 -0.0012286705
0.0009574668 -0.011279187 0.0138209835 0.0016384296 -0.0011595514 0.0018400549 -0.0070096934 -0.009221512
0.013086944 0.015980164 0.0011646086 -0.0021894467 0.024286272 0.002822479 -0.004603595 -0.013717361
0.008220861 0.0060523665 0.007509451 0.0019533949 0.0039289906 -0.0017870216 -0.012387383 0.011807669
0.00033961202 -0.0066314423 0.000381459 -0.017693 0.0048735323 -0.0047369315 0.00870688 -0.002159319
0.028407041 -0.0074906177 0.0008479831 0.013750682 -0.007935639 0.008335809 0.011217137 -0.004887414
0.019331275 -0.007267281 0.0045997757 0.009543146 0.006954893 -0.017498374 0.0009802637 0.0028914695
0.0029632128 0.0069551864 -0.001992707 0.013440691 -0.009554386 0.0014774839 -0.0022346321 0.0026509122
-0.012381018 0.005507964 -0.0031290452 0.00045061848 0.0015751617 0.00038732638 -0.0030109736 -0.0037274286
0.0061932905 0.012615159 -0.008012223 -0.0033419654 -0.00246302 -0.002893119 0.008108565 0.0056360806
1.8202945e-05 -0.013282831 0.0067070024 -0.008185131 -0.014711188 -0.0026532342 0.0051072375 0.011932942
0.0036863075 0.008697005 0.005685575 -0.0012944562 0.012371457 0.017829927 -0.0024526373 0.008526948
-0.0011490582 -0.00022986518 -0.014149519 -0.0061819274 -0.0070136026 0.0019583704 -0.009782857 0.003822928
0.022355394 -0.006534815 -0.008935014 0.010862185 0.008444876 0.010640637 0.001550869 0.007851257
0.0009654347 0.004048279 -0.0074001416 0.007147459 0.007936001 -0.00475979 0.0008744251 0.010778152
-0.0032865112 0.003964361 -0.0055509703 0.001686631 -0.0065065916 -0.0074617127 -0.0054833745 0.008336837
0.0016465074 0.0072442405 -0.0023121843 0.002011771 0.008687533 0.009788674 0.004656003 -0.0013843161
-0.007946932 0.011451134 -0.00057077396 0.007015033 0.014883655 -0.0036196006 -0.0031983012 -0.00095529016
0.0030850582 -0.010239373 -0.014890778 0.015727812 -0.0012464424 0.0020251782 0.010793227 -0.00397825
0.0055116853 0.017816557 0.0023969384 -0.006989524 -0.0142133655 -0.0063395104 0.0066763586 -0.006370657
-0.0033099388 0.00982816 0.0011186241 0.015657207 -0.013792552 -0.007939297 -0.002926599 0.00039130356
-0.0027576063 -0.016986046 0.0043231165 -0.0009422479 -0.0047767865 -0.0020946325 -0.013630509 3.640008e-05
-0.004473515 -0.000369522 -0.009831546 0.0034624524 -0.008593898 0.011694348 -0.007978872 0.0014710367
0.00079443585 -0.008943414 -0.00021480453 -0.0068687024 -0.0070130466 0.013087744 -0.013586073 0.0034118288
0.005309365 0.011067039 0.00942627 0.0023630594 0.009536992 -0.0060839956 -0.014008947 -0.022265738
-0.0038734332 0.009888902 -0.0020058842 0.0135697005 0.010694162 0.010053727 0.006512309 0.009667392
0.0016647632 0.000806309 0.0016629704 -0.0018013645 -0.011588934 0.00025900832 0.018629111 0.0071034865
-0.010024632 -0.0048761023 0.005134256 0.0025577273 0.011559222 0.0040391586 -0.0001161209 -0.006949702
-0.00517427 0.012698017 -0.0012277819 -0.0045121047 0.011409401 -0.005956431 -0.0027234824 0.007359239

action_model._discrete_distribution.branches.0.bias f4 [2]
00000000: 0000 0000 0000 0000
0.0 0.0

network_body._body_endoder.seq_layers.0.weight f4 [128, 2]
00000000: 9c5d 373f 9825 96bf 0b0f f2be 1c6b f1bc
00000010: 9d49 53bd 8f8b b73d 7229 a03d d510 49bf
00000020: 7fb4 adbf 177f 2cbf 3df6 303e ec32 443c
00000030: 146b 5dbf f7fc 803e bdfb fa3f bcdb 2abf
00000040: 4762 d0be 77a6 2bbe cc3e e53e 7119 e4be
00000050: ce0a bbbf 9eb0 673e ab69 4a3f c672 8fbf
00000060: 29e7 ec3d 0dc4 d0be a7e6 46be 59bb 003f
00000070: bf74 7dbf a8a8 613e 1fcb e0be ce4f 823e
00000080: afbf c53d ac3d 22bf 5fca 5dbf e699 44bf
00000090: 0faf f13d ee1e b73f 2559 e0be 8ede da3d
000000a0: f204 f43f 202d 7abe c99b b3bf 26a2 86be
000000b0: 01f0 9a3f 96d8 f23e be39 7e3f 5e85 73bc
000000c0: f72f 7f3f 04a3 94be 3104 ea3e c90a 14be
000000d0: a4b9 3f3f 7dbb 023f 151a d23d 131b 00c0
000000e0: 4b1d 21be 59ba 84bf ba9d 2bbf 7d91 ab3e
000000f0: 9d95 b1be 4a87 84bf a90f 70bf 4b7d 803e
00000100: 2966 cc3d b22a 2dbf 1fc5 22bf 1f57 2e3f
00000110: 3470 75be fac1 83bf f38a b3bf c1e7 033d
00000120: e18b 273f ed4c d23f 958f abbf ccff 993f
00000130: d925 5cbe 1c67 613f 9f83 f4bf ef63 12bf
00000140: e006 eabe 1c1e 62be b81a c03c 0e7f 81be
00000150: 36cd 113f 2a55 1c3f 8316 1bbf e05d 093e
00000160: 70ce d5bd 9431 1ebe 3f6a 46be 5872 0040
00000170: eedf 063f 7edd 143f 7b42 b2be 0f37 ea3e
00000180: d556 193e 6f95 bc3e 9422 40bf 8f99 09bf
00000190: 2802 42bf 1079 453f 27f9 a03f c511 723f
000001a0: 93f6 5ebf b20f 773f c6a4 383f 6afc c63f
000001b0: ba71 5f3f 9636 2dbc 515e a23d 291d bebc
000001c0: 0679 00bf d83f e33f d35c 173f 48a4 2f3f
000001d0: 350d b7bf f884 e43e 8730 a1bf e6c0 a0bf
000001e0: 8256 7dbf 0310 50bf e963 a23f 6a3c bbbe
000001f0: 6261 a23f 8813 0c3e d568 343f 8a1b ca3c
00000200: 995c 1c3f fbab 9a3f 65a7 0d3f 4f02 4c3f
00000210: 5dfc d3be cf3d d1bd a9c5 2d3e 5eb9 00bf
00000220: add6 6fbe 4da6 9abc 5e72 6abf 9762 afbe
00000230: e534 b23d 2424 b53f 8478 463f 517b 803d
00000240: 3434 5cbf dc1c a9bf 894b 0cc0 82c3 19be
00000250: d5c4 f9be 2d9c cd3f a719 e93e 80f8 e93f
00000260: 698d 3abf 9e72 393f 7166 1b3e dc91 79bf
00000270: bbf2 f33e b110 02bf 5232 ddbe a395 adbd
00000280: c38f a0bf cc0d cfbe b526 e1be a876 9bbf
00000290: fda5 3f3e 38bd 563e 2a35 c7bb 8e51 ca3f
000002a0: 02f4 163e f4a7 9d3f 533f cfbd 6393 5dbf
000002b0: c7b8 8e3e 6f00 6a3d 696c 74be d7ae 903b
000002c0: 409d 8fbe 9f8b 8bbf 0200 34bf f75b 843e
000002d0: 3311 653f 8efd 3f3e d2e3 12bf 79be 4dbc
000002e0: 9d33 4cbf 3f9f 96be 4e86 22bf 4b02 293f
000002f0: 96e6 9dbe be83 9ebe 33da 83bf e4c2 873e
00000300: e573 a93e 2424 df3d c0d3 903f 7b30 cb3f
00000310: a07c 923f 8dee 07bf be30 0ebf eb63 c8bd
00000320: ca88 c03e 13b2 5cbf da3c 7b3e 56d6 c7bd
00000330: 9f41 a03e 1066 32bf c1a2 92bf 3981 98be
00000340: fa3c 91be 7a2f d53d 7780 453f cfee 253e
00000350: 8b7e 6fbf 5e2d 803f 8efc 7bbf 9da8 8ebf
00000360: 153e 303f 7066 76be 7109 333e 3bb6 893f
00000370: 2b86 143f 0e94 97be 87ee ca3c b9df 213e
00000380: ed3f e03e 32de 29bf ad39 863f 889b 863f
00000390: 58ff f8bd 97be eebe 1d15 583e e4d0 11bf
000003a0: 933b 7c3d d50f 28be 4ad8 14bf 3411 03bf
000003b0: e066 863f a552 253f 1c10 3b3f 6ae2 15bd
000003c0: fde9 3bbe 77fe 1fbf 3c7d 26bf 95ce d0be
000003d0: 1e0d 07bf 06d6 fc3e b634 72be 30e5 433f
000003e0: edc1 ccbe e174 a33e 73e4 a3be 8212 25bf
000003f0: 4420 42be 2cdf e43f 8b91 c93d 4ca6 1b3f
0.7162721 -1.1730223 -0.47277102 -0.029470019 -0.051583875 0.089621656 0.07820405 -0.7854131
-1.3570708 -0.67381424 0.17281432 0.011975031 -0.86491513 0.25192997 1.9608074 -0.6674154
-0.4069998 -0.1676272 0.44774473 -0.4455066 -1.4612672 0.22625968 0.79067487 -1.1206901
0.11567528 -0.40774575 -0.19423924 0.5028587 -0.99006265 0.22036994 -0.4390497 0.2545151
0.09655701 -0.63375354 -0.8663692 -0.7679733 0.11800968 1.4306314 -0.43818012 0.1068698
1.9064009 -0.24431276 -1.4031917 -0.26295584 1.2104493 0.47430867 0.9930686 -0.01486334
0.99682564 -0.2903062 0.45706323 -0.14457239 0.7489264 0.51067334 0.10258881 -2.0016525
-0.1573383 -1.0369369 -0.67037547 0.33509436 -0.34684458 -1.0353787 -0.93773896 0.2509559
0.09980423 -0.6764327 -0.6358203 0.68101686 -0.23968583 -1.0293572 -1.4026779 0.03220344
0.65447813 1.6429726 -1.3403193 1.2031188 -0.21498813 0.8804796 -1.9102668 -0.57183737
-0.4570837 -0.22081798 0.02345024 -0.25292248 0.5695375 0.6106745 -0.60581225 0.13414717
-0.104397655 -0.154486 -0.19376467 2.006979 0.5268544 0.5815047 -0.34816346 0.4574513
0.1497453 0.3683276 -0.7505276 -0.53749937 -0.7578454 0.7713785 1.2576035 0.94558364
-0.8709499 0.96508324 0.72126424 1.5545781 0.8728291 -0.010572096 0.07928146 -0.023207264
-0.5018467 1.7753859 0.59126014 0.6861005 -1.4300905 0.44632697 -1.2592934 -1.2558868
-0.98960125 -0.8127443 1.268674 -0.3656953 1.2685969 0.13679326 0.7047246 0.024671335
0.6107879 1.2083734 0.5533355 0.7969102 -0.41403475 -0.10216867 0.16969933 -0.5028285
-0.23421736 -0.018878127 -0.9158076 -0.34254906 0.08701495 1.4151654 0.7752764 0.06273521
-0.86017156 -1.3211932 -2.1921103 -0.15015987 -0.48782983 1.6063286 0.45527384 1.8278961
-0.72872025 0.72440517 0.15175797 -0.9748819 0.47646126 -0.5080672 -0.43202454 -0.084758066
-1.2543873 -0.40440214 -0.43974844 -1.2145586 0.18715663 0.20970619 -0.0060793357 1.5806139
0.14741519 1.231688 -0.101195 -0.8655302 0.2787535 0.05712932 -0.2386948 0.004415374
-0.2804966 -1.0901984 -0.7031251 0.25851414 0.8947937 0.18749067 -0.57378876 -0.012557619
-0.79766256 -0.2941837 -0.6348618 0.66019124 -0.30839986 -0.30959886 -1.0300964 0.26515877
0.33096233 0.10895565 1.1314621 1.587417 1.1444283 -0.53098375 -0.55543125 -0.09784683
0.37604362 -0.8620922 0.24534932 -0.09757678 0.31300065 -0.69686985 -1.1455919 -0.2978609
-0.28366834 0.10409446 0.77149147 0.1620438 -0.93552464 1.0013845 -0.9843224 -1.1145207
0.6884473 -0.24062514 0.1748407 1.0758737 0.58017224 -0.29605144 0.024771942 0.15808
0.43798772 -0.6635467 1.0486351 1.0516214 -0.12158078 -0.46629784 0.21101804 -0.56959367
0.061580252 -0.1641229 -0.5814253 -0.51198125 1.0500145 0.6457923 0.73071456 -0.03659288
-0.18350978 -0.6249766 -0.6503484 -0.4078261 -0.5275439 0.49382037 -0.2365292 0.7652159
-0.39991704 0.3192511 -0.3201023 -0.64481366 -0.18957621 1.7880607 0.09842213 0.60800624

network_body._body_endoder.seq_layers.0.bias f4 [128]
00000000: 0000 0000 0000 0000 0000 0000 0000 0000
00000010: 0000 0000 0000 0000 0000 0000 0000 0000
00000020: 0000 0000 0000 0000 0000 0000 0000 0000
00000030: 0000 0000 0000 0000 0000 0000 0000 0000
00000040: 0000 0000 0000 0000 0000 0000 0000 0000
00000050: 0000 0000 0000 0000 0000 0000 0000 0000
00000060: 0000 0000 0000 0000 0000 0000 0000 0000
00000070: 0000 0000 0000 0000 0000 0000 0000 0000
00000080: 0000 0000 0000 0000 0000 0000 0000 0000
00000090: 0000 0000 0000 0000 0000 0000 0000 0000
000000a0: 0000 0000 0000 0000 0000 0000 0000 0000
000000b0: 0000 0000 0000 0000 0000 0000 0000 0000
000000c0: 0000 0000 0000 0000 0000 0000 0000 0000
000000d0: 0000 0000 0000 0000 0000 0000 0000 0000
000000e0: 0000 0000 0000 0000 0000 0000 0000 0000
000000f0: 0000 0000 0000 0000 0000 0000 0000 0000
00000100: 0000 0000 0000 0000 0000 0000 0000 0000
00000110: 0000 0000 0000 0000 0000 0000 0000 0000
00000120: 0000 0000 0000 0000 0000 0000 0000 0000
00000130: 0000 0000 0000 0000 0000 0000 0000 0000
00000140: 0000 0000 0000 0000 0000 0000 0000 0000
00000150: 0000 0000 0000 0000 0000 0000 0000 0000
00000160: 0000 0000 0000 0000 0000 0000 0000 0000
00000170: 0000 0000 0000 0000 0000 0000 0000 0000
00000180: 0000 0000 0000 0000 0000 0000 0000 0000
00000190: 0000 0000 0000 0000 0000 0000 0000 0000
000001a0: 0000 0000 0000 0000 0000 0000 0000 0000
000001b0: 0000 0000 0000 0000 0000 0000 0000 0000
000001c0: 0000 0000 0000 0000 0000 0000 0000 0000
000001d0: 0000 0000 0000 0000 0000 0000 0000 0000
000001e0: 0000 0000 0000 0000 0000 0000 0000 0000
000001f0: 0000 0000 0000 0000 0000 0000 0000 0000
0.0 0.0 0.0 0.0 0.0 0.0 0.0 0.0
0.0 0.0 0.0 0.0 0.0 0.0 0.0 0.0
0.0 0.0 0.0 0.0 0.0 0.0 0.0 0.0
0.0 0.0 0.0 0.0 0.0 0.0 0.0 0.0
0.0 0.0 0.0 0.0 0.0 0.0 0.0 0.0
0.0 0.0 0.0 0.0 0.0 0.0 0.0 0.0
0.0 0.0 0.0 0.0 0.0 0.0 0.0 0.0
0.0 0.0 0.0 0.0 0.0 0.0 0.0 0.0
0.0 0.0 0.0 0.0 0.0 0.0 0.0 0.0
0.0 0.0 0.0 0.0 0.0 0.0 0.0 0.0
0.0 0.0 0.0 0.0 0.0 0.0 0.0 0.0
0.0 0.0 0.0 0.0 0.0 0.0 0.0 0.0
0.0 0.0 0.0 0.0 0.0 0.0 0.0 0.0
0.0 0.0 0.0 0.0 0.0 0.0 0.0 0.0
0.0 0.0 0.0 0.0 0.0 0.0 0.0 0.0
0.0 0.0 0.0 0.0 0.0 0.0 0.0 0.0

network_body._body_endoder.seq_layers.2.weight f4 [128, 128]
00000000: 025d 133e 2894 a4bd fe59 2dbc 916e 5dbe
00000010: 6548 07bc cdb9 e73c 2369 46bd 7a63 41bd
00000020: 088c e43d c937 00bd bcc9 7f3d 4486 f2bc
00000030: 4910 4a3d 77d1 103e e77e 173e 543d 5c3d
00000040: c388 0b3e 8844 05bd 72c8 2bbe 21d0 8dbd
00000050: d22b 2b3e 6daa 9a3d 1f35 12bc d6b9 1a3e
00000060: 6fdc da3d be80 2cbd 1090 bfbc 8964 38bc
00000070: 52a5 e1bc 9499 c3bc ba77 99bd fb6e 8dbc
00000080: 66cd b4bd 08e7 ba3a 1f41 20bc 6c3e 9abd
00000090: acbc 54bc c245 713d 43bd 8b3d 0c04 a93b
000000a0: 1f5d b33d 9c39 6d3d 7db7 2fbe 789f e03d
000000b0: 816f 32bd e82f 1e3e 78af 513e 84a5 40bd
000000c0: b201 75bd 7648 6d3e 38b4 27be d225 833d
000000d0: 79b4 e43d 6053 57bc 8d78 fa3b efb3 3dbd
000000e0: 0823 04be ec96 7dbd 01fc 563d d8fe 82bc
000000f0: 1617 803d 5f26 3c3d 4f59 ab3d 2f47 c93d
00000100: 438c 0fbe 979c 203c 442d ed3d f7ed 78bb
00000110: c921 903c e7ea dd3d 6b22 bd3d b680 713d
00000120: f866 43bb 9f22 74bd 97b7 a43d 2400 89bd
00000130: 61f2 69bd 03ec 963c 8c28 613d 34b9 a63d
00000140: 5a4b 2e3c 5de3 39be 9dfb af3d 3822 61bd
00000150: 6fbb a83d 0547 5e3d e6cc 23be 75c7 b2bd
00000160: 2c30 4bbd b2f9 693c 0660 73bc ff21 0bbe
00000170: ea57 f2bc 5d14 84bd 9d04 ad3b ed6f 953d
00000180: 2e1a 0abe 5f63 1bbe a160 84bd c99e 833d
00000190: 5627 9d3d a572 4a3c 3561 9cbd 26a8 013d
000001a0: fa25 63bd 48e4 e0bc 21ad 84be 9aad 2bbd
000001b0: 13bb 73bc da8b adbd b909 b3bc 37b6 783d
000001c0: 12a1 05bb d80d d0bd 83a1 fe3d a2e2 033e
000001d0: 5562 143e 2945 8cbb 98e8 27bc 54d9 003c
000001e0: 1ff0 aabd f675 353d 9a4f 9c3d eb85 703e
000001f0: 296e 20bc c5e9 8ebd f578 a33d 0f20 b7bd
00000200: ab7f 023d bcfb 5f3d bc99 093d 609f df3b
00000210: 4d7b a2bd b927 3d3d 0775 293d fdc0 663d
00000220: 4a35 10be eecf 61bc e7bd 943c 850e e8bc
00000230: 5034 53bd 6686 cbbd b4d4 f53c 5789 b13c
00000240: 516d a23d 576a c43d 5999 833d ea91 1bbd
00000250: 6bb9 953b a307 133e 1029 f0bd 5f30 96bc
00000260: 0986 ba3d 1bbd 44ba 232d 80bd bc7f b03d
00000270: 6846 2ebd 8b81 46be 11d2 28be f0d5 a3bc
00000280: f9cd 963d bfea c13d 646a 063e f1ca b83c
00000290: 72d8 b73c 7576 4cbd 76ef 80bd 70a1 acbd
000002a0: 3c51 f2bb f132 0f3b 2886 a63d b6ae 46be
000002b0: 7d0b d53b 3e93 27bd a19a 0cbe 098c a1bd
000002c0: a9e4 d8bd 3792 45be b4b4 563d 264c 8c3d
000002d0: 5f91 a8bd 6c91 1aba d11a 2abd 9cc7 1fbc
000002e0: 6e55 bfbc dfd7 37be b81b c5bd 617f 13be
000002f0: a089 9b3d de31 073e 7473 7dbd 1e9a a23d
00000300: ea23 3cbd a466 88bc 6db9 ca3c 112a ed3d
00000310: 6887 b8ba 2f03 a6bb c41a 8abd 2e56 babd
00000320: 733c 15be f555 81bd 3af5 cb3d ed6b 083e
00000330: 93ac 603d e0ff 193d 3fa8 573d 6051 5bbd
00000340: 39a7 443d 9ab2 2dbd 9e98 a0bb 8db9 f9bc
00000350: d330 2e3c ea72 adbd a0a5 01bd 4c71 ecbc
00000360: 49df 263d 278d 223e 6872 dd3d 8aa0 c93c
00000370: bb71 3bbd 5cf4 f3bc 2080 debc 604f 14bc
00000380: e2ec 23be 2cab 443d daf7 143d 7753 f63d
00000390: b2c2 5c3d 8318 bfbc f6a7 09bc e40d 9dbd
000003a0: 5fdb 0dbd 6c25 4b3e fd78 c9bd bd4f 393e
000003b0: ad19 ca3c 84ef 01bc fb93 533b d2b9 373e
000003c0: dffe 1b3e 9da3 03bd 2ce8 c6bb 1188 49bc
000003d0: 4e71 62bd 1fad aebc 9257 cb3d b9d4 afbd
000003e0: 172e c1bc 94a1 e2bc b685 4fbd f493 e6bd
000003f0: a96a 163e a484 f8bc 0fbb 84bd e822 c93c
0.14390948 -0.08036071 -0.010580538 -0.21624209 -0.008257006 0.028286839 -0.04844011 -0.04721401
0.11159521 -0.0313032 0.06244825 -0.029605038 0.049331937 0.14142404 0.14794503 0.053769425
0.13626389 -0.03253606 -0.16775683 -0.06924463 0.16715935 0.075520374 -0.008923798 0.15109953
0.106865756 -0.042114966 -0.023384124 -0.011254438 -0.027544651 -0.023876943 -0.07493539 -0.017264834
-0.08828239 0.0014259527 -0.009781151 -0.07531437 -0.012984436 0.058904417 0.06823208 0.005157953
0.08757996 0.05791627 -0.17159839 0.10967916 -0.04356337 0.15447962 0.20477092 -0.047032848
-0.05981607 0.23172173 -0.16377342 0.06403698 0.11167235 -0.013142437 0.0076437653 -0.046314176
-0.12903988 -0.06191151 0.052486423 -0.01599066 0.06254403 0.04593503 0.08366644 0.0982803
-0.1401835 0.009802959 0.11580899 -0.0037983635 0.017594235 0.1083582 0.0923508 0.05896064
-0.0029816013 -0.05960333 0.080428295 -0.0668948 -0.057115916 0.018423086 0.05497031 0.081407934
0.010638082 -0.18153138 0.08592913 -0.054964274 0.08238875 0.05426695 -0.15996131 -0.0872945
-0.049606487 0.014280723 -0.014854437 -0.13587187 -0.029582936 -0.064491965 0.005280091 0.07296739
-0.1348655 -0.15174626 -0.06463743 0.0642677 0.07673518 0.012356435 -0.07635728 0.0316545
-0.05545614 -0.027452603 -0.25913337 -0.041913606 -0.014876145 -0.0847394 -0.021855222 0.06072065
-0.0020390195 -0.101588905 0.1243315 0.12879422 0.14490636 -0.0042807055 -0.010248326 0.007864315
-0.08346581 0.04430195 0.0763237 0.23488586 -0.009791889 -0.06978182 0.07982055 -0.089416616
0.031860035 0.054683432 0.03359388 0.006824419 -0.07933674 0.04618046 0.04137137 0.05633639
-0.14082828 -0.013782484 0.018156959 -0.028327236 -0.05156356 -0.09937744 0.030008651 0.021671934
0.07931007 0.09590595 0.06425733 -0.03798095 0.0045692227 0.14358382 -0.11726582 -0.018333612
0.091075964 -0.00075049856 -0.06258609 0.086181134 -0.042547613 -0.19385354 -0.16486384 -0.019999474
0.07363505 0.094686024 0.13126522 0.022557708 0.022442076 -0.049917657 -0.062956735 -0.08429229
-0.007394938 0.0021850432 0.08131057 -0.19402584 0.0065016137 -0.040911905 -0.13730861 -0.07888038
-0.105904885 -0.19294058 0.052418426 0.06850462 -0.08230852 -0.00058963033 -0.04152948 -0.00975218
-0.023356166 -0.17953442 -0.096244276 -0.1440406 0.07594609 0.13202617 -0.061877683 0.07939552
-0.045932688 -0.016650505 0.024746621 0.11580289 -0.001407844 -0.0050662975 -0.067433864 -0.09098469
-0.14573841 -0.06315223 0.09958883 0.1332242 0.05485208 0.037597537 0.052650686 -0.053544402
0.04801104 -0.042406656 -0.004901006 -0.030483985 0.010631758 -0.08469184 -0.031652093 -0.028862618
0.040740285 0.15874158 0.10812837 0.024612684 -0.04576276 -0.029779606 -0.027160704 -0.009052128
-0.16008332 0.048014805 0.036369182 0.120276384 0.053896613 -0.023327118 -0.008401861 -0.07668665
-0.034633037 0.19838494 -0.0983753 0.18096824 0.024670446 -0.00793064 0.0032284248 0.17941979
0.15233944 -0.032138456 -0.0060701575 -0.012300507 -0.055283837 -0.021322785 0.09928812 -0.085854955
-0.023581548 -0.027664937 -0.050664626 -0.112586886 0.14689125 -0.030336685 -0.06480991 0.024552777

network_body._body_endoder.seq_layers.2.bias f4 [128]
00000000: 0000 0000 0000 0000 0000 0000 0000 0000
00000010: 0000 0000 0000 0000 0000 0000 0000 0000
00000020: 0000 0000 0000 0000 0000 0000 0000 0000
00000030: 0000 0000 0000 0000 0000 0000 0000 0000
00000040: 0000 0000 0000 0000 0000 0000 0000 0000
00000050: 0000 0000 0000 0000 0000 0000 0000 0000
00000060: 0000 0000 0000 0000 0000 0000 0000 0000
00000070: 0000 0000 0000 0000 0000 0000 0000 0000
00000080: 0000 0000 0000 0000 0000 0000 0000 0000
00000090: 0000 0000 0000 0000 0000 0000 0000 0000
000000a0: 0000 0000 0000 0000 0000 0000 0000 0000
000000b0: 0000 0000 0000 0000 0000 0000 0000 0000
000000c0: 0000 0000 0000 0000 0000 0000 0000 0000
000000d0: 0000 0000 0000 0000 0000 0000 0000 0000
000000e0: 0000 0000 0000 0000 0000 0000 0000 0000
000000f0: 0000 0000 0000 0000 0000 0000 0000 0000
00000100: 0000 0000 0000 0000 0000 0000 0000 0000
00000110: 0000 0000 0000 0000 0000 0000 0000 0000
00000120: 0000 0000 0000 0000 0000 0000 0000 0000
00000130: 0000 0000 0000 0000 0000 0000 0000 0000
00000140: 0000 0000 0000 0000 0000 0000 0000 0000
00000150: 0000 0000 0000 0000 0000 0000 0000 0000
00000160: 0000 0000 0000 0000 0000 0000 0000 0000
00000170: 0000 0000 0000 0000 0000 0000 0000 0000
00000180: 0000 0000 0000 0000 0000 0000 0000 0000
00000190: 0000 0000 0000 0000 0000 0000 0000 0000
000001a0: 0000 0000 0000 0000 0000 0000 0000 0000
000001b0: 0000 0000 0000 0000 0000 0000 0000 0000
000001c0: 0000 0000 0000 0000 0000 0000 0000 0000
000001d0: 0000 0000 0000 0000 0000 0000 0000 0000
000001e0: 0000 0000 0000 0000 0000 0000 0000 0000
000001f0: 0000 0000 0000 0000 0000 0000 0000 0000
0.0 0.0 0.0 0.0 0.0 0.0 0.0 0.0
0.0 0.0 0.0 0.0 0.0 0.0 0.0 0.0
0.0 0.0 0.0 0.0 0.0 0.0 0.0 0.0
0.0 0.0 0.0 0.0 0.0 0.0 0.0 0.0
0.0 0.0 0.0 0.0 0.0 0.0 0.0 0.0
0.0 0.0 0.0 0.0 0.0 0.0 0.0 0.0
0.0 0.0 0.0 0.0 0.0 0.0 0.0 0.0
0.0 0.0 0.0 0.0 0.0 0.0 0.0 0.0
0.0 0.0 0.0 0.0 0.0 0.0 0.0 0.0
0.0 0.0 0.0 0.0 0.0 0.0 0.0 0.0
0.0 0.0 0.0 0.0 0.0 0.0 0.0 0.0
0.0 0.0 0.0 0.0 0.0 0.0 0.0 0.0
0.0 0.0 0.0 0.0 0.0 0.0 0.0 0.0
0.0 0.0 0.0 0.0 0.0 0.0 0.0 0.0
0.0 0.0 0.0 0.0 0.0 0.0 0.0 0.0
0.0 0.0 0.0 0.0 0.0 0.0 0.0 0.0

value_heads.value_heads.extrinsic.weight f4 [1, 128]
00000000: d8ed 513d 40df 4cbd fafc 16be 3860 a73d
00000010: 704e 213e af5b 2dbe bcf5 44be 74f0 76bd
00000020: e8c3 33be 2025 453e 6cf7 4dbd 3c67 c43d
00000030: 884c f53d b2b0 3bbe a089 cfbc b879 603d
00000040: 3c4d d83d 01c7 4bbe 9c1e 993d b085 3abe
00000050: 780d 3c3d a0fe 2abc 9c02 f03d fc45 ebbd
00000060: 165d 5a3e 1c7a b13d 6a45 2cbe f879 4e3d
00000070: 9867 48bd 448f 24bd eadf b5bd f690 1f3e
00000080: ae05 533e acbe 3ebe 574f 27be d0ec b2bd
00000090: fc5d 1d3e f0bd 683c 0804 a53c 3957 44be
000000a0: 605f ae3c 48ed 0c3e 86b0 58be bc2e 333e
000000b0: 2c74 27bd 5a6e 33be 8015 b83d f4a7 c23d
000000c0: 380e 0ebe 129b 043e e8b6 fc3d f89c 523d
000000d0: 1b7b 00be a06e 023c 8005 473c a16a 23be
000000e0: f6b3 363e 0859 b6bc 10ae 42bc 70cf a83c
000000f0: 127c 8bbd 7c93 2a3e 68ef aa3c 5850 603d
00000100: 60f7 15be 5202 3fbe 6861 afbc 08c6 2cbe
00000110: 37ed cebd b0da 2d3c 40bb c13b e2df 49be
00000120: 20bc 6bbd 82d4 173e e03c 62bd e669 0bbe
00000130: 284c 8d3d d09d e43c a2c8 40be 441e 093e
00000140: a84f b93d a079 923d 3804 4a3e fa27 3e3e
00000150: 26fe dbbd 584e a9bd 3818 493e 1ec0 1d3e
00000160: 40f8 10bc 4a0e 283e d4ae 46be d847 c43d
00000170: 5c08 813d bd62 4ebe ac24 cebd 0017 93bc
00000180: c232 003e 58e8 2b3e d846 063d c044 fb3d
00000190: a2e4 383e 826c ebbd 3479 023e f82b 03be
000001a0: 002d 5f3d e2d3 8bbd b0f5 913c 08c4 663d
000001b0: 82c0 0bbe 02d8 efbd b031 d33d f82e 07be
000001c0: 800f 8e3a a782 eebd 5e09 0cbe d896 ddbc
000001d0: ada7 05be a809 ac3d 66f7 1dbe 2cce c23d
000001e0: 4653 4fbe d8d3 583e 4651 b3bd 366b 233e
000001f0: 90ea b5bc 9671 2dbe d86b 113d 6805 c13d
0.051252216 -0.050017595 -0.1474494 0.08172649 0.15752578 -0.16929506 -0.19234365 -0.060287908
-0.17555201 0.19252443 -0.050284788 0.09590003 0.11977488 -0.18329123 -0.02533418 0.05480358
0.10561606 -0.19900133 0.074765414 -0.1821506 0.045911282 -0.010436684 0.11719248 -0.11487958
0.21324572 0.08665869 -0.16823354 0.050409287 -0.04892692 -0.04017569 -0.08880599 0.15582642
0.20607635 -0.18627423 -0.1633886 -0.08736575 0.15367883 0.014205441 0.020143524 -0.19173898
0.021285713 0.1376239 -0.21161088 0.17498296 -0.040882275 -0.17522565 0.08988476 0.09504691
-0.13872612 0.1294978 0.12339574 0.05141923 -0.12546961 0.007960945 0.012147307 -0.15958644
0.17842087 -0.02225925 -0.01188232 0.020606726 -0.06810774 0.16657823 0.02086611 0.05476412
-0.14645147 -0.18653229 -0.021408752 -0.16872418 -0.10103839 0.010611221 0.0059122145 -0.19714311
-0.057552457 0.14827159 -0.055233836 -0.13614616 0.06899291 0.027907282 -0.18826535 0.13390452
0.09048396 0.071521044 0.19728172 0.18569937 -0.10741834 -0.08266896 0.19638145 0.15405318
-0.00884825 0.16411701 -0.19402629 0.095840156 0.063004225 -0.20154853 -0.10065588 -0.017955303
0.12519363 0.16787851 0.032782406 0.122689724 0.18055966 -0.114953056 0.12741548 -0.12809741
0.054486275 -0.06827523 0.017817348 0.056339294 -0.13647655 -0.11711122 0.103122115 -0.13201511
0.001083836 -0.11646014 -0.13675448 -0.027049467 -0.13052244 0.08400279 -0.15426406 0.095119804
-0.2024661 0.21174562 -0.08755736 0.15958866 -0.022206575 -0.16937861 0.03550324 0.09424859
