results/WaterNetwork/PlayerRL/PlayerRL-1081.onnx (onnx, 8600 bytes, 6 tensors)

network_body._body_endoder.seq_layers.0.weight f4 [16, 3]
00000000: d35a 353d 3136 70bf c088 f83e aaf9 41bd
00000010: 1155 843d 8f4b b4be 8a7e f5bc 2d9d d23e
00000020: 005c 0ebf 6dcb 43be 1e22 22be 7adc ef3e
00000030: c4b8 833f ce7c 2c3f b74d f8bd 5601 3a3f
00000040: 611e 3fbf e024 ebbe 403d 0abe 1b44 713d
00000050: 6997 423f 7b96 d23e 67b7 e03e 8417 f1bc
00000060: 405d 6f3e 9888 0abf bd04 e1bc 0961 40be
00000070: 955b 383e fe23 87bf 5ff7 6dbe d188 883d
00000080: e428 17be 0f7f 6d3f 26f4 51bf 9af3 3abd
00000090: d4c6 753a b5c6 28bf a9bd 1abe fd63 81bf
000000a0: 0ed1 913f 99d4 0cbf e914 9e3e d483 03bf
000000b0: 396e 72be 382e 5b3d 9c4d 943f be16 00be
0.04427607 -0.9383269 0.48541832 -0.04735724 0.06461538 -0.35213897 -0.029967565 0.4113554
-0.5560913 -0.1912057 -0.15833327 0.46847898 1.0290761 0.67377937 -0.12124198 0.7265829
-0.7465573 -0.4592657 -0.13499928 0.05890284 0.76012284 0.41130432 0.43889925 -0.029430158
0.23375416 -0.54114676 -0.02746808 -0.18787016 0.18003686 -1.0557859 -0.23238896 0.06666721
-0.14761692 0.92772 -0.82013166 -0.045642473 0.0009375636 -0.659282 -0.15111412 -1.0108639
1.1391923 -0.550119 0.30875328 -0.5137303 -0.23674859 0.053510875 1.1586185 -0.12508675

network_body._body_endoder.seq_layers.0.bias f4 [16]
00000000: 0000 0000 0000 0000 0000 0000 0000 0000
00000010: 0000 0000 0000 0000 0000 0000 0000 0000
00000020: 0000 0000 0000 0000 0000 0000 0000 0000
00000030: 0000 0000 0000 0000 0000 0000 0000 0000
0.0 0.0 0.0 0.0 0.0 0.0 0.0 0.0
0.0 0.0 0.0 0.0 0.0 0.0 0.0 0.0

network_body._body_endoder.seq_layers.2.weight f4 [16, 16]
00000000: 14e9 363e 4530 cebe a95f dabc 606c 9cbe
00000010: 4427 e6bd c7ae 55bd 5a6a b9be f51a 7f3c
00000020: 8b35 f03b 2331 8bbd ad27 153e 9c16 d4be
00000030: e753 e03e aa17 bcbd eea4 ad3e 6d83 91be
00000040: fb2a a9bd 383b 903d fbf6 163f 6f31 b4be
00000050: 8e47 6a3d 4e59 ef3d e225 343d 18f3 27bd
00000060: 7487 3a3e 5e4b 02bd 1859 e03d b403 a6be
00000070: d2c8 903e c7ae 023e 972d 4cbe cfda 8cbe
00000080: 47b1 2d3e 830f 943e e8f8 2b3b caa6 263e
00000090: 7cf6 70be aa6f 973e 9885 59bc 5e7e 19be
000000a0: 4054 453e 7ad8 cdbd 595c 2dbd d78a 093e
000000b0: 1c07 0c3d 7a6c f6bd c9b1 1cbc fb0f d93d
000000c0: 6149 c7be 0d0d d3be 12d2 3cbe fadb b4bd
000000d0: 2c86 903e fd5d 34be c127 253d 0671 ab3e
000000e0: 67c1 2c3e ff8c 943d da28 413e 5c31 1b3e
000000f0: 43e5 c3be 0522 8abc 2693 afbd 2046 dd3d
00000100: b3d8 b5be 00a7 b43d 1e9a b2be ed0d 21bf
00000110: 1257 153d 19cd 263f 3e28 013f ebbb 33be
00000120: b04c a7bc 3304 0fbe 4b1a a3bc a4ff df3c
00000130: 6821 38be 9c27 80be 8e24 9b3e 133e 9f3e
00000140: cde8 473d a308 bfbe c612 313e cbad 50be
00000150: b38a 753e fdd4 f5bc 1cd1 8ebe c859 3f3d
00000160: 304f 8cbc 873c 323e e17e 33be 2bd9 cabd
00000170: c719 b13c bb11 8c3c d0cd 29bd 9192 b2bb
00000180: f38d fdbd f75a 39be f6b8 ac3c cbe5 e53e
00000190: 52ec 83bd 5302 e43d 05ee 71be 9687 323e
000001a0: a9b6 5abd 589b 263f cb7a 80bd 9b1c a5be
000001b0: 8e34 90be cce0 03be 922e dfbd 244c d33d
000001c0: a6e4 f6bd efa8 87bd 1515 8ebd 29db 443d
000001d0: dc3a e4bd dea8 f03e 4833 cc3d c846 cf3c
000001e0: 7675 80bd 1ea5 093f d7f8 bd3c 86b6 9cbe
000001f0: e36c 14be 7aae a3bd 3313 3f3e 55e0 44be
00000200: 0a31 64be 8ba9 003e 1dc5 083e 129e c0be
00000210: 94db abbe 024d cabd 9aa5 78be 6029 de3e
00000220: 602f 82be 2a73 15be b1ab 88be 2ff2 cabe
00000230: 1244 c9bd abcc bc3e 78d4 063f 9919 12be
00000240: 41ff 693e b8f6 ff3b daf3 17be 59de 11bd
00000250: 7986 ff3d b175 9bbe 468f 7f3e 8534 55bd
00000260: a268 7e3e a4fb c5bd 16f9 a43c d470 043e
00000270: 45f7 31bf 05f7 71be b7e8 c6be f67a f0bb
00000280: ff44 e33e fb98 07bf 040b 293e f1e7 443e
00000290: 5cbc ba3d 214f 233e 2db7 e13b eb9c f53d
000002a0: 9e53 12be 4fb0 4fbd 1b3d 643d 6338 7bbe
000002b0: 359e 0c3e 29f8 483e 94ac 21bf 72e4 e73e
000002c0: 2dd9 2ebe 5a0e 91be 4de3 cbbc facf 07be
000002d0: e4c7 483e c845 b9be 6c53 cb3e 1eb5 a73e
000002e0: d489 893e 6410 ff3d 136f 0abe ce6e f4be
000002f0: 01c9 9b3e dbec cebc 0dfe 493e 5427 d9bc
00000300: 05e2 723e f056 cbbc 9ce1 9dbe 861c fa3e
00000310: 2161 ce3d 514b 90be 54a0 fc3d 0fca 283e
00000320: cb56 113e bd9f 41bd d3c4 14bf 66fa 26be
00000330: 7d34 fe3b fad5 d03e 0a67 413d 33ec fe3d
00000340: 3c3f 21bf 98ad 91bd 2c4f 44be e525 093f
00000350: c38d d7be f07f 663e 0d91 853d 1855 16be
00000360: 04cc d53c 0bce c13d 472a 973e 9708 833e
00000370: de88 9cbe fe51 8b3e 48da 8abd 34a2 b9be
00000380: 1895 c33e c4b9 d73d 5c7e 38be a67f 04be
00000390: 7b01 90bc cac0 95be 62b0 a8be 45d0 a0bd
000003a0: be67 613e 3bbb 773e eb7a be3d 91dc 263e
000003b0: e49f 753e cc18 0a3e 8517 833e fcdd 443d
000003c0: 436b 323e 7a29 31be 5070 143d 2bec 9ebe
000003d0: 8b5b e1be 38ab 123e 27fa cbbe 8da8 9dbe
000003e0: 9980 493e 676f 853e bc3d 99bd 12d3 b03e
000003f0: 1b0e e8bd d721 2a3e 0599 a43e 6548 6ebc
0.1786235 -0.40271202 -0.026656942 -0.30551434 -0.11237958 -0.052168634 -0.36213952 0.015570392
0.0073306016 -0.067964815 0.14565916 -0.414235 0.43814012 -0.09184201 0.33914894 -0.28420582
-0.08260151 0.07042545 0.5897061 -0.35193965 0.057197146 0.116869554 0.04398144 -0.041003317
0.18215734 -0.031810157 0.10954493 -0.324247 0.28278214 0.12761985 -0.19939266 -0.27510688
0.16962157 0.28918085 0.002624089 0.16274562 -0.23531526 0.2957738 -0.01327648 -0.14989612
0.1927042 -0.10051055 -0.042324398 0.1343187 0.034186468 -0.12032409 -0.009563872 0.10598751
-0.3892317 -0.41220894 -0.1843951 -0.0883102 0.28227365 -0.17613979 0.040321115 0.33484668
0.16870652 0.07253455 0.1886324 0.15155548 -0.3826085 -0.016861925 -0.08572988 0.10804391
-0.3551689 0.08820915 -0.34883207 -0.62911874 0.03645999 0.65156704 0.5045203 -0.17552154
-0.02042231 -0.13966446 -0.019909998 0.027343579 -0.17981493 -0.2503022 0.30301327 0.31102046
0.048806 -0.37311277 0.17292318 -0.20378797 0.23978691 -0.030008787 -0.27893913 0.04671648
-0.017127603 0.17405902 -0.17528869 -0.09904703 0.021618737 0.017098298 -0.041456044 -0.005449601
-0.1238059 -0.18101107 0.02108429 0.4490188 -0.06441559 0.11133256 -0.23625953 0.17434534
-0.053396855 0.65080786 -0.06273421 -0.32248387 -0.28165096 -0.12878722 -0.108975545 0.10317257
-0.1205533 -0.066240184 -0.06937615 0.04806057 -0.11144039 0.47003835 0.099707186 0.025302306
-0.06272404 0.53767574 0.023189945 -0.30608004 -0.14494662 -0.07992263 0.18659668 -0.19226201
-0.22284332 0.12564676 0.13356443 -0.37620598 -0.33565962 -0.09877969 -0.24281922 0.43390942
-0.2542677 -0.14594713 -0.2669349 -0.39637896 -0.098274365 0.368749 0.5266795 -0.14267577
0.22851278 0.0078113936 -0.14839116 -0.035612438 0.124768205 -0.3036323 0.24956998 -0.05205204
0.24844602 -0.09667137 0.020138305 0.12933666 -0.6951793 -0.23629387 -0.38849422 -0.007338877
0.44388577 -0.52967805 0.16508108 0.19229104 0.09117958 0.15948154 0.0068882913 0.1199282
-0.1428971 -0.05070525 0.055722337 -0.24533229 0.13732226 0.19625916 -0.6315396 0.45291477
-0.17075033 -0.28331262 -0.024888659 -0.1326293 0.19607502 -0.3618605 0.39712083 0.3275537
0.26862967 0.12454298 -0.13518934 -0.47740787 0.3042679 -0.025259426 0.19725819 -0.02650801
0.23719032 -0.024821728 -0.3083619 0.48849887 0.100771196 -0.28182462 0.12335268 0.16483329
0.14193265 -0.04727148 -0.5811283 -0.16306457 0.007757722 0.4078825 0.047217406 0.12447395
-0.62987113 -0.071131885 -0.19170827 0.5357345 -0.42100343 0.22509742 0.06521807 -0.14680898
0.026098259 0.09463128 0.29524443 0.2559249 -0.3057317 0.27210993 -0.06779915 -0.36256564
0.38199687 0.10533479 -0.18016952 -0.12939319 -0.017578831 -0.2924865 -0.3294707 -0.07852224
0.22012231 0.24192517 0.093007885 0.16295077 0.23986775 0.13486022 0.2560388 0.048063263
0.1742373 -0.17300978 0.036239922 -0.31039557 -0.44015154 0.14323127 -0.3983929 -0.30792657
0.19677962 0.26061556 -0.07482478 0.34536034 -0.113308154 0.16614471 0.32147995 -0.014543627

action_model._continuous_distribution.mu.weight f4 [1, 16]
00000000: 9883 c6bb effc 87bb c835 6cbd 9f0b 4dbd
00000010: a81a c6ba ffab c03a dc9a 98bd e107 87bd
00000020: 395c 35bd a8b3 76bc 8e20 283d 43a7 94bd
00000030: af01 8d3b 6660 263d 2a30 ecb9 597c bf3d
-0.0060581677 -0.004150025 -0.057668477 -0.05005991 -0.0015114145 0.0014699696 -0.07451412 -0.065933
-0.044277404 -0.015057482 0.04104667 -0.07258465 0.004303179 0.040619276 -0.00045049313 0.09349889

action_model._discrete_distribution.branches.0.weight f4 [2, 16]
00000000: b465 10bc 58b6 b73b b3b2 0bbd 51a0 39bd
00000010: e048 74bc baaf e7bc 73f8 9fbc 2823 153d
00000020: 3e1a 86bc 72e8 08bd e5f1 7d3d 85af 44bd
00000030: 390a b73c 6770 b6bb af4b acbc 6fa6 13bd
00000040: f8f6 4fbd b0d4 893b 3f12 fd3c a4a1 04bd
00000050: 2bb3 053c 39da 9cba acdb 893c f352 34bc
00000060: b3e1 d6bc 55d2 673d 43a1 873d 7fa4 9d3c
00000070: fa28 eeba 6d43 0b3c 1a6e 153c 7cc4 43bd
-0.00881331 0.005606454 -0.034105968 -0.045318905 -0.014909953 -0.028282035 -0.01952765 0.03641048
-0.016369935 -0.033424802 0.061998267 -0.04801895 0.022343742 -0.0055675986 -0.021032182 -0.036047395
-0.050772637 0.0042062625 0.03089249 -0.032380715 0.008160393 -0.0011966891 0.01682838 -0.011006105
-0.026230669 0.056597073 0.06622555 0.019243477 -0.0018170171 0.008499962 0.009120489 -0.047794804

action_model._discrete_distribution.branches.0.bias f4 [2]
00000000: 0000 0000 0000 0000
0.0 0.0
