results/Hierarchy1/PlayerRL/PlayerRL-704.pt (torch, 148240 bytes, 11 tensors)

network_body._body_endoder.seq_layers.0.weight f4 [128, 5]
-0.6099702 0.37487462 -0.28262094 -0.8066754 0.13432986 -0.15921925 0.9066672 -0.22523426
-0.025437674 0.13489136 -0.14840089 -0.54303163 0.10538863 -0.21558855 -0.85319036 -0.51244736
-0.06880058 -0.73975605 0.031287447 0.6137359 0.057788625 -0.41525868 0.5165999 -0.017044345
0.34047192 -0.22859205 -0.35417402 0.61734784 0.5797812 -0.41692463 -0.16503568 -0.7970551
-0.28054062 -0.5987216 0.5903178 -0.081625424 -0.88945293 0.35400048 0.5655004 0.16779968
-0.49634358 0.24830411 -0.09471486 -0.14654376 -0.28393242 -0.12268168 0.776383 0.045366384
0.051480282 -0.03889975 -0.106495656 0.2064872 0.84293854 0.33674854 0.15737918 0.5376159
-0.098433934 -0.7061646 0.5824429 -0.14026609 -0.0056054527 0.13669495 -0.04807996 -0.26744044
-0.00211209 -0.65504926 -0.8012475 -0.28058428 0.030304339 0.21606167 0.32813954 -0.46433842
0.49036023 -1.1471618 0.08097822 0.04273083 0.09182859 0.3140291 -0.025226915 0.42495143
-0.17565054 0.6709981 -0.048973028 0.11657025 0.44462806 -0.5511137 0.31593725 0.6818788
-0.33805916 -0.34064457 0.010820284 0.65137076 -0.25101173 0.010405761 0.5938195 -0.35460582
0.56671727 0.31901783 -0.07349686 -0.7012046 0.37542084 0.47747284 -0.99496907 -0.4944239
0.5724778 -0.7974903 -0.44799012 -0.41830242 0.2392555 0.09248993 0.5320265 -0.4046334
-0.16479397 -0.20153041 -0.2574269 -0.30516624 -1.4474542 0.51436704 0.17829293 0.14877503
-0.17525865 -0.85471857 -1.0324366 0.19036943 -0.020383079 -0.501574 -0.21205238 0.30552226
-0.21141087 -0.3479701 0.69653255 0.32989472 -0.77392733 0.14724822 -0.35084763 -0.21334279
-0.4013471 1.2816858 -0.116736665 0.5072945 -0.39314762 0.2762767 0.8648124 -0.7814877
-0.23929468 0.6003686 -0.017628893 -0.035095178 0.2645442 0.5246478 0.23906259 -0.2662905
0.22923033 -0.42762715 0.114455886 -0.12836325 -0.1753609 0.49396503 0.7380435 -0.45323178
-0.267612 0.23685358 -0.502909 -0.44458458 -0.11841178 -0.2173549 0.38112244 -0.8321859
0.23243602 0.7825686 -0.31068733 -0.14328179 -0.9251226 -0.037286054 -0.04791854 0.503261
-0.1308558 -0.253692 -0.5402637 -0.04102337 -0.2078778 -0.2511733 0.03471173 0.3178167
-0.5958469 0.1443356 0.107155986 0.1440529 -0.041885503 0.32118037 0.35701168 0.21940577
0.029251415 -0.43893772 -0.20900367 -0.13842328 -0.42272362 -0.1759088 -0.12085026 0.4908037
-0.5907685 -0.8191699 0.35398394 0.09560691 -0.090372704 0.6582561 0.005803656 -0.110354014
0.021602236 -0.53177905 -0.39250615 -0.53391707 0.059156783 0.4588919 -0.2787066 0.2887466
0.4419491 -0.10311199 0.01755196 -0.22510803 0.18914154 0.2666489 -0.35684526 -0.23746347
-0.04567906 0.08788499 0.56841373 0.19116981 0.5227409 -0.87620425 -0.043771457 -0.13319704
0.41580626 0.16905326 -0.6200053 0.2650723 0.37947363 0.57825136 0.31149328 -0.6078176
0.47358778 0.23400125 0.64716524 -0.26808774 -0.46543926 0.6722434 -0.15569328 0.11833377
-0.15882842 -0.41833964 0.16111438 0.25482896 -0.07868857 0.48393425 -1.0268542 -0.07010576
00000000: 0227 1cbf 91ef bf3e b1b3 90be 4782 4ebf
00000010: c48d 093e 5f0a 23be 571b 683f cfa3 66be
00000020: ab62 d0bc f620 0a3e 67f6 17be 1f04 0bbf
00000030: fed5 d73d 3fc3 5cbe af6a 5abf c02f 03bf
00000040: 52e7 8cbd a760 3dbf 4427 003d cc1d 1d3f
00000050: c4b3 6c3d c99c d4be e43f 043f 95a0 8bbc
00000060: 5652 ae3e 0914 6abe 4c56 b5be 820a 1e3f
00000070: 8a6c 143f 2577 d5be 1dff 28be ce0b 4cbf
00000080: 05a3 8fbe d245 19bf 111f 173f 3b2b a7bd
00000090: 30b3 63bf 8d3f b53e a2c4 103f aed3 2b3e
000000a0: bf20 febe 6f43 7e3e ddf9 c1bd 910f 16be
000000b0: 975f 91be 8840 fbbd 09c1 463f 1ad2 393d
000000c0: fddc 523d 5855 1fbd 651a dabd 6171 533e
000000d0: d2ca 573f 4e6a ac3e 0228 213e 32a1 093f
000000e0: bb97 c9bd 34c7 34bf fa1a 153f eaa1 0fbe
000000f0: f2ad b7bb c3f9 0b3e 7eef 44bd f4ed 88be
00000100: fd6a 0abb 4fb1 27bf 8e1e 4dbf bea8 8fbe
00000110: ce40 f83c 453f 5d3e e801 a83e c4bd edbe
00000120: 7f10 fb3e 33d6 92bf e9d7 a53d 8606 2f3d
00000130: a110 bc3d 6cc8 a03e ada8 cebc 3c93 d93e
00000140: bcdd 33be 88c6 2b3f f197 48bd 62bc ee3d
00000150: 4aa6 e33e ca15 0dbf 87c2 a13e 9c8f 2e3f
00000160: 1716 adbe f768 aebe 8f47 313c 3cc0 263f
00000170: 9c84 80be ed7c 2a3c 8e04 183f e58e b5be
00000180: 6214 113f 4e56 a33e 8685 96bd 2582 33bf
00000190: 2937 c03e 5277 f43e 4bb6 7ebf 2125 fdbe
000001a0: e88d 123f 5328 4cbf f65e e5be bc2b d6be
000001b0: 65ff 743e 5c6b bd3d e432 083f 1c2c cfbe
000001c0: c0bf 28be fd5d 4ebe 75cd 83be c03e 9cbe
000001d0: 2e46 b9bf 8fad 033f 6c92 363e 7b58 183e
000001e0: 0177 33be d6ce 5abf e226 84bf 34f0 423e
000001f0: 6afa a6bc 2767 00bf 4224 59be 6a6d 9c3e
00000200: 177c 58be 2329 b2be f54f 323f f6e7 a83e
00000210: 1a20 46bf 3dc8 163e 4da2 b3be 8876 5abe
00000220: 5e7d cdbe 480e a43f a213 efbd 0dde 013f
00000230: a54a c9be 2474 8d3e 5864 5d3f 940f 48bf
00000240: aa09 75be c2b1 193f 786a 90bc f6bf 0fbd
00000250: 5672 873e 514f 063f d3cc 743e 3a57 88be
00000260: 5bbb 6a3e f2f1 dabe d967 ea3d a871 03be
00000270: cf91 33be fce8 fc3e 6bf0 3c3f ff0d e8be
00000280: 7104 89be bf89 723e a5be 00bf 97a0 e3be
00000290: e081 f2bd 4892 5ebe 7b22 c33e 230a 55bf
000002a0: b503 6e3e 6a56 483f 6912 9fbe 76b8 12be
000002b0: d6d4 6cbf 43b9 18bd 3b46 44bd b7d5 003f
000002c0: 10ff 05be ebe3 81be b94e 0abf 1f08 28bd
000002d0: ebdd 54be c999 80be e32d 0e3d dfb8 a23e
000002e0: 6c89 18bf b6cc 133e 9974 db3d 9a82 133e
000002f0: 2290 2bbd c171 a43e 3cca b63e e8ab 603e
00000300: aaa0 ef3c 72bc e0be 0f05 56be d5be 0dbe
00000310: 3b6f d8be 7021 34be 5780 f7bd 9f4a fb3e
00000320: 9b3c 17bf 1eb5 51bf 623d b53e 8ecd c33d
00000330: 5315 b9bd 7983 283f 982c be3b 4901 e2bd
00000340: 2cf7 b03c ac22 08bf 91f6 c8be caae 08bf
00000350: 624e 723d e1f3 ea3e a2b2 8ebe 98d6 933e
00000360: 2747 e23e 612c d3bd 21c9 8f3c b882 66be
00000370: 52ae 413e 3486 883e 6cb4 b6be a029 73be
00000380: f719 3bbd 0cfd b33d 9083 113f 05c2 433e
00000390: 59d2 053f ec4e 60bf b349 33bd ce64 08be
000003a0: 8fe4 d43e 4c1c 2d3e abb8 1ebf 8eb7 873e
000003b0: 5e4a c23e 4808 143f 0c7c 9f3e ef99 1bbf
000003c0: 197a f23e 069e 6f3e 9fac 253f cc42 89be
000003d0: 0e4e eebe 2518 2c3f 0f6e 1fbe fa58 f23d
000003e0: eba3 22be 9d30 d6be 2bfb 243e f178 823e
000003f0: 7927 a1bd 3bc6 f73e f56f 83bf 9c93 8fbd

network_body._body_endoder.seq_layers.0.bias f4 [128]
0.0 0.0 0.0 0.0 0.0 0.0 0.0 0.0
0.0 0.0 0.0 0.0 0.0 0.0 0.0 0.0
0.0 0.0 0.0 0.0 0.0 0.0 0.0 0.0
0.0 0.0 0.0 0.0 0.0 0.0 0.0 0.0
0.0 0.0 0.0 0.0 0.0 0.0 0.0 0.0
0.0 0.0 0.0 0.0 0.0 0.0 0.0 0.0
0.0 0.0 0.0 0.0 0.0 0.0 0.0 0.0
0.0 0.0 0.0 0.0 0.0 0.0 0.0 0.0
0.0 0.0 0.0 0.0 0.0 0.0 0.0 0.0
0.0 0.0 0.0 0.0 0.0 0.0 0.0 0.0
0.0 0.0 0.0 0.0 0.0 0.0 0.0 0.0
0.0 0.0 0.0 0.0 0.0 0.0 0.0 0.0
0.0 0.0 0.0 0.0 0.0 0.0 0.0 0.0
0.0 0.0 0.0 0.0 0.0 0.0 0.0 0.0
0.0 0.0 0.0 0.0 0.0 0.0 0.0 0.0
0.0 0.0 0.0 0.0 0.0 0.0 0.0 0.0
00000000: 0000 0000 0000 0000 0000 0000 0000 0000
00000010: 0000 0000 0000 0000 0000 0000 0000 0000
00000020: 0000 0000 0000 0000 0000 0000 0000 0000
00000030: 0000 0000 0000 0000 0000 0000 0000 0000
00000040: 0000 0000 0000 0000 0000 0000 0000 0000
00000050: 0000 0000 0000 0000 0000 0000 0000 0000
00000060: 0000 0000 0000 0000 0000 0000 0000 0000
00000070: 0000 0000 0000 0000 0000 0000 0000 0000
00000080: 0000 0000 0000 0000 0000 0000 0000 0000
00000090: 0000 0000 0000 0000 0000 0000 0000 0000
000000a0: 0000 0000 0000 0000 0000 0000 0000 0000
000000b0: 0000 0000 0000 0000 0000 0000 0000 0000
000000c0: 0000 0000 0000 0000 0000 0000 0000 0000
000000d0: 0000 0000 0000 0000 0000 0000 0000 0000
000000e0: 0000 0000 0000 0000 0000 0000 0000 0000
000000f0: 0000 0000 0000 0000 0000 0000 0000 0000
00000100: 0000 0000 0000 0000 0000 0000 0000 0000
00000110: 0000 0000 0000 0000 0000 0000 0000 0000
00000120: 0000 0000 0000 0000 0000 0000 0000 0000
00000130: 0000 0000 0000 0000 0000 0000 0000 0000
00000140: 0000 0000 0000 0000 0000 0000 0000 0000
00000150: 0000 0000 0000 0000 0000 0000 0000 0000
00000160: 0000 0000 0000 0000 0000 0000 0000 0000
00000170: 0000 0000 0000 0000 0000 0000 0000 0000
00000180: 0000 0000 0000 0000 0000 0000 0000 0000
00000190: 0000 0000 0000 0000 0000 0000 0000 0000
000001a0: 0000 0000 0000 0000 0000 0000 0000 0000
000001b0: 0000 0000 0000 0000 0000 0000 0000 0000
000001c0: 0000 0000 0000 0000 0000 0000 0000 0000
000001d0: 0000 0000 0000 0000 0000 0000 0000 0000
000001e0: 0000 0000 0000 0000 0000 0000 0000 0000
000001f0: 0000 0000 0000 0000 0000 0000 0000 0000

network_body._body_endoder.seq_layers.2.weight f4 [128, 128]
0.008089296 -0.008866003 0.08861775 -0.0964447 -0.06915861 -0.012410776 -0.05854355 -0.24311988
0.061235607 -0.0276798 0.015453023 -0.05520795 0.08378765 -0.14575669 -0.14703728 0.017533645
-0.08315594 0.002123236 0.022109784 -0.09757241 -0.063075125 -0.14188175 -0.035707846 0.050452206
-0.047183555 0.031446245 0.015597159 -0.08882431 0.12608993 0.00554459 -0.012136617 -0.05654017
0.1519227 0.0018964377 0.15798654 -0.13091508 0.038912497 0.07371661 -0.16026787 -0.036209002
0.080213375 -0.092616 0.089302994 0.026158173 -0.12495783 -0.006922479 0.11051855 -0.05816567
0.017559754 0.02644007 0.052696068 0.05350914 0.052596204 0.02642935 -0.11707438 0.051620338
-0.0472353 -0.070876546 -0.064909324 -0.106913425 0.052003626 -0.25219208 -0.05621619 -0.16003083
-0.005874515 0.14418381 -0.07241909 -0.10735759 -0.07783602 -0.14579326 0.07764669 0.008249334
0.03888931 0.1665469 0.10204971 -0.08698538 0.013730877 0.019613124 -0.0076409224 -0.07304014
0.057406265 0.053687707 0.14712268 0.118091136 0.0011580472 0.034937914 0.010527902 -0.16148755
-0.057581525 -0.100381166 0.0060205515 -0.08557253 0.120095275 -0.025161937 0.04119271 -0.15396298
0.037841465 0.102645874 0.17363767 0.072527826 0.01416738 0.016373498 -0.0430874 -0.041681852
0.056609888 -0.055868287 0.054789286 -0.038459446 0.2206234 0.11299845 -0.038674787 0.07045073
0.028453488 0.01660823 0.122235775 -0.009510425 0.022154022 0.045503855 -0.060890947 0.13232626
-0.048134193 0.059503768 -0.08031909 -0.051865168 0.043940023 0.073215745 0.065097 0.15409586
0.15240997 -0.11838707 0.013813409 0.075091906 -0.0057421634 -0.113343894 -0.022413153 0.07599862
-0.121493116 -0.09576579 0.03115147 -0.0040916763 0.1159135 -0.01483284 -0.033661336 0.03368031
-0.112389304 -0.114812195 -0.12862168 0.06522049 -0.03780887 0.16024646 0.096501075 -0.10007396
-0.08572407 0.046634592 0.014552801 -0.007882083 0.06816582 0.107355185 -0.16729215 0.08512086
0.093876004 -0.053808752 0.1125756 0.08220897 -0.014191177 -0.0044989563 -0.03336856 0.10330185
0.08957627 0.11921055 -0.12735006 -0.015269233 -0.03515507 0.07456945 0.056979258 -0.06351756
0.07093699 0.117221534 0.15832889 0.05902981 -0.01264531 -0.11007546 -0.0053571067 -0.06565311
0.057604168 0.019221306 0.00856893 0.09583058 0.014030577 -0.21335396 0.0703178 0.06977352
-0.059431333 -0.11286581 0.03854059 -0.018146805 0.05089528 0.15227334 0.033779357 0.056592595
0.0914924 0.083611354 -0.020181956 -0.030917715 -0.09372773 -0.065911196 -0.110287614 -0.045594234
-0.06618505 -0.08390792 -0.08087137 -0.009223772 -0.11226713 0.0013687167 0.10573113 0.14697994
0.00942735 0.02777559 0.057473987 0.025540033 -0.05894139 0.15395133 0.09317881 0.02589793
0.1478986 0.0032677443 0.014121721 0.13849771 0.098332465 0.19144168 0.1267266 0.08064711
0.08806604 -0.18009828 -0.19378288 0.01658556 0.10000662 0.02742474 0.053184807 -0.09366058
0.06569025 0.04108617 0.0620381 0.1531798 -0.050884183 -0.0012943869 -0.067723535 -0.14610265
-0.17089227 0.121671624 -0.070683226 0.13484168 -0.008337554 -0.041218735 -0.10774883 0.029450992
00000000: f788 043c b642 11bc 397d b53d cd84 c5bd
00000010: 08a3 8dbd 9156 4bbc 5dcb 6fbd 6bf4 78be
00000020: 30d2 7a3d bfc0 e2bc ad2e 7d3c bb21 62bd
00000030: dc98 ab3d 3e41 15be f190 16be b8a2 8f3c
00000040: a94d aabd fd25 0b3b 941f b53c 0bd4 c7bd
00000050: 882d 81bd 7349 11be 6442 12bd f9a6 4e3d
00000060: 8b43 41bd c7cd 003d 3a8b 7f3c 85e9 b5bd
00000070: b81d 013e 64af b53b a9d8 46bc aa96 67bd
00000080: a091 1b3e e491 f83a 39c7 213e 9a0e 06be
00000090: b662 1f3d bcf8 963d 431d 24be e44f 14bd
000000a0: e946 a43d 75ad bdbd 7de4 b63d aa49 d63c
000000b0: e4e9 ffbd f6d5 e2bb 8d57 e23d 203f 6ebd
000000c0: 79d9 8f3c d898 d83c d5d7 573d 662c 5b3d
000000d0: 1e6f 573d 5d82 d83c b1c4 efbd d96f 533d
000000e0: cd79 41bd b927 91bd 2eef 84bd 6df5 dabd
000000f0: c101 553d 521f 81be f342 66bd 1fdf 23be
00000100: 017f c0bb eca4 133e 7650 94bd 4cde dbbd
00000110: 7e68 9fbd d44a 15be 3a05 9f3d 3728 073c
00000120: 664a 1f3d 458b 2a3e 70ff d03d 6425 b2bd
00000130: 79f7 603c b4ab a03c b460 fabb 1296 95bd
00000140: d522 6b3d a4e7 5b3d 54a7 163e c4d9 f13d
00000150: 9ec9 973a 0f1b 0f3d 397d 2c3c fe5c 25be
00000160: 9bda 6bbd a494 cdbd 0c48 c53b a740 afbd
00000170: 83f4 f53d 6820 cebc b0b9 283d 79a8 1dbe
00000180: a7ff 1a3d 0038 d23d 13ce 313e 7889 943d
00000190: 4c1e 683c b721 863c 6a7c 30bd 97ba 2abd
000001a0: c5df 673d 25d6 64bd bb6a 603d a787 1dbd
000001b0: 1aeb 613e bb6b e73d 7469 1ebd 7948 903d
000001c0: 4a17 e93c fc0d 883c c056 fa3d 9dd1 1bbc
000001d0: 5a7c b53c 4062 3a3d c968 79bd 8980 073e
000001e0: 5c28 45bd 39ba 733d 567e a4bd 9270 54bd
000001f0: 74fa 333d 23f2 953d 9351 853d 4ecb 1d3e
00000200: 5c11 1c3e ec74 f2bd a351 623c c9c9 993d
00000210: c228 bcbb d820 e8bd ca9b b7bc 2aa5 9b3d
00000220: 62d1 f8bd db20 c4bd 5e31 ff3c 7813 86bb
00000230: 0f64 ed3d 7105 73bc 78e0 09bd 5df4 093d
00000240: 5d2c e6bd a822 ebbd 67b5 03be 5292 853d
00000250: 79dd 1abd a617 243e 5ba2 c53d 94f3 ccbd
00000260: 1a90 afbd ea03 3f3d df6e 6e3c da23 01bc
00000270: 859a 8b3d 09dd db3d a24e 2bbe d853 ae3d
00000280: 1042 c03d 9166 5cbd 098e e63d 2d5d a83d
00000290: 1c82 68bc fb6b 93bb 79ad 08bd ec8f d33d
000002a0: c373 b73d a924 f43d 0e68 02be ce2b 7abc
000002b0: c3fe 0fbd deb7 983d 1563 693d 7f15 82bd
000002c0: 6a47 913d d811 f03d f820 223e 3ec9 713d
000002d0: 462e 4fbc 3e6f e1bd ab8a afbb 2375 86bd
000002e0: 59f2 6b3d 0076 9d3c b364 0c3c d342 c43d
000002f0: 81e0 653c 7679 5abe c702 903d 6be5 8e3d
00000300: 456e 73bd 3126 e7bd bddc 1d3d 9ca8 94bc
00000310: 9277 503d 8bed 1b3e 395c 0a3d a3cd 673d
00000320: 5e60 bb3d 6e3c ab3d a154 a5bc 2647 fdbc
00000330: 53f4 bfbd 73fc 86bd 79de e1bd 05c1 3abd
00000340: 078c 87bd ead7 abbd e49f a5bd 4e1f 17bc
00000350: 4fec e5bd 8366 b33a 9089 d83d e981 163e
00000360: 2c75 1a3c a289 e33c d869 6b3d 5539 d13c
00000370: 876c 71bd 6ba5 1d3e 88d4 be3d e527 d43c
00000380: bb72 173e a727 563b ca5e 673c 58d2 0d3e
00000390: 8862 c93d 4a09 443e 9ec4 013e 502a a53d
000003a0: f85b b43d af6b 38be 056f 46be 71de 873c
000003b0: 45d0 cc3d d9a9 e03c 50d8 593d 1ed1 bfbd
000003c0: 9c88 863d f949 283d aa1b 7e3d 2adb 1c3e
000003d0: ef6b 50bd 6ba8 a9ba a3b2 8abd ef9b 15be
000003e0: 62fe 2ebe f92e f93d 5ec2 90bd f013 0a3e
000003f0: 3c9a 08bc fad4 28bd 6bab dcbd 3543 f13c

network_body._body_endoder.seq_layers.2.bias f4 [128]
0.0 0.0 0.0 0.0 0.0 0.0 0.0 0.0
0.0 0.0 0.0 0.0 0.0 0.0 0.0 0.0
0.0 0.0 0.0 0.0 0.0 0.0 0.0 0.0
0.0 0.0 0.0 0.0 0.0 0.0 0.0 0.0
0.0 0.0 0.0 0.0 0.0 0.0 0.0 0.0
0.0 0.0 0.0 0.0 0.0 0.0 0.0 0.0
0.0 0.0 0.0 0.0 0.0 0.0 0.0 0.0
0.0 0.0 0.0 0.0 0.0 0.0 0.0 0.0
0.0 0.0 0.0 0.0 0.0 0.0 0.0 0.0
0.0 0.0 0.0 0.0 0.0 0.0 0.0 0.0
0.0 0.0 0.0 0.0 0.0 0.0 0.0 0.0
0.0 0.0 0.0 0.0 0.0 0.0 0.0 0.0
0.0 0.0 0.0 0.0 0.0 0.0 0.0 0.0
0.0 0.0 0.0 0.0 0.0 0.0 0.0 0.0
0.0 0.0 0.0 0.0 0.0 0.0 0.0 0.0
0.0 0.0 0.0 0.0 0.0 0.0 0.0 0.0
00000000: 0000 0000 0000 0000 0000 0000 0000 0000
00000010: 0000 0000 0000 0000 0000 0000 0000 0000
00000020: 0000 0000 0000 0000 0000 0000 0000 0000
00000030: 0000 0000 0000 0000 0000 0000 0000 0000
00000040: 0000 0000 0000 0000 0000 0000 0000 0000
00000050: 0000 0000 0000 0000 0000 0000 0000 0000
00000060: 0000 0000 0000 0000 0000 0000 0000 0000
00000070: 0000 0000 0000 0000 0000 0000 0000 0000
00000080: 0000 0000 0000 0000 0000 0000 0000 0000
00000090: 0000 0000 0000 0000 0000 0000 0000 0000
000000a0: 0000 0000 0000 0000 0000 0000 0000 0000
000000b0: 0000 0000 0000 0000 0000 0000 0000 0000
000000c0: 0000 0000 0000 0000 0000 0000 0000 0000
000000d0: 0000 0000 0000 0000 0000 0000 0000 0000
000000e0: 0000 0000 0000 0000 0000 0000 0000 0000
000000f0: 0000 0000 0000 0000 0000 0000 0000 0000
00000100: 0000 0000 0000 0000 0000 0000 0000 0000
00000110: 0000 0000 0000 0000 0000 0000 0000 0000
00000120: 0000 0000 0000 0000 0000 0000 0000 0000
00000130: 0000 0000 0000 0000 0000 0000 0000 0000
00000140: 0000 0000 0000 0000 0000 0000 0000 0000
00000150: 0000 0000 0000 0000 0000 0000 0000 0000
00000160: 0000 0000 0000 0000 0000 0000 0000 0000
00000170: 0000 0000 0000 0000 0000 0000 0000 0000
00000180: 0000 0000 0000 0000 0000 0000 0000 0000
00000190: 0000 0000 0000 0000 0000 0000 0000 0000
000001a0: 0000 0000 0000 0000 0000 0000 0000 0000
000001b0: 0000 0000 0000 0000 0000 0000 0000 0000
000001c0: 0000 0000 0000 0000 0000 0000 0000 0000
000001d0: 0000 0000 0000 0000 0000 0000 0000 0000
000001e0: 0000 0000 0000 0000 0000 0000 0000 0000
000001f0: 0000 0000 0000 0000 0000 0000 0000 0000

action_model._discrete_distribution.branches.0.weight f4 [2, 128]
0.00017953612 -0.013063259 -0.021354424 0.001824867 -0.00065967755 0.0005156431 0.0067009307 -0.020571453
0.013261223 -0.0069509796 -0.00023963864 -0.007701117 -0.007965551 0.010028556 0.0039512618 0.005678422
0.003463041 -0.0055610198 0.017330272 0.00023979093 -0.0032124042 -0.00021122771 -0.01936855 0.0043133963
0.011146482 0.01051632 0.0069479975 0.019736642 -0.012007132 -0.001466191 0.011053724 -0.0027096441
-0.005482096 0.0054185623 0.0060395706 -0.0012023384 0.006207051 -0.007066422 -0.0050566327 0.00087622536
-0.007620774 0.00023004238 0.009257237 0.011563623 0.014376565 0.0054339343 0.015674729 -0.017506652
0.003556164 -0.008622504 0.006043521 0.004734536 0.0069514103 0.01790764 -0.004070843 0.0033153237
0.0015823536 0.0044358526 0.013189 -0.004631603 -0.003100055 0.013334292 0.004291044 0.006007319
0.010058134 -0.013250202 0.004181442 0.002740673 -0.00017482442 -0.0050551672 0.028377254 -0.00094243867
-0.0081361495 0.003913719 -0.00082842616 -0.01225859 -0.0062461714 0.014350076 -0.008636914 -0.0064353757
-0.0064547206 -0.006588331 0.0077340114 0.0014983633 -0.003318509 -0.0075258533 -0.008051424 -0.011395461
-0.001063641 0.004636181 -0.0032868187 0.008838876 0.0059462497 0.0063878978 -0.015089037 -0.0006643116
-0.005931147 0.014001294 0.002512739 0.011193089 0.015845332 0.0045461874 -0.019981716 0.012957568
-0.0030046494 0.01221074 0.012252365 -0.012114704 0.018056942 -0.0016130336 0.002587174 0.0042474405
-0.0064987014 0.01295705 0.016942894 -0.006942621 0.005517132 -0.009523436 0.0050751152 0.0017743459
0.0018540908 -0.0010022918 -0.01724885 -0.0029333672 0.003874547 0.0028453444 0.012078895 -0.006029328
-0.0013231587 0.0017583115 0.010228575 0.002589778 -0.0035933524 -0.0077821943 0.023786152 -0.009127842
0.003798289 0.0048248623 -0.00049655227 6.495261e-05 -0.0057718907 -0.016806014 0.0013031374 0.01082868
0.00796562 -0.01072293 0.0028442384 0.006066943 0.010730318 -0.010793521 -0.0123508945 -0.008724738
-0.006245368 -0.004473516 -0.009622851 -0.005359857 -0.0010881049 0.0077376785 -0.0051691355 0.004130419
-0.01190958 -0.0037704785 0.014750312 0.012998204 0.009933442 -0.0007773211 0.0048270426 0.018390514
0.004996793 -0.0017125935 -6.7263676e-07 -0.004967726 -0.0017201303 0.0016820662 -0.0031012446 -0.006060114
-0.00672884 0.0016876312 -0.007993698 0.0076965815 0.009864324 0.0075800503 -0.008074009 -0.010159517
-0.016089043 0.008290966 0.012836287 0.008281613 -0.0070688664 -0.007940088 0.0071776025 0.0053616073
-0.009415994 -0.0040444448 -0.0020747897 0.019851673 -0.00057586894 -0.009468638 0.021983264 -0.021442825
0.0014618472 0.0012560433 0.01166782 -0.003929782 -0.0030550507 0.024202656 0.008812888 -0.011147941
-0.0117026465 0.018482657 0.0049650087 -0.02016005 0.0063665905 -0.0040039564 -0.0106041925 0.015864436
0.00391638 0.0025812716 -0.0039950185 0.00028575116 0.012985748 0.011398501 0.0059858053 0.004896009
0.0074901185 -0.012117782 0.011165933 -0.0019947751 -0.010662931 0.011354912 -0.010212372 -0.0024159597
0.005019586 -0.0010819224 0.0015296392 -0.0043207067 -0.0039008097 -0.0017115187 -0.004530272 -0.012314981
0.021959616 -0.005995896 0.0100208325 -0.014814073 0.009356145 -0.006672612 -0.0024107408 0.0016570071
0.019187236 0.0034946238 -0.004145459 -0.0123332 0.0043310416 0.0014675658 -0.010523668 -0.0014984192
00000000: dc41 3c39 4807 56bc 79ef aebc 6030 ef3a
00000010: 36ee 2cba 392c 073a 7b93 db3b 7785 a8bc
00000020: 9a45 593c 0bc5 e3bb 8247 7bb9 a759 fcbb
00000030: f181 02bc d04e 243c 9679 813b 0e12 ba3b
00000040: 30f4 623b 3739 b6bb 37f8 8d3c 6370 7b39
00000050: 3387 52bb 027d 5db9 cbaa 9ebc 6457 8d3b
00000060: bc9f 363c a54c 2c3c 07ac e33b bdae a13c
00000070: 90b9 44bc 352d c0ba ae1a 353c 4994 31bb
00000080: 28a3 b3bb 328e b13b 97e7 c53b c897 9dba
00000090: 8564 cb3b 728d e7bb 1cb2 a5bb 7db2 653a
000000a0: b0b7 f9bb 8837 7139 abab 173c 5a75 3d3c
000000b0: af8b 6b3c 250f b23b 4a68 803c 1c6a 8fbc
000000c0: 880e 693b 6745 0dbc bb08 c63b 2b24 9b3b
000000d0: a8c8 e33b 0bb3 923c b564 85bb e745 593b
000000e0: fa66 cf3a a15a 913b ad16 583c b4c4 97bb
000000f0: 4b2a 4bbb 1378 5a3c e39b 8c3b 0bd9 c43b
00000100: dfca 243c 6017 59bc 7a04 893b dd9c 333b
00000110: 1351 37b9 d1a5 a5bb 6a77 e83c fd0d 77ba
00000120: 7c4d 05bc a83e 803b bd2a 59ba 41d8 48bc
00000130: afac ccbb 951c 6b3c d881 0dbc d8df d2bb
00000140: 1f82 d3bb ede2 d7bb 976d fd3b bb64 c43a
00000150: 587b 59bb 6f9b f6bb 1fea 03bc 07b4 3abc
00000160: df69 8bba 1beb 973b ab67 57bb efd0 103c
00000170: c2d8 c23b 9251 d13b 0238 77bc 3225 2eba
00000180: 115a c2bb af65 653c c4ac 243b 3863 373c
00000190: 12ce 813c 2ff8 943b b2b0 a3bc fb4b 543c
000001a0: a7e9 44bb 8e0f 483c 25be 483c c07c 46bc
000001b0: 27ec 933c 6d6c d3ba 948d 293b 1d2e 8b3b
000001c0: 0ff3 d4bb cf49 543c d3cb 8a3c ed7e e3bb
000001d0: 0fc9 b43b 3008 1cbc 274d a63b 2b91 e83a
000001e0: f704 f33a 555f 83ba 764d 8dbc bc3d 40bb
000001f0: 1dec 7d3b f578 3a3b 8fe6 453c ab91 c5bb
00000200: d76d adba 2577 e63a c195 273c 44b9 293b
00000210: 737e 6bbb c701 ffbb 2ddb c23c f28c 15bc
00000220: b7ec 783b e119 9e3b 0f2b 02ba 2b37 8838
00000230: 2122 bdbb c4ac 89bc 09ce aa3a c76a 313c
00000240: 3b82 023c 3aaf 2fbc 6766 3a3b 35cd c63b
00000250: 37ce 2f3c 4fd7 30bc 685b 4abc 34f2 0ebc
00000260: f2a5 ccbb 9296 92bb 2aa9 1dbc bda1 afbb
00000270: be9e 8eba 5a8c fd3b da61 a9bb 7758 873b
00000280: 6620 43bc 221a 77bb 4bab 713c 6bf6 543c
00000290: e0bf 223c 23c5 4bba 2b2c 9e3b b4a7 963c
000002a0: 23bc a33b 1a79 e0ba 3f8f 34b5 4ec8 a2bb
000002b0: ff75 e1ba c778 dc3a 403e 4bbb ec93 c6bb
000002c0: 9a7d dcbb 8233 dd3a 00f8 02bc 9b33 fc3b
000002d0: f99d 213c 1262 f83b d948 04bc 1a74 26bc
000002e0: 2bcd 83bc d5d6 073c 4a4f 523c 9aaf 073c
000002f0: f3a1 e7bb 2517 02bc 1832 eb3b 6cb0 af3b
00000300: 8b45 1abc 4387 84bb 32f9 07bb fa9f a23c
00000310: e9f5 16ba 5922 1bbc 3f16 b43c dda8 afbc
00000320: 749b bf3a d2a1 a43a 622a 3f3c 67c5 80bb
00000330: 3f37 48bb a644 c63c ee63 103c dba5 36bc
00000340: 75bc 3fbc f168 973c 83b1 a23b b026 a5bc
00000350: d59e d03b 9f33 83bb 35bd 2dbc 22f6 813c
00000360: fa54 803b 8d2a 293b a5e8 82bb dfd0 9539
00000370: 2dc2 543c c7c0 3a3c 9324 c43b b36e a03b
00000380: ab6f f53b a989 46bc 51f1 363c c6ba 02bb
00000390: 93b3 2ebc f409 3a3c cb51 27bc 1455 1ebb
000003a0: 577b a43b 4bcf 8dba 2d7e c83a b794 8dbb
000003b0: baa4 7fbb 0a55 e0ba ad72 94bb c6c4 49bc
000003c0: a7e4 b33c 3979 c4bb 6b2e 243c bab6 72bc
000003d0: 844a 193c eda5 dabb 85fd 1dbb ef2f d93a
000003e0: 8d2e 9d3c 0f06 653b a1d6 87bb 3111 4abc
000003f0: 69eb 8d3b 565b c03a 766b 2cbc 9b66 c4ba

action_model._discrete_distribution.branches.0.bias f4 [2]
0.0 0.0
00000000: 0000 0000 0000 0000

network_body._body_endoder.seq_layers.0.weight f4 [128, 5]
-0.11649115 -0.36946768 -0.54336923 0.49533713 -0.12015798 -0.19673142 -0.26036736 0.33749056
-0.803151 -0.64084554 -0.33408475 -0.60370725 0.31013146 -0.25642407 0.5033881 0.18079974
-0.5676178 0.32409978 -0.7081581 -0.0643718 -0.07000063 0.23240906 0.43151656 -0.7965611
0.36797953 -0.00028198404 -0.40047717 -0.3586972 -0.2638623 0.17352517 0.5424352 -0.14178094
0.8549223 0.16888942 0.019648818 -0.012018081 -0.04509637 0.62890375 0.22277775 0.19088474
-0.09159458 0.7475703 0.7773474 -0.02220057 0.28575593 -0.36060515 0.17757407 -0.19901279
-0.3184803 -0.1619371 0.43963787 -0.62336844 0.05862177 -0.13875782 -0.36662886 -0.49784184
0.23619963 0.32603958 0.680946 0.09660264 0.45413643 0.45079705 -0.78358036 -0.3015463
0.22247684 -0.34861565 -0.52882314 0.89835364 0.41644582 -0.16237114 -0.40813115 -0.7317073
0.017760148 0.24623027 -0.40909305 -1.0731362 -0.01957633 0.27940595 0.13025057 -0.13195308
0.04514538 0.39050823 -0.1571397 0.0037885616 0.14403011 -0.43012217 0.093114965 0.27241522
0.99837625 0.68903357 -0.3293214 -0.25797546 0.07731592 -0.2355937 0.3280895 -0.5265272
0.30443078 0.47014692 -0.19962317 0.21575955 1.0129156 -0.6368662 0.02098232 -0.538506
0.48753154 0.35321337 0.6769557 -0.25731215 -0.28806278 -0.23926349 0.09506764 0.16275385
0.15602295 -0.09758445 0.31264576 -0.2342017 0.2856301 0.118834585 -0.3333754 0.11750402
0.6072375 -0.64658374 -0.61149234 0.0441876 0.36777592 -0.6391653 -0.100888275 0.06345295
-0.9106731 0.10769298 0.4512855 -0.04325573 0.16135815 0.04799494 -0.45995617 0.2994074
-0.4028595 -0.56405073 0.05323737 -0.21761954 0.543518 -0.5035452 0.031603064 -0.09252621
-0.6036641 0.11844369 0.25705373 0.41626364 0.1086929 0.6866695 0.00096469244 -0.07084063
0.93906087 0.578565 0.1685194 -0.9820234 0.12566262 0.37935337 0.18288366 -0.4651396
-0.8354453 0.16140246 0.16514473 -0.47358358 -0.38085362 -0.42687634 -0.248353 -0.3108457
-0.27255607 0.1408044 1.4178463 -0.263347 -0.029620958 0.658276 -0.3997544 -0.06858597
-0.14543292 0.071489096 0.9493272 -0.9651041 0.40975425 -0.33889884 0.2539308 0.6374978
0.6385062 -0.14403407 -0.31575337 0.2710023 0.04447506 -0.33475125 0.0077058477 0.5018859
0.6183245 -0.47680613 0.20483075 0.95482105 0.57126456 0.07135733 0.28294745 0.09859753
-0.1327241 0.8146975 -0.6488532 0.010636873 -0.45346075 -0.43415967 0.07288529 0.46604836
-0.40853253 0.46877947 -0.07430264 1.1213089 0.2977374 -1.0853965 0.32735026 0.027025936
-0.017107733 -0.109256595 -0.917291 0.30474746 -0.19389933 0.024285162 -0.6930552 0.23791105
-0.5298344 0.15711518 -0.1597352 0.19706437 -0.24600504 0.24345128 0.25532842 1.1325387
0.3430334 0.009345197 0.08277262 0.23526917 0.44440392 0.0015277353 0.46596667 -0.54184765
0.37469095 -0.38420662 0.4119412 -0.28496587 0.075092465 -0.4099749 0.76502335 0.68943113
0.5452298 0.21298666 0.015328879 0.2283566 0.33751962 0.17884311 0.0893385 0.30888206
00000000: e992 eebd de2a bdbe 3f1a 0bbf d49c fd3e
00000010: 6315 f6bd f673 49be df4e 85be 90cb ac3e
00000020: 4e9b 4dbf 740e 24bf 280d abbe 8f8c 1abf
00000030: 8dc9 9e3e 044a 83be 0bde 003f 9123 393e
00000040: 664f 11bf 68f0 a53e d949 35bf 5dd5 83bd
00000050: 7e5c 8fbd a4fc 6d3e bdef dc3e 6eeb 4bbf
00000060: d067 bc3e 42d7 93b9 580b cdbe 29a7 b7be
00000070: f618 87be 95b0 313e 09dd 0a3f 062f 11be
00000080: 30dc 5a3f 59f1 2c3e 8ff6 a03c 7ce7 44bc
00000090: f9b6 38bd d6ff 203f da1f 643e 4a77 433e
000000a0: f095 bbbd c460 3f3f 3d00 473f f8dd b5bc
000000b0: 9a4e 923e 3da1 b8be fad5 353e 02ca 4bbe
000000c0: da0f a3be d7d2 25be 3718 e13e 1395 1fbf
000000d0: 621d 703d 8816 0ebe c7b6 bbbe 20e5 febe
000000e0: 51de 713e a9ee a63e 7a52 2e3f 9bd7 c53d
000000f0: 9284 e83e dfce e63e b998 48bf 4764 9abe
00000100: f8d0 633e c07d b2be f460 07bf 81fa 653f
00000110: 6338 d53e 9f44 26be 91f6 d0be 2b51 3bbf
00000120: bb7d 913c ca23 7c3e a574 d1be 875c 89bf
00000130: 8a5e a0bc 4c0e 8f3e 6860 053e b51e 07be
00000140: 5dea 383d b2f0 c73e 3be9 20be 8449 783b
00000150: a17c 133e f938 dcbe 0fb3 be3d 027a 8b3e
00000160: 9695 7f3f 8164 303f d19c a8be 5c15 84be
00000170: cf57 9e3d 7a3f 71be 59fb a73e 7dca 06bf
00000180: 5ade 9b3e 19b7 f03e 046a 4cbe 12f0 5c3e
00000190: 38a7 813f aa09 23bf 1de3 ab3c 87db 09bf
000001a0: bc9d f93e 62d8 b43e f84c 2d3f 6bbe 83be
000001b0: f77c 93be 7d01 75be d3b2 c23d f2a8 263e
000001c0: 7bc4 1f3e 5bda c7bd 1b13 a03e 92d2 6fbe
000001d0: 1c3e 923e 8c5f f33d 2eb0 aabe f3a5 f03d
000001e0: eb73 1b3f 8386 25bf c38a 1cbf 0ffe 343d
000001f0: 204d bc3e 56a0 23bf 839e cebd 9ff3 813d
00000200: df21 69bf 238e dc3d e50e e73e ec2c 31bd
00000210: 123b 253e 5896 443d 607f ebbe ed4b 993e
00000220: 9a43 cebe a165 10bf 6e0f 5a3d a8d7 5ebe
00000230: ff23 0b3f 57e8 00bf 3772 013d 627e bdbd
00000240: bb89 1abf 9b92 f23d 8c9c 833e 8220 d53e
00000250: 629a de3d 93c9 2f3f 6ae3 7c3a e414 91bd
00000260: 4b66 703f d61c 143f 5990 2c3e e365 7bbf
00000270: b4ad 003e 9b3a c23e db45 3b3e c726 eebe
00000280: bedf 55bf b046 253e b31b 293e 8c79 f2be
00000290: 3fff c2be 898f dabe 4050 7ebe 2b27 9fbe
000002a0: 788c 8bbe 072f 103e fd7b b53f 6bd5 86be
000002b0: a7a7 f2bc c784 283f 9cac ccbe cd76 8cbd
000002c0: 5eec 14be e068 923d 1b07 733f 1011 77bf
000002d0: 4fcb d13e 2684 adbe 3803 823e 0e33 233f
000002e0: 2475 233f ab7d 13be 6daa a1be d0c0 8a3e
000002f0: 7b2b 363d 8464 abbe 5681 fc3b 987b 003f
00000300: 844a 1e3f ef1f f4be 27bf 513e 276f 743f
00000310: 653e 123f cb23 923d 7dde 903e 80ed c93d
00000320: d4e8 07be 0490 503f 3e1b 26bf 4746 2e3c
00000330: 022c e8be 2d4a debe e244 953d e49d ee3e
00000340: 2d2b d1be dd03 f03e fc2b 98bd 0d87 8f3f
00000350: 0971 983e 46ee 8abf 749a a73e 7f65 dd3c
00000360: 8425 8cbc ecc1 dfbd 95d3 6abf dc07 9c3e
00000370: 8c8d 46be adf1 c63c 116c 31bf f49e 733e
00000380: 3aa3 07bf cde2 203e a091 23be 3ecb 493e
00000390: bfe8 7bbe 4b4b 793e 68ba 823e 07f7 903f
000003a0: 13a2 af3e 991c 193c b184 a93d 67ea 703e
000003b0: e988 e33e 4a3e c83a 2f93 ee3e 87b6 0abf
000003c0: 7ed7 bf3e bbb6 c4be f5e9 d23e 0ce7 91be
000003d0: 14ca 993d 3be8 d1be 92d8 433f 8f7e 303f
000003e0: 2e94 0b3f 2d19 5a3e fa25 7b3c 50d6 693e
000003f0: 5fcf ac3e a622 373e 1af7 b63d ca25 9e3e

network_body._body_endoder.seq_layers.0.bias f4 [128]
0.0 0.0 0.0 0.0 0.0 0.0 0.0 0.0
0.0 0.0 0.0 0.0 0.0 0.0 0.0 0.0
0.0 0.0 0.0 0.0 0.0 0.0 0.0 0.0
0.0 0.0 0.0 0.0 0.0 0.0 0.0 0.0
0.0 0.0 0.0 0.0 0.0 0.0 0.0 0.0
0.0 0.0 0.0 0.0 0.0 0.0 0.0 0.0
0.0 0.0 0.0 0.0 0.0 0.0 0.0 0.0
0.0 0.0 0.0 0.0 0.0 0.0 0.0 0.0
0.0 0.0 0.0 0.0 0.0 0.0 0.0 0.0
0.0 0.0 0.0 0.0 0.0 0.0 0.0 0.0
0.0 0.0 0.0 0.0 0.0 0.0 0.0 0.0
0.0 0.0 0.0 0.0 0.0 0.0 0.0 0.0
0.0 0.0 0.0 0.0 0.0 0.0 0.0 0.0
0.0 0.0 0.0 0.0 0.0 0.0 0.0 0.0
0.0 0.0 0.0 0.0 0.0 0.0 0.0 0.0
0.0 0.0 0.0 0.0 0.0 0.0 0.0 0.0
00000000: 0000 0000 0000 0000 0000 0000 0000 0000
00000010: 0000 0000 0000 0000 0000 0000 0000 0000
00000020: 0000 0000 0000 0000 0000 0000 0000 0000
00000030: 0000 0000 0000 0000 0000 0000 0000 0000
00000040: 0000 0000 0000 0000 0000 0000 0000 0000
00000050: 0000 0000 0000 0000 0000 0000 0000 0000
00000060: 0000 0000 0000 0000 0000 0000 0000 0000
00000070: 0000 0000 0000 0000 0000 0000 0000 0000
00000080: 0000 0000 0000 0000 0000 0000 0000 0000
00000090: 0000 0000 0000 0000 0000 0000 0000 0000
000000a0: 0000 0000 0000 0000 0000 0000 0000 0000
000000b0: 0000 0000 0000 0000 0000 0000 0000 0000
000000c0: 0000 0000 0000 0000 0000 0000 0000 0000
000000d0: 0000 0000 0000 0000 0000 0000 0000 0000
000000e0: 0000 0000 0000 0000 0000 0000 0000 0000
000000f0: 0000 0000 0000 0000 0000 0000 0000 0000
00000100: 0000 0000 0000 0000 0000 0000 0000 0000
00000110: 0000 0000 0000 0000 0000 0000 0000 0000
00000120: 0000 0000 0000 0000 0000 0000 0000 0000
00000130: 0000 0000 0000 0000 0000 0000 0000 0000
00000140: 0000 0000 0000 0000 0000 0000 0000 0000
00000150: 0000 0000 0000 0000 0000 0000 0000 0000
00000160: 0000 0000 0000 0000 0000 0000 0000 0000
00000170: 0000 0000 0000 0000 0000 0000 0000 0000
00000180: 0000 0000 0000 0000 0000 0000 0000 0000
00000190: 0000 0000 0000 0000 0000 0000 0000 0000
000001a0: 0000 0000 0000 0000 0000 0000 0000 0000
000001b0: 0000 0000 0000 0000 0000 0000 0000 0000
000001c0: 0000 0000 0000 0000 0000 0000 0000 0000
000001d0: 0000 0000 0000 0000 0000 0000 0000 0000
000001e0: 0000 0000 0000 0000 0000 0000 0000 0000
000001f0: 0000 0000 0000 0000 0000 0000 0000 0000

network_body._body_endoder.seq_layers.2.weight f4 [128, 128]
0.0036630628 0.085494086 0.012476291 0.079914354 -0.03812071 0.014288438 -0.065338306 -0.07528771
-0.0842524 0.11969257 0.032714654 -0.21086411 0.012712245 -0.15447046 -0.022565383 -0.004373116
-0.022061352 0.12506276 -0.0882172 0.01619276 -0.07350462 -0.17398506 -0.03327048 0.030540133
0.07767012 -0.007075462 -0.08312918 0.043056466 -0.021920657 0.24124816 0.014399401 -0.057774276
0.035548545 0.012373511 -0.10247825 0.17000541 -0.07345268 -0.004183859 0.051729262 0.19614205
-0.20786035 -0.058270376 -0.069377735 0.108335845 0.020960405 0.081339404 -0.045436457 0.055115454
0.008764729 -0.086905144 -0.12504207 -0.015181375 0.065442614 0.13472348 0.1026186 0.053829454
0.08708469 0.09874232 -0.0012067033 -0.1353754 -0.07481991 -0.10875109 -0.021504518 -0.05821501
-0.002585967 -0.046658132 0.11424076 -0.017796205 0.07862434 -0.070391476 -0.03925173 0.04983841
0.1079238 0.05839138 0.030586157 0.015876787 -0.021001704 -0.05174229 -0.0020769073 -0.028395496
0.04760948 0.034215387 0.21196364 0.17511179 0.09426279 -0.021481298 0.25376424 0.051501174
0.0013572727 0.092921145 0.10834374 0.12412058 -0.107347675 0.052186336 0.033797026 -0.038896002
0.068660855 -0.121989116 0.054283585 -0.018418383 -0.09745425 0.031984728 -0.19810171 -0.08228936
0.008075635 -0.049790688 -0.042088017 -0.03779069 0.05062931 -0.052703932 0.111299366 0.062639095
-0.0007726991 -0.032699786 -0.2527109 0.02959883 0.029481372 -0.02961153 0.035162516 0.24219878
-0.1387019 0.011757345 -0.007487853 -0.10928248 0.0007720735 -0.16671993 -0.03901105 -0.02662593
0.15929188 -0.0010785994 0.051059663 0.1216099 0.104913145 -0.14622779 -0.016030468 -0.16697575
0.065336674 -0.15563193 0.08621461 -0.05488656 0.09547835 -0.010732684 -0.09491743 -0.025420194
-0.048250396 -0.08879146 -0.14696611 0.16454962 -0.030870821 -0.10792754 -0.0036625594 -0.103216365
-0.10815529 0.044281095 -0.04422564 -0.054102153 0.08901995 0.11392901 0.011517353 -0.06227174
0.03913075 -0.16224158 -0.0979512 -0.08554135 -0.025613872 0.053564455 -0.12523441 -0.12441591
-0.006981922 -0.10519675 -0.0709405 -0.05025546 -0.009907153 0.032225013 -0.10162098 0.048987962
0.09235521 -0.14055707 -0.025180927 -0.02496436 0.0220534 -0.08425306 0.04984019 0.23573841
-0.111578934 -0.12396743 0.08371811 -0.2244024 0.0071611577 0.07586693 0.14101736 0.077927984
0.073653564 0.045205873 -0.019963708 -0.08194494 0.15817711 -0.0029467726 0.10772441 -0.07596142
-0.07175608 0.18481354 0.066023394 0.051995717 0.104872756 0.13280468 0.062049713 0.055146758
0.18691187 -0.05570914 0.05092816 0.029504556 0.04924053 0.005897805 0.061108503 -0.015343971
0.045092426 0.0021871512 -0.10294754 0.0011727321 -0.03996511 0.0022116061 -0.04683171 0.050938506
0.16568388 -0.03811245 0.12889403 0.03740842 0.1213966 -0.018926132 0.087145224 -0.07879625
-0.025450021 -0.08036322 0.014972387 0.063151285 0.05271932 -0.09886406 0.0019603807 0.054094203
-0.067176014 -0.103433274 0.028263513 -0.021812884 -0.031547 -0.06740936 0.10596144 0.0663696
-0.018353228 -0.022808056 -0.12750588 0.026439337 -0.01106843 0.025924902 0.12900177 -0.13542679
00000000: ff0f 703b 8617 af3d 5b69 4c3c 23aa a33d
00000010: 7624 1cbd 0d1a 6a3c 17d0 85bd 7130 9abd
00000020: 868c acbd 6121 f53d cdff 053d c3ec 57be
00000030: 0547 503c 812d 1ebe 0adb b8bc 5b4c 8fbb
00000040: 02ba b4bc 7410 003e 38ab b4bd aea6 843c
00000050: 9789 96bd 2429 32be a046 08bd 4d2f fa3c
00000060: 8311 9f3d 47d9 e7bb a23f aabd fa5b 303d
00000070: f392 b3bc c209 773e 77eb 6b3c b8a4 6cbd
00000080: 5a9b 113d 44ba 4a3c 1ee0 d1bd e615 2e3e
00000090: 5c6e 96bd c118 89bb 10e2 533d 76d9 483e
000000a0: 58d9 54be ebac 6ebd ea15 8ebd 2fdf dd3d
000000b0: 28b5 ab3c 4695 a63d 941b 3abd bec0 613d
000000c0: f099 0f3c 53fb b1bd 070b 00be 4dbb 78bc
000000d0: c706 863d f4f4 093e b329 d23d 467c 5c3d
000000e0: 7559 b23d 6a39 ca3d 3e2a 9eba d99f 0abe
000000f0: 2e3b 99bd e4b8 debd 3e2a b0bc dd72 6ebd
00000100: 5479 29bb 991c 3fbd 0ff7 e93d 59c9 91bc
00000110: cc05 a13d 6829 90bd 6cc6 20bd 5c23 4c3d
00000120: 2707 dd3d cd2b 6f3d d28f fa3c 0910 823c
00000130: c40b acbc b9ef 53bd b91c 08bb ac9d e8bc
00000140: 2802 433d 6f25 0c3d ff0c 593e 8150 333e
00000150: da0c c13d 8cf9 afbc 63ed 813e e5f2 523d
00000160: 84e6 b13a 714d be3d 53e3 dd3d ee32 fe3d
00000170: 19d9 dbbd 57c1 553d c06e 0a3d 6a51 1fbd
00000180: 109e 8c3d 6ed5 f9bd 7758 5e3d 26e2 96bc
00000190: 1896 c7bd 6b02 033d 2ddb 4abe 5387 a8bd
000001a0: ab4f 043c 52f1 4bbd 7c64 2cbd 69ca 1abd
000001b0: ae60 4f3d 14e0 57bd ecf0 e33d ed48 803d
000001c0: f58e 4aba 36f0 05bd 5363 81be 3f79 f23c
000001d0: eb82 f13c e193 f2bc 9206 103d f502 783e
000001e0: df07 0ebe e1a1 403c aa5c f5bb 7ecf dfbd
000001f0: fa64 4a3a a1b8 2abe 0dca 1fbd 9f1e dabc
00000200: 691d 233e ca5f 8dba f023 513d 9c0e f93d
00000210: b4dc d63d bdbc 15be 5452 83bc b1fb 2abe
00000220: 3ccf 853d fa5d 1fbe 4991 b03d bbd0 60bd
00000230: 278a c33d 24d8 2fbc 1264 c2bd 033e d0bc
00000240: 35a2 45bd 4cd8 b5bd 497e 16be b27f 283e
00000250: cee4 fcbc 1d09 ddbd 8d07 70bb 1a63 d3bd
00000260: 8580 ddbd 1860 353d f225 35bd 389a 5dbd
00000270: 1750 b63d 9d53 e93d 48b3 3c3c a710 7fbd
00000280: 9147 203d a822 26be a49a c8bd 4e30 afbd
00000290: 2fd4 d1bc 6766 5b3d 733d 00be c5cd febd
000002a0: 9bc8 e4bb 6571 d7bd 4149 91bd abd8 4dbd
000002b0: 9d51 22bc 60fe 033d a91e d0bd 9aa7 483d
000002c0: ba24 bd3d 31ee 0fbe 3b48 cebc 0f82 ccbc
000002d0: 55a9 b43c de8c acbd 3a25 4c3d 6965 713e
000002e0: 7f83 e4bd a3e2 fdbd 6774 ab3d bec9 65be
000002f0: 25a8 ea3b 1f60 9b3d db66 103e b598 9f3d
00000300: aed7 963d cb29 393d ee8a a3bc c0d2 a7bd
00000310: 2ef9 213e a41e 41bb 9e9e dc3d a991 9bbd
00000320: daf4 92bd c33f 3d3e 4637 873d 76f9 543d
00000330: 87c7 d63d f3fd 073e d727 7e3d 91e1 613d
00000340: d365 3f3e 442f 64bd 0c9a 503d 8ab3 f13c
00000350: 70b0 493d 6042 c13b e94c 7a3d 4765 7bbc
00000360: d6b2 383d 4f56 0f3b 29d6 d2bd 5cb6 993a
00000370: 75b2 23bd 98f0 103b 9bd2 3fbd e5a4 503d
00000380: 09a9 293e cd1b 1cbd ccfc 033e 9239 193d
00000390: c89e f83d fa0a 9bbc 3279 b23d ee5f a1bd
000003a0: 907c d0bc 7995 a4bd be4e 753c 7655 813d
000003b0: 37f0 573d 3e79 cabd bb79 003b e291 5d3d
000003c0: 9493 89bd d3d4 d3bd e288 e73c efb0 b2bc
000003d0: 6d37 01bd eb0d 8abd 5002 d93d c9ec 873d
000003e0: 8259 96bc f6d7 babc e790 02be 4f97 d83c
000003f0: 5c58 35bc 7660 d43c 0a19 043e 52ad 0abe

network_body._body_endoder.seq_layers.2.bias f4 [128]
0.0 0.0 0.0 0.0 0.0 0.0 0.0 0.0
0.0 0.0 0.0 0.0 0.0 0.0 0.0 0.0
0.0 0.0 0.0 0.0 0.0 0.0 0.0 0.0
0.0 0.0 0.0 0.0 0.0 0.0 0.0 0.0
0.0 0.0 0.0 0.0 0.0 0.0 0.0 0.0
0.0 0.0 0.0 0.0 0.0 0.0 0.0 0.0
0.0 0.0 0.0 0.0 0.0 0.0 0.0 0.0
0.0 0.0 0.0 0.0 0.0 0.0 0.0 0.0
0.0 0.0 0.0 0.0 0.0 0.0 0.0 0.0
0.0 0.0 0.0 0.0 0.0 0.0 0.0 0.0
0.0 0.0 0.0 0.0 0.0 0.0 0.0 0.0
0.0 0.0 0.0 0.0 0.0 0.0 0.0 0.0
0.0 0.0 0.0 0.0 0.0 0.0 0.0 0.0
0.0 0.0 0.0 0.0 0.0 0.0 0.0 0.0
0.0 0.0 0.0 0.0 0.0 0.0 0.0 0.0
0.0 0.0 0.0 0.0 0.0 0.0 0.0 0.0
00000000: 0000 0000 0000 0000 0000 0000 0000 0000
00000010: 0000 0000 0000 0000 0000 0000 0000 0000
00000020: 0000 0000 0000 0000 0000 0000 0000 0000
00000030: 0000 0000 0000 0000 0000 0000 0000 0000
00000040: 0000 0000 0000 0000 0000 0000 0000 0000
00000050: 0000 0000 0000 0000 0000 0000 0000 0000
00000060: 0000 0000 0000 0000 0000 0000 0000 0000
00000070: 0000 0000 0000 0000 0000 0000 0000 0000
00000080: 0000 0000 0000 0000 0000 0000 0000 0000
00000090: 0000 0000 0000 0000 0000 0000 0000 0000
000000a0: 0000 0000 0000 0000 0000 0000 0000 0000
000000b0: 0000 0000 0000 0000 0000 0000 0000 0000
000000c0: 0000 0000 0000 0000 0000 0000 0000 0000
000000d0: 0000 0000 0000 0000 0000 0000 0000 0000
000000e0: 0000 0000 0000 0000 0000 0000 0000 0000
000000f0: 0000 0000 0000 0000 0000 0000 0000 0000
00000100: 0000 0000 0000 0000 0000 0000 0000 0000
00000110: 0000 0000 0000 0000 0000 0000 0000 0000
00000120: 0000 0000 0000 0000 0000 0000 0000 0000
00000130: 0000 0000 0000 0000 0000 0000 0000 0000
00000140: 0000 0000 0000 0000 0000 0000 0000 0000
00000150: 0000 0000 0000 0000 0000 0000 0000 0000
00000160: 0000 0000 0000 0000 0000 0000 0000 0000
00000170: 0000 0000 0000 0000 0000 0000 0000 0000
00000180: 0000 0000 0000 0000 0000 0000 0000 0000
00000190: 0000 0000 0000 0000 0000 0000 0000 0000
000001a0: 0000 0000 0000 0000 0000 0000 0000 0000
000001b0: 0000 0000 0000 0000 0000 0000 0000 0000
000001c0: 0000 0000 0000 0000 0000 0000 0000 0000
000001d0: 0000 0000 0000 0000 0000 0000 0000 0000
000001e0: 0000 0000 0000 0000 0000 0000 0000 0000
000001f0: 0000 0000 0000 0000 0000 0000 0000 0000

value_heads.value_heads.extrinsic.weight f4 [1, 128]
-0.19630632 0.09665391 0.11076519 -0.1789064 0.13563544 -0.14282048 -0.1504416 -0.18746658
-0.0019970983 0.08899245 0.19939652 -0.11624289 -0.105410956 0.028980672 0.055892855 -0.08963747
-0.12927735 -0.1885886 0.20401329 -0.15048704 -0.09813943 -0.08717586 -0.09452429 0.075882554
0.089208186 -0.062508374 -0.06681828 0.047338516 -0.08895667 -0.13412121 0.06678739 0.18063715
0.111509144 0.15276805 -0.08523679 -0.13053843 -0.04075423 -0.019753247 0.0021876097 -0.041390225
0.078957886 0.18535301 0.15285045 0.20603207 -0.080500096 -0.17408113 -0.18515672 -0.19875135
-0.14916962 -0.13701922 0.09046286 -0.15797071 0.10733816 0.07441074 -0.10032647 0.21154958
-0.2068423 0.009485871 0.008132219 0.11390087 -0.21443486 -0.07578251 -0.17521623 0.18571973
-0.21179081 0.12555519 0.17615089 0.08234933 0.16685373 -0.11054712 -0.20352925 -0.019918665
0.19496244 -0.043626994 0.17029095 -0.052045852 0.12046051 0.10343957 0.1031594 0.15493405
0.12663573 0.09189981 -0.044853583 0.07956806 -0.15807924 -0.09215913 0.20223191 0.17512152
0.047872037 -0.08866201 -0.06428331 -0.10735137 -0.07800312 -0.17080942 -0.023276046 0.19033435
0.10599482 0.046549886 -0.18460743 -0.10041083 -0.16202739 -0.048898518 0.17940068 -0.15138462
0.06365389 -0.12998194 -0.03984098 0.15519077 -0.0042104423 0.10452083 -0.16668749 -0.1582749
0.10216978 0.15371197 0.07644591 -0.050844893 0.11419025 -0.020725429 -0.16787353 0.19247341
0.107086 0.1698825 0.054867297 -0.19927178 0.06230125 -0.10088709 0.02172473 0.125882
00000000: 8604 49be 7cf2 c53d dcd8 e23d 3d33 37be
00000010: 04e4 0a3e 883f 12be 5d0d 1abe 3df7 3fbe
00000020: c0e1 02bb ac41 b63d 9a2e 4c3e c110 eebd
00000030: b3e1 d7bd e068 ed3c e8ef 643d da93 b7bd
00000040: 4861 04be 5f1d 41be dce8 503e 4619 1abe
00000050: 53fd c8bd 4289 b2bd f395 c1bd 5068 9b3d
00000060: c8b2 b63d 6404 80bd 06d8 88bd 08e6 413d
00000070: ea2e b6bd 1257 09be d4c7 883d f2f8 383e
00000080: e85e e43d 3a6f 1c3e a090 aebd deab 05be
00000090: e8ed 26bd 90d1 a1bc 005e 0f3b cc88 29bd
000000a0: acb4 a13d 2ecd 3d3e d484 1c3e 12fa 523e
000000b0: 3cdd a4bd 5342 32be b999 3dbe 7985 4bbe
000000c0: ecbf 18be c44e 0cbe 9844 b93d 13c3 21be
000000d0: 1cd4 db3d a864 983d f777 cdbd 74a0 583e
000000e0: 78ce 53be a06a 1b3c 003d 053c dc44 e93d
000000f0: d094 5bbe dc33 9bbd e26b 33be 502d 3e3e
00000100: b1df 58be 8a91 003e e660 343e c4a6 a83d
00000110: b4db 2a3e 8766 e2bd f969 50be 782c a3bc
00000120: 3ca4 473e 38b2 32bd c060 2e3e 082e 55bd
00000130: 00b4 f63d 20d8 d33d 3c45 d33d 08a7 1e3e
00000140: ccac 013e f835 bc3d 64b8 37bd 94f4 a23d
00000150: 86df 21be edbd bcbd e215 4f3e 0e53 333e
00000160: 7815 443d 6e94 b5bd f8a6 83bd 09db dbbd
00000170: 1ac0 9fbd aae8 2ebe 68ad bebc 02e7 423e
00000180: d013 d93d 18ab 3e3d bb09 3dbe 31a4 cdbd
00000190: 82ea 25be d049 48bd d0b4 373e 9204 1bbe
000001a0: f85c 823d fc19 05be 4c30 23bd 54ea 1e3e
000001b0: c0f7 89bb 040f d63d 20b0 2abe d112 22be
000001c0: 643e d13d ac66 1d3e ac8f 9c3d bc42 50bd
000001d0: 94dc e93d 60c8 a9bc 0ae7 2bbe c017 453e
000001e0: e84f db3d aef5 2d3e 88bc 603d e70d 4cbe
000001f0: 982f 7f3d e49d cebd 10f8 b13c 36e7 003e
