results/FireDividedTimePenalty/PlayerRL/PlayerRL-128425.pt (torch, 459589 bytes, 36 tensors)

network_body._body_endoder.seq_layers.0.weight f4 [128, 10]
000000 c5 9f 7e 3e 5a 57 e9 bc 3f 64 a7 be ab c3 14 3f
       0.24865635 -0.028484035 -0.3269367 0.58111066
000010 61 03 6d 3e 07 ea 9c 3c 48 2e aa 3e fd 93 12 3d
       0.2314582 0.019154562 0.33238435 0.035785664
000020 5f 15 a3 3e a4 49 0a bf 2d 3b 02 3f 06 cf 9c be
       0.31852242 -0.54018617 0.50871545 -0.30626696
000030 31 c9 d2 3e 6a 57 9a 3e 9e 94 08 be 48 99 01 be
       0.41169122 0.30144817 -0.13337943 -0.12656128
000040 14 9f 68 be 06 75 47 be 5c 90 92 3e 89 84 42 3e
       -0.22716933 -0.19478235 0.28625762 0.1899587
000050 87 15 0b 3f 2f 16 9a be 6f 5a 9e be 3e 5e f6 3e
       0.54329723 -0.3009505 -0.3092837 0.48118776
000060 9e 5a c1 3e ae 40 e0 3e 8a c6 22 3e fe 23 f8 be
       0.37764448 0.43799347 0.15896049 -0.4846496
000070 d4 0f 77 3e 48 92 05 be 28 34 a0 3e 5e 59 46 be
       0.24127132 -0.13044083 0.31289792 -0.19370028
000080 55 e1 cc 3e 5b 86 96 be 91 85 94 be 16 3f 85 be
       0.40015665 -0.2939938 -0.29008153 -0.26024693
000090 4f d5 be be d5 64 63 be 0d 56 f4 3e 3c 83 5d 3d
       -0.37272117 -0.22206433 0.47721902 0.054080233
0000a0 e8 86 ea be ab 8a 39 bd fd 15 42 be a9 f5 62 bf
       -0.4580605 -0.04529826 -0.189537 -0.886561
0000b0 aa 95 2d 3e 8a 40 a8 bd 3a 55 74 be ae 14 20 bf
       0.16951624 -0.08215435 -0.23860636 -0.62531555
0000c0 8d 38 da 3d 23 46 c0 3d c8 8d 19 3e 4d 35 84 3e
       0.106553175 0.093883775 0.14995492 0.25821915
0000d0 af 06 83 bd a2 f5 47 3e 62 32 d4 bd b4 77 b8 bc
       -0.06397759 0.19527295 -0.10361172 -0.022518016
0000e0 1e b5 8a be 2d a5 82 bd 80 b2 ff 3e a7 35 31 3e
       -0.27091306 -0.06379161 0.49940872 0.17305623
0000f0 f4 cc 0c 3e 71 a9 b2 3d 3c 66 c3 3e c8 b6 a9 3d
       0.13750058 0.08723725 0.38163936 0.08286816
000100 47 89 d8 3e 21 ee 87 be 6f 37 03 bf ef 34 05 3f
       0.42292234 -0.26548865 -0.5125646 0.52033895
000110 0b 39 84 be 03 ea d3 3d a8 4c 8e 3c d8 ea 28 3e
       -0.2582477 0.103473686 0.017370537 0.16495836
000120 5f 15 27 be 35 1f 2a be 8a b4 6b be 63 6e 6d 3e
       -0.16316746 -0.16613467 -0.23018089 0.2318664
000130 73 28 44 be df b1 49 3e 46 21 da 3d 37 dc a4 be
       -0.19156055 0.19696759 0.10650878 -0.3219926
000140 b2 5e 6c 3e a1 59 17 be 0f 42 29 3d bf b1 87 be
       0.23082998 -0.14780284 0.041322764 -0.26502797
000150 75 ee 99 3c c5 a3 30 be 8c 34 86 be c0 e4 27 3e
       0.018790463 -0.17249973 -0.26211965 0.16395855
000160 3b 65 cc be 08 9d a7 3e 35 27 10 3f 40 d8 cd 3e
       -0.39920983 0.32736993 0.56309825 0.40204048
000170 08 b1 ac be 2e 7f 19 bd f9 6d 22 3d ae 0c 45 3e
       -0.33728814 -0.037474804 0.03965566 0.19243118
000180 05 2c 9e be 0a d0 69 ba 14 41 c8 bd f4 78 53 be
       -0.3089296 -0.0008919245 -0.09778038 -0.20651609
000190 d2 13 c2 be 52 cf ce 3d 89 52 35 bd c5 2e b9 be
       -0.37905747 0.10098137 -0.044268165 -0.36168495
0001a0 fc 49 4a 3e a6 ff 20 bf 01 3b ec be 01 11 aa be
       0.19754785 -0.6289009 -0.46138766 -0.33216098
0001b0 3b 3c 23 3d 87 5d 4c 3e 6a f4 ff 3c 62 d8 f0 bd
       0.039852362 0.19957553 0.031244475 -0.11760022
0001c0 50 cd 77 3d 77 87 c7 be 05 81 f3 3d a7 49 ab be
       0.060498536 -0.3897054 0.11889843 -0.3345463
0001d0 48 5a 85 3d ab 9b ed 3b f3 b5 aa be fc 11 7a be
       0.065113604 0.007251223 -0.3334194 -0.24420923
0001e0 e0 ef b2 bd 26 a1 d4 3e 42 d9 74 be 79 01 aa 3e
       -0.08737159 0.41529197 -0.23911002 0.3320425
0001f0 33 08 94 3e d8 95 e7 be 9a 6c e6 3d ab c9 04 bf
       0.28912506 -0.4523151 0.11251183 -0.5187022
000200 1c 2b 83 3c 5f 53 96 be 6d 73 5f 3b c8 3e 1d 3d
       0.016011767 -0.29360482 0.0034095899 0.03838995
000210 b2 51 3c be 0b 44 b4 be 99 76 05 3e 75 68 39 3f
       -0.1839054 -0.35208163 0.13033523 0.72425014
000220 b1 f9 17 bf 8f 55 81 3e 72 7d ce bd ca 9e 15 3e
       -0.59365374 0.2526059 -0.100825205 0.14611354
000230 f0 63 83 be 0d 86 14 3f af 6c 97 3d 47 72 01 3f
       -0.25662184 0.58017045 0.073937766 0.50565
000240 85 36 f2 be 62 12 2c 3d 17 a5 d9 be 3b c4 42 bd
       -0.4730722 0.04200972 -0.42508766 -0.04755042
000250 f7 ac 06 be a6 52 2e be c3 70 14 3e 90 65 0b bf
       -0.13151918 -0.17023715 0.1449614 -0.5445185
000260 69 da a2 3e 2c 14 53 3e bf af a9 bd 22 64 bb bc
       0.3180726 0.20613164 -0.08285474 -0.022874895
000270 a9 f5 37 3f db 87 d3 3e f5 00 4e 3e 57 5e 52 3e
       0.7185922 0.41314587 0.20117553 0.205438
000280 2e 9b a4 be 6c 27 85 be 35 e6 18 be f8 9f c5 3e
       -0.32149643 -0.2600664 -0.14931567 0.3859861
000290 3a 7d 51 3f 9d e9 0a 3e ee 28 be be a6 fa 5f be
       0.81831706 0.13565679 -0.37140602 -0.21872959
0002a0 cd bc 42 bf 3c 2d 21 be a5 aa 08 3f 67 e2 a3 be
       -0.7606934 -0.15739912 0.5338538 -0.3200867
0002b0 80 c7 86 3c 48 14 bb 3e 3c c7 86 3e de b5 d3 bd
       0.01645255 0.3653891 0.2632388 -0.10337423
0002c0 5e 04 85 be d7 b3 f2 be 7a 74 85 3f e2 1c 71 3e
       -0.25979894 -0.47402832 1.0426171 0.23546174
0002d0 66 f8 1c 3d 34 e4 63 be 53 04 34 3e 9b 27 a4 bd
       0.03832283 -0.22255021 0.17579775 -0.08015367
0002e0 f1 ca 9b be 20 0e 5a be e9 5d 15 3f 50 1d e6 3e
       -0.3042827 -0.21294451 0.5834642 0.4494424
0002f0 02 11 f0 be 97 1d b4 3a d9 89 ea 3d 6c b7 9d bd
       -0.46887976 0.0013741729 0.114520736 -0.077010006
000300 0e 2e 41 bd a1 1a 55 3e fa 51 f9 be 8e 84 d5 be
       -0.04716306 0.2081094 -0.48695356 -0.41702694
000310 46 53 15 bf b3 da 7c 3c c3 9f 72 be f0 f5 c1 3e
       -0.5833019 0.015433001 -0.23693757 0.37882948
000320 82 55 fc be 18 2c c1 3d 59 d8 e3 bc 5f b2 22 be
       -0.49283987 0.09432238 -0.027813124 -0.15888356
000330 da 9f 33 bd 5f 58 71 3e 13 cf 00 3e 72 af bd be
       -0.04385362 0.23568867 0.12578993 -0.37047917
000340 10 4b 84 3d a1 95 1f 3e cf 75 a0 be 1c fe 6e bc
       0.064596295 0.15584423 -0.3133988 -0.014586952
000350 a4 b4 08 3f 8c 27 65 3d bf 4d 8d be 80 04 12 3e
       0.53400636 0.055945918 -0.27598378 0.14259529
000360 e0 ab dc 3e 2c 30 0e bc 0e 1d cd be e5 11 c1 3e
       0.4309988 -0.008678477 -0.4006123 0.37708965
000370 ea ce 8e bd be 4b 8d 3d f0 04 ac 3d 82 f4 b0 3b
       -0.069730595 0.06899212 0.08399379 0.0054002414
000380 5a 79 ad bd 66 92 a6 be 19 95 98 3e d2 88 be bd
       -0.084704116 -0.32533568 0.29801252 -0.0930344
000390 73 dc 28 3e da a0 38 3d 2d 15 03 be b1 a9 f4 3d
       0.16490345 0.045075275 -0.12801047 0.119464286
0003a0 b5 90 38 3f 06 f3 cf 3e 5b 32 0e 3f 82 9c 73 3d
       0.72095805 0.406151 0.55545586 0.05947543
0003b0 27 1d 7e be c1 08 79 bd ab 7a be 3d 84 3e 07 bf
       -0.24815808 -0.060799364 0.09300741 -0.52829766
0003c0 d1 f7 09 3e 41 da d9 3e 8a e6 b1 3e bc 06 f1 3c
       0.1347344 0.42549327 0.347462 0.029422157
0003d0 0d 51 45 3e 87 48 f1 bc a7 66 8e 3d 9b df da be
       0.192692 -0.029453529 0.06953173 -0.42748722
0003e0 b5 c0 b7 3c 1f f1 5e 3c a5 77 4b b9 19 09 2f 3e
       0.022430757 0.013607292 -0.0001940416 0.17093314
0003f0 b7 19 09 3e 74 78 90 be b8 4f 91 3f 59 8b 85 3d
       0.13388716 -0.28216898 1.1352453 0.06520719

network_body._body_endoder.seq_layers.0.bias f4 [128]
000000 ce 5e 11 3c 55 5a 96 bc bc 2d 0a bc 37 ce bb 3c
       0.008872701 -0.01835362 -0.0084337555 0.02292548
000010 d1 cf 80 bd 7a 94 34 bc 78 84 be 3a a8 51 6a 3b
       -0.06289638 -0.011021728 0.0014535328 0.0035754237
000020 b4 ef 27 3c 86 ee bd bc 26 a2 22 bd c7 02 02 3d
       0.010250021 -0.023185026 -0.039705418 0.03174093
000030 6f 8a e9 bc 9a 06 7d 3c f0 06 8d bc e6 00 a1 ba
       -0.028508393 0.0154434685 -0.017215222 -0.0012283593
000040 56 88 7a bc bb b8 42 bc df bd 37 3d 7b 54 8f 3d
       -0.015291294 -0.0118848635 0.04485881 0.06998535
000050 c9 ce 2c bd 0c 12 73 3c 7e a5 d1 3c 00 b8 c2 3d
       -0.042189393 0.014835846 0.025591608 0.095077515
000060 3f 29 92 bb 80 b1 f8 bc 32 80 f0 3b fa ae 10 3c
       -0.0044604833 -0.030358076 0.007339501 0.00883078
000070 27 5a 56 3c 16 6a b0 bc f1 bb 92 3b ea af e5 bc
       0.013083017 -0.02153496 0.004477971 -0.028037984
000080 b4 a7 ed bb 59 94 9f 3b f8 a0 31 3d 76 7e e8 3c
       -0.007252658 0.0048699793 0.043366402 0.028380614
000090 19 d2 64 3c 56 64 06 3b ea 9f 90 bc 67 4c 03 3c
       0.013966107 0.0020506582 -0.017654378 0.008013821
0000a0 7c 98 96 3b ed b8 08 3b 33 7d 91 3b b0 c2 89 bc
       0.0045958143 0.0020862177 0.0044399737 -0.016816467
0000b0 66 b4 68 3c 49 c8 12 3c f3 59 0b 39 ab 4a ec bc
       0.014203167 0.0089588845 0.00013289582 -0.028844198
0000c0 f6 a4 b1 3c 86 6d 13 bd 13 d2 39 3c 6e c6 19 3b
       0.021685105 -0.03599312 0.0113415895 0.002346422
0000d0 34 94 f0 bb cb 9d 85 bd 8a ac e4 bc a4 7f 53 3c
       -0.007341886 -0.06524237 -0.027914304 0.01290885
0000e0 22 75 84 3d 9f 4a 95 bc 4d f7 e6 bc 44 11 ba ba
       0.06467654 -0.018224059 -0.028194094 -0.0014195819
0000f0 42 73 ae 3b 76 e3 12 3b e7 2d 61 b9 e0 15 6f 3a
       0.0053237984 0.002241341 -0.00021474772 0.0009120386
000100 dc 11 1d 3d ca d6 f3 3a ae c8 a8 bc 47 bc d2 bb
       0.03834711 0.0018603441 -0.020603504 -0.006431136
000110 ad 4f 26 3d 6d f2 0e 3d 83 51 3d bc ae 53 a4 bc
       0.04060333 0.034899164 -0.011555078 -0.020059433
000120 23 b9 10 3d d3 cf 25 3c 9b b6 29 bc 0e 44 fd b9
       0.03533281 0.01012035 -0.010358478 -0.00048306625
000130 fb e2 47 bd 2c 21 26 bc b8 a4 f0 3c c2 5e f4 3c
       -0.04880045 -0.010139745 0.029375419 0.02983034
000140 90 69 84 ba 1c 27 2e 3b 6f 98 be 3c 21 7d 48 bc
       -0.0010102261 0.0026573604 0.023266045 -0.012236864
000150 07 e8 38 bc d2 eb 17 3c 34 61 88 bc 8a 1e bf bc
       -0.011285788 0.009272533 -0.016647913 -0.023329992
000160 f6 a4 6d 3d d4 4a a8 bb 7f 40 02 3c e2 5e c5 bc
       0.058018647 -0.0051358733 0.007949947 -0.024093095
000170 93 b1 73 3c d5 79 50 3b d7 90 23 3b d8 18 d3 bb
       0.01487388 0.0031810899 0.0024958157 -0.0064421706
000180 46 21 1b bc 60 14 13 3c c8 f0 d5 bc 31 10 bd ba
       -0.009468382 0.008977026 -0.02611579 -0.0014424381
000190 94 99 5f 3c 60 52 cf bc 76 87 44 b8 38 5b f4 bb
       0.013647456 -0.025307834 -4.68562e-05 -0.007457163
0001a0 08 3f 5f bc be 81 b5 3d 81 d1 02 3d 41 41 59 3c
       -0.013625868 0.08862637 0.03193808 0.013260187
0001b0 47 07 30 3d 00 9a 42 bb ce 7b 7f 3c 89 98 bd bb
       0.04297569 -0.0029693842 0.015593482 -0.005786006
0001c0 23 ec 62 bc e5 5e de 3c 2b df ed 3c 4e c6 b8 3c
       -0.013850245 0.027144859 0.029037079 0.022555497
0001d0 08 96 1f 3d bc 3e 28 3c bc 53 38 3c 2f c8 97 3d
       0.03896144 0.010268863 0.011250433 0.07411229
0001e0 63 6a 01 bd 30 10 c3 3c 2a e8 49 3d 4d aa aa 3d
       -0.0315956 0.02381143 0.049293675 0.083332635
0001f0 d4 c9 b2 b9 28 e0 20 bd 18 9c 2c 3c d0 36 af bb
       -0.0003410118 -0.039276272 0.0105352625 -0.0053471103

network_body._body_endoder.seq_layers.2.weight f4 [128, 128]
000000 1e 32 b9 3d 9b 0b eb bd 00 a5 a9 3d 9f af 8e 3d
       0.09042762 -0.11476823 0.082834244 0.06967091
000010 4c 2b c5 3d 0e 9b 6f 3d af 75 62 be 7b 54 1e bd
       0.09627399 0.05849748 -0.22115205 -0.038654786
000020 33 ce ae bd 18 68 a1 bb 44 1b c2 3d eb b5 f1 bd
       -0.08535423 -0.004925739 0.09477857 -0.11802276
000030 b4 e8 e9 bd 83 28 3a bd 0a 49 2c 3e b5 e0 9f 3c
       -0.11421338 -0.04544879 0.16824737 0.019516328
000040 7e eb b8 bd a4 8c 8a bd e4 2e 0c bd fc 2c 3a 3e
       -0.090292916 -0.06765106 -0.034224406 0.18181223
000050 35 8e 93 bd 37 b5 e0 3d 02 6b 9e 3d 5b 93 cb 3b
       -0.07204858 0.10972064 0.07735254 0.0062126345
000060 59 2e 37 3c fb a7 26 bd bf db e6 bd 72 37 27 be
       0.011180484 -0.040687542 -0.11272382 -0.16329744
000070 b7 ec 01 bc 34 f0 2c bd f3 5e 86 bd 78 10 a2 3d
       -0.007929972 -0.042221263 -0.06561079 0.079132974
000080 20 c3 0c be f7 95 91 3d 2a f1 2d bd 45 bd 8c bd
       -0.1374631 0.07108682 -0.04246632 -0.06872038
000090 51 8c 96 3d c5 65 4c bd ce d3 fb bd d4 d8 3f 3c
       0.07350982 -0.049901742 -0.12296258 0.011709411
0000a0 91 83 89 bc 67 14 a3 bd ad 76 0a 3e 6b cd d3 bd
       -0.016786369 -0.07962876 0.13521834 -0.10341915
0000b0 ad ee 96 3d 35 bd 4e 3e 98 8d f0 3d ad fa d3 bc
       0.073697425 0.20189364 0.11745757 -0.025876367
0000c0 52 7e e3 3c 60 23 0d 3e 22 c4 03 3d d2 a2 10 3b
       0.027770195 0.13783026 0.03216947 0.0022069705
0000d0 45 16 02 be 2b 8a 33 bc b5 86 1e bd 9d 8c 13 3d
       -0.12703808 -0.010958235 -0.038702685 0.03602277
0000e0 dd 51 65 bd eb 9e 86 bd f4 35 f7 bc c0 35 10 3c
       -0.055986274 -0.0657328 -0.030177094 0.0088018775
0000f0 a4 1e b8 bd 6b 4e f8 bd 94 3d 2d 3e f8 46 5a bd
       -0.08990219 -0.12124332 0.16918021 -0.053290337
000100 44 3f 81 bd 36 c8 cd bd 44 d8 d3 bd 1d a5 1d bc
       -0.06310895 -0.10047953 -0.10343984 -0.009621886
000110 c5 15 72 bd 95 b1 cf 3c 63 a5 a7 3b dc 20 be 3d
       -0.059102792 0.025353232 0.005116151 0.09283611
000120 c8 b1 e8 bc 35 02 85 bd e2 8f 71 3d ae 95 10 3d
       -0.028405085 -0.064945616 0.058975108 0.035298996
000130 8e f0 07 3e 5a 5e 8d 3d 9a ec 31 3d 86 25 d9 3d
       0.13275358 0.06902762 0.04343853 0.1060286
000140 24 ca 88 3c ae c3 23 3d b2 63 91 3d c1 b1 dc bd
       0.01669795 0.039981537 0.070990935 -0.10776091
000150 3e 1b be 3c 18 1d 0f 3d b2 73 d0 bc 2d ea ca bc
       0.02320635 0.034939855 -0.025445793 -0.024769867
000160 b8 bb bd bd 1c 0a 03 3e bc fd 3e bc 0b 41 23 bc
       -0.0926432 0.12796825 -0.011657175 -0.009964238
000170 35 69 20 3e 69 20 9c 3d b1 b7 06 3e 11 7e ab bc
       0.15665133 0.07623369 0.1315601 -0.020934137
000180 e3 76 0e bd d3 33 74 3d b4 76 f6 bc b1 bb f1 bc
       -0.034781348 0.059619736 -0.030085899 -0.029508444
000190 7e 13 00 be cc 8b 87 bd 25 0b 91 bd 73 e0 b3 bd
       -0.12507436 -0.06618461 -0.07082204 -0.08783045
0001a0 e3 d2 14 bc 83 89 6a bc 8a 9f 7c bd 27 6b ef bc
       -0.009083482 -0.014315012 -0.061675586 -0.029225899
0001b0 4f 2e 8d bb 12 10 0b bd c2 30 06 bd 14 01 71 3d
       -0.004308499 -0.033950873 -0.032761343 0.05883892
0001c0 66 51 9a 3d 0a 11 2b bd 71 5f d5 3d 85 14 80 3d
       0.07535057 -0.041764297 0.10418595 0.06253914
0001d0 14 9a 27 3d f2 06 a4 3d f7 c8 3e be cb 15 e8 bc
       0.040918425 0.08009137 -0.1863135 -0.028330704
0001e0 d7 c9 f4 3b 1a ab 07 3c 5f b3 91 bd 1c af 25 3d
       0.0074703502 0.00828054 -0.071142904 0.0404502
0001f0 ad 7e cf bd a8 a2 82 bd f0 04 b0 3c 24 46 3a 3d
       -0.10131583 -0.063786805 0.02148673 0.045477048
000200 c9 08 2b be 7d 56 9c 3d 9a 1f 79 bc e8 9e aa 3d
       -0.1670257 0.07633684 -0.015205288 0.0833109
000210 72 a5 05 3e 73 4d 41 3b 6f 74 33 be 0a 41 d3 3d
       0.13051394 0.0029495626 -0.17524885 0.103151396
000220 fc 4c ca bd a0 4b 59 bd e6 25 f8 3d 68 e6 80 3c
       -0.09877965 -0.053050637 0.121166036 0.015734866
000230 5c a7 33 be 4f 17 af 3d 97 65 f8 3d cb ee 04 3e
       -0.17544311 0.08549368 0.12128752 0.12981717
000240 7e 0e 29 3e 80 89 12 bc 1e 28 23 3d ef 7f 31 bd
       0.16509435 -0.008943915 0.03983318 -0.043334898
000250 16 1d a9 bb 08 e3 23 bb ec d0 df bc ed 3d 17 bb
       -0.005160938 -0.0025007147 -0.027321301 -0.0023077682
000260 50 25 00 3b d2 8f 20 3c bc d3 84 bc f6 e5 58 bd
       0.001955349 0.009799914 -0.016214244 -0.052953683
000270 3c 66 1b 3d eb 94 d6 bd c7 2c 5d be 93 23 ac 3c
       0.037939295 -0.104776226 -0.21599112 0.021013057
000280 7e 88 3f bd 68 2d 3d 3d a7 f9 0b 3d 76 03 13 3e
       -0.04676103 0.04618588 0.034173634 0.14356789
000290 ea 82 7b bd 7c 7b 0f be 4f 28 7b 3d 22 7e f1 3d
       -0.061404146 -0.1401195 0.06131774 0.11791636
0002a0 2b a8 7e bd 5f c6 7c 3d 49 fa aa 3c 12 93 ec bc
       -0.062172096 0.06171262 0.020871298 -0.028878722
0002b0 02 e7 58 be 80 f2 9a bd e7 44 5c 3d 9b 7c 58 be
       -0.21181872 -0.075657845 0.053776648 -0.21141283
0002c0 06 c9 fa bc fb 7a 4c bc 78 00 55 be 5b 17 8d 3d
       -0.030613434 -0.012480493 -0.2080096 0.0688922
0002d0 f7 94 91 bd d6 17 08 bd 4b 82 48 bd 08 97 84 be
       -0.07108491 -0.033225857 -0.048952382 -0.25896478
0002e0 c5 71 3a bd 37 00 03 be 34 6f 7e 3d a1 e5 1e be
       -0.045518655 -0.1279305 0.06211777 -0.15517284
0002f0 1c 78 cc 3b 43 cb 9a 3d a3 f2 2f bd 9e 76 19 be
       0.006239904 0.075583 -0.042956006 -0.14986655
000300 ae bf 7f 3c 09 45 2a bd e7 8f 74 be 4c 85 66 3d
       0.015609665 -0.041569743 -0.2388302 0.056279466
000310 d8 07 5d 3e 9b 12 dd bd e2 7b 0b 3e ff 9c e0 3d
       0.21585023 -0.10794564 0.13621476 0.10967445
000320 40 40 eb bd ef 87 d3 3c 5a 90 3a bc 60 06 f6 3c
       -0.11486864 0.025821654 -0.011386955 0.030032337
000330 ca 3f 95 3d a9 c0 95 3d 2e ad d1 bc 63 5a d4 bd
       0.072875574 0.07312138 -0.025595274 -0.103688024
000340 19 fb 93 bd 67 40 ab bd 3d f2 e4 3c 83 09 d7 3c
       -0.072256275 -0.08361893 0.02794754 0.026249653
000350 b8 66 08 3d 38 3e 4e bb 8d dc 8a 3b 0b 2d 4f be
       0.033301085 -0.003147019 0.0042377175 -0.20232026
000360 8a 69 85 bd ef 91 1d be 6b b6 50 bd 77 0e d9 bd
       -0.065142706 -0.153877 -0.050955217 -0.10598462
000370 a1 40 0c 3d 88 f7 60 3d a7 6a c8 3b 20 bc cd bc
       0.034241322 0.054923564 0.0061162296 -0.025114119
000380 3b be a3 bd 9b c9 8b bd 50 6b a5 3d 2f 38 97 3c
       -0.07995268 -0.068255626 0.08077109 0.018459408
000390 90 c5 54 bc 23 f1 eb 3d 79 96 27 be a3 bc b4 3d
       -0.012986556 0.115206026 -0.16365995 0.08825042
0003a0 d0 f5 48 3c a7 61 79 3c e3 7d 07 bd 15 b4 2a 3d
       0.0122656375 0.015221036 -0.03307904 0.041675646
0003b0 61 37 a5 bd 74 d4 39 3d c1 6e b3 bd 59 c2 9e 3d
       -0.08067203 0.045368627 -0.08761359 0.077519126
0003c0 36 19 52 3e 02 83 89 3d ee 47 1e bd 55 51 45 bd
       0.2051743 0.06714441 -0.038642816 -0.048173267
0003d0 c3 40 3a 3d 5e dc a8 3c a5 1a 10 be 80 ff 14 bd
       0.045471918 0.020612892 -0.14072664 -0.036376476
0003e0 6a f5 78 bd fd 23 ba bd 78 98 4b be af d6 62 3d
       -0.06078092 -0.090888955 -0.19882381 0.05538052
0003f0 80 3a 0e 3e 1e de 03 be 8a 7b 9b 3c 1d b9 09 bc
       0.13889503 -0.128777 0.018979806 -0.008405951

network_body._body_endoder.seq_layers.2.bias f4 [128]
000000 3e f4 b1 3b 39 0d d6 bc d6 23 83 bc c0 ac 25 bc
       0.0054307273 -0.026129352 -0.016008299 -0.010111988
000010 aa 11 50 bc a4 32 9c 3c 8c a3 ed bc 81 80 00 3c
       -0.012699524 0.019067116 -0.02900865 0.007843138
000020 9c fe ba bb 80 ca 02 bb 7e 3f 21 3c 88 20 1c bc
       -0.0057066213 -0.0019957125 0.009841798 -0.00952924
000030 40 b8 99 bc 37 47 e9 3b 88 e3 01 bc 16 1f 32 ba
       -0.018764615 0.007119085 -0.007927783 -0.00067947933
000040 48 e8 86 ba 83 42 15 3d 29 af d7 3b a1 6c cf 3c
       -0.0010292614 0.036440384 0.00658216 0.025320353
000050 ea 67 d7 bc dd 5d fe 3c 1b eb 32 bc 4e a9 ed 3a
       -0.026294667 0.031050617 -0.010920311 0.0018132122
000060 c8 1c 69 bb 21 55 e7 3b af a0 39 bc c2 03 fe bc
       -0.0035570133 0.0070597087 -0.011329814 -0.031007651
000070 63 b9 99 3c 51 00 93 bc 02 05 43 3b a0 ef 95 bc
       0.018765157 -0.017944487 0.0029757624 -0.018302739
000080 c9 23 84 bc d8 87 46 bc 8c 89 99 bc 7f 57 50 bc
       -0.016130345 -0.012117349 -0.018742345 -0.012716173
000090 db 9a a8 bb 5b d4 8d 3c 81 5c 01 3d b2 e3 27 bc
       -0.0051454133 0.017313173 0.03158236 -0.010247158
0000a0 b3 59 8b 3a 81 45 30 bb 57 95 c9 bb c9 b0 16 bb
       0.0010631591 -0.0026896896 -0.006151836 -0.0022993556
0000b0 91 d0 01 3c ba 06 36 3a 0b 81 f1 3c 49 91 cd 3c
       0.007923261 0.00069437514 0.029480478 0.025093691
0000c0 d2 d1 e1 3c 3a 85 2b bc ed 01 00 bd dd 9d 3c bb
       0.02756587 -0.010468775 -0.031251837 -0.0028780617
0000d0 ca 2f c7 3c 37 53 1c 3c 65 20 f1 3a b3 04 9e b9
       0.02431478 0.009541324 0.0018396495 -0.0003013961
0000e0 3b a5 05 bd b8 c2 00 3c 98 f1 a1 bc 1b 1e 77 3c
       -0.03262828 0.007858925 -0.019768521 0.015082861
0000f0 a7 f1 33 bc ec 14 0c 3c 3f 8d aa bb ad 62 ce 3b
       -0.010982907 0.00854991 -0.005204826 0.006298384
000100 fa be 01 bd 68 81 ab 3c 5a b1 29 bc 44 f3 2b 3c
       -0.03167627 0.02093573 -0.010357225 0.010495011
000110 01 73 11 3c 87 f1 17 bb 31 bd e0 3b 54 28 dd bc
       0.008877517 -0.0023184733 0.006858491 -0.026996769
000120 ed ac 92 3c e2 30 23 3d 17 53 58 3d 38 2f 95 3c
       0.017904723 0.03984154 0.052813616 0.018210992
000130 bd e8 ad 3c 9f 12 b8 bc 68 16 5e bb ac 0b bc 3a
       0.021229142 -0.022469817 -0.0033887867 0.001434674
000140 ee f0 b5 bb 31 10 61 bb ca 28 33 bb 35 d0 e6 bc
       -0.0055524027 -0.0034341926 -0.0027337545 -0.028175453
000150 7d 7f 80 3c a4 28 33 bb ab 6e ed 3b 71 3a 3b 3c
       0.015685791 -0.0027337456 0.0072458587 0.011427508
000160 75 28 68 bc e9 16 88 3c 99 a4 81 bc 1e 72 fa b8
       -0.014169802 0.016612487 -0.015825557 -0.00011942185
000170 bf 8d 7e bc 5f ac a5 3a c2 93 da bc 06 c6 15 bc
       -0.015536725 0.0012639872 -0.026681785 -0.009141451
000180 ae d8 c7 bc 33 e3 a1 bc 7b be 13 bb 95 28 0c bb
       -0.024395313 -0.019761657 -0.0022543955 -0.0021386493
000190 fc be bd 3b 63 41 85 bc f4 b7 c9 3b 49 a6 89 3b
       0.0057905894 -0.01626653 0.006155962 0.004200731
0001a0 a3 a9 9a 3c 14 ea 3c 3c f7 60 cf 3a b8 96 b0 bb
       0.018879717 0.011530418 0.0015821744 -0.005389061
0001b0 1a aa b9 3b 2c 73 f4 bb f6 60 f0 bb bb 23 f8 3c
       0.0056660296 -0.0074600186 -0.0073357774 0.030290475
0001c0 d5 e9 ad bb 8f 8c ec 3b 22 56 e3 ba 1b 1e a9 3b
       -0.005307416 0.0072189043 -0.0017344395 0.0051610596
0001d0 b2 52 98 3c bf 89 09 3d 1e e2 85 3c ea b0 3e 3d
       0.01859412 0.03357863 0.016343173 0.046555437
0001e0 3e 62 f0 3b b5 39 77 bc 99 b8 f2 3c e4 78 5d 3c
       0.00733593 -0.015089442 0.029629039 0.013517592
0001f0 38 fc 26 bb bb 00 c1 bb e6 c9 ae 3c 73 30 08 bd
       -0.0025479924 -0.0058899797 0.021336507 -0.03324933

action_model._continuous_distribution.mu.weight f4 [1, 128]
000000 b6 5a 8e 3c 8c 9d 97 3a 1a 39 a9 bc 84 34 df bc
       0.017377239 0.0011567338 -0.020657111 -0.027246721
000010 8b 76 c2 bc b3 b5 64 3c 34 82 0d ba 35 b4 ba 3b
       -0.023738166 0.013959336 -0.0005398125 0.005697752
000020 71 5e f8 bc 74 b9 f9 3b f0 d3 89 bc 6c ad c1 bc
       -0.03031847 0.0076209847 -0.016824692 -0.023642264
000030 45 ef 82 bb 13 d8 2b 3c 5d f5 c6 bc 7e a6 23 bc
       -0.0039958083 0.010488528 -0.02428692 -0.009988425
000040 7e e0 c5 3b d0 e3 fe 3c b1 49 cb 3c 72 45 04 3d
       0.0060387244 0.031114489 0.024815412 0.03229279
000050 a0 66 09 3b 83 06 a7 3c 18 f0 b3 bb af 9f 4c bd
       0.002096571 0.020388847 -0.005491268 -0.049956974
000060 12 48 59 bd 29 96 55 bd 90 10 93 bb 46 80 8f bc
       -0.053047247 -0.052145157 -0.0044880584 -0.01751722
000070 75 e5 5b 3d 43 e8 e3 bc a7 90 8e 3b c8 ce ac bb
       0.053685624 -0.027820712 0.00435074 -0.0052736737
000080 34 c4 72 bc bb 7e c2 bb 33 ae 58 bc d4 1c 81 bd
       -0.014817286 -0.0059355176 -0.013225126 -0.06304327
000090 b8 16 09 bc c4 ab 35 3d 08 ba 92 3b bc 0f 27 3b
       -0.008367233 0.04435326 0.004477743 0.0025491556
0000a0 86 93 9c 3c f1 c0 62 bc c1 50 a8 bb 4a 77 63 bd
       0.019113313 -0.013839946 -0.0051365797 -0.055533685
0000b0 09 65 e4 bc 22 6b 30 bd 05 59 d0 3c e5 70 91 bd
       -0.027880209 -0.04307092 0.025433073 -0.07101611
0000c0 a5 97 1b 3d ef b4 d8 bc 80 72 15 bb 98 a3 8e 3b
       0.037986416 -0.026453463 -0.0022803843 0.004352998
0000d0 4e d1 54 3c 62 cb 16 bd b5 bc 04 bc 5a b9 e2 bc
       0.012989355 -0.036815055 -0.008101632 -0.027676273
0000e0 0f a6 43 bc a4 ed 7c 3c 07 f8 62 bd 90 8d a7 3c
       -0.011941447 0.015437517 -0.05541232 0.020453244
0000f0 fb 76 85 bc 45 3e d8 bc db 6f c8 bb e1 56 d1 3b
       -0.016292086 -0.02639688 -0.00611685 0.0063885306
000100 19 76 be bb 30 ee 2d 3d 94 30 36 bd c0 dd 54 3c
       -0.005812418 0.04246348 -0.04447992 0.012992322
000110 34 ce 81 bd 14 a2 1d bd 6d a1 5e 3c 84 6c a0 bb
       -0.06338158 -0.038484648 0.013588292 -0.0048957486
000120 1e cd f7 bc a7 6d 4e 3d d4 ab 85 3d ce 21 38 3c
       -0.030249175 0.05039754 0.06526914 0.011238528
000130 87 31 a0 3c cb b3 29 bc f2 66 ba bc 9b 2c a8 3c
       0.019554866 -0.010357807 -0.022754166 0.020529082
000140 e8 bd aa bc 88 8d a8 bc 22 4e 17 bd c3 b1 dc bc
       -0.020842507 -0.0205753 -0.036939748 -0.026940232
000150 fd 83 bd bc 66 97 5a 3c 99 a5 5a ba 0d e9 ef 3c
       -0.023134226 0.01334176 -0.0008340716 0.029285932
000160 83 95 b1 bc 54 c1 4f 3a 29 c1 3f bc 42 31 d2 bc
       -0.021677738 0.00079252315 -0.011703768 -0.025658254
000170 d2 23 71 bd 93 ba c7 bd 39 52 49 3b 5e a1 84 bc
       -0.05887205 -0.09752383 0.0030719175 -0.016190227
000180 65 3d 20 bc 8b 6e bb bb 3f 47 20 bd 96 a4 0a bd
       -0.009780263 -0.005719965 -0.039130446 -0.033848368
000190 d3 6d 8e bc 5d ec fa 3a ff 34 2f bd 52 4a ab bb
       -0.017386353 0.0019143928 -0.04277515 -0.0052273655
0001a0 f5 c8 ea 3c 54 ef 93 bb cb 75 80 3c ff 91 a0 bd
       0.028660277 -0.004514614 0.015681168 -0.078403465
0001b0 e3 75 50 3c 0e c2 04 bd 31 e1 c3 3b 9d 0d 81 bd
       0.012723419 -0.032411627 0.0059777726 -0.06301425
0001c0 46 d1 39 bb 1e de d9 bb 4e f6 90 bb 02 2b b6 3c
       -0.0028353496 -0.006648793 -0.004423893 0.022237305
0001d0 6a 12 27 3d 2b 0c 22 3d ce a3 50 3c 87 0d 25 3c
       0.040789045 0.039562386 0.012734367 0.010074026
0001e0 25 ac 1c 3c af 55 e6 b9 a9 e1 08 3c 02 fa 22 3d
       0.009562527 -0.00043932858 0.008354583 0.039789207
0001f0 d2 81 74 bb 23 12 a0 bb 3b 35 a7 3c 97 d0 84 3b
       -0.0037308824 -0.0048849746 0.020411124 0.004053186

action_model._discrete_distribution.branches.0.weight f4 [3, 128]
000000 b6 86 9a 3b ec 6f 9a ba 85 66 ad 3c 12 cc bf 3c
       0.004715766 -0.0011782623 0.02116705 0.023412738
000010 42 5d f5 3c 3e c1 29 3d 04 02 ce bc db 54 ab bc
       0.029951695 0.041444056 -0.025147445 -0.020914486
000020 76 a7 55 bc 47 9f e9 bc 75 0c 4a bd 7c 06 80 3c
       -0.013040414 -0.028518332 -0.049328286 0.015628092
000030 05 71 90 3b 02 ef 5b bc fd 5f 2e 3b fa 64 0c bd
       0.004408004 -0.013423683 0.0026607506 -0.034275986
000040 ec e7 51 3a 73 7a 9b 3d 64 57 2e 3d 12 20 88 bc
       0.00080072763 0.07591715 0.04256381 -0.016616855
000050 28 92 5b bc ca e3 83 bc da e2 4f ba 1c 96 f8 3c
       -0.013401546 -0.01609983 -0.0007930227 0.030345015
000060 77 0c 68 bd e8 57 d9 ba a9 28 c3 bb a7 4a e8 3b
       -0.056652512 -0.0016581984 -0.005955775 0.0070889774
000070 b4 a5 6c bc 32 91 46 bb 9b 0a af 3c 60 77 61 3c
       -0.014443804 -0.0030298945 0.021367362 0.013761371
000080 73 53 d5 bc 30 f0 2e bd 55 2b 98 bc c0 ca 99 bc
       -0.026040768 -0.04270953 -0.01857535 -0.018773437
000090 ba 8a fa 3c 4a f3 54 3c 03 66 3b bd c6 3f ac 3c
       0.030583728 0.012997458 -0.045751583 0.021026503
0000a0 df 23 5e bc 3d 74 61 bc a1 32 a6 3d 1c 05 c3 bb
       -0.013558357 -0.0137606235 0.081151254 -0.005951537
0000b0 c4 e2 80 3c 15 4c 02 bb 8e 8e 06 3d fe 62 17 3a
       0.01573313 -0.0019881774 0.032850794 0.0005774944
0000c0 0d b0 81 3c b6 b9 87 bc 14 b9 fb bb fd 15 af bc
       0.015831018 -0.016568046 -0.007681975 -0.02137279
0000d0 47 4d 1f bd 52 50 03 bd 36 ca 26 bd 60 7a 27 3d
       -0.038892057 -0.03205902 -0.040720187 0.04088819
0000e0 ef be 48 bc 59 49 2f 3d 4e 57 71 bd e3 72 1c bc
       -0.012252553 0.04279456 -0.05892115 -0.0095488755
0000f0 c7 16 8b 3d 3c a1 48 ba f8 b2 5d 3a 2b 1d 08 bc
       0.06791454 -0.00076534203 0.00084571494 -0.008307735
000100 4a 7d 64 b8 68 16 6c 3d ab f7 1f bd de da 94 3d
       -5.447612e-05 0.057638556 -0.039054554 0.07268308
000110 89 b5 86 3a 6d 50 5f 3c c4 ad 8e bc 86 07 ad bb
       0.001027749 0.013630015 -0.017416842 -0.005280438
000120 04 84 af 3c 4c 08 b7 3c 0c 9f 88 3c be c8 2b 3d
       0.021425255 0.022342823 0.016677402 0.04193949
000130 ab 6e 31 bc 7a 21 07 3d af e1 d3 bc 76 4f 61 3c
       -0.010829608 0.03299091 -0.02586445 0.013751855
000140 42 ef fe 3c fc 5c ac bc 1c 33 6a ba 67 8c 1a 3c
       0.031119946 -0.021040432 -0.00089340075 0.009432889
000150 32 a3 71 bd c7 5d 95 3c 99 f9 00 bc 66 47 3f bc
       -0.058993526 0.018233193 -0.007872009 -0.011674738
000160 db 05 e3 bc 02 3a 21 bd ea 7e 58 3b b4 f4 1f 3d
       -0.027712753 -0.03936196 0.003303463 0.039051726
000170 8b 88 b5 3c 23 8f c0 bb 03 13 ee bb ea 7e 63 3c
       0.022159835 -0.005876438 -0.00726545 0.013885239
000180 60 c2 bf 3c 01 d3 91 3b 06 df 3a bc 4b ec 9e 3c
       0.023408115 0.0044502025 -0.011405712 0.019399783
000190 a7 50 8d bc b2 a7 44 ba 0e 67 4d bc 0e 68 3b bd
       -0.017250372 -0.0007501795 -0.012536777 -0.04575353
0001a0 07 06 b4 ba 8e 50 17 bd c0 1c 62 3d 7a 8e f0 bc
       -0.0013734706 -0.036942057 0.0552032 -0.029364813
0001b0 6c d8 ed 3c 80 4d 6c b9 79 70 3e 3a 17 98 02 bd
       0.029033862 -0.00022535585 0.00072646845 -0.031883325
0001c0 ff f0 2c 3d 0a e3 99 3d 70 80 da bc 49 83 fb 3b
       0.04222202 0.075140074 -0.026672572 0.0076755625
0001d0 a3 75 d8 3c 77 c1 4c 3d 6c 19 15 3d c7 f5 65 bd
       0.026423281 0.04998919 0.036401197 -0.056142595
0001e0 cf 5d ef 3b 46 fd c4 bc e9 2b 5a 3d b1 55 07 3c
       0.007304884 -0.024046551 0.053264532 0.0082601765
0001f0 e1 41 23 bd 0c b6 1d 3c df cd 14 3d 6c 5c 0a bc
       -0.03985775 0.009625923 0.036329146 -0.008444887
000200 2a e6 a4 3c 1f 73 88 3a 11 f0 2b bc 0a 64 f8 bc
       0.020129282 0.0010410285 -0.010494248 -0.03032114
000210 74 dc 46 bc dc 7c ed bb ee b2 8e 3a c5 d0 3c bd
       -0.012137521 -0.0072475504 0.0010887065 -0.046097536
000220 83 a2 b3 ba 86 f3 11 bc f8 97 f9 3c 40 df c8 bc
       -0.0013705048 -0.008908158 0.030467972 -0.024520516
000230 38 5a 31 bc 21 45 24 bb 3a 73 00 bd 28 1c f8 3b
       -0.0108247325 -0.0025065618 -0.03135989 0.007571716
000240 03 a3 d2 3b 5b 6e 07 3c a8 2f f3 bc 72 2e 10 3c
       0.006428124 0.008266057 -0.02968581 0.008800136
000250 95 a1 0c 3c 2c 7a 3d 3d ce 48 6b b8 d2 5a 41 bd
       0.008583446 0.04625909 -5.609617e-05 -0.047205754
000260 a4 f6 4f 3d 8b 62 89 3c 87 2a 88 3c d9 5c 59 3b
       0.050772324 0.016770622 0.016621841 0.0033166914
000270 3d 86 cc 3c 08 82 c8 3b ce 93 27 3a 71 97 2e bc
       0.024966354 0.0061190166 0.0006392569 -0.010656224
000280 e5 db 24 bd 8f 35 76 3b 7d 23 62 3b 29 98 dc ba
       -0.04024877 0.0037568545 0.0034506016 -0.0016830015
000290 57 64 48 bb 46 3d 4b 3b 9c 98 32 3d da 93 dd bc
       -0.0030577385 0.0031011864 0.04360257 -0.02704804
0002a0 a6 4c 0e 3d e0 d7 bd 3c 2d 79 92 bd e6 0a f1 bc
       0.034741066 0.023174226 -0.07152019 -0.029424142
0002b0 52 67 f7 bc e4 86 09 bd 81 3d 93 3b c9 50 74 bc
       -0.030200634 -0.033575907 0.004493416 -0.014911839
0002c0 85 59 2e bc 45 72 09 3c 75 df 4d 3b fd 75 82 bb
       -0.01064146 0.00838906 0.0031413708 -0.0039813505
0002d0 fe 7f 2a bb 29 74 a2 bc cd 19 96 3c d5 ca b1 bc
       -0.002601623 -0.01983078 0.01832285 -0.021703163
0002e0 00 3f 8d 3c 30 e4 af bc e2 6c 8a bc 57 1f 3e bc
       0.017241955 -0.021471113 -0.016897622 -0.011604152
0002f0 f4 f2 6b bd a3 64 29 3d b4 f8 33 bd 75 c1 8d 3c
       -0.057604745 0.04135574 -0.043938354 0.017304162
000300 57 4d 60 bb 94 c8 f2 bc 02 0a db ba b0 bc 50 bd
       -0.0034225786 -0.029636659 -0.0016711357 -0.050961196
000310 91 e8 90 b8 5d 7c cd ba 9b a8 c3 bc b0 ff 38 3c
       -6.909774e-05 -0.0015677322 -0.023884108 0.011291429
000320 41 2b 6f bd 8d ae 31 3b 0a 00 9b bc ec 0c 4f 3c
       -0.05839086 0.0027112097 -0.018920917 0.012637358
000330 bf 23 ae 3c 14 e8 9d b9 dc 54 9b 3c 70 64 9d bc
       0.02125728 -0.00030118285 0.018961363 -0.019212931
000340 68 8a 8d bd 11 5a 73 3c 1a 05 d6 3b db f4 65 3c
       -0.069111645 0.0148530165 0.00653137 0.014035429
000350 ae 0f f9 bb 54 8b 17 bb 17 c1 bb 3c 4b 28 00 3d
       -0.007600746 -0.0023123818 0.02291922 0.031288426
000360 86 06 94 3c a9 e6 a3 3c 21 ba d2 3b 19 86 48 bc
       0.018069517 0.020007448 0.0064308797 -0.012239003
000370 9d 6d 41 bd d1 25 55 bd ad 35 f7 3b 2d d9 13 bc
       -0.047223676 -0.052038018 0.0075442404 -0.009023947
000380 32 99 bc bc 8f d2 63 bb d6 b5 19 bc b2 91 fa bc
       -0.023022268 -0.0034762954 -0.009381732 -0.030587051
000390 64 81 56 3d a1 82 c6 3c c1 83 9e 3c e3 00 6e bb
       0.05236949 0.02423221 0.019349935 -0.0036316446
0003a0 d5 f1 a3 3c 23 de aa bb 24 c6 4a bd 77 88 fe 3c
       0.020012775 -0.005214469 -0.049505368 0.03107093
0003b0 d7 8a 36 bd 4c 43 12 3d 0a d7 98 3b 6c 23 3d 3d
       -0.044566 0.03570871 0.0046643065 0.04617636
0003c0 ed c5 25 3b 3a 39 e1 bc 0a 14 db 3c 7c c3 89 3c
       0.0025294975 -0.027493108 0.026742954 0.016816847
0003d0 d0 88 96 bc a6 9f 2a bd 7e aa 7b bb 0e a3 29 3d
       -0.018375784 -0.04165616 -0.0038401182 0.041415267
0003e0 72 16 aa 3b ad d8 de 3c 33 12 2c bc 9d e8 a4 3b
       0.005190664 0.027202928 -0.010502386 0.0050326125
0003f0 82 1e 33 bc 73 dc c3 3c 23 5f fc bc da f2 9f 3a
       -0.010932567 0.02390883 -0.030807083 0.0012203113

action_model._discrete_distribution.branches.0.bias f4 [3]
000000 d3 56 c7 bb c7 4a 73 3b cc a9 5a 3b
       -0.0060833483 0.0037123428 0.0033365367

exp_avg f4 [128, 10]
000000 fc 64 c9 ba ec 29 84 ba 20 59 dc 39 78 a6 a0 ba
       -0.0015365179 -0.0010083294 0.00042028073 -0.0012256643
000010 8d d4 e8 ba 58 f9 f9 b9 d0 cc 14 ba d2 a1 9b ba
       -0.001776354 -0.00047678757 -0.00056762714 -0.0011873788
000020 bd f9 6d ba 9c f7 24 ba d8 88 3f 3b 28 ca 35 3b
       -0.00090780464 -0.0006293 0.0029225852 0.0027738903
000030 1e 99 b2 3a 00 85 b8 b9 f0 89 0b 3a b6 b9 0c 3b
       0.0013625955 -0.00035194308 0.00053229835 0.0021472997
000040 64 3e ba 3a b0 4f 8e 3a d2 94 dd ba 26 13 6f 3a
       0.0014209268 0.0010857489 -0.0016905314 0.000911998
000050 20 18 0d ba bd bb d0 3a 36 42 0e 3b 3d 46 91 ba
       -0.0005382318 0.0015925091 0.0021706945 -0.0011083555
000060 14 af 6b ba 54 77 b3 39 4c b9 00 3a e8 13 40 ba
       -0.0008990627 0.00034230447 0.0004910424 -0.0007327185
000070 91 3a 6a ba b2 11 60 3a 8f 51 1f bb 43 38 97 b9
       -0.00089351187 0.00085475587 -0.0024310087 -0.00028842883
000080 85 6c 40 b9 3f e0 b6 ba 62 7f 51 ba 53 db f8 3a
       -0.00018350974 -0.0013952329 -0.0007991699 0.0018986262
000090 28 45 ab b9 4e 20 8d bb 92 95 a8 ba 52 be e3 ba
       -0.00032667187 -0.0043068295 -0.0012861958 -0.0017375445
0000a0 23 2a c4 37 b4 e5 8d 34 32 7d 6f 35 82 80 9d 35
       2.3384642e-05 2.6430428e-07 8.921662e-07 1.1734812e-06
0000b0 cc 2a 47 35 3a 52 ed 34 d7 b0 a0 35 e9 e6 8b 35
       7.4195555e-07 4.4204518e-07 1.1972396e-06 1.0423511e-06
0000c0 af 20 9e 35 ca cc 9a 35 a0 74 25 ba da 39 ca ba
       1.178143e-06 1.1533496e-06 -0.0006311629 -0.0015428618
0000d0 b6 ef 46 3a a3 d9 a4 ba 0a 50 b1 ba ad e6 d2 ba
       0.00075888203 -0.0012577068 -0.0013527882 -0.0016090475
0000e0 1c 25 bc ba 30 50 98 ba fc 47 7f ba 89 33 60 ba
       -0.0014354321 -0.0011620577 -0.00097382045 -0.0008552601
0000f0 02 9e 51 3b e7 ce bc 3a 00 b6 20 3a c2 7b d0 3a
       0.003198505 0.0014404923 0.0006130636 0.0015906023
000100 d9 19 ba 3a fc 2c cf 3a b1 7f b7 3a 7d fa 5f 3b
       0.0014198377 0.0015806253 0.0013999847 0.0034176402
000110 52 ff 1a 3a f3 15 34 3a ae 60 20 3b eb 8c ad 3a
       0.00059126795 0.0006869726 0.0024471688 0.0013240849
000120 c9 18 0f 3a e6 4a 2e 3a 0d bf b7 3a fc 87 fb 39
       0.00054587104 0.0006648734 0.001401873 0.00047975767
000130 9c a4 8a 3a 2d d2 19 3b b1 a2 81 ba 01 b7 1d 39
       0.0010577622 0.0023471222 -0.0009890405 0.00015040861
000140 e2 96 3d 3b cd 59 86 3a aa 9a f2 ba fb 88 6d 3a
       0.0028929044 0.0010250151 -0.0018509228 0.0009061244
000150 43 61 69 3b c0 ed 64 ba e0 13 e9 b8 da 9e 01 3b
       0.003561095 -0.0008732937 -0.00011114008 0.001977852
000160 6f 2e 04 3b fb a7 a5 3a c6 0e e9 ba af 31 c1 ba
       0.0020169278 0.0012638563 -0.0017780892 -0.0014739538
000170 d6 b6 71 b9 00 d7 42 ba 52 b0 13 ba 9c 7c 9d 39
       -0.00023051663 -0.000743255 -0.0005633879 0.00030038215
000180 64 85 80 b9 9c 6c eb 39 85 19 01 3a 50 8d 36 38
       -0.00024513446 0.00044903613 0.0004924762 4.352379e-05
000190 71 26 1e 38 74 6a f9 b7 62 b6 e4 b7 23 fd 7c 37
       3.7705937e-05 -2.9732684e-05 -2.7264647e-05 1.50793085e-05
0001a0 22 f2 0f b8 d9 2a ac b7 84 d5 9e 37 cb bd 08 b8
       -3.431936e-05 -2.052395e-05 1.8934494e-05 -3.2601685e-05
0001b0 b5 d6 82 b7 39 9d 31 37 f6 5c 87 3b f4 20 89 3a
       -1.5597188e-05 1.0586628e-05 0.004130955 0.0010462091
0001c0 d2 28 aa 39 45 f4 30 3a d0 86 b6 3a e6 4a f7 b9
       0.0003245534 0.0006750266 0.0013925675 -0.00047167315
0001d0 74 a1 28 3a d0 c5 d2 3a ed 2f d1 b9 73 a6 df 39
       0.000643275 0.0016080681 -0.00039899294 0.0004265789
0001e0 70 9c ac b8 4c f2 c0 ba ec 7f 51 b9 3a aa 97 ba
       -8.230738e-05 -0.0014720648 -0.00019979448 -0.0011571117
0001f0 60 26 ff ba 40 99 5b 3a 38 35 98 ba 48 62 03 bb
       -0.0019466393 0.0008377023 -0.001161254 -0.0020047594
000200 e1 fe 97 3a 6f af 8b ba e4 29 80 3b 10 e8 f3 b9
       0.0011596346 -0.0010657142 0.0039112438 -0.00046521472
000210 e5 f9 42 bb f4 25 33 3b 0b 27 5b 3b 00 97 13 b7
       -0.0029751 0.0027335854 0.003344002 -8.79704e-06
000220 d8 f6 03 3a 30 d5 49 3b 8c 0c 4e 3b 2a 19 e2 3a
       0.0005034036 0.0030797236 0.0031440584 0.0017249931
000230 64 06 58 b9 50 f9 c5 b8 ca 0d fc b7 3c 19 d8 b8
       -0.00020601746 -9.44013e-05 -3.0047162e-05 -0.00010304383
000240 d2 2b af b7 20 f2 57 37 e2 56 af b8 84 bf 6a b8
       -2.0882031e-05 1.2871373e-05 -8.3608335e-05 -5.596831e-05
000250 a4 c3 02 39 ad 02 e9 b7 6e c3 db 3b 08 a6 78 3b
       0.00012470648 -2.777701e-05 0.0067066466 0.003794076
000260 e0 01 83 ba f5 03 74 3b 6a c5 d0 3b b4 ef a8 ba
       -0.0009995066 0.0037233804 0.00637119 -0.001288882
000270 98 6a 0b 3b 06 01 cc 3b d9 ef 0e 3a b4 47 27 3b
       0.0021273252 0.006225708 0.000545261 0.0025524916
000280 47 4b aa ba fc 53 8a ba 84 93 e5 38 8c f4 5c ba
       -0.0012992405 -0.0010553594 0.00010947048 -0.00084287743
000290 5a 1d 2d bb a9 1a e2 b9 44 9e 54 ba ca 3d 2b bb
       -0.00264152 -0.00043125942 -0.00081107416 -0.0026129358
0002a0 d8 86 0e ba 4c ad 6e ba b0 26 5d 3a 49 3c 2e 3b
       -0.00054369634 -0.0009104803 0.0008436246 0.0026586226
0002b0 45 9e 46 3b 08 ce cf b9 e0 4d e9 39 e4 fa a0 ba
       0.0030306738 -0.00039635622 0.00044499245 -0.0012281802
0002c0 e8 5d 11 ba 74 30 26 3b e2 28 46 3a 39 a2 8b 3a
       -0.0005545304 0.002535847 0.00075591926 0.0010653205
0002d0 e6 db 26 bc e8 b1 0a ba 88 69 73 bb 80 e5 b7 38
       -0.010184264 -0.00052907923 -0.003714176 8.768868e-05
0002e0 b0 42 22 ba 88 69 73 3a 50 85 03 ba d5 b9 c6 bb
       -0.0006189747 0.000928544 -0.00050171185 -0.0060646334
0002f0 be 89 bd ba 51 b8 33 bb 51 e5 2f bb 0f a4 13 ba
       -0.0014460606 -0.0027423094 -0.0026839564 -0.00056320516
000300 e4 88 39 b9 7a cf c9 ba ba 9b 1d bb 55 d8 0c 3b
       -0.0001769397 -0.0015396916 -0.002404912 0.0021491249
000310 08 cc b7 b9 e3 3f e4 bb f6 66 30 bb d6 ac 69 bb
       -0.00035056495 -0.0069656237 -0.0026916838 -0.0035655997
000320 ab 91 1d b9 90 1d 2d b9 80 89 cb b8 03 b8 61 b8
       -0.00015026952 -0.00016509579 -9.705406e-05 -5.3815555e-05
000330 3e a5 ec b8 66 c3 0f b9 0e fb 00 b9 ba 13 f6 b8
       -0.00011284136 -0.00013710334 -0.00012300556 -0.000117338685
000340 6a e1 6e b8 56 02 fb b8 40 27 c5 b8 0a 81 30 3a
       -5.6953555e-05 -0.00011969048 -9.401003e-05 0.00067330955
000350 72 24 1f 3a c6 d4 02 3b 68 67 a3 38 84 da 34 ba
       0.00060707994 0.0019963249 7.7917066e-05 -0.00068990164
000360 14 f3 d7 39 4d b5 bb 3a 2b 03 77 3a 2a ff f6 39
       0.00041189103 0.0014321 0.00094227743 0.00047110888
000370 b8 26 2b ba 20 f3 b5 3a 7b 13 78 39 88 bc fc 39
       -0.0006528902 0.0013881661 0.0002365838 0.00048205652
000380 a8 cb d3 3a db 5a a5 39 38 5d 83 39 5b d1 b1 3a
       0.0016158717 0.00031538945 0.0002505572 0.0013566421
000390 92 50 47 ba 92 aa e5 b9 b0 37 05 3c 2b a3 06 3c
       -0.00076032535 -0.00043805368 0.008130953 0.008217613
0003a0 38 87 82 39 38 f4 82 3a 1a a6 d7 3b 70 b4 89 39
       0.00024896278 0.0009990996 0.00658108 0.00026265113
0003b0 6a e0 29 3b da 5e 1d 3c 1e 8e 5e b9 f7 64 7d 3b
       0.0025921115 0.009605134 -0.00021224513 0.0038664916
0003c0 4d c8 89 3b 85 7f 80 3b ce 63 0c 3a 00 55 5c b9
       0.004204786 0.0039214515 0.0005355448 -0.000210125
0003d0 39 6a 6a 3b 5a 27 21 3b 3c 47 b2 3a f3 fb 5e 3b
       0.003576888 0.0024590106 0.0013601552 0.0034024685
0003e0 20 76 19 b8 97 c4 93 3a a0 95 1c ba e8 e4 1a 3a
       -3.6588055e-05 0.0011273798 -0.00059732236 0.00059087435
0003f0 c3 53 29 3b 0a 87 a3 ba be 51 ce ba 40 87 49 b8
       0.002583728 -0.0012476158 -0.0015740914 -4.8048096e-05

exp_avg_sq f4 [128, 10]
000000 9e 5e 97 3a d8 ed 7e 39 e1 23 96 38 46 34 e0 38
       0.0011548584 0.00024311931 7.15924e-05 0.00010690889
000010 c5 79 f6 39 90 64 dc 38 c3 02 2a 39 49 83 22 3a
       0.00047011502 0.00010509149 0.00016213492 0.00061993726
000020 b6 47 e6 38 2f f7 2a 39 dc fa d2 3a d4 e4 22 39
       0.00010980612 0.00016304546 0.001609649 0.00015534769
000030 ec 33 9f 38 f9 ea dc 38 8f 4d a6 39 ac 3c fb 38
       7.591382e-05 0.000105341845 0.00031719773 0.00011979914
000040 e9 fd 30 39 14 91 f6 39 d5 dd 01 39 4a 30 37 39
       0.00016879257 0.00047028868 0.00012385038 0.00017470229
000050 d9 1c 39 3b 40 54 ea 39 25 8e 06 39 cb 66 57 39
       0.0028245954 0.0004469473 0.00012832189 0.00020542291
000060 3a df 61 3a fb 3b 3d 39 b9 8e 99 39 21 a3 84 3a
       0.0008616332 0.00018046789 0.0002928877 0.0010119417
000070 3f 62 47 39 5b 7a a0 39 b3 f5 e1 39 94 38 9f 37
       0.00019014718 0.0003060874 0.00043098404 1.8980623e-05
000080 d9 4f 5a 37 0a b7 81 37 02 5f 28 38 de ed b8 37
       1.30124035e-05 1.5463233e-05 4.0142804e-05 2.2045275e-05
000090 07 12 bd 37 ac 88 a6 38 38 4c 04 38 f5 f2 03 38
       2.253895e-05 7.940954e-05 3.1542237e-05 3.1459105e-05
0000a0 75 91 0a 32 0d e3 a1 31 d4 8c 78 31 de 01 8a 31
       8.06573e-09 4.7115294e-09 3.6168801e-09 4.016541e-09
0000b0 b0 af e1 31 f3 6b 3a 32 c1 74 2e 32 79 d4 06 32
       6.568335e-09 1.085117e-08 1.015468e-08 7.848137e-09
0000c0 29 f9 b5 32 d8 1a b2 32 d5 18 54 3a 98 37 5f 39
       2.1184478e-08 2.0734134e-08 0.00080908585 0.00021287648
0000d0 18 13 27 38 17 bf 8d 38 b0 24 9f 39 67 f6 5f 38
       3.9833685e-05 6.758997e-05 0.00030354178 5.3396823e-05
0000e0 b7 b4 af 38 4a 98 bb 39 18 b7 72 38 59 c8 bd 38
       8.378311e-05 0.00035780884 5.7867815e-05 9.04954e-05
0000f0 b4 33 05 3a f2 96 9b 38 4b 36 2c 38 53 2a 71 38
       0.0005081252 7.419092e-05 4.105856e-05 5.7498295e-05
000100 57 16 5d 39 a9 e4 82 38 40 aa c5 38 3d 15 b1 39
       0.00021084525 6.241474e-05 9.4254036e-05 0.00033775895
000110 f9 bc 92 38 5d 02 e1 38 82 77 a0 38 11 14 07 37
       6.9970214e-05 0.00010729276 7.6516546e-05 8.051299e-06
000120 32 14 40 36 85 f6 29 36 d2 d3 1f 37 9e f4 1a 37
       2.8621985e-06 2.5326456e-06 9.526457e-06 9.23607e-06
000130 0c 82 fa 36 55 10 03 38 70 91 86 36 2e 3e 87 36
       7.46572e-06 3.1248044e-05 4.0104424e-06 4.030552e-06
000140 af e3 68 3a 3d f3 0d 39 84 75 69 38 ed 3e 85 38
       0.0008884025 0.00013537421 5.5660974e-05 6.353655e-05
000150 32 dd a3 39 a6 b8 8f 38 f2 04 d2 38 21 fe e1 39
       0.00031254586 6.853165e-05 0.000100145015 0.00043104685
000160 c0 2c 99 38 e3 34 e0 38 79 6e 08 3a 47 31 c3 38
       7.303944e-05 0.00010691003 0.000520445 9.307503e-05
000170 d0 80 05 38 db 6a 44 38 70 31 29 39 55 ca 4e 38
       3.1829637e-05 4.682956e-05 0.00016135513 4.9302664e-05
000180 39 49 8b 38 fe 58 64 39 b9 02 5b 38 10 31 92 38
       6.641675e-05 0.00021776927 5.2216204e-05 6.970961e-05
000190 c5 1e e0 35 d3 2e 04 36 86 1f a1 35 86 bd 3f 35
       1.6698256e-06 1.9696788e-06 1.2004609e-06 7.142884e-07
0001a0 17 d1 46 36 de 94 2a 36 7d de c7 35 d0 d8 61 36
       2.9626005e-06 2.5418626e-06 1.4891408e-06 3.3653814e-06
0001b0 a5 59 40 36 ae 90 00 36 4e 69 18 3a 13 25 cf 38
       2.866241e-06 1.91577e-06 0.00058140315 9.877435e-05
0001c0 b8 f1 2d 38 5d 86 14 38 46 b1 3c 39 4e a0 63 38
       4.1471532e-05 3.5411085e-05 0.00017995117 5.4270313e-05
0001d0 a9 05 60 38 0b 28 5a 39 8b d9 7f 38 78 5c 60 38
       5.3411033e-05 0.00020805017 6.099934e-05 5.349188e-05
0001e0 d2 4d 1d 39 ec 37 bb 38 ec 7e 95 37 95 b2 11 38
       0.00015001677 8.927271e-05 1.7821287e-05 3.473701e-05
0001f0 03 74 03 39 8d 21 d0 37 9c e7 1a 38 c9 d2 05 39
       0.00012536351 2.4811156e-05 3.6932164e-05 0.00012762392
000200 9c fd 17 38 3d 57 2f 38 e7 29 88 3a 15 e0 5f 39
       3.6237398e-05 4.18045e-05 0.0010388464 0.00021350414
000210 8f ca 8d 38 d8 8f b4 38 e9 a0 03 3a 5e f6 a3 38
       6.7611334e-05 8.609862e-05 0.0005021231 7.818335e-05
000220 85 63 09 39 83 ef 27 3a 2b 84 aa 38 4f fd 1d 39
       0.00013102412 0.00064062345 8.13085e-05 0.00015067052
000230 f0 ff 2a 35 fa dc 88 35 7f bf c3 34 95 17 56 35
       6.3702373e-07 1.0197102e-06 3.6460912e-07 7.975553e-07
000240 2a 47 84 35 ac e1 60 35 1f 9f 24 35 95 cc f6 35
       9.855478e-07 8.37749e-07 6.132631e-07 1.838797e-06
000250 2a 51 38 35 40 10 55 35 f0 65 11 3b ab 86 fd 39
       6.866345e-07 7.937233e-07 0.0022186004 0.00048356256
000260 a0 85 06 39 fe 55 60 39 86 86 80 3a 04 b8 22 39
       0.00012829015 0.0002139434 0.0009805716 0.00015518075
000270 7f 12 94 39 c9 cd 9e 3a dd 64 39 39 71 00 9c 39
       0.0002824254 0.0012115772 0.0001768055 0.00029754968
000280 d1 0f 6a 38 bc c7 20 38 25 05 b0 37 ad b2 f8 37
       5.5804678e-05 3.833299e-05 2.098323e-05 2.9647106e-05
000290 ea d5 5d 39 f8 f9 51 37 ad 30 2d 38 16 fc 6e 39
       0.00021155892 1.2515571e-05 4.1291747e-05 0.00022791358
0002a0 d9 76 8b 37 24 7a 40 38 02 1a 37 3b 4b 10 f7 39
       1.6625434e-05 4.589012e-05 0.0027939086 0.0004712365
0002b0 88 f5 3d 39 d7 f3 85 39 6c df 80 3a 53 be 79 39
       0.00018115912 0.00025549412 0.000983221 0.00023817392
0002c0 7e 07 b6 39 fe 3c a5 3a 17 64 9a 39 c5 c9 d3 39
       0.00034719327 0.0012606678 0.00029447742 0.00040395386
0002d0 bc 50 69 3b 1a 43 38 3a d0 a6 7f 39 0f 78 ca 39
       0.00356011 0.0007029042 0.00024380838 0.00038617893
0002e0 c7 7c 03 3b 34 58 80 39 db 0b 10 3a 8a 83 2d 3b
       0.0020063387 0.0002447978 0.00054949307 0.0026476108
0002f0 84 f1 92 39 4f 9d 1d 3a 7f 4b 86 3a 5f 29 9c 38
       0.00028027233 0.00060125155 0.0010245888 7.4463656e-05
000300 91 9c 4a 38 54 99 98 38 bf f6 fa 38 cb 23 c4 38
       4.8306367e-05 7.2764844e-05 0.00011966889 9.352675e-05
000310 69 d7 b0 38 ef 10 88 39 7a 7a e1 38 30 cd e7 38
       8.432457e-05 0.00025952558 0.00010751649 0.000110531575
000320 e7 1f 98 35 b8 64 31 36 b7 06 c8 35 e8 37 93 35
       1.1334167e-06 2.6433681e-06 1.4903115e-06 1.0968624e-06
000330 d9 18 a4 35 28 a5 c1 36 fe 71 c1 36 00 9a c1 35
       1.2226184e-06 5.771075e-06 5.7651187e-06 1.442444e-06
000340 02 d3 ea 36 52 a2 e5 36 40 07 c8 39 2c 5f 09 39
       6.998308e-06 6.8436284e-06 0.00038152374 0.00013100792
000350 93 8c 80 38 d9 b9 05 39 95 1a 95 39 f4 f6 5c 39
       6.1296996e-05 0.00012753102 0.000284393 0.00021072832
000360 69 77 96 39 05 ea 4b 3a b1 0e 65 39 ae 47 b1 39
       0.00028699197 0.0007778707 0.00021844615 0.00033813476
000370 f7 a1 18 3a e5 25 27 39 5a 81 93 38 0b 8d e5 38
       0.00058224745 0.00015940478 7.0336e-05 0.00010945842
000380 32 f9 89 39 c3 c1 fb 38 4e ab 2b 39 a8 05 c4 39
       0.0002631634 0.000120047036 0.00016371647 0.00037388247
000390 e1 39 0d 39 18 4c 32 39 bf a0 0b 3b a5 23 1e 3a
       0.0001346837 0.0001700375 0.002130553 0.0006032533
0003a0 73 ef 94 39 21 b0 d5 39 57 e4 08 3b 37 e2 a2 39
       0.00028407163 0.00040757752 0.0020888054 0.0003106759
0003b0 7b de 10 3a 88 d0 1e 3b 26 3a c3 39 12 ed 1d 3a
       0.0005526316 0.002423318 0.00037236622 0.0006024401
0003c0 39 f1 34 3a 9c 58 e0 38 65 6a 1b 38 46 8b 56 38
       0.00069024 0.00010697657 3.7053967e-05 5.1151284e-05
0003d0 e7 a8 44 39 9d 7e 87 38 f7 c7 a5 38 4f 88 5a 39
       0.00018754938 6.460885e-05 7.9050595e-05 0.00020840879
0003e0 5f d7 93 38 97 00 b0 38 68 5d 4a 3b cc 83 29 3a
       7.049622e-05 8.392444e-05 0.0030878428 0.00064664776
0003f0 59 b9 3c 39 42 0e 87 39 c3 8b a5 3a 24 40 8c 39
       0.00017998125 0.0002575983 0.0012630153 0.0002675067
