results/FireDividedTimePenalty/PlayerRL/PlayerRL-1719.pt (torch, 459447 bytes, 36 tensors)

network_body._body_endoder.seq_layers.0.weight f4 [128, 10]
0.05237884 -0.29609185 0.11398032 -0.11790159 -0.04797554 0.04406002 0.37994775 0.24731977
-0.03362427 -0.20977528 0.41916966 0.20890446 -0.099638306 -0.123130634 0.36690396 0.085627206
-0.16982771 0.20332663 0.80699694 0.04163642 -0.38108265 0.6127788 0.24553685 0.44685027
-0.12457379 -0.17728782 -0.064971834 -0.25012216 -0.5705611 -0.08208619 0.4873821 -0.33494803
0.17600396 -0.28130218 -0.15915285 0.23083973 -0.2604477 -0.48490003 -0.1252765 -0.25199676
-0.45743433 -0.042361084 -0.5201046 -0.07128582 -0.7047584 -0.42620197 -0.4069275 0.21864468
-0.26294258 0.27529955 -0.18040498 0.16703355 -0.16661553 -0.044887066 -0.6364504 0.018275684
0.038627595 -0.3441383 0.2208997 -0.086437345 -0.39471188 -0.27750987 -0.3717665 -0.8079656
-0.008073144 0.27861735 0.3128013 -0.24673998 0.09041714 0.506711 0.1481913 -0.10858056
0.60756767 -0.16338356 -0.10838936 -0.20067197 0.11235511 0.033673305 -0.23797578 -0.26729932
0.11205251 0.37931386 0.4703754 0.19716 0.08304819 0.2537242 -0.22995041 0.41763416
0.18146256 -0.49837822 0.24212815 0.29738715 -0.23718901 0.04898031 -0.8198825 -0.117611036
-0.20442244 -0.36523664 -0.21384679 -0.28922215 0.17661482 0.052207425 -0.06748767 -0.15118365
-0.19571766 -0.1966422 0.45282894 -0.06455723 0.31299436 -0.18422383 -0.37343198 -0.15324235
-0.20743275 -0.13075061 -0.27331042 -0.17205366 -0.27119887 -0.39178914 0.3060112 -0.051869676
0.25582322 -0.39290982 0.30590528 -0.4025521 -0.18931006 0.20083205 -0.19421038 -0.35805622
-0.3881648 0.088908255 -0.09725973 0.121153586 -0.33114943 0.14514734 -0.58849376 -0.36936584
0.3723202 0.022145394 0.37494537 0.046605848 0.06459259 0.15991133 -0.20807113 -0.34471202
-0.26269743 0.03333948 0.027215673 0.27849928 -0.2829722 0.18758962 -0.6559058 0.14781737
-0.070343405 -0.13108177 -0.06816222 -0.41147116 -0.28498513 0.2898574 -0.22830124 0.13578787
0.29157367 0.09591245 0.56893134 0.07296526 0.3614515 0.49432406 0.18833676 -0.09492257
-0.13546498 -0.28578103 -0.07034761 -0.71920055 -0.118161656 0.107857086 0.07716223 0.43171805
-0.3477401 -0.29073104 -0.030598683 0.21598004 0.17431712 0.15555058 0.119715504 0.13599703
0.52816105 -0.057654172 0.015549138 0.44610983 -0.38378006 0.21646601 -0.46138906 0.027480375
0.31869537 0.25159103 0.2232464 -0.029629238 -0.1801226 -0.27284637 0.021779858 -0.03113366
-0.44958216 -0.05506979 -0.1594431 0.1991204 0.3150416 -0.13679686 0.34170735 0.63852096
0.3046258 0.16643739 0.19498082 -0.2289239 -0.13392036 -0.34387487 0.07641491 0.17352973
-0.21051404 -0.031937156 0.20459586 -0.4552914 0.10975079 -0.15928553 -0.25268552 0.14586742
-0.3154339 -0.011922627 -0.119650856 -0.09390817 0.87695926 -0.0651287 -0.28614765 -0.38094613
0.17785674 0.10051038 0.26144323 -0.23654784 -0.020609725 0.65373826 0.4498135 0.20598117
-0.28463358 -0.03830259 -0.019747488 -0.6788358 -0.25452632 -0.3518999 0.5989612 0.27410847
0.038247295 -0.38562927 -0.34798118 0.3100449 -0.38044912 -0.047459368 0.26782086 0.3081486
00000000: 328b 563d 5a99 97be 846e e93d 6476 f1bd
00000010: 0082 44bd 4878 343d 8388 c23e 6541 7d3e
00000020: 9ab9 09bd 55cf 56be 689d d63e 0deb 553e
00000030: 2b0f ccbd ea2b fcbd d6da bb3e 515d af3d
00000040: 51e7 2dbe db34 503e 5a97 4e3f f38a 2a3d
00000050: 441d c3be 12df 1c3f 036e 7b3e 8fc9 e43e
00000060: 8b20 ffbd f08a 35be f40f 85bd 0310 80be
00000070: 4b10 12bf ce1c a8bd 268a f93e 4f7e abbe
00000080: 623a 343e d706 90be f7f8 22be 4061 6c3e
00000090: 6759 85be d144 f8be 7c48 00be b805 81be
000000a0: d534 eabe d182 2dbd 9325 05bf 4dfe 91bd
000000b0: 0c6b 34bf 2537 dabe cd58 d0be 64e4 5f3e
000000c0: 69a0 86be 10f4 8c3e 15bc 38be d80a 2b3e
000000d0: 439d 2abe 80db 37bd 6aee 22bf e3b6 953c
000000e0: f837 1e3d e532 b0be 8833 623e 1006 b1bd
000000f0: ad17 cabe c615 8ebe 2e58 bebe d5d6 4ebf
00000100: 3845 04bc efa6 8e3e 7e27 a03e 68a9 7cbe
00000110: 9f2c b93d d0b7 013f 76bf 173e 7c5f debd
00000120: 8e89 1b3f 054e 27be 3efb ddbd f47c 4dbe
00000130: 701a e63d 05ed 093d ecaf 73be 75db 88be
00000140: c97b e53d 6d35 c23e 0bd5 f03e 50e4 493e
00000150: 2b15 aa3d 23e8 813e 1f78 6bbe 25d4 d53e
00000160: 52d1 393e 6e2b ffbe 71f0 773e 2143 983e
00000170: ade1 72be 949f 483d d2e3 51bf 0ede f0bd
00000180: 1e54 51be 4c00 bbbe a7fa 5abe ed14 94be
00000190: 84da 343e 74d7 553d fa36 8abd e3cf 1abe
000001a0: 366a 48be 935c 49be 32d9 e73e 9536 84bd
000001b0: cc40 a03e 2ca5 3cbe 7a32 bfbe 90eb 1cbe
000001c0: 4069 54be 7de3 05be 58ef 8bbe d62e 30be
000001d0: 94da 8abe 9698 c8be 80ad 9c3e 4c75 54bd
000001e0: 43fb 823e 7a2b c9be 9e9f 9c3e 4f1b cebe
000001f0: 7fda 41be eba6 4d3e 16df 46be 2553 b7be
00000200: 89bd c6be 8815 b63d 1c30 c7bd 5f1f f83d
00000210: 6b8c a9be 81a1 143e 87a7 16bf 851d bdbe
00000220: c1a0 be3e 426a b53c d7f8 bf3e c6e5 3e3d
00000230: 1f49 843d ccbf 233e 9910 55be 187e b0be
00000240: 4780 86be fb8e 083d 67f3 de3c 7597 8e3e
00000250: bbe1 90be 7e17 403e 71e9 27bf 705d 173e
00000260: 3410 90bd 4d3a 06be a298 8bbd 59ac d2be
00000270: 92e9 91be 3068 943e cdc7 69be fa0b 0b3e
00000280: 2549 953e bf6d c43d 7ca5 113f cf6e 953d
00000290: 2c10 b93e 0b18 fd3e 5adb 403e c466 c2bd
000002a0: 55b7 0abe e451 92be 6812 90bd 871d 38bf
000002b0: bdfe f1bd 2de4 dc3d 3b07 9e3d 260a dd3e
000002c0: fe0a b2be b3da 94be 17aa fabc df29 5d3e
000002d0: 3080 323e a748 1f3e 672d f53d ce42 0b3e
000002e0: 9035 073f c826 6cbd d0c1 7e3c 8268 e43e
000002f0: d27e c4be 44a9 5d3e 303b ecbe 861e e13c
00000300: 0a2c a33e 8ad0 803e b49a 643e 04b9 f2bc
00000310: 0f72 38be 85b2 8bbe ac6b b23c 040c ffbc
00000320: a22f e6be dc90 61bd 0d45 23be 38e6 4b3e
00000330: 224d a13e 7a14 0cbe 44f4 ae3e 1c76 233f
00000340: eaf7 9b3e 906e 2a3e 0da9 473e 076b 6abe
00000350: 6b22 09be 5e10 b0be 6c7f 9c3d c7b1 313e
00000360: fe90 57be 89d0 02bd 9481 513e f41b e9be
00000370: 06c5 e03d bf1b 23be ff5f 81be 455e 153e
00000380: 8d80 a1be 1f57 43bc 820b f5bd ed52 c0bd
00000390: 6780 603f 3262 85bd f281 92be 5f0b c3be
000003a0: 1420 363e 63d8 cd3d e3db 853e 9939 72be
000003b0: bad5 a8bc 645b 273f f44d e63e baec 523e
000003c0: 7ebb 91be 2de3 1cbd 7cc5 a1bc 2fc8 2dbf
000003d0: 4651 82be 392c b4be 8555 193f f257 8c3e
000003e0: 32a9 1c3d 3371 c5be 972a b2be 35be 9e3e
000003f0: 3aca c2be c164 42bd d11f 893e a7c5 9d3e

network_body._body_endoder.seq_layers.0.bias f4 [128]
-0.00040947876 -0.00014196752 -0.0013997491 -0.0034669754 -0.0022746974 0.0017721767 -0.0010874253 0.00056493987
-0.001073463 0.0018460294 0.00017852942 -0.006414285 -0.00089260424 0.00035642026 0.0004946187 0.0052998555
-0.002815839 -0.00058575044 -9.5351774e-05 -0.003980188 0.0018386991 -0.0006365839 -0.00091755704 -0.0020446186
0.0017700432 -0.0057065263 0.0003625428 -0.00020010382 0.0014762538 0.0012356081 -0.0021113683 -0.0058854707
0.0025527198 0.0013222126 0.0005904848 -0.00068253285 -0.00043958385 0.00049153273 0.0013719167 -0.0028485442
0.00072452606 -0.0007211676 -0.00013995376 0.0012684704 -0.0016052307 0.0013044189 -0.0011572458 0.00037402194
-0.0004202274 0.0011538127 -0.00093565957 -0.0012788911 0.00032817066 0.004189173 0.0025071355 0.003798438
-0.0009418072 0.0010783173 -1.2465935e-05 0.00024318162 -0.00024841243 9.082128e-05 0.002427678 6.1984014e-05
0.00059524114 -0.00035336064 -0.00057456596 -0.00037643855 0.00051699614 5.2621668e-05 0.00042352168 0.002412928
-0.00036373822 0.0021035697 -0.00080350856 -0.00021678075 0.0003257528 -0.0022592237 -0.0001328502 0.00037831764
0.0040549743 0.0017064456 -0.00041823485 -0.0013441992 0.0013569009 -0.00020691112 0.00081132416 0.0019269942
-0.0012899181 -0.0003028654 0.0010829489 -0.0002790187 -0.000557057 0.00086668174 -0.00027709792 -0.0019166843
-0.0017416218 -0.0011455958 -0.0014310464 -0.0008930903 -0.0014677303 0.0014951371 0.003305674 -0.002107017
0.003920884 0.0023441075 -0.00014117804 0.0018962532 -0.00085560716 0.0005374144 -0.0016272629 -0.00081173796
0.0023693212 -0.0020570094 -0.0007736538 -0.0030512235 -0.0008950562 -0.0008287459 0.00038084286 -0.001527498
0.0015889582 -0.0015296574 -0.0012038557 -0.00021502432 0.000489185 -0.0010266248 0.0007450449 -0.00056680414
00000000: 4faf d6b9 1edd 14b9 c977 b7ba 3236 63bb
00000010: 1713 15bb 6248 e83a f087 8eba 7918 143a
00000020: 71b3 8cba 78f6 f13a a033 3b39 ec2e d2bb
00000030: a8fd 69ba ebdd ba39 4da9 013a 69aa ad3b
00000040: f089 38bb 0c8d 19ba 98f7 c7b8 3d6c 82bb
00000050: 8100 f13a 6ce0 26ba 3688 70ba 02ff 05bb
00000060: cb00 e83a d0fd babb ac13 be39 f6d2 51b9
00000070: dc7e c13a 21f4 a13a e25e 0abb e8da c0bb
00000080: 884b 273b 184e ad3a c4ca 1a3a 01ec 32ba
00000090: f277 e6b9 34da 003a e3d1 b33a a4ae 3abb
000000a0: 1fee 3d3a bd0c 3dba 8dc0 12b9 ce42 a63a
000000b0: 9b66 d2ba 09f9 aa3a baae 97ba 6018 c439
000000c0: f851 dcb9 883b 973a 0d47 75ba 77a0 a7ba
000000d0: 520e ac39 5545 893b c14e 243b 37ef 783b
000000e0: 9ce3 76ba 5356 8d3a c824 51b7 92fe 7e39
000000f0: 5a3d 82b9 4e77 be38 ae19 1f3b 6afd 8138
00000100: f509 1c3a 4343 b9b9 789e 16ba ba5c c5b9
00000110: 0687 073a 16b6 5c38 1e0c de39 3722 1e3b
00000120: 1eb4 beb9 0bdc 093b 8ca2 52ba a44f 63b9
00000130: cdc9 aa39 7c0f 14bb b44d 0bb9 ef58 c639
00000140: 97df 843b d0aa df3a 8846 dbb9 d72f b0ba
00000150: 0ada b13a 48f6 58b9 0baf 543a 3293 fc3a
00000160: 7812 a9ba e8c9 9eb9 bcf1 8d3a 4249 92b9
00000170: 7607 12ba 0732 633a 7447 91b9 4139 fbba
00000180: 2147 e4ba d127 96ba f391 bbba 471e 6aba
00000190: db60 c0ba 7af8 c33a 02a4 583b e115 0abb
000001a0: c27a 803b 999f 193b 3109 14b9 b38b f83a
000001b0: d34a 60ba 45e1 0c3a e249 d5ba d0ca 54ba
000001c0: 9d46 1b3b e4ce 06bb 07cf 4aba 09f7 47bb
000001d0: 34a2 6aba 3240 59ba ddab c739 5436 c8ba
000001e0: 9744 d03a c97e c8ba b2ca 9dba 2778 61b9
000001f0: a63c 003a d08f 86ba 1e4f 433a 9595 14ba

network_body._body_endoder.seq_layers.2.weight f4 [128, 128]
0.2777971 -0.117925555 0.0799369 -0.07951875 -0.0018852924 -0.00354718 -0.1593976 -0.20268202
0.090532824 0.017894113 -0.012121744 0.101013094 -0.100017756 -0.11944211 0.038650393 -0.14606081
0.011282473 0.10887593 0.12635803 -0.040538896 -0.121434435 0.03810506 0.17093763 -0.14753926
0.06474119 -0.0002828884 0.08937 0.06211653 -0.058307525 -0.088287964 -0.13605286 -0.055252373
0.014595328 0.0064597847 0.0017498152 -0.004863157 -0.179791 -0.08222084 -0.041511193 0.118075274
0.10401532 0.16850933 0.012805909 -0.04153152 0.11352522 0.03817485 0.024798492 0.0317219
-0.10943579 -0.011905253 -0.06210811 0.049573947 0.07209926 -0.060362753 -0.047078628 0.041503116
0.012627914 -0.25094637 0.050260954 0.076022305 0.14627928 0.09076891 0.06751972 0.13173476
0.08169019 0.042109873 -0.12658934 -0.06912721 -0.12964158 -0.056363482 -0.009234734 0.04963183
0.038235676 0.08183051 -0.03693774 0.08100196 0.114049435 0.1669332 0.13627325 0.059537333
-0.07422185 0.04553026 0.055013847 0.009799507 -0.001122115 -0.16327557 0.12067892 0.11501155
-0.013837777 0.014583491 0.07387116 0.027739959 0.14377925 0.09827566 0.10155327 0.069855504
-0.16821101 0.0071547497 -0.0828906 0.1140246 -0.057784498 0.05567924 0.06682905 -0.18992686
0.047339205 -0.14219563 -0.10220879 0.11475426 0.12884864 -0.063654765 -0.12155702 -0.18935539
0.17632207 0.12914862 -0.024971982 -0.07651868 -0.07722241 -0.09903729 0.051597785 -0.05563772
0.10832846 0.10538379 0.05638556 0.025224315 -0.040249135 0.11148126 0.11472494 -0.08451156
-0.07104926 0.05977062 0.18336856 0.01994774 0.14217255 0.0015278779 -0.008870619 0.046005845
-0.06891276 0.13145596 -0.055285037 0.0500521 -0.0015096439 0.21230637 -0.027770296 0.11303261
-0.0061374274 0.0072669545 -0.22328177 -0.11040657 0.15944417 0.092344515 0.000895561 0.12575528
-0.1321366 0.068875216 -0.07800827 0.0129858665 0.04384505 -0.07953876 0.019573927 0.014548196
0.011456096 -0.029209744 -0.059716567 -0.034004226 -0.009171314 0.04864492 0.055460162 -0.032231092
-0.05358545 0.058360238 0.11229965 -0.07973538 0.001058297 -0.14631274 -0.109382644 0.0043277834
0.038656957 -0.17031944 -0.005608848 -0.079961106 0.021513414 -0.14734511 0.11306293 0.01711104
-0.016563587 -0.018388597 -0.045317084 0.01248503 -0.0070221894 -0.06336222 -0.10932882 0.05272209
-0.14892817 0.056804843 -0.038614735 0.04199396 0.038351905 -0.012179268 -0.08266606 0.008815369
-0.17277542 0.073445424 0.053727895 -0.031329837 0.001284605 -0.020959906 0.034455538 0.2748533
0.04671878 0.13924171 0.050860465 0.024317726 -0.04738134 -0.12653127 0.00059247995 0.094459765
0.0037776765 0.07759442 -0.16548494 -0.06871361 -0.011771765 0.015728513 0.046185385 0.028714798
0.14541283 0.06579888 0.008669846 -0.11713005 0.03609659 -0.0148926005 0.09542 -0.04422393
-0.05563887 0.06858509 -0.020939162 0.11919211 0.08045097 -0.060199294 -0.0034216281 -0.032675184
0.07263704 -0.044465285 0.0018060607 -0.098007284 0.04500364 0.061727267 0.0668841 0.06982545
-0.108354285 -0.038846668 -0.05106512 0.14929517 -0.0096751675 -0.19434702 0.19252919 0.0056738327
00000000: 6c3b 8e3e f482 f1bd f5b5 a33d bada a2bd
00000010: ea1b f7ba ce77 68bb 2039 23be e08b 4fbe
00000020: 4669 b93d ad96 923c 489a 46bc f4df ce3d
00000030: 1cd6 ccbd 119e f4bd e04f 1e3d f790 15be
00000040: 1fda 383c 58fa de3d 0064 013e 1d0c 26bd
00000050: 9eb2 f8bd 0d14 1c3d 460a 2f3e 8814 17be
00000060: 0797 843d a350 94b9 9e07 b73d e76d 7e3d
00000070: dfd3 6ebd 52d0 b4bd 7151 0bbe 5050 62bd
00000080: 3e21 6f3c 9aac d33b 0e5a e53a 1e5b 9fbb
00000090: 221b 38be 6663 a8bd a407 2abd 73d1 f13d
000000a0: fc05 d53d b68d 2c3e e0cf 513c f51c 2abd
000000b0: e97f e83d 3b5d 1c3d 3526 cb3c d3ee 013d
000000c0: df1f e0bd 400e 43bc 1365 7ebd 0d0e 4b3d
000000d0: c7a8 933d ef3e 77bd 85d5 40bd 2cff 293d
000000e0: 4fe5 4e3c 0b7c 80be 6ede 4d3d 95b1 9b3d
000000f0: 3cca 153e 0de5 b93d c747 8a3d 7ae5 063e
00000100: 304d a73d 677b 2c3d a3a0 01be 9192 8dbd
00000110: c3c0 04be 65dd 66bd 484d 17bc bf4a 4b3d
00000120: 039d 1c3d c196 a73d 074c 17bd 5be4 a53d
00000130: c092 e93d 89f0 2a3e 378b 0b3e 6bdd 733d
00000140: a001 98bd f07d 3a3d 3356 613d 1d8e 203c
00000150: ee13 93ba b631 27be 8226 f73d 2d8b eb3d
00000160: d8b7 62bc 98ef 6e3c c349 973d e93e e33c
00000170: de3a 133e c044 c93d 29fb cf3d 6710 8f3d
00000180: 823f 2cbe 6472 ea3b 8cc2 a9bd bb85 e93d
00000190: 70af 6cbd ea0f 643d abdd 883d 307c 42be
000001a0: c1e6 413d bb9b 11be d852 d1bd 4804 eb3d
000001b0: e6f0 033e 6e5d 82bd e3f2 f8bd 61e6 41be
000001c0: c68d 343e 893f 043e 0b92 ccbc d3b5 9cbd
000001d0: c826 9ebd 10d4 cabd 3358 533d 61e4 63bd
000001e0: 50db dd3d 75d3 d73d 8cf4 663d 39a3 ce3c
000001f0: 47dc 24bd 4950 e43d e9f4 ea3d 6614 adbd
00000200: 4682 91bd 0ad2 743d f8c4 3b3e 7169 a33c
00000210: ae95 113e 1343 c83a 1356 11bc a070 3c3d
00000220: 2222 8dbd 649c 063e 9072 62bd 6e03 4d3d
00000230: 3edf c5ba d766 593e 887e e3bc a47d e73d
00000240: 791c c9bb a21f ee3b faa3 64be d71c e2bd
00000250: 5545 233e 1f1f bd3d 15c4 6a3a fec5 003e
00000260: d14e 07be 730e 8d3d cdc2 9fbd acc2 543c
00000270: de96 333d 38e5 a2bd 8059 a03c 8f5b 6e3c
00000280: 59b2 3b3c 4649 efbc 5c99 74bd 0448 0bbd
00000290: 4743 16bc e53f 473d 322a 633d c004 04bd
000002a0: 6b7c 5bbd 250b 6f3d 5cfd e53d 4e4c a3bd
000002b0: 8eb6 8a3a 02d3 15be 0204 e0bd 14d0 8d3b
000002c0: c256 1e3d 3868 2ebe 6dca b7bb a6c2 a3bd
000002d0: e63c b03c a3e1 16be 8a8d e73d 742c 8c3c
000002e0: 5cb0 87bc afa3 96bc 689e 39bd 038e 4c3c
000002f0: 651a e6bb 0dc4 81bd cae7 dfbd 1ef3 573d
00000300: a080 18be 32ac 683d 7c2a 1ebd dc01 2c3d
00000310: e316 1d3d 8d8b 47bc d34c a9bd 566e 103c
00000320: 0aec 30be 8e6a 963d c811 5c3d b753 00bd
00000330: 3160 a83a 1cb4 abbc 4021 0d3d 92b9 8c3e
00000340: 315c 3f3d 6195 0e3e 1053 503d f835 c73c
00000350: f012 42bd 6a91 01be a850 1b3a 1f74 c13d
00000360: e592 773b d3e9 9e3d e274 29be b9b9 8cbd
00000370: 5cde 40bc 15d9 803c e32c 3d3d 4c3b eb3c
00000380: 1ae7 143e 90c1 863d f80b 0e3c e1e1 efbd
00000390: 05da 133d 1800 74bc 906b c33d 2724 35bd
000003a0: 95e5 63bd 5776 8c3d 9b88 abbc fe1a f43d
000003b0: 7ac3 a43d 8993 76bd 653d 60bb 6ad6 05bd
000003c0: bac2 943d 3b21 36bd 57b9 ec3a 0bb8 c8bd
000003d0: bd55 383d bbd5 7c3d 88fa 883d a500 8f3d
000003e0: dae8 ddbd af1d 1fbd a929 51bd d5e0 183e
000003f0: 9884 1ebc e802 47be 5f26 453e 8feb b93b

network_body._body_endoder.seq_layers.2.bias f4 [128]
-0.00034505007 0.0007802822 0.00097256235 0.0011660433 -0.00040130684 -0.0015546227 -0.00014437357 -0.0010266821
0.0042993794 -0.00087866944 -0.002840084 0.0020584632 -0.000104541854 -0.0015526937 -0.00034193724 0.0003095221
0.0013184181 0.0040789 -0.00038260326 -0.00037746158 0.0001339014 -0.0007819146 0.001258312 -0.00093310705
0.0028042656 0.0056300666 -0.0024471297 -0.0016919607 -0.0008864814 -0.0017343555 -0.0012455045 -0.0011561712
0.00030808637 -0.00010489142 0.00058019516 -0.00013859088 -0.0010131405 3.2404474e-05 -0.0021374903 -0.00052227406
0.001978767 -0.0009289396 -0.0011289663 -0.0026634925 0.00258086 -0.00081525027 -0.00016175788 -0.00011716307
-0.0017086867 0.0056460327 -0.0018413964 -0.003277771 -0.0007015275 -0.00257928 0.0011550653 -0.0023058238
0.00032998115 0.0018639173 -0.0011572139 0.0010783375 -0.001516945 -0.0022312303 0.00046782836 0.0011382526
0.0005910143 -0.0008933365 -0.00096322875 0.000661272 -0.0016326354 0.0010343937 0.0014700363 -0.0023204593
0.0005353821 -0.0018609072 -0.0005269176 -6.28237e-05 0.00013983666 -0.0002764766 -0.00045055628 -0.00094762276
0.0012574774 -0.0018141089 0.001094518 -0.0013697596 -0.0010768631 0.0009873508 -0.00042918423 0.00053167297
-0.00057600706 2.7595834e-05 0.0004762362 0.0004626723 -0.0015904404 7.74115e-05 -0.0011616471 -0.0016937839
0.0024663606 0.0008963584 -0.0036723912 -0.00015494763 -0.0012326135 0.00026226524 0.0011535616 -0.0008791855
-0.0021112687 -0.00074434496 0.0012116238 0.002760144 -0.0009980135 0.0019253525 -0.0010400461 0.0002711962
-0.004664489 0.0010879901 -0.0002505041 -0.0039205337 -0.00021189326 0.00082963204 -0.0005100852 0.00015254223
-0.0020512464 -0.00086195336 -0.000600798 3.2514312e-05 -0.00029659935 0.0015755866 0.0013798884 -0.0018498776
00000000: d6e7 b4b9 da8b 4c3a 8ef3 7e3a ecd5 983a
00000010: 7e66 d2b9 7bc4 cbba fc62 17b9 bc91 86ba
00000020: cfe1 8c3b 8256 66ba b420 3abb 48e7 063b
00000030: 7b3d dbb8 c183 cbba 0a46 b3b9 5a47 a239
00000040: c5ce ac3a 4ba8 853b 2498 c8b9 09e6 c5b9
00000050: e267 0c39 67f9 4cba f2ed a43a c19b 74ba
00000060: c5c7 373b 6c7c b83b 0660 20bb c8c4 ddba
00000070: c262 68ba 5053 e3ba 3240 a3ba ab8a 97ba
00000080: a786 a139 27f9 dbb8 3d18 183a b552 11b9
00000090: 5bcb 84ba 0aea 0738 2315 0cbb 38e9 08ba
000000a0: 34ae 013b 1584 73ba d3f9 93ba fd8d 2ebb
000000b0: a523 293b 85b6 55ba 8d9d 29b9 72b5 f5b8
000000c0: 03f6 dfba 5b02 b93b 035b f1ba dfcf 56bb
000000d0: b7e6 37ba 2309 29bb 8f65 973a 4e1d 17bb
000000e0: 5201 ad39 b04e f43a a8ad 97ba 0157 8d3a
000000f0: 3ad4 c6ba d539 12bb dc46 f539 6b31 953a
00000100: 4cee 1a3a cc2e 6aba 3081 7cba 3659 2d3a
00000110: 27fe d5ba 7e94 873a 3cae c03a d912 18bb
00000120: e258 0c3a afe9 f3ba d720 0aba 38c0 83b8
00000130: 1ea1 1239 10f4 90b9 a438 ecb9 e369 78ba
00000140: f1d1 a43a 65c7 edba ee75 8f3a 8189 b3ba
00000150: 8825 8dba ff69 813a 2204 e1b9 f85f 0b3a
00000160: 2eff 16ba 9a7d e737 57af f939 d392 f239
00000170: 5376 d0ba fc57 a238 6942 98ba f501 deba
00000180: aaa2 213b 98f9 6a3a 80ac 70bb 7079 22b9
00000190: a58f a1ba a580 8939 1b33 973a 2479 66ba
000001a0: 365d 0abb 2520 43ba 59cf 9e3a 88e3 343b
000001b0: c7cf 82ba 1c5c fc3a 2852 88ba 562f 8e39
000001c0: 92d8 98bb e49a 8e3a 1756 83b9 d277 80bb
000001d0: aa2f 5eb9 aa7b 593a 3db7 05ba bef3 1f39
000001e0: 346e 06bb b6f4 61ba df7e 1dba fa5f 0838
000001f0: e480 9bb9 ea83 ce3a 5fdd b43a 9877 f2ba

action_model._continuous_distribution.mu.weight f4 [1, 128]
-0.017599154 0.022421507 -0.00045517745 0.0041437782 -0.017416064 -0.0042823507 0.014716353 0.010380328
-0.03010585 -0.014662229 -0.017252676 0.01968044 0.0052817543 -0.037982892 0.026991125 -0.012448231
0.054633465 -0.031438645 0.0079746805 0.007492901 -0.013585199 0.007419568 -0.023794001 0.03271717
-0.00791044 -0.022717664 0.037821442 -0.01346833 -0.022155996 -0.0100949295 -0.02013362 0.0022773868
0.039987918 0.00883565 0.005491373 0.011779873 -0.035510715 -0.028283633 -0.017215898 -0.0131418705
0.027023394 -0.012586595 -0.036069617 0.025677495 -0.015040046 0.0047413185 -0.04122164 0.018593881
-0.003337104 -0.026877848 -0.0075905933 0.02472032 -0.038399894 -0.0018882987 0.009625645 0.0002512375
-0.014055271 -0.01902135 0.025037345 -0.0039772857 0.0028633662 -0.005130939 0.0066979495 0.01865629
0.012545582 -0.022520447 -0.008224956 0.018597199 0.0026163536 0.0069613196 -0.019620132 0.00013877892
0.016576633 -0.012795473 -0.011296648 0.0062719095 -0.0038297474 -0.039144043 -0.002200049 0.0024051717
-0.01544514 0.042397626 0.0060527464 -0.008066525 0.001932241 -0.005313424 -0.025623292 0.008666237
-0.030708462 -0.0148518495 0.031961024 0.02711299 0.0012700412 0.009808338 0.011200439 -0.008986324
0.015802627 0.014582815 -0.0030618221 0.020995393 -0.015252896 0.0030190405 0.015896246 0.018869806
-0.0010505498 -0.000860675 0.035743855 0.0032749611 -0.029720014 0.0087871505 -0.010717094 -0.009589672
-7.690861e-05 0.012089638 0.0077689597 0.0034632618 -0.021901684 0.015767159 0.0012273943 -0.023201501
-0.0063152625 -0.017714515 -0.011359165 0.02279901 -0.020403849 -0.0025449132 -0.019041691 -0.0060602906
00000000: 1a2c 90bc 4fad b73c e2a4 eeb9 88c8 873b
00000010: 22ac 8ebc f652 8cbb dc1c 713c 4012 2a3c
00000020: 8ba0 f6bc d939 70bc 7c55 8dbc e038 a13c
00000030: 9112 ad3b f393 1bbd 7e1c dd3c aaf3 4bbc
00000040: 57c7 5f3d cfc5 00bd 3ca8 023c 0287 f53b
00000050: 7494 5ebc d91f f33b a3eb c2bc 7002 063d
00000060: ca9a 01bc 651a babc a8ea 1a3d 45aa 5cbc
00000070: 7e80 b5bc 3465 25bc 43ef a4bc 3640 153b
00000080: 5fca 233d 67c3 103c faf0 b33b 5e00 413c
00000090: af73 11bd 14b3 e7bc 5b08 8dbc 0051 57bc
000000a0: 2a60 dd3c 0138 4ebc bcbd 13bd 9c59 d23c
000000b0: 866a 76bc 105d 9b3b 06d8 28bd 3252 983c
000000c0: 51b3 5abb ef2e dcbc 83ba f8bb 4582 ca3c
000000d0: 3549 1dbd ca80 f7ba e2b4 1d3c 87b8 8339
000000e0: 1448 66bc aad2 9bbc 1e1b cd3c e453 82bb
000000f0: 50a7 3b3b 7021 a8bb 797a db3b 13d5 983c
00000100: fc8b 4d3c cd7c b8bc f7c1 06bc 2759 983c
00000110: 2177 2b3b c81b e43b 66ba a0bc 2f85 1139
00000120: b8cb 873c 1ba4 51bc 9315 39bc 9784 cd3b
00000130: 80fc 7abb 8155 20bd b32e 10bb 16a0 1d3b
00000140: 9d0d 7dbc 22a9 2d3d 1e56 c63b 7529 04bc
00000150: 4043 fd3a 3b1c aebb f0e7 d1bc d5fc 0d3c
00000160: 5090 fbbc 2c55 73bc 90e9 023d 101c de3c
00000170: 8377 a63a 27b3 203c 0c82 373c 603b 13bc
00000180: 8374 813c c2ec 6e3c daa8 48bb 88fe ab3c
00000190: 48e7 79bc 18db 453b d838 823c da94 9a3c
000001a0: 9ab2 89ba ec9e 61ba 2668 123d bba0 563b
000001b0: 6377 f3bc fbf7 0f3c c096 2fbc 001e 1dbc
000001c0: ff49 a1b8 9e13 463c c292 fe3b e4f7 623b
000001d0: 296b b3bc 212a 813c 85e0 a03a 1311 bebc
000001e0: 43f0 cebb 081e 91bc cb1b 3abc fdc4 ba3c
000001f0: f925 a7bc 8fc8 26bb 52fd 9bbc 6795 c6bb

action_model._discrete_distribution.branches.0.weight f4 [3, 128]
0.003946038 -0.02353371 -0.0060147042 0.0077834087 0.013968534 0.004088312 -0.015134164 -0.004090877
-0.00957988 0.00022299042 0.0004707439 -0.003453386 -0.012739617 0.0033845424 0.002983032 -0.018571552
-0.004685059 -0.008082422 -0.0016912242 0.005110635 -0.013856087 -0.0078060348 -0.0032982277 -0.0077314903
0.02759315 0.003077215 -0.0012234497 0.008524169 0.0050840154 -0.0073665357 -0.0028283014 0.0019488304
-0.015899457 3.824338e-05 0.0059694694 0.0028801693 -0.003846874 -0.002484034 -0.0028863654 0.019245232
0.00073393935 -0.00079181854 -0.0016921049 -0.0036119795 -0.0064375754 -0.012770284 0.024090664 -0.018408
0.0029731852 -0.0014035162 -0.0046966984 -0.0056342315 0.006231001 -0.0020404127 0.00042247068 -0.0068246806
-0.015594907 0.005554246 0.005558431 0.0014742048 -0.00505199 -0.007518885 0.0035690635 0.00081753504
-0.00093547703 0.0062450212 0.003321634 0.0029189363 -0.008729318 0.0010960263 0.0037699135 -0.01695087
-0.009173254 0.00011271734 -0.00037272653 0.0044498895 0.0057493346 0.0061955797 0.005749359 0.00084941793
-0.02137732 -0.015359774 -0.0055221813 -0.007913626 -0.0039778403 0.011632197 0.018010337 -0.0049508098
-0.0018920463 -0.014877614 0.0037541646 -0.0042231022 -0.013474841 -0.0026045886 -0.005443605 -0.007954342
-0.01673746 -0.0072706547 -0.0078197075 0.0034662243 -0.008831295 0.0066164704 0.011542996 0.0011925187
0.0010710768 -0.01284029 0.00015262201 0.0071297316 0.01885868 -0.00052348315 0.013923771 0.008299444
0.012504219 -0.00043611493 -0.005241595 0.0005328024 -0.006106237 0.00083830033 0.009180175 0.017368753
0.009830411 0.0058829365 0.014224038 -0.016635526 -0.0075981393 0.00746564 0.006136237 -0.011888726
0.0004865278 -0.0015048896 -0.006046037 -0.0013431341 0.0043556686 -0.010840847 -0.0077275634 0.010583065
0.0062404824 0.002847995 0.00041398182 -0.0106601855 -0.0042811558 0.004967304 -0.0011474806 -0.0011109415
0.0003884107 -0.015269216 -0.00831808 -0.0053782566 -0.0070558162 -0.017184315 -0.0052353106 0.0065970686
-0.0035582192 0.001611578 -0.009209265 0.004570442 -0.0026750104 -0.013807223 -0.004138105 -0.003506607
0.0049795182 -0.0077150445 -0.0037607139 0.0061442163 -0.0060901823 -0.0043568537 0.019272141 -0.011055154
0.006792506 -0.0025887322 0.011884365 0.010633004 -0.008810964 0.013265347 -0.0025487572 0.00042610877
0.006641895 0.00062011654 -0.007898246 -0.012848378 0.011678473 -0.006102201 0.013646699 -0.017088016
0.016868727 0.0021004863 -0.0050341655 0.007912307 -0.007927697 -0.0031632446 0.0075042336 -0.0008464094
0.013227944 0.012608369 -0.0007907733 -0.0075837895 -0.0135687245 -0.013621438 0.01125707 -0.002125006
-0.020279497 -0.0012984424 0.011269806 0.00095915573 -0.00016543045 -0.0016712415 -0.016698051 0.014899817
0.013052024 -0.0035270753 0.0021992512 0.0025957266 0.003306628 -0.01342158 -0.015665274 0.011777478
0.0032397548 0.016641054 0.01307624 -0.004360534 0.00995086 0.003907576 0.0009586663 0.004788696
-0.011840025 -0.0016255128 -0.008073233 -0.01017813 -0.005199761 0.004203 0.0012780922 0.0023360823
-0.0005699744 0.0021234967 -0.009190231 0.003596407 -0.0085978415 -0.011006051 0.004272607 0.0004906449
0.010410333 -0.00657071 0.0019536118 -0.010591549 0.0016311748 0.0020075208 -0.0065148263 -0.0041663363
-0.0010893915 0.0041114073 -0.006885725 -0.0039021738 0.0032627666 -0.0047701034 0.013124222 0.0020613936
00000000: c44d 813b c4c9 c0bc ff16 c5bb f70b ff3b
00000010: 47dc 643c 3ff7 853b 49f5 77bc c30c 86bb
00000020: eef4 1cbc 89d2 6939 2dce f639 3452 62bb
00000030: d4b9 50bc 33cf 5d3b f97e 433b 5e23 98bc
00000040: 2085 99bb 236c 04bc 11ac ddba 1d77 a73b
00000050: a404 63bc c4c9 ffbb 1427 58bb 7158 fdbb
00000060: 080b e23c 1aab 493b 295c a0ba f5a8 0b3c
00000070: d097 a63b fb62 f1bb 065b 39bb e66f ff3a
00000080: 943f 82bc 8467 2038 8a9b c33b 39c1 3c3b
00000090: d61b 7cbb 2dcb 22bb 2d29 3dbb 2da8 9d3c
000000a0: d665 403a 0b92 4fba 9ec9 ddba f6b6 6cbb
000000b0: 4cf2 d2bb 743a 51bc c959 c53c 60cc 96bc
000000c0: c5d9 423b 30f6 b7ba c3e6 99bb 5c9f b8bb
000000d0: 6d2d cc3b 72b8 05bb 0e7f dd39 92a1 dfbb
000000e0: c881 7fbc 6400 b63b 8023 b63b 1b3a c13a
000000f0: 2a8b a5bb fb60 f6bb f3e6 693b d94f 563a
00000100: cd3a 75ba 09a3 cc3b c5af 593b a04b 3f3b
00000110: 6a05 0fbc 8aa8 8f3a a710 773b 8ddc 8abc
00000120: 6a4b 16bc a962 ec38 826a c3b9 61d0 913b
00000130: ea64 bc3b 4a04 cb3b 1e65 bc3b 79ab 5e3a
00000140: 7d1f afbc 90a7 7bbc 6af3 b4bb 27a8 01bc
00000150: 8b58 82bb f894 3e3c 6a8a 933c 673a a2bb
00000160: 8afe f7ba 3cc1 73bc 6e08 763b f361 8abb
00000170: 94c5 5cbc bfb1 2abb 4560 b2bb ee52 02bc
00000180: ff1c 89bc ac3e eebb 3b1e 00bc 9829 633b
00000190: 23b1 10bc face d83b d61e 3d3c 4a4e 9c3a
000001a0: 6063 8c3a 1460 52bc 2909 2039 86a0 e93b
000001b0: 857d 9a3c 5c3a 09ba 8720 643c 64fa 073c
000001c0: 7fde 4c3c 5ba6 e4b9 b0c1 abbb c4ab 0b3a
000001d0: d416 c8bb 62c1 5b3a 7268 163c ea48 8e3c
000001e0: bb0f 213c a6c5 c03b f10b 693c 3a47 88bc
000001f0: d0f9 f8bb 54a2 f43b 7d12 c93b eec8 42bc
00000200: a814 ff39 b73f c5ba d61d c6bb 1a0c b0ba
00000210: ffb9 8e3b cf9d 31bc 8037 fdbb 9864 2d3c
00000220: f67c cc3b 6da5 3a3b b30b d939 0fa8 2ebc
00000230: f048 8cbb c4c4 a23b 0f67 96ba 039d 91ba
00000240: 9aa3 cb39 bc2b 7abc 8e48 08bc 163c b0bb
00000250: 7a34 e7bb 1fc6 8cbc f88c abbb 392c d83b
00000260: 0331 69bb 963b d33a 75e2 16bc a5c3 953b
00000270: 3a4f 2fbb b137 62bc f198 87bb 1acf 65bb
00000280: 3a2b a33b 7cce fcbb 4f76 76bb 6c55 c93b
00000290: 2790 c7bb f0c3 8ebb 9ce0 9d3c ad20 35bc
000002a0: ac93 de3b b8a7 29bb a4b6 423c 0d36 2e3c
000002b0: dd5b 10bc e656 593c 0d09 27bb 5a67 df39
000002c0: 41a4 d93b 518f 223a a567 01bc 0182 52bc
000002d0: 1157 3f3c f9f4 c7bb 6796 5f3c 2bfc 8bbc
000002e0: 4930 8a3c 50a8 093b a4f5 a4bb 9fa2 013c
000002f0: 2ce3 01bc 704e 4fbb 13e6 f53b 93e1 5dba
00000300: 05ba 583c 5593 4e3c e64b 4fba 7081 f8bb
00000310: 5b4f 5ebc 742c 5fbc 936f 383c af43 0bbb
00000320: 3021 a6bc 7f30 aaba fea4 383c da6f 7b3a
00000330: 6677 2db9 8f0d dbba 5aca 88bc 5d1e 743c
00000340: 28d8 553c 8126 67bb 5021 103b 111d 2a3b
00000350: 03b4 583b 30e6 5bbc 7654 80bc 53f6 403c
00000360: 1152 543b d252 883c ba3d 563c cfe2 8ebb
00000370: ef08 233c 200b 803b 024f 7b3a 7eea 9c3b
00000380: aafc 41bc 290f d5ba 9845 04bc 2cc2 26bc
00000390: c262 aabb 52b9 893b a885 a73a f518 193b
000003a0: 566a 15ba 5d2a 0b3b 9f92 16bc b2b1 6b3b
000003b0: f6dd 0cbc b952 34bc 3a01 8c3b 9f9e 003a
000003c0: 1a90 2a3c 1c4f d7bb 2b08 003b 2d88 2dbc
000003d0: 25cd d53a 9c90 033b 537a d5bb c385 88bb
000003e0: eac9 8eba fcb8 863b a6a1 e1bb 9dbb 7fbb
000003f0: 24d4 553b 874e 9cbb fa06 573c 7218 073b

action_model._discrete_distribution.branches.0.bias f4 [3]
0.0012551416 0.0006057635 -0.0016164164
00000000: 9083 a43a 1acc 1e3a efdd d3ba

exp_avg f4 [128, 10]
-0.004949657 0.00011666048 2.6143534e-05 -0.0002103535 7.8579804e-05 -0.00066897675 -0.0005989326 7.060007e-06
-0.00014448445 -0.00059998775 -0.010503043 -0.00010885511 -0.00018931212 -0.00082335796 -0.0004987816 -0.0011847315
-0.002052602 -0.000911883 -0.0007957123 -0.0017171816 0.00021397154 4.5721732e-05 5.327802e-06 6.0144514e-05
9.351356e-05 -0.00013878378 0.00015513977 -4.930701e-05 -6.411577e-05 -2.7538554e-05 0.0017137883 8.38319e-05
5.6502668e-06 0.000106737076 5.7509533e-06 7.6325305e-05 3.680699e-05 -2.0763553e-05 0.00015730552 0.00019887931
-2.6525586e-05 1.3706807e-05 2.7214628e-05 -1.8072466e-05 -4.023691e-05 -6.425108e-05 2.0305553e-05 -3.250857e-05
6.7117944e-05 -1.46654975e-05 0.00022345863 9.992484e-06 9.925113e-06 -1.5209032e-05 1.2911851e-06 -2.7683855e-05
4.332389e-05 2.584549e-05 8.91128e-06 3.8558257e-05 -1.5606576e-05 -5.3585834e-05 3.5543468e-05 -2.2511018e-05
-4.590293e-05 -6.0885468e-05 -6.9019035e-05 -6.882635e-05 6.172061e-05 -0.0001336318 0.0029514423 -0.00071810605
-0.0004462734 8.166848e-05 -0.0008837612 0.00038560096 0.00020466361 -0.0012559455 0.00026435207 0.00022613286
-0.0007980644 0.0005642716 -0.000105953135 0.00027388553 0.00033038208 -0.00025969284 -0.00028269953 0.00036365804
-0.00023178436 0.00016082005 -0.0044687567 -0.0004900491 0.0004557855 -0.00039895996 -0.00047573075 0.00045908787
-0.0003386284 -0.00046190683 0.00045793073 -0.00033815985 -0.015825715 -0.00051954226 6.177448e-05 -0.0013657149
-0.00063441193 -0.0010334604 -0.002328793 -0.0011336183 -0.00044614906 -0.0019313514 1.2342081e-06 1.0506666e-05
4.5245583e-06 1.3181595e-05 8.870065e-06 -2.5234413e-06 1.0894703e-05 1.7461962e-05 1.8633913e-05 2.7572181e-05
0.004381995 0.00011547052 0.00026287898 0.000285185 0.00012429859 0.00025157226 0.0002639838 0.00024534902
0.00018390574 0.00035336943 0.0020582946 7.371916e-05 5.807243e-05 0.00036034262 -0.00014438399 -0.00013740484
-0.0002000645 0.0007719005 0.0005962038 0.00056161825 -0.0021291792 -3.9194594e-05 -8.891584e-05 -0.00024841033
8.2883314e-05 -0.00019548321 -0.00033282253 -0.00024384193 -0.00018574962 -0.00031762588 -0.00022970968 -4.7896214e-05
0.00013950696 -5.0565217e-05 -0.00021296418 -0.00013069414 -0.00010391454 -0.00036237 0.00049440033 -0.0004219037
0.005254056 0.0002533546 6.7745365e-05 0.0005950567 0.0007430986 0.00055537093 0.0013777253 0.00092891516
0.00074617035 0.0015378847 0.00038168818 4.3714022e-05 -9.886693e-06 0.00013429773 8.291754e-05 0.00015761224
7.652955e-05 0.00014743424 -3.3105563e-05 7.6241275e-05 -0.0065746186 -0.000110906294 0.00045635467 -0.00023283157
-0.0005928406 -0.00036135537 -0.000878088 -0.0011072737 0.00047372532 -0.0011047919 -1.8443227e-05 1.3326935e-05
1.4276991e-05 2.961568e-05 1.6243284e-05 -1.4805017e-06 5.2334453e-06 3.0534535e-05 3.4223758e-05 5.409947e-05
-0.00048772804 0.000636713 -0.00014561215 -0.00015263351 0.00015655634 -0.0005048341 -0.0011966177 -0.0010378533
-0.00036048272 -0.0013094776 0.004459242 -0.0002099664 0.00033824993 -0.00022922095 0.00017181553 0.00065645046
-0.00014590769 -0.00019206498 -0.00017928737 -0.0005228572 0.008915082 0.00077092694 -2.6301368e-06 0.0010519776
0.0010636196 0.00040469348 0.0013805019 0.00172052 0.0007469492 0.0012114099 0.00049641746 2.6308877e-05
-5.2918567e-05 0.00029746906 0.00026202132 0.00019574318 0.0007637098 0.0005498531 4.4207874e-05 0.00057153305
2.1048038e-05 1.6650914e-05 -1.1248597e-05 4.333577e-05 1.2827816e-05 -2.5815974e-05 -1.807422e-05 6.700453e-05
2.4277886e-05 3.6159858e-05 0.0009700596 0.00027890565 -8.461749e-05 0.00028658824 0.00031864448 1.06020525e-05
00000000: bb30 a2bb 9ea7 f438 d04e db37 5692 5cb9
00000010: 36cb a438 455e 2fba b001 1dba 00e5 ec36
00000020: c080 17b9 7f48 1dba f514 2cbc 2449 e4b8
00000030: 1682 46b9 9ed6 57ba abc0 02ba fe48 9bba
00000040: f284 06bb 6f0b 6fba 5997 50ba 0e13 e1ba
00000050: 8c5d 6039 56c5 3f38 78c5 b236 ae43 7c38
00000060: b61c c438 7d86 11b9 04ad 2239 00cf 4eb8
00000070: e475 86b8 9802 e7b7 31a1 e03a e9ce af38
00000080: 6c97 bd36 08d8 df38 50f8 c036 d610 a038
00000090: 3461 1a38 642d aeb7 61f2 2439 428a 5039
000000a0: 4383 deb7 4af6 6537 f84a e437 539a 97b7
000000b0: 0ec4 28b8 89be 86b8 d855 aa37 d059 08b8
000000c0: acc1 8c38 d50b 76b7 3850 6a39 64a5 2737
000000d0: 0984 2637 4c2a 7fb7 c84c ad35 a03a e8b7
000000e0: acb6 3538 c4ce d837 a881 1537 9db9 2138
000000f0: deea 82b7 5ac1 60b8 8214 1538 0bd6 bcb7
00000100: e587 40b8 465f 7fb8 50be 90b8 de56 90b8
00000110: 0070 8138 831f 0cb9 fc6c 413b 483f 3cba
00000120: cdf9 e9b9 6e45 ab38 36ac 67ba 7c2a ca39
00000130: f89a 5639 8a9e a4ba bc98 8a39 141e 6d39
00000140: 3235 51ba a0eb 133a 2833 deb8 4b98 8f39
00000150: 2237 ad39 6227 88b9 4a37 94b9 5ba9 be39
00000160: 240b 73b9 cea1 2839 a66e 92bb a376 00ba
00000170: 7ff6 ee39 802b d1b9 806b f9b9 bbb1 f039
00000180: ef89 b1b9 162c f2b9 6c16 f039 0c4b b1b9
00000190: eea4 81bc e431 08ba ec8c 8138 ca01 b3ba
000001a0: aa4e 26ba 2d75 87ba aa9e 18bb eb95 94ba
000001b0: 1de9 e9b9 6625 fdba 11a7 a535 c945 3037
000001c0: a9d1 9736 8526 5d37 a4d0 1437 6458 29b6
000001d0: 65c8 3637 477b 9237 0650 9c37 cf4a e737
000001e0: d796 8f3b c328 f238 05d3 8939 e284 9539
000001f0: 2656 0239 75e5 8339 4e67 8a39 30a2 8039
00000200: d2d6 4039 7144 b939 74e4 063b ac99 9a38
00000210: cc92 7338 5eec bc39 c865 17b9 5514 10b9
00000220: 68c8 51b9 5e59 4a3a 8f4a 1c3a 9039 133a
00000230: b389 0bbb e064 24b8 5478 bab8 123d 82b9
00000240: a4d1 ad38 a0fa 4cb9 af7e aeb9 d2af 7fb9
00000250: c9c5 42b9 0687 a6b9 39de 70b9 2be4 48b8
00000260: 9d48 1239 fd15 54b8 234f 5fb9 f10a 09b9
00000270: b2ec d9b8 7afc bdb9 a59a 013a f532 ddb9
00000280: 372a ac3b aed4 8439 8412 8e38 94fd 1b3a
00000290: 81cc 423a 5096 113a ca94 b43a 7182 733a
000002a0: a59a 433a d992 c93a 521d c839 9359 3738
000002b0: 06df 25b7 46d2 0c39 04e4 ad38 b744 2539
000002c0: 7d7e a038 9498 1a39 d4da 0ab8 b9e3 9f38
000002d0: e66f d7bb 5d96 e8b8 e342 ef39 4024 74b9
000002e0: dc68 1bba 4c74 bdb9 7d2f 66ba f121 91ba
000002f0: 565e f839 aace 90ba 87b6 9ab7 c096 5f37
00000300: 3687 6f37 306f f837 3042 8837 a7b5 c6b5
00000310: f49a af36 3512 0038 7b8b 0f38 dde8 6238
00000320: c0b5 ffb9 16e9 263a 77af 18b9 3f0c 20b9
00000330: 4629 2439 d856 04ba d4d7 9cba 9408 88ba
00000340: 2cff bcb9 c7a2 abba d51e 923b 6d2a 5cb9
00000350: 2357 b139 085b 70b9 6129 3439 a515 2c3a
00000360: ccfe 18b9 0d65 49b9 16ff 3bb9 5a10 09ba
00000370: 9010 123c 0818 4a3a 6881 30b6 83e2 893a
00000380: 2769 8b3a 0a2d d439 f5f1 b43a 1283 e13a
00000390: eace 433a 2cc8 9e3a 0322 023a e2b1 dc37
000003a0: e1f4 5db8 9ff5 9b39 e85f 8939 6940 4d39
000003b0: b233 483a 0424 103a d86b 3938 efd2 153a
000003c0: 5190 b037 91ad 8b37 5bb8 3cb7 6ec3 3538
000003d0: 0d37 5737 628f d8b7 189e 97b7 c884 8c38
000003e0: 5da8 cb37 5aaa 1738 994b 7e3a 153a 9239
000003f0: ab74 b1b8 3941 9639 bd0f a739 78df 3137

exp_avg_sq f4 [128, 10]
4.8184804e-05 3.1242394e-07 3.1248044e-07 7.968175e-07 9.1533445e-07 4.095686e-07 6.5996267e-07 1.89884e-06
3.703828e-07 8.545602e-07 7.2799645e-05 1.1798239e-06 7.5519904e-07 2.1969827e-06 3.033428e-06 1.0646079e-06
2.1182022e-06 5.709955e-06 9.034255e-07 2.4993838e-06 2.315607e-07 3.9340513e-08 6.9280004e-09 4.0334214e-08
1.1361948e-07 7.576972e-09 1.2752417e-07 5.3135786e-08 1.4130711e-07 1.5677715e-07 2.1820938e-06 9.64156e-09
1.6093656e-08 2.234459e-08 3.484062e-08 1.3314364e-08 2.560842e-08 7.588525e-08 3.724719e-08 5.431858e-08
3.4323917e-09 1.1074125e-09 5.44382e-10 1.1376219e-09 1.8426808e-09 9.059655e-10 2.9006721e-09 8.166284e-09
3.7721892e-09 1.163183e-08 5.880891e-08 1.9826511e-10 2.6147032e-10 5.2684357e-10 4.5916485e-10 2.8758337e-10
6.3775935e-10 2.1535809e-09 4.828725e-10 2.3511617e-09 4.547766e-09 4.5338187e-09 5.6802785e-10 1.8835478e-09
7.1177357e-09 3.5883994e-09 2.0134578e-08 1.4355602e-08 4.9604396e-09 3.167518e-08 5.402882e-05 1.0167513e-06
7.411365e-07 1.5827428e-06 2.9974497e-06 1.0655076e-06 1.688334e-06 5.252545e-06 8.5401314e-07 1.7112224e-06
1.1208565e-05 1.8446683e-07 7.850023e-08 3.6003098e-07 5.500053e-07 9.359196e-08 3.3613094e-07 1.0764671e-06
1.2587105e-07 4.4335042e-07 5.181456e-06 6.687083e-08 6.301812e-08 4.347297e-08 6.588672e-08 6.553886e-08
4.180823e-08 6.903381e-08 6.1088635e-08 4.1991573e-08 0.00012957586 1.2895254e-06 9.061909e-07 2.4429207e-06
2.304015e-06 1.305275e-06 2.3525022e-06 5.4765055e-06 1.0042785e-06 2.5414222e-06 4.5476796e-11 3.137967e-11
7.829449e-12 4.8877995e-11 2.2552593e-11 2.7399747e-11 2.7659883e-11 7.965237e-11 1.2333386e-10 1.6540452e-10
1.6134709e-05 2.5835357e-08 8.2187e-08 8.748262e-08 3.3061646e-08 8.762746e-08 9.075754e-08 6.411912e-08
8.3888736e-08 9.340136e-08 3.2349426e-06 1.0436037e-07 4.1065913e-08 2.6314822e-07 1.3301292e-07 7.5125506e-08
2.4114564e-07 5.6425915e-07 1.5945113e-07 3.8932745e-07 5.2082637e-06 1.2557615e-07 3.4024847e-08 2.1069785e-07
3.4807326e-07 6.99853e-08 3.0481118e-07 7.762683e-07 7.8468865e-08 3.4144836e-07 5.6667265e-08 1.6283854e-08
1.4729905e-08 1.7172992e-08 4.7775742e-08 1.45235495e-08 5.5065858e-08 2.1969721e-07 8.637428e-08 1.9609922e-07
1.5301137e-05 3.9385708e-07 2.2129397e-07 4.3164178e-07 1.0225533e-06 3.0396345e-07 4.9143966e-07 1.3027685e-06
3.6110623e-07 5.049104e-07 1.3342415e-07 2.473729e-09 3.6721741e-09 8.394902e-09 5.9265632e-09 4.62034e-09
6.638407e-09 1.5737116e-08 8.170531e-09 1.4187552e-08 1.0940254e-05 1.1403148e-07 7.46232e-08 1.6389937e-07
2.3921993e-07 6.33533e-08 2.3801577e-07 5.8838987e-07 2.3345282e-07 4.671371e-07 5.70593e-10 3.2504988e-10
2.4909785e-10 1.2691053e-09 6.29142e-10 4.551507e-11 2.2123858e-10 1.154351e-09 2.9176488e-09 2.4296478e-09
1.3034282e-05 4.8280214e-07 2.437183e-07 9.1096456e-07 1.3195721e-06 3.5158405e-07 1.1394819e-06 3.6609945e-06
4.121028e-07 1.974393e-06 8.4896354e-05 1.287009e-07 2.54632e-07 3.8968074e-07 1.1434342e-06 4.3242338e-07
3.516813e-07 1.2941194e-06 3.5018635e-07 3.4509492e-07 1.42487825e-05 1.0254294e-07 1.0507063e-07 2.7215873e-07
2.1160452e-07 1.0976295e-07 2.8670382e-07 5.9579776e-07 1.5653963e-07 3.4632907e-07 4.4354656e-06 1.6340383e-07
9.351448e-08 3.0701634e-07 4.915375e-07 1.01154065e-07 3.4855904e-07 1.0106952e-06 1.6793621e-07 4.1549524e-07
3.0927871e-09 3.8423056e-09 3.1205344e-10 1.7880271e-09 1.6359316e-08 6.5775136e-09 2.840586e-08 6.19512e-08
1.3092869e-08 3.090326e-08 1.4903443e-07 2.8211213e-08 3.3151712e-09 1.6145904e-08 3.7125137e-08 4.6985207e-09
00000000: 0a1a 4a38 38bb a734 fcc2 a734 e2e4 5535
00000010: 4eb5 7535 aee2 db34 4a28 3135 a5db fe35
00000020: 06d9 c634 ee64 6535 03ac 9838 715a 9e35
00000030: e2b8 4a35 e06f 1336 e591 4b36 a6e3 8e35
00000040: 7026 0e36 2498 bf36 ed82 7235 16bb 2736
00000050: eca2 7834 5af7 2833 560b ee31 f03b 2d33
00000060: f8fe f333 e02b 0232 94ed 0834 6a37 6433
00000070: 34ba 1734 9356 2834 1670 1236 08a4 2532
00000080: 533e 8a32 46f0 bf32 aba3 1533 31bd 6432
00000090: 83f9 db32 5bf6 a233 b8f9 1f33 e94b 6933
000000a0: 46df 6b31 9d33 9830 7aa3 1530 835a 9c30
000000b0: 9141 fd30 a807 7930 2a55 4731 b24b 0c32
000000c0: 879c 8131 54d5 4732 1595 7c33 abfe 592f
000000d0: adbe 8f2f 52d1 1030 b56d fc2f c319 9e2f
000000e0: 534e 2f30 32fe 1331 22bb 0430 1392 2131
000000f0: 9342 9c31 e4c7 9b31 6823 1c30 b96f 0131
00000100: 4490 f431 ca97 7631 68f4 ac32 9ba0 7632
00000110: 7d70 aa31 3b0b 0833 019d 6238 4f77 8835
00000120: 83f2 4635 a16e d435 cb27 4936 9002 8f35
00000130: b79a e235 053f b036 563f 6535 27ad e535
00000140: 6c0c 3c37 db11 4634 f593 a833 484a c134
00000150: 14a4 1335 b9fc c833 7c75 b434 217b 9035
00000160: 2c27 0734 9e05 ee34 5edc ad36 a19a 8f33
00000170: 9454 8733 09b7 3a33 9b7d 8d33 5fbe 8c33
00000180: a390 3333 bd3f 9433 d52f 8333 395a 3433
00000190: c1de 0739 c113 ad35 f740 7335 0ff1 2336
000001a0: ad9e 1a36 e830 af35 aedf 1d36 d3c2 b736
000001b0: bfca 8635 4d8d 2a36 5202 482e 5e02 0a2e
000001c0: b4bc 092d bbf7 562e ed5f c62d bf02 f12d
000001d0: 854c f32d 4c28 af2e 659b 072f 3cdd 352f
000001e0: 0659 8737 8dec dd32 c87e b033 14de bb33
000001f0: aaff 0d33 b52d bc33 7ce6 c233 dcb1 8933
00000200: 5226 b433 f193 c833 e417 5936 b81c e033
00000210: 7360 3033 d146 8d34 50d2 0e34 af54 a133
00000220: ce76 8134 9877 1735 9835 2b34 c204 d134
00000230: a5c2 ae36 1cd6 0634 b722 1233 2f3c 6234
00000240: d3de ba34 d34a 9633 eea4 a334 c060 5035
00000250: b782 a833 4e50 b734 5162 7333 93e0 8b32
00000260: cf0e 7d32 cf83 9332 fc31 4d33 3f83 7932
00000270: 8d81 6c33 e9e5 6b34 c37c b933 588f 5234
00000280: f15a 8037 4e73 d334 d39c 6d34 65bc e734
00000290: aa3e 8935 6b30 a334 7aeb 0335 c9da ae35
000002a0: 10de c134 2e89 0735 5a43 0f34 4dfe 2931
000002b0: 9259 7c31 2b39 1032 9aa2 cb31 f1c0 9e31
000002c0: 0c18 e431 492e 8732 605e 0c32 83bd 7332
000002d0: 088c 3737 78e1 f433 8a40 a033 51fc 2f34
000002e0: 236e 8034 d80c 8833 4791 7f34 d8f1 1d35
000002f0: 06ab 7a34 d6ca fa34 ead7 1c30 b4b2 b22f
00000300: 68f1 882f ac6c ae30 efef 2c30 6a2d 482e
00000310: 2041 732f 1da7 9e30 d27f 4831 d1f6 2631
00000320: d1ad 5a37 e999 0135 63d8 8234 0289 7435
00000330: 271c b135 58c1 bc34 4df0 9835 68af 7536
00000340: fa3e dd34 d07f 0436 620a b238 0931 0a34
00000350: 5bb4 8834 5035 d134 1a78 9935 d127 e834
00000360: b6ce bc34 9bb1 ad35 3f01 bc34 7c45 b934
00000370: 0e0e 6f37 9435 dc33 31a3 e133 361d 9234
00000380: 6835 6334 d2b6 eb33 46ec 9934 e9ee 1f35
00000390: 4915 2834 1bef b934 5cd4 9436 1a74 2f34
000003a0: 21d2 c833 01d4 a434 33f2 0335 093a d933
000003b0: 9721 bb34 39a7 8735 f451 3434 3b11 df34
000003c0: e388 5431 4705 8431 9e8d ab2f 9cbe f530
000003d0: 8486 8c32 6c00 e231 2601 f432 080a 8533
000003e0: 0cef 6032 7eba 0433 4606 2034 1d55 f232
000003f0: 1cd1 6331 38b1 8a32 8573 1f33 a070 a131

exp_avg f4 [128]
-0.00026694173 -0.00054490304 -5.0906347e-06 0.000103529 -7.100771e-07 1.3229667e-05 -2.5838002e-05 0.00014778427
7.1591853e-06 -0.00021861446 -0.0008128863 5.3076105e-06 0.00022585281 0.00015630852 -0.0001389783 -7.7859375e-05
0.00042115265 2.8421893e-05 -0.00039936148 9.310597e-06 -0.00018122162 0.00016351153 0.0004507327 6.393957e-05
7.644151e-06 5.995663e-05 0.00023025327 -0.000122033394 -4.8105612e-05 5.276226e-05 -1.118758e-05 0.00023923424
-5.6849067e-06 2.6899943e-05 0.0005160397 -3.3739034e-06 0.00012979147 -8.6873944e-05 -7.610128e-05 -1.7833836e-05
-0.00011418917 0.0009954459 0.0001346646 -0.00016457669 0.0001631222 -0.0002264925 -5.2507632e-05 2.3416804e-05
7.636437e-07 0.00016928036 0.00041826122 1.2188571e-05 0.00032787365 -1.4355649e-05 -9.809773e-05 -6.573742e-05
0.00032410087 5.542384e-05 0.00015257813 -6.815157e-06 -0.00019442942 -7.442271e-05 -1.4868084e-06 -0.00035320333
1.2000645e-06 -5.692415e-05 0.0005513624 -3.0829121e-06 -0.00010482988 0.00062030286 2.8903618e-05 4.3208405e-05
-3.987596e-06 -3.808415e-05 0.00034539666 -1.6450753e-05 0.00011358273 -7.22645e-05 -0.00020148793 0.00012651097
-0.0002577358 -5.1770574e-05 -4.6506408e-05 2.374919e-06 -9.1336806e-05 0.00025360938 -2.8196595e-05 -1.6231952e-05
-0.00043364134 -8.6447006e-05 -2.3751201e-05 -6.584778e-05 8.809581e-05 0.00011919882 -5.0042465e-05 4.0621988e-05
5.532689e-05 0.0004168436 0.0004854165 -9.343358e-05 -2.7894144e-05 -0.0004581028 -6.8937884e-06 2.194664e-05
-0.00017462873 -1.6810924e-05 0.00020749317 -0.00014449365 -8.617165e-05 -0.000100429184 0.00012770011 -2.3019984e-05
-0.00011921929 4.241461e-05 -0.0005596541 -2.3942334e-07 -7.56924e-05 -0.00034983412 -0.00018424132 0.00013769521
-8.7265515e-05 9.244024e-05 3.6376237e-05 -3.0655065e-07 -8.991477e-07 0.00023052821 -0.00017401324 1.6572456e-05
00000000: 50f4 8bb9 d3d7 0eba 38d0 aab6 b51d d938
00000010: 209c 3eb5 fdf4 5d37 b0be d8b7 8af6 1a39
00000020: ef38 f036 df3b 65b9 e017 55ba 0718 b236
00000030: e7d2 6c39 c0e6 2339 b4ba 11b9 6f48 a3b8
00000040: 27ce dc39 8d6b ee37 6461 d1b9 b634 1c37
00000050: 4f06 3eb9 4b74 2b39 5250 ec39 4c17 8638
00000060: 613f 0037 f179 7b38 2470 7139 2eec ffb8
00000070: 02c5 49b8 0c4d 5d38 4ab2 3bb7 f4da 7a39
00000080: fac0 beb6 30a7 e137 d746 073a 386b 62b6
00000090: a218 0839 1830 b6b8 9098 9fb8 df99 95b7
000000a0: d878 efb8 9f79 823a c134 0d39 3892 2cb9
000000b0: c80b 2b39 9e7e 6db9 a43b 5cb8 346f c437
000000c0: 32fd 4c35 da80 3139 124a db39 847d 4c37
000000d0: 75e6 ab39 0bd9 70b7 d1b9 cdb8 82dc 89b8
000000e0: 15ec a939 e576 6838 61fd 1f39 c1ad e4b6
000000f0: c0df 4bb9 6313 9cb8 598e c7b5 262e b9b9
00000100: e711 a135 d7c1 6eb8 4e89 103a 07e4 4eb6
00000110: 1dd8 dbb8 d29b 223a 0c76 f237 ac3a 3538
00000120: 30cd 85b6 8bbc 1fb8 5b16 b539 b9ff 89b7
00000130: 4433 ee38 b58c 97b8 8146 53b9 08a8 0439
00000140: b720 87b9 3b24 59b8 e00f 43b8 cc60 1f36
00000150: 138c bfb8 e0f6 8439 ba87 ecb7 da29 88b7
00000160: 5b5a e3b9 e24a b5b8 513d c7b7 c217 8ab8
00000170: 14c0 b838 61fa f938 b0e4 51b8 8761 2a38
00000180: cc0e 6838 cd8b da39 807f fe39 c5f1 c3b8
00000190: 38fe e9b7 842d f0b9 3151 e7b6 0d1a b837
000001a0: 8b1c 37b9 2f05 8db7 8692 5939 3883 17b9
000001b0: 0db7 b4b8 829d d2b8 3de7 0539 0a1b c1b7
000001c0: 5e05 fab8 57e6 3138 c0b5 12ba 188a 80b4
000001d0: 0cbd 9eb8 f169 b7b9 e730 41b9 4762 1039
000001e0: 5102 b7b8 7adc c138 b092 1838 0094 a4b4
000001f0: f65c 71b5 f2b9 7139 5377 36b9 1405 8b37

exp_avg_sq f4 [128]
1.302603e-07 2.1682996e-07 7.567438e-09 6.5088592e-09 5.064461e-10 2.5712715e-10 1.2953435e-09 1.4461627e-07
3.6553946e-08 1.3085431e-08 3.4816952e-07 7.83526e-12 4.1351093e-08 1.832844e-08 2.0953257e-08 7.9106e-09
4.4135263e-08 8.9559793e-10 4.3676344e-08 9.74132e-11 8.0823455e-08 2.16599e-07 3.8226585e-08 1.775659e-08
1.1929793e-09 1.787525e-09 9.575624e-08 1.5049666e-08 2.6136449e-09 2.8578915e-09 2.0901871e-09 1.992444e-08
6.792181e-11 6.248142e-08 3.5428207e-07 7.656088e-08 2.027598e-08 2.2264912e-07 1.9135875e-09 4.638465e-08
5.099342e-09 3.7282103e-07 6.15745e-08 2.1986711e-08 2.6557842e-08 4.186021e-08 7.0874066e-08 2.2755156e-08
1.333126e-10 2.1988486e-08 4.3548503e-08 2.0229209e-08 1.2260746e-07 6.71824e-10 2.049674e-08 1.6040803e-09
6.699048e-08 1.6829333e-08 1.6576914e-07 4.8946444e-11 9.2513694e-09 1.0988395e-08 5.039588e-12 6.5889616e-08
4.4499537e-10 9.057157e-09 1.4947057e-07 1.2819082e-11 1.4466609e-08 1.2739018e-07 3.945395e-09 5.208843e-08
7.121378e-09 3.2630652e-09 5.7171828e-08 2.8207783e-08 1.3712186e-08 6.826334e-08 6.652056e-08 4.9515435e-08
6.309077e-08 3.37971e-08 1.2615622e-07 6.7438273e-09 1.5389577e-07 2.0568194e-08 6.94063e-09 9.444174e-10
1.239163e-07 6.533849e-09 1.4323608e-09 5.2382334e-09 7.4273956e-08 1.6523735e-07 2.9209547e-08 1.9139503e-09
9.255339e-08 2.8847674e-08 7.874896e-08 2.3231473e-07 8.322104e-09 4.6967067e-08 1.5610305e-11 2.014044e-09
3.271902e-09 7.7688306e-08 7.573682e-08 1.1274509e-08 5.872819e-08 2.3646326e-07 7.417008e-09 8.3423775e-09
9.075571e-09 2.939835e-10 1.8835847e-07 1.5271148e-10 3.3585078e-08 5.960232e-08 1.589072e-08 9.35044e-08
2.4975328e-09 1.5832487e-07 1.0776666e-09 1.5010495e-07 5.318609e-12 2.8523964e-08 5.2985712e-08 2.0976105e-09
00000000: aedd 0b34 c4d1 6834 f201 0232 88a4 df31
00000010: fa35 0b30 6e5b 8d2f d907 b230 d147 1b34
00000020: 7dff 1c33 56ce 6032 0eec ba34 e0d6 092d
00000030: 029a 3133 aa70 9d32 b3fc b332 30e7 0732
00000040: 3c8f 3d33 1a2e 7630 a696 3b33 c236 d62e
00000050: 2a91 ad33 4892 6834 932e 2433 2887 9832
00000060: 3af6 a330 f2ac f530 8da2 cd33 9146 8132
00000070: ba9b 3331 8f64 4431 f6a2 0f31 4f26 ab32
00000080: 945c 952e 862d 8633 2834 be34 ca69 a433
00000090: 5a2b ae32 5311 6f34 3080 0331 7638 4733
000000a0: 4936 af31 2228 c834 f03a 8433 4add bc32
000000b0: 5021 e432 cac9 3333 6e33 9833 1e77 c332
000000c0: 2994 122f 31e1 bc32 160a 3b33 80c4 ad32
000000d0: 15a6 0334 69ab 3830 cf10 b032 8f76 dc30
000000e0: 68dc 8f33 1890 9032 46fe 3134 cc44 572e
000000f0: f4ef 1e32 79c7 3c32 9350 b12c 337f 8d33
00000100: 88a3 f42f cc99 1b32 287e 2034 0384 612d
00000110: d288 7832 bfc8 0834 1090 8731 d6b7 5f33
00000120: 4eb0 f431 733c 6031 178d 7533 924d f232
00000130: d592 6b32 2b98 9233 11da 8e33 ccaa 5433
00000140: 857c 8733 4e28 1133 8f75 0734 55b7 e731
00000150: 8c3e 2534 f0ad b032 6d7a ee31 bccc 8130
00000160: da0d 0534 5880 e031 b7dc c430 fdfb b331
00000170: 8a80 9f33 196c 3134 79e8 fa32 9286 0331
00000180: c4c1 c633 b5cc f732 b31c a933 3072 7934
00000190: 00f9 0e32 d6b8 4933 484f 892d 7067 0a31
000001a0: e9d7 6031 99d5 a633 c2a4 a233 d1b1 4132
000001b0: 543c 7c33 87e6 7d34 b1d8 fe31 2a52 0f32
000001c0: c9ea 1b32 809e a12f 953f 4a34 76e8 272f
000001d0: 2f3f 1033 72fd 7f33 1080 8832 96cc c833
000001e0: 10a1 2b31 0200 2a34 061d 9430 892c 2134
000001f0: c521 bb2c dc04 f532 6892 6333 8e25 1031
