results/FireDividedTimePenalty/PlayerRL/PlayerRL-1041.pt (torch, 459447 bytes, 36 tensors)

network_body._body_endoder.seq_layers.0.weight f4 [128, 10]
000000 bc 3d a3 be e0 70 eb 3c f1 2c 03 bf 1b 96 2e bf
       -0.31883037 0.028740346 -0.5124045 -0.6819779
000010 5e 95 18 3e 74 6b 8b be 27 8f d2 bd 35 14 aa 3e
       0.14900729 -0.27230418 -0.102812104 0.33218542
000020 a1 9b f4 be 0e 4f 54 3e 3a e1 07 3e 6a 0d 9d be
       -0.47774985 0.20733282 0.13269511 -0.30674297
000030 97 75 a0 bc 7a 57 8e 3e 2f f8 b4 3e 65 44 d2 be
       -0.019587321 0.27801114 0.353456 -0.41067806
000040 0f 29 ce bd 04 32 ce 3c 36 b8 f9 bc fb 11 f9 bc
       -0.10066425 0.025170334 -0.030483346 -0.030404082
000050 8c 69 f4 bd fb 5b d2 3b ba 04 13 be 38 b6 eb 3d
       -0.11934194 0.0064196563 -0.14357272 0.11509365
000060 0c cc 15 bf af dd 30 bd 44 33 a3 3d 56 5c 82 3e
       -0.58514476 -0.043180164 0.079687625 0.25461072
000070 78 c7 71 3e e6 45 85 3e 02 62 8e bd d1 c8 30 be
       0.23611248 0.2602989 -0.06952287 -0.17264105
000080 66 88 0a be 5c 85 e5 be 45 3c 8e 3d 75 db cd 3e
       -0.13528594 -0.44828308 0.06945089 0.40206495
000090 ad 6c 4f 3d 5e 6a 87 3e 2d 95 6e 3e c6 96 2b 3f
       0.05064075 0.2644834 0.23299094 0.67026937
0000a0 68 64 64 3e 94 78 3e 3e 5f e3 3e 3f 75 07 cd 3d
       0.22303927 0.18600684 0.7456569 0.10011188
0000b0 b7 e3 ec bd 52 19 e1 3d 99 ca 0e be f6 26 03 be
       -0.11566871 0.109911576 -0.13944472 -0.12807831
0000c0 4e 6a 05 3c e9 e4 e6 3e 1b cf d2 be 8e c7 5a be
       0.008143021 0.4509652 -0.41173634 -0.21365187
0000d0 c5 ed c5 be 80 5e f0 bd 1c bd 96 3e 62 57 45 be
       -0.38657966 -0.117367744 0.29441154 -0.19271615
0000e0 00 2e 55 3b 67 d5 ed be 3d b5 b5 bd 16 b5 7d bd
       0.003252864 -0.46451876 -0.08872459 -0.061940275
0000f0 54 62 24 3e 1a d0 17 bf 8c 8a d3 bd 80 9c 24 bf
       0.16053134 -0.5930191 -0.1032916 -0.643013
000100 78 af 5a bd 6c bc 6d be 5e 91 ba 3e 0b 64 0b bf
       -0.053389996 -0.23216408 0.3643903 -0.5444953
000110 65 38 49 3d 76 c5 b2 be 56 a0 0d bd 51 43 7d bd
       0.049126048 -0.34916276 -0.034576736 -0.061831776
000120 b0 c3 b7 3e b4 b1 1d be 7c eb e1 3b 11 79 dd 3c
       0.35891485 -0.1539982 0.006894527 0.027035268
000130 97 a1 cf 3e 78 a7 4c 3d 79 ec 1d 3e 88 d8 15 be
       0.4055297 0.0499644 0.15422238 -0.14633381
000140 41 e5 2a 3e 25 7a 1c bf 0c 39 34 3f a6 ff c6 3e
       0.16689016 -0.6112388 0.70399547 0.3886692
000150 eb a4 08 3e d3 bd b7 be 92 e7 5f bc d1 1a dd bd
       0.13344161 -0.35887012 -0.0136660505 -0.107961304
000160 49 8a 3e 3e 09 b8 c6 bd 75 a4 ab be 30 25 81 3e
       0.18607439 -0.09703071 -0.33523908 0.25223684
000170 2d 66 21 3e 27 fe 76 3d 60 78 8b be a7 d4 0b 3f
       0.15761633 0.060300972 -0.27240276 0.54621357
000180 d7 68 38 3e 4d f0 d7 be 02 f6 b8 3e f8 c9 58 bf
       0.18008743 -0.42175522 0.3612519 -0.8468318
000190 ef 7e 89 be 26 94 e4 bd b7 da 7e 3d 0c 2b 8d 3e
       -0.26854655 -0.111610696 0.0622203 0.27571905
0001a0 6f b1 06 bf b2 c3 23 be 1d f5 9b 3e 0d 96 75 be
       -0.5261449 -0.1599262 0.30460444 -0.23983021
0001b0 8c 1f c0 be d5 63 3d be 5a b0 7f 3e f3 01 ce 3e
       -0.37524068 -0.18495114 0.24969617 0.40235862
0001c0 a0 5e eb bd 1e a6 d3 be bb 2f 0b be 91 d8 93 3e
       -0.11492658 -0.41337675 -0.13592426 0.28876165
0001d0 87 c0 fb 3e 0b 6d d2 be e8 87 27 3e cb 2d 35 bf
       0.49170324 -0.41098818 0.16360438 -0.70773
0001e0 20 9a 83 3e 4b 56 a3 bd 63 16 99 be 6d ca 5e be
       0.25703526 -0.079754435 -0.29899892 -0.21756907
0001f0 78 bb 42 3f 8d 01 44 3f 4f a7 28 be 22 33 7a 3e
       0.76067305 0.76564866 -0.16470073 0.24433568
000200 b2 89 35 3e 58 eb d5 3c 03 ea 72 3e 30 d9 9e be
       0.17728308 0.026113197 0.23722081 -0.31025076
000210 93 42 8f be 85 19 47 be 41 db df bc 93 f0 da 3e
       -0.2798048 -0.19443329 -0.027326228 0.4276167
000220 18 3b 9d 3e 47 0e 32 3e f0 60 54 be d1 bf 18 bd
       0.30709147 0.17388259 -0.20740104 -0.037292305
000230 61 55 73 3e f2 80 84 3d c2 60 42 be 3a 75 71 3d
       0.23763038 0.06469907 -0.18982223 0.058949687
000240 2a a7 0d be f0 1f 23 be 5b 75 31 bd 94 ae 97 3c
       -0.138333 -0.15930152 -0.04332481 0.018515863
000250 15 59 1d 3f b7 33 f0 be f9 50 a2 bd 99 3a 2d bf
       0.61464053 -0.46914455 -0.079256006 -0.6766754
000260 02 a1 0f 3e 8b 99 20 ba c1 38 5c bd be 39 df be
       0.14026263 -0.00061263953 -0.053765062 -0.4359874
000270 e0 50 47 be ab e1 dc 3e 4d da eb 3e 75 51 41 be
       -0.19464445 0.4314092 0.46064988 -0.1887873
000280 d6 67 42 be 37 66 d7 3e 99 85 14 be d6 8c 8e be
       -0.18984923 0.4207017 -0.14504088 -0.27841824
000290 d2 d4 9d bd 2c ca c2 3e 5c 69 63 be fe 34 a1 be
       -0.07706608 0.3804487 -0.2220816 -0.31485742
0002a0 e6 61 6a 3d 2c b2 81 bf c7 92 7a 3e 49 df 17 3f
       0.05722227 -1.0132499 0.24470054 0.5932508
0002b0 c3 4d 1f 3d 0d ba 27 3e a8 2b 02 3e d5 4f f0 3e
       0.03889252 0.16379566 0.12711966 0.46935907
0002c0 c0 3b 4b 3e fb cf ca be d3 af 50 3f a3 f8 c8 be
       0.19847012 -0.39611802 0.81518286 -0.39252195
0002d0 3a 3f fb 3e d8 ed 33 3e 8b 09 e1 3e 30 17 4d be
       0.49071676 0.17571199 0.43952593 -0.20028377
0002e0 51 35 7f bd 8b fd 31 bc b6 84 a1 bd f2 01 94 be
       -0.062306706 -0.010863672 -0.07886641 -0.28907734
0002f0 22 95 06 bf f3 8b 57 3d e7 75 a9 bd 4a 5d d9 be
       -0.5257131 0.0526237 -0.08274441 -0.42453986
000300 89 6b 9a bd 8f d7 4c be 05 f1 a0 3d 41 e0 96 bd
       -0.07540042 -0.20004104 0.07858471 -0.07366992
000310 ec ec 23 bf 4e 66 96 be 94 be 60 3e 5f e0 c2 bd
       -0.6403339 -0.29374927 0.219477 -0.09515452
000320 b7 6d 1a 3c 0d 20 99 3e ed 43 74 bb 4d ae 68 3d
       0.009425572 0.29907265 -0.0037271932 0.05680685
000330 65 35 c3 3e b9 28 94 be 81 9d a7 be f1 ea 0a 3d
       0.38126674 -0.2893732 -0.32737353 0.033915464
000340 e2 8f 85 bc 75 73 00 3f 29 37 0f bf 12 4a 99 3d
       -0.01630396 0.50176173 -0.5594354 0.07484831
000350 4b 72 17 3e c7 9b 34 3f 37 6d cd be 18 77 c6 bd
       0.14789693 0.705502 -0.40122387 -0.09690684
000360 5e 8b 92 3d ea 97 09 bf f4 48 30 3d 59 31 00 3f
       0.071554884 -0.5374743 0.043038324 0.500753
000370 83 bd 14 3e c6 69 d8 3e aa d0 1b bf 9a 67 cf be
       0.14525418 0.422682 -0.6086527 -0.4050873
000380 e2 36 1a bd 44 8c 8e 3d 19 9b fb bd bd 66 8e be
       -0.037649997 0.06960347 -0.12285442 -0.27812758
000390 70 a9 bd be 64 a6 9b bd cb 04 a4 be af 37 99 3c
       -0.37043333 -0.07600096 -0.32034907 0.01870331
0003a0 09 d3 8a be c8 6b 06 3c ae 08 1a 3e 1a 22 de be
       -0.27114132 0.008204408 0.15042374 -0.43385392
0003b0 f7 11 89 bd c6 eb 36 bf 7d bb b8 3e 1c 2c 00 3b
       -0.0669288 -0.7145351 0.36080542 0.0019557541
0003c0 be 5d bb 3e 60 f2 3a be a2 79 8b be 8e ad 19 3d
       0.36594957 -0.18256521 -0.27241236 0.03751903
0003d0 c4 eb 63 bd 18 6e fa be 2a e3 b5 3e 1d 29 35 3e
       -0.055644765 -0.4891212 0.35524875 0.17691465
0003e0 ca 42 93 3e 0f 90 94 bc 74 8d b5 3e 2a a4 29 be
       0.28761894 -0.018135099 0.35459483 -0.1656653
0003f0 91 50 5e 3d 02 3c 67 3e de af eb 3e b9 79 a8 bc
       0.054276053 0.22581485 0.46032614 -0.020565854

network_body._body_endoder.seq_layers.0.bias f4 [128]
000000 dd e2 9c 3b cb b0 b1 3a b0 98 f3 ba 2c a5 4c 3b
       0.0047877864 0.0013556717 -0.0018584933 0.003122638
000010 6e 37 de ba bd e8 e3 b9 33 9a f8 3a ed 3a 33 bb
       -0.0016953775 -0.00043470217 0.0018966853 -0.0027348355
000020 70 0f b2 38 71 55 20 b9 eb b1 22 3b c0 0f a3 ba
       8.490577e-05 -0.00015290618 0.0024825286 -0.0012440607
000030 72 3d 14 3a 38 ad 35 ba 55 c6 7d ba 72 5d 02 3b
       0.0005654908 -0.00069304137 -0.0009680738 0.0019892124
000040 c6 5c 60 ba 37 fe a5 b9 ac 0e 54 b8 c6 cd 64 38
       -0.0008558746 -0.00031660657 -5.0558403e-05 5.4551077e-05
000050 19 34 66 bb 45 87 37 3b 48 91 2d 3a da 2f 21 3b
       -0.0035126267 0.002800421 0.0006621075 0.0024595172
000060 f4 2d 2e bb bd 67 41 3a af 36 be 39 ba 9c 03 3b
       -0.0026577683 0.0007377824 0.00036280366 0.002008243
000070 88 1c b2 39 7d 2f 1f 3a 81 f3 a9 ba 81 67 c1 39
       0.00033972063 0.0006072445 -0.0012966247 0.00036888945
000080 2e 83 fd ba 70 bc 85 ba c3 a5 0c bb 61 38 0f bb
       -0.0019341463 -0.0010203253 -0.0021461106 -0.0021853673
000090 71 94 05 ba 51 5b ab bb 74 5b 12 3a 93 57 e1 3a
       -0.0005095667 -0.0052293916 0.00055830856 0.0017192237
0000a0 a7 da 4b b9 9b 91 5c ba b8 02 1d 3a 41 dd 22 3b
       -0.00019441043 -0.0008414031 0.000598948 0.0024851116
0000b0 15 00 3e 3a 34 4f 30 3b b4 b9 49 3a ce 23 41 bb
       0.0007247937 0.0026902677 0.00076952134 -0.0029470804
0000c0 18 1f 5a ba 19 43 52 bb a3 9c 99 ba 42 3b c8 ba
       -0.00083206734 -0.003208345 -0.0011719655 -0.0015276449
0000d0 04 32 9f b9 c6 33 a1 3a 55 33 ed 3a 3b 2c 90 3b
       -0.00030364108 0.0012298755 0.0018096963 0.004399804
0000e0 2b 5f a9 ba 5d 97 ef 3a 12 73 78 3a 0e 72 1b bb
       -0.0012922039 0.0018279363 0.0009477596 -0.0023719105
0000f0 19 6d 2f 39 a4 ab dc 3a 6f 43 25 3a 62 d0 20 bb
       0.00016729943 0.0016835821 0.0006304299 -0.0024538268
000100 d0 22 b9 ba 25 83 8c bb 76 79 5b 3a e2 7c 8c ba
       -0.0014124755 -0.0042880946 0.0008372286 -0.001071837
000110 8a 8b a5 3a 76 27 e7 ba e5 fc 7e 3a 0c 7f f8 38
       0.0012630087 -0.0017635662 0.0009727015 0.00011849226
000120 a5 40 12 38 4d eb 24 bb 52 d6 66 b9 8c 7a f4 3a
       3.4869317e-05 -0.0025164664 -0.0002201435 0.0018652244
000130 d3 cf 16 bb 26 47 93 3a da 83 cf 3a a7 c9 00 3a
       -0.0023012056 0.0011236414 0.0015832142 0.0004912861
000140 c8 21 bd 3b 2b b9 24 3b 31 28 91 3b 6b 7b 28 3a
       0.0057718493 0.0025134783 0.00442984 0.0006427082
000150 7b 34 15 3b df bd 3c 3b db 34 23 ba aa 82 b1 b9
       0.0022766877 0.0028799695 -0.00062258326 -0.00033857423
000160 a0 84 c9 b6 80 39 17 3b 82 f5 31 bb 72 60 7b 3b
       -6.0057064e-06 0.0023075044 -0.002715439 0.0038357046
000170 28 0f 95 ba 60 a3 09 ba da 07 8d 3a 45 f6 8a b9
       -0.0011372315 -0.000525048 0.0010759786 -0.00026504896
000180 9e bd 83 38 61 d7 e4 ba c7 80 06 3a 9c 33 21 ba
       6.281886e-05 -0.0017459207 0.00051308837 -0.0006149353
000190 38 7b 5a 37 9c 5f 7d bb 56 45 eb b8 5a 13 c8 39
       1.3022502e-05 -0.0038661724 -0.00011218588 0.0003816139
0001a0 7c f4 1d bb 76 28 0e bb 3e df b2 ba 60 97 ba b9
       -0.0024102023 -0.0021691597 -0.0013646854 -0.00035589468
0001b0 b9 1d 66 3a 11 f4 12 3a 4a 4d 09 3a f2 04 54 3b
       0.0008778233 0.0005605827 0.0005237652 0.003235158
0001c0 a0 46 91 3b 74 32 eb 37 d4 b5 29 3b 89 27 cb ba
       0.004433468 2.8037677e-05 0.0025895732 -0.0015499453
0001d0 bc 5e 01 3a f1 d2 97 b9 d1 81 3f bb 03 f4 b5 ba
       0.0004935076 -0.00028958128 -0.0029221664 -0.0013881925
0001e0 5b b6 d1 3b c1 08 8b 3b e3 38 86 ba 4f 07 33 bb
       0.0063999123 0.004242987 -0.0010240342 -0.0027317589
0001f0 47 be 17 bb 8c a2 c3 39 41 47 b5 3b 7c 4c 8e 38
       -0.0023154186 0.00037314405 0.005532176 6.785334e-05

network_body._body_endoder.seq_layers.2.weight f4 [128, 128]
000000 a1 58 3e be b4 42 41 3d 68 27 49 bc d1 be 7f 3c
       -0.18588497 0.047182754 -0.012277462 0.015609459
000010 1e 88 cf 3d c6 5c 25 bc e0 a5 80 bd 28 40 fa 3c
       0.10133384 -0.01009292 -0.06281638 0.03054817
000020 ff 29 f2 bd d8 95 f4 3d 2e 32 69 3b ba 35 82 3c
       -0.11824416 0.11942643 0.0035582888 0.01589476
000030 20 1a 98 be 90 c6 5b 3d 41 a5 8a bd 9e 5c 7b bd
       -0.29707432 0.05365616 -0.06769801 -0.061367624
000040 ba a4 ec 3b 30 41 c1 3c 38 81 29 bc a4 a8 83 3d
       0.0072217854 0.023590654 -0.01034575 0.0642865
000050 18 c4 16 bd d0 36 a0 3d 0b be e9 3c 3b 62 0c 3d
       -0.036808103 0.07822955 0.028533002 0.034273367
000060 25 57 38 be 8c f2 ae 3d cd ad 73 3d d7 cf 61 3d
       -0.18001993 0.08542356 0.05949192 0.055129852
000070 a4 ef 93 3c d6 83 98 bd 1c be bb bb fe 00 e5 3d
       0.018058605 -0.07447021 -0.00572945 0.1118183
000080 a6 86 56 3d ca c6 80 3d 9c f0 d9 3c 44 eb 7a 3d
       0.052374505 0.06287916 0.02660399 0.061259523
000090 2b 52 4f bd b4 59 c0 3d 7a 4e e4 bd aa 8e ac bd
       -0.05061547 0.093921095 -0.11147781 -0.084256485
0000a0 7c 9b 0b 3c 84 ce 02 3d 1b 40 61 3c fd 2d 6f bd
       0.008520957 0.03193523 0.013748194 -0.058393467
0000b0 ac 22 47 be b0 53 b0 3d 52 d5 1e 3e 39 83 05 be
       -0.1944682 0.08609712 0.15511063 -0.13038339
0000c0 1d d7 0e be 12 07 01 be 74 ce a8 3d d7 f5 b1 3c
       -0.13949247 -0.12600353 0.08242503 0.02172367
0000d0 92 a7 0d bc be f6 dc bd 17 6e 9c bc 71 41 0f bd
       -0.008645909 -0.1078925 -0.019095464 -0.03497452
0000e0 40 79 65 3d d5 7c 95 3d 35 8b ae 3c 9d 23 01 bd
       0.056023836 0.072992004 0.021306613 -0.031528104
0000f0 0f 0b d1 bc eb 35 eb bc fe 48 21 3e 84 3f bc bd
       -0.025517968 -0.028712234 0.157505 -0.09191802
000100 d9 2d 39 3d a5 94 62 3d ff 3e c0 bd 70 56 b6 3d
       0.04520974 0.05531754 -0.093870156 0.089032054
000110 cd ef 1b 3d 2e 46 3c be cd 23 43 bd dd 16 ce bd
       0.03807049 -0.18386146 -0.047641564 -0.100629546
000120 6e eb 70 bd 19 26 09 3d b3 25 fc 3c 78 45 88 bc
       -0.058818273 0.0334836 0.030779695 -0.016634688
000130 de cf 9b 3d e0 be 80 3d bb d2 99 bc 08 62 13 bc
       0.07608007 0.062864065 -0.018777242 -0.00899554
000140 a4 92 d4 bb 75 70 46 bd 32 54 e5 bc 4f 51 93 bc
       -0.0064872075 -0.04844709 -0.027994249 -0.017983107
000150 1c 80 22 3d 80 7a ea ba 06 60 20 3c 5b 61 2e 3d
       0.039672956 -0.0017889291 0.009788519 0.042573314
000160 8f 15 85 be bc 61 b0 bd 86 c9 43 bc f4 fd 05 3d
       -0.2599301 -0.08612391 -0.011949902 0.03271289
000170 35 e3 39 3e df 97 5f 3b 5a 87 9d bd a5 c2 58 bb
       0.18153079 0.0034117622 -0.07691832 -0.0033075002
000180 ce 2a 64 bc a1 5b 65 3d aa 5a 61 bd 81 e3 11 be
       -0.013926221 0.055995587 -0.055018105 -0.14246942
000190 b0 ad c3 bc 80 ed 62 3c 8d c7 02 3e 67 d3 3f be
       -0.023886532 0.01385057 0.12771435 -0.18732987
0001a0 70 5c 2d be 70 ac f9 bd 74 78 89 b8 b0 b5 82 bc
       -0.16929793 -0.12191093 -6.555105e-05 -0.015955776
0001b0 09 78 8b 3d ad 45 15 be 2a c9 d1 3c 11 16 32 3c
       0.06810004 -0.1457736 0.025608618 0.010869519
0001c0 22 fa d4 3d a1 91 25 bd 2b 0c 3b 3c a9 72 a4 3c
       0.103992715 -0.040422086 0.011416475 0.020074205
0001d0 90 10 11 3e 8f 94 71 bd 60 e2 88 3c 74 cc 7d bd
       0.14166474 -0.058979567 0.016709507 -0.06196256
0001e0 0c ff 16 3d 37 89 63 bd c8 8f 45 3c e1 8b d0 3d
       0.036864325 -0.05555078 0.012058206 0.1018293
0001f0 b2 bf 20 be e0 89 49 3d b3 19 70 bd 55 a5 a7 bd
       -0.15698126 0.049203753 -0.05861826 -0.081858315
000200 a5 d2 83 bd 8d 22 98 bc 24 55 11 bd d7 4a 13 be
       -0.06436662 -0.018571163 -0.035481587 -0.14384018
000210 9d 1f 96 bd 27 4b 85 bc 27 72 4e bd 7b 21 96 3d
       -0.073302485 -0.016271187 -0.050401833 0.07330605
000220 06 61 0f 3d fc 4f 76 be 0d 24 54 3e a3 2f 45 be
       0.035004638 -0.24053949 0.20716877 -0.19256453
000230 05 0a 50 3b 29 80 46 bc b8 43 92 bd 07 99 10 3d
       0.0031744253 -0.012115517 -0.071418226 0.03530219
000240 1a 39 0c 3e 1b 73 3d 3d 56 c4 96 bd 1b e9 2c 3d
       0.13693658 0.04625235 -0.07361667 0.042214494
000250 70 b1 97 3b 91 35 bc 3c c0 e4 b9 bd 93 49 41 3e
       0.0046293065 0.022974761 -0.09076834 0.18875723
000260 7a ff ad bd 76 29 2b be 46 a9 8a bb 80 c4 7d 3c
       -0.08495994 -0.16715035 -0.0042316047 0.015488744
000270 ee 9d 1d bd 7b d3 79 bd 19 90 88 3d 27 23 17 bd
       -0.03848069 -0.0609927 0.066681094 -0.03689876
000280 c4 27 d5 3c 90 59 2b 3d 24 1b c1 3c ae 11 96 3a
       0.026019938 0.04183346 0.023572512 0.0011449361
000290 1a 23 72 3a 20 71 c5 bc 29 13 bf 3c 1d 60 d5 bd
       0.0009236798 -0.024101794 0.023324566 -0.10418723
0002a0 07 31 cd 3d 2d 28 27 bc d7 d2 fd bd e6 7b 5b be
       0.10019117 -0.01020245 -0.1239373 -0.21433982
0002b0 4e 49 aa bd 5f 66 a0 bd a2 7f 80 bb c9 5a 9d 3d
       -0.08314763 -0.07832026 -0.003921465 0.076833315
0002c0 2a a2 7b bc 91 8b f3 bc 1c cc 04 3e b4 4d 4d 3e
       -0.015358487 -0.029729636 0.12968487 0.20049173
0002d0 a1 58 08 3e f1 1b c1 bd f0 68 16 bd df c3 38 3d
       0.13315059 -0.094291575 -0.03672117 0.045108672
0002e0 09 af 66 bb 2f 10 19 3c d4 52 06 bd 21 fc 4b 3d
       -0.0035199544 0.009342237 -0.032793835 0.049800996
0002f0 1e a9 01 3e ef 88 a3 bd 25 68 ea 3c 49 18 78 bd
       0.1266217 -0.079851024 0.028614113 -0.060570035
000300 fe 66 b4 bc c0 5e a0 3d 16 fb 0d be c1 bd d5 3c
       -0.022021767 0.07830572 -0.13865313 0.026091458
000310 c8 c1 5a 3d 89 b3 f3 3d 78 93 4c 3b 7a 51 0b 3d
       0.05340746 0.11899478 0.0031215828 0.03401325
000320 0a e9 13 bd 0f 0a b1 3d 25 b1 85 3d 3f 0c 2a 3d
       -0.036110915 0.08644497 0.06527928 0.041515585
000330 49 f1 ce 3d de d2 92 3d da 0e 87 bc e0 6d 6f 3d
       0.10104615 0.07169126 -0.016486574 0.058454394
000340 8d 80 44 ba 79 ad 02 bd cd f3 0f bd 44 65 7a bc
       -0.0007495962 -0.031903718 -0.035144616 -0.015282933
000350 da 79 18 be 6e 8b b7 bd 32 ba d2 bd a8 02 d4 3c
       -0.14890233 -0.08962141 -0.1028942 0.025880173
000360 f0 17 bf 3d c9 b1 f2 bc 3e 94 ae 3d c5 9f ee 3c
       0.093307376 -0.02962579 0.08524369 0.029128918
000370 a2 04 81 3c 52 9d 85 3d b6 5b 7b 3d a5 95 b8 bc
       0.01574928 0.06524147 0.06136676 -0.022532294
000380 26 4c 7e bd 63 f3 03 bd a4 43 8d bc 4f 28 c8 3d
       -0.06208434 -0.032214534 -0.017244168 0.09773313
000390 82 3f 08 be c7 5c 9d 3d f4 0d ce 3d a7 fe 9c 3b
       -0.13305476 0.076837115 0.10061255 0.004791099
0003a0 39 80 35 bd 1d 72 17 bd c7 82 09 be 84 6d 0c 3d
       -0.044311736 -0.03697406 -0.13428794 0.03428413
0003b0 2d 35 fc bd cf c6 f3 bd 70 a0 aa 3d 1e a0 9c 3c
       -0.1231483 -0.11903154 0.08331382 0.019119319
0003c0 be 06 21 bc d3 da c1 bd 14 21 54 bd 65 a7 c9 3c
       -0.009828268 -0.094655655 -0.05178936 0.024615953
0003d0 5a 59 85 bd 6f a5 02 3d 6f 5c 28 bd 5d 51 ee 3c
       -0.06511183 0.03189605 -0.041103777 0.029091531
0003e0 9e ab c0 3c 6c c0 1f bd 16 dd 9d bc c2 d3 59 3e
       0.023519333 -0.039001867 -0.019270461 0.21272185
0003f0 e9 12 47 3d 9e 74 f4 bd c9 2d d2 bc 78 4c 2b 3d
       0.04860202 -0.119363055 -0.025656598 0.041820973

network_body._body_endoder.seq_layers.2.bias f4 [128]
000000 9b f1 9f ba 10 d4 d5 39 bf 52 97 38 44 f7 0a ba
       -0.0012202741 0.00040784525 7.215654e-05 -0.00053011277
000010 ae 59 f3 38 a3 71 c9 ba 90 dc 14 ba 12 5e 0e 39
       0.00011603847 -0.0015368949 -0.00056786183 0.00013577219
000020 4d 0b 99 39 c6 f1 09 ba b5 0d a3 3a c0 bc ff 36
       0.00029190854 -0.00052621623 0.0012439998 7.6215656e-06
000030 65 ba 6a ba 76 16 de ba 68 fe 69 b9 ef 08 f8 b9
       -0.00089541666 -0.001694395 -0.00022315385 -0.00047308902
000040 66 72 12 3b 5a c9 53 ba cd a3 88 ba 8a a2 b5 b9
       0.0022346019 -0.0008079015 -0.0010424793 -0.0003464411
000050 75 71 05 3a f3 e5 18 bb 3d 5f c3 3a da 8d 53 3b
       0.0005090454 -0.002333042 0.0014905703 0.0032280595
000060 ea 69 c6 ba 2f 92 19 3b 61 fd c3 3a aa cc cf b9
       -0.0015137766 0.002343308 0.0014952832 -0.00039634603
000070 e8 6a 21 ba 5e 07 b6 ba 0f 34 04 3b d1 59 59 ba
       -0.0006157593 -0.0013887694 0.002017263 -0.0008291277
000080 d5 16 96 3a 66 cf cf 3a b5 12 0d bb 56 b4 90 3a
       0.0011450896 0.0015854656 -0.0021526043 0.0011040072
000090 47 7e 3e 3a 9b e4 81 3a 00 b4 0f b4 8a 41 30 3b
       0.00072667416 0.0009910049 -1.3383396e-07 0.0026894533
0000a0 35 e0 b4 bb c2 63 b1 ba b9 1c 9f ba 6d f2 a9 b7
       -0.0055198916 -0.0013533758 -0.0012139297 -2.0259258e-05
0000b0 48 37 e4 ba d6 db b8 3a 5d 73 58 ba f9 fc ef 38
       -0.0017411495 0.0014103602 -0.00082569366 0.00011443528
0000c0 90 e9 df b6 27 0e af bb 9c 89 cb ba 8e ae 32 ba
       -6.673108e-06 -0.0053422633 -0.0015528682 -0.0006816172
0000d0 4b 8a 4e ba 00 16 69 3b 85 6f 10 3b d3 0a 5b ba
       -0.00078788836 0.0035566092 0.0022039127 -0.00083558
0000e0 ac 2a a8 b9 7f e8 98 bb af 2f 64 3b 46 50 fc 39
       -0.0003207525 -0.0046663876 0.003481846 0.00048124994
0000f0 b3 94 f3 39 ea e6 59 3b 31 12 28 ba 6b 96 b4 3a
       0.0004645936 0.0033249208 -0.0006411402 0.0013777738
000100 9b eb e1 3a b5 ab 8c 3a 0f 94 90 39 96 c5 04 3a
       0.0017236354 0.0010732325 0.00027576133 0.0005064843
000110 e1 fa 6b 3b 2d 9d 2c 3a c0 b7 c0 ba a0 b9 20 ba
       0.003600769 0.00065847003 -0.0014703199 -0.0006131176
000120 65 66 f2 b8 a8 41 4f ba b6 0a 02 ba 6c 47 d2 38
       -0.00011558532 -0.0007906207 -0.00049607025 0.00010026884
000130 a5 43 df ba f6 31 3f b9 ac 17 14 b9 a4 0a ac ba
       -0.001703371 -0.00018233791 -0.00014123198 -0.001312573
000140 a9 aa dc 3a 6e e7 04 39 a4 4b 1a 3a fd 19 e7 39
       0.0016835529 0.00012674715 0.0005885905 0.00044079116
000150 3c b9 c1 b9 49 2d 42 3b b1 a8 d1 ba 68 de 60 ba
       -0.0003694984 0.0029629043 -0.0015995709 -0.0008578063
000160 c2 6a ac 39 76 df 62 bb 1f 51 07 3a 61 1a 22 ba
       0.00032885937 -0.0034618056 0.00051619293 -0.00061837403
000170 50 fe 4c bb 50 d2 80 ba 89 4e 3a ba 6b 09 88 3b
       -0.0031279512 -0.0009828303 -0.00071070396 0.0041515133
000180 f8 1d 49 ba 6b 16 99 ba 68 7b 0f 39 49 59 60 ba
       -0.0007672007 -0.0011679655 0.00013683515 -0.00085582264
000190 2b 01 33 3b cf 1a c8 ba 8c 2d c4 39 d7 dd 46 39
       0.0027313929 -0.0015266779 0.00037417968 0.00018965393
0001a0 05 e8 a1 b9 e0 95 b8 bb 4c 05 13 3a bc e0 29 3b
       -0.0003088118 -0.005633101 0.0005608394 0.0025921306
0001b0 3d 24 5b ba 90 e9 93 3b 91 4a b2 3a 66 99 13 3b
       -0.0008359587 0.004513927 0.0013602545 0.0022521853
0001c0 76 f2 91 bb 2e 71 ff ba 3b 05 83 bb 1c a0 4c b9
       -0.0044539524 -0.0019488686 -0.0039984263 -0.00019514601
0001d0 36 be f6 ba eb 35 21 bb 30 02 90 3b 29 ab 08 bb
       -0.0018824998 -0.0024598788 0.004394792 -0.0020853973
0001e0 68 f4 1a ba 0e 02 91 b9 61 5c 59 ba b9 47 73 bb
       -0.0005911053 -0.00027658086 -0.00082916586 -0.0037121607
0001f0 ab b2 28 bb 7a ca 3e b9 f4 b1 72 ba 9f 30 e5 b8
       -0.002574126 -0.0001819524 -0.00092580845 -0.00010928627

action_model._continuous_distribution.mu.weight f4 [1, 128]
000000 f8 7a 37 3c 98 10 09 bd 67 ae ad 3c cf 87 b0 3a
       0.011198752 -0.03346309 0.021201326 0.0013468208
000010 03 cc 00 3d f0 c7 7e bc a9 f3 84 bb df f3 c4 3c
       0.03144456 -0.0155505985 -0.004057367 0.024042068
000020 7c fc 44 3c ea 4a a6 3a 7e cb 60 3d a9 95 15 bc
       0.012023088 0.0012687121 0.054881565 -0.00912992
000030 bd cf 91 bc ef ed 9f bc 4d 24 70 bc b1 90 59 3c
       -0.017799253 -0.019522635 -0.014657092 0.013279126
000040 5c 73 d0 3a a6 75 09 bc cd f6 05 bc d9 38 22 bc
       0.001590352 -0.008389866 -0.008176518 -0.009901249
000050 ca d0 26 bc ad c8 ab bc 85 2a 2e 3d 8d 70 c3 bc
       -0.010181615 -0.020969713 0.04252102 -0.02385738
000060 8d b3 fa 3a 01 29 0e 3c 52 49 42 3c e9 2a a5 bc
       0.0019126997 0.008676768 0.011858301 -0.020162063
000070 cb fd 61 3c 7e e7 05 3a 99 9c d1 3c a0 d2 ab bb
       0.013793419 0.00051080424 0.025587367 -0.0052436143
000080 d4 32 39 3c 2f bb aa ba 04 22 84 bc 55 a8 b3 bb
       0.011303622 -0.0013025756 -0.016129501 -0.005482713
000090 23 67 cb bb 16 71 b0 bc a9 bb d7 bc 5c 38 ff 3c
       -0.006207363 -0.021538299 -0.0263346 0.031154804
0000a0 75 06 fb 3a 1d a6 66 3c 8f 8c b9 3b dc ac 50 3b
       0.0019151705 0.01407769 0.005662508 0.0031841313
0000b0 26 12 0b 3c 31 5a 76 bb 07 a1 a5 bc 24 5e 04 bd
       0.008488214 -0.003759038 -0.020218385 -0.032316342
0000c0 29 9b c9 bc a7 76 dd bb 8b f6 be bb b1 bd 2c 3c
       -0.024610119 -0.006758529 -0.00582773 0.010543273
0000d0 1c c8 b1 3c ad c3 fb 3b e0 37 95 3c d8 ff d3 bc
       0.021701865 0.0076832385 0.01821512 -0.025878832
0000e0 27 b7 9c bc 9b ea 67 bb 4e 0b 83 bc 53 f8 26 bd
       -0.019130303 -0.0035387638 -0.015996601 -0.040764164
0000f0 c8 69 93 3c cc 66 0e bc 5d 8f 38 3b 24 18 34 3d
       0.017994776 -0.008691501 0.0028161623 0.043968335
000100 30 6c 1d bb 2a 65 da bc b4 4e de 3c 7f 36 a1 3c
       -0.0024020784 -0.026659567 0.027137138 0.019679306
000110 4d e0 08 3c a5 b9 90 3c 31 12 fa bb 1f fe 0e bc
       0.008354259 0.017666647 -0.007631563 -0.008727579
000120 8f dc 08 bd 2d 57 23 bd 56 34 54 3c ec 0b 27 bd
       -0.033413466 -0.03987806 0.012951931 -0.040782854
000130 18 6a 8c bc f1 6b 6f bc 39 16 7a 3c c4 a5 2e bc
       -0.017140433 -0.014613138 0.015264087 -0.010659639
000140 96 ad 6c 3c f6 58 29 3c b2 f1 8f 3b fe 57 f7 bb
       0.014445683 0.010336151 0.004392826 -0.0075483313
000150 24 9e c0 3b 10 12 ae 3c d5 b9 ef bb 6a e8 44 b8
       0.005878227 0.021248847 -0.007315854 -4.6946494e-05
000160 32 0e b5 3c 25 cc e6 bb 49 af 43 3c b9 3f 28 bd
       0.022101495 -0.007043379 0.011943647 -0.041076396
000170 ff 82 41 ba 04 5b bd bb 21 e5 8f 3c cb 81 1e bc
       -0.00073818857 -0.005778672 0.017565312 -0.0096745
000180 c3 b0 d1 bc 61 2a bd 3c b4 e3 42 bc b8 d1 3f bb
       -0.025596982 0.023091497 -0.011895109 -0.002926929
000190 00 70 1a 3c c1 fd 57 3b 4c 84 ad bc d2 52 5d bb
       0.009426117 0.0032957646 -0.021181248 -0.0033771289
0001a0 8f 4f 97 bc 04 ed b0 39 58 9e 81 ba 07 ab 2b bc
       -0.018470554 0.00033745926 -0.0009889109 -0.010477788
0001b0 a5 0a d8 3c fb df 03 3b b9 3d 3f 3b b3 c4 0a 3d
       0.026372263 0.0020122516 0.0029181077 0.033878993
0001c0 a8 16 91 bc 0d 56 80 3b 2b 55 61 bb b0 58 ab bc
       -0.017710999 0.003916508 -0.003438304 -0.020916313
0001d0 a2 87 34 3c 7f 94 1e bb 10 5d ce bb 19 4d 9f bb
       0.0110186655 -0.0024197397 -0.006297715 -0.0048614857
0001e0 45 95 77 3c 9a fc 00 bc 45 9b 53 3d 10 cc 2c bc
       0.015111272 -0.007872725 0.05166175 -0.010546699
0001f0 c1 5b 86 bc ca 0e 09 bc 88 19 ca bc 46 28 13 3d
       -0.016401174 -0.008365342 -0.024670377 0.03592708

action_model._discrete_distribution.branches.0.weight f4 [3, 128]
000000 d9 86 1b 3c 71 34 17 bc 9e 86 74 bc 6e 66 75 3b
       0.009492599 -0.009228812 -0.014924673 0.0037445086
000010 91 c8 4c bc 56 f3 53 bc f6 6d 9a 3b d5 e9 67 3b
       -0.012498991 -0.012936434 0.0047128154 0.0035387177
000020 dc a2 d0 3b 69 54 05 3c 38 a6 a0 3b 06 1e 19 bc
       0.0063670706 0.008137801 0.0049026273 -0.009345537
000030 bb c6 23 bc 7f b8 b6 3c 35 88 95 3a 2b 62 a2 bb
       -0.0099961115 0.022304771 0.0011408391 -0.00495555
000040 f4 58 6a bc f9 ce 33 bc 34 af 84 bb e2 19 ef ba
       -0.014303435 -0.010974639 -0.004049206 -0.0018241967
000050 85 e8 15 3b 7a d9 40 3c 1b 74 bf bb a7 d2 11 bb
       0.0022874188 0.0117706 -0.0058426983 -0.0022250803
000060 5e 2e 51 3b 3a ca 55 b9 ac 7b 90 3c e7 38 56 3c
       0.0031918506 -0.00020388598 0.017637096 0.01307509
000070 f8 e5 cb 3b 7c a9 c9 3b 9a 0e 24 bb 63 70 32 bb
       0.006222483 0.0061542373 -0.0025033117 -0.0027227632
000080 16 9e 04 3c 5f 23 2d bc 37 e0 ce 3c 44 95 55 bc
       0.008094331 -0.010567515 0.025253398 -0.013036076
000090 f8 dd 00 bc 16 da 91 3c 02 72 6d 3b 22 29 51 bb
       -0.0078654215 0.017804187 0.0036231284 -0.0031915386
0000a0 c9 34 2d 3c 04 f7 58 bc ef a8 a1 3b fc 15 3d 3c
       0.010571667 -0.013242487 0.0049334685 0.011540886
0000b0 92 0b 38 bc 6f 85 72 bc 51 35 3b 3c 84 35 0b bc
       -0.011233227 -0.014802321 0.011426286 -0.008496646
0000c0 3b 98 30 bc e7 90 08 3b 05 8d dd 3b 94 c7 2f bc
       -0.010778482 0.0020838322 0.0067611956 -0.0107287355
0000d0 d7 44 64 3b 91 0c e3 bb 90 17 1d bb 44 aa 0e bc
       0.003483107 -0.0069289883 -0.0023970343 -0.008707587
0000e0 ee 0c 0d bb 92 5e a2 3b c5 68 12 bb fe 82 e6 b9
       -0.00215226 0.0049551213 -0.002234028 -0.00043966615
0000f0 ed b2 13 bb d4 11 40 bc 64 5c b7 3b de a0 92 bc
       -0.0022537068 -0.011723001 0.0055957306 -0.017898973
000100 a1 18 00 3b 61 79 83 bb 44 54 d7 3a ee 47 e1 3b
       0.001954593 -0.004012272 0.0016428311 0.0068750298
000110 a0 2c 54 bc 38 55 cd bc fb be 09 3b 1a 60 4f bc
       -0.012950093 -0.02506505 0.0021018374 -0.01265719
000120 d9 bc 14 bb b8 cf 57 bb c2 d4 ea 3b 48 2b 72 3b
       -0.002269557 -0.0032930207 0.007166476 0.0036952067
000130 8e 71 b9 bc ce 39 00 3b 7c 5a 94 3b 00 30 0d bc
       -0.022637155 0.0019565704 0.004527388 -0.008617401
000140 b1 a7 3c bc ab ba 8b bb 68 c1 98 bb 58 02 57 bc
       -0.01151459 -0.004264196 -0.0046617277 -0.013123117
000150 fb 42 f5 ba 5f 61 e5 3a 36 e4 75 3c 13 83 83 bb
       -0.0018711978 0.0017500332 0.015008023 -0.004013428
000160 e9 55 8e bb ba 7a 0f 3c 4d b6 d9 bb c0 8d 11 3c
       -0.0043437374 0.008757288 -0.0066440464 0.0088838935
000170 57 b7 a2 bb 2e cd dd 3b 56 e8 8e bb 55 e8 93 3c
       -0.0049657035 0.006768844 -0.0043611927 0.01805512
000180 e6 69 67 3c 2f 18 32 3c ec 81 61 bc a6 fc 1b 3a
       0.014124369 0.010870024 -0.013763886 0.00059504283
000190 61 08 bf 3b 7f cb be 3b 03 6c 52 3c 31 90 b9 3b
       0.0058298563 0.0058225985 0.012843135 0.005662941
0001a0 21 9a c6 3b 92 c0 e1 3b ed 88 ce 3a f3 02 d5 3b
       0.006060854 0.0068894112 0.001575736 0.0065005957
0001b0 02 da 65 3b 1a 90 20 3c 60 61 91 bc ed 95 70 3b
       0.003507257 0.0097999815 -0.017746627 0.0036710456
0001c0 68 30 ba bb 47 de 52 39 5d c2 e5 bb 13 28 2d bb
       -0.00568204 0.00020109965 -0.0070116953 -0.0026421591
0001d0 1c 28 e5 39 fc df ef 3a 12 0c 1b bb 59 f8 15 3c
       0.00043708168 0.0018301005 -0.0023658318 0.009153449
0001e0 5b e6 2a 3b 30 4b 50 bb 2a 40 1c 3c 16 98 81 ba
       0.0026077244 -0.0031783096 0.009536782 -0.0009887244
0001f0 7f 40 00 3c 54 1a c8 bb 43 fc 87 bb 4b ea 08 3c
       0.007827877 -0.006106654 -0.004149945 0.008356641
000200 63 27 ab 3b 73 a7 f7 bb a1 ba 42 3c e4 b8 b8 3a
       0.005223201 -0.0075578033 0.011885316 0.0014093188
000210 72 4e 60 bb 6d 26 e7 3b 12 95 14 bc 17 f3 0e bc
       -0.0034226445 0.0070541413 -0.009068744 -0.008724949
000220 f0 38 19 3c 66 f0 d7 ba 4a 33 b0 3b 8f d5 b1 3c
       0.009351954 -0.0016474843 0.005377208 0.021708278
000230 77 23 43 bb 3e c8 29 3c 99 02 0e 3c d9 6a 9b bc
       -0.0029775777 0.010362683 0.0086676115 -0.018971847
000240 21 2b 85 3c 73 ba bf 3a f2 eb 62 3b c1 f2 33 3c
       0.016255917 0.001462771 0.0034625498 0.01098317
000250 49 40 8b bb 31 68 dd 3a 53 d5 dc ba 32 9d 65 ba
       -0.0042496067 0.0016892013 -0.0016848244 -0.00087590807
000260 fb 89 b4 b9 02 7f c8 3b 1c af a9 bb c7 e3 24 3c
       -0.0003443508 0.006118656 -0.0051783454 0.010064072
000270 69 97 35 bc bf 2c 7c bc 4f da 94 3b 62 3a 17 bb
       -0.011083462 -0.015391528 0.004542626 -0.002307557
000280 8c 47 4f bc 1d e2 04 3b 68 29 a0 bb ce e1 62 bc
       -0.012651335 0.0020276376 -0.0048877485 -0.013847781
000290 af f9 96 3b 1b 45 59 bc 6c 30 eb ba c9 f3 60 bc
       0.0046074013 -0.013261105 -0.0017943508 -0.013729998
0002a0 5d 0e 82 bc ca 43 c3 ba 47 b5 b2 bb 45 90 d0 bb
       -0.01587599 -0.0014897522 -0.005453739 -0.0063648545
0002b0 0c 5e ed 3a ab ed 54 bb 97 bd 18 3b 18 3a 52 bc
       0.0018109693 -0.0032490294 0.0023306364 -0.012831233
0002c0 82 02 af 39 f5 ad 39 3c 59 31 34 bc 29 b3 22 bc
       0.0003338047 0.0113329785 -0.0109980935 -0.00993041
0002d0 5f 6a 4d bb e4 a6 aa bc 0e c5 23 3c 5b 93 fe bb
       -0.003134392 -0.020831533 0.009995712 -0.007769031
0002e0 01 e4 9e 3b 86 a5 06 bc 28 42 3b 3c f2 cd 69 bc
       0.0048489575 -0.008218175 0.011429347 -0.014270293
0002f0 17 1f 50 bb 82 e2 d2 3b fb f4 10 bb 02 fd 86 3b
       -0.0031756812 0.0064356932 -0.0022118676 0.0041195164
000300 47 be fb bb bd 14 ab 3b 7a 4f c2 bb 5d 36 32 bc
       -0.007682595 0.005220978 -0.0059298845 -0.010877219
000310 cf 96 8c 3b 65 23 ac 3c c4 d2 02 3b 68 c5 3b bb
       0.0042904387 0.021012971 0.0019962052 -0.00286516
000320 07 c1 09 ba 17 6b ff bb 8f ea 05 bb 22 9c 86 3a
       -0.00052548986 -0.0077947485 -0.0020433997 0.001026992
000330 f2 df d3 39 0b 6d 2f bb fb 9e 1d bc 0b 93 5e 3c
       0.00040411908 -0.0026767876 -0.009620423 0.013584862
000340 3e 4f 5c bc 4e 6a 0d bd 3d 82 a3 3a 65 3e a9 3b
       -0.013446627 -0.03452521 0.0012474727 0.0051649087
000350 5e aa 60 bc 4d c5 1a 3c ce 8e 72 ba 41 f8 8d b9
       -0.013712494 0.009446454 -0.0009252847 -0.0002707858
000360 1b 80 63 3c db 19 3a 3c e8 e9 94 3c 82 1a af 3a
       0.013885523 0.0113587035 0.018177941 0.001335934
000370 19 95 7d ba f5 80 d0 bc 0d 03 b4 bb 62 ef 86 bc
       -0.00096734014 -0.025452117 -0.0054935277 -0.016471568
000380 5c 68 a4 b8 ed fd a5 3b b9 dc 14 bc aa 9c 82 3c
       -7.839568e-05 0.0050656707 -0.0090858275 0.015943844
000390 11 b3 5d bb 55 de 4b 3b b9 86 0d bb 1c 05 81 ba
       -0.0033828656 0.0031107862 -0.0021595194 -0.0009843442
0003a0 59 cd ad bc 12 83 9c ba ba ff 09 3c 0b e6 c6 bb
       -0.021216081 -0.0011940917 0.008422786 -0.0060699037
0003b0 8f d1 ef bb 12 1d 79 bb de cc 27 bc 0f fe 07 bc
       -0.0073186825 -0.0038011712 -0.010241715 -0.008300318
0003c0 d2 1a e3 b8 d9 9b a6 3b 94 3a a1 bc fd 04 9e 3b
       -0.00010829199 0.0050844965 -0.019681253 0.004822372
0003d0 2b 07 08 3b 6c fc 3a bc 83 7e 85 bc 87 fd b4 3a
       0.0020756226 -0.011412721 -0.016295677 0.0013808467
0003e0 50 49 11 bc cd 7f 51 bc 14 6e 59 ba fc 3b a2 bb
       -0.008867577 -0.012786818 -0.0008294296 -0.0049509984
0003f0 ad 40 01 bc 87 01 06 bc 0f 1e 08 bc e3 ab f0 bc
       -0.007888955 -0.008179075 -0.008307948 -0.029378837

action_model._discrete_distribution.branches.0.bias f4 [3]
000000 07 38 c4 ba b1 b4 23 39 a7 8b fe 3a
       -0.0014970311 0.00015612204 0.0019420282

exp_avg f4 [128, 10]
000000 3c 8f 2a bb 65 a0 b4 ba 00 a1 bc 3a 92 76 bd ba
       -0.0026025316 -0.0013780711 0.0014391243 -0.0014454892
000010 d1 e7 27 bb 91 d6 37 3a 61 32 25 bb f3 7a 9e bb
       -0.002562035 0.0007012869 -0.002520703 -0.004836434
000020 c9 dc 43 ba a1 35 72 bb 06 ac 4d 39 85 d8 09 3a
       -0.0007471559 -0.0036958235 0.00019614407 0.0005258399
000030 92 ca 2a b9 d4 a6 cb 39 36 ef 1a 37 50 67 f6 39
       -0.00016287927 0.00038843474 9.234811e-06 0.0004699775
000040 2a 5c ac 38 00 60 96 b3 21 27 23 3a f4 e2 24 38
       8.218766e-05 -7.0023816e-08 0.0006223787 3.9312014e-05
000050 7a 12 f3 39 76 74 3b b9 dc a3 10 3a b8 5e f1 37
       0.00046362338 -0.00017877095 0.0005517581 2.8773546e-05
000060 ec af 46 b9 36 69 c1 39 92 f7 02 b9 10 36 c0 b8
       -0.00018948287 0.00036890217 -0.00012489993 -9.165343e-05
000070 d6 a6 68 ba 23 1c 11 ba b0 70 9a 3a d4 ce 9d b9
       -0.0008874958 -0.0005535504 0.0011782851 -0.00030099472
000080 84 c5 81 3a 45 7f af ba e8 d9 b9 38 09 7f 9d 3a
       0.0009900783 -0.001338937 8.8620756e-05 0.0012016009
000090 34 a6 b8 ba 59 60 39 bb 6f 03 6c ba 78 e1 ba ba
       -0.0014087618 -0.0028286187 -0.0009003197 -0.0014257869
0000a0 d0 42 84 b9 c8 12 09 ba ae 0b 1b 3a ba 3e b5 b9
       -0.0002522678 -0.0005228934 0.0005914521 -0.00034569745
0000b0 cc 8c ca ba 9e c3 33 b9 b8 5f 82 38 b4 bd a7 38
       -0.0015453338 -0.00017143643 6.216712e-05 7.9985155e-05
0000c0 80 51 af b6 de dd f3 b9 5d 1d e2 37 b7 86 e7 37
       -5.2248943e-06 -0.00046513876 2.6954973e-05 2.7600077e-05
0000d0 60 e2 6e b6 bf 61 f9 37 aa 9b c7 37 a9 e2 f9 b7
       -3.5596531e-06 2.972863e-05 2.3795135e-05 -2.978866e-05
0000e0 02 9b 3c 36 e4 a2 b8 37 12 8e 22 b8 dd ae 9a 37
       2.810441e-06 2.2010361e-05 -3.8756123e-05 1.8439658e-05
0000f0 7d 43 10 bb 53 48 61 b9 aa 18 8f 39 00 c4 7f b9
       -0.0022012882 -0.00021484615 0.00027293462 -0.00024391711
000100 c5 c5 65 b8 2e 96 1b 3a 73 f4 5b b9 3c e6 ce b8
       -5.4782042e-05 0.0005935159 -0.00020976532 -9.86573e-05
000110 8a 28 11 3a d5 59 46 b9 1c 56 37 39 68 05 57 39
       0.0005537352 -0.00018916217 0.00017484318 0.00020506012
000120 66 79 b3 39 0b 31 11 3a 88 ef 66 37 6a 93 ba b8
       0.0003423199 0.0005538619 1.37648385e-05 -8.896629e-05
000130 da 60 11 3a 86 ed 30 3a 94 e8 83 38 50 c0 93 37
       0.0005545743 0.0006749261 6.289888e-05 1.7613318e-05
000140 c2 f7 53 39 43 1e 29 b9 c4 30 9e b9 b3 4b db b9
       0.00020214825 -0.0001612837 -0.00030172442 -0.00041827335
000150 e0 78 9d b9 2c ae e2 39 6c 5a 1e ba fb 8d 86 ba
       -0.00030035432 0.00043235847 -0.00060406956 -0.0010265702
000160 aa 5c 6c b9 c5 d8 d2 b9 64 41 64 36 e2 70 93 36
       -0.00022541234 -0.00040215827 3.401271e-06 4.3940827e-06
000170 03 fa c1 b6 59 43 fe 36 e4 bb cb 36 1e a1 0f 37
       -5.7809534e-06 7.57763e-06 6.071745e-06 8.560977e-06
000180 85 87 1d 37 35 1c 21 37 1e eb 1e 37 c9 78 21 37
       9.389482e-06 9.602915e-06 9.472276e-06 9.62447e-06
000190 aa 15 38 b9 12 3b 4a b8 4c 7e 87 38 95 be 2c b8
       -0.00017555678 -4.8215566e-05 6.460826e-05 -4.118549e-05
0001a0 24 e5 0d b8 ed 02 f4 38 5a 78 81 b8 ba 55 65 b8
       -3.3830423e-05 0.000116353716 -6.1736166e-05 -5.4677694e-05
0001b0 d0 69 78 37 28 3f d2 b8 41 1f 0d 3b 2a 63 40 38
       1.4806588e-05 -0.00010025344 0.0021533521 4.586872e-05
0001c0 dc 79 8f b9 54 72 d1 39 b5 10 95 38 cb 68 60 b9
       -0.00027365878 0.00039948768 7.1079856e-05 -0.00021401343
0001d0 10 ac d3 39 8f c1 ef 39 1a 2a 0b ba ce ca 3f 39
       0.00040373253 0.00045729845 -0.0005308703 0.0001829073
0001e0 e9 9b 73 b8 20 44 26 36 fa 07 c1 39 30 3d 27 37
       -5.8080917e-05 2.4775582e-06 0.00036817772 9.968222e-06
0001f0 46 f3 7d b9 a9 97 e7 b9 d8 42 07 ba 20 17 52 ba
       -0.00024218587 -0.0004417275 -0.0005159802 -0.000801431
000200 cc 89 4c 39 a5 65 84 ba 88 79 f4 b9 45 82 aa ba
       0.0001950629 -0.0010101093 -0.00046629854 -0.0013008794
000210 b0 c6 55 b8 90 e7 8b b8 80 7c 1d bb c2 26 ad 39
       -5.09682e-05 -6.6711684e-05 -0.0024030507 0.00033026008
000220 b8 f4 36 ba 82 10 bd ba 3f 73 f0 b9 b1 a7 bf ba
       -0.0006979215 -0.0014424475 -0.00045862232 -0.001462212
000230 66 c1 09 bb 46 7f b0 b9 14 e6 7f 39 f8 eb 7e ba
       -0.0021019815 -0.00033664162 0.00024404406 -0.0009724493
000240 06 8f 1c b9 97 70 88 39 80 28 29 ba 80 19 8a b7
       -0.000149306 0.00026023827 -0.00064528733 -1.6462756e-05
000250 4e 0b 93 39 63 39 25 b9 74 f1 9e b9 12 e9 06 ba
       0.00028046448 -0.00015757004 -0.00030316005 -0.00051464245
000260 94 44 91 37 94 0b b7 b8 e6 c2 04 3a 1b 3e 8e 3a
       1.7317281e-05 -8.7282766e-05 0.00050644425 0.0010852249
000270 23 d7 01 ba 3e 06 cf ba 54 d0 6a ba 9b 74 9c ba
       -0.00049530173 -0.0015794707 -0.0008957435 -0.0011936607
000280 e6 e7 45 37 ea 17 5f 35 6c 8b ce b5 02 a4 81 b6
       1.1796108e-05 8.3108773e-07 -1.5388773e-06 -3.8635926e-06
000290 ca 3e 70 b4 25 a7 7b b6 62 2d cd 35 22 1f bc 36
       -2.2374584e-07 -3.7499206e-06 1.5286898e-06 5.606461e-06
0002a0 3e f4 14 b7 61 df cf 35 92 c5 b8 3a f7 3d 8e 3a
       -8.8783545e-06 1.5487714e-06 0.0014096966 0.0010852207
0002b0 d7 0c c8 b9 67 69 bd 3a 18 18 ee 3a 0f 99 30 b9
       -0.0003815654 0.0014450968 0.001816514 -0.00016841687
0002c0 55 b1 c8 3a f7 f9 00 3b a7 09 44 3a 0c b5 b7 3a
       0.0015311638 0.001968024 0.0007478245 0.0014015748
0002d0 32 32 78 ba a0 5d 1d ba dc e5 89 39 89 9d a0 39
       -0.0009467929 -0.0006003026 0.00026301935 0.0003063495
0002e0 0b c6 60 ba dc 7d 15 3a 98 91 9c 39 b2 3b 8d 39
       -0.00085744326 0.00057026534 0.00029863114 0.00026938092
0002f0 58 db 4c 3a 4a 07 82 38 4c aa e0 b8 da 10 bd b6
       0.0007814667 6.200241e-05 -0.000107128726 -5.6346007e-06
000300 ea c6 34 37 f2 34 a8 b7 4e c6 89 b7 22 31 bd 36
       1.0775149e-05 -2.0051815e-05 -1.6424015e-05 5.6383587e-06
000310 cd 07 43 36 00 bf c4 34 81 b7 9a 37 00 57 d5 33
       2.9061805e-06 3.6646816e-07 1.8443681e-05 9.9344106e-08
000320 b6 15 0f 3b 0f ee 8b 39 54 bc ad 39 fc b2 e3 39
       0.002183301 0.00026689513 0.00033137447 0.00043430168
000330 da b8 84 39 27 a3 72 ba 4b e3 0b 3a 21 df 23 3b
       0.00025314727 -0.0009255879 0.00053362985 0.0025004821
000340 29 11 9b 39 fe f8 7b 3a 86 73 78 b8 32 52 a3 b8
       0.0002957669 0.0009611993 -5.9235397e-05 -7.787756e-05
000350 87 03 aa 38 2b ff 5c b9 98 cc 07 b9 38 6b 39 b6
       8.106889e-05 -0.00021075892 -0.0001295082 -2.7629558e-06
000360 57 8b 75 b9 ba 35 29 b9 04 16 93 b9 86 e9 7c b9
       -0.00023416929 -0.0001613711 -0.00028054428 -0.00024119587
000370 50 60 5e b9 9e d8 a5 b9 50 bb f2 37 38 25 d2 b9
       -0.00021207449 -0.00031632645 2.8935872e-05 -0.0004008205
000380 40 ec 5c 37 c0 13 b1 36 cc 29 00 b9 74 eb 38 b9
       1.3168028e-05 5.2773103e-06 -0.00012222602 -0.0001763532
000390 f0 65 eb b8 fe 1b 5e b9 da 9d ed b7 60 73 62 b7
       -0.000112246606 -0.00021181998 -2.8326107e-05 -1.3497513e-05
0003a0 b6 3f 09 38 e4 09 b0 b6 68 8d 10 b6 21 e6 0a 38
       3.272268e-05 -5.24636e-06 -2.1539981e-06 3.3116088e-05
0003b0 3f 92 87 b7 32 72 4c b7 20 0e 40 37 d6 24 ee b7
       -1.6161355e-05 -1.2185936e-05 1.14473805e-05 -2.8388964e-05
0003c0 3f 26 68 ba 15 f0 95 38 52 8e 07 3a dd 7e c2 b8
       -0.0008855797 7.1495924e-05 0.00051710487 -9.274271e-05
0003d0 50 8f ce 36 f7 ef 81 ba df 90 aa 39 60 ef 94 3a
       6.155962e-06 -0.0009913434 0.00032532864 0.0011362843
0003e0 ea b5 24 3a 16 59 ca 39 50 ad 45 b9 e0 d6 e1 38
       0.0006283211 0.00038594817 -0.00018851948 0.0001076886
0003f0 84 e7 94 38 b3 77 df b9 80 64 43 b7 94 a7 ac b8
       7.100313e-05 -0.00042623057 -1.1646305e-05 -8.232813e-05

exp_avg_sq f4 [128, 10]
000000 fb 08 8a 35 52 01 8b 34 f4 ae 67 34 b3 4b bb 34
       1.0284415e-06 2.5891728e-07 2.1577199e-07 3.4886543e-07
000010 1b b2 7c 35 05 63 39 35 71 51 49 35 dc 1d 42 36
       9.4136493e-07 6.9061963e-07 7.499685e-07 2.8925633e-06
000020 21 05 ad 34 32 fe 81 35 20 0e 4a 36 82 ea aa 34
       3.2227493e-07 9.68523e-07 3.0108567e-06 3.1835594e-07
000030 60 d6 74 34 da 40 42 35 c9 56 32 35 bf 4a 83 35
       2.280226e-07 7.2365003e-07 6.6436456e-07 9.782015e-07
000040 57 06 2f 35 fb 67 50 36 7c a5 4a 34 e2 7d 2b 35
       6.5201806e-07 3.105494e-06 1.8872919e-07 6.388565e-07
000050 7c dd 55 36 1b 81 fc 33 6a 65 0e 34 38 e4 4c 35
       3.1868394e-06 1.17581486e-07 1.3261675e-07 7.6328024e-07
000060 21 19 66 34 a9 a3 96 35 e9 b5 11 35 ab 7a 63 36
       2.1429561e-07 1.1223502e-06 5.4281423e-07 3.3897038e-06
000070 c7 2b 92 34 ab a9 10 35 92 08 1a 37 95 47 68 35
       2.722647e-07 5.389108e-07 9.181111e-06 8.65309e-07
000080 ea 77 07 35 d4 75 ab 35 4e 8a 43 36 06 0b 9b 35
       5.0465917e-07 1.2774785e-06 2.9137768e-06 1.1551608e-06
000090 ec 50 15 36 4d 12 fd 36 00 46 bd 35 3a 2b 44 36
       2.2249833e-06 7.542118e-06 1.410197e-06 2.9231437e-06
0000a0 ee 73 cf 36 56 e2 de 34 b1 99 14 34 06 a9 22 35
       6.1825767e-06 4.1515403e-07 1.3839487e-07 6.0595664e-07
0000b0 70 8a d5 35 e6 3c c7 34 54 9b 18 35 12 d2 3c 36
       1.5910027e-06 3.7110948e-07 5.6850445e-07 2.813646e-06
0000c0 23 7c 13 35 ee 05 5b 35 7b ad ce 30 08 bc 06 30
       5.494241e-07 8.1592486e-07 1.5037779e-09 4.9016124e-10
0000d0 b8 72 d5 2f c3 78 5a 30 93 7e 85 30 43 03 27 30
       3.8825987e-10 7.947955e-10 9.712998e-10 6.075888e-10
0000e0 99 92 bc 30 3a 82 04 31 da 8f 74 30 c4 13 cf 30
       1.3720466e-09 1.9282553e-09 8.897111e-10 1.506685e-09
0000f0 01 ca 14 37 0a 6c 90 32 95 8e 52 33 58 47 c2 32
       8.86852e-06 1.6812937e-08 4.9024113e-08 2.2617016e-08
000100 4e c8 15 31 19 85 47 34 45 8c 5a 32 58 61 90 31
       2.1796214e-09 1.858174e-07 1.2721164e-08 4.2020183e-09
000110 1f ab 50 34 44 e6 17 32 0d 2f 98 35 27 e1 81 33
       1.9433763e-07 8.841713e-09 1.1338576e-06 6.0479856e-08
000120 88 fe 80 33 0d d1 56 34 1e 69 9a 34 a8 09 a2 34
       6.0067634e-08 2.0006355e-07 2.8761218e-07 3.0181877e-07
000130 e8 f2 53 34 55 ed 5b 35 f1 3f 3d 34 69 0c 5e 34
       1.9739275e-07 8.192922e-07 1.7625258e-07 2.0679876e-07
000140 86 12 cb 35 e9 4c 4b 33 c9 a1 32 33 e7 3d 41 34
       1.513007e-06 4.733457e-08 4.1590997e-08 1.7997046e-07
000150 6b d4 5b 34 4d 25 64 34 af 5a 4a 34 43 e6 2d 35
       2.0473242e-07 2.1247725e-07 1.8845707e-07 6.4782597e-07
000160 62 1a 33 34 5a 01 66 34 e0 ef c0 2f 4b 79 a7 2d
       1.6680272e-07 2.1420911e-07 3.5095038e-10 1.9039567e-11
000170 a7 30 61 2d 7c 6c d6 2e 44 57 3f 2f da 84 c0 2e
       1.2800572e-11 9.750864e-11 1.7402352e-10 8.754748e-11
000180 15 e5 24 2f 73 76 82 2f 4a f2 fc 2e f2 07 04 2f
       1.49971e-10 2.3731025e-10 1.15026724e-10 1.2008153e-10
000190 0a 09 69 33 7e 56 c7 30 1a b8 0b 31 c5 a0 24 31
       5.425776e-08 1.4503738e-09 2.0331812e-09 2.3956528e-09
0001a0 fa 1c ca 30 30 0f c1 31 78 9f fc 31 53 0d 05 32
       1.470567e-09 5.618766e-09 7.3522948e-09 7.7446485e-09
0001b0 6e e6 3b 32 36 df 0c 32 3b 48 5a 37 10 9c 50 34
       1.0937226e-08 8.199825e-09 1.301063e-05 1.9428285e-07
0001c0 76 32 ca 33 f4 c4 13 34 09 64 5d 34 10 83 d8 34
       9.415537e-08 1.3762093e-07 2.0618621e-07 4.0328496e-07
0001d0 74 10 58 34 f7 b3 e5 34 dd a0 bf 34 88 a8 2c 34
       2.0122553e-07 4.2785516e-07 3.5693566e-07 1.608006e-07
0001e0 10 56 78 36 df 21 d6 34 1f 5b 30 34 e3 e6 07 35
       3.7004975e-06 3.988525e-07 1.6424427e-07 5.0627403e-07
0001f0 d4 e8 9d 35 e2 a9 91 34 d8 40 38 35 59 65 ff 35
       1.1765173e-06 2.713196e-07 6.86397e-07 1.9028477e-06
000200 a4 6a af 34 3e d2 46 35 08 15 86 38 35 07 59 36
       3.267388e-07 7.406669e-07 6.393535e-05 3.2339715e-06
000210 58 dc 92 35 fb 93 1d 36 d1 e4 9c 36 f4 e9 2f 36
       1.0941976e-06 2.348096e-06 4.6758e-06 2.621321e-06
000220 53 f4 23 36 a5 b5 f2 36 f4 a7 10 36 2a 5b 62 36
       2.4431108e-06 7.233308e-06 2.1555434e-06 3.3729689e-06
000230 ec f9 ce 37 94 61 99 35 03 39 ed 34 5b c2 98 35
       2.4673493e-05 1.1427787e-06 4.4186172e-07 1.1381447e-06
000240 94 1b ac 35 03 a0 9d 35 27 6f 8f 35 16 e3 69 36
       1.2823025e-06 1.1743981e-06 1.068668e-06 3.4851887e-06
000250 0f bb a9 35 71 63 b7 35 3e b0 ab 36 3a ab a2 34
       1.2645922e-06 1.3663504e-06 5.1167144e-06 3.0299435e-07
000260 4b 87 93 34 05 7e 14 36 fc 7f a3 35 5f ae 3d 36
       2.7479322e-07 2.2127072e-06 1.2181695e-06 2.8264692e-06
000270 66 4d f5 35 e0 29 29 37 7a 61 9e 35 67 69 15 36
       1.8276448e-06 1.0082935e-05 1.1800287e-06 2.2264082e-06
000280 f8 62 e1 30 ac 0a 3d 2d 06 de b3 2d b5 63 64 2e
       1.6399033e-09 1.0745776e-11 2.0448542e-11 5.1929756e-11
000290 b8 02 5a 2e 74 86 26 2e 1e 06 c3 2e 96 14 bc 2e
       4.9569876e-11 3.786345e-11 8.86866e-11 8.552907e-11
0002a0 2b 76 46 2e 92 32 20 2e cd a4 ee 36 94 82 a1 34
       4.5124942e-11 3.6424704e-11 7.112138e-06 3.0083595e-07
0002b0 43 75 be 33 76 51 e1 34 e7 76 63 35 e9 97 3d 34
       8.868894e-08 4.1968786e-07 8.4737115e-07 1.7657261e-07
0002c0 52 dc 0e 35 7d 7c f2 35 03 57 01 35 5c fc 2a 35
       5.321973e-07 1.8066636e-06 4.8182864e-07 6.3697166e-07
0002d0 a4 06 fc 36 30 e7 34 35 17 8a 5e 34 f9 92 ba 34
       7.5109583e-06 6.739165e-07 2.0725598e-07 3.4752136e-07
0002e0 d1 13 8d 35 6c ef c0 34 c9 73 0b 35 2c f8 d1 35
       1.0511086e-06 3.593699e-07 5.1950025e-07 1.5643941e-06
0002f0 e3 a4 a4 34 83 0a 27 35 00 05 08 32 a2 12 b1 2e
       3.066735e-07 6.2227645e-07 7.917379e-09 8.052338e-11
000300 c0 2a 20 2f ba aa b5 2f 2c c4 6f 30 91 5a 13 30
       1.4567103e-10 3.3045017e-10 8.722647e-10 5.360699e-10
000310 8a 67 d7 2e c7 de 92 30 b8 43 50 30 22 ef f4 2f
       9.79546e-11 1.0686215e-09 7.5766193e-10 4.4553256e-10
000320 d6 4f e6 36 8b 60 ca 34 72 8a 11 34 da 77 00 35
       6.8638283e-06 3.7695676e-07 1.3554543e-07 4.785812e-07
000330 e1 34 2a 35 02 81 b5 34 ed 02 16 35 ef 09 15 36
       6.3406884e-07 3.3807743e-07 5.588361e-07 2.2208512e-06
000340 56 db 10 35 e4 0d 49 35 c0 98 92 31 2f 1a 8f 31
       5.3963356e-07 7.489855e-07 4.266525e-09 4.1648245e-09
000350 be e0 56 31 b6 bb 97 32 ee bd 3e 32 a9 41 37 32
       3.126885e-09 1.7664075e-08 1.1102641e-08 1.0666931e-08
000360 8a 69 d0 32 21 31 54 32 be 24 c7 32 8e 98 b3 32
       2.426238e-08 1.2351195e-08 2.3183357e-08 2.0907716e-08
000370 28 57 fa 36 1e 8f 00 35 c5 68 5f 34 7a 7d ae 34
       7.460727e-06 4.789198e-07 2.0806608e-07 3.2501322e-07
000380 98 23 20 35 27 57 a1 34 71 51 b0 34 56 bc 1f 35
       5.965644e-07 3.0051999e-07 3.284181e-07 5.950618e-07
000390 ec 84 ad 34 d9 94 be 34 1e 67 9c 30 86 d1 43 2f
       3.2320474e-07 3.549856e-07 1.1379802e-09 1.7809584e-10
0003a0 32 c7 49 2f 29 f7 48 30 9f f2 96 30 bb 1c 8b 30
       1.8351612e-10 7.311081e-10 1.0982893e-09 1.0121747e-09
0003b0 9e 3a 94 30 20 23 2e 31 50 07 ae 30 06 a1 db 30
       1.0785077e-09 2.5340299e-09 1.2662245e-09 1.5980113e-09
0003c0 5e 0b 46 36 f2 f2 1e 34 81 3f dc 33 6d af a0 34
       2.9510916e-06 1.480328e-07 1.02560996e-07 2.9929961e-07
0003d0 44 ee ad 34 ba b2 fc 34 f6 0b 8d 34 f6 e3 ab 35
       3.2397122e-07 4.7068698e-07 2.6272e-07 1.2806838e-06
0003e0 75 c1 db 34 08 f2 a5 34 c4 74 8d 37 d4 f7 8f 35
       4.0932687e-07 3.0909746e-07 1.6862883e-05 1.0726458e-06
0003f0 a1 59 d7 34 0e 64 65 35 e1 8e c0 35 d9 33 49 35
       4.0112084e-07 8.5454747e-07 1.4346698e-06 7.4953783e-07
