results/Hierarchy3/Hierarchy3-2.onnx (onnx, 80207 bytes, 6 tensors)

network_body._body_endoder.seq_layers.0.weight f4 [128, 15]
00000000: fafb d0be 0f08 24bd e108 293e 0cf2 a4be
00000010: aebb ebbd a3c8 8f3e ce3b 69bc bfd6 043e
00000020: 888c 61bd 6717 323e 8aab 5ebe c3fd 243e
00000030: 00bf 003f 527a 92be 8b62 82be 6501 083e
00000040: eb80 99be d673 c33d e809 acbe 00d3 13be
00000050: 2474 a7bd f15a bdbe b7a3 e7bd dfc6 0cbe
00000060: 7fc2 eebd 97e1 d63e d418 79bd cdfa 173d
00000070: 4ee1 18be fd8b 9fbe f516 f43d c7bc 8dbe
00000080: f30d 9f3e de71 c9be 9586 903d 1164 1abe
00000090: eaff ccbe 88f7 87bb 8e83 9e3e 69fb 0bbe
000000a0: eb75 52be 175c 11bd 6814 87be 00bc 443e
000000b0: f529 c3bc 9cb1 843e 438e a7bc 0cb4 a5bc
000000c0: 23fa 213f 6e7f 08bd 5446 27be 6f1f 31be
000000d0: 5f49 87bd ebd1 423d 86ea 03be 9fbb 16be
000000e0: bc59 07bf 879a 5e3e 8ca1 8e3e 0b88 853e
000000f0: b9c9 133c 05d0 09be 9792 9d3e e812 6bbb
00000100: 06fe 5c3e d0bf b23d 5c84 383e d006 29bf
00000110: 9564 763d 82fc b1bc e074 37be 44e2 17bf
00000120: c011 7a3d 19b4 bcbe b907 293d 1243 eebd
00000130: b789 9dbe ef2d a1bc 6d3a 2e3e 367e 263f
00000140: 707f 0b3e aeeb b7bd 2f35 4d3e ee33 293d
00000150: 1cb8 263d 16a9 8fbe 645a cabe 3ce7 203d
00000160: 3d90 12be 1287 d8bd 87bb b2be 18b5 d43e
00000170: 373e f03e ec64 163e 157e 2c3d c5f4 ee3d
00000180: b4f7 a03d 83e1 1cbe 4ef2 c23e 2a06 d03d
00000190: b658 f0bc d396 1f3e 65cf d3bd ead4 b53d
000001a0: b14d 873e 0a0c 5c3d eb4a be3d d76c 9b3e
000001b0: 1429 b23c e615 e9bc 5bf7 9dbd 36cb 16be
000001c0: 70cc 7ebe aec2 42bd 991e ef3d 3b11 dc3d
000001d0: 9ecd 7a3d 5af1 ce3d 7ea0 d03e 91f1 42be
000001e0: 8a85 c4be 20d4 edbe 8804 723d 353d a33e
000001f0: 2024 d23c 00fb bb3e 4087 edbd aa98 4bbe
00000200: 5758 8b3e cce9 ba3d 1285 843e 9148 fe3e
00000210: b9dd 103e bc45 303e fdbc f4bd 00cf fb3d
00000220: e77b 1b3e 3e4a 413e f8d7 013e 9fcb 47be
00000230: 038a e8bc 019a 54be 2e88 2ebd 3190 ecbe
00000240: ed41 8abd 2353 783e e916 37bc 86dd b0bd
00000250: b15d 543c 4dbf 583e 2930 753e 48e4 55be
00000260: ffcb 273e 8770 67be cc38 01bd a969 79be
00000270: 0b59 74be 7334 8ebe e2d8 ba3e 5b4a e8be
00000280: d7c2 603d 4ed6 243e 8bd4 8dbe b625 b0be
00000290: c08b fbbd 257b 34bc 9d6f 993e 9c37 013f
000002a0: c271 633e 82df 7d3d 2968 10bf d47f 333c
000002b0: daf4 eb3b f2ea cebd 76a9 2f3e 7841 18bd
000002c0: e259 823e a16a 80bd 91ec bbbe e67b 5cbf
000002d0: 0475 7c3c 6b26 88be 0993 3cbd 7cf1 103c
000002e0: d144 9dbd 782a 0bbf b1cf 4bbd 42b2 73be
000002f0: 5d8e 4c3e f5e3 233e 88b6 b5bd 45ef e0bd
00000300: b1df 9b3e 3e3f 193f 7d25 833e 1b4c 30bd
00000310: 044b 2a3f a0c1 cf3e 75ad fbbd 5155 2cbe
00000320: 4906 003d 01cc 003f 5c14 87bc ebbd a23d
00000330: 65ee 8abe f3b5 d43e e656 8a3e 278d d73e
00000340: 7a9f a23e 222e 94be 8d0d b83e a366 a1be
00000350: 661d ea3e 040f 3c3e 4b05 a9bd 62ca a7be
00000360: 2a07 c83e 6037 a3bc 8842 063c b63b 0a3e
00000370: e70c 33be 446b ab3e 9ad8 86be f60b 423f
00000380: 6f89 d53e 835c 93bc 0ad9 00bf 80e4 703d
00000390: 47bc a63e cf9d 1b3d dd48 0dbf e109 8d3e
000003a0: ba9e 4b3d 6cd9 153d 108b 983e d371 b33d
000003b0: 145a 223e 231a 1a3d 0693 073f 697e 713e
000003c0: d3f5 873c 2626 8bbe 8856 55be a210 543e
000003d0: 1e01 9bbd 5440 b6be 5aa3 933c e4b0 cf3a
000003e0: e273 0a3e 8a84 fdbd ef40 ef3d 70fe a63e
000003f0: 2779 25be 5d38 70be eb25 7fbe 942b 02be
-0.40817243 -0.040046748 0.16507293 -0.32215917 -0.115104064 0.2808276 -0.01423545 0.12972544
-0.05506566 0.1739174 -0.21745124 0.16112427 0.5029144 -0.28608948 -0.25465807 0.13281782
-0.2998117 0.09543578 -0.33601308 -0.14435959 -0.08176449 -0.36983445 -0.11310523 -0.13747738
-0.11658191 0.41968986 -0.060814694 0.037104417 -0.14929697 -0.3116149 0.11918441 -0.27683088
0.3106533 -0.39344686 0.070569195 -0.15077235 -0.40038997 -0.004149381 0.30959743 -0.13670124
-0.20552795 -0.035488214 -0.26382756 0.19212341 -0.023823718 0.25916755 -0.020453578 -0.020227455
0.63272303 -0.03332465 -0.16335422 -0.17297147 -0.06605791 0.047563475 -0.12882432 -0.1472001
-0.528713 0.21738635 0.27857625 0.26080355 0.009020262 -0.1345826 0.30775902 -0.0035869423
0.21581277 0.087279916 0.18019241 -0.6602602 0.060154516 -0.02172685 -0.17915678 -0.5932963
0.061052084 -0.36856154 0.04126713 -0.116338864 -0.3076913 -0.019675223 0.17014475 0.6503633
0.13622832 -0.08980499 0.20039819 0.04130929 0.040702924 -0.2805869 -0.39522088 0.039283022
-0.14312835 -0.105726376 -0.34908697 0.41544414 0.46922466 0.14686936 0.04211243 0.1166778
0.078597456 -0.15320401 0.3807549 0.10157426 -0.029339176 0.15584879 -0.10342292 0.08878501
0.2642646 0.05372242 0.09291633 0.30356476 0.021748103 -0.028452825 -0.07713195 -0.14725956
-0.24882674 -0.047548942 0.11675758 0.10745474 0.061231248 0.10104628 0.40747446 -0.19037463
-0.38383132 -0.464509 0.059086353 0.31882635 0.025651991 0.36714935 -0.115980625 -0.19882455
0.27215835 0.091266245 0.25882775 0.4966474 0.1414708 0.17214102 -0.11950109 0.122953415
0.15183984 0.18875977 0.12680042 -0.19511269 -0.028386122 -0.20761873 -0.04261034 -0.4620376
-0.067508556 0.24250464 -0.011174896 -0.08636002 0.012961791 0.21166725 0.23944153 -0.20887864
0.16386412 -0.2260152 -0.031548306 -0.24356712 -0.23862092 -0.2777439 0.36493593 -0.4536923
0.054873314 0.16097376 -0.2770122 -0.3440377 -0.122825146 -0.011015688 0.29967967 0.5047548
0.22211364 0.06198073 -0.56408936 0.01095577 0.0072008194 -0.10103406 0.17154488 -0.03717181
0.254592 -0.06270338 -0.36703923 -0.86126554 0.015408758 -0.2659181 -0.04603866 0.008846637
-0.07679141 -0.5436168 -0.049758617 -0.23798469 0.19976182 0.16004927 -0.08872706 -0.10983137
0.304441 0.59862125 0.2561454 -0.04304133 0.66520715 0.40577412 -0.12288944 -0.1682942
0.031255994 0.50311285 -0.0164892 0.0794638 -0.27135006 0.41545066 0.27019423 0.42099878
0.31762296 -0.28941447 0.35947838 -0.31523618 0.45725554 0.18365103 -0.08252963 -0.32771593
0.39067966 -0.019923866 0.008194573 0.1349934 -0.1748539 0.33480275 -0.2633713 0.757995
0.41706416 -0.017988449 -0.50331175 0.058811665 0.3256552 0.037992295 -0.55189306 0.275466
0.04971192 0.036584303 0.29793596 0.087619446 0.15854675 0.037622582 0.52958715 0.23583378
0.01659671 -0.27177542 -0.2083379 0.2070947 -0.075685725 -0.35595953 0.018022228 0.0015845564
0.13520768 -0.123787954 0.11682307 0.32615995 -0.16159497 -0.23459001 -0.24916808 -0.12711936

network_body._body_endoder.seq_layers.0.bias f4 [128]
00000000: 4acf d03c 7a7a b23c e1e7 383c 6ba8 22bd
00000010: d004 1e3c 3e2c 143d 148b e73d adb2 ea3c
00000020: 24e9 00bd f557 c7bc 1ec7 7e3c 444b f9bc
00000030: 8302 323d f93e 473b 1678 79bc fc01 a43d
00000040: 3e56 ddbc c4e8 a6bc 4e53 b63c 0e9e 74bc
00000050: 6bfc d7bc 4cd9 09bd b0f3 2dbb 1b7a 82bc
00000060: 8de4 c83b ceaa 1c3d 2cd5 81bd e920 213b
00000070: f952 4d3d 9a3e b4bc 1f13 083d 51bd 153d
00000080: d239 423d b498 16bd ab98 a5bc 878a f03c
00000090: c053 db3c d95b 673d 4d9e 073d ba4a 6dbd
000000a0: bea9 84bd 8fc0 69bc 8842 d73d b429 a13c
000000b0: caa6 0cbc 4d5f abbc 71ef 8b3c a218 fe3c
000000c0: 0ef5 edbc 3b3b 3fbd e01b 0e3d c1d0 2dbc
000000d0: b1f2 193c a544 fa3b 04e8 9e3c ff24 bdbc
000000e0: 79b8 113c 12e3 c4bb 1ce1 a9bb ec0b 75bd
000000f0: 80bb 1c3d 6cca 50bd 7485 3bbd 7340 c5bb
00000100: 1f51 703d e40b b93c 6b24 90bc bbb5 70bd
00000110: 4015 313d b2e5 23bd c28d 863a 81b5 74bc
00000120: 0851 1e3d d2e4 94bd 614d 14bd e388 8f3d
00000130: 6bf7 053d 7815 58bd ab70 b5bc 6976 323d
00000140: 712c c93d 2798 3abc 2ef5 a8bd 6b84 3b3d
00000150: 2159 323d 53d9 d23d 5c3e 393c 8c93 f9bb
00000160: 9b7b c339 112a 57bc be10 c4bc d056 8bbc
00000170: acdc 4cbc 4243 ecbc 3ae5 5bbc e0b5 bebc
00000180: 3242 9fbd 3875 9abc 2291 4ebc e973 a8bb
00000190: d424 4abb 35bf f73c e7c2 f8bc ca02 563c
000001a0: 3289 e4bb 6a2e b0bc 502d 143d 6cfc b43d
000001b0: e4ef 1f3d 5128 7e3d adac 0abc 2adf 1abb
000001c0: d9a6 f3bc 6aa8 8bbc f616 08bd 5db3 003d
000001d0: 4c3d 293d 2d37 a93c 8d23 0bbc 1992 18bd
000001e0: 6ae9 c8bc 62bb 00bd d557 183d 1824 463d
000001f0: 5541 e0bc b3d0 853c 6a06 05bd 5e46 5f3d
0.025489468 0.021786917 0.011285753 -0.039711397 0.009644702 0.036175005 0.11305824 0.028649652
-0.03147234 -0.024333933 0.015550403 -0.030431397 0.043459427 0.0030402525 -0.015226385 0.08008191
-0.027018663 -0.020374663 0.02225652 -0.014930261 -0.02636548 -0.033654496 -0.0026542954 -0.015927365
0.006130761 0.03824883 -0.063394874 0.0024586266 0.050127957 -0.022002507 0.03322136 0.0365575
0.047418423 -0.036766723 -0.0202144 0.02936293 0.026773334 0.056484077 0.03310995 -0.057932593
-0.06477688 -0.014267101 0.10510737 0.019673206 -0.0085846875 -0.020919466 0.017081948 0.031017605
-0.029047515 -0.046687346 0.034694552 -0.010608853 0.009396241 0.0076375776 0.019397743 -0.02308893
0.008894079 -0.006008514 -0.005184306 -0.059825823 0.03826475 -0.050974295 -0.045781568 -0.006019646
0.058671113 0.022588678 -0.01759549 -0.05876706 0.043233156 -0.040013976 0.0010265636 -0.014935852
0.038651496 -0.072702065 -0.036206607 0.07008531 0.03270666 -0.05275485 -0.02214845 0.043569956
0.0982293 -0.011388815 -0.08249889 0.04578058 0.04354203 0.102953576 0.011306372 -0.007616466
0.00037285392 -0.013132588 -0.023933765 -0.017009169 -0.012503784 -0.028840665 -0.013421351 -0.023280084
-0.07776298 -0.018854722 -0.012607845 -0.0051407707 -0.0030844705 0.030242542 -0.030366374 0.013062188
-0.006974363 -0.021506507 0.036176026 0.08837208 0.039047137 0.062050167 -0.008464021 -0.0023631551
-0.029742645 -0.01704808 -0.033225022 0.031421054 0.041318223 0.020656193 -0.008492363 -0.037248705
-0.024525363 -0.031428702 0.03719314 0.048374265 -0.027374903 0.016334867 -0.03247682 0.054510467

network_body._body_endoder.seq_layers.2.weight f4 [128, 128]
00000000: 61c6 383d c407 ff3d db0d 763c 1c80 16bd
00000010: b090 d53c 36cd be3c 018e e23d 0540 b33b
00000020: d1a1 febc 37e4 843d 02da cebd 88b4 b5bb
00000030: 6710 453d 0ab3 a6bd 9f1c db3d 2d96 513d
00000040: d988 94bc bd3c af3a 3039 52bd 0ee8 333c
00000050: 2732 733d 2e63 01bd d17f 543d ee52 39bd
00000060: d045 1dbe e7c3 003e bd2d b13d 0384 83bd
00000070: b6b9 393e 7d96 13be db14 363d 67ed c13c
00000080: cfbb 98bd 40ed 37bd e8a1 053e 0603 f53d
00000090: bfd4 853c b28c 81bd c424 34be 0efd 493d
000000a0: dfd8 6cbd e046 7b3d 5ad2 86be 4af9 9bbd
000000b0: d965 db3d 4e99 45be 8a1e 5c3d 8242 013e
000000c0: f18d 1ebd e5aa 11be 521c 513d c422 11bd
000000d0: 4fbb 9fbd 6b84 9b3d 21f1 a7bd 6915 173c
000000e0: 4fb9 bfbd cbe9 0e3d b79f 79be 1238 c1bc
000000f0: c5e4 6d3d 23bb 77bd 1988 4fbe 3998 45be
00000100: 68fc 8a3c f723 bd3d 08c7 883c 0d8f 1cbe
00000110: 0be6 d9bd a7a9 53bd f454 7fbc 769d fd3d
00000120: 959b 1abe 0343 183e 025b a03d e305 10be
00000130: 7153 bc3c 5bf3 463d 76b3 dd3d 48bb a43d
00000140: 3bfe 83be 0e22 1cbe 6cde b0bd b547 963d
00000150: fe48 04be ca5c 903e 6712 5fbc c4d7 3fbe
00000160: 8dcf 9b3d d8d2 2abe ccd3 e6bd 6ec8 cf3d
00000170: 5b7d 10be 4b54 1e3e e03f 1fbd b13a 48bd
00000180: 2b3a 14be 2a50 a8bd 8f7c 90bd 9648 da3d
00000190: 298f 10be c682 63bd cc89 09be bba3 a1bd
000001a0: bfb3 d83c cf0e ab3d 60a6 b2bd 6c68 48bd
000001b0: b3fc 3fbd 458e eabd f433 29be 8d12 1bbe
000001c0: 4576 92bd e356 033e cd58 3d3d 8abf 243e
000001d0: b074 d83d 5ac6 1cbd bca5 aebd ea6e 643c
000001e0: a3bf 233e b8e2 393c 39ad 143d 09b4 60bd
000001f0: 3240 d53d db77 3a3d 1d91 423d 0403 d6bc
00000200: 1f0b 0c3d 8fdf 10bd 2231 503c 0e00 5d3e
00000210: 8450 44bd 1268 78bc 6c18 803e 7da6 c0bc
00000220: d8cc c33b b0ad a13d fea3 1b3e 1ebf abbc
00000230: 53e7 5bbd 8e83 3cbc 0613 853b 7528 e6bd
00000240: 073c 903d 7695 2e3e 54fe 173d 90c6 013c
00000250: 7a99 ecbd 094b 11bd 866f 31be 224a 35be
00000260: dd5f 023e 1efe 293e f37e 6abc b888 ca3d
00000270: a543 9e3a 4c17 52be 7926 c53d 3a3b 4abe
00000280: e029 74be cc67 773a 60d1 b3bc c90b 21be
00000290: 2a00 3cbd 04b7 153e dba8 473d 63ac 56bc
000002a0: b5c0 963c aee3 893b 75e2 dcbd 5c8d f13c
000002b0: b320 33be 0023 78bc 8979 503e 6c90 303e
000002c0: f6e8 c7bd 7f30 3cbd a13e df3d 6965 d8bd
000002d0: a8aa 243e b174 1cbe 0621 19bd 5c87 af3b
000002e0: b25f b5bd f62c 49be 3b7e 053a 6a6d 1b3b
000002f0: 6147 5e3d d272 6bbd a2f6 fcbd b4d1 933d
00000300: 7e09 89be 2dd2 12bd 2b0c 8f3d c399 1f3e
00000310: db74 173d 971a c4bd 50ec 85be 845a 273e
00000320: 8e88 ff3d 8a93 afbd 6b46 8f3d 1d17 e5bd
00000330: ef3b 58be 077d 053d 309d 7bbd 4d3d 233e
00000340: 7424 513d f847 943c eb90 8f3d 10f8 2d3e
00000350: f8dc 433d 4dca 65be 0d26 033e fc6b e4bd
00000360: 3a21 ee3c 39da b3bc 8e15 13be 87e7 44bd
00000370: 9278 3abd 5c43 80bc 920e 033e 358b f2bd
00000380: d94e b33c fa50 0abe 632b 3f3d 2353 26bd
00000390: a015 5f3d e451 6a3d 64fa 8d3d 9cd4 f83d
000003a0: 5599 abbd ecb9 d03d b961 d2bd 13cb 11be
000003b0: bea4 1f3d 5195 cdbd aac5 14be 8e36 b639
000003c0: 262a d53d c4ac 18bd da85 41bd 5473 013d
000003d0: 52f8 b03c 585b 73be 5ca5 953c da8b 323b
000003e0: f8ac 61bd 7c70 d13d b883 13bd c4a5 50be
000003f0: 4e8f e4bd 0beb 473d 7052 08be 6323 cabd
0.045111064 0.12452653 0.015017952 -0.03674327 0.026069969 0.023291212 0.11062241 0.005470278
-0.03108302 0.06488841 -0.101001754 -0.0055452026 0.048111346 -0.08139618 0.106988184 0.05116861
-0.01813166 0.0013369542 -0.05132407 0.010980619 0.059374 -0.031588726 0.051879708 -0.045245104
-0.15358663 0.12574731 0.08651302 -0.064216636 0.1813725 -0.14412875 0.044453483 0.023672773
-0.07457697 -0.044903994 0.13050044 0.11963467 0.016336797 -0.063256636 -0.1759215 0.049313597
-0.057824012 0.06134689 -0.2633236 -0.076159075 0.10712785 -0.19296762 0.05374006 0.12623027
-0.038709585 -0.14225347 0.0510524 -0.035433546 -0.07799398 0.07593616 -0.082002886 0.009221413
-0.09361517 0.03489093 -0.24377333 -0.023586307 0.0580795 -0.0604812 -0.20266761 -0.1929635
0.01696606 0.092353754 0.016696468 -0.15288945 -0.1063958 -0.051675465 -0.015584219 0.12383549
-0.15098412 0.14869313 0.07829858 -0.14064746 0.022989007 0.048571926 0.10825245 0.080435336
-0.257799 -0.15247366 -0.086361736 0.07337896 -0.1291847 0.28195792 -0.013615227 -0.18734652
0.076079465 -0.16681993 -0.11270866 0.10145651 -0.1411032 0.15461843 -0.038879275 -0.048884097
-0.14475314 -0.08218415 -0.07055008 0.10658376 -0.14117111 -0.055544637 -0.13431472 -0.07892557
0.026452897 0.08352434 -0.0872314 -0.04892771 -0.046871852 -0.11452917 -0.16523725 -0.15143795
-0.071514644 0.12826113 0.046227265 0.16088691 0.105691314 -0.0382751 -0.08527705 0.01394246
0.15991072 0.011345558 0.03629801 -0.054859195 0.10412635 0.04552446 0.047501672 -0.026124485
0.034190293 -0.035369452 0.012707027 0.21582052 -0.04792835 -0.015161531 0.25018632 -0.023516888
0.005975347 0.078944564 0.15199277 -0.020965155 -0.053687405 -0.011505974 0.0040611057 -0.11238185
0.07042699 0.17049202 0.03710778 0.007920876 -0.11552711 -0.03547195 -0.17327699 -0.1770406
0.12731881 0.16600844 -0.014312494 0.09889358 0.0012074603 -0.205167 0.09626479 -0.19749156
-0.23844099 0.0009437769 -0.021950424 -0.15727152 -0.045898594 0.14620596 0.048745017 -0.013102624
0.018402437 0.0042080497 -0.10785381 0.02948635 -0.17492943 -0.015145063 0.20358862 0.17242593
-0.09761231 -0.045944687 0.109006174 -0.105662175 0.16080725 -0.15278889 -0.03738501 0.0053567123
-0.08856143 -0.19646057 0.0005092357 0.002371634 0.05426729 -0.057482548 -0.12351729 0.07217732
-0.26765054 -0.03584497 0.06984743 0.15585999 0.036976676 -0.09575384 -0.26156855 0.16343123
0.124772176 -0.08573063 0.06995853 -0.11186049 -0.21116613 0.03258994 -0.061429203 0.15941353
0.051060155 0.018100724 0.07010063 0.1698916 0.047818154 -0.22440453 0.12807484 -0.11153409
0.029068578 -0.021954643 -0.14363691 -0.048072364 -0.04552514 -0.01565712 0.12798527 -0.11842958
0.021888183 -0.13507453 0.046672236 -0.04060663 0.054463983 0.057207003 0.06932524 0.12149927
-0.08378855 0.10191712 -0.10272545 -0.14237623 0.03897547 -0.100382455 -0.14528528 0.00034754392
0.1040843 -0.037274137 -0.04724679 0.031604126 0.021602783 -0.23765314 0.018267326 0.0027244003
-0.055096596 0.10226533 -0.03601429 -0.20375735 -0.11160146 0.04880814 -0.13312697 -0.09870031

network_body._body_endoder.seq_layers.2.bias f4 [128]
00000000: 8754 2a3b 4ab4 d2ba 51ed 1fbc b2a9 013d
00000010: 8960 14bd cd89 e23c 2d1d 5dbc 88db 8dbb
00000020: 893f 8abc e007 5e3c 0fa2 2f3c 7e39 54bc
00000030: 9117 563c 3532 b33b d9ec ab3c d9de 8fbc
00000040: 92fa 05bd 16ad 11bc b292 7cbc 2f46 a5bb
00000050: e85c 46bb fe10 323b 6e26 a03c 7d5c 2f3a
00000060: 6fb5 39bb 57a6 0abc 3c1d ca39 cfe2 64bd
00000070: 1315 bfba b3c8 0fbd cab4 3bbc 1c53 a8bc
00000080: f048 17bc 738f 79bd 5294 eabb 3ada 47bc
00000090: 5721 af3c f7cd 52bd 2e80 a03c 4ed2 513c
000000a0: 11d0 62b8 e5a3 a73b 0eb5 1ebc ec16 0a3c
000000b0: 83b6 2abc 93fb dd3b 452e d13a da47 73bc
000000c0: b649 0fbd 8c43 0dbd 437c 6cbb 782a a33b
000000d0: 1cc2 dd3b 32d4 613c 613d bd3b e4fd 5ebc
000000e0: d8a3 46bd 2909 973b 8b8f 92bb be80 c33c
000000f0: fb92 3cbd 76f2 923a ee85 05bc cb6e 1bbd
00000100: 2e79 373c 4818 eabc 796b c13b ada4 53bc
00000110: afba 2dbb 0cce 53bd 6b81 14bd a652 2b3c
00000120: 9592 653c 6dc4 2fbd 5ceb eabc 80e3 3d3c
00000130: 47be 7bbc a1ae e7bc f5a4 833b c3d4 42bc
00000140: e71f 443c ce5e 37bd 2467 7b3c 2316 01bc
00000150: 6eb8 223b 4d69 31bc 2f8b 75bd 3c80 7fbb
00000160: a9ea bd3c 36a8 b73b 0ad0 eb3b 6b94 803c
00000170: fbad a9bb 8c74 bdbc b75a 74bb 3067 b9bb
00000180: 71bc b33b 9134 3f3d 7ed6 bb3b 8b31 9a3c
00000190: f489 c6bc 6bfc b5bc f094 a63b 2178 e0bb
000001a0: 0f59 aebc 44f1 e1bb a20c 823b b6d5 8dbc
000001b0: 0571 ccbb ecba c23c 3920 6dbc 9ce3 d4bb
000001c0: f610 5e3b 628c b23b 1419 83bd 7816 a13b
000001d0: 9a9f 0dbd 9829 2cbc 4831 8f3b 80c9 98bc
000001e0: 1674 5b3c 1c04 413c da5c 943c 8aba e53c
000001f0: b13d 3dbc 8846 48bd 1a32 823c 2767 cb3c
0.0025990324 -0.0016075459 -0.0097611705 0.031655975 -0.036224876 0.0276536 -0.013495726 -0.0043291487
-0.016875999 0.013551682 0.01071979 -0.01295316 0.013067142 0.0054686316 0.020986961 -0.017562317
-0.032709666 -0.008891365 -0.015415834 -0.005043767 -0.0030267779 0.0027170773 0.019549575 0.0006689502
-0.0028336903 -0.00846251 0.00038550224 -0.055880364 -0.0014578424 -0.03510351 -0.011456678 -0.020547442
-0.009233698 -0.06092782 -0.0071587944 -0.012198025 0.021378202 -0.051465955 0.01959237 0.012806488
-5.4076376e-05 0.0051159733 -0.0096867215 0.008428317 -0.010419491 0.0067743747 0.0015959224 -0.014848674
-0.034982406 -0.034488246 -0.0036084808 0.004979428 0.0067675244 0.013783501 0.005775139 -0.013610337
-0.048496097 0.0046092463 -0.004472678 0.0238651 -0.04603861 0.0011211175 -0.008149607 -0.037947457
0.011198325 -0.028576031 0.0059027043 -0.01291768 -0.0026508977 -0.051710173 -0.036256235 0.010456717
0.014011999 -0.042911936 -0.028676681 0.011589885 -0.01536519 -0.028281512 0.004017467 -0.011891547
0.011970497 -0.044768147 0.015344415 -0.007878813 0.0024829167 -0.010828328 -0.05994719 -0.0038986346
0.023183184 0.005604769 0.007196431 0.015695771 -0.005178211 -0.023126863 -0.0037285516 -0.005658053
0.0054851105 0.04668099 0.0057323566 0.018822452 -0.024235703 -0.022215089 0.0050836727 -0.006850258
-0.0212827 -0.006895216 0.003968791 -0.01731382 -0.006239059 0.023770772 -0.0144730145 -0.0064968597
0.0033884621 0.005448864 -0.06401268 0.0049160086 -0.034576036 -0.010507964 0.0043698885 -0.01865077
0.013394376 0.011780765 0.018110681 0.02804305 -0.011550353 -0.04889539 0.01589303 0.02482946

action_model._discrete_distribution.branches.0.weight f4 [2, 128]
00000000: c37d adbc 5b74 693d cfa0 603d e451 1e3d
00000010: 00ff 16bd b837 6a3d e317 a13c 1d5a 1a3d
00000020: 3d03 573d 5b40 39bd 9809 23bd 5e9c 8e3d
00000030: d48e edbc e75b 783d ea31 0c3d a08c 193d
00000040: d443 e23c 7899 363d 56a0 11bb a271 0d3d
00000050: d082 083d 56cd 20bd ab95 c3bc 326f 0c3d
00000060: 086e 00bd f8ae 413c 6108 893d 43cc 08bc
00000070: 0f42 27bd d1a1 c93c cfb5 0e3d f24a cd3c
00000080: 1cd1 a83d 32d1 893b f51d 303d f387 853d
00000090: 37c6 3a3d a79b 6d3c d6bb 05bd 6e65 13bd
000000a0: 4714 11bc 4d7f bc3d d8ee 8f3d 35d9 2abd
000000b0: 8918 d7bb 634e d4bc b22d 113d f651 103d
000000c0: 5f95 d33c 78c0 cc3c f1f5 01bc 62b4 833c
000000d0: b302 5abd 7b7c e2bc 6917 4fbb 1b83 ddbc
000000e0: 6bf9 633c e87b 32bd ab79 d43c c8b9 d7bc
000000f0: bf90 f5bb a60f b0ba 5c1e 2bbd 8fda 17bd
00000100: 435a fe3c 9524 093d 1feb 3b3d 404f e9bc
00000110: 719d c9bc 3304 bfbc 8b0c 35bb 5430 823d
00000120: 8f63 c9bc ee27 f63b af51 24bc 115c 793d
00000130: 0fb0 42bc e984 fabb 8c71 d83c fa4b 033d
00000140: 3187 443d 1a5d 213d c6a7 0e3d e82b 2f3d
00000150: 03e4 9a3d 3cde e6bc 5988 43bc 7a13 743c
00000160: b1c5 34bd 1b82 8dbc 6baf cabc 256b 24bd
00000170: dd1d 153d b38a 633d beb2 7d3b 8d7b eb3c
00000180: d731 cc3d f82b 873d 9bb4 9bbc 9b1d 5abd
00000190: d8d1 f4bc a9b6 a03c 8da5 f13c 1660 bcbc
000001a0: 0ed9 a6bc 647a ebbc 98e3 373d bf71 293d
000001b0: 8605 bf3d edd6 713d 70b8 463d 93f1 32bd
000001c0: 29ac 6abc 1377 083d be0b a23c 1851 b23c
000001d0: 34ee 943a 075c 493d 8fdf 43bd 38e9 923c
000001e0: bd3e 3fbc e5c1 853c c63e 38bd 92fe 9d3d
000001f0: 9e58 553c 03fe 913c de17 843d 980c 31bc
00000200: 1240 2d3d 094b 26bd cf73 82bd c9a0 bfbc
00000210: d525 073d 7610 87bd ec16 29bd d454 d1bc
00000220: c508 40bd fa89 123d 1533 1f3d e07f 36bd
00000230: 42cb 113d 833c 91bd 1d45 dfbc fedc 0bbd
00000240: f9b6 47bd 8d0c 7fbd a0c3 acbc 2142 52bd
00000250: 9d3a 89bc c10c 5e3d 25a5 993c 52dd 25bd
00000260: edf0 b93c e63e 54bc 51d1 6bbd c8df 82bb
00000270: be10 6c3d 21ad 59bc b049 4fbd 4b68 b2bc
00000280: 5067 9cbd 198d 1cbc 16f8 58bd 853e 94bd
00000290: f0b5 7fbd 1841 98bc 8a18 fc3c 9a30 fe3c
000002a0: abbf 983a a1c1 c1bd 8ac7 84bd 14f9 673c
000002b0: 37a1 333c 848d 213d 1e11 51bd 918d 40bd
000002c0: 9b88 16bd 666a 2bbc 59c0 4e3c b0ec d9bc
000002d0: f651 203d 691e f83c 6302 f93b 2f3f b53c
000002e0: 2e16 78bc c8d5 f63c 7d39 27bd 214c bf3c
000002f0: 9bde 403c a3c8 8d3c 32d9 5b3d 7260 903c
00000300: c122 51bd 9a4b eebc 57d7 10bd fbab fb3c
00000310: 4700 133d 773f 903c ff06 24bc 486f 7fbd
00000320: 3d8e 063b 0e1d 903b 404a 203c 768c 84bd
00000330: 298e d83c 63be 0d3d 11fc 4abd 5926 80bc
00000340: d66c 38bd 9036 48bd 2e17 e3bc 91fc 0cbd
00000350: b453 50bd 21d4 5d3c ae6c 363c 1595 cdbc
00000360: 9c88 2b3d cc14 613c d3b7 123b 527d 0d3d
00000370: 75ba 41bd 516d 86bd 376b 97ba 72a6 3dbd
00000380: a464 d1bd 2c76 a8bd 4e9c 073d 4fb4 cf3c
00000390: ed39 453d ebc1 72bc 4e06 dabc e4ea 243d
000003a0: 0bc1 20bc e210 023d 353a 28bd 1953 97bc
000003b0: 1613 a3bd 896d 84bd 7535 5abd 5f9a 0f3d
000003c0: d4ab 793c 5c9e 29bd da47 aabc 30fc 90bc
000003d0: 45cd 013c 5927 74bd 2c24 173d 390b dfbc
000003e0: 5ca3 9d3c e833 9dbc 4371 283d bec2 97bd
000003f0: 0ae7 76bc 1e46 40bc 1090 92bd aa93 c93c
-0.021178132 0.05699573 0.05484086 0.038652316 -0.03686428 0.057182044 0.01966471 0.037683595
0.052493323 -0.04522739 -0.03980407 0.069634184 -0.02899877 0.06063452 0.03422729 0.037487626
0.027620234 0.044579953 -0.0022220812 0.034532197 0.033327878 -0.039258324 -0.023875078 0.03428573
-0.031354934 0.011821501 0.06691051 -0.008349481 -0.040834483 0.024613293 0.034841355 0.02506015
0.082430094 0.004205846 0.04299732 0.06520071 0.04559919 0.014502442 -0.032649837 -0.035985403
-0.008854932 0.09203968 0.07027978 -0.04171105 -0.006564204 -0.025916284 0.03544397 0.035234414
0.025828062 0.02499412 -0.007932172 0.016077224 -0.05322523 -0.027647248 -0.0031599647 -0.027040055
0.013914446 -0.043575197 0.025936922 -0.026333705 -0.0074940617 -0.0013432398 -0.041777 -0.037073668
0.0310489 0.033482153 0.045878526 -0.028480172 -0.024611207 -0.023317432 -0.0027625884 0.06356874
-0.024583606 0.007512084 -0.0100292405 0.060878817 -0.011882796 -0.0076452387 0.02642133 0.03205488
0.04798049 0.03939543 0.03482797 0.04276648 0.07563021 -0.028182141 -0.011934363 0.014897222
-0.044133846 -0.017273953 -0.024741849 -0.040141243 0.036405433 0.055552196 0.0038711275 0.028745437
0.09970444 0.06600183 -0.019007018 -0.05325089 -0.029885218 0.01961835 0.029497886 -0.022995036
-0.020367172 -0.028744884 0.044894785 0.041368242 0.093272254 0.05904286 0.048515737 -0.043687414
-0.014323273 0.033316683 0.01978099 0.021767184 0.0011362494 0.04916003 -0.047820624 0.017933473
-0.011672673 0.016327808 -0.04498174 0.07714571 0.013021616 0.017821318 0.06449865 -0.010806225
0.04229743 -0.040598903 -0.06369745 -0.023392098 0.032995064 -0.065949365 -0.041281626 -0.025553145
-0.046883363 0.035776116 0.038867075 -0.044555545 0.035594232 -0.0709162 -0.027254635 -0.0341463
-0.04875848 -0.06226783 -0.021089375 -0.051332597 -0.016751582 0.05421138 0.018755505 -0.04049427
0.02269789 -0.012954449 -0.057572667 -0.003993962 0.057633154 -0.013285906 -0.050607383 -0.021778246
-0.07636893 -0.009555125 -0.05297097 -0.07238487 -0.06242937 -0.018585727 0.03077342 0.031029034
0.0011653801 -0.0946076 -0.064833716 0.014158506 0.01096373 0.0394416 -0.051041715 -0.04701001
-0.03675137 -0.010462379 0.012619101 -0.02660212 0.039140664 0.030287938 0.0075991615 0.022124855
-0.015142007 0.030131236 -0.04082631 0.02335173 0.011771823 0.017307585 0.05367393 0.017624114
-0.051058535 -0.029088784 -0.035361614 0.030721655 0.035888936 0.017608387 -0.010011434 -0.062361985
0.0020531558 0.004397995 0.009783328 -0.06472103 0.026434975 0.034605395 -0.049556796 -0.015643286
-0.04502567 -0.04888016 -0.027721014 -0.034420554 -0.050861076 0.013539345 0.01113431 -0.025095502
0.041878328 0.0137378685 0.00223874 0.034543343 -0.04729696 -0.06563819 -0.0011552338 -0.046301313
-0.10224274 -0.082256645 0.03310805 0.025354533 0.048150945 -0.014816741 -0.026614334 0.04026307
-0.00981165 0.031754382 -0.041071136 -0.018472241 -0.07962625 -0.06466205 -0.053273637 0.03505933
0.015238721 -0.04141079 -0.020786215 -0.017698377 0.007922475 -0.059607837 0.03689973 -0.027227031
0.019242935 -0.01918979 0.04112364 -0.07410191 -0.015069732 -0.011735467 -0.07156384 0.024606545

action_model._discrete_distribution.branches.0.bias f4 [2]
00000000: 9189 55bc 9689 553c
-0.013033287 0.013033291
