results/Hierarchy2/PlayerRL/PlayerRL-1063.onnx (onnx, 78671 bytes, 6 tensors)

network_body._body_endoder.seq_layers.0.weight f4 [128, 12]
0	0xbdafd4cc	-0.0858551
1	0x3de28a92	0.110615864
2	0xbe076eea	-0.13225904
3	0x3d216f86	0.039412998
4	0x3dbec62f	0.09315144
5	0x3b817387	0.0039505395
6	0xbf11f9a2	-0.57021534
7	0xbed9148f	-0.42398497
8	0xbeb0eacd	-0.3455414
9	0xbf1ca766	-0.6119293
10	0x3ea16e7b	0.31529602
11	0xbe6a97e8	-0.2290951
12	0x3d952784	0.07282928
13	0x3f102761	0.5631009
14	0x3d36e529	0.044652138
15	0x3d3c19be	0.045922987
16	0x3d33911e	0.043839566
17	0x3ebb3423	0.36563215
18	0xbec88709	-0.39165524
19	0x3ce1b37f	0.02755141
20	0xbe93ed28	-0.28891873
21	0xbdb13001	-0.08651734
22	0xbed450be	-0.4146785
23	0xbcf6bb43	-0.03011859
24	0xbdf9568e	-0.12174712
25	0xbf0321fe	-0.5122374
26	0xbd59f7d5	-0.053214867
27	0x3e3552f4	0.17707425
28	0xbd3a330b	-0.045458835
29	0xbbf92708	-0.00760353
30	0xbf1f07f0	-0.62121487
31	0xbdb7ae23	-0.08968761
32	0x3e1c3a78	0.15256679
33	0xbf102036	-0.5629915
34	0xbda86baf	-0.08223664
35	0xbe381abc	-0.17978948
36	0xbc59faaf	-0.0133043965
37	0xbdddc44e	-0.10828458
38	0xbd564bd9	-0.052318428
39	0xbe831304	-0.25600445
40	0xbef790bb	-0.48352608
41	0x3dd702a1	0.10498548
42	0xbf076725	-0.5289176
43	0x3e737144	0.23773676
44	0x3d88c837	0.06678813
45	0x3e027cb7	0.12742887
46	0xbd8678dc	-0.06566021
47	0xbeaee1ee	-0.34156746
48	0x3ece8311	0.4033437
49	0xbd1efa07	-0.038812663
50	0xbf4398ac	-0.76404834
51	0xbdfafe95	-0.12255589
52	0x3c9d1960	0.019177139
53	0xbe7400cf	-0.23828433
54	0xbcacf5fd	-0.02111339
55	0xbdbe859a	-0.09302826
56	0xbe9c0e00	-0.3047943
57	0x3f027d68	0.50972605
58	0xbd9331ae	-0.0718721
59	0xbe89f3bd	-0.2694377
60	0x3e34f2e6	0.17670783
61	0xbf40a767	-0.75255436
62	0x3da044ad	0.07825599
63	0xbd223774	-0.039603665
64	0xbe828f0c	-0.2549976
65	0x3d9385b3	0.072032355
66	0x3c1e87a7	0.009675897
67	0x3e371b3c	0.17881483
68	0xbe8c9df7	-0.27464268
69	0x3f46b879	0.7762523
70	0xbd6ac95c	-0.057320938
71	0xbd50ceb5	-0.05097838
72	0xbef760b9	-0.4831598
73	0xbd8b2df6	-0.06795876
74	0x3dfb105f	0.12258982
75	0x3dbe84f0	0.093026996
76	0x3e461343	0.19343285
77	0xbe07e41b	-0.13270609
78	0x3ca58b38	0.020207986
79	0x3f1323de	0.57476604
80	0x3f0f617a	0.5600811
81	0xbec956e1	-0.39324096
82	0xbe9fa7de	-0.3118276
83	0x3e046453	0.12928896
84	0x3e93ca77	0.28865406
85	0x3e13c47c	0.14430422
86	0xbe4dc053	-0.20092897
87	0x3e4caac7	0.19987021
88	0xbeda93bc	-0.42690837
89	0xbece98fa	-0.40351087
90	0xbe399b74	-0.18125707
91	0xbee76fa5	-0.45202366
92	0xbe8f43ec	-0.27981508
93	0xbea22713	-0.31670436
94	0x3e20340b	0.15644853
95	0x3d192661	0.037390117
96	0xbd5429fc	-0.051797852
97	0xbea89b65	-0.32931057
98	0x3e93b1b8	0.28846526
99	0x3d96c70f	0.07362186
100	0xbf5a3718	-0.85240316
101	0x3da583cf	0.08081781
102	0x3d95af08	0.07308775
103	0x3e00740d	0.1254427
104	0x3e03e8e0	0.12881804
105	0xbee82a4a	-0.45344764
106	0xbba2ee98	-0.0049722902
107	0x3e8b938a	0.27261
108	0x3e1e6336	0.15467533
109	0xbe056486	-0.13026628
110	0x3e116c36	0.14201435
111	0x3d592463	0.053013217
112	0x3d562603	0.052282345
113	0x3e7e0220	0.24805498
114	0xbda1f862	-0.079087034
115	0xbcb6f424	-0.022333212
116	0xbe0140a3	-0.12622313
117	0x3e293341	0.16523458
118	0x3d2ee51b	0.04269896
119	0xbeea2c3e	-0.4573688
120	0xbdd54293	-0.10413089
121	0x3e4da106	0.20080957
122	0x3e2a9e36	0.16661915
123	0x3d3bb03c	0.045822367
124	0xbd90ca25	-0.07069806
125	0xbe51c5af	-0.20485567
126	0x3f063eda	0.52439654
127	0x3e739647	0.23787795
128	0x3eaab554	0.33341467
129	0x3e67f953	0.22653703
130	0x3d9a3e5f	0.075314276
131	0xbeb29859	-0.34881857
132	0x3d3f1673	0.04665227
133	0x3ee74f95	0.45177904
134	0x3d9d2976	0.07673924
135	0x3ed661d5	0.41871515
136	0x3e03b47f	0.12861823
137	0xbdce3aee	-0.10069834
138	0xbd67c057	-0.056579914
139	0x3ec3ac41	0.38217357
140	0xbe15803c	-0.14599699
141	0x3ebe4725	0.37163654
142	0xbe141274	-0.14460164
143	0x3ddf618d	0.10907278
144	0x3d1902f0	0.037356317
145	0x3db66b2d	0.08907161
146	0x3dcfad8d	0.10140524
147	0x3e6f717e	0.23383138
148	0xbea5066a	-0.32231456
149	0xbe6a1ba9	-0.22862114
150	0x3e9bcf49	0.30431584
151	0xbe8c43ef	-0.2739558
152	0x3e1e87bd	0.15481468
153	0x3c1217e0	0.008916825
154	0xbe0b6aec	-0.13615006
155	0x3e9b3d0f	0.30320022
156	0x3cf53eeb	0.029937228
157	0xbe6e4665	-0.23269041
158	0xbc8acdc0	-0.016943812
159	0x3e518293	0.20459966
160	0x3bddc4e6	0.006767857
161	0xbdb6f617	-0.08933657
162	0x3da6beef	0.081418864
163	0xbee35440	-0.44400215
164	0xbdbef9a1	-0.09324957
165	0xbeb0bbc4	-0.34518254
166	0x3e2d74b6	0.16939053
167	0x3eeb0987	0.45905706
168	0x3dfb9087	0.12283426
169	0xbe398d30	-0.18120265
170	0xbe9b8480	-0.30374527
171	0xbe183b6f	-0.14866422
172	0x3d128316	0.035769545
173	0xbe195770	-0.14974761
174	0x3e7a5c15	0.24449189
175	0xbe891d59	-0.26780203
176	0xbebdaa41	-0.37043956
177	0x3de99dec	0.11407074
178	0x3e259d48	0.1617328
179	0x3e5ef02e	0.21771309
180	0x3c354fdb	0.011066402
181	0xbe2c2c2a	-0.16813722
182	0x3e3f738b	0.1869642
183	0x3edc3c2f	0.43014666
184	0x3df4d464	0.11954573
185	0xbee3eab7	-0.4451501
186	0x3d23c486	0.03998234
187	0xbea45f69	-0.32104042
188	0x3f0a78e4	0.54090714
189	0x3eb2373c	0.34807765
190	0xbbe7d087	-0.007074419
191	0xbe647030	-0.22308421
192	0xbe3720ab	-0.17883556
193	0xbead2c64	-0.3382293
194	0xbd9636f0	-0.07334697
195	0xbf3e4670	-0.7432623
196	0xbe2aeb94	-0.16691428
197	0xbdca17c9	-0.09867818
198	0xbe774f55	-0.24151357
199	0xbdd2f343	-0.10300305
200	0x3ed6ec27	0.41977045
201	0xbe878556	-0.26468915
202	0x3e6b8906	0.23001489
203	0xbe9b6af8	-0.30355048
204	0x3cb5892c	0.022160135
205	0x3e4550f9	0.1926917
206	0xbe4fb816	-0.20285067
207	0xbd0f8c69	-0.035046015
208	0x3eab745a	0.33487207
209	0x3edfacb9	0.43686464
210	0xbe0adaef	-0.13560079
211	0x3e1f03d1	0.155288
212	0xbd1767ec	-0.036964342
213	0x3ecd6394	0.40115035
214	0x3c9ab1d3	0.018883621
215	0x3ea1e691	0.3162122
216	0xbde79de3	-0.113094114
217	0x3e6135d2	0.21993187
218	0x3ef7ee1a	0.48423845
219	0xbcc0ec11	-0.023550065
220	0xbe56812f	-0.20947717
221	0xbe6f5ba1	-0.23374797
222	0x3eb66489	0.35623577
223	0xbf4f615e	-0.81007946
224	0xbee0afa4	-0.43884003
225	0xbd16fd2a	-0.03686253
226	0x3e5b9cf8	0.21446598
227	0xbd46873e	-0.04846882
228	0xbe52b4ac	-0.20576733
229	0x3de98345	0.11401991
230	0xbd64e2c3	-0.05588032
231	0x3db4f2aa	0.08835347
232	0xbed7fb60	-0.4218397
233	0x3ecea141	0.40357402
234	0xbe82bc01	-0.2553406
235	0x3e85faaf	0.2616782
236	0xbdc27cc2	-0.09496452
237	0x3e0d2f0a	0.13787475
238	0xbd892cd5	-0.06698004
239	0x3dd1f99f	0.102526896
240	0x3d6526ac	0.055945083
241	0xbbeec96a	-0.007287194
242	0x3f20c213	0.62796134
243	0xbee46fc8	-0.44616532
244	0x3f09d237	0.5383639
245	0x3e930c66	0.28720397
246	0xbdaf9523	-0.085733674
247	0xbf2d6be8	-0.67742777
248	0x3e0b2986	0.13590059
249	0x3d1b69d3	0.03794272
250	0x3eb67227	0.35633966
251	0xbf13e158	-0.5776572
252	0x3c84459b	0.016146472
253	0xbd285fb3	-0.04110689
254	0xbcef33ba	-0.02919947
255	0xbe45d328	-0.19318831

network_body._body_endoder.seq_layers.0.bias f4 [128]
0	0x39dce957	0.00042135522
1	0x3a7d8649	0.0009671194
2	0xba82e305	-0.000998587
3	0xbb2e6e47	-0.0026616023
4	0xba2d63eb	-0.0006614315
5	0xbab927b4	-0.0014126212
6	0xb9c2368e	-0.0003704321
7	0xba967400	-0.0011478662
8	0x3ae5e9f7	0.001754104
9	0xba1c3455	-0.0005958726
10	0x3a90fe66	0.0011062145
11	0xb91b969a	-0.00014838055
12	0x3a0fa523	0.00054796244
13	0x39dcbe79	0.00042103583
14	0x3a87aad0	0.0010350589
15	0x3b847f61	0.004043505
16	0xbb02e857	-0.001997491
17	0x3a1c80a7	0.00059700984
18	0xbaeb25a7	-0.0017940298
19	0xbb6e6f0b	-0.0036382105
20	0xbb76d5e9	-0.0037664121
21	0x3b44d052	0.0030031395
22	0x3b5a5217	0.003331309
23	0xba316864	-0.00067675696
24	0x3a07b385	0.0005176592
25	0x3aa7b6b6	0.0012795541
26	0x3ac8103d	0.0015263628
27	0xba0c4c39	-0.0005351934
28	0x3b6f749e	0.0036538015
29	0xb8dde815	-0.0001058133
30	0xbb4cded4	-0.0031260746
31	0xbabba52c	-0.0014316193
32	0x3a5b5ebb	0.0008368303
33	0x3a997e81	0.0011710675
34	0xbaa90694	-0.0012895637
35	0x3ad8c29b	0.0016537489
36	0xba8e6c6b	-0.0010866051
37	0xb999d6fc	-0.0002934261
38	0x38b052ed	8.40778e-05
39	0x39e952f2	0.00044503022
40	0x3b7ed247	0.003888266
41	0xbb51c802	-0.0032010083
42	0xba2d0531	-0.00066002
43	0x3a38e4be	0.0007053128
44	0xbaaa3dc6	-0.0012988381
45	0x3b8150e0	0.0039464086
46	0x3a454270	0.00075248536
47	0xbb8d9abc	-0.0043214243
48	0xba04b518	-0.00050623855
49	0x37d2a724	2.5111782e-05
50	0x3a39e5cf	0.0007091434
51	0xbaafcc4d	-0.0013412327
52	0x3b252aeb	0.0025202583
53	0xbb8830a8	-0.004156191
54	0xbb39129e	-0.0028239856
55	0xba91877a	-0.0011102997
56	0xbb0f9e3e	-0.0021914388
57	0xb998b31a	-0.0002912514
58	0x3941151d	0.0001841378
59	0x3b254a8e	0.002522144
60	0x3ad06ef4	0.0015902207
61	0xba4a36cc	-0.0007713854
62	0x3b00e7fb	0.001966952
63	0x3ab4ba07	0.0013788351
64	0xb9172c3c	-0.00014416961
65	0x3a63ec80	0.0008694604
66	0x3bcbbdb2	0.006217682
67	0xb950f09a	-0.00019926057
68	0xbb4e30a2	-0.0031462093
69	0x3b2b5d1d	0.002614803
70	0x3893fe19	7.0568356e-05
71	0x3b481ac9	0.0030533543
72	0xbac52a32	-0.0015042482
73	0xba53e1eb	-0.00080826756
74	0x3a95448c	0.0011388226
75	0xbb4654d2	-0.003026296
76	0xb9a4eeee	-0.00031458534
77	0xb9d32232	-0.00040270534
78	0xb9ab709b	-0.0003269956
79	0x3a910b2d	0.0011065953
80	0xba6e2b5e	-0.00090854417
81	0xba0449dd	-0.0005046407
82	0x3adea99d	0.0016987805
83	0x39180a4e	0.00014499688
84	0x3a8d3832	0.0010774194
85	0x3a9ccff8	0.0011963835
86	0xb81d5fe4	-3.7521022e-05
87	0xbb6321f1	-0.0034657682
88	0xbb9185ee	-0.0044410145
89	0x3a54b838	0.0008114609
90	0x3b2245cb	0.0024760838
91	0x3abe6c93	0.0014528207
92	0xb9b4a69c	-0.0003445641
93	0xbb37ad19	-0.0028026758
94	0xbb67a8e0	-0.003534846
95	0x3b2a3eac	0.0025977297
96	0xbb3cf0bd	-0.0028830015
97	0x3a99a92e	0.0011723393
98	0xba883044	-0.0010390361
99	0x3b23707f	0.002493888
100	0x3b4e54de	0.003148369
101	0x395ab401	0.00020857157
102	0x3b17ec08	0.0023181457
103	0x3b17ccb8	0.0023162793
104	0x39fa0a37	0.00047691326
105	0xb80f00a7	-3.4094464e-05
106	0xbb04cad9	-0.0020262508
107	0xba88e976	-0.0010445553
108	0x3a59675f	0.00082932966
109	0xbb050f52	-0.002030332
110	0xbb124e30	-0.0022324435
111	0x3acc7879	0.0015599868
112	0x3b202291	0.0024434666
113	0x3af98e12	0.0019039533
114	0xbaa6277f	-0.0012676566
115	0xb800169c	-3.0538635e-05
116	0x3ab62600	0.0013896823
117	0x37449eb0	1.1719458e-05
118	0xbb8a0b7a	-0.004212794
119	0x3a223a16	0.0006188465
120	0xba927b74	-0.0011175708
121	0xbbdc4b7e	-0.0067228666
122	0xbb142c6b	-0.0022609483
123	0xbad0d776	-0.0015933353
124	0x39d420a3	0.00040460107
125	0xba97c87e	-0.0011580137
126	0xbaf348ad	-0.0018561088
127	0xba104e95	-0.00055048737

network_body._body_endoder.seq_layers.2.weight f4 [128, 128]
0	0x3c936b35	0.017995456
1	0x3cda1915	0.026623288
2	0x3e17148d	0.14753933
3	0x3d955f3f	0.072935574
4	0xbe2aae7c	-0.16668123
5	0x3c62d16d	0.013843876
6	0xbdc422de	-0.09576963
7	0x3cf5010a	0.029907722
8	0xbd81ef2c	-0.063444465
9	0x3d74d561	0.059773806
10	0x3d84e50c	0.06489
11	0x3c6116c2	0.013738336
12	0x3d8bbbae	0.068229064
13	0xbdec2b3d	-0.115316845
14	0x3dbe5811	0.09294141
15	0xbc95e006	-0.0182953
16	0x3c4ab250	0.012371615
17	0x3d0d4271	0.03448719
18	0x3d86a553	0.06574502
19	0x3e2e3977	0.17014109
20	0x3e16261a	0.14662972
21	0xbd27aa34	-0.040933803
22	0xbd9dcd20	-0.0770514
23	0x3df6564d	0.12028179
24	0x3c5d2823	0.013498339
25	0x3c876384	0.016526945
26	0x3e3bf124	0.18353707
27	0xbd4229a4	-0.047402993
28	0x3dcda67d	0.10041521
29	0x3d9954b0	0.07486856
30	0x3c9f687c	0.019459002
31	0x3b3700a6	0.002792397
32	0x3d06c70e	0.032904677
33	0x3d097452	0.033558197
34	0xbe693ec8	-0.22777855
35	0x3dbf9b9a	0.093558505
36	0xbdf1ae71	-0.1180085
37	0x3d975c9e	0.07390712
38	0x3dbc5dfb	0.09197613
39	0x3c3abdb4	0.011397768
40	0xbd5f3ea2	-0.05450309
41	0xbe2e81af	-0.17041658
42	0x3d22062e	0.039556675
43	0x3d5a3cb9	0.053280566
44	0xbdb71431	-0.08939398
45	0xbc938d7d	-0.018011803
46	0x3d108ecf	0.035292443
47	0xbe0df4c5	-0.13862903
48	0x3dc3dc13	0.0956346
49	0x3c249ad5	0.01004668
50	0xbda6e040	-0.08148241
51	0x3e2a575d	0.16634889
52	0xbd8b88a3	-0.06813171
53	0x3df1a11e	0.11798309
54	0xbe2553ce	-0.1614525
55	0xbc77a3d5	-0.015114744
56	0xbd56b7d6	-0.052421413
57	0x3dba7e50	0.091061234
58	0xbd6dba85	-0.058039207
59	0x3dc870c5	0.09787134
60	0xbe568097	-0.2094749
61	0xbd34c266	-0.044130705
62	0x3d3e70e9	0.0464944
63	0xbd54936e	-0.051898412
64	0xbc782563	-0.015145632
65	0x3e440f2c	0.19146413
66	0x3d03d506	0.032185577
67	0x3cfa130f	0.030526666
68	0xbd9b3494	-0.07578388
69	0xbe3898fd	-0.1802711
70	0x3d63554d	0.05550127
71	0xbd788d52	-0.06068165
72	0xbbb0c811	-0.0053949435
73	0x3d39daa0	0.045374513
74	0x3c91fbd1	0.01782027
75	0x3dd37f94	0.10327068
76	0xbcc204b4	-0.023683883
77	0xbdef8c42	-0.11696674
78	0x3ce77af2	0.028256867
79	0xbcb94d9a	-0.022620011
80	0x3d0e8417	0.03479394
81	0x3d226c56	0.0396541
82	0xbc99d882	-0.018779997
83	0x3de012e2	0.109411016
84	0x3d9b524d	0.07584057
85	0xbda24190	-0.07922661
86	0x3d2a8cd2	0.041638203
87	0x3dd4421a	0.1036417
88	0xbd8bfc57	-0.068352394
89	0x3d52b8a9	0.051445637
90	0xba45840f	-0.0007534632
91	0xbd87d738	-0.066328466
92	0xbd0e24b2	-0.034702964
93	0x3dc75b70	0.09734237
94	0x3ca1643c	0.019701116
95	0x3dee90ab	0.11648687
96	0xbcd7e6e6	-0.026355218
97	0x3d701c14	0.058620527
98	0x3e0f32f3	0.1398428
99	0xbd919338	-0.07108158
100	0xbdbf0454	-0.093269974
101	0xbe4dd0f7	-0.20099245
102	0xbe12a40e	-0.14320394
103	0x3e132659	0.14370097
104	0xbcf572e6	-0.029962014
105	0xbc808ce6	-0.015692186
106	0x3c366435	0.01113229
107	0xbd980d7c	-0.07424447
108	0x3d46ff8e	0.04858356
109	0xbdb8a170	-0.09015167
110	0xbd0c1ecf	-0.03420907
111	0xbd2e4a9b	-0.042551618
112	0xbb6dc7f7	-0.0036282518
113	0x3d08dc4a	0.03341321
114	0x3d8f7a76	0.070057794
115	0xbdace2f2	-0.08441724
116	0xb92f3861	-0.00016710303
117	0x3d5d8b12	0.054087706
118	0x3db8b3a4	0.09018639
119	0x3de28f6c	0.11062512
120	0xbd6a7e94	-0.05724962
121	0x3d5ad099	0.05342159
122	0x3d2077cb	0.039176743
123	0x3e23aba9	0.15983452
124	0x398370b7	0.00025070246
125	0xbce85c97	-0.028364463
126	0xbd0d57ba	-0.03450749
127	0x3d81ee46	0.06344275
128	0xbd00fe5c	-0.031492576
129	0x3d0e7b00	0.03478527
130	0x3c9f80a1	0.019470515
131	0x3c0f1026	0.008731877
132	0xbdd994fb	-0.10624119
133	0xbbf4dd49	-0.0074726683
134	0xbd532ce4	-0.051556483
135	0xbde6d7e7	-0.11271649
136	0x3c9a8aec	0.018865071
137	0xbcebc8cf	-0.028782276
138	0xbc896d46	-0.016775738
139	0x3d3b4d37	0.045727935
140	0xbc8e06f7	-0.017337305
141	0x3da92ec9	0.08260877
142	0xba85bc3e	-0.0010203195
143	0xbcb4f4ab	-0.022089323
144	0x3df9079d	0.12159655
145	0xbd101c09	-0.035182986
146	0xbd0636b3	-0.03276701
147	0xbc06465d	-0.008195487
148	0xbd4d9314	-0.050189093
149	0x3e0d14ee	0.13777515
150	0xbe3e8451	-0.18605162
151	0x3d2a0e21	0.04151738
152	0x3bb95ff5	0.005657191
153	0x3c850823	0.016239231
154	0xbd83a123	-0.06427219
155	0xbd8fcaf6	-0.070211336
156	0xbd09d78c	-0.033652827
157	0x3de66f38	0.11251682
158	0x3dd8957f	0.10575389
159	0x3d3b4855	0.045723278
160	0xbd930c6d	-0.071801044
161	0xbda746c6	-0.08167796
162	0xbe195f32	-0.1497772
163	0xbe0a41cf	-0.13501666
164	0xbcf44473	-0.029817795
165	0xbc712ba7	-0.01471988
166	0xbd887443	-0.066628
167	0xba96f0a5	-0.001151581
168	0x3c7cb4f9	0.015424007
169	0xbde03de0	-0.10949302
170	0xbda7f8d2	-0.082017556
171	0xbd77936b	-0.060443323
172	0xbd9c7632	-0.076397315
173	0xbd33105c	-0.043716773
174	0xbda9cfd2	-0.08291592
175	0x3ce0f1b9	0.027459012
176	0xbd2484a6	-0.040165566
177	0x3e33f37b	0.17573349
178	0xbd178056	-0.036987625
179	0xbda4baaf	-0.080434196
180	0x3d89b07d	0.067231156
181	0x3c7bbafc	0.015364405
182	0x3c72fffa	0.014831537
183	0x3cf99716	0.030467551
184	0x3cc7a2d7	0.02436964
185	0x3cd1c033	0.025604343
186	0xbd4a43c6	-0.04938104
187	0x3e07a2af	0.13245653
188	0xbcd9f775	-0.026607255
189	0xba3bf189	-0.00071694754
190	0xbdcc2906	-0.09968762
191	0x3d960bf2	0.07326497
192	0x3d04aaf3	0.032389592
193	0x3b24353d	0.0025056147
194	0xbc235c22	-0.009970697
195	0x3da22965	0.07918052
196	0xbc620c9a	-0.01379695
197	0xbd334e1c	-0.043775663
198	0x3d0a599a	0.033776857
199	0xbbfe50bd	-0.0077610896
200	0xbdc3d694	-0.09562412
201	0xbe0327e5	-0.12808187
202	0xbd9456ab	-0.07243093
203	0x3da33280	0.079686165
204	0xbc7fc539	-0.015610986
205	0xbd47334a	-0.048632897
206	0xbe1e044b	-0.15431325
207	0xbd50f5c0	-0.051015615
208	0xbc222bae	-0.009898109
209	0xbe5be23e	-0.21473023
210	0x3d331d60	0.043729186
211	0x3d3eaf46	0.046553873
212	0x3cd46800	0.025928497
213	0xbc722da2	-0.0147813875
214	0xbdae6fcf	-0.085174195
215	0x3e6c392e	0.23068687
216	0x3dc7cf7c	0.097563714
217	0xbd0df9ed	-0.034662176
218	0x3ce8ff5d	0.02844208
219	0xbce66dd7	-0.028128548
220	0xbe02e646	-0.12783155
221	0x3d9560f6	0.072938845
222	0x3d92aa47	0.07161384
223	0xbde289bb	-0.11061426
224	0x3e70bda5	0.23509844
225	0x3d5e2aa0	0.05423987
226	0x3bf88c68	0.007585097
227	0xbe2e613e	-0.17029282
228	0x3d2a159c	0.041524515
229	0x3db15da1	0.086604364
230	0x3e159c07	0.14610301
231	0xbdc748d5	-0.097306885
232	0x3b01d545	0.0019810956
233	0xbd2a8acf	-0.041636284
234	0x3c97b35b	0.01851814
235	0xbd8ad44d	-0.067787744
236	0xbda6bf4b	-0.08141955
237	0x3cb3e0ec	0.021957837
238	0x3c602ae8	0.013682105
239	0xbe2a5eb0	-0.16637683
240	0x3cb0c9e2	0.02158064
241	0xbbac0099	-0.0052490947
242	0xbdb182f8	-0.086675584
243	0x3d6233c0	0.055225134
244	0xbe1c1f37	-0.15246283
245	0xbd7b1557	-0.061299648
246	0xbcd24f58	-0.0256726
247	0xbd185c72	-0.037197538
248	0x3d9a3fa5	0.075316705
249	0xbb9fe625	-0.0048797303
250	0xbe420e3a	-0.1895074
251	0x3ca15311	0.01969293
252	0x3d2ab797	0.04167899
253	0x3d97dd4f	0.07415258
254	0xbe0c5717	-0.13705097
255	0xbde02b95	-0.109458126

network_body._body_endoder.seq_layers.2.bias f4 [128]
0	0xb9b3bef9	-0.00034283826
1	0x3aea7886	0.0017888702
2	0xb9fc0cbf	-0.00048074682
3	0xbb6e8aff	-0.0036398766
4	0xbadf5f3b	-0.0017041931
5	0x36840648	3.934638e-06
6	0xba361058	-0.00069451844
7	0x3a7c0214	0.0009613347
8	0x3b48ce8e	0.0030640694
9	0xba2556de	-0.00063071947
10	0xbab83554	-0.0014053979
11	0xba626bad	-0.0008637261
12	0x39848906	0.00025279092
13	0x3b128cc1	0.0022361728
14	0xb915aae8	-0.00014273415
15	0xba85387f	-0.0010163932
16	0x3a94670f	0.0011322218
17	0x3bad6012	0.0052909935
18	0x3a8cce42	0.0010742622
19	0xbb09e53e	-0.002104118
20	0x39485518	0.00019105186
21	0xbb27b84c	-0.0025592027
22	0x398a031e	0.00026323734
23	0xba765d70	-0.00093980785
24	0x3b27e53c	0.0025618812
25	0xba9b3ea6	-0.0011844232
26	0xba33abcb	-0.0006853907
27	0x3896a524	7.183317e-05
28	0xbb0ce5bd	-0.002149924
29	0xb9060d1c	-0.0001278412
30	0x398c03a3	0.0002670559
31	0x3ae2d011	0.001730444
32	0x3b5d2da5	0.003374913
33	0x399a3ad1	0.0002941699
34	0x3b409564	0.0029385919
35	0xbab1caeb	-0.0013564503
36	0x3a82f1b4	0.0009990246
37	0xba818094	-0.0009880238
38	0x39ab05b6	0.00032619917
39	0x39aede93	0.00033353697
40	0x3b0ed9cf	0.0021797305
41	0x3a2b815d	0.0006542409
42	0xbb24604a	-0.0025081807
43	0x3a5aedcd	0.0008351475
44	0x3962937c	0.00021607982
45	0xb9b9c398	-0.00035431678
46	0xbb408ce2	-0.0029380848
47	0xb99d47f3	-0.0002999898
48	0xbade85b6	-0.0016977105
49	0xba9b24c8	-0.0011836523
50	0xba4ba6bf	-0.00077686826
51	0xbb4dfb81	-0.0031430426
52	0x3b2b07d4	0.0026097195
53	0xba933024	-0.0011229557
54	0xba8b66ff	-0.0010635554
55	0xba45ebb4	-0.0007550076
56	0xbb38ba23	-0.0028187118
57	0x39534350	0.00020147604
58	0x3a0be179	0.0005336027
59	0xb8344ef5	-4.298888e-05
60	0xba637e8c	-0.000867822
61	0xbbbdacf2	-0.005788439
62	0xba0b42bb	-0.0005312373
63	0xb90d5914	-0.00013479992
64	0x3a16d852	0.000575428
65	0xba9d5b11	-0.0012005289
66	0xba14fc8e	-0.00056833855
67	0xb848b99e	-4.7856585e-05
68	0x3a874287	0.0010319509
69	0xb910edcb	-0.00013821495
70	0x3b15aced	0.0022838668
71	0xb975ff07	-0.00023460026
72	0x39602a72	0.00021378117
73	0xba82ad51	-0.0009969865
74	0xbb07848f	-0.0020678376
75	0xbb43eee5	-0.002989703
76	0xbb923afa	-0.004462597
77	0x3a95c4fe	0.0011426506
78	0xba71f31c	-0.00092296465
79	0xbb1f7803	-0.0024333007
80	0xba2877dd	-0.00064265524
81	0xba7f056b	-0.00097282854
82	0x38a0384e	7.639882e-05
83	0x3948dba0	0.00019155303
84	0xbb96231c	-0.004581822
85	0xba3a0cf3	-0.00070972665
86	0x3b315983	0.002706141
87	0xb9dd560d	-0.00042216518
88	0x39aa7d92	0.00032518484
89	0xba57e32f	-0.0008235452
90	0x3a36aae4	0.0006968214
91	0x3ab4ad38	0.0013784533
92	0x3a1d18d2	0.0005992773
93	0xbaaa8cf8	-0.0013011983
94	0xbaaa2998	-0.0012982367
95	0x398d2bd6	0.00026926276
96	0xbb2236da	-0.0024751932
97	0x3b230538	0.0024874937
98	0xba7d8b71	-0.00096719625
99	0xba91da98	-0.0011127768
100	0xb9cb9208	-0.0003882798
101	0xba1a717d	-0.0005891545
102	0xb99f5094	-0.0003038688
103	0xb942dfd0	-0.00018584658
104	0xbb76917b	-0.0037623334
105	0xbb005c3f	-0.0019586233
106	0xbace373b	-0.0015733013
107	0xbb142bf2	-0.0022609201
108	0xba8b9edf	-0.0010652206
109	0x3945a6ae	0.00018849477
110	0xbad495b7	-0.0016218935
111	0xbaef2232	-0.0018244444
112	0xbaa4b974	-0.0012567476
113	0x398b9ecd	0.00026630462
114	0xb9adc8cf	-0.00033146745
115	0x3b6d0c6e	0.0036170739
116	0xba101ac9	-0.00054971554
117	0x3ab0121e	0.0013433134
118	0x3ab511b5	0.0013814481
119	0x3b551968	0.0032516364
120	0xbacad72e	-0.0015475505
121	0x39e3cd2a	0.00043449673
122	0x38a778ae	7.985659e-05
123	0xbb5804fc	-0.0032961955
124	0xba5d6c6a	-0.0008446636
125	0xbb033412	-0.002002005
126	0xba3c686a	-0.000718719
127	0xbb28d441	-0.0025761279

action_model._discrete_distribution.branches.0.weight f4 [2, 128]
0	0x3b8650ba	0.004098979
1	0x3c9a0f40	0.0188061
2	0xbc9c3b87	-0.019071354
3	0x3b599d7a	0.0033205436
4	0x3c4cf586	0.012509709
5	0x3c1ce63d	0.009576377
6	0xbc619b93	-0.013770002
7	0xbacdb250	-0.00156934
8	0xbce31c70	-0.027723521
9	0xbb987764	-0.0046529043
10	0x3bbeef58	0.005826872
11	0xbc66036b	-0.014038901
12	0xbc78e6b9	-0.015191727
13	0xbbb20901	-0.0054332023
14	0x3bf86ef5	0.0075815865
15	0x3c18bcf8	0.009322397
16	0x3ac9dc08	0.0015400657
17	0x3c6c2bc0	0.014414728
18	0x3c3c80a6	0.011505282
19	0x3c6e2b0a	0.0145366285
20	0x3c5a2bed	0.013316137
21	0xbbfb2102	-0.007663847
22	0xbbf20fe3	-0.0073871478
23	0x3c7c7959	0.015409791
24	0x3b9e893d	0.0048381374
25	0xbb44c082	-0.003002197
26	0xbb96dbd3	-0.004603842
27	0x3c4c686c	0.012476068
28	0x3b037f81	0.0020065012
29	0xbb49cf9a	-0.0030793906
30	0x3afc88d5	0.0019266853
31	0xbc55a4d9	-0.013039791
32	0xbc8436c3	-0.016139394
33	0x3c9a636a	0.018846232
34	0x3c1a5e39	0.0094218785
35	0x3ba8c1d8	0.005150061
36	0x3c4d1c36	0.012518933
37	0x3b1389b2	0.0022512493
38	0x3bab0331	0.0052188863
39	0x3c9bd50d	0.019022489
40	0x3bdec626	0.0067985235
41	0x3c475d4d	0.012168241
42	0x3b19153c	0.0023358604
43	0x3c96be2d	0.01840123
44	0x3c4c2aad	0.012461347
45	0xb98bf278	-0.000266928
46	0xbbc351ce	-0.0059606796
47	0xbbe3ad35	-0.006948138
48	0xba1ef826	-0.00060641987
49	0x3b21cc8e	0.0024688574
50	0x3bff3444	0.007788213
51	0x3ba69cd9	0.0050846157
52	0x3c3eea4a	0.011652539
53	0xbbf4b6db	-0.007468087
54	0xbc65549a	-0.013997221
55	0x3bd18d07	0.0063949856
56	0xb79304ea	-1.7526054e-05
57	0xbbcd1d93	-0.006259629
58	0x3b4333aa	0.0029785433
59	0xbc0a18dc	-0.0084287785
60	0xbbfbcb4d	-0.0076841475
61	0x3c6b2ba0	0.014353663
62	0x3c1f6031	0.009727524
63	0x3c27dc5d	0.01024541
64	0xbb855069	-0.0040684235
65	0x3bb31062	0.0054645995
66	0xbc71d5c9	-0.014760443
67	0xbabdf5e3	-0.0014492836
68	0x3cbc11f5	0.022957781
69	0x398473ec	0.0002526337
70	0xbc8180a5	-0.015808413
71	0xbc18b5af	-0.0093206605
72	0xbb6e2caf	-0.0036342551
73	0x3bd24718	0.0064171664
74	0x3c411faa	0.011787334
75	0xbb624520	-0.0034526065
76	0xbc1342a5	-0.008988057
77	0x3bd86608	0.00660396
78	0xbb62060e	-0.0034488472
79	0x3953d6cf	0.0002020255
80	0x3af9ea2a	0.0019066979
81	0xbb4d2617	-0.003130322
82	0x3c812014	0.015762366
83	0x3beab1cd	0.007162309
84	0xba5ca355	-0.00084166724
85	0x3b525f1b	0.0032100144
86	0xbba0023f	-0.0048830803
87	0x3b844b72	0.004037314
88	0x3b514269	0.0031930453
89	0xb9306252	-0.00016821295
90	0x3bd9624a	0.0066340314
91	0x3babd65a	0.0052440586
92	0xbc8770a1	-0.016533198
93	0x3c396760	0.01131615
94	0xbb5afb71	-0.003341403
95	0x3b8a405f	0.0042190994
96	0x39e8c53e	0.00044397445
97	0x3b15e860	0.0022874102
98	0xb9410d54	-0.0001841088
99	0xbc262a24	-0.010141883
100	0xb8663d20	-5.48932e-05
101	0x3b8452be	0.004038184
102	0xbc05dc51	-0.008170203
103	0xbbbb4036	-0.0057144416
104	0x3b3f7ac1	0.0029217454
105	0xbb99f1bd	-0.004698007
106	0x3c86051f	0.016359864
107	0xbc3e6bbc	-0.011622366
108	0xbbb37309	-0.0054763597
109	0xbaec1a95	-0.0018013293
110	0x3b3bd035	0.0028658037
111	0xb8aa85c8	-8.1311504e-05
112	0x3b62b222	0.0034591039
113	0x3ca7925b	0.02045553
114	0xbb2ab68b	-0.0026048745
115	0xbce06c9a	-0.027395535
116	0xbb6068fd	-0.0034242265
117	0x3b032953	0.0020013645
118	0x3c503849	0.012708732
119	0x3c0af6bd	0.008481679
120	0x3a6ac9d0	0.0008956464
121	0x3c5ff464	0.013669107
122	0x3bd561b5	0.0065118917
123	0xbc2bd15b	-0.010486926
124	0xbc837e81	-0.016051533
125	0x3be9167e	0.007113277
126	0xbc5524d6	-0.013009271
127	0xbb060b44	-0.0020453492
128	0x3b79ae73	0.0038098365
129	0x3c39f019	0.011348748
130	0x3b86b349	0.004110728
131	0xbb723bd1	-0.0036961923
132	0x3c28d168	0.010303833
133	0xba007694	-0.0004900482
134	0x3bae4782	0.005318583
135	0xbb4e28c5	-0.0031457406
136	0x3c6d9f28	0.014503278
137	0xbb25193e	-0.0025192047
138	0xbc014cfe	-0.0078918915
139	0x3abdcbab	0.0014480253
140	0xbcc0bdf9	-0.023528086
141	0x3c11d2e1	0.008900375
142	0x3b3f6a5a	0.0029207678
143	0xbc0f9523	-0.008763584
144	0x3c0fb29b	0.00877061
145	0x3a21676c	0.00061570737
146	0x3acc652f	0.001559412
147	0xbbf64036	-0.0075149788
148	0xbc0f4417	-0.008744261
149	0xbbb5606e	-0.005535177
150	0xba5c157f	-0.0008395537
151	0x3c475b50	0.012167767
152	0x39c748e6	0.0003801055
153	0x3bc5c8e7	0.0060359123
154	0x3bbc0add	0.0057385997
155	0x3bce6d1d	0.0062996284
156	0x3b6ecb7a	0.00364372
157	0x3a3e70bb	0.0007264723
158	0xbc251323	-0.010075363
159	0x3c25da16	0.0101227965
160	0x3bc1be1d	0.005912556
161	0xbbabc16f	-0.005241565
162	0xbc775740	-0.015096486
163	0x3bddb440	0.0067658722
164	0x3b7548a3	0.0037427328
165	0x3b8e95b1	0.0043513407
166	0x3ca1fd91	0.01977423
167	0xb919b05a	-0.00014656913
168	0xbc0ee3c0	-0.008721292
169	0xbbbefb8d	-0.005828327
170	0xbb24567b	-0.002507596
171	0x3c58993a	0.013220126
172	0x3b00a126	0.0019627302
173	0xbbcafea8	-0.006194908
174	0xbb911261	-0.0044272398
175	0x3b5cf760	0.0033716783
176	0xbcc8a273	-0.024491524
177	0x3be253aa	0.006906946
178	0x3bd8bd53	0.006614366
179	0x390cafb2	0.00013416892
180	0xb81455b2	-3.536576e-05
181	0xbc476d84	-0.012172107
182	0xbb05c53c	-0.002041175
183	0x3a782a13	0.0009466719
184	0x3bfba7ed	0.0076799304
185	0x3a817b1e	0.0009878611
186	0x3c34c145	0.011032407
187	0x3c16a5d2	0.009194808
188	0x3c64b400	0.013958931
189	0x3a406011	0.0007338534
190	0x3c598020	0.013275176
191	0x3c6df3b1	0.014523433
192	0x3c3af5e8	0.011411168
193	0x3a9cb4c6	0.001195573
194	0x3c40477a	0.011735791
195	0xbbedc2a5	-0.0072558695
196	0xbc11dd5e	-0.008902876
197	0xbbc1be96	-0.005912612
198	0x3bd8b6f0	0.0066136047
199	0xbc839107	-0.016060365
200	0xbc44286f	-0.011972531
201	0xb97c8cac	-0.00024084997
202	0x3b70895c	0.0036702966
203	0xbb0c6024	-0.002141961
204	0xbc3aedfd	-0.01140928
205	0xba9203bf	-0.0011140032
206	0x3c3990b8	0.011326008
207	0xbb1225e0	-0.0022300407
208	0x3c81b77a	0.015834559
209	0x3c114c05	0.008868222
210	0xbc32561b	-0.010884787
211	0x3b24560a	0.0025075697
212	0xbac3141e	-0.0014883315
213	0xbcb3ff4c	-0.021972321
214	0x3c518c90	0.01278986
215	0x3aac7d97	0.0013159987
216	0xbbfbaca5	-0.007680493
217	0x3aa0eb92	0.0012277237
218	0x3bb4e937	0.0055209654
219	0xbc07b72e	-0.00828342
220	0x3c27965d	0.0102287205
221	0x3c80a0bd	0.015701646
222	0xbae328bb	-0.0017330864
223	0xbc4a11b6	-0.012333324
224	0xbae69592	-0.0017592183
225	0x3bcc085f	0.006226584
226	0x39f8ace0	0.00047431048
227	0x3c25b6fd	0.010114429
228	0x3c8bc53e	0.017061826
229	0xbb5fa94e	-0.0034128013
230	0xbbd141b9	-0.0063860086
231	0xbb0e8402	-0.0021746163
232	0x3b323bf3	0.0027196377
233	0xbbe91374	-0.0071129147
234	0xbc5a4397	-0.013321779
235	0x39c4f99e	0.00037570013
236	0x3bc1851d	0.005905761
237	0xbc1f5e03	-0.009727004
238	0x3b928314	0.004471192
239	0xbc499fe6	-0.012306189
240	0x3c06b017	0.008220694
241	0xbb4c6cd8	-0.0031192806
242	0xbbbe8db1	-0.005815231
243	0x39acedf6	0.0003298369
244	0x39ce2698	0.00039320136
245	0x3bc21b2c	0.0059236493
246	0x3b97f662	0.0046375254
247	0x3aa41239	0.0012517638
248	0x3c59fac5	0.013304417
249	0xbb309fc5	-0.0026950699
250	0xb955bea2	-0.00020384279
251	0xbc0c9e24	-0.008582626
252	0x3b5904e2	0.0033114483
253	0x3c0609a2	0.008181008
254	0x3c18e760	0.009332508
255	0xbb2a6bf2	-0.0026004282

action_model._discrete_distribution.branches.0.bias f4 [2]
0	0x39bf51f5	0.00036491422
1	0xb9bf5206	-0.0003649147
