results/SurvivalModel/PlayerRL/PlayerRL-499944.pt (torch, 490309 bytes, 42 tensors)

network_body._body_endoder.seq_layers.0.weight f4 [128, 20]
00000000: ce51 9a3d 842a 5abe 24c7 1bbe df01 1a3f
00000010: 9a5d 8c3e c5fa 2d3e 1f79 af3d f0fb 93be
00000020: e46c 6fbd dee5 98be 95c9 fb3e 47c3 a4be
00000030: 7ad8 ddbe c2cd ab3d 151d c1bc 717f 9f3e
00000040: be08 083f 7068 b2bd ce43 d1be 74d6 753c
00000050: e2a8 dd3d 6161 633d 7e1d c53e 0963 8a3d
00000060: 3071 f53c df63 7dbe 1d30 85be 35cc 20be
00000070: 7358 ebbd a334 ce3d 1d74 b6bd bd04 ffbd
00000080: dd4d a43a 024c 0e3e 5fb7 703e b45f 4e3d
00000090: e81a efbd 509f 343e ff24 783e f37c 20be
000000a0: 790e 643e 72ec ccbe d91e 393d f713 063d
000000b0: 8abb 6cbe 3bb6 9dbd 0d7c c23d 01a3 613a
000000c0: b765 823e 079b 9c3c 426c 973c 4337 32be
000000d0: b934 9cbe a73c a83e 1c40 d2be 981c 18bd
000000e0: 3be7 203f 93d5 4a3e f274 c23d 70b8 8abd
000000f0: a0dd e83d d8a0 40bd 309e 063f 8cb1 703e
00000100: 9ec5 6cbe 5eac a1bd f92a c43d 6def 06bf
00000110: 7e21 83bc 6558 7e3d 3941 27be d28b 173d
00000120: 8024 9e3e 1aaa 5c3e aab1 39bd 462b 62be
00000130: 2085 5b3d 418b a1be fce9 f73c 5eea d23d
00000140: 0099 42be 8048 8d3e 9248 b9be 7324 bf3d
00000150: ef39 073e 2189 883e d9b3 273e ac09 1e3c
00000160: 8a67 773c d616 673e 6ffd d5bd 6a42 febe
00000170: 755a 3abe 936f 83be 3843 1f3e 46e3 833e
00000180: 67d9 3f3e 66bf 13be 57fd 23be 01fc dc3d
00000190: c744 d0be 4280 933d 4129 9cbd 7bfa dc3d
000001a0: 97bb 353e 0560 39be bd94 64bd 8fd5 08be
000001b0: e3f1 853e e647 67bd 3fa6 5ebd 6c54 11bf
000001c0: 7df0 843e 5662 a63e 8a49 ad3d 3211 9a3e
000001d0: f5fe c23e e2cd 84be 56da 343e 0c83 023e
000001e0: 193f 18bf 5312 a73e c826 c93d 56f7 9a3e
000001f0: 2467 e83e 2ae3 873d e369 47be b23f 2a3e
00000200: 5337 633e 35f4 2bbe 0b8b 17be 583f 573d
00000210: a0cb f03d b171 e73d 1457 49bd ad91 babd
00000220: e0a5 2a3e d756 88bc ce75 86be 6ad9 83be
00000230: e854 93be 9f9f 66be 5d99 00be 9ef7 663e
00000240: 8b7f 42be 981a 65bd 0240 f1be cf22 e63d
00000250: a2aa 9d3e 2eb4 b03d f355 413e 5cc0 cabd
00000260: 2bdf 85bd 1995 30be f129 09bd 7bd2 31be
00000270: 90a3 3cbd e918 b63c 8556 0abf 7b48 7b3c
00000280: de2d febd fe4d 14ba 1c5e 9f3e aeac ffbe
00000290: 17fe a93e 6dd6 a7bc e212 c33d ef9d 84bd
000002a0: d6cc 083f 12df 12bc 94b0 f83d 2b37 d1bc
000002b0: 9276 1bbd c58b 16bf 0eb0 ab3e ca8b 663e
000002c0: 9581 a3be 863a 9ebe a19d 0a3e 067b df3e
000002d0: e3c0 b53d 94e9 43be f34e febe 1f09 0ebf
000002e0: c653 843d e1d1 b53d 5bbd 8f3e 1dad d8bd
000002f0: bbd5 823e 5301 f53d 7572 60be 9856 2abe
00000300: 7709 efbe bfa9 a6bd 88c4 81be 961c 39be
00000310: 08c0 dcbd 82e5 023f b9c2 c3bc f63b c3be
00000320: 2825 82bc 37bf 913c cd07 67bd caa0 2b3e
00000330: 5e58 963d 71ad 1cbe eba2 02bf 6a47 ac3e
00000340: fa5b 6c3d 2842 95be 1742 383c 1c21 d93d
00000350: af8c f23d b562 873d cf5e 16bf 5689 14be
00000360: 9a31 c9be dae1 253e 231c 5dbe 114e 61be
00000370: 542d 0e3e 2356 963d 7f2a 8d3e 6f7d 513e
00000380: 1abe 1e3e c3b9 61be 8479 41bd 1ec1 0dbe
00000390: 9ff7 8ebd fdba e83c c7b4 803e dd76 8e3d
000003a0: a73f 81bd 9387 2f3e 8640 d23d 5dab 183e
000003b0: e45a a2be bf42 e93c 8954 e23b 7818 8e3e
000003c0: 9b81 673e d648 a23d 7125 c33d 5a2f f43e
000003d0: 8b6b 233e ed4d abbd cb25 e83d fa7a 633d
000003e0: 3315 c13e 1958 4b3e 13ed 5dbe afa1 cfbe
000003f0: 42b1 043e a38b 77be f8fa c73d bd48 14bd
0.07535134 -0.21305281 -0.15212685 0.60159105 0.27415162 0.16990192 0.08568024 -0.2890315
-0.058453456 -0.29862875 0.49177232 -0.32180235 -0.4332922 0.083888546 -0.023573438 0.31151918
0.5313834 -0.08711326 -0.40872043 0.015004743 0.108232275 0.05551279 0.38499063 0.06757171
0.029961199 -0.24745129 -0.2601327 -0.15702899 -0.1149148 0.100686334 -0.089088656 -0.12452076
0.0012535412 0.13896182 0.2350745 0.05038424 -0.11675054 0.17638898 0.24232863 -0.15672664
0.22271146 -0.40024143 0.045195434 0.032733884 -0.23118415 -0.07700773 0.09496317 0.00086073583
0.25468227 0.019116892 0.018484239 -0.17403893 -0.30508974 0.32858774 -0.41064537 -0.037136644
0.6285283 0.19808035 0.09494962 -0.0677346 0.113703966 -0.047028393 0.52585125 0.23505229
-0.2312226 -0.078942046 0.09578509 -0.52709085 -0.016007181 0.06209602 -0.16333474 0.036998577
0.30887222 0.21549264 -0.04533545 -0.2208682 0.053593755 -0.31551555 0.03026294 0.10298608
-0.19003677 0.27594376 -0.3618818 0.09333124 0.13205694 0.2666712 0.163772 0.009645861
0.015100369 0.22567305 -0.10448729 -0.49660045 -0.18198569 -0.25671062 0.15552986 0.25759333
0.18735276 -0.14428481 -0.1601461 0.107902534 -0.40677473 0.072021976 -0.07625056 0.10789963
0.17747341 -0.18103035 -0.05580591 -0.13362716 0.26161107 -0.056465052 -0.054357763 -0.5676944
0.25964728 0.324969 0.08461292 0.30091244 0.38085142 -0.25938326 0.17661414 0.12745303
-0.5947128 0.32631168 0.0982185 0.30266827 0.4539119 0.06635125 -0.19473986 0.1662586
0.22189073 -0.16792376 -0.14799134 0.052550644 0.117575884 0.11300982 -0.04915531 -0.09109817
0.16664839 -0.016642971 -0.26261753 -0.2575181 -0.28775716 -0.22521828 -0.12558503 0.22555396
-0.18993966 -0.055933565 -0.47119147 0.11237108 0.30794245 0.086281165 0.18880443 -0.09899971
-0.065367065 -0.17244376 -0.033487264 -0.17365448 -0.046054423 0.022228675 -0.5403827 0.015337105
-0.12411092 -0.00056573737 0.31126487 -0.49936432 0.33201668 -0.020487988 0.09525086 -0.06475436
0.53437555 -0.008964317 0.121430546 -0.025539001 -0.037954874 -0.5880702 0.33532757 0.22514263
-0.319348 -0.30904025 0.13536693 0.43648547 0.08874681 -0.19132072 -0.49669608 -0.5548267
0.06461291 0.08877922 0.28074154 -0.10579894 0.25553688 0.11963143 -0.21918662 -0.16634595
-0.4668691 -0.08137845 -0.25345254 -0.18077311 -0.107788146 0.5113145 -0.023896562 -0.38131684
-0.015886858 0.017791374 -0.056403924 0.16760555 0.073410735 -0.15300538 -0.51029843 0.33648235
0.057704903 -0.29152036 0.011246226 0.10602018 0.118432395 0.06610624 -0.58738416 -0.14505515
-0.39295655 0.16199437 -0.21592765 -0.22002436 0.13884479 0.07340648 0.27571484 0.20458005
0.15502205 -0.22043519 -0.047235027 -0.138432 -0.06980824 0.028409475 0.25137922 0.06956265
-0.06310969 0.17141561 0.10266213 0.1490912 -0.3170997 0.02847421 0.00690705 0.27753043
0.22608034 0.079240486 0.09528626 0.47692376 0.15958993 -0.083644725 0.113353334 0.0555372
0.37711486 0.19857825 -0.21672468 -0.40553042 0.12958243 -0.24174361 0.09764665 -0.03620218

network_body._body_endoder.seq_layers.0.bias f4 [128]
00000000: 2812 cdbc bc55 293c 83fc 403c 4729 92bc
00000010: 7715 fa3b af5e 9d3c 13b8 113c ff51 95bc
00000020: 24f4 b73c 9b1d b039 ec61 973c 190c aebc
00000030: a410 d0bc 1ea7 883c 4167 183d a60b 36bd
00000040: 134a c1bc e472 5f3c 100f 17bc d38a a63c
00000050: 13cd 583c 6be9 8dbc 77ad b03c 8d78 d8bc
00000060: 1770 053d 1a1e 41bb ebbf 5bbc 1bf1 cc3b
00000070: fbee 6e3d 5845 67ba c7a9 8c3a 0772 c7bc
00000080: 125a 053b 242b 703b caf0 da3c 6374 5ebc
00000090: b806 da3c 2edc 18bd 2eb4 353b 4788 3f3c
000000a0: 3e81 e3bc d415 333d 1f75 353d b12f d0bb
000000b0: 21e2 a83a a3b0 493d 793c 513d 567a 83bc
000000c0: cd21 1e3d 3900 03bc ac08 f43c a00c ae3c
000000d0: 693a 453b d3a8 4b3c 1ec9 d3ba 589b abbb
000000e0: f61d 44bc 1960 2abd 7857 c9bc 7f31 19bd
000000f0: 30c2 bf3c 70a9 093d 21e3 803b 3180 aa3c
00000100: 4cba 393d 3517 733c 5044 fdba 5f5d e43c
00000110: b51c 9cbc a474 903c ff91 afbb b28f 9dbc
00000120: 9cd3 a5bb c027 cf3b 865b c03c 7a7e 04bd
00000130: 591b 433a f007 cabc 4b76 683c 80ce 723d
00000140: 618a 7d3d 0ae7 18bc 7ff1 1abc cb8e 19bd
00000150: 9764 4136 d7a5 823c 32db 36bd 7199 68bc
00000160: bfbe 12bd ee11 5bbb 146d abbb c9b2 bf3d
00000170: 9e38 fd3c 8e85 89bd b0f5 9d3b 64a5 b7bc
00000180: 14cf d6bb 803a 08bc 3e83 863d e6ac bd3b
00000190: bfb4 d4bc bc34 613d ba6c 8e3c 4be7 0bb9
000001a0: 6c8e 823d 4544 7e3a 893e 483d 5984 ebbc
000001b0: 7ae2 163d b1b3 753b 73b7 ddbc 5647 393d
000001c0: eae8 643c e766 a73c fb4a 9abb 18ce f53c
000001d0: 0ec1 713c 2804 ed3b a584 56bc 8c8e 5abd
000001e0: 6462 133c 66f8 6abc 8c1c dd3c 398a fcbb
000001f0: 551d e8ba a946 ca3b d34d 36bd e743 9ebc
-0.025033072 0.010335382 0.0117789535 -0.017841948 0.0076319533 0.019210188 0.008893984 -0.018227575
0.022455283 0.00033591394 0.01847931 -0.021246003 -0.02539856 0.01668125 0.037207846 -0.044444703
-0.023594892 0.013638232 -0.0092199 0.020329868 0.013232487 -0.017323216 0.02156709 -0.02642467
0.0325776 -0.0029467405 -0.013412456 0.006254328 0.05833338 -0.00088222837 0.001073175 -0.024346365
0.0020347876 0.0036646808 0.026726145 -0.013577553 0.026614532 -0.037319355 0.0027725804 0.011690206
-0.027771588 0.04372199 0.04430115 -0.0063533415 0.0012884774 0.04924072 0.05108306 -0.016049545
0.038606454 -0.007995659 0.029789291 0.021246254 0.003009463 0.012430388 -0.001615796 -0.0052370243
-0.011970034 -0.041595552 -0.024577841 -0.03740072 0.023408026 0.033608854 0.003933326 0.02081308
0.045343682 0.014837076 -0.0019322727 0.027876554 -0.019056657 0.017633744 -0.0053579803 -0.019233558
-0.005060626 0.0063218772 0.023481142 -0.03234718 0.0007442735 -0.024661988 0.0141883595 0.059278965
0.061899547 -0.009332428 -0.009456991 -0.037489694 2.8817792e-06 0.01594822 -0.044642635 -0.0141967395
-0.03582644 -0.0033427435 -0.005231509 0.093602724 0.030910786 -0.06714927 0.004820548 -0.022417732
-0.0065554474 -0.008314729 0.06568001 0.0057884334 -0.025965093 0.054981932 0.01738583 -0.00013342236
0.06374821 0.0009699504 0.048887763 -0.028749632 0.03683708 0.0037491138 -0.027065014 0.045234047
0.013971547 0.02043481 -0.0047086454 0.0300055 0.0147555005 0.0072331615 -0.013093148 -0.0533586
0.008995626 -0.014341449 0.026991151 -0.007706907 -0.0017708937 0.006172974 -0.044507813 -0.019319488

network_body._body_endoder.seq_layers.2.weight f4 [128, 128]
00000000: 561b f33c 687d 633e eb2e 5abd 1c31 e33b
00000010: 0e10 9dbd 69a8 99bc 8967 a53d 28dc 05bd
00000020: 656c a6bd 233f 113d 0069 04bd 982b 85bd
00000030: 3b94 193e 831c 05be c344 bdbc 767e 48bd
00000040: 5164 a4bc 14a8 ac3d 0323 213e e976 c7bc
00000050: bcd6 723d 83f9 2c3d 0ef6 2bbc 6ec7 90bd
00000060: ab56 833d b471 023e 0635 6a3d 5631 133e
00000070: 223f 85be 352b d0bc cd3f 5ebd 18c6 873d
00000080: 0920 2b3c 8b81 083d 2341 5b3a 1675 a03d
00000090: 1888 643a e2bc 88bd d88a f0bc 814b 473d
000000a0: 51b9 9ebd 5d5b 273e 4f34 4bbd dbdc 463d
000000b0: 0f34 603b 5764 773d 3013 d03d 1d9d a73d
000000c0: 298e 9ebe 106f 1c3e 69e6 143d d380 19bd
000000d0: 5206 033e f2f5 ef3d 85f7 1a3d 3e02 44bc
000000e0: 9a4e 763d 7799 3ebd bc20 f6bc dc83 073d
000000f0: 5fe0 833e 54ac 433e 0453 02be 2a1b 46bd
00000100: 2d77 373c b7e8 f8bd 0d80 28bd 6162 b53c
00000110: 6921 a63c 0c0a f13d 0d20 b5bd 728f 09be
00000120: 76e5 0f3e b193 93bd 51bf 273e 5000 3f3c
00000130: 3e82 18be 27d2 dc3d fdc8 613d f74a b63d
00000140: 5e01 073e 7f56 aa3d fc53 18be a6cc 07bd
00000150: 5971 fc3b 01fe 673d b9a2 0cbe 11a1 84be
00000160: 7bad 4f3c cecf e1bd 2116 b23d 6ba1 113e
00000170: 1da3 943d f133 3c3d 006d 4abd e0fd 9e3c
00000180: d0e9 64be 9a3e 1bbd e3fc 8ebe e525 ba3b
00000190: 793c 0a3d 2773 0d3d 5c21 233e 3683 0a3d
000001a0: c770 b6bd 898a 5e3e b224 973d 659e 0d3c
000001b0: 2f6b 94bd 6cb7 943d cbb9 5bbd 1095 a33d
000001c0: e17e 6a3d fa5f 12bd 6e0a 023e 1002 653d
000001d0: 1d47 443d 0118 ea3c d1b1 843a 7ff3 06bd
000001e0: 0653 dc3d 22c5 aabd f817 06be 3a0e 16bd
000001f0: 805b a63d 698e 99bd 66a3 af3c 91a0 c7bd
00000200: de53 31bc b9ca 6d3e b362 6bbc 1e16 e2bd
00000210: 0302 ec3d 0fd6 d83d a84e 1d3e 4b79 00be
00000220: cc65 573d 0fa6 68bd eaf1 86bd b252 a0bd
00000230: 9b2f b43c 573f 0b3e ccbc 773e 4cf8 93bd
00000240: 6aaa 623d 4f5e a0bd e828 03be 9e59 26bc
00000250: 2b17 a2bd 72c8 a9bd 5f7c bbbd 8de8 80bd
00000260: 114b e43d e777 473d fafa 343e d89b e93d
00000270: bd42 d6bc 2967 f9bd f26c 87bd fb4a eebd
00000280: e9a8 2fbd f708 853d acdd 203e 7ee2 a639
00000290: 3e14 ebbc c446 d9bd 69e0 87bd cea4 e83c
000002a0: a6f6 4fbd ceef 6e3c 8acd c03d 9a5e b8bd
000002b0: d3c5 b2bd dfaa 1e3e 08ce 643e 0e7a 84bd
000002c0: c0e6 4a3d 2942 f13d 0860 b0bd 15de c73d
000002d0: e612 6cbe 6a08 133e a56f 13be 9f32 283b
000002e0: 6315 11be 4717 82be 44d9 90bd e1c4 43bd
000002f0: 8d88 d7bd 261d 8dbd bdd9 babd 03e1 803c
00000300: b9a0 0e3e a3c0 b3bd 9266 0ebe 1905 57bd
00000310: 8f55 80bc e97d a23d 06c7 233e 7bc1 17bd
00000320: 33b7 903d 5822 b8bc 0743 8b3d 527e 3fbd
00000330: ca7f 223e 7a51 a03c 0592 e33c 1c74 35be
00000340: abb1 80bc ae0d 993d e52a 3f3c 178a 713d
00000350: fe0c 27bd ba92 4b3c 3ccd bb3c bffc 2bbb
00000360: a5ae 0e3e 3114 c83d 7b8c 0e3e 8391 d9bd
00000370: e65f 163d 2413 cdbd e196 423e 0b85 9f3d
00000380: 5b51 163e 19c5 ae3a 76a5 b4bd 69b0 053c
00000390: f1d3 053e eba9 9bbd 1779 39bd 69b7 a03b
000003a0: db52 463e 00a5 a93d ee8b 01bd 08d9 1c3e
000003b0: c6c8 383e 8151 1cbd 7c5e 38be 0d2a 133e
000003c0: bc49 dabd 43e9 3cbe e2c2 8b3d 5681 063c
000003d0: f36c 8dbc 2e1e 12bc ac9a 01be 4595 4c3d
000003e0: 6917 e5bc a544 c73d 16a5 2c3e 4c80 c73d
000003f0: cbe6 9e3d ed58 a0bd 00fa 0dbd fadc 183e
0.02967612 0.22215807 -0.0532674 0.0069333445 -0.07669078 -0.018757062 0.080763884 -0.03268066
-0.08126143 0.035460602 -0.0323267 -0.065024555 0.14997952 -0.12999158 -0.023104077 -0.048948728
-0.020067366 0.08430496 0.15736012 -0.024348693 0.059286818 0.04223014 -0.010495676 -0.07069288
0.06413015 0.12738687 0.057179473 0.14374289 -0.2602473 -0.025411228 -0.054260064 0.0662958
0.0104446495 0.033326667 0.0008363893 0.07834832 0.00087177893 -0.066766515 -0.02936308 0.04865599
-0.0775019 0.16343446 -0.049610432 0.048550468 0.0034210717 0.060398426 0.1015991 0.08184264
-0.30967835 0.15276742 0.03635255 -0.037476372 0.1279538 0.11716832 0.03783371 -0.011963425
0.060133554 -0.046533074 -0.030044906 0.033084735 0.2575712 0.19108707 -0.1272698 -0.04836575
0.011197847 -0.12153762 -0.041137744 0.022141637 0.020279603 0.117694944 -0.08844004 -0.13433626
0.14052376 -0.07205904 0.16381575 0.011657789 -0.14893433 0.10782271 0.055123318 0.08901017
0.13184115 0.08317279 -0.14875787 -0.033154152 0.007703942 0.05663872 -0.13733949 -0.25904134
0.012675638 -0.11025964 0.08695627 0.14221732 0.07257674 0.045947973 -0.049420357 0.019408166
-0.22354817 -0.0379015 -0.27927312 0.005680787 0.033749077 0.034533646 0.15930694 0.03381654
-0.08908229 0.21732534 0.07380046 0.008643721 -0.07247006 0.072615474 -0.053643983 0.07987416
0.057249907 -0.03573606 0.12699291 0.05591017 0.04791938 0.0285759 0.0010123794 -0.03294706
0.10758023 -0.08338381 -0.13095081 -0.03663466 0.08122921 -0.07497866 0.02144022 -0.097474225
-0.010823218 0.23221864 -0.014366793 -0.11039375 0.11523821 0.105877034 0.15362036 -0.1254627
0.052587315 -0.05679899 -0.0658911 -0.07828273 0.021995356 0.13598381 0.24193114 -0.07225093
0.0553383 -0.07830488 -0.12808573 -0.010153202 -0.07914575 -0.08290185 -0.09154581 -0.062943555
0.1114713 0.048698332 0.17673865 0.11406678 -0.02615487 -0.12177879 -0.066125765 -0.11635395
-0.042885695 0.064958505 0.15709561 0.00031830737 -0.028696176 -0.106092006 -0.066346 0.028398897
-0.05077233 0.014583541 0.094142035 -0.09002419 -0.08729138 0.1549487 0.2234422 -0.064685926
0.049536467 0.11780197 -0.086120665 0.09759156 -0.23054084 0.14358678 -0.14398058 0.0025664938
-0.14168315 -0.25408384 -0.0707269 -0.04779518 -0.10524092 -0.06890325 -0.091235615 0.015732294
0.13928498 -0.08776977 -0.13906315 -0.052495096 -0.015665798 0.07934172 0.1599389 -0.03704975
0.070661925 -0.022477314 0.06799894 -0.046751328 0.1586906 0.019570101 0.027779588 -0.17720073
-0.015709719 0.07473312 0.011667942 0.058969583 -0.040783875 0.012425119 0.022925012 -0.0026243178
0.13933809 0.09769476 0.13920777 -0.10623457 0.03671255 -0.100134164 0.19002868 0.07789048
0.14679472 0.0013333886 -0.08820622 0.008159735 0.1306913 -0.07600769 -0.045281496 0.0049046767
0.19367544 0.082834244 -0.031627588 0.15317166 0.18045339 -0.038163666 -0.18004793 0.1437151
-0.10658595 -0.18448357 0.0682428 0.008209547 -0.017263865 -0.008918328 -0.12656659 0.049947042
-0.027965264 0.0972989 0.1685985 0.097412676 0.07758864 -0.07829461 -0.034662247 0.14928046

network_body._body_endoder.seq_layers.2.bias f4 [128]
00000000: 03fb 323b b22e e7bb 3b42 d93c bdb6 c43c
00000010: 69eb 51bd e83d 2cbc bf80 c43b 85c8 17bc
00000020: 9229 d63b f031 c33a c574 333c a6fa 213b
00000030: 9a17 ce3a c13b 75bc c2f3 2e3c 0ba9 f0bc
00000040: 5dcf 17bc 145b 823c d088 773c f8a8 89bb
00000050: da37 fcbc 5b99 ffbc afb3 2d3c 42fa 86bc
00000060: 3d9a 533b 4849 1b3c ed17 5ebc 8340 23bc
00000070: bdc5 99ba 50b2 b03c 8187 0ebc 3292 a53c
00000080: d089 38bc f17f 8cbc 657e 98ba 0512 993c
00000090: 71ef 08bd 3412 41bc cb73 933b 3fb6 9f3b
000000a0: d035 e53c f125 603c cc67 bdbb 8357 fa3a
000000b0: c3af 1e3d 6c4b 45bc 3de4 b03b 46b4 a5bb
000000c0: e819 f93b 7e70 6fbc ed80 5fbc 2753 bd3c
000000d0: 88ae 85bc ffac af3c 9535 a83c 0ebe 003b
000000e0: 6e95 283c d810 e93b fe85 27bc b1d7 8f3c
000000f0: 343d 5a3c 8d6e f33c cf16 283c 661f f83c
00000100: 306f 91bb e946 233c 396d aebb 3543 e13b
00000110: b51f aabc a97d 0a3c 5c79 3d3c 6f59 b93c
00000120: ca68 5aba 559d 86bc a920 25bc 81db b33c
00000130: 9af7 8d3c d12e a03c 60b8 2bbc 694b 84bc
00000140: e01e d03a 6841 f0bc f7a7 9bbc 03fc 43bc
00000150: c939 7e3b aa76 aebc ae99 d23c 57fb f03b
00000160: f57e bf3c 05a2 2bbd f49f 503d cb9a 14bd
00000170: 6ee5 06bc 1659 383c 3fce 10ba 423d 0c3c
00000180: da04 b93c f998 c93b b633 f7b8 e8b5 2fbc
00000190: 319a 903c 1818 113d 43d6 bb3c f7d1 d3bc
000001a0: 85f1 2c3b cde4 c23c c114 193a 59d6 a43b
000001b0: b034 073b 1b91 3bbb 5082 c03c 71f2 833c
000001c0: 3797 7c3c 6106 e3bc e376 88bc c930 94bc
000001d0: a2ee 99bc 871d bcbb dd1d c73c 768f b93c
000001e0: f6a2 0b3c cb42 003d d60d e83c 3b25 253d
000001f0: 76fd 4539 2b03 69bb 21c0 c1bc c5b8 5aba
0.002731026 -0.007055127 0.026520839 0.024012918 -0.051249895 -0.0105128065 0.005996793 -0.009264116
0.0065357173 0.0014892202 0.010953133 0.0024716049 0.0015723587 -0.01496786 0.010678234 -0.029377481
-0.009265748 0.01591257 0.015108302 -0.004201051 -0.03078835 -0.031201055 0.010601922 -0.016476754
0.0032287978 0.009477921 -0.013555509 -0.009964111 -0.0011731904 0.021569401 -0.008699299 0.020211313
-0.011263326 -0.017150851 -0.0011634348 0.01868535 -0.033431474 -0.011784125 0.0044998876 0.0048740203
0.027979761 0.013680921 -0.005780196 0.0019099567 0.03874184 -0.012041908 0.005398302 -0.0050568907
0.007601965 -0.014614223 -0.013641578 0.02311094 -0.016318575 0.021444796 0.020533362 0.0019644531
0.010289533 0.0071126036 -0.010224817 0.017558904 0.013320256 0.0297158 0.010259344 0.03028841
-0.0044383034 0.009965637 -0.005323079 0.006874467 -0.020767072 0.008452811 0.011564579 0.022625653
-0.0008331655 -0.016432444 -0.010078588 0.021955254 0.01732998 0.019553574 -0.01048097 -0.01614924
0.0015878342 -0.029328063 -0.01900099 -0.01196194 0.0038791767 -0.021296818 0.025708046 0.007354181
0.023375968 -0.04190256 0.050933793 -0.036280435 -0.008233411 0.0112517085 -0.0005523897 0.008559527
0.022585321 0.006152269 -0.0001178751 -0.010724522 0.01765165 0.03542337 0.022929316 -0.025856955
0.0026389074 0.023790741 0.00058395794 0.005030435 0.002063077 -0.0028620425 0.023499638 0.016106816
0.015416912 -0.027713003 -0.016658252 -0.018089669 -0.018790547 -0.0057408246 0.024306232 0.022651415
0.00852274 0.0313137 0.02832691 0.04031871 0.00018881806 -0.0035554867 -0.023651185 -0.0008343573

action_model._continuous_distribution.log_sigma f4 [1, 2]
00000000: e648 02bd 055e dbbd
-0.031807803 -0.10711292

action_model._continuous_distribution.mu.weight f4 [2, 128]
00000000: 3be9 253d cb31 11bd 37b8 813d f6bd 2e3d
00000010: 788e 093b 1277 15bd a513 f33b 1924 6d3d
00000020: 81b7 1d3d a153 c83d 164c 693c e0f5 603c
00000030: 41f8 7a39 c795 ac3c 6a0c 2fbd ca45 41bc
00000040: 650b 633d 8e12 473d c6b2 5c3d d705 1cbc
00000050: 1a4a 86bb d710 47bd 7fcb ca3b fce7 f5ba
00000060: b84e 9c3c ab7e 5f3d 75ba 90bc bb5a 01bc
00000070: 30ef 42bc e3bc 01bd 6463 2e3c 541e 58bd
00000080: d08b 863c 6544 a83a abc3 0fbd de93 b83c
00000090: 25a9 fdba 5468 e4bb 79d4 ca3b dd14 723d
000000a0: 3abb 69bc 4bf7 503d 7f0e 6bbc 7e82 cbbc
000000b0: 9fb2 1ebd e758 0dbc 3456 513d 90eb 123d
000000c0: 9a4d 1cbb 9235 063d 33dd 323c 49bd 74bc
000000d0: fcf4 063d ab87 e23b d2be 203d 96f5 0a3c
000000e0: dd78 afbc e850 793c 19c5 123d 28e1 a4bc
000000f0: ed28 433b 505f 323b e350 a53c 1075 143d
00000100: cf7c 9ebc dcf1 3c3d 3cf3 ccbc 807e 473d
00000110: 299a 0f3d 16b0 85b8 d428 e13c d537 3ebb
00000120: 3b27 743d dbce ad3b f5b5 1abb 792e 05bd
00000130: a492 25bd 68fe 8d3c 2a0b 233c a2b2 35bc
00000140: 2b2f 85bc 04a1 643b dabd 5e3c bd34 283c
00000150: 54f0 7bbb fb50 58bc 2997 6fbb aaa1 ee3b
00000160: bdea 6cbd cd1d 34bd 2fbe 4c3d 8da8 ef3c
00000170: 2eb5 c2bc 5a90 0bbd 5aa6 e73c 2569 b7bc
00000180: 5dc0 1a3d b305 26bd fa2c 35bc fb7f 043c
00000190: 3ba7 71bc 81a4 1cbc e6a8 293d 340f 04bc
000001a0: 631e 933c a0b5 fb3b 11b5 8fbb bbee 1a3d
000001b0: 3894 053c 95d4 ebbc 0df6 02bc 7a55 863d
000001c0: e9bd fd3c 36f7 b73c 2cae 0c3d 9471 cb3c
000001d0: 90b2 fabc ede5 e3bb ea8a 623d 4390 633b
000001e0: 6e6f 32bc e390 e43a c1e6 3e3d 887e bebc
000001f0: ca83 2dbc 3ce2 c93c 2b9b 443c 231f d13b
00000200: 6b85 fc3c ce57 873c 6073 803b 4f84 2abd
00000210: 430d 26bd 725d 4fbd 0420 05bd 1307 c9bc
00000220: c4fb a13c c10a 653d ad44 6f3a 2e0e 4b3c
00000230: 8851 40bc 1a06 96bb fc48 943c 659f b7bc
00000240: 39af 163b 6f22 883d 3ddf dd3c 9b03 9f3c
00000250: 677e 303c 3da5 783b 7d82 3ebd 866f 7e3c
00000260: 56c7 553c 5fc5 fa3c 667a 9f3c 207c 8dbc
00000270: 44a5 c73c 4ed0 12bb 10a0 00bd 932f 35bc
00000280: c603 e33b 3ff4 233d df5a ef3c ffa5 5abd
00000290: 3e34 973b 634d bebb 14e1 0bbd d892 30bd
000002a0: 0fd8 d3bc febb d03b 0a3d f7bb 7296 203b
000002b0: c625 de3b 1451 37bc 75c2 eb3c f48a e63c
000002c0: 7a32 0bbd 9e12 23bd e5e0 60ba 79de 32bd
000002d0: 0576 2a3c 668b 193d 0d46 8b3d ea8e 98bc
000002e0: 6953 adba e946 dfbc b984 4abb 1e57 b9bb
000002f0: 90e9 3bbd 4b7f 10bd 2102 2f3d 4a5d 033a
00000300: 3646 273d 8c2f 7ebd 3b76 b33c 80ba b3bc
00000310: 94b7 06bd 64ce 1abd 7d79 5a3c b27d c43d
00000320: 9e0b eb3c c2e5 083d 45f2 a93c affb 5fbc
00000330: 24ee 3ebc bc9d ccbc f1f9 c23b 1b93 e8bb
00000340: 050d 8c3c 9e54 b03b 8230 a83c 215b 41bd
00000350: d6ae 41bc 784c e23c e832 033d a9e2 fb3b
00000360: 185d 473d 004a d53b 8921 643c 3fe5 91bb
00000370: c11f 7fbd 7200 d33b c59b ebbc 3f04 bdbb
00000380: 6734 423d d79e bf3c 36d5 1f3d 49fd 263d
00000390: 5900 04bc b2db 87bd 78e5 a23d bb6a 1dbd
000003a0: 9d1f d93c d07e 183b 1628 a4bc 4b39 b33b
000003b0: 6e03 eabc 221c 213d cf0e 8c3c d7ea 3d3d
000003c0: 07f6 8a3d 790a 20bc ff19 71bc d3ce 833d
000003d0: 46d4 6abc edb2 a8bc b118 2fbb 7b23 9f3d
000003e0: 67ce 56bd b23e 2ebd 3405 7a3c 475c 91bd
000003f0: 09b5 54bd 9178 4b3c d3f4 253c 1ff6 213d
0.04050563 -0.035447877 0.06333964 0.04266163 0.002098946 -0.036490507 0.0074181133 0.057895754
0.03850508 0.09781576 0.014239332 0.013730496 0.0002393434 0.021067513 -0.04273645 -0.011796424
0.05543079 0.04860168 0.05388143 -0.009522877 -0.004098189 -0.048600044 0.0061888094 -0.0018761153
0.019080505 0.05456416 -0.017667035 -0.007895167 -0.011897847 -0.031674277 0.010643814 -0.0527633
0.01642409 0.0012837766 -0.035098713 0.022531446 -0.0019352777 -0.0069704447 0.0061898795 0.059101928
-0.01426583 0.051017087 -0.014346718 -0.024842497 -0.038744565 -0.008627153 0.0511076 0.03586918
-0.0023849965 0.032765932 0.010916996 -0.014937707 0.03294848 0.0069131455 0.03924448 0.008481404
-0.021419937 0.015217043 0.0358325 -0.020126894 0.0029779032 0.0027217455 0.020180171 0.036244452
-0.019346623 0.046129093 -0.025018327 0.048704624 0.035059128 -6.374733e-05 0.027485289 -0.0029024978
0.059607726 0.0053042 -0.002360699 -0.032515023 -0.04042305 0.017333224 0.009951392 -0.011089953
-0.016257843 0.0034886012 0.013595069 0.01026648 -0.0038442807 -0.013202901 -0.0036558604 0.0072824555
-0.05784105 -0.043973733 0.04998606 0.029255176 -0.023768034 -0.03407321 0.028277565 -0.022389004
0.03778111 -0.04053278 -0.0110580865 0.008087154 -0.0147493435 -0.009560705 0.04142084 -0.008060265
0.017958825 0.0076815635 -0.0043855985 0.037825327 0.008153014 -0.02878789 -0.007993233 0.06559272
0.030974345 0.022456747 0.03434579 0.024834432 -0.030602723 -0.0069548995 0.05530826 0.0034723438
-0.010890825 0.0017438199 0.046606783 -0.023253694 -0.010590503 0.02464401 0.011999886 0.0063818856
0.030825337 0.01652136 0.003920004 -0.041630086 -0.04053999 -0.050626226 -0.032501236 -0.024539506
0.019773372 0.05591846 0.000912736 0.012393517 -0.011738189 -0.004578364 0.018101208 -0.022414872
0.0022992624 0.06647193 0.027083987 0.019410899 0.010772324 0.0037940287 -0.046511162 0.015529519
0.013048014 0.030611692 0.019467544 -0.017271101 0.024370797 -0.0022401991 -0.031402647 -0.011058706
0.00692794 0.040027853 0.029218135 -0.053380962 0.004614382 -0.005807565 -0.034150198 -0.04310879
-0.02585986 0.0063700667 -0.007545118 0.0024503735 0.0067794053 -0.011188764 0.028779248 0.02814243
-0.033983685 -0.039812677 -0.0008578434 -0.043669198 0.010404115 0.037486456 0.068004705 -0.018622834
-0.0013223711 -0.027255492 -0.0030901863 -0.005656137 -0.04587704 -0.035277646 0.04272664 0.00050111546
0.040838443 -0.062057063 0.021906963 -0.021939516 -0.032889917 -0.037794486 0.013334629 0.09594287
0.028692063 0.03342224 0.020745406 -0.013670846 -0.011653457 -0.024977557 0.0059502055 -0.0070976145
0.017096052 0.005381181 0.020530943 -0.047206048 -0.011821469 0.027624354 0.03203097 0.007686932
0.048672765 0.0065090656 0.013924011 -0.004452377 -0.062286142 0.006439262 -0.0287608 -0.0057683284
0.047413256 0.02339117 0.039021693 0.040768895 -0.0080567235 -0.066337004 0.07953924 -0.038431864
0.026504332 0.0023268946 -0.020038646 0.0054694763 -0.028566089 0.03933347 0.017096905 0.04636654
0.06785207 -0.009768122 -0.014715671 0.06435933 -0.0143328365 -0.020593131 -0.0026717598 0.07770439
-0.052442934 -0.04254026 0.01526003 -0.07097679 -0.05193046 0.012418882 0.010129171 0.03954136

action_model._continuous_distribution.mu.bias f4 [2]
00000000: cc89 abbb fbe2 25bb
-0.0052349325 -0.0025312293

action_model._discrete_distribution.branches.0.weight f4 [2, 128]
00000000: 2a37 49bd 41ee ce3d 18a8 093d 6f56 27bc
00000010: b8ec 6d3d a275 cc3d 475c fcbb 179f c4bc
00000020: 888e 2dba 9a29 493d 8f9a 7dbd d618 ffbc
00000030: c2ab 3ebd 7cb6 80bb 684d 153d f1b8 43bc
00000040: e0f8 633c da0f c43d 1b3f 80bc 67af 29bd
00000050: 00ed 7bbc 3aec 273d dc35 0bbd dd06 f3bc
00000060: 79fd 2bbd d8b6 933d e97d d23b d4ee 7fbc
00000070: 2256 e0bc 2338 66bb b307 123d 6a70 8fbc
00000080: c44b 27bd ab78 333c ddb2 703d 5820 38bc
00000090: 39a6 e0bc 5e99 dbbc 16b3 363c ac6f bfbb
000000a0: d493 b6bd 8c1e e6bc 8c87 193b 40b3 2abd
000000b0: b6ed e03d 0275 cebc 7efc b2bc 494c 463d
000000c0: 240e 6a3d c32e 853b 4146 193c a847 933c
000000d0: 836e 1e3d e224 a9bd a8b4 ddbc c354 70bd
000000e0: c2cb f6bc 39b9 87bc 5bbd a33d b304 d33d
000000f0: d7ee fdbc fad8 39bd 23cc aebb 2703 f73d
00000100: 87d7 cebc ea1f 2f3d d417 cfbb cd70 2d3d
00000110: 1a73 a2bc ab7f 853d bae8 80bd 5849 aa3c
00000120: a3c6 6a3c 853b 903c 32ff 883b ee8c 84bd
00000130: 29c3 90ba 8c5c ef3d 6e31 253c 7d9c fc3c
00000140: abf4 28bd eea7 8339 c972 b7bc 9f0d 12bb
00000150: f40d 38bd f66e 3d3c 75fa d5bd 8ab5 23bd
00000160: c1d6 38bd a544 8b3d c386 afbc d91b aebc
00000170: 6d7e ce3d d0f0 66bc eece 4ebd 7f87 173c
00000180: 28ae e13b c574 2dbc 32bf 6dbc 4390 0a3c
00000190: a4b5 84bd 48e4 2e3d c2a6 9d3d 387f 8c3d
000001a0: 9c6e c5bc a259 76bd 92ed 17bd fde4 b53c
000001b0: f063 f5bc 84f3 0dbd 3dfe bcbc 29ab 983d
000001c0: 5fa2 163d c82a 573a d252 14bb 2ae6 443d
000001d0: e022 a7bc 576f 823d b3af 50bd 880b 42bd
000001e0: 6839 4b3d d70a 62bd e8ac 58bd 363d 4abd
000001f0: bfcf 093d c67a 533d 8767 623c 0856 be3c
00000200: 2e70 683d 7983 d8bd c972 bbbc 3cbc 9cbb
00000210: 6a07 98bd 9a3d cbbd e3e7 8b3c 7387 663b
00000220: ef37 4d3c 4fc5 22bd ea70 8b3d 679a de3c
00000230: a386 583d f2b7 1e3c f45e 0bbd c97c 2d3c
00000240: 26e0 edbc 2c71 babd 7743 cd3c 8056 2c3d
00000250: b586 953c 05d2 68bd ffdf 143d e737 fe3b
00000260: 660b fd3c 548a 79bd 0a60 433b 0b27 f63c
00000270: d974 243d 02ce 3735 1e6f 0ebd fa97 913c
00000280: 0904 523d ec7c ecbc e213 74bd fedc d63b
00000290: 1553 cd3b e5d5 4539 b4ad 5e3a e9f7 5d3b
000002a0: 6a00 b73d 9240 ef3c eeef 413c 44be 5e3d
000002b0: 73e3 d3bd f196 d43c e472 823b 1f8e 5ebd
000002c0: d131 52bd 0013 16bc c4e3 bdbc 423a d0bc
000002d0: d52e 0abd fba5 c73d b1d5 ea3c 7f44 823d
000002e0: 1457 a33c 1cc0 843c ad08 97bd 8e63 9cbd
000002f0: c823 573d 08a1 553d 3792 cdba c172 cbbd
00000300: 6f5f a73c 18af 36bd 5997 903c d7cc f2bc
00000310: de42 b03c ecf8 75bd b4b5 783d 2581 9bbc
00000320: 0d8e 6cbc 31f0 bbbc 1311 e63b 81ff a03d
00000330: b2b2 d1bb 76f1 edbd aaa1 d7bb fe60 c6bb
00000340: 35a9 503d 6fa8 123c e1fd ca3b cb07 f2bb
00000350: a28e 323d 59bf 46bc a1d4 dc3d dc63 583d
00000360: c620 143d 8aa4 9cbd 2d78 4b3d f868 c33c
00000370: 1ea7 d4bd 4608 e73c 6e13 b23c d955 82bc
00000380: 60b4 26bc ae61 6c3c c472 d43c 2f95 4cbb
00000390: e299 863d 84f2 1abd c6d4 9ebd 9a28 87bd
000003a0: d930 0e3d bde1 993d bcc2 fc3c d0a8 bbbc
000003b0: e8e7 d43c f491 413d 412d 4e3b 3d0d 85bd
000003c0: 5756 2cbd 3d26 2ebc e56a eebb 894c 35bd
000003d0: da72 8d3c 4de5 8fbd 2370 2a3d be0b 483d
000003e0: 4c1a 47bd 167c 963d bb84 4d3d a1b6 773d
000003f0: 1214 9abc c568 32bd efb7 bc3b ab9d 223c
-0.049124874 0.10104037 0.033607572 -0.0102134785 0.05808708 0.09983374 -0.00770143 -0.024001641
-0.0006620665 0.04911194 -0.061914977 -0.031139772 -0.04655052 -0.003928004 0.036450773 -0.011945949
0.013914317 0.09573336 -0.015655091 -0.041427042 -0.015376329 0.040996768 -0.03398691 -0.029666359
-0.041989777 0.07212609 0.006423701 -0.015620906 -0.027384821 -0.0035128675 0.035651874 -0.017509658
-0.04084374 0.010954062 0.058764327 -0.01123818 -0.027423011 -0.02680653 0.011151096 -0.0058421697
-0.08914915 -0.028090738 0.002342674 -0.041674852 0.1098284 -0.025202278 -0.021848913 0.048412595
0.05714239 0.0040644123 0.009355129 0.017978504 0.03867961 -0.08258988 -0.027063683 -0.058674585
-0.030126456 -0.016567813 0.07995101 0.10303631 -0.030997677 -0.04537294 -0.0053343936 0.12061148
-0.025249256 0.042755045 -0.006319979 0.042343903 -0.019830275 0.06518491 -0.06294389 0.020786926
0.014329585 0.017606506 0.0041808123 -0.06472193 -0.001104449 0.11687574 0.010082586 0.030836338
-0.04124896 0.00025111384 -0.022393601 -0.002228595 -0.04493518 0.0115621 -0.104481615 -0.03996805
-0.04512668 0.06800202 -0.021426564 -0.021253513 0.100827076 -0.0140955 -0.050490312 0.009248613
0.006887216 -0.010586922 -0.014510917 0.008457246 -0.06479958 0.042698175 0.07697822 0.068602026
-0.024100594 -0.060144074 -0.0370918 0.022203917 -0.02995488 -0.034656063 -0.023070449 0.07454521
0.036775943 0.0008207974 -0.0022632373 0.048071064 -0.020402372 0.06368893 -0.05094881 -0.04737428
0.049615294 -0.05518612 -0.05289927 -0.04937478 0.033645388 0.051630758 0.013818628 0.023234382
0.056747608 -0.105719514 -0.022881882 -0.0047831815 -0.07423289 -0.09923859 0.017078346 0.003517595
0.012525543 -0.03973895 0.06808646 0.027173234 0.052862775 0.009687411 -0.0340261 0.010588833
-0.029037546 -0.09103617 0.025056584 0.04207468 0.01825271 -0.056840915 0.03634643 0.007758129
0.030889224 -0.060922936 0.0029811882 0.030047914 0.040150497 6.8472593e-07 -0.03477394 0.017772663
0.05127338 -0.028868161 -0.059589274 0.006557106 0.0062660077 0.00018867066 0.0008494512 0.003386969
0.08935626 0.029205594 0.011836989 0.05438067 -0.10346117 0.02595088 0.003980981 -0.054334756
-0.05131704 -0.009159803 -0.023179896 -0.025418404 -0.03373607 0.09748455 0.02866635 0.06360721
0.019938983 0.016204886 -0.07374702 -0.07636176 0.052524358 0.052155524 -0.0015683834 -0.09933997
0.020431248 -0.044600576 0.017650293 -0.02963869 0.02151626 -0.060051844 0.06072016 -0.01898248
-0.014438164 -0.02294168 0.0070210784 0.078612335 -0.006399476 -0.11618321 -0.006580551 -0.006054043
0.05094262 0.0089512905 0.0061948155 -0.007386183 0.043593056 -0.012130582 0.10782743 0.05282961
0.036164068 -0.07648571 0.049675155 0.023853764 -0.103834376 0.028202187 0.02173778 -0.015910076
-0.010174841 0.0144275855 0.02593363 -0.003121685 0.065723196 -0.037828937 -0.07755427 -0.06599541
0.034714554 0.07513759 0.030854575 -0.022907645 0.025989488 0.047258332 0.003146008 -0.064966656
-0.042074528 -0.010629234 -0.0072759264 -0.044262443 0.01726668 -0.070261575 0.04161085 0.048839323
-0.048609063 0.07347886 0.05017541 0.060476903 -0.018808398 -0.043556947 0.0057592313 0.009925286

action_model._discrete_distribution.branches.0.bias f4 [2]
00000000: b28d 3dbd b08d 3d3d
-0.04627771 0.0462777

exp_avg f4 [128, 20]
00000000: 6e8c 4a3b d1de e7ba 0691 41bb 1b95 1fbb
00000010: ef58 4c3a 6629 b7ba 0ab8 88ba 3ecc 013b
00000020: b62f b6ba a40b 40ba 55bf 32ba 6233 883b
00000030: 7108 773b 3793 1dbb 6b77 0cbb f6db f9ba
00000040: 59cc 97ba 2085 8b39 6389 75bb 5bcd 7c3a
00000050: 4cb2 14bd 1407 30bc df45 3eba 51cc 5bbc
00000060: 31c9 5dbc 3222 dd3b 9768 2fbc b669 72bc
00000070: 1706 193c 7f7b 4fbc 4ac7 85bc 9026 dd3b
00000080: 22ca 3bbc 9273 54bb 069c b9bb 5623 b83a
00000090: 8558 51bb 65e3 b03b 08bd 80ba ea27 2ebb
000000a0: 09fe 6a3c 3a82 143b 3235 69b8 44f5 833b
000000b0: 2c3a cb3b e2a6 cbb9 b031 d43b 588c f93b
000000c0: fa4a 60b9 d0e3 0b3c da8e ee3b ae65 39ba
000000d0: 6b12 d33b 4892 033b 10af 163b a9f2 afba
000000e0: 1e54 373b 4f57 00bb e087 093b a84f 25b9
000000f0: 1650 1bbc afc9 39bb 5e22 39bb f8e5 24bb
00000100: 66e4 7cbb a4ac 27b9 fe07 bbbb 7b3d 81bb
00000110: 6b65 323b 1813 6abb 2034 8ebb 9082 093a
00000120: 8481 4abb f387 9cba 6086 5abb 78d7 253a
00000130: ea70 bfba e5fc af3a cedf 9cba c6af a2ba
00000140: aa77 363b a0cb 8db9 18ce f0b9 c092 4ab8
00000150: 9a43 743b a083 29bb 30af d839 d461 7d3b
00000160: 2a64 09bb 0819 e73a 9895 8d3b 884b 54bb
00000170: 70b1 82b9 1a28 223a 5c17 3f3a f9f4 f139
00000180: fc05 f8b8 4131 c6ba a31c b43a 1bba 913a
00000190: 93fe e93b a3a5 283b acca b6b9 c756 683b
000001a0: 1b3c ee3b e724 463b 021a c63b 7f7d 003c
000001b0: 58dc 273b d4a1 cd3b a40b 113c 7e99 8d3a
000001c0: 7dd9 733b 04bf 033b dd81 693b b2f6 a83a
000001d0: 531a c03a 4a93 f3ba 42b9 513b 4e43 9bb8
000001e0: b724 053c 42d9 543b b9be e43a 06f6 903b
000001f0: 4148 6c3b e647 583b 426f 333b 60e7 723b
00000200: 3d7f 613b 2fea 373b 5bed 5b3b d873 833b
00000210: 8506 4f3b dd36 4b3a f882 f53a f713 a33a
00000220: 0a7e c33a c810 8e3a 0696 6138 20a7 abb9
00000230: 5c65 873a 0446 dd39 d1f2 71b9 be1b 183a
00000240: d3ab 7ab8 aa38 ff38 a2e3 2f39 5431 8839
00000250: 547d 063a b4b0 8039 9595 ed39 b6c1 d039
00000260: 6058 fc39 27fe 9438 1a9f 9839 7cd8 8339
00000270: 4f7f 8cb7 ed7d 2b38 fb17 aeb7 7f9f 18b7
00000280: 3487 42bc 882f 64b9 d87a cf3a 2c68 01bb
00000290: 548f 23bc ada9 c8b9 06f0 01bc 8398 18bc
000002a0: 9adf 6aba 0dd0 32bc c9d4 21bc 5849 763a
000002b0: c27d fcbb aac7 d9ba 11b1 60bb c804 37ba
000002c0: 8a03 c7b9 c6de 313b 0378 4cbb 599c a039
000002d0: 0128 0b3b 84ca ff38 44dc b538 e08c 41b5
000002e0: a093 8739 0f4e c3b8 d168 c239 2afa 9739
000002f0: 38a2 97b7 a85c a139 0d01 a339 3c6f b1b8
00000300: 9b92 aa39 eec0 12b6 702f 9eb8 a592 34b8
00000310: bb93 8138 60f6 cdb7 1e56 1438 2ad7 4eb8
00000320: 63cd 9b3b 381d bb3a 17f7 26ba fc59 8b3b
00000330: ecde 523b 56b7 49b9 af2f 663b b751 813b
00000340: 310f 9bba 3f1b e73a 951d 663b f77e 473b
00000350: d819 1c3b 182f 2f39 f7c5 80b9 e8bb dcb9
00000360: e387 523a 01b4 57ba b3d6 ff39 870f 8139
00000370: f8e7 943a 74ed 8bb9 9858 303a c006 223a
00000380: 2abf 0a3b 9f66 6e3a ca45 1c3a 63de 8d3a
00000390: 7a0b 323b 70df 3e3b 50a1 97b9 aa27 c73a
000003a0: 1029 193b 1805 ab39 d025 ec3a aea1 dd3a
000003b0: 624c 59ba 2f08 9e3a b6ca 393a 7e08 2bba
000003c0: cc97 35bd 58d5 16bc 66d9 a5bb caaf 2ebc
000003d0: c838 b0bc d596 c53b 5cae 6fbc f7aa b1bc
000003e0: 856c e13b 1c1c 91bc ba09 a8bc 2017 783b
000003f0: c0ad 8bbc e3dc 65bb a3a5 ccbb 5784 e23a
0.0030906457 -0.0017690306 -0.0029535904 -0.0024350348 0.00077952346 -0.001397413 -0.0010430824 0.0019805576
-0.0013899717 -0.00073259533 -0.0006818672 0.004156516 0.003769424 -0.0024044046 -0.0021433483 -0.0019062746
-0.0011581286 0.00026611332 -0.0037465922 0.00096436375 -0.03630285 -0.010743875 -0.00072583364 -0.013415412
-0.013536737 0.006748461 -0.0107060885 -0.014795711 0.009339831 -0.012663721 -0.01633038 0.006748982
-0.011461766 -0.0032417518 -0.0056643514 0.0014048617 -0.003194363 0.0053982013 -0.0009821961 -0.0026574084
0.014342793 0.002266063 -5.560107e-05 0.0040270407 0.006202003 -0.00038843515 0.00647565 0.007615607
-0.00021390236 0.008538201 0.007280213 -0.00070723414 0.0064414046 0.0020076204 0.002299253 -0.0013423759
0.0027973722 -0.001958329 0.0020985529 -0.000157653 -0.009479543 -0.0028348973 -0.0028249244 -0.0025161486
-0.0038588285 -0.00015990675 -0.00570774 -0.0039440966 0.0027221094 -0.0035716947 -0.00433971 0.00052455906
-0.0030899951 -0.0011942371 -0.0033344254 0.0006326358 -0.0014605795 0.0013426809 -0.0011968554 -0.0012412004
0.0027842321 -0.00027045328 -0.0004592992 -4.8297225e-05 0.003727174 -0.0025865808 0.00041329255 0.0038663046
-0.0020964243 0.0017631361 0.0043208115 -0.0032393653 -0.00024927733 0.0006185785 0.00072895526 0.0004614962
-0.00011826676 -0.001512088 0.0013741445 0.0011118086 0.0071409433 0.0025733493 -0.00034864747 0.0035452114
0.0072703487 0.0030234398 0.006045581 0.007842421 0.0025613513 0.006275395 0.008852873 0.001080319
0.003720849 0.0020102868 0.0035630383 0.0012890904 0.0014656283 -0.0018583324 0.0032001291 -7.4035124e-05
0.008126429 0.0032478129 0.0017451859 0.0044238595 0.003605381 0.003300184 0.0027379547 0.003706418
0.0034408115 0.0028063168 0.0033558223 0.0040116124 0.003158958 0.0007752011 0.0018731048 0.0012441863
0.0014914882 0.0010838741 5.37839e-05 -0.0003274018 0.001032989 0.0004220457 -0.00023074007 0.0005802474
-5.976467e-05 0.00012169902 0.000167741 0.00025976694 0.00051303697 0.00024545717 0.0004531561 0.00039817177
0.0004813103 7.1045295e-05 0.0002911024 0.0002514756 -1.6748583e-05 4.0886855e-05 -2.0753583e-05 -9.097042e-06
-0.011873055 -0.00021761481 0.0015829457 -0.001974593 -0.009982903 -0.0003827339 -0.007930761 -0.009313705
-0.0008959711 -0.010913861 -0.009877392 0.00093950843 -0.007705421 -0.0016615291 -0.0034285227 -0.00069816085
-0.00037958875 0.002714084 -0.0031199462 0.00030634066 0.002123356 0.00012197069 8.67178e-05 -7.2103103e-07
0.00025859196 -9.312864e-05 0.00037080658 0.0002898735 -1.8076142e-05 0.00030777347 0.00031090566 -8.460737e-05
0.00032534156 -2.1867995e-06 -7.542863e-05 -4.3051918e-05 6.178716e-05 -2.4552632e-05 3.5366153e-05 -4.9314614e-05
0.0047547086 0.0014275676 -0.0006369217 0.0042526703 0.0032176329 -0.00019237152 0.0035123636 0.0039465087
-0.0011830089 0.0017632021 0.0035112847 0.0030440667 0.0023819115 0.00016706844 -0.00024561558 -0.0004210167
0.0008031113 -0.0008228422 0.00048797354 0.00024616366 0.0011360636 -0.00026689062 0.00067270687 0.00061808154
0.0021171072 0.0009094271 0.0005961327 0.0010823723 0.0027167485 0.0029124878 -0.00028921152 0.0015194316
0.0023370422 0.00032619457 0.001801664 0.0016909146 -0.0008289275 0.0012056882 0.0007087396 -0.0006524398
-0.044334218 -0.009206139 -0.0050613163 -0.010662029 -0.02151145 0.0060299435 -0.014628973 -0.021687968
0.0068793916 -0.017713599 -0.02051245 0.003785558 -0.017050624 -0.0035074286 -0.0062453314 0.0017281872

exp_avg_sq f4 [128, 20]
00000000: 7978 c23b 8646 e539 0f83 0c39 d440 873a
00000010: b876 5f3a 96dc 4f39 ed2f a43a 1e62 913a
00000020: 06e4 6439 457d 8a3a f8fb 9e3a 8a6d 7239
00000030: 9a01 8d3a 9dab ae38 ce1d 2c39 d326 a338
00000040: 2573 0c39 0a20 4638 35a9 5638 f8a4 cf37
00000050: ef01 bb3b 4dcb a639 635f d538 8493 283a
00000060: e885 023a 8c6f 2c39 ba16 293a b141 243a
00000070: cbc6 4439 54dd 303a ef2e 333a f8ff 4839
00000080: 2c7f 313a 8b9f 8138 a913 2939 c92f 8e38
00000090: 42a5 9e38 873f 2638 7e17 8338 9b2c 9c37
000000a0: ce3b 1d3b 0551 b938 3d2c 3838 806f 9e39
000000b0: fc51 7839 dcea 8e38 ee99 f139 a92f cd39
000000c0: 1dfb b538 07c4 c639 fd00 e639 81d7 be38
000000d0: f24a c039 204d 1238 a807 2238 0d99 e837
000000e0: 90d3 7538 7bca ae37 b658 ab37 c9a6 1c37
000000f0: 7a96 363b 7e31 1f39 6ec6 8d38 104d f139
00000100: f18d 4939 2cae e338 1847 df39 b25c 6839
00000110: 5ddb ff38 8cd6 e539 4fa5 8839 7128 0739
00000120: 1a43 fe39 d866 2138 6016 a538 9351 2638
00000130: d5c4 6238 09b0 c537 4eb9 fc37 439c 4837
00000140: a44b e43a eb61 8739 f07b 1a38 c173 bc39
00000150: 07a0 c039 4897 9038 b84d f039 2ffb d939
00000160: 9d94 c138 8fcf f239 05d2 e639 f465 cc38
00000170: 977c ef39 27e1 0138 c445 ae38 23e5 0738
00000180: 6684 1c38 333e 9937 788d c037 2164 1137
00000190: e654 d139 7f66 6e38 c128 b337 5f9c 3739
000001a0: e446 d938 6627 1838 9a05 4a39 061a 0739
000001b0: 63c6 4338 994a 4c39 5ca9 1b39 a728 5838
000001c0: 59fa 6239 c37d c937 38a3 3d38 9749 8d37
000001d0: cf6a 4338 6f2b 8637 4952 1338 159c 1e37
000001e0: 94e4 4f39 10f5 d438 28b7 bd37 af3d 2d39
000001f0: 044e 6739 2430 1438 b2ea fe38 17ab 8539
00000200: 1569 2e38 5778 0539 b313 8f39 8a88 3338
00000210: 6ac6 0c39 0246 c237 974e 1f38 89ed 4a37
00000220: 0e4c 3338 31a2 4937 8bae ca37 f07e 6f37
00000230: 251f 1638 8c5d 0b36 e260 ca35 edda ff37
00000240: 8d4e c436 5ebf ca36 5803 da36 1ba2 d037
00000250: 7e07 c236 8878 aa37 e9b5 0c38 8b6b e636
00000260: 120c a137 e083 b535 942c 9836 c73f 9b35
00000270: 02c1 1c36 5448 4535 e94f f534 5cc4 d934
00000280: 8cad a63a 1476 1239 42be 5238 c195 d838
00000290: 2739 9139 73dd 8438 a1db 8039 f089 9b39
000002a0: 6363 9a38 f189 6f39 94a6 a439 1ba4 9338
000002b0: 2e9c 6439 db17 7237 f175 8a38 a059 c537
000002c0: bebe 6137 f8aa 2937 ec52 7637 a56d ed36
000002d0: 1b4b a439 9973 eb35 82ea 0136 ae74 fb35
000002e0: f53a c136 aa6b 2536 0334 9737 bd89 e336
000002f0: 3b1c 8a36 d688 0737 1459 fe36 9204 a236
00000300: 9f28 ba36 2173 9535 f02f e435 c2cd 4e35
00000310: edb3 8635 7de7 2435 7422 0235 991e 2834
00000320: 5efe d13a c84e d438 6c1b 0b38 6422 8439
00000330: ad57 8339 8cff 3138 6af5 b138 6cc3 b839
00000340: a19a 4b38 3aa8 0639 42e3 bf39 79f0 7038
00000350: 0fca 1839 f26c 6f37 3c75 7337 ef0c 8037
00000360: 99c7 2037 5fee 2937 d5ab d136 669d 8636
00000370: c3e7 2d3b e553 6a39 6288 7c38 e7e3 a439
00000380: 1100 dd39 0d3f cd38 c707 e739 adc1 0e3a
00000390: 9b7a dd38 35d7 e239 3c12 1a3a 6486 e038
000003a0: f732 e639 5c04 0c38 3caf ac38 caf1 1b38
000003b0: dd76 0838 3a88 ac37 8e27 b237 9d0a 4137
000003c0: 9c77 e33b d6d0 d339 4304 1039 c8fa 8a3a
000003d0: 8150 433a 4a73 8439 f032 8a3a 8cb3 703a
000003e0: 0d5b 9c39 5026 923a 5638 843a cfc2 a139
000003f0: 035c 973a 65f7 a638 0c72 7839 d3bf b038
0.0059347716 0.00043730828 0.00013400264 0.0010319003 0.00085244654 0.00019823233 0.001252649 0.0011091863
0.0002182872 0.0010565898 0.0012129536 0.00023119725 0.0010757924 8.328932e-05 0.00016414301 7.779677e-05
0.00013394335 4.7236717e-05 5.1179162e-05 2.4753142e-05 0.0057070176 0.00031813458 0.000101743986 0.0006430673
0.000497906 0.00016444753 0.0006450225 0.00062658923 0.00018766073 0.00067468476 0.0006835302 0.00019168842
0.0006770964 6.1809165e-05 0.0001612442 6.779988e-05 7.564809e-05 3.963665e-05 6.2509425e-05 1.861742e-05
0.0023991945 8.8365785e-05 4.391022e-05 0.00030219182 0.00023681665 6.8148336e-05 0.0004608179 0.00039136157
8.677526e-05 0.00037911555 0.00043869755 9.100047e-05 0.00036676932 3.488094e-05 3.863094e-05 2.7727825e-05
5.8609585e-05 2.0836704e-05 2.0426098e-05 9.337157e-06 0.0027860687 0.00015181859 6.760364e-05 0.00046024518
0.00019221731 0.000108566455 0.00042586843 0.00022159776 0.00012200207 0.00043838134 0.00026063106 0.00012889669
0.0004849665 3.8481172e-05 7.871981e-05 3.9653456e-05 5.4065913e-05 2.3566203e-05 3.012703e-05 1.19573115e-05
0.0017417562 0.0002582216 3.6831887e-05 0.00035944398 0.00036740323 6.8946334e-05 0.00045834272 0.00041576612
9.2306385e-05 0.0004631248 0.00044025495 9.746468e-05 0.0004567846 3.0965686e-05 8.3099614e-05 3.239991e-05
3.7316604e-05 1.8267985e-05 2.295406e-05 8.665987e-06 0.0003992684 5.683908e-05 2.135744e-05 0.00017510493
0.00010360571 3.6276317e-05 0.00019266308 0.00012884298 4.6676385e-05 0.00019482746 0.00014845043 5.1536274e-05
0.00021646301 2.401963e-05 4.521312e-05 1.6842778e-05 4.6591096e-05 1.599427e-05 3.5124165e-05 9.453875e-06
0.0001982621 0.00010154594 2.2615845e-05 0.00016521545 0.0002205894 3.5330784e-05 0.00012155379 0.0002549521
4.1582698e-05 0.00012728698 0.00027289763 4.2804088e-05 0.00013425355 2.3159202e-05 3.7981747e-05 1.2095444e-05
4.2747757e-05 1.2018297e-05 2.4161554e-05 1.4275065e-05 3.5791792e-05 2.0767066e-06 1.5078369e-06 3.0500314e-05
5.8503997e-06 6.042347e-06 6.4972955e-06 2.4871018e-05 5.7825227e-06 2.0321706e-05 3.3548018e-05 6.867054e-06
1.9198316e-05 1.3523932e-06 4.5351426e-06 1.1566962e-06 2.3358157e-06 7.349347e-07 4.5692948e-07 4.056227e-07
0.0012716516 0.00013967633 5.0245093e-05 0.000103275765 0.00027699137 6.3354986e-05 0.000245777 0.00029666675
7.3618045e-05 0.00022844203 0.00031404628 7.040073e-05 0.00021801956 1.4429878e-05 6.602321e-05 2.3525965e-05
1.3455456e-05 1.0112992e-05 1.4682049e-05 7.0759147e-06 0.00031336476 1.7542508e-06 1.9359e-06 1.8734916e-06
5.7587117e-06 2.4649585e-06 1.8024823e-05 6.781162e-06 4.116007e-06 8.078487e-06 7.58016e-06 4.8285083e-06
5.547961e-06 1.1134872e-06 1.7001275e-06 7.70404e-07 1.0036143e-06 6.143162e-07 4.847891e-07 1.565735e-07
0.0016021242 0.00010123622 3.316572e-05 0.00025202625 0.0002505159 4.2438085e-05 8.4857296e-05 0.00035240815
4.854298e-05 0.00012841905 0.0003659968 5.7444417e-05 0.00014571122 1.4270876e-05 1.4511224e-05 1.5264812e-05
9.583216e-06 1.0128685e-05 6.2486893e-06 4.011835e-06 0.0026535846 0.00022347232 6.02085e-05 0.00031450318
0.00042152454 9.786906e-05 0.00044065548 0.000544573 0.00010560938 0.0004326642 0.0005877351 0.000107061845
0.0004390699 3.338266e-05 8.234239e-05 3.7180063e-05 3.2535627e-05 2.0567433e-05 2.1237673e-05 1.15061675e-05
0.006941749 0.0004040065 0.00013734498 0.0010603303 0.00074506557 0.000252629 0.0010543745 0.0009182028
0.00029822477 0.0011150334 0.001008759 0.00030853457 0.0011547807 7.961578e-05 0.00023693609 8.428064e-05

exp_avg f4 [128]
00000000: 6efa a7b9 c7c3 1cbb 0cb4 5f3a 2508 4fba
00000010: 1813 a939 2e9a 4b3a 9ab6 273a 6877 8d38
00000020: 60c5 7dba ce83 c338 c614 113a 301f 6e38
00000030: c50b 20bb 2279 0aba 48a8 9f38 433a 923a
00000040: 3bca 70ba 1e1c 233b fa30 b63a da67 703a
00000050: 8d93 e838 802b db36 8b31 9b3a b0b4 48b9
00000060: 0075 aeb7 6019 09b6 0d6d 22b8 34ec 9d39
00000070: d496 3637 6cc4 53ba 649d ef3a 48b4 3bb7
00000080: d9e0 2439 8383 3639 e60b 43bb 7004 20bb
00000090: 6134 2739 ecc6 4eb8 a8e8 773a c9ea 21bb
000000a0: 2cde 9eb9 1f16 1bba 4a71 76ba 38f4 0dba
000000b0: 8567 e1b9 4ab3 ccba 088f ea38 a676 f6ba
000000c0: ac80 073b a2f6 37bb dc72 4eba 5f29 c63a
000000d0: b207 97b9 2dfd 59ba 2a22 253b 48f8 d039
000000e0: 9428 133a 9427 e63a 6766 9eb9 a787 8eba
000000f0: 7576 0cba ac95 15bb 4c41 02ba 23be 293a
00000100: 0cc3 58ba e8c9 bd3a bf2a ffb8 ce5b 6b39
00000110: b04e af3a 8e82 a7ba 9bd0 ffb8 3af6 3cba
00000120: 4c22 3eba 1edf b53a c1ba c839 6046 03bb
00000130: 74a7 3c3b 6bea 18ba 3a93 1f3a e767 f1ba
00000140: 1c05 c3b9 035d 0dba 903f 9038 5cce 6b3a
00000150: e69d 49ba bfa1 8437 f82c 373a 62b0 893b
00000160: 7e32 d839 bb0d 5d3b efe0 343b 5893 05bb
00000170: 92b6 b5b9 7e1f 8cb8 8a3c 19ba 079e dfb7
00000180: 6824 a2b9 35a8 0639 8ad3 6b39 36e1 d43a
00000190: 754f b1b9 da6a 0aba e463 eab9 b855 b53a
000001a0: 3701 d939 703d 8f39 62eb abba 98e7 52bb
000001b0: 9801 86b8 6c9a f0b9 ad2f bd3a 3f2a 04b9
000001c0: 9008 293b 54ec 083b 11d8 f13a 2d1f 27bb
000001d0: 7651 ed39 4e1d 0a38 357d adba f97c 7eba
000001e0: 0076 2336 f7f4 b4b8 6c55 b6b9 6c74 9cb8
000001f0: 22fb e33a 8aac 863a 5d29 33bb 24f2 45ba
-0.00032039307 -0.0023920403 0.0008533604 -0.0007897637 0.00032248418 0.000776681 0.0006397754 6.745645e-05
-0.0009680595 9.322875e-05 0.00055344065 5.6772667e-05 -0.0024421078 -0.00052823324 7.613056e-05 0.0011156279
-0.0009185408 0.0024888585 0.0013900094 0.00091707485 0.000110901055 6.5317727e-06 0.0011840326 -0.00019140798
-2.0796899e-05 -2.042936e-06 -3.872537e-05 0.0003012136 1.0883163e-05 -0.00080782804 0.0018281159 -1.1188044e-05
0.00015724021 0.00017405864 -0.002976173 -0.0024416707 0.00015945874 -4.9299488e-05 0.0009456971 -0.0024706593
-0.0003030164 -0.0005916077 -0.00094010367 -0.00054151146 -0.00042992472 -0.0015617397 0.00011184631 -0.001880367
0.002067606 -0.0028070589 -0.0007875392 0.0015118531 -0.00028806698 -0.0008315619 0.0025197365 0.00039857836
0.00056136516 0.0017559403 -0.00030212404 -0.0010874168 -0.00053582276 -0.0022824807 -0.00049688364 0.0006475171
-0.00082688103 0.0014479728 -0.000121673096 0.00022445546 0.0013374891 -0.0012779997 -0.00012198203 -0.00072083215
-0.00072530354 0.0013875698 0.00038286115 -0.002003096 0.0028786333 -0.0005833271 0.0006087307 -0.0018417806
-0.00037197105 -0.0005392583 6.8782945e-05 0.00089952885 -0.000769107 1.5810945e-05 0.0006987597 0.0042019347
0.0004123635 0.0033730108 0.0027599891 -0.0020382013 -0.00034659036 -6.681586e-05 -0.0005845508 -2.6657259e-05
-0.00030926173 0.00012841898 0.00022490151 0.0016241434 -0.0003381927 -0.00052802044 -0.00044706382 0.001383475
0.0004139037 0.0002732086 -0.0013116414 -0.0032181498 -6.389915e-05 -0.0004589142 0.0014433764 -0.00012604239
0.0025792457 0.0020892816 0.0018451234 -0.002550076 0.00045264856 3.2929056e-05 -0.0013236167 -0.00097079534
2.4357578e-06 -8.628697e-05 -0.0003477739 -7.460345e-05 0.0017393569 0.0010274809 -0.0027337887 -0.00075510354
